checkpoints/li_et_al/no_class_balancing/Salinas_PCA_Split_8/epoch15_0.96.pth (torch, 140666 bytes, 6 tensors)

conv1.weight f4 [16, 1, 7, 3, 3]
0	0x3e3c43f2	0.18385294
1	0x3e52cc86	0.20585832
2	0x3e5e81f7	0.21729265
3	0x3e42e621	0.190331
4	0x3e18a848	0.14907944
5	0x3e4a760b	0.19771592
6	0x3e0feb89	0.14054693
7	0x3e18c904	0.14920431
8	0x3e40163a	0.18758479
9	0xbe03c49b	-0.12867968
10	0xbdd94a62	-0.106098905
11	0xbdf1c9ba	-0.118060544
12	0xbd8de741	-0.06928874
13	0xbe1d0ab8	-0.1533612
14	0xbe3378aa	-0.17526498
15	0xbdc0c0fb	-0.09411808
16	0xbdb19422	-0.08670832
17	0xbe2c5549	-0.16829409
18	0xbcb31542	-0.021860722
19	0x3d047054	0.032333687
20	0xbd39a4a4	-0.04532303
21	0xbd2a2b36	-0.041545115
22	0xbd010340	-0.03149724
23	0xbc3fab8b	-0.011698614
24	0xbd3770eb	-0.04478542
25	0xbd105b32	-0.03524322
26	0xbdc223c9	-0.09479482
27	0x3d34af7d	0.04411267
28	0x3c77ce2c	0.015124839
29	0xbd284e0b	-0.041090053
30	0xbcdfe08b	-0.02732875
31	0x3d265b4c	0.04061441
32	0xbcf9c750	-0.030490547
33	0x3d06dcab	0.03292529
34	0xbd3025a3	-0.043004643
35	0x3c089865	0.008337115
36	0xbe26f448	-0.16304123
37	0xbe1cfb5e	-0.15330264
38	0xbdff97b6	-0.124801084
39	0xbe165c1d	-0.14683576
40	0xbe0d8101	-0.13818742
41	0xbe6d1f40	-0.23156452
42	0xbe387516	-0.18013415
43	0xbe409e56	-0.188104
44	0xbe907aa1	-0.28218558
45	0xbd54c3c5	-0.051944513
46	0x3c8cf03f	0.017204402
47	0x3c48feb2	0.012267755
48	0xbc2f4b41	-0.010699094
49	0xbd659f74	-0.05606027
50	0xbc9b6d7d	-0.018973107
51	0x3b970629	0.0046088886
52	0x3c23bc60	0.009993643
53	0xbd7c2564	-0.061559096
54	0xbdd5fbf6	-0.10448448
55	0xbd206bde	-0.03916537
56	0xbd8b5510	-0.06803334
57	0xbdb8e331	-0.09027708
58	0xbdf1c867	-0.11805802
59	0xbe1d910a	-0.1538736
60	0xbd5725c6	-0.052526258
61	0xbdb629d0	-0.08894694
62	0xbe119991	-0.14218737
63	0x3cc57a41	0.024106147
64	0x3d897ddd	0.0671346
65	0x3c3d6dcd	0.011561823
66	0x3d5f3fae	0.05450409
67	0x3d6eecf2	0.058331437
68	0x3d4c1adf	0.049830314
69	0x3ce88cf3	0.028387522
70	0x3d3ad98b	0.04561762
71	0x3d14dfc3	0.03634621
72	0xbd857c86	-0.065178916
73	0xbd805bac	-0.06267485
74	0xbc878820	-0.016544402
75	0xbd0ffeb2	-0.035155006
76	0xbd7c7289	-0.061632667
77	0xbdb2be6d	-0.08727727
78	0xbd74ea53	-0.05979378
79	0xbd12afe2	-0.035812266
80	0xbdd37c9e	-0.10326503
81	0xbe0ee600	-0.13954926
82	0xbe0938fb	-0.13400643
83	0xbdf58c93	-0.11989703
84	0xbe2aabbd	-0.16667075
85	0xbe1af6a9	-0.15133156
86	0xbdef518f	-0.11685478
87	0xbe0b910a	-0.13629547
88	0xbe0dc81a	-0.13845864
89	0xbe1fd61d	-0.15609021
90	0xbdd67168	-0.10470849
91	0xbe384dd3	-0.17998438
92	0xbe360f08	-0.17779171
93	0xbe3c8d18	-0.18413198
94	0xbdc61aae	-0.096730575
95	0xbdd414fb	-0.10355564
96	0xbe461b87	-0.19346438
97	0xbe02780f	-0.12741111
98	0xbe1fa635	-0.15590747
99	0xbe1429fe	-0.14469144
100	0xbdc003fb	-0.09375759
101	0xbddc73d2	-0.107642785
102	0xbdc5bc99	-0.09655113
103	0xbd99d327	-0.07510977
104	0xbdc26592	-0.09492029
105	0xbe1d4b1d	-0.15360685
106	0xbdcc7aaf	-0.099843375
107	0xbd8d5280	-0.06900501
108	0xbd728c28	-0.059215695
109	0xbd3672c5	-0.044543047
110	0xbd389b6c	-0.045070097
111	0xbd467d67	-0.048459437
112	0xbd19bc5e	-0.037533157
113	0xbdd97db5	-0.1061968
114	0xbdf5ba25	-0.11998395
115	0xbd4ff9e0	-0.05077541
116	0xbd94f844	-0.072739154
117	0xbd40e059	-0.047088955
118	0xbdeb8134	-0.11499253
119	0xbe006b17	-0.12540852
120	0xbe0d5cb5	-0.13804896
121	0xbdad1d8d	-0.08452902
122	0xbdbcc06c	-0.09216389
123	0xbda55979	-0.08073706
124	0xbda51bd7	-0.08061951
125	0xbde6ea02	-0.11275102
126	0x3f3ed48b	0.74543065
127	0x3edba45e	0.4289884
128	0x3e7a2ac6	0.2443038
129	0x3f0977c9	0.536984
130	0x3e90c0aa	0.2827199
131	0x3e48b721	0.19601108
132	0x3f091ac0	0.5355644
133	0x3e6df96f	0.23239683
134	0x3e996991	0.29963353
135	0x3ebd2785	0.36944214
136	0x3e0f4bf3	0.13993816
137	0x3d8d4a41	0.068989284
138	0x3e224ce3	0.15849642
139	0xbd97f5ef	-0.07419955
140	0xbe0654cc	-0.13118285
141	0x3daf72f6	0.08566849
142	0xbde631c3	-0.1123996
143	0xbd4972dd	-0.049181808
144	0xbe736c3a	-0.23771754
145	0xbe2117b2	-0.15731695
146	0xbd8693b0	-0.06571138
147	0xbe017b08	-0.12644589
148	0xbe0cda5d	-0.13755174
149	0xbdaf89ce	-0.08571206
150	0xbe3cefa9	-0.18450798
151	0xbdbdc29b	-0.09265634
152	0xbd0664fa	-0.032811143
153	0xbc3beb1e	-0.0114696305
154	0x3e4f2e5b	0.20232527
155	0x3e8167a5	0.25274387
156	0x3dee0ded	0.1162375
157	0x3e9e2b9b	0.30892643
158	0x3ed09930	0.40741873
159	0x3ea7b03e	0.3275165
160	0x3ec3efca	0.38268882
161	0x3edde5a1	0.43339255
162	0x3e9313f4	0.2872616
163	0x3e9de7d4	0.30840933
164	0x3e8315d7	0.256026
165	0x3eaa95e3	0.3331748
166	0x3e7523b0	0.23939395
167	0x3e862b6f	0.26205012
168	0x3e8b32f1	0.27187303
169	0x3e896aa6	0.2683918
170	0x3ebf6d80	0.3738823
171	0x3f7048a2	0.9386083
172	0x3f6aec9e	0.917673
173	0x3f677fcc	0.9042938
174	0x3f65873e	0.8965949
175	0x3f5b71af	0.8572034
176	0x3f40a6f2	0.7525474
177	0x3f68f3c0	0.90996933
178	0x3f5b48bd	0.85657865
179	0x3f517c3a	0.8183018
180	0x3ee9caaa	0.45662433
181	0x3eaf24ea	0.3420785
182	0x3e593c29	0.21214356
183	0x3e8e6a8a	0.27815658
184	0x3e27dd8d	0.16393109
185	0x3e0e857b	0.13918106
186	0x3e740300	0.2382927
187	0x3e43b887	0.1911336
188	0x3e4fb361	0.20283271
189	0x3d432840	0.047645807
190	0xbcf29fb2	-0.029617164
191	0x390dc3e0	0.00013519777
192	0x3a023a97	0.0004967837
193	0xbb82456d	-0.0039755614
194	0x3bd0cfab	0.006372412
195	0xbd37b3d3	-0.044849228
196	0x3c687219	0.014187359
197	0xbc12a496	-0.008950373
198	0xbcac95d4	-0.021067537
199	0x3cebe36b	0.028794965
200	0xbac57e92	-0.0015067628
201	0x3bcb8064	0.0062103737
202	0x3c20e627	0.009820498
203	0xbcaf513f	-0.021401046
204	0xbcd71f0f	-0.026259927
205	0x3a9ea6a6	0.0012104108
206	0x3cd82699	0.026385592
207	0xb9fa46ba	-0.0004773641
208	0xbcba7093	-0.022758758
209	0xbcd3fd20	-0.025877535
210	0xbd11d252	-0.035600968
211	0x3c226e80	0.009914041
212	0xbcf994c0	-0.030466437
213	0xbd40bef5	-0.04705711
214	0x3ad0a108	0.0015917132
215	0x3b58680e	0.0033021006
216	0xbc40b8b8	-0.01176279
217	0xbcc4f4a1	-0.02404243
218	0xbc814f97	-0.015785022
219	0x3cd04893	0.025425231
220	0xbcc578e9	-0.024105506
221	0xbc252dda	-0.010081733
222	0xbc5c449d	-0.013444093
223	0xbd21874d	-0.039435674
224	0xbb60b696	-0.0034288517
225	0xbcb47955	-0.022030512
226	0xbd035ab7	-0.032068934
227	0x3c17d6c1	0.00926751
228	0x3d008bbb	0.031383257
229	0xbc82eaa1	-0.01598102
230	0xbbc47e90	-0.0059965327
231	0x3d2be526	0.04196658
232	0x3cc55554	0.02408854
233	0xbd260760	-0.040534377
234	0x3d0c194b	0.03420381
235	0x3ccc2405	0.02491952
236	0x3cdf5a75	0.027264813
237	0x3d1d126f	0.038347658
238	0xbc105c69	-0.008811095
239	0xbcda5207	-0.026650442
240	0x3c07da3c	0.008291777
241	0xbd0a35ea	-0.033742823
242	0x3bfef55d	0.0077807144
243	0x3bcb1fbe	0.0061988523
244	0xbcf9b3fe	-0.030481335
245	0xbd30e2bc	-0.04318498
246	0xbcb1cdc0	-0.021704555
247	0x3c3c5688	0.01149524
248	0xbca3b9e6	-0.019986104
249	0x3d3b92c1	0.045794252
250	0x3c22f5e7	0.009946323
251	0xbd0b5dc1	-0.034024958
252	0xbf1ccc0b	-0.61248845
253	0xbeff55c8	-0.49870133
254	0xbef14790	-0.4712491
255	0xbf014758	-0.50499487

conv1.bias f4 [16]
0	0xbf780b1c	-0.9689195
1	0xbf4bae2f	-0.7956266
2	0xc0569566	-3.3528686
3	0x00000000	0.0
4	0x400138bc	2.0190878
5	0x3b9c9f49	0.0047797305
6	0x3e6d2f82	0.23162654
7	0xbf4cddec	-0.80026126
8	0xbfa6b0fb	-1.302276
9	0x381a2691	3.675238e-05
10	0xbe97e763	-0.29668722
11	0x3f742225	0.953646
12	0x401f4a15	2.4888966
13	0xbee1faba	-0.44136602
14	0xbc0f42cd	-0.008743954
15	0x3f9b37a8	1.212636

conv2.weight f4 [32, 16, 3, 3, 3]
0	0xbc5ae80b	-0.013360987
1	0xbd976658	-0.073925674
2	0xbd32f4cc	-0.043690488
3	0x3c1a0466	0.009400463
4	0x3ba690de	0.0050831875
5	0x3c361434	0.011113215
6	0xbd3dd33f	-0.046344038
7	0xbc982c56	-0.018575829
8	0x3c9230b8	0.017845497
9	0xbd4624b9	-0.048374865
10	0xbc84f4cf	-0.016230015
11	0xbc66cb29	-0.014086523
12	0xbbf7fd3a	-0.0075680288
13	0xbc59a512	-0.013283985
14	0xbd3109af	-0.043222126
15	0x3b8b6944	0.004254492
16	0xbd1efaf8	-0.03881356
17	0xbb853680	-0.004065335
18	0xbcf5c364	-0.030000396
19	0xbd52b7b1	-0.051444713
20	0xbdaf5448	-0.08560997
21	0xbd82617b	-0.06366249
22	0xbd9076b3	-0.0705389
23	0xbd314b73	-0.043284845
24	0xbae005bf	-0.0017091556
25	0x3c9dac2d	0.019247139
26	0xba24196e	-0.0006259893
27	0xbce12d49	-0.027487414
28	0xbd4299cf	-0.047509965
29	0x3c1054f4	0.008809317
30	0x3c5ea7d9	0.013589823
31	0xbcb0afe4	-0.021568246
32	0x3ce4f47a	0.027948607
33	0x3ba00353	0.004883209
34	0xbd114039	-0.035461638
35	0x3c5d4fc0	0.013507783
36	0x3c29524e	0.010334564
37	0xbc2e4562	-0.010636659
38	0xbc7cc524	-0.015427861
39	0x3c85a0e2	0.016312066
40	0xbcf1648d	-0.029466892
41	0xbc82f8c9	-0.01598777
42	0x3c03a351	0.008034543
43	0xbd0867cc	-0.033302113
44	0x3ce47687	0.02788855
45	0xbc0178c7	-0.007902331
46	0xbbfc3cde	-0.0076976856
47	0xbd2f96bd	-0.042868365
48	0xbb392686	-0.0028251722
49	0xbd8d60d9	-0.06903238
50	0xbd00ce25	-0.031446595
51	0x3c1d12a8	0.0095869675
52	0x3b933272	0.0044920975
53	0xbd4bd486	-0.049763225
54	0xbed2f7e4	-0.4120475
55	0xbec364d5	-0.38162866
56	0xbe78a7c8	-0.24282753
57	0xbe6a293f	-0.22867297
58	0xbe016d70	-0.12639403
59	0xbda89bdc	-0.08232853
60	0xbda61efa	-0.08111377
61	0xbb8d435a	-0.0043110074
62	0x3ce28b02	0.027654175
63	0xbe9761b3	-0.29566726
64	0xbe9f8d94	-0.31162703
65	0xbe6f9185	-0.23395355
66	0xbe22df8f	-0.15905593
67	0xbe22209d	-0.15832753
68	0xbdc7fc2a	-0.09764893
69	0x3c044027	0.008071936
70	0x3d8975a3	0.067118905
71	0x3e3b7fa9	0.18310417
72	0xbe161b83	-0.14658932
73	0xbe25d371	-0.1619394
74	0xbe260a32	-0.16214827
75	0xbdbe3afe	-0.092885956
76	0xbe11a0ff	-0.14221571
77	0xbcc50985	-0.02405239
78	0x3b7e7dc9	0.0038832298
79	0x3d9bfa65	0.07616118
80	0x3dcdc763	0.100477956
81	0xbcae15d1	-0.021250637
82	0xbd1bb0dd	-0.038010467
83	0xbcde9482	-0.027170423
84	0x3ceac1f3	0.028656935
85	0xbd0f47f2	-0.03498072
86	0x3c318b98	0.010836504
87	0xbc3532a4	-0.011059437
88	0xbd19f26c	-0.037584707
89	0xbcb696d0	-0.02228871
90	0xbcbc2305	-0.022965917
91	0x3d0ea025	0.034820694
92	0xbcea0d2e	-0.028570738
93	0xbd343323	-0.04399408
94	0x3c110daf	0.00885336
95	0xbbf78645	-0.007553848
96	0xbc72dc7b	-0.014823074
97	0xbccc2c82	-0.024923567
98	0x3d34fbda	0.044185497
99	0xbc7498f1	-0.014929042
100	0xbce7906b	-0.028267106
101	0x3c4d4ea8	0.01253096
102	0xbd30b540	-0.043141603
103	0x3ae701c3	0.0017624426
104	0x3d2af482	0.041737087
105	0x3cfc8007	0.030822767
106	0xbab57bb6	-0.0013846073
107	0xbcbe3383	-0.023217922
108	0x3debdbd5	0.11516539
109	0x3d327c77	0.04357573
110	0x3dc673df	0.096900694
111	0x3d1dcabe	0.03852343
112	0x3c89f4d3	0.016840374
113	0x3bd2dc8f	0.006434984
114	0x3b126cd9	0.002234271
115	0x3be02139	0.006839898
116	0x3c987a64	0.018613048
117	0xbc2a1db4	-0.010383058
118	0x3d008011	0.031372134
119	0x3c5fa516	0.013650199
120	0xbdec1ef2	-0.1152934
121	0xbdad0cc2	-0.08449699
122	0xbd9afada	-0.075673774
123	0xbe306568	-0.17226183
124	0xbe29d5c3	-0.1658545
125	0xbe1d81fa	-0.15381613
126	0x3d29ba37	0.041437354
127	0x3db63d2c	0.08898386
128	0x3bd4f074	0.006498391
129	0xbc7ba2f4	-0.015358675
130	0xbd087a32	-0.03331966
131	0xbd366c5e	-0.04453694
132	0xbd92e901	-0.07173348
133	0xbdf8ece9	-0.12154562
134	0xbdf9d665	-0.12199096
135	0xbd0194a1	-0.031635884
136	0xbd0e39d2	-0.03472311
137	0x3cb9758e	0.022639062
138	0xbcf25b94	-0.029584683
139	0x3c70ec75	0.014704813
140	0xbb551f58	-0.0032519903
141	0xbcfe3cbb	-0.031034818
142	0x3cb3096f	0.021855084
143	0xbb9fbe55	-0.0048749843
144	0xbbb2c97d	-0.005456148
145	0x3c92019c	0.017823033
146	0x3d2e4ca1	0.042553548
147	0xbbd8aa4d	-0.0066120983
148	0x3c133f19	0.008987212
149	0x3d0959ac	0.033532783
150	0xbd10e781	-0.03537703
151	0x3d39869e	0.045294397
152	0x3d36e955	0.044656117
153	0x3cfe5686	0.031047117
154	0xbc646ed8	-0.013942443
155	0xbcc66628	-0.024218634
156	0xbc8f6796	-0.017505448
157	0x3d12ccdf	0.03583991
158	0xbd2f08b5	-0.042732913
159	0x3ce4e6b1	0.027942033
160	0xbc36a6d9	-0.011148178
161	0xbb44301a	-0.0029935897
162	0xbcd05a30	-0.02543363
163	0xbd827057	-0.063690834
164	0xbc88fe52	-0.016722832
165	0xbc9a59c9	-0.018841641
166	0xbd33a84b	-0.04386167
167	0xbb82539c	-0.003977252
168	0xbcdf41b3	-0.027253008
169	0x3c8fbb5b	0.017545393
170	0x3cc6e3ef	0.02427861
171	0x3cd05626	0.025431704
172	0x3c4223c9	0.011849352
173	0x3ba1f68c	0.0049427208
174	0x3c500711	0.012696997
175	0x3d9ef4db	0.07761546
176	0x3d2dbea4	0.042418137
177	0x3d6a2633	0.057165336
178	0x3dd1b488	0.10239512
179	0x3d5022d1	0.050814454
180	0x3d1570bc	0.036484465
181	0x3d356815	0.044288713
182	0xbca22971	-0.019795151
183	0xbcc316aa	-0.023814518
184	0x3c599f5d	0.013282624
185	0x3d03f6bd	0.03221773
186	0x3d27b174	0.040940717
187	0xbcb4a943	-0.022053367
188	0x3d4bd581	0.04976416
189	0xbdd3a373	-0.1033391
190	0xbd8b333b	-0.06796881
191	0xbd968ed0	-0.07351458
192	0xbda5bd5e	-0.080927595
193	0xbdbf3d4f	-0.093378656
194	0xbd275dce	-0.040860943
195	0xbd2113ae	-0.03932541
196	0xbd2e3b9e	-0.042537324
197	0xbcf2b98f	-0.029629497
198	0xbe199adb	-0.15000479
199	0xbdfe6ae1	-0.12422729
200	0xbde4c422	-0.11170222
201	0xbe0ea6b8	-0.13930786
202	0xbdb81750	-0.089888215
203	0xbdd493fa	-0.10379787
204	0xbe073745	-0.13204677
205	0xbd9ee4b7	-0.07758468
206	0xbdb514f7	-0.08841889
207	0x3d26f90f	0.040764865
208	0xbcd98e7d	-0.026557202
209	0x3d34fda3	0.0441872
210	0x3b1b80b5	0.0023727838
211	0x3d5b7750	0.053580582
212	0x3cced900	0.025249958
213	0x3c7b9de1	0.0153574655
214	0x3dd07289	0.10178096
215	0x3ddfba1a	0.10924168
216	0xbd12bfdc	-0.035827503
217	0xbd710a2e	-0.0588476
218	0xbcc193d2	-0.023630057
219	0xbc24789d	-0.010038522
220	0xba13c039	-0.00056362484
221	0xbd14d905	-0.03633978
222	0xbd953d43	-0.07287075
223	0x3c9393fe	0.018014904
224	0x3cf067c9	0.029346364
225	0xbd9fce43	-0.07803013
226	0xbd0b4659	-0.034002636
227	0xbd900a24	-0.07033184
228	0xbd9688b0	-0.0735029
229	0xbd48c678	-0.0490174
230	0xbd0cd8b6	-0.03438636
231	0xbca6c65e	-0.02035826
232	0xbcd2e09a	-0.025741864
233	0x3c0b55bf	0.00850433
234	0xbd4ce27f	-0.05002069
235	0xbd8ccf8b	-0.06875523
236	0xbd9ab2ef	-0.0755366
237	0xbda41217	-0.08011263
238	0xbce91517	-0.02845244
239	0xbc898911	-0.016788991
240	0xbbc7bac4	-0.0060952622
241	0x3bee159e	0.0072657606
242	0x3d02a399	0.0318943
243	0x3bfc1d14	0.007693896
244	0xbc8be40e	-0.017076518
245	0x3d29adf7	0.04142567
246	0xbca4152f	-0.020029632
247	0xbc893bd7	-0.016752167
248	0xbc2aafd4	-0.010417897
249	0xbcb6880a	-0.022281665
250	0xbc63a0e4	-0.01389334
251	0xbd187dbb	-0.03722928
252	0x3ce3e725	0.02782018
253	0xbc881adb	-0.016614368
254	0x3d388802	0.045051582
255	0xbd0aaa57	-0.033853855

conv2.bias f4 [32]
0	0x3eb82678	0.3596685
1	0x3e2bab6f	0.16764615
2	0x3e978d7b	0.2960013
3	0x00000000	0.0
4	0x3d73b745	0.05950095
5	0xbe241b46	-0.16026029
6	0xbc4e9115	-0.012607832
7	0x3c16c339	0.009201818
8	0xbd919abe	-0.07109593
9	0xbdae0525	-0.08497075
10	0xbdb42c41	-0.08797503
11	0xbd7adda9	-0.061246548
12	0xbd801847	-0.062546305
13	0x3ef3833e	0.47561067
14	0xbdc98a47	-0.098408274
15	0x3eaa93ac	0.3331579
16	0xbc2e77cb	-0.010648678
17	0xbe7c28af	-0.24624895
18	0xbc71aa01	-0.014750005
19	0xbaf6ef57	-0.0018839639
20	0xbdf020e5	-0.11725024
21	0xbe4ea6ee	-0.20180866
22	0xbe836bf7	-0.25668308
23	0xbd88c55a	-0.06678267
24	0x3f5a9361	0.8538113
25	0xbd828e8f	-0.06374847
26	0xba989bdc	-0.0011643129
27	0xb9937a46	-0.00028129126
28	0x3cca026e	0.024659362
29	0xbda5e9d9	-0.081012435
30	0xbe0aa490	-0.13539338
31	0x3d8c9918	0.06865138

fc.weight f4 [17, 1152]
0	0xbc0c6ce0	-0.00857088
1	0xbcc4a5f2	-0.02400491
2	0x3c1ddadc	0.0096347
3	0x3cf0dba4	0.029401608
4	0xbc327ed7	-0.010894499
5	0xbd3172b3	-0.043322276
6	0xbbc69043	-0.006059678
7	0x3c8125a4	0.015765019
8	0x3b479a3f	0.0030456928
9	0xbd7fb0df	-0.062424537
10	0x3bbfda48	0.0058548786
11	0xbce73ce4	-0.028227277
12	0xbd72e02a	-0.05929581
13	0xbd398ee7	-0.045302298
14	0xbd3c7353	-0.04600842
15	0x3a0bb0fc	0.0005328802
16	0x3c1f6a0a	0.0097298715
17	0xbd31f7b6	-0.043449126
18	0xbd4b5dc7	-0.04964998
19	0x3c826a33	0.01591978
20	0xbd78d830	-0.060753047
21	0xbc117e1c	-0.0088801645
22	0xbd929409	-0.07157142
23	0xbd9e42b1	-0.07727564
24	0xbd8e6c7f	-0.06954288
25	0xbd887e7d	-0.06664751
26	0xbd82beef	-0.06384074
27	0xbc984f83	-0.018592602
28	0x3cb85c34	0.022504903
29	0xbcaf8404	-0.021425255
30	0x3b0c53f3	0.0021412342
31	0x3c05411b	0.008133198
32	0xbd205f3c	-0.039153323
33	0x3c9d7cd6	0.019224565
34	0x3ca56f3a	0.020194639
35	0xbd03550f	-0.03206354
36	0x3c0142e8	0.007889487
37	0x3c60c09d	0.013717798
38	0xbced44cb	-0.028963467
39	0xbc7333e2	-0.014843913
40	0x3cbd9bfe	0.023145672
41	0x3d19877d	0.037482727
42	0x3ac56913	0.0015061222
43	0x3cc7d7f8	0.024394974
44	0xbc716d80	-0.0147355795
45	0x3d33d707	0.043906238
46	0xbd509892	-0.050926752
47	0x3d268dec	0.04066269
48	0x3c312f11	0.010814444
49	0x3ce4e627	0.027941776
50	0x3bc29c2d	0.0059390278
51	0x3d2a3fe3	0.041564833
52	0xbd06a2e1	-0.032870177
53	0x3cdd56c6	0.027018916
54	0x3d29dceb	0.04147045
55	0x3a2889b0	0.00064292084
56	0xbc9de4d2	-0.01927415
57	0xba98267f	-0.0011608152
58	0x3cd4ca49	0.025975363
59	0x3d06c6a4	0.032904282
60	0xbd108788	-0.035285503
61	0xbd3a91dc	-0.04554926
62	0x3c962005	0.018325815
63	0xbd0f873a	-0.03504107
64	0x3cc17363	0.023614591
65	0xbd0dd152	-0.03462345
66	0x3ce1594b	0.027508399
67	0xbc19594f	-0.009359672
68	0x3c0dac39	0.008647018
69	0x3c936a4d	0.017995024
70	0x3cf27f99	0.029601859
71	0xbc8e3aad	-0.017361963
72	0xbd19a25e	-0.03750836
73	0xbd046b36	-0.032328807
74	0x3c64c9c7	0.013964123
75	0xbca232b2	-0.019799564
76	0xbcd86760	-0.02641648
77	0xbcdeaa37	-0.027180774
78	0xbce1ed82	-0.027579073
79	0xbd3eb364	-0.0465578
80	0xbc8b7bf5	-0.01702688
81	0xbd38aecf	-0.045088585
82	0xbd5ee40f	-0.054416712
83	0x3c294432	0.0103312
84	0xbd8397e9	-0.06425459
85	0xb6bc674e	-5.614863e-06
86	0xbca7d9ff	-0.02048969
87	0xbd2ec702	-0.042670257
88	0x3ccab3e4	0.024743982
89	0x3c1a106b	0.009403328
90	0xbce60afb	-0.028081408
91	0xbd738204	-0.059450164
92	0xbd473fe9	-0.048644934
93	0x3ca83f7b	0.020538082
94	0xbb51c948	-0.0032010842
95	0xbc985edb	-0.018599918
96	0xbba63723	-0.005072491
97	0xbd5fb629	-0.05461708
98	0xbc64f67a	-0.01397478
99	0x3d0cf85a	0.034416534
100	0x3c243865	0.010023211
101	0x3cce0453	0.025148546
102	0x3cb0d51f	0.021585999
103	0x3c2aad72	0.010417329
104	0xbbf37f87	-0.007430974
105	0x3d0f0d78	0.034924954
106	0xbc1ca75f	-0.009561389
107	0xbcce1606	-0.025156986
108	0xbae71cde	-0.0017632504
109	0xbd1898e8	-0.037255198
110	0xbbf874a1	-0.0075822626
111	0x3d3b2336	0.045687877
112	0xbba76678	-0.005108651
113	0xbc2594eb	-0.010106306
114	0x3a2e6076	0.0006651947
115	0xbd411505	-0.047139186
116	0x3c65f75f	0.014036029
117	0xbbc9a90d	-0.0061541856
118	0xbbd41cd8	-0.006473165
119	0x3cfa2dea	0.030539472
120	0x3d2840c3	0.041077387
121	0x3b100fb6	0.002198202
122	0x3ce307fe	0.027713772
123	0x3ae339d4	0.001733596
124	0xbbb705fa	-0.0055854293
125	0x3a66b974	0.00088014384
126	0xbca023fa	-0.019548405
127	0x3cf41ba2	0.029798333
128	0x3cde8139	0.027161228
129	0xbb70d04e	-0.0036745253
130	0x3cdb1244	0.026742108
131	0x3b9891aa	0.0046560364
132	0xbd12cffc	-0.03584288
133	0x3d12df95	0.035857756
134	0xbd20cecc	-0.039259717
135	0xbc0a75e9	-0.008450964
136	0x3d1f0411	0.038822237
137	0x3c20c273	0.009811985
138	0x3acd22d1	0.0015650635
139	0xbc0ebd9e	-0.0087122
140	0x3ac701f9	0.0015183083
141	0x3ce412cc	0.027840994
142	0x3c2f911a	0.010715747
143	0x3c01663a	0.007897908
144	0x3bd782b7	0.0065768617
145	0xbd3d1dae	-0.046170883
146	0x3d1eca1f	0.038766976
147	0x3abfb0b1	0.0014624802
148	0x3ae58a67	0.0017512561
149	0x3cb4f9f1	0.022091838
150	0xbcaa44cb	-0.020784756
151	0x3bda14d9	0.0066553173
152	0x3c43278b	0.011911283
153	0x3d35bb5f	0.044368144
154	0x3c758a77	0.014986626
155	0xba535084	-0.0008061009
156	0xbc9e0b1e	-0.01929241
157	0xbc590ffa	-0.013248438
158	0xbd08d6ee	-0.033408098
159	0xbcda2a63	-0.02663154
160	0xbd1d644a	-0.03842572
161	0x3d029c80	0.03188753
162	0x3cd75389	0.02628495
163	0xbc581015	-0.013187428
164	0x3d05c356	0.03265699
165	0xbc278b9f	-0.010226159
166	0x3ce9a93a	0.028523076
167	0xbd3f57f1	-0.046714727
168	0xbd44b78b	-0.048026603
169	0x3cbb8a1b	0.022893002
170	0x3d1d6707	0.038428333
171	0xbbe8dfb6	-0.0071067465
172	0x3caf5c02	0.021406177
173	0x3c9b1567	0.018931104
174	0xbc7eaeae	-0.015544577
175	0xbcc59d1d	-0.024122769
176	0xbd155dae	-0.036466293
177	0x372f87b7	1.0462411e-05
178	0xbc276731	-0.010217474
179	0xbc937310	-0.017999202
180	0xbd4bf78d	-0.04979663
181	0xbc3efdcd	-0.0116571905
182	0x3cc6dd09	0.02427532
183	0xbca2b685	-0.019862423
184	0x3caf014b	0.021362921
185	0xbceb72cd	-0.028741265
186	0xbcb2ac3d	-0.021810645
187	0xbcf66b04	-0.030080326
188	0x3cf7d425	0.030252526
189	0xbc68fa6c	-0.0142198615
190	0x3b9c9c2a	0.0047793584
191	0xbd523927	-0.051324036
192	0x3d16892f	0.036751922
193	0x3ac14792	0.0014746061
194	0xbd46169c	-0.048361406
195	0x3ca02968	0.019550994
196	0xbcd3c6cd	-0.025851632
197	0x3d1ef609	0.038808856
198	0x3d36a9a6	0.044595383
199	0x3d022f91	0.031783644
200	0xbd2db4d2	-0.04240877
201	0xbd51fd1f	-0.051266786
202	0x3cfaa0cd	0.030594254
203	0xbcec26a1	-0.028827013
204	0x3be0b412	0.0068574036
205	0x3cbd474f	0.023105292
206	0x3cf7bb0d	0.03024056
207	0xbce8bfb7	-0.02841173
208	0x3bbf2a4d	0.0058339
209	0xbbd185c9	-0.0063941223
210	0xbd3a032c	-0.04541318
211	0xbd1bff35	-0.03808518
212	0x3ad9c40c	0.0016614213
213	0x3b81c4d1	0.00396023
214	0xbc69e549	-0.014275857
215	0xbd2c7eae	-0.042113
216	0x3c4c69ca	0.012476394
217	0x3cb58fcc	0.022163294
218	0xbc2e0ff1	-0.010623918
219	0x3d20525e	0.03914105
220	0x3acf0df1	0.0015797002
221	0x3d40f979	0.047112916
222	0xba3dc1b9	-0.0007238645
223	0x3d321ae8	0.04348269
224	0x3c10c2da	0.008835519
225	0xbcfbc3ab	-0.03073295
226	0x3d39f10b	0.045395892
227	0x3c8b7c2f	0.017026989
228	0x3d3c45f0	0.045965135
229	0xbbf7ab55	-0.007558266
230	0x3d3012d3	0.042986702
231	0xbc29a033	-0.010353136
232	0x3cc232f4	0.023705937
233	0x3d2f9832	0.042869754
234	0x3caff9f0	0.021481484
235	0x3a89df24	0.0010518772
236	0xbcc17907	-0.02361728
237	0x3c3dda17	0.011587641
238	0xbbd4fbf5	-0.006499762
239	0x3d04cb66	0.03242054
240	0xbc49ee3e	-0.012324868
241	0x3c8a04e1	0.01684803
242	0x3d34489a	0.04401455
243	0xbcf40b66	-0.029790591
244	0x3cd550e0	0.02603954
245	0xbca7355a	-0.020411182
246	0xbb759fa7	-0.0037479193
247	0x3d0df346	0.03465583
248	0xbce5e011	-0.028060945
249	0xbd34614e	-0.04403811
250	0x3cb99c91	0.022657664
251	0xbc49278d	-0.012277496
252	0xbcd65423	-0.026163166
253	0x3c9f9654	0.019480862
254	0xbd3c7ecd	-0.046019364
255	0xbd45664c	-0.04819326

fc.bias f4 [17]
0	0xbd9f705c	-0.07785103
1	0xbec9b538	-0.3939607
2	0x3de41e97	0.11138647
3	0xbd2419fb	-0.04006384
4	0x3c7644ed	0.015031082
5	0x3d97a862	0.07405163
6	0xbe0dc763	-0.13845591
7	0x3df4185c	0.11918709
8	0x3ebaea58	0.36506915
9	0xbdd0d107	-0.10196119
10	0xbbeeaccd	-0.007283783
11	0xbdf5d3eb	-0.12003311
12	0x3d1dfa98	0.038569063
13	0x3c7ab27b	0.015301342
14	0xbd5f984d	-0.054588605
15	0x3e26c1fa	0.16284934
16	0x3d062298	0.032747835
