checkpoints/paoletti_et_al/class_balancing/IndianPines_DiffMaps_8/epoch28_0.65.pth (torch, 163832 bytes, 10 tensors)

gru1.weight_ih_l0 f4 [192, 8]
00000000: dbbf a4be ad20 b8be 81d5 c1be 721e 60be
00000010: d5c5 d43c 361a fd3c bcb5 dcbb 0c60 2ebe
00000020: ac38 29be 18b5 3ebe d511 87bd 221e 2b3c
00000030: 5c7b 533d e8c6 27bd 1b42 71be 7b9d debd
00000040: 2869 81be 48c2 47be eb67 bdbe 3e40 72be
00000050: f134 83be 2896 d9be a69d bdbe 5e52 ccbe
00000060: adc2 c5be eb2a 78be cf2c a9be 4ef6 85be
00000070: 448c f5be 9070 93be a7bc b3be 283e b7be
00000080: bc3a bebe b2fc e3be be16 b9be dc0b a9be
00000090: caec a5be 34b5 b1be 18a9 86be 80cf a5be
000000a0: 8118 26be a24b c7bd a659 9cbd d1f3 c8bd
000000b0: b4e5 53be 5c0b c2bd 2a00 f1bd cf5c 9abd
000000c0: bb7c a7bd 3d16 93bd e5b4 65be fba9 7dbe
000000d0: 54d1 90bd d39e 83be d18f 8abe 1cf4 9bbd
000000e0: be75 8fbd d59e 21be 6505 9ebe e284 6abe
000000f0: 8872 7ebd 51b0 27bd d844 81bd b030 80be
00000100: 5d5d 39bc adc0 bb3d 35c4 d03d ec4b 1c3d
00000110: 6ac7 08bc db5f 4a3e 32e1 b73c e5fd 463d
00000120: 359c 213e 3496 b13d 254e 353e b211 a93d
00000130: d9bc b03d 1cea fb3d 8a09 3a3e b0ce 573e
00000140: 7f5a 5fbd a47c 52bd fc75 53be d0ad b1bd
00000150: e83f 01be 8f50 483d 0233 0bbe d84a 98bc
00000160: e400 cdbe ff11 b7be a0c7 b5be 21fc 84bc
00000170: 6092 27be c752 7fbe f134 bebe a655 c5be
00000180: c722 5f3d a6c0 9bbc a285 043e a03e b23c
00000190: 3f06 8abd 3105 483e 6513 bd3b a8b1 963d
000001a0: 3d09 44bc c14d 9c3c bba4 b93b 62a0 b6bd
000001b0: 6679 2ebe 4f8f 1cbe f926 acbd 821b cbbd
000001c0: b386 a73c a464 5f3d b98d a33d 8453 c5bd
000001d0: 38d4 47bd b59b f23d 975f 4a3c 6ee2 ae3c
000001e0: c015 6fbe 454d 23be 47bf 87be 6121 18be
000001f0: 2c86 a93d 4e8d f1bd c21b 45be 53fb efbd
00000200: 0aef a2bd b681 4cbe 71a4 96be a009 33be
00000210: d142 54be 6efd 1cbe 847d 1cbd f6b8 e2bd
00000220: 0a83 9ebd 9d25 04bc df0d 08bd 79ed e4bd
00000230: bb0e d3bd 2ad7 793d 0180 383a 3e75 fdbc
00000240: 0493 e33d 742e 353e 07b7 213e 70e6 b73c
00000250: 672b 163c eb41 5f3d 5ecd fb3d b37f 323e
00000260: b285 02be 0cb0 8c3d 48b3 2cbd dad4 52bd
00000270: 8f10 1cbd bf71 fd3d e085 683d 5787 883d
00000280: ad32 1bbe f34a b53d 8f07 13bd b69b 1ebe
00000290: 92b3 1fbe 59c1 f4bd 54ad 5dbe 63f6 21be
000002a0: 833c 98bc 9bc3 75be c7c7 56be 8e0e 33be
000002b0: 15b1 a3bd 7b41 2fbe 311b 1bbe 5b6d c1bd
000002c0: 0f9e c9bd 8486 633c ac27 fdbc c3ce 38be
000002d0: 812c 21be 14e5 3cbe a0c8 b3bc 2229 64bb
000002e0: c0b7 3dbd 1d56 543e 7a94 833e 4409 c13a
000002f0: b566 bf3b b9ed d03b b83b 123e f883 dfbc
00000300: 9885 83be 8cb0 51be c620 57be ad8f 8fbe
00000310: 2eef 82be 5f0c a8be 59ee 5bbe 5c38 d6be
00000320: e722 72be eb6c 9fbe 3145 c1be afcd 86be
00000330: 5ef4 33be e07d 01be a0e6 ebbd 3642 76be
00000340: 78cd 673d f28d 433c 1c9e e73d 0afa be3d
00000350: eff8 103e 3eae cd3d 06aa 0e3d 0760 0f3d
00000360: df9f 72be f75d bdbe 48cf dfbe a3dc 90be
00000370: 2cd2 d5be f79b b1be f8d1 86be f24a d7be
00000380: 4238 94bd 8726 bd3d 1655 d03c a521 643d
00000390: 1328 9e3e e4fd 953e e3f5 e63d 36bb b53d
000003a0: ee2f 73be f1fb c5bd 651d 2b3e 7525 a93d
000003b0: d5d1 5bbe 7ca1 7bbe d60a 6abe 2af6 f6be
000003c0: 27d8 99bd a72a 8ebe 6748 11be 5533 97be
000003d0: ccf9 26bd 1ad4 a73d 812b 77bd 503e 11bc
000003e0: ea1b 99be 4682 c6be 760d 98be f2ab f6be
000003f0: 1d2a b9be 3432 ccbe b324 6ebe ab43 64be
-0.32177624 -0.3596243 -0.37858203 -0.21886614 0.02597324 0.030896287 -0.0067355316 -0.17028826
-0.16525525 -0.1862377 -0.06595198 0.010444196 0.051631317 -0.040961176 -0.23560373 -0.10869881
-0.2527554 -0.19507706 -0.36993346 -0.23657319 -0.2562633 -0.42497373 -0.3703434 -0.3990659
-0.38625088 -0.24235122 -0.33042 -0.26164478 -0.47958577 -0.28796816 -0.35104868 -0.3578961
-0.37154186 -0.4452873 -0.36150163 -0.3301686 -0.32407218 -0.3470856 -0.26300883 -0.32384872
-0.16220285 -0.09731223 -0.076342866 -0.09812129 -0.20693094 -0.09474823 -0.117676094 -0.07537233
-0.08178087 -0.07181976 -0.22432287 -0.24771874 -0.07071176 -0.2570711 -0.27062848 -0.076149195
-0.070048794 -0.15783246 -0.3086349 -0.22902253 -0.062120944 -0.040939633 -0.06311959 -0.25037146
-0.011313763 0.09167609 0.101936735 0.038158342 -0.008348325 0.19763128 0.022446249 0.048581976
0.15782245 0.08671227 0.17705591 0.08255328 0.0862977 0.12300512 0.18167701 0.21074939
-0.054529663 -0.051388398 -0.20650476 -0.0867573 -0.12622035 0.04890495 -0.13593677 -0.018590376
-0.40039742 -0.35755917 -0.35503864 -0.016233506 -0.16364431 -0.24933921 -0.37149766 -0.38541907
0.054476526 -0.01901276 0.12941602 0.021758378 -0.067394726 0.1953323 0.0057701343 0.07358104
-0.011965093 0.019080045 0.0056653894 -0.08917309 -0.17038497 -0.15289043 -0.08405871 -0.09917356
0.020449972 0.054539338 0.07986016 -0.0963507 -0.048786372 0.11846105 0.012351892 0.021348204
-0.2334814 -0.15947445 -0.2651312 -0.14856483 0.082775444 -0.1179453 -0.1924887 -0.11717858
-0.07955749 -0.19971356 -0.29422334 -0.1748414 -0.20728613 -0.15331051 -0.03820564 -0.11070435
-0.077398375 -0.008065608 -0.033216354 -0.11178107 -0.10305544 0.060996212 0.0007038117 -0.030939694
0.111120254 0.17693502 0.15792476 0.022448748 0.009165621 0.054506224 0.1229503 0.17431526
-0.12746313 0.06869516 -0.042163163 -0.051472522 -0.03810173 0.12375211 0.0567683 0.06666439
-0.1515605 0.08852186 -0.03589588 -0.15489087 -0.15595844 -0.11950941 -0.2164815 -0.15816645
-0.018583542 -0.24000399 -0.20974647 -0.17486021 -0.0799276 -0.17114823 -0.15147091 -0.09444686
-0.098446004 0.0138870515 -0.030902706 -0.18047623 -0.15739633 -0.18446761 -0.021946251 -0.0034814556
-0.046317816 0.20735975 0.25699216 0.0014727493 0.005841101 0.006375995 0.14280593 -0.027284607
-0.2568786 -0.20477504 -0.21008596 -0.28039303 -0.25573105 -0.32821938 -0.21477641 -0.41839874
-0.23646127 -0.31137785 -0.377481 -0.263288 -0.17573687 -0.12645674 -0.115185976 -0.24048695
0.056592435 0.011935698 0.11309454 0.09325035 0.1415746 0.10043 0.034830116 0.03500369
-0.23693798 -0.36985752 -0.4371283 -0.28293332 -0.4176191 -0.34689304 -0.26332068 -0.42049366
-0.07237293 0.09235864 0.025431197 0.05569615 0.3088995 0.29295266 0.11277368 0.08873598
-0.23748752 -0.09667195 0.16710432 0.082590975 -0.21466763 -0.2457332 -0.22855696 -0.48234683
-0.07511931 -0.27766916 -0.14187776 -0.2953135 -0.04076557 0.08194752 -0.060344223 -0.008864954
-0.2990411 -0.38771266 -0.2969777 -0.4817806 -0.36164942 -0.39882052 -0.23256187 -0.22291438

gru1.weight_hh_l0 f4 [192, 64]
00000000: 0651 6dbe 4772 e7bd 00fc db39 56ed 153d
00000010: 40b5 6bbd 5375 a03d 5563 54be bec0 07be
00000020: cdb9 733d eb0f b8bd 2e3a 1dbe c4c0 febd
00000030: 9f23 c3bc 5a54 f03d a0d3 243b 2847 2e3e
00000040: 8687 1abe e8b1 71bd b098 f53d e126 373d
00000050: 79aa 6bbc 4686 3cbd d82c 4d3d 60a0 acbc
00000060: 281d 9fbd 94b1 f0bc 9075 c23d 2815 d53d
00000070: 6037 e43d 6871 edbd 2683 083e e769 c7bd
00000080: ebe0 383d 9bd4 6e3e cf3c 0a3d 6644 c2bc
00000090: 927b 5c3d b3bd 2abe eeb3 863d 0e07 aabd
000000a0: c526 b8bd 1544 28bd b9e0 f13c ed2f 46be
000000b0: 4320 c13d 7d64 d03d 266b 22be a06a a53d
000000c0: f66c 88bd 8720 dd3d 23d7 663d aeee cbbd
000000d0: 7870 813d 5c08 513c f009 af3e 850d 323e
000000e0: 9d68 1c3d df09 12be 0dbf 10bd 61ba d93d
000000f0: 45d2 a0bc 2f39 83bd 3235 9e3e b08f e9b8
00000100: 4644 443e a192 f73d 8696 8dbc c75f 973d
00000110: 387b 7cbd c595 02be 9f76 2bbe f6c5 1c3e
00000120: a63d 96bc d558 0a3e 8ac0 993d 8d8f 133e
00000130: b1e8 13be b520 30bd ea4d 89bd 4eb5 313c
00000140: f25d 023e 7b45 273e 4478 33be 4b85 b43d
00000150: 3d8a 2ebd b50a 5a3c d1cc c9bd b836 133e
00000160: 5cbc adbd 2e7c d53d 7c2c 153d e882 89bd
00000170: b15f 3dbe 8ade 233e bd79 de3d 2a46 44bb
00000180: 2f4e 43be 413c 9ebd e443 713d e486 f3bb
00000190: ba4f 79be e15c 0fbe d89c ab3d d330 d2bd
000001a0: 340e 74bd 80a0 8c3d 1fb6 443d 6686 c53d
000001b0: 0c08 44bd b36e 853e eb72 c03d 9f1e 0ebe
000001c0: 1902 03be 29f6 1ebe ac78 393e 5176 503e
000001d0: a919 043e ca80 1c3d c9fc a3be 478a edbc
000001e0: 58be 73be dbc5 363e c741 a73e cd50 03be
000001f0: f451 0f3e bd58 e33d eb89 17be fb07 a93d
00000200: 3b4f 11be 0f7f 643e 8c6e 4cbe 5bec e33d
00000210: 753c 9c3e b978 8cbd 6e07 cfbd 760d 43ba
00000220: 3d14 6dbd 7e75 8cbb 94cf 193e 2519 df3b
00000230: 7503 88bd b3bb b5bd 71f7 a5bd 3ccb 3d3e
00000240: 3393 e73d fdef 153e 13e8 7ebd 920d 5d3d
00000250: 3cf1 893d 3aea 5dbe fb8f 0bbd ccb2 313d
00000260: b4f6 383e 7e8c 393e 9592 8d3b 4751 06bd
00000270: 2aad ecbb e3cd 5a3e 2c4d 2a3e d881 a1be
00000280: 74a0 f3bd 8bf1 eebd b8a8 00be 44b4 6d3b
00000290: abf0 3cbe b73a 0d3e b554 4c3c 6ab8 a83d
000002a0: 0c1a f33c 968b 1c3d bd28 49be 65e8 cebb
000002b0: c133 333d 3e37 9cbd 18de b13d 36e4 1a3e
000002c0: 5179 5dbe a6a5 b3bd 26fb b93d f1e4 2d3d
000002d0: f921 153e 4096 d73d ebb0 aa3d a1e2 f73c
000002e0: 8ed2 353d fce6 dd3c 64f9 ba3c 2a2f 9a3d
000002f0: 6907 fa3d 4a9a a3bd 8fb3 703e a7b9 9cbe
00000300: 3474 b7bd b02d 243e dfec ecbd 72d0 eb3c
00000310: 91bd ac3e dde1 413c f617 a7bc 1009 b8bd
00000320: 31fe a0bd 44f0 49be d5be 0e3e 4e9a 62be
00000330: 75ab f8bc 9576 063d d3e0 92bd 7e2c 8d3d
00000340: 8510 533d 772f 863d 3a43 343e a81e 443c
00000350: 280e d3bc 2c60 abbd ac99 ebbd c17b 013d
00000360: 268e 773e d291 903e 0545 023e 10d6 00be
00000370: b970 5ebe 4718 433e 5e2c 1c3c 8bdb 20be
00000380: e495 8d3d 576e 28be ba16 99bd b849 68bd
00000390: a35b 68bd 932d d939 a1c1 6ebd 09e8 77bd
000003a0: 6d24 ff3d 57a9 64bb 10e8 9d3c 1ade 48be
000003b0: cfe1 c43d a40f 553d acf2 a53d 91fa 993d
000003c0: 7c2d 56be a1de 40bd 3852 1dbc 92d4 bc3d
000003d0: 9826 1bbc 1e95 2f3d 22c2 b3bc 071a 12bd
000003e0: 12d5 f4bc 44c0 833d 5873 193e dc70 09be
000003f0: fa30 1dbd a09d 9cbd 8dc5 173d 764d 4cbe
-0.23175439 -0.113010935 0.0004195869 0.036603294 -0.0575459 0.07834878 -0.20741017 -0.13257119
0.059503365 -0.08987411 -0.15354225 -0.12439111 -0.023820696 0.11734839 0.0025150552 0.17019331
-0.1509076 -0.059007555 0.119920135 0.044714812 -0.014383906 -0.04602649 0.050091594 -0.021072567
-0.07769233 -0.02938155 0.094950795 0.10404426 0.111433744 -0.11593896 0.13331279 -0.09736996
0.045136373 0.2332329 0.033749398 -0.023714256 0.053828783 -0.16673927 0.065772876 -0.08302127
-0.0899177 -0.041080553 0.029526101 -0.1935422 0.094299816 0.101754166 -0.15861186 0.08076978
-0.06661408 0.1079722 0.056357514 -0.09957634 0.0632028 0.012758341 0.3418727 0.1738797
0.038185704 -0.14261578 -0.03533845 0.10631252 -0.019631514 -0.06407391 0.3089996 -0.0001113707
0.19166669 0.12088514 -0.01728369 0.07391315 -0.061640948 -0.12752445 -0.16744469 0.15309891
-0.018339943 0.13510449 0.07507427 0.14410229 -0.14444233 -0.04299994 -0.06704314 0.010846449
0.1273115 0.16335098 -0.17526346 0.08814486 -0.042612303 0.013308217 -0.09853519 0.14376342
-0.08483192 0.10424076 0.036419377 -0.067144215 -0.18493535 0.1600286 0.108630635 -0.0029949048
-0.19072793 -0.07726336 0.058902636 -0.0074318517 -0.2434682 -0.14000274 0.08379525 -0.10263219
-0.059583858 0.068665504 0.048025247 0.09644775 -0.047859237 0.2606102 0.09396919 -0.13878869
-0.12793769 -0.1552359 0.18112439 0.20357634 0.12900414 0.03820876 -0.32028797 -0.0289966
-0.23803079 0.17848913 0.32667372 -0.12823792 0.13996106 0.1110091 -0.14798705 0.08253475
-0.1419038 0.22314094 -0.19964045 0.111290656 0.30514875 -0.068589635 -0.10108839 -0.00074406655
-0.05788063 -0.004286467 0.15020591 0.0068084174 -0.066412844 -0.088736914 -0.08103836 0.18534559
0.11307373 0.1464233 -0.062233042 0.05396802 0.06735465 -0.21671382 -0.034072857 0.043383405
0.1806286 0.1812 0.0043204525 -0.032792356 -0.007222791 0.21367602 0.16631001 -0.31544375
-0.118958384 -0.116671644 -0.12564361 0.0036270777 -0.18451183 0.13791929 0.012471368 0.08238299
0.029675506 0.038219057 -0.19644447 -0.0063143247 0.04375053 -0.07627724 0.08684939 0.15126118
-0.2162831 -0.08771829 0.09081106 0.042454664 0.14563741 0.10526705 0.08334526 0.030259432
0.044390254 0.027087681 0.022823997 0.07528527 0.122084446 -0.07988413 0.23505996 -0.30610391
-0.08957711 0.16033053 -0.11568617 0.028785918 0.33738378 0.011833635 -0.020397168 -0.089861035
-0.07860983 -0.1972056 0.13939984 -0.22129175 -0.030355195 0.032827932 -0.07171788 0.06893252
0.051529426 0.06552022 0.1760377 0.0119702 -0.025763586 -0.08367953 -0.1150392 0.03161216
0.24175319 0.28236252 0.12721641 -0.12581658 -0.21722688 0.1905223 0.009532062 -0.15708749
0.06913355 -0.16448341 -0.07475038 -0.05671093 -0.056728017 0.0004142342 -0.058290128 -0.06052402
0.124581195 -0.0034890973 0.019275695 -0.19615975 0.09613382 0.05201687 0.081029266 0.07518495
-0.20915788 -0.047087315 -0.009602122 0.09220232 -0.009469651 0.04286682 -0.021943156 -0.035669353
-0.029886756 0.06433156 0.14985406 -0.13421959 -0.038376786 -0.07647252 0.037053633 -0.19951424

gru1.bias_ih_l0 f4 [192]
00000000: 0063 b5bd 1135 8abd 380a 05be ce8c 85bd
00000010: 40a7 b8be e601 e4bd f6de 85be 27d8 6ebc
00000020: da2e 05be 57cd b5bd 3631 cebd 6021 51bd
00000030: 52c6 d6bd 8fc7 99bd db8d 14bc 5e54 373d
00000040: 1039 00be 92fe d83d 3218 22bd d6ff 82be
00000050: 7949 88be 6b5f 53be d72a 59be 9b4e 89bd
00000060: 469d d8bd de57 71be a490 c9bd 7a6d 23bd
00000070: baac 103d 81f4 1dbe 4f58 cabd 82d5 8cbe
00000080: 8b6a 47be df66 1fbe 5551 473d d8ac 9cbe
00000090: 5db1 b6be 21ac 623d b25e 9dbc cd85 fbbd
000000a0: 2a6f ecbd d41c 1dbd 57ac a5bd 1588 73be
000000b0: 5092 fcbd e6be aabd d8a0 093d 8088 32be
000000c0: c3af 043e 182d 93bd 80c7 b3bd 486f c1bc
000000d0: 01ab 59be 002e a9be 61c6 98bd 521e 753d
000000e0: 0acf f03b 283d 1abe 2b00 cabd fe01 51bd
000000f0: 2a11 c0bd a306 99bc 81e7 edbd 84ff c4bc
00000100: 73b8 91bd d3a4 c9bc bba6 36bd 76e4 d13b
00000110: 5c55 d4bd 063f 4b3e 2c30 bf3d 55ae ebbd
00000120: 2958 273e 4ebf 403d 8b8a 953e f89f 9fbd
00000130: 1f95 5a3d f782 a13e d9dd f13d 1e0c 0bbd
00000140: c95f b3bb 648b 6f3c 984e c2bd 2ad1 013e
00000150: d8b8 de3b a40d 84bd 33b9 923e 0c53 8c3e
00000160: 5e47 b0be 104a 24be 05de 383e 7248 2cbe
00000170: 3a70 e6bd 04df 84be fdc8 673b 4e21 86bd
00000180: 06ad d13d 5104 613e 342f 85bd dab1 193d
00000190: 3bf8 29be 6029 83be 067f 423e 9ea6 9f3e
000001a0: a5e3 503d cb03 8e3e 8dd2 76be 3be4 523d
000001b0: 3e68 8d3b 8e74 293e 27cc 0ebe fe2d 703d
000001c0: 3a96 633d 3af4 94be b8ef b6bc 20fe a73c
000001d0: bdd7 3e3e c490 023d b5cc 02be 8638 233e
000001e0: 1ac3 733e bb4c 72bd 9296 75bb de6e 0f3e
000001f0: 3132 003e 8294 f53d 6a2e 8dbd b1d4 15be
00000200: 3a04 2b3d d4ec ef3d d3bb 23be f4b3 213e
00000210: e9db 533e 5fe5 353e d04f 8f3a d441 b6bd
00000220: de0b 1abe a01e 54be 4624 e6bd 2446 2b3e
00000230: eab9 633d 503e 2a3e 4308 203e e07a 83bd
00000240: 08ba e8bc 6db3 203e d5ee 713d 6418 2ebe
00000250: 7139 503e 4fac fc3d af73 ce3d 0f14 5dbe
00000260: bce8 5d3e df18 f5bc 28d7 543e 9751 66be
00000270: 35fe 60be 6f4c 1cbd 133a 87bd 7875 4fbe
00000280: 6870 403e 16d7 113d 72f3 5bbe 73da 563d
00000290: 3874 56be 0be3 133e 9a15 ce3d cbc5 183e
000002a0: bc38 083e 22bd 1fbe 5bf5 87bd b2f0 3dbe
000002b0: bff9 203e 170e b93b 2e9c 0e3e 6547 ecbc
000002c0: ad26 90bc 238a 47be 5f65 753e 1511 70bc
000002d0: db87 45bd 5f35 4d3e a384 123d 1015 0e3e
000002e0: 6ce8 663e f95d cabd d85d a03d 290e 373e
000002f0: a3e4 c6bd fc7e 03be 9358 21bd a445 31be
-0.088567734 -0.06748403 -0.1299218 -0.06520997 -0.36065102 -0.111331746 -0.26146668 -0.014577902
-0.13006154 -0.08877056 -0.1006798 -0.05105722 -0.10487045 -0.07508766 -0.009067024 0.044758193
-0.12521768 0.105954304 -0.039573856 -0.25585812 -0.26618555 -0.20641868 -0.21207748 -0.06704446
-0.105768725 -0.23568675 -0.09842041 -0.039899327 0.035320975 -0.15425302 -0.09880125 -0.27506644
-0.19474237 -0.15566586 0.04866155 -0.3060062 -0.35682192 0.055339936 -0.019210193 -0.1228138
-0.1154464 -0.03835757 -0.08089512 -0.2378238 -0.123325944 -0.08337192 0.03360066 -0.17434883
0.12957673 -0.07186335 -0.08778286 -0.023612633 -0.21256639 -0.33042908 -0.07459713 0.05984337
0.0073488997 -0.15062392 -0.09863313 -0.05102729 -0.09378274 -0.018679922 -0.116164215 -0.02404762
-0.07115259 -0.024614727 -0.0445926 0.0064054085 -0.103678435 0.1984826 0.0933536 -0.115078606
0.16342224 0.047057442 0.29207262 -0.077941835 0.05336487 0.3154523 0.11809892 -0.033947103
-0.005474065 0.014620636 -0.09487647 0.12677446 0.0067969374 -0.06447914 0.2865692 0.2740711
-0.3442945 -0.16043878 0.18053444 -0.1682451 -0.11251874 -0.25951397 0.00353676 -0.06549321
0.1023808 0.21974303 -0.06503144 0.037523128 -0.16598599 -0.25617504 0.18993768 0.31181806
0.05099835 0.2773727 -0.24103756 0.05148719 0.004315405 0.16548368 -0.13945065 0.05863761
0.05556319 -0.2909258 -0.022331104 0.020506918 0.18636985 0.03187634 -0.12773402 0.1593953
0.23804894 -0.059155207 -0.003747378 0.14007136 0.12519147 0.11991216 -0.068936184 -0.14631917
0.041752078 0.11715093 -0.15989618 0.15791303 0.20689358 0.1776328 0.001093382 -0.088992745
-0.1504359 -0.20714808 -0.11237387 0.16725975 0.055597223 0.16625333 0.15628152 -0.06419921
-0.02840902 0.15693446 0.05906566 -0.17001492 0.20334412 0.12337553 0.10080659 -0.21589683
0.21670812 -0.029919086 0.207852 -0.22492062 -0.21971972 -0.03815883 -0.06602874 -0.20259655
0.1879288 0.035605513 -0.21479586 0.052454423 -0.20942771 0.14442079 0.10062714 0.14919202
0.13302892 -0.15599492 -0.06638595 -0.18548849 0.1572027 0.0056474316 0.13926765 -0.028842637
-0.017596567 -0.19486289 0.23964451 -0.01465251 -0.048225265 0.2003989 0.035771023 0.13875222
0.225496 -0.09881205 0.07830399 0.17876495 -0.09711578 -0.1284141 -0.03939111 -0.17311722

gru1.bias_hh_l0 f4 [192]
00000000: 53cc 07be eb11 063e b0c5 b4bd ba6c 39be
00000010: 505b 15bf dddb e1bc 5af8 e3be adb2 1cbe
00000020: fc7e 04be c3f4 563d 45a2 463b 5ef4 d2bc
00000030: 127b 8bbd 7e6e 30bd abb0 73be 720f e93a
00000040: 38f0 12be e0d5 1cbb 3196 db3d 1be9 4cbe
00000050: 9f55 76be 0cca 34be 6e2f 97bd e2f8 fdbd
00000060: 5f19 7ebe c9b6 1fbe 5680 80bd bb16 6cbe
00000070: 01b3 813d b766 83be da85 06be e82a 2cbe
00000080: 33d7 71bd c19b 55be 8a5e bcbd 2848 d9bd
00000090: b13e 76be cf8e 94bc 529c 183b f571 e9bd
000000a0: 9a69 6fbd 0941 293d 2bef ae3d db99 a8be
000000b0: b14c bdbd 0383 16be 2077 b9bd 3287 d5bc
000000c0: 244f 8a3e ad31 55bd f9d9 86be 06c1 39be
000000d0: 6f8d 53be 4e00 82be 011e 0e3c a28a 913c
000000e0: 1fbb 26be a777 853d 6b6e 5c3d 41ce 6bbe
000000f0: 5e58 19be 8f90 963c 98ac 16be d326 34be
00000100: 98bc 52be 479c 86bd a083 153e 2772 4e3d
00000110: 9039 0cbd 1548 f53d 05ca 6d3e 78f5 e13d
00000120: f682 ae3c 0faa 0abe 3a91 473e eb79 e9bd
00000130: bf7b 483e 0e20 6f3e 0213 db3c 929d 5bbd
00000140: 58d7 4a3e 6ade f33c e2c4 6dbe efc5 b53d
00000150: 37bc 273d 3fc4 623d 8c91 703e 5330 623e
00000160: 2d67 a1be e4d2 d3bd c08a 983d 9a72 cbbd
00000170: 870d 9fbd b4a9 9bbe d51b c43d 3db3 b0bd
00000180: 06c0 ac3e a8d0 3b3e ece0 e6bd 2775 5a3e
00000190: 3bf9 adbe 98cd 39be 8e62 813d 8917 1d3e
000001a0: 93c5 1dbe 57e6 3c3e 2bd2 17be ad43 8ebd
000001b0: 2dd3 a6bd f846 2b3e 273c 71bd bd55 ce3d
000001c0: 4dee 7f3d 119d 95be 9bca a7bc 8ade 243e
000001d0: 6011 8c3e 010b 2bbe 7dff 96bc 02cf 253e
000001e0: 4604 753e 75f6 b43d 3efc e53d 6c3e 433e
000001f0: 1bd1 203e eea6 503e 4d1a 74be e13e cc3c
00000200: 8f0b 073e c691 6b3e ac47 22be 2ed8 313e
00000210: 37b2 1f3d abef 163e 7d8c 793c 6151 14be
00000220: 51a0 903b e05a 54bc c0bc aa3d 3a80 123e
00000230: 8dcf d93d 7c12 943d 829d d23d 7070 d2bd
00000240: bd40 443d ce9e 323e 5560 56bd 3657 b3bd
00000250: e947 ea3d 957b 703e 4469 b6bd 341a 51be
00000260: ff85 1e3e e03e 0bbe c0d8 1a3e 91ab 24be
00000270: 2f51 ddbd bb2a 0d3e 415c 89bd 89ec 6bbd
00000280: a3b2 c83d 65d6 acbb 49c3 1ebe 98d8 853c
00000290: dd18 1cbe 8cb8 533e 2aaa 143e 2806 873d
000002a0: d9d5 c7bb acad fdbd f677 7bbe 1521 6dbd
000002b0: bd07 803d b1e2 25be 30e6 663d cee5 053e
000002c0: 4054 02be 5007 3ebe 7a80 013e d4db c3bb
000002d0: 3154 9dbd fcb4 4c3d 9a49 943c 7d0e 523e
000002e0: 906a 6e3b 0b60 13be e667 1c3e de01 ec3d
000002f0: 5096 2abd 0517 57be 381d bebd 2b34 4cbe
-0.13261537 0.13092773 -0.088267684 -0.18107882 -0.58342457 -0.02757066 -0.44525415 -0.15302534
-0.12939066 0.052479517 0.0030309123 -0.025751289 -0.06810583 -0.043074124 -0.23797862 0.0017781092
-0.14349449 -0.002393119 0.10722006 -0.20010798 -0.240561 -0.176552 -0.07382093 -0.12400986
-0.24814366 -0.15597071 -0.06274478 -0.23055546 0.063329704 -0.25664303 -0.13136998 -0.16813242
-0.05904312 -0.20860197 -0.091977194 -0.10609466 -0.24047352 -0.018134503 0.0023286534 -0.11398689
-0.05845032 0.041321788 0.085417114 -0.32929882 -0.09243143 -0.14698415 -0.090559244 -0.026065443
0.27013505 -0.052049328 -0.26338175 -0.18140039 -0.20659421 -0.25390857 0.008674146 0.0177663
-0.16282319 0.065169625 0.05381624 -0.23027898 -0.14975116 0.018379478 -0.14714277 -0.17592935
-0.20579755 -0.06572776 0.14600992 0.050401833 -0.034234583 0.11976639 0.23221596 0.110331476
0.021302681 -0.13541435 0.19488993 -0.11400207 0.19578455 0.23352072 0.026742462 -0.053617068
0.1980871 0.029769141 -0.23219636 0.088756435 0.04095098 0.055362936 0.23493022 0.22088747
-0.3152403 -0.103429586 0.074483395 -0.09933968 -0.07766252 -0.3040291 0.09575621 -0.08627937
0.33740252 0.18341315 -0.11273369 0.21333753 -0.3397921 -0.18144834 0.06317626 0.15341009
-0.154074 0.18447243 -0.14826266 -0.06946502 -0.08145747 0.16726291 -0.058895256 0.10074947
0.06248312 -0.29221395 -0.020482352 0.16100517 0.27357006 -0.16703416 -0.018432373 0.16192248
0.23927411 0.088360704 0.11229752 0.19066781 0.15704767 0.20376179 -0.23838158 0.024932327
0.13188003 0.23004827 -0.15847653 0.17367622 0.03898832 0.14739864 0.015231249 -0.14484169
0.0044136425 -0.012961119 0.083367825 0.14306727 0.1063529 0.07230088 0.102839485 -0.10275352
0.0479133 0.17443392 -0.052337963 -0.087568685 0.11439497 0.23484643 -0.089067966 -0.20420152
0.15480803 -0.13598204 0.15121746 -0.16081072 -0.108065 0.13785832 -0.06707049 -0.057598624
0.09799697 -0.0052745813 -0.15504183 0.016338632 -0.1524386 0.20675868 0.14518037 0.06592971
-0.0060984907 -0.12386641 -0.2455748 -0.057892878 0.06251476 -0.16199757 0.056371868 0.13075945
-0.12727451 -0.18557477 0.12646666 -0.0059771333 -0.07682074 0.049977288 0.018101502 0.2051334
0.0036379434 -0.14392106 0.15274009 0.11523794 -0.041647255 -0.21004875 -0.09282917 -0.19941776

gru2.weight_ih_l0 f4 [192, 64]
00000000: 4426 8dbd 4313 82be 9a4d 6b3d 68eb db3d
00000010: dc2a 86be 5886 2c3e 95b0 a73d 46fa 083e
00000020: 0b19 1d3e 8646 e1bb b312 68be 238f b13d
00000030: c20a 3b3e b2ca bb3d 9b5b dd3d 8c86 a0bd
00000040: 0629 8bbd bf8d fbbd ea93 51bd 884a 99bc
00000050: 11c7 ab3d 6614 48be a00b b13e 86a4 0bbe
00000060: 2a84 c5bd fa77 363e 90eb 4e3d 35be 213e
00000070: 66b3 3b3e 5f85 84bd f3a1 abbd ddab 563d
00000080: 11fb 033e 9fb3 a13d 6daf 4b3d c521 983d
00000090: 2acc ad3c ba19 2ebc f043 d53d dc1c 333e
000000a0: dc93 403e d30f 95be cb85 5a3d 7f96 543c
000000b0: 18c7 28be d9c4 2cbd a278 a3bd ad33 873d
000000c0: 4162 0c3e 11f9 d23d b629 0abd 4704 7ebe
000000d0: 755c ad3d f6b9 8bbe 4169 25bd 9edc d03c
000000e0: 12e6 623d 2962 08be fcfd 2cbe 702a c93b
000000f0: 8311 e4bd 8f47 2cbd e36a 7abe 89e5 debc
00000100: 7786 fb3c 9c0f 09be 4c7a 49be 7bd9 423e
00000110: ea70 703d b56d 023e 32b5 133e 046c efbd
00000120: c8cc 213e 2db4 01bd 0174 bcbe 0fdc 8dbe
00000130: 7ab4 c7bc 512c 073e b245 113e f887 033e
00000140: 0d04 30be f2e1 61be 91ab 813e 0e48 f1bb
00000150: e818 6a3d ebf5 5f3e 10d8 a13d f35e 2fbc
00000160: 9902 df3c 11cc 33bd 0fa9 a9bc 6012 66be
00000170: 4c6e 703e 2fc7 213d d7de b2bd 1f0a f5bd
00000180: c0c7 133e 27dc 03bc 83ce 67be 4949 fbbd
00000190: c57f b13d 54d8 963e 2322 603e 31ff 733e
000001a0: 80c3 703e a9f9 4abe b822 33be bb2a 963d
000001b0: 3712 ab3e 7d4e 9abd ed51 bdbd bf18 c1bd
000001c0: c6fe f23d feda 71be 6330 4b3e 3c3b cc3d
000001d0: 08b9 203b 4966 d33d 88e7 203e 227e 353e
000001e0: d743 1c3e 1cb5 03be 49e4 9abe 45ce 443c
000001f0: 4f81 aabd 48c4 e9bd be3a 45be 826e c1be
00000200: dbd7 433e ebb9 0a3e af88 923d b6cb 253e
00000210: 2e89 f43d 1033 75be 2a2e 24be 106c 5bbd
00000220: ba53 063e 9ff5 8ebe 624f d93b 031d 1fbe
00000230: ae04 1bbe adc7 07be f4c8 0ebe ad7e af3d
00000240: 8cfa 8e3d 371e 1e3d bddc 003e cff2 103d
00000250: f9b2 adbd fc0a 693e 564e 1b3d ba61 e53d
00000260: 0074 153d 036e 3fbb e330 b0bc e752 6bbe
00000270: 171d 5dbe c68c 8fbe ab8d 7ebe c032 c5bb
00000280: f62d 8cbd f495 3e3d 5b44 a2be d29f 693e
00000290: 845d 20bd a87a a33e f615 20be 0167 15be
000002a0: a8fb 283d 3916 e43d 4d95 c5be bb02 d13d
000002b0: aa14 363e eb2b d8bd 6fe0 93bd a1b0 5abd
000002c0: c190 74be e03a 94be 3e5b c93e 0e42 133d
000002d0: a6ab 443e 2bdd a33d b52e 6b3e 23be f7bd
000002e0: d912 503d 562b 03be 3e36 18be 47f5 3fbd
000002f0: 8ce6 283e be4d 063d 7cd9 643e 1d1f 9dbe
00000300: 4aed 1a3e 6f96 a5be ac16 713e f69b 983d
00000310: a9e6 21be 162d 3fbe bcec 95bd 0992 f03d
00000320: a232 10be d702 59be 3add dbbd 639e abbe
00000330: 1cad 953c 1c1a 2d3d 0753 1fbe 635d d4bd
00000340: 9a75 46bd 2741 c2bc a164 5dbd f59e 733e
00000350: 722b 3fbe f7ac 6d3c 9087 b23e 8e3e a8bc
00000360: bc6e 25be a8c5 103e e6d3 ebbb 2824 f63b
00000370: 5d8d 683e a70b abbe 1180 60be 78c8 2f3e
00000380: 88eb 343d 9159 95be 671d f03b 76ed 2b3d
00000390: 57f1 443e 385f f9bc 20ad 69be d00f 55bd
000003a0: e60a ddbc 2a8a a3be a30b 793e 77c1 fc3e
000003b0: 81f9 8d3e 0593 b23c c44f 873e a7bf 3cbe
000003c0: 6a85 733e 0ff7 ba3d fefb eb3d 1e85 9d3d
000003d0: c5af aebe 9d94 d5bc 6c0a b2be 8601 47be
000003e0: 644d 08bd ceae 823b ecad 92be 0d0d ffbc
000003f0: e128 183d d463 90bd 3068 12be 0941 813d
-0.06892064 -0.2540532 0.057447053 0.107382596 -0.26204574 0.16848123 0.08187977 0.13376722
0.15341584 -0.006874862 -0.22663383 0.08669879 0.18265823 0.091695204 0.10808488 -0.07838163
-0.06794934 -0.12282895 -0.051166452 -0.018712297 0.08387578 -0.19539031 0.34579182 -0.1363698
-0.09644349 0.17819205 0.05051762 0.15795214 0.18330154 -0.06470751 -0.08380499 0.052409995
0.12888743 0.07895588 0.049727846 0.07428316 0.021215517 -0.010626251 0.10413349 0.17491478
0.18806404 -0.29113635 0.05335025 0.012975334 -0.16482198 -0.042179916 -0.07981993 0.06601653
0.13709356 0.10301412 -0.033731185 -0.24806319 0.084649004 -0.27290314 -0.04038358 0.025495823
0.055395193 -0.13318695 -0.16893762 0.006139092 -0.111361526 -0.04206043 -0.24454837 -0.02720906
0.030703766 -0.13384861 -0.19675559 0.19028275 0.058701433 0.12737162 0.1442459 -0.11690524
0.15800774 -0.03166597 -0.36807254 -0.27706954 -0.02437805 0.13200499 0.14186743 0.12844837
-0.17189045 -0.22058848 0.25326207 -0.007363326 0.05715266 0.21871154 0.07902539 -0.01070379
0.027222918 -0.043895785 -0.020710496 -0.22467947 0.23479575 0.039496597 -0.087339096 -0.11964821
0.14431667 -0.008048094 -0.22637372 -0.122698374 0.08666948 0.2946192 0.21888022 0.23827817
0.23512077 -0.198218 -0.17493713 0.07332369 0.33412334 -0.07534502 -0.09244142 -0.09428548
0.118650004 -0.23618695 0.19842677 0.099722356 0.002452435 0.10322244 0.15713322 0.17723897
0.15260254 -0.12862056 -0.30252293 0.012012069 -0.08325445 -0.11414391 -0.1926069 -0.37779623
0.19125311 0.13547485 0.071549766 0.16190991 0.119402274 -0.2394526 -0.16033235 -0.053569853
0.13117877 -0.2792177 0.0066317776 -0.15538411 -0.15138504 -0.13259764 -0.13943845 0.08569083
0.06981382 0.038603034 0.12584205 0.03538781 -0.08481402 0.22758096 0.037916504 0.112002805
0.03648758 -0.002920986 -0.021507686 -0.22980843 -0.21593128 -0.2803709 -0.2485873 -0.0060180128
-0.06844704 0.046529725 -0.31692776 0.22814873 -0.039151683 0.31929517 -0.15633377 -0.14590074
0.041255623 0.11137051 -0.3859047 0.10205599 0.1778132 -0.10555252 -0.07220542 -0.053391103
-0.23883344 -0.28951168 0.39327425 0.035951667 0.19206104 0.08001169 0.22967036 -0.120968126
0.050799225 -0.128095 -0.14864442 -0.046864774 0.16494197 0.032788984 0.22348589 -0.306878
0.15129581 -0.32341334 0.23543805 0.07451622 -0.15810646 -0.18669543 -0.07320544 0.11746604
-0.14081815 -0.2119249 -0.10735555 -0.33519277 0.018271022 0.042261228 -0.15559016 -0.103693746
-0.048451997 -0.023712708 -0.054051045 0.23791106 -0.18668917 0.01450657 0.3486905 -0.02053764
-0.16155523 0.141379 -0.007196891 0.0075116344 0.22710176 -0.33407328 -0.21923853 0.17166317
0.044169933 -0.29169896 0.007327724 0.041974507 0.19232689 -0.030440912 -0.22819948 -0.052017033
-0.026982736 -0.31941348 0.24320845 0.49366352 0.2772942 0.02179862 0.26428044 -0.18432485
0.23781362 0.09129154 0.11522673 0.07691406 -0.34118477 -0.02607184 -0.34773576 -0.19434175
-0.03327693 0.0039881235 -0.28648317 -0.031134153 0.03714836 -0.07050291 -0.14297557 0.063112326

gru2.weight_hh_l0 f4 [192, 64]
00000000: 74a2 2f3d a4b5 353d be4a 09be c1b8 44be
00000010: 6b71 a7bc f22a e2bd 9dcf 5e3c 9fe9 6f3e
00000020: 57e8 bfbd f08f 8dbe 607c 9e3d 6d8d 81bb
00000030: 2774 a8bd 7bff 133e b07f 253e 0341 983e
00000040: 577b 6e3e 9631 93be 0164 fb3c 1a4c cf3b
00000050: 88f5 2a3e e5c7 b43e f4fd 7ebe ba12 40bd
00000060: 3fce c9be 0dda 4a3e 5d2d 0dbe 7c3b a4bd
00000070: 1085 4fbe a5b6 12be 9acd dfbd 792a ecbd
00000080: 7055 3cbe 43c3 963e 352a 803e 37c2 10bd
00000090: 246a 973d c291 a3bc 9779 6bbe 59dd 2cbd
000000a0: d9dd 983e 3541 5e3e 5e69 98ba 0d16 65bd
000000b0: b7bc ed3e 65e1 d3bd 7846 b93d bd53 56bd
000000c0: 0fe1 41bc 1cd9 ae3e 7a11 cb3d 8f97 343d
000000d0: 6c76 aa3e 3c86 a53e 8e88 703e 2843 663d
000000e0: d0aa 9c3e 7fc6 8bbe b54b 2c3e db75 6fbe
000000f0: 0fb1 efbd 043b b0bd db15 d13d ab60 b8bd
00000100: 8933 b13c 33f9 9e3c c5a1 5ebe de1f 2ebe
00000110: ff73 143c 41d3 2dbd 4054 833e e4fb afbd
00000120: 3bcc 2f3c c7f5 a7bc 0b3a 833e 1c90 bb3e
00000130: 0bb0 ba3e 2f19 cb3c 6b58 b93d 6e0a 913e
00000140: c46a 0b3f cf1a a4bd d165 553e 9c93 a83d
00000150: 1ebe 05be 0659 bf3e 2031 c93d 38b1 d0bd
00000160: 1109 b23d 542f 33be 8e8f cbbc 171b 903e
00000170: a6c0 f9bd 13ce 013e dfc1 dbbc d95b 463d
00000180: f061 64be 20a1 293d f95f 98bd 5002 b03e
00000190: 2743 b13d 063d df3d 0d43 04bd d763 dbbd
000001a0: f88c 8e3e 761a bdbd b3eb 02bf 2b0c 36be
000001b0: bd75 643c 4395 b6be f0f7 aabe d933 2b3d
000001c0: 4418 d8bd 3774 9bbe c41a f13d db73 263e
000001d0: 97fc ed3d 8488 a4bd 00cf f2ba d3bb b93e
000001e0: 4ec4 733e be0b 61be d12f 40be c30a 02bc
000001f0: 0578 803d d7ea 003d d4bb 1f3e a6c7 1d3f
00000200: 7130 963e dd7c b3be 96bc 89be 8d1b 5cbe
00000210: 380e fd3d 7b47 8e3e f305 c83d 30fa 9f3e
00000220: 2624 e83d 5ce0 f0bd 10e0 183d 9801 a8bb
00000230: 41b1 ae3e 2510 c73e 46ed eabd 1f3f 78be
00000240: 0403 633e f892 5abe b36e 683d d9d3 813e
00000250: 14dd f33e eacb d2be 2fa9 94be e7fd 09be
00000260: d325 d0bc c36b ff3d 435e 5cbe 40fd ff3c
00000270: ad18 aebe 69c9 ee3d a51b 21be dc5c dcbd
00000280: c5dc 743d 7400 a43d 8a49 703e 16c8 b03d
00000290: bf02 ca3e 226a 6d3e 6602 83be f635 77bd
000002a0: 55cd 4f3e 3231 1c3e 97ee 4dbc 9c9a fdbd
000002b0: c28d 4c3e b403 f93b a67d 0ebe e48d 013d
000002c0: 7ae1 083f 6677 fdbd 4f9d 653a 49f9 fabd
000002d0: e200 973d d972 aabe 1bb7 0bbe b93d cc3c
000002e0: b15c 06bf 086a f2bd 95eb 993d affe 9fbe
000002f0: 0c0e 7cbe 13a1 eebe 90a8 043f eb2d b03e
00000300: 7aa5 ef3d 534a 5b3c 3c1d 8abe d62a f8bd
00000310: 9a1e 3e3e 5705 8b3d 29b9 793e cb60 a53d
00000320: 34e3 63bc ffe3 8abe 0418 dfbd 2a3a 03be
00000330: 78da 593e 99b1 4d3d 282a 863e 5635 3b3e
00000340: 217a 2fbd 35ec 2cbd dfb0 d2bd 0ef1 b43d
00000350: 540c 623e c43b 853c f11a a6be 43d2 a1be
00000360: f47d a7be ed78 323e 6db3 5cbe 3691 efbd
00000370: 4a9c 3ebe 9514 ec3d 382d 3abd 487b 88bd
00000380: dfea 98bd 8941 80bd 40df 47bc 7292 3abe
00000390: eaad f3bd f3ac 94bd 6ba1 81be d604 27bc
000003a0: 35cc ca3d 784c ea3b 4497 7cbd cbe6 53bc
000003b0: 4258 163d 359c 09bc 90c4 5fbd 3599 9f3d
000003c0: faa5 d7bd 5f5b 243d 8a3b 86bd 76de d33d
000003d0: 7953 203e 133e 783e 2dd3 53bd 78b8 be3d
000003e0: 1298 7c3e b272 9fbe 1498 933d 478e eebd
000003f0: 4761 5fbd d74f 09bc 45b8 9cbd 7d6b da3d
0.042879537 0.04436268 -0.13407418 -0.19211103 -0.020439824 -0.110433474 0.013599304 0.23428963
-0.09370487 -0.27648878 0.077385664 -0.003953627 -0.08225279 0.14452927 0.1616199 0.297371
0.23289238 -0.2874877 0.030687334 0.0063262107 0.16695225 0.35308757 -0.24901563 -0.04689286
-0.39415166 0.19809742 -0.13786836 -0.08019158 -0.20265603 -0.14327486 -0.10927887 -0.115315385
-0.18391967 0.29445848 0.250322 -0.035341468 0.073932916 -0.019966964 -0.22995602 -0.04220328
0.29856756 0.21704562 -0.0011628082 -0.055929232 0.4643304 -0.10345725 0.09046644 -0.052325953
-0.011833443 0.34150016 0.09915443 0.04408985 0.33293474 0.32328975 0.23489591 0.05621639
0.3059907 -0.27299878 0.16825755 -0.23384802 -0.11703693 -0.08605006 0.10209247 -0.09002813
0.02163102 0.019405937 -0.21741398 -0.17004344 0.009060859 -0.042437796 0.25650215 -0.08592966
0.010729845 -0.020502938 0.2563022 0.36633384 0.36462435 0.024792282 0.090500675 0.2832827
0.54459786 -0.08012926 0.20839621 0.08231279 -0.13060805 0.37372607 0.09823823 -0.10190052
0.086931355 -0.17498523 -0.024848726 0.28145668 -0.12194948 0.12676267 -0.026825843 0.048427437
-0.22302985 0.041413426 -0.0744018 0.34376764 0.086553864 0.10900311 -0.032290507 -0.10712402
0.27841926 -0.09233563 -0.511409 -0.17778079 0.013944087 -0.35660753 -0.33392286 0.041797493
-0.10551503 -0.30362102 0.11772683 0.16255133 0.11620443 -0.08033851 -0.0018524826 0.3627611
0.23805353 -0.21977136 -0.1876824 -0.007937136 0.06272892 0.03147396 0.15598994 0.61632764
0.29333833 -0.350562 -0.26901692 -0.21494885 0.12356228 0.2778891 0.0976676 0.31245565
0.1133502 -0.11761543 0.037323058 -0.005127143 0.3411961 0.38879505 -0.114710376 -0.24242829
0.22169119 -0.21345127 0.056746196 0.2535694 0.47629607 -0.411712 -0.29035327 -0.13475762
-0.025408661 0.12471726 -0.21520333 0.031248689 -0.340032 0.1165951 -0.15733202 -0.10759899
0.059780855 0.08007899 0.23465553 0.08631913 0.3945522 0.23185018 -0.25587767 -0.060354196
0.20293172 0.15253142 -0.012569091 -0.12383005 0.19975951 0.0075993184 -0.13915119 0.031629458
0.5346905 -0.12376289 0.00087590975 -0.122545786 0.07373215 -0.33290747 -0.13644068 0.024931775
-0.52485186 -0.1183663 0.07515637 -0.31248996 -0.24614733 -0.46607265 0.51819706 0.34410033
0.11701484 0.0133844195 -0.2697543 -0.12117545 0.18566361 0.06788128 0.24387039 0.080751024
-0.01390915 -0.27127072 -0.108932525 -0.12815157 0.21274745 0.0502182 0.26204038 0.18282065
-0.04284108 -0.042217452 -0.10287642 0.0883504 0.22075015 0.01626385 -0.3244243 -0.3160573
-0.32713282 0.17428942 -0.2155282 -0.11697619 -0.18614307 0.11527363 -0.04545328 -0.06664139
-0.07466673 -0.062625 -0.012199223 -0.18219927 -0.11898406 -0.0725955 -0.25318465 -0.010194024
0.09902231 0.007150229 -0.061667696 -0.012933443 0.036705263 -0.008399059 -0.054630816 0.07792894
-0.105297044 0.0401262 -0.06554325 0.103451654 0.15656842 0.2424243 -0.051715065 0.09312528
0.24667385 -0.31142193 0.07206741 -0.11648231 -0.05453613 -0.008380852 -0.07652334 0.10665033

gru2.bias_ih_l0 f4 [192]
00000000: f197 943e 6721 2e3d af0a 183e d0d4 4c3e
00000010: f9e2 cabd 8103 4b3e 9920 7e3e 98ad a23d
00000020: fe76 56bd 29e0 cf3d ebe6 423e c7b3 913e
00000030: f9b8 5b3e 1ac8 c73d c3eb 4f3e 7cc4 603e
00000040: a4cf 223e 2894 cd3d fbfa 5a3e b28f 3a3e
00000050: 6600 283e 52a9 ae3e 9fda ed3e 0764 3d3e
00000060: e039 b23e 5780 803e ebab 33bc b70b 20bd
00000070: db3d dabd 93b4 3a3e 1ef6 0f3e 6eed 1d3e
00000080: 5858 173d a14d 003d df23 403e 6ef5 663e
00000090: ef37 243e 7f4f 083e 3ca2 213e a700 7b3d
000000a0: 6624 493e 5ff4 a43e 0022 463d 92cb 073f
000000b0: 437a 2c3e c36b bd3e b996 4a3e 4c34 02be
000000c0: fb2d 313e 6cc4 a53d 5baa 373e e879 c8bd
000000d0: 4724 653e 4d0c 293e 1fec 553e 9a1d bd3e
000000e0: 2535 263e ce57 a2bd 7e7e aa3e 7e32 cf3e
000000f0: 58ca fcbc 0f08 ad3e d37f b33d f16d f13e
00000100: bbda 073e 5a2f 70bd c60a 82bd 3200 b03e
00000110: dda5 ecbd d801 143d 68ac b53c 6e0a cfbd
00000120: fbba eebc 6ea6 f43b ba8d 173e ee59 873e
00000130: 5eaf 8a3e 250a 26be 133c cd3d 2568 5e3d
00000140: 1b2d 843c 2d29 5a3e 96e8 d1be 5832 01be
00000150: 646b f8bd 1e86 cbbd 64b8 54bc ee11 20bd
00000160: 846b 603d d3b5 303e 2fac 87bd e1ae e83d
00000170: 96a0 203d 6e3a ab3d 6565 7e3b 781c a1bd
00000180: 5064 95be f2e0 103d 87d7 e1bc dff0 663e
00000190: 833a 7cbd 27da 33bd c622 193d 3099 78bd
000001a0: 882e bc3d 2241 90be fb56 9fbd 18b6 ca3e
000001b0: d1d3 4abd 7bce 3d3d f48c b23d 679f b43b
000001c0: 4218 4cbe 1d79 5c3e 54b7 18be 0f17 9c3d
000001d0: a222 14bd 571a ec3d f7cf a8be e558 413e
000001e0: d0c7 0a3e 5ef7 1bbc 046e 453d e17a 1bbe
000001f0: f189 1fbe 4c71 283d d35c 323d ee36 e53e
00000200: d78f 16be e518 b43d 5a45 56bd c15d 67bd
00000210: 0181 8abe 791a d8bd d448 3abc 97ce 873e
00000220: 8b11 7cbe e99c bdbd 59e0 173e b710 8a3d
00000230: dae7 85bc 0665 e3bd 21db 963e 1712 2b3e
00000240: 6f2e 663d cc91 f93c a03a 4cbe fcc0 5bbe
00000250: 1806 8b3c 4192 4a3e 833d 2ebd 1430 59bd
00000260: 7134 debd ed35 27bb 364d 0ebd 5ff4 3b3e
00000270: 7e97 b93d c20a 1d3e df17 853d 0568 85bd
00000280: 729f 74be 9b39 3ebe a9af 893c ef09 503e
00000290: 49c1 5cbe d647 e4bd 5ef3 b5bd 8889 fdbd
000002a0: 7e65 d1bd d72d 0dbe 9081 4b3e a458 e63d
000002b0: 694e 203e 59d1 a5bc 8d23 4fbe 1b92 443e
000002c0: 94e8 42be 8bb1 94bd ca6b 2d3e 1e91 713d
000002d0: 4bd1 0ebe 3486 cf3d 0afb b8bc 86fb 883d
000002e0: 31e0 ccbc 38e3 fabd 3443 033e f640 f6bd
000002f0: c3a1 fcbd eca6 253d e24b e83c 49c7 69be
0.29022172 0.042512324 0.14847825 0.20003057 -0.09906573 0.19825555 0.24817123 0.07943267
-0.052359574 0.10150177 0.190334 0.28457472 0.2145728 0.09754963 0.2030478 0.21949953
0.15899521 0.10038024 0.21384804 0.18218878 0.16406402 0.34113556 0.46455857 0.18495189
0.3480978 0.25097916 -0.010966281 -0.039073672 -0.10656329 0.18232946 0.1405873 0.15422603
0.036949486 0.031324033 0.18763684 0.22554561 0.16036962 0.13311575 0.15784544 0.06127992
0.19642791 0.3221769 0.04837227 0.53045 0.16843514 0.36996278 0.19784059 -0.12715262
0.17302696 0.08094105 0.17936079 -0.09788877 0.2237712 0.16508599 0.20890854 0.36936647
0.1623121 -0.07926904 0.3329963 0.4046821 -0.030858204 0.3379521 0.08764615 0.4715419
0.13267033 -0.058638908 -0.06349711 0.3437515 -0.115550734 0.03613457 0.022176936 -0.10109411
-0.029141894 0.007466129 0.14800158 0.26435798 0.2708692 -0.16214807 0.10021224 0.05429854
0.01613479 0.2130477 -0.4099776 -0.12616861 -0.12129858 -0.0993769 -0.012983415 -0.0390796
0.054790035 0.1725686 -0.06624638 0.113614805 0.039215647 0.08360754 0.003881776 -0.07866758
-0.29178095 0.035370775 -0.027568592 0.22552823 -0.06157924 -0.04390922 0.03738668 -0.060692966
0.09188563 -0.28174692 -0.07780262 0.39592052 -0.04951841 0.046339493 0.08718291 0.0055121663
-0.19931129 0.21530576 -0.14913684 0.076215856 -0.03616584 0.115284614 -0.32971165 0.18881567
0.13552785 -0.009519426 0.048200622 -0.15183593 -0.15579964 0.041123673 0.043545555 0.4476847
-0.14703308 0.08793811 -0.052312233 -0.056485895 -0.27051547 -0.10551924 -0.011369903 0.26524803
-0.24616067 -0.09258444 0.14831676 0.06741469 -0.016345907 -0.11103253 0.29464057 0.1670612
0.056196626 0.03046503 -0.19944239 -0.21460336 0.01697068 0.19782354 -0.04253913 -0.053024366
-0.10849846 -0.002551432 -0.034741603 0.18354939 0.09062098 0.15336135 0.06498694 -0.06513981
-0.23888949 -0.18576662 0.016807394 0.2031629 -0.21558107 -0.11146514 -0.08884309 -0.12379748
-0.10224436 -0.13787018 0.19873643 0.112473756 0.15654911 -0.020241426 -0.20228405 0.1919636
-0.19034034 -0.07260426 0.1693565 0.058976285 -0.13947026 0.10133019 -0.022580642 0.06688599
-0.025009247 -0.1225037 0.12818605 -0.12024109 -0.12335541 0.040442392 0.028356496 -0.22829928

gru2.bias_hh_l0 f4 [192]
00000000: 1940 953e c5d5 5c3d 6025 6cbd 374f 323e
00000010: cd55 b2bd 1296 0c3d f8eb 9e3e 0272 183e
00000020: 234e a13c e477 2ebc f015 4c3e c57b 743e
00000030: 971c 7d3e 73e0 2d3e 146e b83d 2f8d 103e
00000040: 093d cc3c 1a2c c93d 9cfb 273e 09e5 34bd
00000050: 05f8 833e 9bc8 c93e 3be2 f53e b6d9 c63c
00000060: d87e a73e b8d2 1b3e 45d0 dbbd 17da 123e
00000070: c8be 053b f135 373e 73ed c73d 87f3 163e
00000080: c11c 1b3e ae8d 8cbd 6072 cfbc 5f7a 8f3e
00000090: e912 b93d ce09 523e 4471 123e 44cc ddbd
000000a0: 0d1e bc3e 388e b13e 52bb ec3b adb9 053f
000000b0: bb05 813e 18ba 9a3e 8c76 1c3e 1b1e 23be
000000c0: 77c4 273d 4c0a 5f3c 6801 fabb 2687 8f3b
000000d0: feba 653e 6975 003e 9df5 d93d 6b59 143e
000000e0: decb 863e 6553 cd3c 1915 903e 8fb5 d53e
000000f0: 5460 be3c 1c0b 2a3e 3018 b23d b4aa 1e3f
00000100: b79a ac3e ecf0 37bd d25a 603b 4264 153e
00000110: ea98 d4bb eab1 00be 5c0e b8bd b1e9 d4bd
00000120: 3ffc 3a3c 7da3 243d d441 f93d 2c5c 5c3e
00000130: 8c7d 9e3e 8e0f 20bd c80d ed3d 0db8 763e
00000140: 744b 003e 98ca 1d3e 0c91 98be 9a56 82be
00000150: 2cd9 d03c 4456 fbbc 0327 c03c d045 243d
00000160: 81b4 08be c9b9 3b3e 4a55 aa3d a1b5 64bd
00000170: 351d 463b 68ae 533e e9c2 07be 9d8b 32be
00000180: d3f2 53be 11ed 01bc cde4 373e 181c 7a3e
00000190: b238 2ebd 7986 3abc 21a6 93bd c428 edbd
000001a0: e5d4 493e a0ee 37be f38a 003b bb30 e13e
000001b0: 7cbf 26be 8a0c 833d e131 363e 8a1b 8d3d
000001c0: dfc9 503c 432e e13d 812b d8bd f89c 59bc
000001d0: 2343 683c 8c78 b43d 4f54 52be b176 473e
000001e0: ab3f 603d 27ab 6c3d 4764 cd3d 1ef5 3dbe
000001f0: ef66 e2bd 7fbf 123d 1908 27bd d616 013f
00000200: e5d8 a3bd 7d31 083e 2653 adbc 953e 2cbe
00000210: 206d 8c3d 9173 be3c 6f87 98bd a477 d73d
00000220: e112 4dbe 7b77 eabd 1450 283e a452 863d
00000230: 0204 bebc 934f dbbd 0924 853c 3100 c23d
00000240: 06dd 223e f1ee 9cbd 4f92 cfbd 27d7 14be
00000250: 293d d73d c2a3 103d f20c c4bc ac22 79be
00000260: 5f56 06be 64fb 26be b6f1 283a 8ddb 95bd
00000270: 59c7 63bd 2400 c83d a3a8 08bd 9486 0fbd
00000280: 46c9 83bd e38a cebc 9e18 46bc 9e4d bc3d
00000290: 374b 3cbe 0f0d 85bd e72c 4a3b ef10 00bd
000002a0: 80ce 623c 0a15 80be 9f63 e93d 994d 043d
000002b0: 9a7d ae3a 6059 7abd de3b 28be e451 2a3e
000002c0: 8da5 e9bc 8758 8bbd ba2a 003e d201 133e
000002d0: ca94 e03d 65a6 b33d 1636 b9bc 7160 7abd
000002e0: 29aa c23d d37c d23d 9f9c 303e fbe9 893c
000002f0: 6df6 3dbe 4563 a43d 1443 093e 7224 4fbe
0.29150465 0.053914804 -0.05765283 0.1741303 -0.087077715 0.034322806 0.31039405 0.1488724
0.019690579 -0.010648701 0.19930243 0.2387534 0.24717937 0.16980152 0.09005371 0.14116357
0.024931448 0.09822865 0.16404575 -0.044163737 0.2577516 0.39410862 0.48024163 0.024273735
0.32713962 0.15217102 -0.10733084 0.14341007 0.0020407904 0.17891671 0.09762087 0.14741336
0.15147687 -0.06862961 -0.025323093 0.2802305 0.0903681 0.20511553 0.1430102 -0.10829976
0.36741677 0.34678817 0.0072244788 0.52236444 0.25199685 0.30220103 0.15279597 -0.15929453
0.040958848 0.013613295 -0.007629562 0.0043801246 0.22434613 0.12544788 0.1064255 0.14487235
0.26327413 0.02506418 0.28141096 0.4174008 0.023239292 0.166058 0.0869602 0.6197922
0.33711788 -0.044907495 0.003423382 0.14589027 -0.0064879553 -0.12567869 -0.08987114 -0.103961356
0.011412679 0.040194977 0.12170759 0.21519536 0.3095516 -0.039077334 0.11574894 0.24093647
0.12528783 0.15409315 -0.29798162 -0.25456697 0.02549418 -0.030680783 0.023456102 0.04010564
-0.13350107 0.1833259 0.08317049 -0.055837277 0.003022981 0.20672 -0.13257946 -0.1743607
-0.20698099 -0.007930056 0.17958374 0.2442478 -0.042534538 -0.0113846 -0.07209421 -0.11580041
0.19710119 -0.17962122 0.001961407 0.4398249 -0.16283983 0.06398876 0.17792465 0.06890018
0.012743442 0.10995152 -0.10555173 -0.013282053 0.014176163 0.08812055 -0.20539974 0.19478871
0.05474822 0.05778041 0.10028892 -0.18550536 -0.11054789 0.035827156 -0.040779207 0.5042547
-0.08000354 0.13300128 -0.021157812 -0.16820748 0.068567514 0.023248466 -0.07447707 0.105208665
-0.20026733 -0.1144857 0.16436797 0.06558731 -0.02319527 -0.10708537 0.016252534 0.09472693
0.15904626 -0.07662762 -0.10135328 -0.14535199 0.10509712 0.03531242 -0.023931954 -0.24329633
-0.13118885 -0.16306835 0.0006444709 -0.073172666 -0.055610035 0.09765652 -0.03336395 -0.035040453
-0.06434874 -0.02521271 -0.01209083 0.09194492 -0.18388067 -0.06496631 0.0030849518 -0.03126615
0.013843179 -0.25016052 0.11395954 0.032300565 0.0013312579 -0.06112039 -0.16429088 0.16632801
-0.028521324 -0.068039946 0.12516299 0.14356163 0.10965879 0.087719716 -0.022608798 -0.06112713
0.09505112 0.102777146 0.17247246 0.016835203 -0.18551035 0.08026747 0.13404495 -0.20228747

fc.weight f4 [17, 64]
00000000: 68a1 3dbf d8cf 093f cc4b 66bd 7f01 a03e
00000010: 3112 643e 63b8 bcbb 2d46 2cbe 177f 28be
00000020: a939 243f 9ef2 803f ceb9 cebd b43e 463f
00000030: a1f8 d93e c0f1 37be 5aad d0be 01d6 0f3d
00000040: 038b 103e f92e 2f3f b0dd d53e 7121 073f
00000050: 2dec 04be a58a 08bf e0b2 8b3e 328d 7d3f
00000060: 805d 9f3f efce 35bf 27bf eb3d 032d adbe
00000070: 2281 9d3e a990 5bbe 711d 93bd 3dd0 d43e
00000080: 6d95 6a3e 69db 7cbe 89da 69bc a6e6 c23e
00000090: 66ec 813f 3d54 7d3e 0841 383f ddb5 953e
000000a0: 463e 71be 5555 cb3e ec19 40be f34c 9a3f
000000b0: ad79 a3be 9290 623e 3b0d 813e 5372 07bf
000000c0: 2a67 593e 17c8 ef3d ad8e 72be 83bf 60be
000000d0: bc03 fcbe f11b fabe 0091 4abf 5cc5 acbd
000000e0: 33ac babe ba06 1b3f 7b3a 4cbd 1a19 ae3e
000000f0: 2447 0c3f 1fd7 c6bd 9ba0 b0be e5f3 d7be
00000100: 9e82 513e 48af bdbd cb2c 88be 3011 9e3e
00000110: 95e9 a33e 9024 b0be 8c71 203e 45ae 163e
00000120: fc66 853e 9f24 dcbd 7baf 58be 28c9 a8bd
00000130: 0a4f 41bd a363 6f3e 2f43 bb3b e950 fabe
00000140: 4b29 1fbe 148c 93bd c7f3 e9bd cf3d 963e
00000150: 67b6 6dbe 287f 2b3e 4f9d 2abe b427 a6bd
00000160: 7363 673c a594 b3bc 9f1b 5cbd 3b8e 4bbe
00000170: 78e8 82be 3148 9abe b16d 9dbe 5a71 c43c
00000180: 263c db3e 1a6b 4b3e 71ca babc f91e 7dbe
00000190: 47fb 4dbe 278f 9a3e 81e9 eabc 6c90 3fbd
000001a0: 78b8 02be 3594 103f 7eaa 8e3e 8011 5ebe
000001b0: 2cd9 ab3e 893d 663e d6cd 963e b8d9 6dbe
000001c0: a695 493e 6dd6 603e 42a7 8cbe 8b56 b7be
000001d0: 2fad e7be d4b3 233e 8d53 903e 53fb 40be
000001e0: 320b d1be 8fb8 ab3d 2c5e fbbd 6fcf 9cbd
000001f0: 83aa af3e 5efa 8dbe cccb d63d c72b 0b3f
00000200: 9fb7 e63e db36 9dbe 7836 523e 314e 82be
00000210: d9b5 d4be b65f 623f 3b04 9abd 72e5 743e
00000220: cf1f 1fbe 608b 4a3d e8ca 54be cf2a a13e
00000230: a840 bcbd 468b e23e b3e2 163f ef2b 8b3c
00000240: bbe6 08be dc2a 02bd 137d 9bbe 2c9b 81be
00000250: a395 003e d253 8dbe 1a3a 1ebf e1df 9a3e
00000260: caa2 4c3c a8bb a4be 7f6e 993e b90c b13c
00000270: f930 a73c 5a0a bf3d ebe6 1e3e 5609 1bbe
00000280: 6999 c8bd bb27 163e a089 473b b9af 9bbd
00000290: d7cd 07be 3f65 62be dfd4 06be 7b22 65be
000002a0: 4ffe 04be 3e19 e93e 185b 813e 9730 b0be
000002b0: f527 d8be 9197 9f3c 0d41 2e3e 84c7 213e
000002c0: 2b5e 623e bd64 fe3d a5b7 4a3e 77f5 5b3d
000002d0: c7da e83d c0b0 80be a02d 56be ff4c 243f
000002e0: 6260 9ebe b02d a43e d2fa 253f 377d 24be
000002f0: da4d 00bd b42e 9dbe 8682 2c3e 2821 343f
00000300: 1144 933e 37f9 93bd dce2 993d 815e 5dbe
00000310: 0f4e 2abe ea04 6f3f 7447 7dbe 9709 fa3e
00000320: f9a6 22be 4cbc cabd 2531 9fbe c88a bcbe
00000330: 9199 f23d b6d7 8f3e 216e c5be ffcf 73be
00000340: 3b37 8ebe 7125 54bc e91d 54be 9757 75bd
00000350: 5f5b ccbd 3b6c 40be 2c09 b83e 0caf 2c3f
00000360: 0d7a ab3d c6b2 e63e 576e 113e c23a 613e
00000370: 2a5d e43e 13d3 9dbe 9631 623e 0384 95be
00000380: b02e 3f3d 88b1 b33d 9361 ad3d 04f4 e4be
00000390: 126a 0abe d2ec afbe f019 a1bd 705f 3fbe
000003a0: 81c1 f2bc 11bc 0c3d 4550 0fbf 5192 5fbe
000003b0: d10e 53be d872 dcbe 7d73 953e 1582 1c3d
000003c0: 5001 ac3c 6961 dbbe 563c 443e d5bd 013c
000003d0: 13c4 fabc ed31 3dbe d985 89be 187f 81be
000003e0: 36c7 a5bd 7169 b83e eb8f 1ebe 4eaf d5be
000003f0: 568c adbd c295 5abe cb3f 783e 0406 c43e
-0.7407441 0.5383277 -0.05622463 0.3125114 0.22272564 -0.0057592853 -0.16823645 -0.16454731
0.6415048 1.0074041 -0.10094033 0.7743943 0.425725 -0.17963314 -0.40757257 0.0351162
0.14115529 0.6843105 0.41770697 0.527854 -0.12980719 -0.53336555 0.27284908 0.9904357
1.2450409 -0.7101888 0.11511069 -0.33823404 0.30762583 -0.21441902 -0.0718335 0.41565123
0.22908564 -0.24693073 -0.014273294 0.38066596 1.0150268 0.24739166 0.7197423 0.29240313
-0.23558912 0.3971354 -0.18759888 1.2054733 -0.3192877 0.22125462 0.25205407 -0.5290882
0.2123076 0.11708086 -0.23687239 -0.21948056 -0.492216 -0.48849443 -0.791275 -0.08436081
-0.36459503 0.6055714 -0.04986046 0.34003526 0.5479605 -0.09709 -0.34497532 -0.42178264
0.20459983 -0.09261948 -0.26596674 0.30872488 0.32014146 -0.34402895 0.15668315 0.14714916
0.26055133 -0.107491724 -0.2116069 -0.082414925 -0.04719452 0.23377852 0.005714796 -0.48889855
-0.15543096 -0.07204452 -0.1142345 0.2934403 -0.23214112 0.16747725 -0.16661571 -0.081130415
0.014122832 -0.021921465 -0.05373728 -0.19878475 -0.25567985 -0.30133203 -0.3074775 0.023979831
0.42819327 0.19865075 -0.02280161 -0.24718846 -0.20115386 0.30187342 -0.028675796 -0.04676859
-0.12765682 0.56476146 0.2786445 -0.21686363 0.33564126 0.22484411 0.29453915 -0.23227584
0.19685993 0.21956797 -0.27471358 -0.35808215 -0.45249316 0.15986568 0.28188744 -0.18845873
-0.40828854 0.08384811 -0.12273821 -0.07656752 0.34309778 -0.27730078 0.1048809 0.54363674
0.45061967 -0.30705914 0.2052859 -0.2545028 -0.4154499 0.88427293 -0.07520338 0.23915651
-0.15539478 0.049449325 -0.20780528 0.31477973 -0.0919202 0.44246882 0.58939666 0.016988723
-0.13369267 -0.031779155 -0.30368862 -0.253137 0.12557082 -0.27603012 -0.61807406 0.3024893
0.012489984 -0.3217442 0.29967114 0.021612512 0.020409094 0.09328146 0.15517776 -0.1514028
-0.09794886 0.14663593 0.003044702 -0.07601876 -0.13262115 -0.22108935 -0.13167141 -0.22376435
-0.12987636 0.4552707 0.25264812 -0.3441207 -0.42217985 0.019481452 0.17017002 0.15798765
0.22106235 0.12421558 0.19796617 0.05370089 0.113698535 -0.2513485 -0.20915842 0.64179987
-0.3093291 0.32066107 0.64835846 -0.1606339 -0.031324245 -0.30699694 0.16846666 0.7036309
0.28762868 -0.07225268 0.07513973 -0.21618082 -0.1663134 0.93366873 -0.24734288 0.4883544
-0.15884008 -0.09899196 -0.31092182 -0.36824632 0.11845697 0.28094262 -0.38560584 -0.23809813
-0.27776513 -0.01294838 -0.20714535 -0.059897985 -0.09978365 -0.18791287 0.35944498 0.674546
0.08372889 0.45058268 0.14202248 0.2199507 0.4460233 -0.308251 0.22089228 -0.2920228
0.046675384 0.08774096 0.084658764 -0.4471742 -0.13517025 -0.34360367 -0.07866275 -0.1868875
-0.029633285 0.03435904 -0.55981857 -0.21833159 -0.20611121 -0.4305637 0.29189673 0.038209993
0.02099672 -0.42847756 0.19163641 0.007918795 -0.030611074 -0.18476076 -0.2685993 -0.25292277
-0.08094637 0.36017945 -0.15484588 -0.4173531 -0.084740326 -0.2134619 0.24243085 0.3828584

fc.bias f4 [17]
00000000: 63cb 13bf 6e4f 503d 756d 8ebc 1906 45be
00000010: faf9 0cbe 86e6 7d3e cd6c 06bd f3d2 07bc
00000020: a64d 173d 0ad7 863d 65eb 82bd c12b c23d
00000030: 8fe3 03be f3a3 4ebe 0564 143e 0aa4 ac3c
00000040: 0756 51be
-0.5773222 0.050857 -0.017386178 -0.19240607 -0.13767233 0.24794969 -0.032818604 -0.00829004
0.036939286 0.06583984 -0.06392554 0.09481002 -0.12879775 -0.20179729 0.1449128 0.021074314
-0.20442973
