checkpoints/mou_et_al/no_class_balancing/Salinas_PCA_Split_8/epoch24_0.96.pth (torch, 65596 bytes, 10 tensors)

gru.weight_ih_l0 f4 [192, 8]
0	0x3d754e90	0.059889376
1	0xbc8eb7d8	-0.017421648
2	0x3e10e8f8	0.1415137
3	0x3cb6df3c	0.022323243
4	0x3e3c1395	0.18366845
5	0xbcfdf562	-0.031000797
6	0xbcf6e1f9	-0.030137049
7	0xbdf554d4	-0.1197907
8	0x3d56b0fb	0.052414875
9	0x3d5d2763	0.05399264
10	0x3d409327	0.047015335
11	0x3d69eefa	0.05711267
12	0x3e40217f	0.18762778
13	0x3e5a79be	0.21335503
14	0x3cd5ab63	0.0260827
15	0x3ca4e3aa	0.02012809
16	0xbe4ef97f	-0.20212363
17	0xbdccdf00	-0.100034714
18	0x3ce46045	0.027877936
19	0xbab15581	-0.001352951
20	0xbe6fb673	-0.23409443
21	0xbd5b9e0e	-0.05361753
22	0xbe68d3bc	-0.2273702
23	0xbe3d7dc7	-0.18505011
24	0x3de22f81	0.11044217
25	0x3dc22e85	0.09481529
26	0x3d2010f2	0.03907866
27	0x3dbf61c2	0.09344818
28	0xbdb9cc36	-0.09072153
29	0xbd9c9713	-0.076460026
30	0xbc5c2d34	-0.013438512
31	0xbd5eba20	-0.05437672
32	0x3dbdd4f6	0.09269135
33	0xbd337bfc	-0.043819413
34	0x3df21598	0.11820525
35	0x3da5c478	0.08094114
36	0x3d338d09	0.043835673
37	0x3dbd4973	0.09242525
38	0x3d753c75	0.05987211
39	0x3da382b1	0.07983912
40	0xbd4ed3fb	-0.05049513
41	0xbe265665	-0.16243894
42	0x3ca16505	0.01970149
43	0xbe4ffe26	-0.20311794
44	0xbe037666	-0.12838134
45	0xbdd30083	-0.10302832
46	0xbe6bdc9c	-0.23033375
47	0xbe917042	-0.28405958
48	0xbe47eece	-0.1952469
49	0xbd4874e2	-0.048939593
50	0xbc1aefcf	-0.009456589
51	0xbc9bb196	-0.019005578
52	0xbdf51cba	-0.1196837
53	0xbcf883ec	-0.030336343
54	0xbde7edbc	-0.11324641
55	0xbd78c451	-0.060734097
56	0xbe2e0f9b	-0.1699814
57	0xbde91833	-0.11381569
58	0xbd463719	-0.04839239
59	0xbe1cd5a5	-0.15315874
60	0xbc9318d3	-0.017956173
61	0xbe017f32	-0.12646177
62	0xbdfe55b9	-0.12418694
63	0xbe06f3c3	-0.13178925
64	0x3cb59e33	0.022170162
65	0x3d25929b	0.040423017
66	0x3e4da328	0.2008177
67	0x3ea05608	0.31315637
68	0x3eda5cb0	0.4264884
69	0x3edd54aa	0.43228656
70	0x3e823397	0.25429985
71	0x3e9e2ef9	0.30895212
72	0x3e70a110	0.2349894
73	0x3e51f8f2	0.20505121
74	0x3e75c0a9	0.23999275
75	0x3e14f379	0.14546002
76	0x3ddf2672	0.10896005
77	0x3e9fada9	0.3118718
78	0x3e91370c	0.2836231
79	0x3e0886ca	0.13332668
80	0xbe81f651	-0.25383237
81	0xbe4ff5e7	-0.20308648
82	0xbe0cd111	-0.13751628
83	0xbe39c4fa	-0.18141547
84	0xbdf4a8f3	-0.11946287
85	0xbe37d9e0	-0.17954206
86	0xbd430aa6	-0.047617577
87	0xbe2368f7	-0.1595801
88	0xbbe5462e	-0.0069968915
89	0xbd00e799	-0.03147087
90	0x3e265555	0.16243489
91	0x3ea022cd	0.3127655
92	0x3e71974d	0.23592873
93	0x3e000ed3	0.12505655
94	0x3d31ae70	0.043379247
95	0xbc383436	-0.011242917
96	0x3db27ef1	0.087156184
97	0x3dd42695	0.103589214
98	0xbd91d80c	-0.07121286
99	0x3dad8c68	0.08474046
100	0x3d94b48c	0.07260999
101	0x3e683c4d	0.22679253
102	0x3e14579d	0.14486547
103	0x3d766200	0.060152054
104	0xbeb44486	-0.3520853
105	0xbf0461d2	-0.5171176
106	0xbecbd625	-0.39811817
107	0xbebda48d	-0.37039605
108	0xbf12f631	-0.5740691
109	0xbeeba490	-0.4602399
110	0xbef6edbb	-0.4822825
111	0xbeba5657	-0.36393997
112	0xbdeb4995	-0.11488644
113	0xbb7a90c7	-0.0038233267
114	0xbdeb3a71	-0.11485756
115	0xbdb953e7	-0.09049206
116	0xbe8e1ba9	-0.27755478
117	0xbd9e739c	-0.077368945
118	0xbe689aad	-0.22715254
119	0xbd44f9de	-0.048089854
120	0xbe2eb59d	-0.17061467
121	0xbe36c932	-0.17850187
122	0x3cea3fb0	0.028594822
123	0x3d3d4588	0.04620889
124	0x3d8be043	0.06829884
125	0x3de7ed6c	0.113245815
126	0xbbf7a337	-0.0075572985
127	0xbdedbc4a	-0.11608179
128	0xbd9a35b1	-0.07529772
129	0xbe0c8458	-0.1372236
130	0x3d60343c	0.054737315
131	0x3cd8e5ec	0.026476823
132	0x3b9ada94	0.0047257636
133	0x3e0e6744	0.1390658
134	0x3cac60cc	0.02104225
135	0x3d6a6efe	0.057234757
136	0xbdfc0d24	-0.12307194
137	0x3d3651aa	0.044511475
138	0xbcdfbdb8	-0.027312145
139	0xbe33c65d	-0.17556138
140	0xbd0fb4ee	-0.035084657
141	0xbe2cc3ae	-0.16871521
142	0xbe20407d	-0.156496
143	0xbe03fbe9	-0.12889065
144	0xbea6fa53	-0.32612857
145	0xbd5f06f5	-0.054449994
146	0xbb4939ff	-0.0030704734
147	0xbde5e721	-0.11225725
148	0xbd965e4a	-0.07342203
149	0xbc9b3ca1	-0.018949809
150	0xbe8245bd	-0.2544383
151	0xbe3d4d74	-0.18486577
152	0x3cc7c41d	0.024385506
153	0xbd2beff9	-0.041976903
154	0x3e2a3eb4	0.16625482
155	0x3e680ad4	0.2266038
156	0x3ebacebb	0.36485848
157	0x3e9da760	0.3079176
158	0x3e8eb7f7	0.2787473
159	0x3db5cc01	0.08876801
160	0xbdff26bb	-0.12458559
161	0xbeb576a4	-0.35442078
162	0xbe99ab44	-0.30013478
163	0xbe9cb954	-0.30610144
164	0xbecc3751	-0.39885953
165	0xbe86dac0	-0.26338768
166	0xbe35f839	-0.1777047
167	0xbe94d4d9	-0.2906864
168	0xbcf1eb33	-0.029531097
169	0xbe8ecaf9	-0.2788923
170	0xbe7f5d01	-0.24937822
171	0xbdfe68d6	-0.124223396
172	0xbe3f0317	-0.18653522
173	0xbdc0f196	-0.09421079
174	0xbe7114d6	-0.23543105
175	0xbe4626ab	-0.19350688
176	0xbe230572	-0.15920046
177	0x3c8406fd	0.016116614
178	0xbbde997e	-0.0067932
179	0x3d18b63d	0.03728317
180	0xbd944099	-0.072388835
181	0x3dccd7e1	0.10002113
182	0xbde45897	-0.1114971
183	0xbde05e7e	-0.10955523
184	0xbe549541	-0.20760061
185	0xbd7058bf	-0.058678385
186	0xbe596c62	-0.21232751
187	0xbeaa74be	-0.33292192
188	0xbe929c32	-0.28634793
189	0xbe3033f9	-0.17207326
190	0xbd8166b3	-0.063184164
191	0xbd06ef01	-0.032942776
192	0xbc174268	-0.009232141
193	0xbdc29499	-0.09500999
194	0x3b3af8ee	0.0028529721
195	0x3d83b001	0.064300545
196	0xbde331b2	-0.11093463
197	0x3d9c9b88	0.07646853
198	0x3d35727a	0.044298626
199	0xbc3b7f5a	-0.011443937
200	0xbe4d1566	-0.20027694
201	0x3bea1576	0.0071436716
202	0xbde4eb21	-0.1117766
203	0x3d92e9af	0.07173478
204	0x3bc72f9c	0.0060786735
205	0x3e17cfde	0.14825389
206	0xbd60c6ab	-0.054876965
207	0x3d018211	0.03161818
208	0xbddc90a8	-0.107697785
209	0xbd9f6ba1	-0.077842005
210	0x3da3da07	0.0800057
211	0x3e3c6363	0.18397288
212	0x3e3afb9e	0.18260047
213	0xbc89ce53	-0.016822016
214	0xbd399db8	-0.045316428
215	0xbcd17c19	-0.02557187
216	0xbd85ea4a	-0.06538828
217	0x3cef74b1	0.029230447
218	0x39e51160	0.0004369123
219	0xbe24805e	-0.16064593
220	0xbe14d71f	-0.14535187
221	0x3d8c4767	0.068495564
222	0x3e17c7c2	0.14822295
223	0x3ce2f57e	0.02770495
224	0xbd17efee	-0.03709405
225	0xbd802c8d	-0.062584974
226	0xbe60a385	-0.21937378
227	0xbd1f5b0a	-0.03890518
228	0x3d93c870	0.07215965
229	0x3d1c4ac0	0.038157225
230	0xbc9883f3	-0.018617606
231	0xbd8f75da	-0.070049
232	0x3d630105	0.055420894
233	0xbcd7701f	-0.02629858
234	0xbc6d4cb5	-0.01448362
235	0xbda7021a	-0.08154698
236	0x3d10f362	0.035388358
237	0xbda81dfc	-0.08208844
238	0x3da5c332	0.08093871
239	0x3dededa2	0.116175905
240	0xbda7b665	-0.08189086
241	0xbe82a6c7	-0.25517866
242	0xbe2265d2	-0.15859154
243	0xbdf4e7db	-0.119582854
244	0xbd543ea9	-0.05181757
245	0x3dc94a5f	0.09828638
246	0x3cd51d82	0.026015047
247	0xbe53613c	-0.2064256
248	0xbdc146f2	-0.0943736
249	0x3d83e790	0.064406514
250	0xbc5de651	-0.013543681
251	0xbde85bff	-0.11345672
252	0xbe02e8f2	-0.12784174
253	0xbdba416b	-0.09094509
254	0xbdcd2521	-0.100168474
255	0xbdd2cbab	-0.10292753

gru.weight_hh_l0 f4 [192, 64]
0	0xbd48b403	-0.048999798
1	0x3dca1933	0.098680876
2	0x3ba0a85b	0.004902882
3	0xbdbba1ab	-0.09161695
4	0xbe1aaf0d	-0.15105839
5	0xbe1bbc35	-0.15208514
6	0xbc64b677	-0.013959519
7	0xbe179d3a	-0.14806071
8	0x3defae15	0.117031254
9	0x3d83adb0	0.06429613
10	0x3e53cda5	0.20683916
11	0x3d4e05f4	0.050298646
12	0x3dade4b4	0.08490887
13	0x3d97dd0d	0.07415209
14	0x3e8aebb7	0.2713296
15	0x3d5e63ef	0.054294523
16	0x3e342cd5	0.17595227
17	0xbdfe8a87	-0.12428766
18	0x3d1c7469	0.038196955
19	0x3de4b054	0.111664444
20	0xbe56f5bf	-0.20992182
21	0x3c32fca1	0.010924489
22	0x3c14e06f	0.009086712
23	0x3e2b8950	0.167516
24	0x3cb59f4f	0.02217069
25	0x3e1f9d78	0.15587413
26	0x3dc8c997	0.09804075
27	0xbe89ee5a	-0.2693966
28	0x3e8f0739	0.27935198
29	0x3e918423	0.28421125
30	0xbd2843ba	-0.041080214
31	0x3e1dd680	0.15413857
32	0x3e322a08	0.17398846
33	0xbdcb1cf3	-0.09917631
34	0x3e46e6ee	0.1942403
35	0xbe68b8e2	-0.22726777
36	0xbe36146d	-0.1778123
37	0x3dd0ef61	0.10201908
38	0x3e6dc28e	0.23218748
39	0x3e86fcd0	0.26364756
40	0x3e4246e1	0.1897235
41	0xbd9679a5	-0.073474206
42	0x3e4665d6	0.19374785
43	0xbcec99a2	-0.028881852
44	0xbeb72756	-0.35772198
45	0xbe666628	-0.22499907
46	0xbd8f28f0	-0.0699023
47	0xbdf78d4d	-0.12087498
48	0xbd6c00f4	-0.057618096
49	0x3df500e0	0.119630575
50	0xbe24b4fc	-0.16084665
51	0xbe233672	-0.15938738
52	0x3e4f1cec	0.20225877
53	0x3e17dcf4	0.1483038
54	0x3e09cb39	0.1345643
55	0xbd492018	-0.049102873
56	0xbd17365f	-0.036917087
57	0x3e986d82	0.29771048
58	0x3e064d75	0.13115485
59	0xbe9b3887	-0.30316564
60	0x3e46141e	0.19343612
61	0xb8c2de54	-9.292053e-05
62	0xbdede9f4	-0.11616889
63	0x3db2e0c4	0.08734277
64	0xbe62e858	-0.22158945
65	0x3e0dc9af	0.13846467
66	0xbdcfb7e6	-0.10142498
67	0x3ce24a48	0.02762331
68	0x3d2f2f03	0.042769443
69	0xbe0b8da5	-0.13628252
70	0xbe4ab206	-0.19794473
71	0xbe2d6e8c	-0.16936702
72	0xbe86f093	-0.2635542
73	0x3e0aa0de	0.13537928
74	0x3d857eed	0.0651835
75	0x3e88ab13	0.2669302
76	0xbc37a1e1	-0.0112080285
77	0xbe1141e1	-0.14185287
78	0x3bb72d88	0.0055901445
79	0x3dcc8412	0.09986128
80	0x3c8013ad	0.015634382
81	0xbd904640	-0.07044649
82	0x3cb1dc56	0.02171151
83	0x3e3030c5	0.17206104
84	0xbe7bf6be	-0.24605843
85	0xbdffb065	-0.124848165
86	0xbe67f215	-0.2265094
87	0xbce7c8db	-0.028294018
88	0x3d17cb02	0.037058838
89	0x3d826182	0.063662544
90	0x3d6fc12e	0.05853384
91	0x3d22451e	0.039616697
92	0x3e37f922	0.1796613
93	0x3ed743fd	0.42044058
94	0xbd2b1fb0	-0.041778266
95	0x3dfb3022	0.1226504
96	0x3df015d2	0.11722912
97	0xbde6d62e	-0.1127132
98	0xbe569b78	-0.20957744
99	0xbe6e197c	-0.23251909
100	0xbe45be49	-0.1931087
101	0x3d4f5a46	0.0506232
102	0x3dbd6660	0.09248042
103	0x3e83cf11	0.25743917
104	0x3e1dc939	0.15408792
105	0x3dc0858d	0.09400473
106	0x3d95f7ef	0.0732268
107	0xbd985dfa	-0.074397996
108	0xbe18fb9b	-0.1493973
109	0xbe020e80	-0.12700844
110	0x3e777d21	0.24168827
111	0x3e591355	0.21198781
112	0x3e3d5f7b	0.18493454
113	0xbe0d3ce5	-0.1379276
114	0xbd74de1d	-0.059782136
115	0xbd3db16e	-0.04631179
116	0x3dc68d80	0.09694958
117	0x3eb909d9	0.36140326
118	0x3d0d0e00	0.03443718
119	0x3c25e76d	0.010125977
120	0xbd0ad761	-0.033896808
121	0x3d4ff65c	0.050772056
122	0xbdcfc6ce	-0.10145341
123	0xbd7d8caa	-0.061901726
124	0x3e66b590	0.22530198
125	0xbe12eecc	-0.14348906
126	0x3c587add	0.013212887
127	0xbe20a422	-0.15687612
128	0xbc83367c	-0.016017191
129	0xbe63dc1a	-0.22251931
130	0x3dfc0da5	0.1230729
131	0x3d1c74d2	0.038197346
132	0xbe3c16ca	-0.18368068
133	0x3e2ae5e0	0.16689253
134	0x3da4dcd5	0.08049933
135	0xbd3e27ea	-0.046424784
136	0x3df2a47d	0.1184778
137	0xbcb8779a	-0.022517968
138	0xbd7b3e73	-0.061338853
139	0xbd2fd0cf	-0.042923745
140	0x3e0ea6bc	0.13930792
141	0x3e59fb91	0.21287371
142	0xbe4f51c0	-0.20246029
143	0x3d112f1a	0.03544531
144	0x3c213bec	0.009840947
145	0xbc6ef2bc	-0.01458424
146	0x3e25fb39	0.16209115
147	0xbe306262	-0.1722503
148	0x3d2870ae	0.041123085
149	0xbe780793	-0.2422164
150	0xbcc01185	-0.023445854
151	0xbdc12889	-0.094315596
152	0xbe079f09	-0.13244261
153	0x3e2af440	0.16694736
154	0x3cbb6931	0.022877308
155	0x3e5a44b5	0.21315272
156	0xbe64126d	-0.22272654
157	0x3db51b5b	0.08843108
158	0x3dad98fd	0.08476446
159	0x3d6ba116	0.05752667
160	0xbe2a583a	-0.16635218
161	0x3ce11cc3	0.027479535
162	0xbe41b53c	-0.18916792
163	0x3e310008	0.17285168
164	0x3d3b61e0	0.045747638
165	0xbd9b7aab	-0.075917564
166	0xbd758a18	-0.05994615
167	0x3e2e2ad4	0.17008525
168	0xbda67c7d	-0.08129213
169	0x3cc47077	0.023979409
170	0x3e146997	0.14493404
171	0x3e0f485c	0.13992447
172	0xbdae14fe	-0.08500098
173	0x3d68bcd3	0.0568207
174	0xbe24290b	-0.16031282
175	0xbe9dfd3f	-0.30857274
176	0xbd3c0c4c	-0.045910165
177	0x3c9c3065	0.019066045
178	0xbe2f2df9	-0.17107381
179	0xbd297226	-0.041368626
180	0xbdbec558	-0.09314984
181	0x3e339e71	0.1754091
182	0xbe8058bc	-0.250677
183	0x3c88bbac	0.016691051
184	0xbdc64023	-0.09680202
185	0xbe3a22a0	-0.18177271
186	0x3e927c01	0.28610232
187	0x3c1cfe30	0.009582087
188	0x3cea48fc	0.028599255
189	0xbe925660	-0.28581524
190	0xbd3aa241	-0.045564894
191	0xbd5123b9	-0.05105946
192	0x3e2e7232	0.1703575
193	0xbeafee39	-0.34361437
194	0x3e4306ae	0.19045517
195	0x3d911421	0.070839174
196	0xbe32943b	-0.17439358
197	0xbddad8a6	-0.10685854
198	0x3e52c379	0.2058238
199	0xbdd8d8fa	-0.1058826
200	0x3e1c8924	0.1528669
201	0x3ea25115	0.31702486
202	0x3e085fed	0.13317843
203	0xbec985cd	-0.39359894
204	0x3ec42aee	0.38314003
205	0xbcd08711	-0.02545503
206	0xbdce1ad3	-0.1006371
207	0x3e4ce591	0.20009448
208	0x3e92811b	0.28614125
209	0xbd0ee16b	-0.034882944
210	0x3ea33ed3	0.3188387
211	0xbb42d981	-0.0029731693
212	0x3e476ccc	0.19475096
213	0x3dd264aa	0.102731064
214	0x3e6bd447	0.23030196
215	0xbe2d54d4	-0.1692689
216	0x3e13d1bd	0.14435478
217	0x3ea12ecb	0.31481013
218	0xbe05370c	-0.1300928
219	0x3c0e718b	0.008694063
220	0x3b5af1fd	0.0033408396
221	0x3d255e78	0.040373296
222	0xbe829a56	-0.25508374
223	0x3aaee042	0.001334198
224	0xbdeba6aa	-0.11506398
225	0x3ba18727	0.0049294415
226	0x3e3d8152	0.18506363
227	0xbe79bd4a	-0.24388614
228	0x3e9e6296	0.3093459
229	0x3e946948	0.28986573
230	0x3e6b9eaa	0.23009744
231	0x3e65ab5e	0.22428653
232	0xbe861912	-0.26191002
233	0x3dae7c16	0.08519761
234	0x3e7e1442	0.24812415
235	0x3ea494a7	0.32144663
236	0xbd7b8e2b	-0.06141488
237	0x3ca7a899	0.020466136
238	0xbed14daf	-0.4087958
239	0xbe9d7e42	-0.3076039
240	0xbdae8654	-0.08521715
241	0xbcbb730a	-0.022882003
242	0xbdf46696	-0.11933629
243	0x3ebb0e65	0.3653442
244	0xbe4086ef	-0.18801473
245	0x3d20b4af	0.039234813
246	0x3df09e07	0.11748891
247	0x3eb0a2c3	0.34499177
248	0x3d9edbd8	0.077567756
249	0x3d5f3831	0.054496948
250	0x3e0c085c	0.13675064
251	0x3d69cdf6	0.057081185
252	0xbdc168e5	-0.09443835
253	0x3f0dbbbb	0.5536458
254	0xbeb22500	-0.34793854
255	0xbe277ca8	-0.16356146

gru.bias_ih_l0 f4 [192]
0	0x3e5e822c	0.21729344
1	0x3c7865fd	0.015161035
2	0xbd9afe1b	-0.07567998
3	0x3d778d73	0.06043763
4	0xbc33e579	-0.0109800035
5	0xbcebcca2	-0.0287841
6	0xbd457c56	-0.04821428
7	0xbdc496f3	-0.09599104
8	0x3e8b2f45	0.271845
9	0x3e31300b	0.17303483
10	0xbd3c8db4	-0.046033576
11	0xbb74ccb3	-0.0037353456
12	0xbe2098d2	-0.15683296
13	0xbe39d8b7	-0.18149076
14	0xbca88c3f	-0.020574687
15	0xbd08486b	-0.03327219
16	0xbe5ab42c	-0.21357793
17	0xbd1580c7	-0.036499765
18	0x3d8e978f	0.06962501
19	0x3de8460a	0.11341484
20	0x3d4d6c33	0.050152015
21	0x3cbe900d	0.023262048
22	0xbb4b6140	-0.0031033307
23	0x3d09dcba	0.033657767
24	0xbe6d88b9	-0.23196687
25	0xbdde6ef1	-0.10861004
26	0xbe26f585	-0.16304596
27	0xbd9bbf4c	-0.07604846
28	0xbcd02c05	-0.025411615
29	0xbde1e015	-0.110290684
30	0xbcafa6c1	-0.02144182
31	0xbdb52acd	-0.08846054
32	0x3c190e5e	0.009341804
33	0xbd941f66	-0.07232551
34	0x3e10df6f	0.14147733
35	0x3d4eacb0	0.050457656
36	0x3d2314c1	0.039814714
37	0xbde93b6d	-0.11388288
38	0x3c8d4fe9	0.017250018
39	0x3b82009e	0.0039673587
40	0xbd032b36	-0.03202363
41	0x3e0197b2	0.12655523
42	0xbe56ef1b	-0.20989649
43	0xbc2b0647	-0.010438508
44	0x3d2195da	0.03944955
45	0xb993035e	-0.00028040534
46	0xbdc79e39	-0.097469755
47	0xbdf9d515	-0.12198845
48	0xbcc4ba14	-0.02401451
49	0xbe0bdf17	-0.13659321
50	0xbd9b9300	-0.075963974
51	0xbdd9f4dd	-0.10642407
52	0xbe04f682	-0.1298466
53	0x3c8c6c80	0.01714158
54	0x3d25c571	0.040471498
55	0xbc616860	-0.013757795
56	0x3d7397ca	0.05947093
57	0x3d3cec29	0.046123657
58	0xbe2c399c	-0.16818851
59	0x3e0efe48	0.13964188
60	0x3d9770f2	0.073945895
61	0x3d831f82	0.06402494
62	0xbd66086d	-0.05616038
63	0xbc4e3bb9	-0.012587481
64	0x3dfa84e3	0.122323774
65	0x3e7496fe	0.23885724
66	0xbd2571cb	-0.040391725
67	0x3eb48668	0.35258794
68	0x3e547cb1	0.20750691
69	0xbedf428c	-0.4360546
70	0xbd597ac2	-0.053095587
71	0xbde3e56c	-0.11127743
72	0x3f1f0387	0.6211476
73	0x3dedabf3	0.11605062
74	0x3c9313a0	0.017953694
75	0x3dd2d394	0.102942616
76	0xbdd8f9dd	-0.10594533
77	0x3ed07b7a	0.40719205
78	0x3db900a9	0.09033329
79	0x3d4cb5a8	0.04997793
80	0xbe330d69	-0.17485584
81	0xbe0c7861	-0.13717796
82	0xbe419099	-0.18902816
83	0x3e47ccf5	0.19511779
84	0xbe15cc65	-0.14628752
85	0xbde445da	-0.11146136
86	0xbded9695	-0.11600987
87	0xbe20f33f	-0.15717791
88	0xbe6e0867	-0.23245393
89	0xbeaddc02	-0.33956915
90	0xbdecdf5c	-0.1156604
91	0x3e1006c7	0.14065085
92	0x3ba2e0f8	0.004970666
93	0x3e1649fd	0.14676662
94	0xbd1879e8	-0.037225634
95	0xbda909d8	-0.08253831
96	0xbde8f04a	-0.113739565
97	0x3ec05bc0	0.3757
98	0x3d8daa28	0.0691722
99	0x3e00ae90	0.1256659
100	0x3e1919da	0.14951268
101	0xbdd40533	-0.10352554
102	0xbd2eb1dd	-0.042650092
103	0xbe70477d	-0.2346477
104	0xbe24d18d	-0.16095562
105	0xbcab38b4	-0.020901062
106	0xbda4a0d9	-0.08038492
107	0xbe6f8a2f	-0.23392557
108	0x3e996b1e	0.29964536
109	0xbc8fe0c0	-0.017563224
110	0x3d6d9fee	0.05801385
111	0x3ddb2df5	0.10702125
112	0xbe9da44d	-0.30789414
113	0x3dc22dee	0.09481417
114	0x3cfaa23f	0.030594943
115	0x3e3eff6a	0.1865212
116	0x3d1cb0d7	0.038254585
117	0x3e6dbef9	0.23217382
118	0x3e88eb23	0.26741895
119	0x3bfcdd62	0.0077168206
120	0xbe6f80dc	-0.23389
121	0xbcd20521	-0.025637211
122	0xbe851c55	-0.25998178
123	0x3e6bd5ae	0.23030731
124	0x3e4ec52b	0.20192401
125	0xbc525571	-0.012837754
126	0xbdf11eff	-0.1177349
127	0x3de800f2	0.11328305
128	0xbbe054f2	-0.006846064
129	0xbd9ec02c	-0.077514976
130	0x3e22015b	0.1582083
131	0x3db532c1	0.08847571
132	0xbe372862	-0.17886499
133	0x3e5e443f	0.21705721
134	0x3e202dd8	0.15642488
135	0x3c221b36	0.009894183
136	0xbc4c58c2	-0.012472333
137	0xbdab7f8e	-0.083739385
138	0x3e3d326e	0.18476269
139	0xbe39a26b	-0.18128364
140	0x3db0ba98	0.0862934
141	0x3cb46a1e	0.022023257
142	0xbd081d24	-0.033230916
143	0xbe0473ef	-0.1293485
144	0x3e4aa861	0.19790794
145	0xbdefed38	-0.11715168
146	0x3e05353d	0.1300859
147	0x3d20c3ad	0.03924911
148	0x3e15c996	0.1462768
149	0x3e33b8b3	0.17550926
150	0x3e24fd4f	0.16112255
151	0xbe20c48e	-0.1569998
152	0xbd1a58b0	-0.037682235
153	0x3df3b9fe	0.119007096
154	0xbe01163b	-0.12606137
155	0xbcfddf40	-0.030990243
156	0x3d9723a6	0.07379846
157	0xbdfb0aa5	-0.1225789
158	0xbd4a599a	-0.049401857
159	0x3e4b2635	0.19838794
160	0xbdd9d2d4	-0.106359154
161	0xbdedddad	-0.11614547
162	0x3e0f6d3d	0.14006515
163	0xbd023e69	-0.0317978
164	0xbd465d54	-0.04842885
165	0x3de99204	0.114048034
166	0x3e1164fe	0.14198682
167	0xbe263712	-0.16231945
168	0xbdb73178	-0.08944982
169	0x3d9f1c77	0.07769101
170	0x3dd984b1	0.10621012
171	0x3e6098a0	0.21933222
172	0xbdbe6ede	-0.0929849
173	0x3e07dd71	0.13268067
174	0xbe050d51	-0.12993361
175	0xbe480457	-0.19532906
176	0x3d934aca	0.07191999
177	0xbe057a9e	-0.13035056
178	0x3e112cdc	0.14177269
179	0x3d292567	0.041295435
180	0xbd7a4e6d	-0.06110995
181	0xbe5e0f4c	-0.21685523
182	0x3d9e5c02	0.07732393
183	0x3e03fa20	0.12888384
184	0x3e52fb57	0.20603691
185	0xbd50c849	-0.050972257
186	0x3dcf5eef	0.10125529
187	0x3d78f4e8	0.060780436
188	0xbc2da38d	-0.010598076
189	0x3e0fc4f0	0.1403997
190	0xbe18064c	-0.14846152
191	0xbbe29811	-0.0069151004

gru.bias_hh_l0 f4 [192]
0	0x3e19509b	0.14972155
1	0xbdbb96e3	-0.09159639
2	0xbdab4612	-0.08362974
3	0x3e3cc6f9	0.18435277
4	0x3d4dbdca	0.050229825
5	0xbd8f2b83	-0.06990721
6	0xbda74b4d	-0.08168659
7	0xbd92aa40	-0.07161379
8	0x3e8d487f	0.27594373
9	0x3eb7c746	0.3589422
10	0x3dcc8de5	0.09988002
11	0xbd28e469	-0.041233454
12	0xbe479f3c	-0.19494337
13	0xbdffc5f0	-0.124889255
14	0x3c861165	0.016365716
15	0xbcc36975	-0.023853997
16	0xbe010253	-0.12598543
17	0x3e0d9b0d	0.13828678
18	0xbe15b2b1	-0.14618947
19	0x3ea9462e	0.33061355
20	0xbe0f20fe	-0.1397743
21	0x3d4a7563	0.049428355
22	0xbd3a63a6	-0.04550519
23	0x3d89b950	0.06724799
24	0xbe054bb9	-0.13017167
25	0xbd941000	-0.07229614
26	0xbdbe4f87	-0.092925124
27	0xbe1d2965	-0.15347822
28	0x3bdeda01	0.0068008904
29	0x3d962111	0.07330526
30	0x3d4a12fe	0.04933452
31	0xbe6309b7	-0.22171675
32	0xbc662283	-0.014046314
33	0x3db803c6	0.08985095
34	0x3e37c102	0.1794472
35	0xbd113999	-0.03545532
36	0xbcfc09b4	-0.030766346
37	0xbdf2025a	-0.11816855
38	0xbd6d9637	-0.058004584
39	0x3d36c8bb	0.044625025
40	0xbddb7128	-0.10714942
41	0x3d5f0b12	0.054453917
42	0xbe93f2ef	-0.2889628
43	0xbe68b45b	-0.2272505
44	0x3caea791	0.021320136
45	0xbd35d855	-0.044395763
46	0x3da565a5	0.08076028
47	0x3b02a466	0.0019934415
48	0xbc0fa3a6	-0.008767044
49	0x3d560391	0.052249495
50	0xbdf4801d	-0.11938498
51	0xbb002d2a	-0.001955817
52	0x3c2d34ba	0.010571653
53	0x3db1f29f	0.086888544
54	0xbd2fac1f	-0.042888757
55	0xbcfab6c7	-0.030604733
56	0x3a8ca0c1	0.0010729061
57	0x3e003e33	0.12523727
58	0x3cc6bcd0	0.024259955
59	0x3dca012c	0.09863505
60	0x3b4e68f1	0.0031495655
61	0xbdaa7a6a	-0.0832413
62	0x3d8a898d	0.06764517
63	0xbb80162c	-0.003908893
64	0x3e3a10f8	0.18170536
65	0x3e281b35	0.16416629
66	0xbde82296	-0.11334722
67	0x3e808c63	0.25107107
68	0x3d4c58db	0.049889427
69	0xbec17952	-0.37787873
70	0x3dda2eda	0.106534675
71	0x3ca72daf	0.020407526
72	0x3f1ed529	0.62044007
73	0x3ddbe361	0.107367285
74	0xbda0b863	-0.07847669
75	0x3e7d467e	0.24733922
76	0xbdfddeab	-0.12395986
77	0x3ea8ca09	0.3296664
78	0x3d1db29f	0.038500424
79	0xbd48649a	-0.048924066
80	0xbe2a4b7d	-0.16630359
81	0xbe31ae61	-0.17351677
82	0xbdf03d02	-0.11730386
83	0x3d6130b4	0.054978088
84	0xbd91e418	-0.071235836
85	0xbe32b31c	-0.17451137
86	0xbddefdd5	-0.10888258
87	0xbdd9256a	-0.10602839
88	0xbe0bc79e	-0.13650367
89	0xbdd9f371	-0.10642136
90	0x3dab1872	0.08354272
91	0x3d9bd114	0.07608238
92	0xbd72d0df	-0.059281226
93	0x3eb2c875	0.34918562
94	0xbb77a32e	-0.0037786472
95	0xbe6b2c41	-0.229661
96	0xbd4c1246	-0.049822114
97	0x3e6e1dd9	0.23253573
98	0x3e85102d	0.25988904
99	0x3e1238b8	0.14279449
100	0x3e210fcf	0.15728687
101	0x3d9757b6	0.073897764
102	0x3d57f734	0.052725986
103	0xbe472843	-0.19448952
104	0xbe2f7222	-0.17133382
105	0xbcfc6f1f	-0.030814705
106	0xbd783e84	-0.060606495
107	0xbe42982e	-0.19003364
108	0x3ecce178	0.4001577
109	0xbd323983	-0.04351188
110	0x3d558ab8	0.052134246
111	0x3dc2e023	0.09515407
112	0xbe207d43	-0.15672784
113	0x397901fc	0.0002374723
114	0xbe53b249	-0.20673479
115	0xbcfc304c	-0.030784748
116	0xbd8e0a69	-0.06935579
117	0x3d5546b3	0.052069377
118	0x3e9ecf9c	0.31017768
119	0x3e1b6378	0.15174663
120	0xbe07eade	-0.13273188
121	0x3d2706fb	0.04077814
122	0xbe8fb940	-0.28071022
123	0x3e4e9905	0.2017556
124	0x3e0c00d4	0.13672191
125	0xbe2b9436	-0.16755757
126	0xbe52576a	-0.20541158
127	0x3d65f5a9	0.056142483
128	0x3e493f50	0.19653058
129	0xbd71c42d	-0.05902498
130	0x3dbaa17a	0.091128305
131	0xbd5915d8	-0.052999347
132	0x3d8da8ce	0.069169626
133	0x3e0fcae1	0.14042236
134	0x3d73af58	0.059493393
135	0x3db46b19	0.0880949
136	0x3e2aed0e	0.16691992
137	0x3c77ce04	0.015124802
138	0x3e0aed48	0.13567078
139	0xbd11a052	-0.035553284
140	0x3da15ab9	0.07878632
141	0x3d5f268c	0.05448012
142	0xb915ff7f	-0.00014304927
143	0x3d2324d4	0.039830044
144	0x3ce2fa57	0.027707262
145	0xbe277733	-0.16354065
146	0x3e3e82de	0.1860461
147	0x3e2a0f88	0.16607487
148	0x3e6fb200	0.23407745
149	0x3e32c4c3	0.17457871
150	0x3d1f3664	0.03887023
151	0xbe288923	-0.16458564
152	0x3bde0c14	0.006776342
153	0x3e004871	0.12527634
154	0x3c13d3b0	0.009022638
155	0x3d5a5ffe	0.0533142
156	0xbd84fb6c	-0.064932674
157	0xbde7f83b	-0.11326643
158	0xbe4e6a22	-0.20157674
159	0x3d16bc90	0.03680092
160	0xbdb090a4	-0.08621338
161	0x3d31fd4e	0.04345446
162	0x3e67b0a9	0.22625984
163	0xbe1c80c1	-0.1528349
164	0xbd8596f1	-0.065229304
165	0xbac89c0d	-0.0015305296
166	0xbc080491	-0.00830187
167	0x3e12a7e1	0.14321853
168	0xbe3839f5	-0.17990859
169	0xbe231e91	-0.15929629
170	0x3e17562b	0.14778964
171	0x3d068884	0.032845035
172	0xbcb6c1f3	-0.02230928
173	0x3de2f27c	0.110814065
174	0xbe2715d7	-0.16316925
175	0xbceb52fd	-0.028726095
176	0x3bd81d3d	0.0065952823
177	0xbdcb46c7	-0.09925609
178	0x3da4696d	0.08027921
179	0x3ded4b17	0.11586588
180	0x3dcb6647	0.09931617
181	0x3bf7e65e	0.0075653037
182	0xbd78bd54	-0.060727432
183	0x3d73da89	0.059534583
184	0x3e23dc01	0.16001894
185	0xbc824ecf	-0.01590672
186	0x3dcc044e	0.099617586
187	0xbcc72459	-0.024309324
188	0x3d64a422	0.05582059
189	0x3e3afce6	0.18260536
190	0xbe28ce14	-0.16484863
191	0xbd350d85	-0.044202346

gru_bn.weight f4 [49]
0	0x3f800000	1.0
1	0x3f800000	1.0
2	0x3f800000	1.0
3	0x3f800000	1.0
4	0x3f800000	1.0
5	0x3f800000	1.0
6	0x3f800000	1.0
7	0x3f800000	1.0
8	0x3f800000	1.0
9	0x3f800000	1.0
10	0x3f800000	1.0
11	0x3f800000	1.0
12	0x3f800000	1.0
13	0x3f800000	1.0
14	0x3f800000	1.0
15	0x3f800000	1.0
16	0x3f800000	1.0
17	0x3f800000	1.0
18	0x3f800000	1.0
19	0x3f800000	1.0
20	0x3f800000	1.0
21	0x3f800000	1.0
22	0x3f800000	1.0
23	0x3f800000	1.0
24	0x3f800000	1.0
25	0x3f800000	1.0
26	0x3f800000	1.0
27	0x3f800000	1.0
28	0x3f800000	1.0
29	0x3f800000	1.0
30	0x3f800000	1.0
31	0x3f800000	1.0
32	0x3f800000	1.0
33	0x3f800000	1.0
34	0x3f800000	1.0
35	0x3f800000	1.0
36	0x3f800000	1.0
37	0x3f800000	1.0
38	0x3f800000	1.0
39	0x3f800000	1.0
40	0x3f800000	1.0
41	0x3f800000	1.0
42	0x3f800000	1.0
43	0x3f800000	1.0
44	0x3f800000	1.0
45	0x3f800000	1.0
46	0x3f800000	1.0
47	0x3f800000	1.0
48	0x408f1988	4.4718666

gru_bn.bias f4 [49]
0	0x00000000	0.0
1	0x00000000	0.0
2	0x00000000	0.0
3	0x00000000	0.0
4	0x00000000	0.0
5	0x00000000	0.0
6	0x00000000	0.0
7	0x00000000	0.0
8	0x00000000	0.0
9	0x00000000	0.0
10	0x00000000	0.0
11	0x00000000	0.0
12	0x00000000	0.0
13	0x00000000	0.0
14	0x00000000	0.0
15	0x00000000	0.0
16	0x00000000	0.0
17	0x00000000	0.0
18	0x00000000	0.0
19	0x00000000	0.0
20	0x00000000	0.0
21	0x00000000	0.0
22	0x00000000	0.0
23	0x00000000	0.0
24	0x00000000	0.0
25	0x00000000	0.0
26	0x00000000	0.0
27	0x00000000	0.0
28	0x00000000	0.0
29	0x00000000	0.0
30	0x00000000	0.0
31	0x00000000	0.0
32	0x00000000	0.0
33	0x00000000	0.0
34	0x00000000	0.0
35	0x00000000	0.0
36	0x00000000	0.0
37	0x00000000	0.0
38	0x00000000	0.0
39	0x00000000	0.0
40	0x00000000	0.0
41	0x00000000	0.0
42	0x00000000	0.0
43	0x00000000	0.0
44	0x00000000	0.0
45	0x00000000	0.0
46	0x00000000	0.0
47	0x00000000	0.0
48	0xbdd4d67d	-0.10392473

gru_bn.running_mean f4 [49]
0	0x3ba7f775	0.0051259347
1	0x3c069950	0.0082152635
2	0x3c501ed5	0.012702663
3	0x3c9ea0f2	0.019363854
4	0x3cde9596	0.027170938
5	0x3d0eb0b7	0.034836497
6	0x3cf55ce1	0.029951515
7	0x3c864b19	0.016393231
8	0x3c1e5118	0.009662889
9	0x3c1ad8dc	0.009451117
10	0x3c476dd2	0.012172179
11	0x3c807a2f	0.015683262
12	0x3c323c3c	0.010878619
13	0xb97c5604	-0.00024064636
14	0xbc0ecd6d	-0.0087159695
15	0xbc6af319	-0.014340186
16	0xbc95419a	-0.018219758
17	0xbcbcf55a	-0.023066211
18	0xbcf43660	-0.029811084
19	0xbd14e240	-0.03634858
20	0xbd2b41c9	-0.041810784
21	0xbd380346	-0.044924997
22	0xbd3ebb1d	-0.046565164
23	0xbd43d83a	-0.04781363
24	0xbd3ddaa1	-0.04635108
25	0xbd2ba0fe	-0.04190158
26	0xbd3ebf19	-0.046568964
27	0xbd3e905b	-0.046524387
28	0xbd258bfa	-0.040416695
29	0xbcf3abb3	-0.029744959
30	0xbc853e46	-0.016265046
31	0xba0985d4	-0.0005246077
32	0x3c4b43fc	0.012406345
33	0x3cc007fc	0.023441307
34	0x3d064792	0.0327831
35	0x3d24921f	0.040178414
36	0x3d38470b	0.044989627
37	0x3d3c96a8	0.046042114
38	0x3d3b6302	0.045748718
39	0x3d349542	0.044087656
40	0x3d2acbda	0.041698314
41	0x3d1ecc30	0.038768947
42	0x3d12047c	0.035648808
43	0x3d0a01a7	0.033692982
44	0x3cfc1a20	0.030774176
45	0x3ce24800	0.027622223
46	0x3ccc5888	0.024944559
47	0x3cbac88d	0.022800708
48	0x3ca9d600	0.020731926

gru_bn.running_var f4 [49]
0	0x3b66ccec	0.0035217358
1	0x3c29c030	0.0103607625
2	0x3c9b85c5	0.018984685
3	0x3cf555f4	0.029948212
4	0x3d308ab1	0.043101016
5	0x3d6765e2	0.056493647
6	0x3d965175	0.073397554
7	0x3dc29baa	0.09502347
8	0x3de8c57c	0.11365792
9	0x3e034068	0.12817538
10	0x3e11a09e	0.14221427
11	0x3e1c92cc	0.15290374
12	0x3e26f1f7	0.1630324
13	0x3e340a23	0.17581992
14	0x3e42a868	0.19009554
15	0x3e4b0af5	0.19828399
16	0x3e4bc772	0.19900301
17	0x3e4ba698	0.19887769
18	0x3e47fb6e	0.19529507
19	0x3e434800	0.19070435
20	0x3e41066a	0.18850103
21	0x3e4124ab	0.18861644
22	0x3e42cbfc	0.19023126
23	0x3e44aa09	0.19205488
24	0x3e38a6f6	0.1803244
25	0x3e21bfd4	0.15795833
26	0x3e0618f8	0.13095462
27	0x3ddeff33	0.10888519
28	0x3dc21822	0.09477259
29	0x3db5de1b	0.08880254
30	0x3db3c540	0.08777857
31	0x3db5dc85	0.088799514
32	0x3db98111	0.090578206
33	0x3dbd6f6b	0.09249767
34	0x3dc1c445	0.094612636
35	0x3dc6730e	0.09689914
36	0x3dcc1640	0.09965181
37	0x3dd61977	0.10454076
38	0x3de1a228	0.11017257
39	0x3deac3ec	0.114631504
40	0x3ded6f98	0.115935504
41	0x3deaa3dc	0.11457035
42	0x3de37654	0.11106554
43	0x3dd92ea3	0.106045984
44	0x3dce94ae	0.10086952
45	0x3dc6590d	0.09684954
46	0x3dc24c94	0.09487262
47	0x3dc295d8	0.09501237
48	0x3dc5f39a	0.09665604

fc.weight f4 [17, 64]
0	0x3dc93522	0.098245874
1	0x3dd1f745	0.10252241
2	0x3eb684c8	0.3564818
3	0xbe4e77a3	-0.20162825
4	0x3de8a3ee	0.11359392
5	0x3e015ccb	0.12633054
6	0xbe068792	-0.13137653
7	0x3e0772b0	0.13227344
8	0x3d80b756	0.062849686
9	0x3d762a30	0.060098827
10	0xbe0e764e	-0.13912317
11	0xbd2f4c07	-0.042797115
12	0xbdefbbc7	-0.117057376
13	0x3eb26e95	0.34849992
14	0x3d8f8123	0.07007053
15	0xbe8ea90a	-0.27863342
16	0xbee261d9	-0.44215277
17	0x3e28d3cb	0.16487043
18	0x3d8a2b9f	0.06746601
19	0xbe11e14b	-0.14246099
20	0x3e2e4210	0.17017388
21	0x3e378a88	0.17923939
22	0xbd3b4f67	-0.04573002
23	0x3e11c25b	0.14234297
24	0xbe6367ee	-0.22207615
25	0xbe166856	-0.14688239
26	0x3ea1807a	0.31543332
27	0x3ec10cef	0.3770518
28	0x3e0048a0	0.12527704
29	0x3d6e1e35	0.058134276
30	0x3d301276	0.042986356
31	0x3d539279	0.05165336
32	0xbe4f17dc	-0.20223945
33	0x3e1406d6	0.14455733
34	0xbdbbb6df	-0.09165739
35	0x3e8f172c	0.27947366
36	0x3ea110fe	0.31458277
37	0xbde21d32	-0.11040725
38	0xbdfdaffa	-0.123870805
39	0xbd9614d1	-0.07328189
40	0xbd19d0d8	-0.037552685
41	0xbdb4c221	-0.0882609
42	0xb93b470d	-0.00017860178
43	0xbe00db76	-0.12583718
44	0x3e3f0aef	0.18656515
45	0xbd93a176	-0.072085306
46	0x3e2e9160	0.17047644
47	0x3e585bbd	0.21128745
48	0xbdbe944f	-0.09305631
49	0x3d4a8c95	0.049450476
50	0x3e939273	0.2882267
51	0xbd7abfaa	-0.06121794
52	0x3e7a95b6	0.24471173
53	0x3e232336	0.159314
54	0xbd9b90a3	-0.07595947
55	0xbd8620ff	-0.06549262
56	0xbe4df7e1	-0.2011409
57	0x3e812a5a	0.25227624
58	0x3ee9fcbc	0.45700634
59	0x3d36e4db	0.044651847
60	0xbc9879fa	-0.01861285
61	0x3e0ea951	0.13931777
62	0x3efd9fc4	0.49535954
63	0x3e9f9837	0.31170818
64	0xbe3137c4	-0.17306429
65	0x3ed233a6	0.4105503
66	0x3cd1f610	0.025630027
67	0x3e74f50c	0.23921603
68	0xbda1d8c2	-0.079026714
69	0xbe7a66ac	-0.24453229
70	0xbf0c36cd	-0.5477112
71	0x3dc2aa7f	0.09505176
72	0xbf4c1bb1	-0.79729754
73	0x3e0b61c5	0.13611515
74	0xbe8df54e	-0.27726215
75	0x3f14ccec	0.58125186
76	0x3dee8b0b	0.11647614
77	0x3ede2bd7	0.43392822
78	0xbd8fae11	-0.070156224
79	0xbea1819c	-0.31544197
80	0xbd3e4536	-0.046452723
81	0xbe89eefc	-0.26940143
82	0xbe0645f5	-0.13112624
83	0xbef3d495	-0.47623125
84	0x3e556473	0.208391
85	0xbe11a169	-0.1422173
86	0xbf074753	-0.5284321
87	0xbed7687f	-0.42071912
88	0xbf6e2391	-0.9302302
89	0x3dc0bdf8	0.09411234
90	0xbd05fc24	-0.032711163
91	0x3eb30573	0.34965095
92	0x3f14e039	0.58154637
93	0x3f1fd773	0.62438124
94	0xbeb39574	-0.3507496
95	0x3e5a129b	0.2129616
96	0xbec0fde1	-0.37693694
97	0x3e98ff5f	0.29882333
98	0xbdc68dc4	-0.096950084
99	0x3e578572	0.21046999
100	0xbe869d6c	-0.26291978
101	0x3dd94a51	0.10609878
102	0xbe0b88bc	-0.13626379
103	0xbeed77a9	-0.46380356
104	0xbe6d015e	-0.23145053
105	0x3dfa7517	0.12229364
106	0xbe4dbdd4	-0.20091945
107	0x3df837bf	0.12120008
108	0xbe59311e	-0.21210143
109	0x3e5a782a	0.21334901
110	0xbec387df	-0.381896
111	0xbe8d0d70	-0.27549314
112	0xbf090c46	-0.5353435
113	0xbe2422dd	-0.16028924
114	0x3e91f292	0.2850538
115	0xbf5e5d92	-0.86861527
116	0x3eb5c865	0.3550445
117	0x3ec676ec	0.38762605
118	0xbf023b1a	-0.5087143
119	0xbc980752	-0.018558178
120	0x3e0e88b9	0.13919343
121	0xbeaff631	-0.34367517
122	0x3f748899	0.9552093
123	0xbf38e084	-0.72217584
124	0x3e8f38ce	0.27973026
125	0xbe4a8bbd	-0.19779868
126	0xbd80e1d2	-0.06293072
127	0x3ee0d208	0.4391024
128	0x3f384eec	0.71995425
129	0x3eea914f	0.45813987
130	0x3f1f5821	0.6224385
131	0x3e09a457	0.13441597
132	0xbcd0b204	-0.02547551
133	0x3f8af77d	1.0856777
134	0x3e1a0bbd	0.1504354
135	0x3f13b63c	0.5769994
136	0x3e3f6efe	0.18694684
137	0x3ec52e88	0.38512063
138	0xbee90465	-0.45511165
139	0x3f3ad2af	0.7297773
140	0x3c4e3a87	0.012587196
141	0x3f1f9494	0.6233609
142	0xbde42e1e	-0.11141609
143	0xbf0829c3	-0.53188723
144	0xbd848d49	-0.064722605
145	0xbe7105bc	-0.23537344
146	0x3ec9e54f	0.3943276
147	0x3eefa4a7	0.46805307
148	0x3eccd49e	0.40005964
149	0xbeb9bc11	-0.36276296
150	0x3f199738	0.59996367
151	0xbe4ad6aa	-0.1980845
152	0x3d68f4eb	0.056874197
153	0xbc66ff10	-0.014098898
154	0x3d0f3062	0.03495825
155	0xbf02d195	-0.51101047
156	0xbf01ed00	-0.5075226
157	0xbebe9c5b	-0.37228665
158	0x3db4e18d	0.08832083
159	0x3bdc624c	0.006725585
160	0xbecf0905	-0.4043657
161	0x3f2bda0c	0.6712959
162	0x3e37dd77	0.17955576
163	0xbf1a0cce	-0.6017579
164	0xbdec6964	-0.11543539
165	0x3cd4e5f1	0.02598855
166	0x3ecfa0a4	0.40552247
167	0xbebb2be3	-0.3655692
168	0x3e07ed4c	0.13274115
169	0x3e1a941c	0.15095562
170	0xbdefcdbb	-0.11709162
171	0xbdf509d2	-0.11964764
172	0x3cb8efb6	0.02257524
173	0x3ed4b9d2	0.4154802
174	0x3e125004	0.14288336
175	0x3dfbae20	0.12289071
176	0xbec02f34	-0.37536013
177	0xbe068b76	-0.13139138
178	0x3f0f5ef7	0.5600428
179	0x3f03788a	0.51355803
180	0x3f1d7d12	0.6151897
181	0x3e3186c8	0.17336571
182	0xbe0be006	-0.13659677
183	0x3e1d8b7e	0.15385243
184	0x3dd5cad1	0.10439075
185	0x3d05805b	0.032593112
186	0x3ebdaf68	0.37047887
187	0x3f073a45	0.5282329
188	0x3eb08b61	0.34481338
189	0xbdd35ec8	-0.103208125
190	0xbd244a53	-0.040109944
191	0x3ec78f8a	0.389767
192	0x3ed82cf9	0.4222181
193	0x3d98204a	0.07428034
194	0xbe5d18f6	-0.21591553
195	0x3e6e2bb3	0.23258857
196	0x3ecfdc73	0.40597877
197	0xbe9e273f	-0.30889317
198	0x3e120e4a	0.14263263
199	0xbcabb693	-0.020961082
200	0x3eafd6b2	0.34343487
201	0xbf9c9270	-1.2232189
202	0xbc611e60	-0.013740152
203	0xbf16f58b	-0.5896842
204	0xbf46f461	-0.7771664
205	0xbe6bd933	-0.23032074
206	0x3db7c4fb	0.08973118
207	0x3c88a8f5	0.016682127
208	0xbddaa4ab	-0.10675939
209	0x3ebcf0d5	0.3690249
210	0xbefd7c7a	-0.4950903
211	0x3df7c8e3	0.12098863
212	0x3cfc0a89	0.030766742
213	0x3f387ff3	0.72070235
214	0xbf0dd090	-0.55396366
215	0xbbe68abc	-0.0070355814
216	0x3ebd8adf	0.37020013
217	0xbf8a5e4e	-1.081003
218	0x3e6d108f	0.23150848
219	0xbe39a469	-0.18129124
220	0x3edf98b1	0.43671182
221	0xbed925c1	-0.42411616
222	0xba729ecb	-0.00092552294
223	0xbe1edb71	-0.15513398
224	0x3e230252	0.15918854
225	0xbd40ce72	-0.04707188
226	0x3e409dd5	0.18810208
227	0xbdb6fe05	-0.08935169
228	0x3e3b4da2	0.18291333
229	0xbef69b2c	-0.48165262
230	0x3e869887	0.26288244
231	0x3e67ec1d	0.22648664
232	0x3ec11b31	0.37716058
233	0x3e334c0e	0.17509481
234	0xbf7609e9	-0.9610887
235	0xbf1f985a	-0.62341845
236	0x3e483446	0.1955119
237	0xbe96d99f	-0.29462907
238	0x3e8d02ac	0.275411
239	0x3e9d6bb6	0.3074624
240	0x3d98814e	0.07446538
241	0x3ddc8608	0.10767752
242	0x3ce8477f	0.028354404
243	0xbf26bdb5	-0.6513322
244	0x3e92c996	0.28669423
245	0xbf9327dc	-1.1496539
246	0x3d4599ea	0.048242487
247	0xbe5ce359	-0.21571101
248	0x3ed136a8	0.40862012
249	0x3e44c1a4	0.19214493
250	0xbe466102	-0.19372943
251	0x3e320357	0.17384087
252	0xbf414728	-0.754992
253	0x3dc641bc	0.096805066
254	0x3e3b13cb	0.18269269
255	0xbdd2eb81	-0.10298825

fc.bias f4 [17]
0	0xbebf346e	-0.37344688
1	0xbd14bc0f	-0.03631216
2	0xbe37b622	-0.17940572
3	0x3dc7aa47	0.09749275
4	0xbeb6c4dc	-0.35697067
5	0xbe9e7c24	-0.30954087
6	0xbecab80d	-0.39593545
7	0xbd851181	-0.06497479
8	0x3e3b8d5c	0.18315643
9	0x3cda1ddf	0.026625572
10	0x3e05e6c9	0.13076319
11	0xbd8f0ce8	-0.069848835
12	0xbe893afd	-0.26802817
13	0xbe74b22c	-0.23896092
14	0xbea39827	-0.3195202
15	0x3dce1bb8	0.10063881
16	0xbd4ff1b9	-0.050767634
