checkpoints/hamida_et_al/no_class_balancing/Salinas_DiffMaps_30/epoch24_0.21.pth (torch, 212998 bytes, 14 tensors)

conv1.weight f4 [20, 1, 3, 3, 3]
00000000: 1571 f43d 29a5 c3be d484 21be 3c7e d43c
00000010: 886c 113f 1863 eb3e 3204 26be 678c 27be
00000020: a4cb cb3d 20fb 8ebc 87d1 84bc 1258 80bd
00000030: 6166 b9be e10a 95be 8fb1 9f3e 32f5 523e
00000040: 1535 473e c6e5 8e3d 3ae9 52bd c452 d23d
00000050: 78fe 293e ba5c d2be 7cac 853e 0e7d 66be
00000060: 3bbf ce3c e250 64be bd59 f13d 648b fc3e
00000070: 66e5 aebe d5da 3a3e ae94 b13c 11ac 03be
00000080: 37ea 03bf cd8f 02bf b359 8bbe faa6 043d
00000090: f6c5 c03e 3db3 4f3e 1114 aabc 0f0e 8f3d
000000a0: f169 53be 2911 fcbd 692f 543e e91b a3be
000000b0: 6fa0 2bbe 0dd4 d53d b26f 8c3e 5b29 d13d
000000c0: 9f1e debe 9e4f 06be 8087 10bd 42c0 b0bd
000000d0: 805a 12be 964b a23e 9a79 8f3e a31a 703e
000000e0: 80a0 d4bd c65a 673e 4525 193e 992e 013f
000000f0: 9583 39bf 8a0a de3b 1105 073f fd96 413e
00000100: f634 f93d eeca 9ebe 3023 bd3e 97a5 81bd
00000110: 192c 023b 7da8 8bbe b5b9 d9bd 7358 c9bd
00000120: b2b8 383c 4be7 343e c378 393e aec4 2fbe
00000130: 0d8f 813e 74b3 25be 82f5 913e 370a 393e
00000140: 0f5f 403d 2810 fbbd eb81 4fbe 26ee 60bd
00000150: f3f6 91bd 0342 aabd 999b 163e dda3 a4be
00000160: ed83 c1be 748a 30be 3e25 04be 83b8 d33e
00000170: 35cf bcbe ee2c bf3e 5e1f 82be fdd5 c9bd
00000180: 6ae8 cdbe 5b66 8e3d ddd1 f63e 6b15 883e
00000190: 9762 363e 6e7a e53d 2f7c 593b 225c a73a
000001a0: 44c3 98be 1821 a9bc 1bcc d7bd 9681 f13d
000001b0: 11fb 833e 96c7 c4be df22 e9be e1ba 95bc
000001c0: b44b c93e fe5b bc3e 230c bdbd f3d3 9c3e
000001d0: cc05 b63e c046 fd3d 463d 13bf 4f2c 983d
000001e0: f918 f53e 77ac 843c dc44 803e 53b4 7f3e
000001f0: d6d0 b1be 2a7d 3bbe 76c5 91bd 4a78 80be
00000200: b930 063e 9ef7 b8be 8f00 84be fe11 03bf
00000210: 1faa d43e d0c2 9a3d 8ce3 b23e d6a2 ab3e
00000220: 0deb 363e 1cbc 933d ce7b dbbd 2713 b2be
00000230: b48e d33d 3241 d23e 11ca 643e 6e7a 133d
00000240: cd3e a0be b2dc dabd caeb ffbd 060a d63d
00000250: fe94 27bd 30ac 873d a559 053d 6ac5 b2be
00000260: f081 7e3e b3c8 14be 31b9 b6bd e2cd b73d
00000270: dd88 e3bd f716 1dbe 4d84 8f3e 2d80 aabd
00000280: 9f08 4bbe d46d 80be 3308 9b3d fe57 ffbe
00000290: 2320 bc3c 5b52 69be 12ab b83e 6e35 5dbe
000002a0: 9961 4f3e d0dd 27be a4d8 acbe fd57 043f
000002b0: 79db 7d3e 1150 b13e d4bb b13e 469d 15bf
000002c0: 7610 cc3d 033d 8a3e 8f26 e33e 4a75 d6bc
000002d0: 346e 96be 7953 b3bd f270 343e 7592 dc3d
000002e0: d382 0dbe e794 04be 1bd5 00be c0b6 c03d
000002f0: 704d 7c3d 2f9b 7ebc c66e 013e 49e5 e2bd
00000300: 1bf4 f1be 1c5e 6b3e 9c53 e7bd 9a40 97be
00000310: be16 663e bb61 903d b1c3 febd b18f 153c
00000320: 2a4d f93c 052a 173d 5e8f 443e 2867 34be
00000330: 5cf4 933c 0a9f 753e 7b46 09bd ece9 a43d
00000340: 3379 5c3e 1dd7 263e df75 1ebe 269c 0abe
00000350: ee83 a8be 6d41 803e 0b5e 9ebd 00b5 b43e
00000360: 2ae6 ecbe 15ed 913e 0ea3 0dbe 0766 0b3f
00000370: 04f3 aabe afcc 95bc 1698 f03d d287 133e
00000380: 0e21 b2bd d558 533e 5689 6c3e dd51 85be
00000390: 74df e6bd 8538 bf3e 918f f2bd 9126 203e
000003a0: d0b6 cc3c fc4f 2f3c eea8 97be ac9e cbbe
000003b0: e6b0 8b3e 9f58 643e c837 473e 1768 3f3e
000003c0: c3e2 aabe 013a 91be a457 aebe 1402 883c
000003d0: fd2f 24be 291a 04be a9ac 243e 5bb2 3b3d
000003e0: 076c 5bbd c3a2 063e 470d adbe 5c87 a3be
000003f0: d38e 5c3e e730 be3c c508 cb3e 4c88 03be
0.11935631 -0.38211945 -0.15773326 0.0259391 0.5680623 0.4597404 -0.16212538 -0.16362153
0.09950951 -0.01745373 -0.016213192 -0.06266798 -0.3621092 -0.29109862 0.31190154 0.20601347
0.19453843 0.069774196 -0.051491953 0.102696925 0.16600978 -0.4108637 0.26108158 -0.22508642
0.02523767 -0.2229648 0.11784694 0.49325097 -0.34159392 0.1824754 0.021677341 -0.12858607
-0.5152926 -0.5100067 -0.27216873 0.032385804 0.37651032 0.20283218 -0.020761522 0.06985103
-0.20645882 -0.123079605 0.2072121 -0.3185723 -0.1676042 0.10440836 0.27428967 0.10212966
-0.43382737 -0.13116309 -0.035285473 -0.0863042 -0.14292336 0.31698292 0.28022462 0.23447661
-0.103821754 0.22593221 0.14955623 0.5046173 -0.72466403 0.0067761587 0.52742106 0.18905254
0.121683046 -0.31014198 0.36940908 -0.06330412 0.001986271 -0.27276984 -0.10631124 -0.098313235
0.011274504 0.17666356 0.18112473 -0.17164871 0.25304452 -0.16181737 0.2850762 0.18070303
0.046965655 -0.12258941 -0.20264404 -0.054914616 -0.0712718 -0.08313372 0.14707793 -0.32156268
-0.37795964 -0.17240316 -0.12904832 0.4135171 -0.36876836 0.37338966 -0.25414556 -0.09855268
-0.4021638 0.069531165 0.48206988 0.2657884 0.17811047 0.11204992 0.0033185591 0.0012768547
-0.29836476 -0.020645663 -0.10536977 0.11792295 0.25777486 -0.38433522 -0.45534417 -0.018277587
0.3931557 0.36788934 -0.092308305 0.30630454 0.35551298 0.1236701 -0.5751537 0.07430326
0.47870615 0.016195519 0.25052536 0.24971132 -0.34729642 -0.18309465 -0.07117741 -0.25091773
0.13104524 -0.36126417 -0.25781676 -0.5119933 0.41536042 0.07556689 0.3493923 0.3352267
0.17863102 0.072136134 -0.10716973 -0.34780237 0.10329953 0.41065365 0.22342707 0.03600543
-0.31297913 -0.106866255 -0.12496145 0.104511306 -0.040913574 0.06624639 0.032556195 -0.3491624
0.24854255 -0.14529686 -0.08922041 0.08974816 -0.11110089 -0.15340792 0.28030625 -0.08325229
-0.19827507 -0.25083792 0.07569923 -0.4987182 0.022964543 -0.22785322 0.36068016 -0.21602413
0.20252074 -0.16393209 -0.33759034 0.5169676 0.24790753 0.34631398 0.34713614 -0.58443105
0.09964077 0.26999673 0.44365355 -0.026178975 -0.29380953 -0.087561555 0.1762121 0.10770122
-0.13819437 -0.12947427 -0.12581293 0.09409857 0.061597288 -0.015539928 0.12639913 -0.11078889
-0.4725655 0.22985119 -0.11295244 -0.29541475 0.22469613 0.070498906 -0.12439669 0.009128497
0.030432303 0.036905307 0.19195315 -0.17617476 0.018060856 0.2398645 -0.03351448 0.080524296
0.21530609 0.16292997 -0.15474652 -0.13536128 -0.32913154 0.25049916 -0.07732781 0.35294342
-0.4626935 0.28501192 -0.13831732 0.54452556 -0.3338853 -0.018286077 0.11747758 0.1440728
-0.08697711 0.20639355 0.23099265 -0.2603902 -0.11273089 0.37347808 -0.11843789 0.15639712
0.024989516 0.010700222 -0.2962107 -0.39769495 0.272834 0.22299431 0.19454873 0.18692051
-0.3337613 -0.28364566 -0.3405124 0.016602553 -0.16033931 -0.12900604 0.1608149 0.04582439
-0.05356982 0.13148026 -0.33799192 -0.31939209 0.21538858 0.023216678 0.39655128 -0.12844962

conv1.bias f4 [20]
00000000: 0dfc 2abc 0000 0000 6d50 72bd 0000 0000
00000010: df9c 68bb 3431 60bd ad32 16b8 0c8e 9abb
00000020: 1158 eab8 0000 0000 3d5e c9bc 0000 0000
00000030: 0000 0000 f7d4 7abb 9157 38bb 5d7c a5bc
00000040: 0000 0000 0000 0000 0000 0000 9022 0bbd
-0.01043607 0.0 -0.05915873 0.0 -0.0035493893 -0.054734424 -3.5809982e-05 -0.0047166403
-0.00011174393 0.0 -0.02458107 0.0 0.0 -0.003827391 -0.0028128366 -0.020200903
0.0 0.0 0.0 -0.03396851

pool1.weight f4 [20, 20, 3, 1, 1]
00000000: 1060 f0bd 7bbc 3fbd 16f7 013e a3fa 06be
00000010: aa67 a8be 48d1 503d a3bb 1d3d 894d a6be
00000020: 5b0b 3c3d 7396 9fbe 246b 49be 8cd7 d03c
00000030: d36f 25be 0c8b 03be 2f09 1d3e ee30 803e
00000040: f20e c5bd b767 abbe 4ed4 1fbe f3f0 3dbe
00000050: 2e8e ca3d 0366 983e c70e d0be 2653 613e
00000060: 7cc7 d53d 9dc2 cabe 4b5d efbd 27ea 9c3d
00000070: b160 c33c 2acf f0bd 1553 eabd 53c7 2abd
00000080: 8061 a93b 738f f5bc 9ed6 7e3d 505b 963d
00000090: 2e96 03be c8e0 183e d137 403e 9378 92bd
000000a0: 5e76 5e3d 8d09 dcbd a18a 29be 4793 8c3c
000000b0: 9a57 ff3d fe79 2a3d a8c0 88bd c9df 253d
000000c0: 2f32 e6be bb6b 923c 864f cbbd 38fe 833e
000000d0: 26d4 24be 428d debd 0754 2f3e d433 13be
000000e0: 2a42 da3e 95a8 38be c7a8 903d cb71 f03e
000000f0: faf2 a7bd 48aa ba3d 5256 c1bd 0e59 8abe
00000100: f84d 1dbe 1fb8 0e3e 49a0 54bd 8bd8 503e
00000110: 4780 b4bd 9940 913e 79fd c5bd 69c3 3fbe
00000120: 27b7 9cbd aa41 65be c346 2b3e d7d1 963e
00000130: 214d d33d ad6a 0abe 328f 00be ebcb 8d3e
00000140: be1e 18bd dcd4 efbd a8ce 863d 615d ab3d
00000150: 3a3b 363d 25a0 78be d87e 6b3e 1a3a 58be
00000160: f19a 98bd b3ef 893d bea8 16bd d997 3dbc
00000170: 124d dcbe b1a1 463d 0cb1 513e b322 813e
00000180: 5dcd 723e 2c6c ad3d d60d d73e 3e18 223d
00000190: b6df 86bc 42fa 983e 02a1 923d 29bf 2fbe
000001a0: 9743 b33e f377 f23c 1c51 073c 70c4 b23d
000001b0: cacd ffbd 1764 90bd 24fb a1bd f78a b33d
000001c0: 6c0d 76be 682f 55bd 919a 3dbd 455a 86be
000001d0: 00a5 5cbe cfee 503e d7e5 63bc 8399 213e
000001e0: bf5f b53d 4cb6 4abd c5c7 633e 78b6 013d
000001f0: ca78 e03c 9a32 833d 40bf 813c 96f0 d8bd
00000200: ad99 cbbd d82b 7bbe db67 ac3d 5c0d 01be
00000210: fa36 83bd f85e d93e 1dac 0bbd 4e63 9abe
00000220: 26da 9e3e e60b 2d3d 672e f23e 0505 91bd
00000230: 3680 333e d1fe 2f3d f54a 0dbe 7cfa 263e
00000240: 7c72 a43d d3ce e13e 8edb 26be bcde 31be
00000250: 60b7 85bd ad82 4e3e 6af7 08be f32d 373e
00000260: 9b38 d4bc 41a3 9dbe 64fe cf3b 1d91 ed3d
00000270: 8604 11bd a6df 20bc 9a4a 373e 10f9 79be
00000280: ce04 c33c 9fc6 b33c 2e16 b23e e341 083e
00000290: e116 e63e 9ac6 ce3e 5625 bd3d 0e69 84bc
000002a0: c638 b6be b2a7 8dbe 1be9 1d3e 552c 8abd
000002b0: a1fa cebd c35f ca3d 773b 323d c000 8dbc
000002c0: 6c8c 9b3d e1f3 27bc b621 8cbe bc93 82be
000002d0: 7290 8bbe 63c3 713e c1b3 6bbe 4714 66bd
000002e0: 0248 abbe 5903 9abe a291 32be db4e a83d
000002f0: fd17 a5bb 046b 7a3e 4ef2 c83d 5519 8ebd
00000300: 8da9 b3bd c772 d1bc 1be2 5a3d 5e24 febe
00000310: 8a32 80bd 1621 da3d 8bd9 aabe c54c b9bd
00000320: 97c2 aabe 15f4 263e 6f0c b53e cd1e 263e
00000330: 8ace aabe 3f71 533e b592 ba3e 2545 dabd
00000340: 7775 a3be 2722 abbd 8369 f83e 02eb 793e
00000350: fb8b f3bd a711 ccbe 33ea 8ebe 7301 ac37
00000360: 4aa0 0bbe 2aa3 5e3e e552 c1bd 5623 8bbe
00000370: 5be8 5f3e 9475 3bbe b72e 73bd 427a 823e
00000380: 8771 04be 1dcf ed3d e506 5c3e 1468 fa3c
00000390: c231 1d3e 72d3 0abd dcff da3e aca2 7cbd
000003a0: f727 a1bd 7af8 cbbe f5b9 a9bb 4601 033d
000003b0: 3f5d 353e 48a0 8ebe be36 663e 34c9 d4bd
000003c0: 1cfa 3ebd fb7d 13be 0a42 1d3e 6e59 cebd
000003d0: 21fa d2be 7104 81be 81d3 5ebd 4c49 40bd
000003e0: 77b1 e1bd 29d7 663c ab83 3bbe 3c23 f7bd
000003f0: 42bd febd 3548 013e f3cb c93d 77a2 f8bd
-0.117370725 -0.04681061 0.12691912 -0.13181548 -0.3289159 0.050980836 0.038509022 -0.3248103
0.045909267 -0.3116947 -0.19669777 0.025493406 -0.16155939 -0.12846011 0.15335535 0.2503733
-0.09621991 -0.33477566 -0.15608332 -0.18548946 0.098904 0.2976533 -0.40636274 0.22004375
0.10438439 -0.39601603 -0.11687716 0.076618485 0.023849817 -0.117582634 -0.11441628 -0.041693997
0.0051690936 -0.029975628 0.062216394 0.07341635 -0.12850258 0.14929497 0.18771292 -0.07151904
0.054312102 -0.10744009 -0.16556789 0.017160071 0.124678805 0.041620247 -0.06677371 0.04049662
-0.44960162 0.017873636 -0.09927277 0.2577989 -0.16096553 -0.108667865 0.17121898 -0.1437524
0.42628604 -0.18033059 0.07063442 0.46961817 -0.08200641 0.0911451 -0.094402924 -0.27021068
-0.15361774 0.13937424 -0.051910672 0.20395105 -0.088135295 0.28369597 -0.09667487 -0.18726887
-0.07652121 -0.2238833 0.16726212 0.2945697 0.103174455 -0.13517256 -0.12554625 0.2769464
-0.037138693 -0.117105216 0.06582385 0.0836742 0.044490077 -0.2427984 0.22997606 -0.21115914
-0.07451428 0.06735172 -0.03678202 -0.011571848 -0.4302755 0.048494045 0.20477694 0.25221786
0.23711152 0.08467898 0.42002743 0.0395739 -0.016464096 0.29878432 0.07159616 -0.17162766
0.35012504 0.029598212 0.008259084 0.08728874 -0.12490423 -0.070503406 -0.079092294 0.0876674
-0.24028558 -0.052047163 -0.046289984 -0.26240745 -0.21547318 0.20403598 -0.013909779 0.15781216
0.08856153 -0.049490258 0.22244175 0.031668156 0.027401347 0.06406136 0.015838265 -0.10592763
-0.09941421 -0.24528444 0.08418246 -0.12602752 -0.0640697 0.42455268 -0.034099687 -0.30153888
0.3102581 0.042247675 0.47301027 -0.070810355 0.17529377 0.04296762 -0.13798125 0.1630649
0.08029649 0.44103107 -0.16294691 -0.17370123 -0.06529117 0.20167036 -0.13375631 0.17888622
-0.025905898 -0.30788615 0.0063474644 0.11599944 -0.035404705 -0.009818947 0.17899552 -0.24411416
0.023806002 0.021945296 0.34782547 0.13306384 0.4493933 0.40385896 0.09235637 -0.016163375
-0.3559019 -0.27667004 0.15420954 -0.06746737 -0.101063974 0.09881546 0.04351374 -0.017212272
0.07595143 -0.010251016 -0.2736947 -0.25503337 -0.2725864 0.2360969 -0.2301779 -0.05617168
-0.33453375 -0.3008068 -0.17438367 0.082181655 -0.00503826 0.24454886 0.09811841 -0.069384255
-0.087725736 -0.025567425 0.053438287 -0.4963712 -0.062596396 0.10650842 -0.33369097 -0.09047846
-0.33351585 0.16304047 0.3536105 0.16222687 -0.33360702 0.20648669 0.36440054 -0.106577195
-0.31925556 -0.083561234 0.48518 0.24406055 -0.118919335 -0.39857218 -0.27913055 2.0504673e-05
-0.13635364 0.2174193 -0.09439639 -0.27175397 0.2186598 -0.18306571 -0.059370723 0.254839
-0.12933932 0.11611769 0.21487005 0.030567206 0.15351012 -0.033893056 0.4277333 -0.061678573
-0.07868951 -0.3983801 -0.0051796385 0.031983636 0.17711352 -0.2785666 0.2248182 -0.10389939
-0.04662524 -0.14403526 0.15357223 -0.10075651 -0.41206458 -0.251987 -0.054400925 -0.0469449
-0.11020177 0.014089384 -0.18311946 -0.12067267 -0.12438442 0.12625201 0.09853353 -0.12140363

pool1.bias f4 [20]
00000000: 7555 b43c e76a 8bbc c441 fabb 75bc f33b
00000010: 12eb 9c3c b822 8bbc a932 5e3c e58c 09bc
00000020: 43be e43c 27c9 1d3c 2f96 69bb 24a6 d1bb
00000030: b203 71bb 7c4a 74bc ede9 573b 6323 a0bc
00000040: 77ca 6b3b f546 cb39 74f9 4f3a c5e0 39bb
0.022013405 -0.017018748 -0.0076372344 0.0074382373 0.019155059 -0.016984329 0.013561883 -0.008395408
0.027922755 0.009630478 -0.0035642495 -0.0063979793 -0.0036775884 -0.014910337 0.0032945827 -0.019548124
0.0035978833 0.00038772044 0.0007933595 -0.0028362733

conv2.weight f4 [35, 20, 3, 3, 3]
00000000: 5c72 663d 33b1 c4bd b900 4bbd b26b a3bd
00000010: 63c7 e23d 278f 1d3d 2c3e 50bb fe8e 50bc
00000020: 7b71 8dbd ec24 043e 0045 b7bd 8154 013d
00000030: 1bf9 6abc 75fb 22bd 5408 52bb d627 ac3c
00000040: 307b fb3c f199 1e3d 2929 86bc 2765 683d
00000050: 2586 cc3b 3f16 043d 6f80 503d 9578 91bd
00000060: 9f38 9d3d 55c1 2b3c 4830 323d eb15 d8bb
00000070: 6b9d c2bc 19f6 943c 8093 15bd c0c0 7b3c
00000080: 31d5 71bd e067 26bd 7d13 bdbc c50b a9bd
00000090: b257 413d b661 0c3e b127 43bd 3d99 8e3d
000000a0: ee8c 3bbd ab78 acbd f50f 01be a849 a3bd
000000b0: dbaf dd3a 7ee1 953d d115 2c3d c309 293c
000000c0: 0efc 01bd f2ae 42bd e439 073d e2fe 253d
000000d0: eee3 33bd 401d 5b3d f8bb 1abc 4d81 aabc
000000e0: 93bb 74bd 5c22 da3c 6c00 233e d1a3 4f3d
000000f0: 5a87 afbd 588d 13bb 16d7 b5bd d4b1 4fbc
00000100: f47a 9b3c 1177 b23c 60d3 d33d 6f77 053d
00000110: 68ed 863c dcc9 a0bd b1d6 913c 4498 24bd
00000120: af36 373d ed29 87bc 111e bb3c 2e68 053d
00000130: 614a 373c d33d 8a3c aaa4 23bc 9c52 bbbc
00000140: 6dd2 353b 694e 4ebd 377d 44bc 90f8 a63d
00000150: 96e5 583c f966 583d a9c6 073c 305e db3d
00000160: 53c3 c7bd fd9e f5bc 3e21 0abd 4432 adbc
00000170: 1801 8fbb 89f2 b4bd 8219 34bc 27b6 a1bd
00000180: 25c6 b2bd 01cf 83bc 0b4a 873b fc48 bdbd
00000190: 6a7b ab3d aef2 7ebd 248f 45ba 2af7 9a3d
000001a0: aa35 e1bb dec1 883d d8bd df3c 47c9 073e
000001b0: c45c c6bd 818e 033c 7a51 343d 14ef f9bd
000001c0: 140d 103d dcbf 203d 4df5 323d f347 99bc
000001d0: c2a1 9a3c 9778 0dbe 1ab0 24bc 1bc9 8fbd
000001e0: 840d 3ebd 70f6 053c bd5e 24bd e0a6 a13d
000001f0: a6e1 e23d c3e1 c4bd 0395 44bd 6e9b 093e
00000200: 4b75 9cbd a3d5 d5bd 4d69 20bd 862f d6bd
00000210: 2321 5e3d e49b 883d 4fdb acbd 75e8 1cbc
00000220: ee44 ddba fe66 bfbc 9462 83bd fc96 a7b9
00000230: 527f e23b f281 2fbd e085 d13c dcea 82bc
00000240: e307 df3b f701 b1bd d3c8 e23b a5b4 3abd
00000250: f941 ccbd 524d 28bd 266c d73c 681e a4bc
00000260: 3743 5abd 4a50 4d3d bf3e cabd 109c ab3c
00000270: 3721 043b edd7 103c b118 14bd ca64 c1bb
00000280: b6d4 3cbd ccc5 8d3d 2548 c13d d7ce a93c
00000290: cf8f 333c 572d 16bd 72c6 973c 67f9 3e3d
000002a0: 1eeb fbbc 95e3 213d 407b 853d 663e 36bd
000002b0: be04 e4bb b78b 3fbd c5d0 e03c 53b8 1ebd
000002c0: 716e 7cbb 1769 d23b 301e 19bc 37b3 f93b
000002d0: 7e50 223e 8db2 8a3b f355 913c 7971 823d
000002e0: eb6d eebb 31bf 3cbc fef8 b9bc fe59 173d
000002f0: 305f 1f3b 6903 92bc 39a4 82bd 46c8 763d
00000300: 170a 76bd 0f92 3e3c 3efd 2abd 257d c53c
00000310: a2b4 a9bc e1f5 b6bd 5702 ad3c d798 fd3d
00000320: 65ba 463d 6bde 1c3d 537f 073c 42d9 2a3d
00000330: 750f 8b3b d68f f8bd ef59 593d 992d a03c
00000340: 45b7 01bc 3988 95bd 36d7 a8bd 7636 9e3b
00000350: 1512 993c 4e1a ffbc 6e5e 02bd 1e55 e5bc
00000360: 2536 263c bae3 09bd 3d31 83bd 7c76 4a3d
00000370: 7a5e d03b e829 5dbe 70e9 6c3d 2fe0 dbbd
00000380: 2e4c 86bd 9ba4 11be ccc9 4fbb 31b0 1abd
00000390: 9585 253d 5da2 8abd 28f9 f1bd 7347 e43d
000003a0: 9fbb 943d 4a21 453d d9c4 223d 2df8 41bc
000003b0: 3f99 2cbd c157 30bd a199 bd3b 4d3c 29be
000003c0: 63c2 433c d95b e5bc 73d9 6b3c 2c7c 92bd
000003d0: e5e7 483d 9285 cb3c 16bb 023d 611a 73bd
000003e0: 9ded 50bc b99f 43bb 5147 2b3d cebd 83bd
000003f0: eda8 adba 125c 18bd a124 513c 97d3 793d
0.056261405 -0.096041106 -0.049561236 -0.079795256 0.11073186 0.0384666 -0.0031775339 -0.0127294045
-0.0690641 0.1290471 -0.089487076 0.03157473 -0.014341618 -0.03979059 -0.003204842 0.021015089
0.030698389 0.03872103 -0.016377049 0.05673709 0.006241577 0.032247778 0.050903734 -0.07103077
0.07676815 0.010483106 0.043503076 -0.0065944097 -0.023756703 0.018183755 -0.03651762 0.015365779
-0.059041206 -0.040626407 -0.023080582 -0.08254198 0.047202773 0.13709149 -0.047645275 0.06962822
-0.045788698 -0.08421453 -0.12603743 -0.07973033 0.0016913371 0.073184 0.042012993 0.010317269
-0.03173452 -0.047530122 0.033014193 0.04052628 -0.043918543 0.05349469 -0.009444229 -0.020813609
-0.059749197 0.026627712 0.1591813 0.050693337 -0.08570738 -0.0022514667 -0.08878915 -0.012676675
0.018979527 0.02178529 0.10343051 0.032584604 0.016470626 -0.078510016 0.017802568 -0.040184274
0.044729885 -0.016499484 0.022841485 0.032570057 0.011187167 0.016875183 -0.009987989 -0.02286654
0.0027743832 -0.050367747 -0.011992744 0.08152878 0.013238331 0.052832577 0.00828711 0.10711324
-0.09754052 -0.029983038 -0.03372311 -0.021142133 -0.004364144 -0.088353224 -0.01099241 -0.07896071
-0.08729199 -0.016089918 0.0041286997 -0.09242436 0.08373149 -0.062243156 -0.0007536283 0.07566674
-0.0068728523 0.06677602 0.027312204 0.13260375 -0.096856624 0.008029581 0.044023015 -0.12203804
0.035168722 0.03924547 0.04369097 -0.018711066 0.01887596 -0.13815533 -0.0100517515 -0.0702078
-0.04639961 0.008176431 -0.040129412 0.07893157 0.11078195 -0.09613373 -0.04799367 0.13438198
-0.07639559 -0.104411386 -0.039162923 -0.10458283 0.05423082 0.06670359 -0.08440267 -0.009576906
-0.0016881505 -0.02336454 -0.06415287 -0.00031965214 0.0069121504 -0.042848535 0.025576532 -0.01598113
0.00680636 -0.08642953 0.006920913 -0.045582432 -0.09973521 -0.041089363 0.026296686 -0.02003403
-0.053286757 0.050125398 -0.09875249 0.02094844 0.00201614 0.008840543 -0.03615636 -0.0059019076
-0.046101294 0.069224924 0.094375886 0.020728512 0.01095958 -0.036664333 0.018527243 0.046624567
-0.030751761 0.03952368 0.06517649 -0.0444931 -0.006958573 -0.0467641 0.0274433 -0.038750004
-0.0038517977 0.006421219 -0.009345576 0.007620241 0.15851018 0.0042327107 0.01774118 0.063692994
-0.007276287 -0.011520193 -0.022701737 0.036951058 0.002431821 -0.017823892 -0.06378979 0.06024959
-0.060068216 0.011631503 -0.041745417 0.024107525 -0.020716015 -0.089336164 0.02111928 0.123826675
0.048517603 0.03829805 0.008270103 0.0417111 0.004243786 -0.121368095 0.053064283 0.019552993
-0.00791723 -0.07301373 -0.08244173 0.0048282696 0.01868538 -0.031140473 -0.031828336 -0.027994689
0.010144745 -0.033664443 -0.06405876 0.0494294 0.0063589187 -0.21598017 0.05783981 -0.10736119
-0.06557499 -0.14222948 -0.0031705974 -0.037765685 0.040410597 -0.067692496 -0.11815101 0.1114644
0.072623484 0.04812745 0.03973851 -0.011838955 -0.042138334 -0.04305244 0.0057861363 -0.16526909
0.011948201 -0.027997898 0.014395106 -0.0715259 0.049049277 0.024843965 0.0319167 -0.05935133
-0.012751964 -0.002984984 0.04181606 -0.06432687 -0.0013249196 -0.03719718 0.012765081 0.060992803

conv2.bias f4 [35]
00000000: 5570 3cbb 8cb7 8739 d8b9 11bb 34de a03a
00000010: 92a8 fcb9 4fb0 d0ba bb30 933b 7bc5 4b3a
00000020: 0000 0000 e212 f73a d75f f137 8a5a b1bb
00000030: 0000 0000 5c81 afba c3a5 ccba ee27 00bc
00000040: 7dee 89bb 0454 533c ee4f 29bb 8233 c3ba
00000050: 33e5 bab8 1d70 bcbb a472 bcbb 7fed 3b3a
00000060: 8ae6 a63c 0000 0000 a018 8ebb ef71 bcb8
00000070: 3e2c 0e3b 6835 9ebb fe69 9e3b 1cd4 3a3c
00000080: 40b0 01bb 0903 a0ba 9ae5 5fbb
-0.0028753479 0.0002588596 -0.0022236016 0.0012273253 -0.0004819078 -0.0015921685 0.004491893 0.00077732623
0.0 0.0018850232 2.8774068e-05 -0.0054124044 0.0 -0.0013389993 -0.0015613366 -0.00782202
-0.004209338 0.012898449 -0.0025834995 -0.001489267 -8.911863e-05 -0.0057506696 -0.005750971 0.00071688736
0.020373601 0.0 -0.0043364316 -8.98576e-05 0.002169385 -0.004828144 0.0048344126 0.01140311
-0.001978889 -0.0012207936 -0.0034163953

pool2.weight f4 [35, 35, 3, 1, 1]
00000000: d01c 703d d430 7f3d d504 473d f9ea 94bd
00000010: 5ba3 b83c 9acd bd3c 5f24 b0bd edd8 c8bd
00000020: 8dab 953d 56eb d63d 9f34 e53d d9e8 0ebe
00000030: 9301 603c 5df7 18bd bb45 48be 504a 543c
00000040: 353d 783d 0eab 06be 15b8 e13d dc46 9f3c
00000050: 7b16 62be 05b7 1e3e d30a 163d fc02 f9bd
00000060: 067e b5bd 52f3 623e 13e0 12bc a5a6 4f3e
00000070: c911 0bbd c174 123d a0c3 ffbd 077d bebc
00000080: bfcf afbd aa36 44bd e2cc 1cbe 4d46 bfbd
00000090: 9e2b 0ebe 34a7 2abe 61fb d33d 31ae 223e
000000a0: e1ae dcbd fab0 92bd df7c 4fbd eb93 62be
000000b0: c02a b7be d149 f3bd 0d60 b4bd f575 60be
000000c0: d92f 6a3d c4f1 d2bd 0ba7 f6be 1634 0e3c
000000d0: 10b7 943d c3bf dfbd 948e 96bc 4c81 10be
000000e0: ed38 213d 638c 17be 025f 713c 33ea 8cbc
000000f0: a163 0fbe 78b4 703e 1fb5 853c 37da 68bd
00000100: 1806 8cbc a88c 93bd 1e86 13be ef37 7dbe
00000110: 3c4d 95bd b138 653d 3b7e 233e f811 343e
00000120: d90f 86be ef85 943d 7e8a 283e 2efd fbbd
00000130: 97f6 39be bbbb 983d 339e f0bd 332f 97be
00000140: 7685 e63d 2217 093e 0feb eebd 2b68 1bbe
00000150: 5b42 c13d 2c74 10be eb8b 1c3e 1edd de3c
00000160: 96cd 3cbd 65c4 d0bd 1c17 04be d871 da3d
00000170: 0222 343e 0d53 a7bd 2723 72be 0d5a e7bd
00000180: ec21 0bbe 9d09 a5bd f187 3d3e 3b8a b93d
00000190: 2887 97bd 402a 0f3e 19c7 723e 4e48 f3bd
000001a0: 15af d33d 1095 9fbd 76db fe3d 5ca5 163a
000001b0: 90ba 063e 5ae0 ddbd 2f13 73be d32d a4be
000001c0: e880 cf3c 4e32 e0bd baf4 39bd 196e f1bd
000001d0: f80f 20be 2f6b f03d 9936 eaba 6002 81bd
000001e0: 46f6 383e 039f 453e 1fa2 a83d 25bd 283e
000001f0: 5fa0 da3d 3ae8 283e 2bb3 d1bc 6576 8dbd
00000200: b676 d0bd 04ce 0b3e fbad 4dbe 16b8 323d
00000210: eacc ad3d a623 ef3d 77d1 d43d ab0b 4c3c
00000220: 19fa 3ebe 888b 1d3d 46e0 173d db14 22be
00000230: 5873 c13b 5150 8bbd 819f eabd 1509 053e
00000240: 244a 36bd 3815 133d 8fa4 dcbd 2fea 1bbd
00000250: 7b4f 3f3d d613 8cbb adec 743e 3047 5cbd
00000260: 7b20 7dbc 66fd 6cbd 96bf f1bd 0faa c63d
00000270: 6b40 61bc 9927 0e3d 465f 943d daec d93d
00000280: ab39 743d d6a9 7d3e a7b9 0abe d362 e9bd
00000290: a116 34bd b8ee dabd 6d1d 83bd a454 27be
000002a0: 1117 2cbd 44b6 bc3c c447 373d 464b 323e
000002b0: 9b25 07be b983 92bc 72f7 0ebd 30c7 92bd
000002c0: 53df 0b3d ae22 db3d 21b0 40bd 906e 33bd
000002d0: 6aa0 f33d 59ae 183e 4e8f ed3d 9024 053e
000002e0: b086 f93d 84a0 9c3d c6d1 bebd d9ba 8ebd
000002f0: ccef f3bd 30c6 103e 038a c2be 002e babc
00000300: b5f4 68bd 904b f93d 1f2a f5bd 7d90 ea3d
00000310: b188 e7bc f206 c63d eb3d 21bd b466 bf3d
00000320: b590 0a3d 3d26 a6bd 56b3 f9bd 277a 8b3d
00000330: a201 09be d4e8 c13c ac03 45be 4107 e53b
00000340: 9b6d 7abe f20c b1bb f078 f03d 2bf1 ad3d
00000350: 68f8 e2bd 1b38 33bc 6ec4 43be 073a 9d3c
00000360: 466c 58be 2a40 48bd d56e c0bd fe2a 4b3d
00000370: cbd9 19bd 1450 9abd 696c bdbc bbfa b1bc
00000380: bb2d 79bd d79a adbd b599 fabc 57a8 2bbe
00000390: 01c0 5abe 0878 d63d d09c 73bc 375e a8bd
000003a0: cbdb cbb9 8941 16bd 693b 623e ca27 153e
000003b0: 844c 503c d49d 95bd 34ce 463d d0b2 423e
000003c0: 4936 383c 62a6 e7bc fee2 1f3e c604 97b9
000003d0: f5e2 a43d 6f05 0dbd 02f6 04be bc3f 1e3e
000003e0: 5a3e 0b3e 89fe 603d f4c4 0f3e 08bc 693d
000003f0: bc57 533c 0d60 cf3d 4759 d9bc c745 a43d
0.058621228 0.062302426 0.048588593 -0.0727138 0.022538831 0.023169328 -0.08600687 -0.09807
0.07308111 0.104941055 0.11191677 -0.13956012 0.01367225 -0.03734528 -0.1955785 0.012957171
0.060605247 -0.1315119 0.11021439 0.019442968 -0.22078888 0.15499504 0.036631417 -0.12158772
-0.08861928 0.22163132 -0.008964556 0.20278414 -0.033952508 0.035755876 -0.124884844 -0.023252977
-0.08584546 -0.047903694 -0.15312532 -0.09339581 -0.13883826 -0.16665345 0.10350681 0.15886761
-0.10775543 -0.07162662 -0.050656196 -0.22126739 -0.35774803 -0.11879314 -0.08807383 -0.21919997
0.057174537 -0.103000194 -0.4817432 0.00867941 0.07261479 -0.109252475 -0.018378533 -0.14111823
0.03936093 -0.14799647 0.014732124 -0.017201519 -0.14002849 0.23506343 0.016321717 -0.05684873
-0.01709275 -0.072045624 -0.1440663 -0.24728368 -0.07290122 0.05596227 0.15966122 0.1758498
-0.26183966 0.07252108 0.1645908 -0.123041496 -0.18160473 0.07457682 -0.11748924 -0.29528198
0.112559244 0.1338773 -0.116659276 -0.15176456 0.094364844 -0.14106816 0.1528775 0.027205046
-0.0460945 -0.10193709 -0.1289944 0.10666245 0.17591098 -0.081701376 -0.23646222 -0.11296473
-0.13587159 -0.08058474 0.18508889 0.090595685 -0.07398826 0.13980961 0.23708762 -0.118790254
0.103361286 -0.07792103 0.124442026 0.00057466864 0.13157105 -0.10833807 -0.23737787 -0.3206621
0.025330022 -0.10947095 -0.045399405 -0.117885776 -0.15631092 0.11739194 -0.0017869055 -0.06299281
0.18062696 0.1929894 0.08234047 0.16478403 0.106751196 0.16494837 -0.02559813 -0.069073476
-0.10178892 0.13652807 -0.200859 0.04363259 0.0848635 0.11676721 0.10391515 0.012453954
-0.18650092 0.038463145 0.03707912 -0.15828268 0.0059036426 -0.068024285 -0.11456204 0.12991746
-0.0445043 0.035908908 -0.107735746 -0.03806513 0.046706658 -0.0042748256 0.2391841 -0.053778827
-0.0154496385 -0.057858847 -0.1180412 0.09700405 -0.013748269 0.034705732 0.072447345 0.10640879
0.05962531 0.24771819 -0.13547383 -0.11395802 -0.043966893 -0.10690063 -0.06402097 -0.16340882
-0.042014185 0.02303613 0.044746175 0.17411527 -0.13197939 -0.017885076 -0.03490395 -0.07166898
0.034148525 0.10699974 -0.04704297 -0.043806612 0.11895831 0.14910258 0.11599599 0.13002229
0.12183893 0.076478034 -0.09317355 -0.06969232 -0.11910972 0.14138103 -0.3799592 -0.022727013
-0.056873996 0.121726155 -0.119709246 0.1145334 -0.028263422 0.096692935 -0.03936569 0.09345761
0.03382941 -0.08112762 -0.12192409 0.06810408 -0.13379529 0.023670591 -0.19239682 0.00698939
-0.24455874 -0.0054031545 0.11741817 0.08493265 -0.11082536 -0.01093867 -0.191179 0.019192709
-0.21135053 -0.048889317 -0.093961395 0.049601547 -0.03756122 -0.07534805 -0.023122983 -0.021726003
-0.060834628 -0.08476799 -0.030590871 -0.16763435 -0.21362306 0.10472113 -0.01486893 -0.08221095
-0.00038882936 -0.036683593 0.22092976 0.1456596 0.012713555 -0.07305494 0.048536494 0.19013524
0.011243411 -0.02827758 0.15613934 -0.0002880452 0.08051101 -0.03442901 -0.1298447 0.15454
0.13598004 0.054930244 0.14039975 0.057064086 0.0128993355 0.10125742 -0.026531829 0.080211215

pool2.bias f4 [35]
00000000: 1a80 8b3c ef27 b2bc 76d7 babc 7e4d 2e3b
00000010: e753 88bb 1f2c 13bc adc8 0d3c 2ce0 8b3c
00000020: 87cb 00bd 2843 b8bb e0ff 8c3c 502b c6ba
00000030: 9460 983a 3912 353d 9b90 b43c be32 a63a
00000040: ba8a e7ba c119 28bc c5f0 fa3c a1fa 1abc
00000050: 903c 3cbc dca6 34b9 f855 1fbc c96c 82bc
00000060: 61db 333c e652 043c 0b67 ae3c 0e61 71bc
00000070: 699c c33b 1c99 40bb 9691 843c a688 053d
00000080: 8a55 efba 54e7 30bc fe27 adbc
0.017028857 -0.021747557 -0.022807818 0.0026596482 -0.0041603926 -0.008982687 0.008653802 0.017074667
-0.0314441 -0.00562324 0.017211854 -0.0015119109 0.0011625462 0.04420683 0.02204161 0.0012679917
-0.0017665245 -0.010260046 0.030632386 -0.009459169 -0.011489049 -0.00017228298 -0.009725086 -0.015921013
0.010977597 0.008076405 0.02128937 -0.014732612 0.0059695733 -0.0029388135 0.016182702 0.03260102
-0.0018259746 -0.01079734 -0.021137234

conv3.weight f4 [35, 35, 3, 1, 1]
00000000: f176 8ebd cd6f b83d 7882 123e 3899 45bd
00000010: e694 f9bd 0bfd 6ebd 6c12 14be 5b87 dfbc
00000020: 6ba6 5dbe 5bde e7bd 4d48 833e 8ecc 563c
00000030: 7a89 423b 07a2 41bd bbe9 30bd 435b 253e
00000040: 9dbc cfbd d733 91bd 5f9f bfbd b401 b6bc
00000050: d36d 9c3d 2208 f23d 9974 c03c d8b8 fe3d
00000060: b763 463c 3ea3 32bd b32f 57be a213 d6bc
00000070: b427 0fbe eeed 58bc f03a 043d 8105 87bb
00000080: e292 e839 437e d6bd eab5 db3c f266 81bd
00000090: 33f1 f83d 5b63 3e3d 82c6 223d e340 9f3d
000000a0: 16f1 253e 1c97 bb3e 118a 0e3e e2a0 f13d
000000b0: ef99 05be b319 533d 62e4 33be 8f45 873c
000000c0: dc21 44bd a27e ee3c 1e7e 603d 846a 493c
000000d0: 8f0c c2bd 1bad ce3d 1476 6a3e 53aa fb3d
000000e0: dac5 823e 09a4 0abe 9ffc 683d 3a58 bc3d
000000f0: ffac e1bd 7766 22be b409 56bd c51a babd
00000100: 8de8 643e 2e60 2bbd 3f9c 30be aa4f c4bc
00000110: 57ca b0bd 8318 b8bd f0d3 04be 12d5 9ebd
00000120: 1e4f 0c3e 0559 e73d 1c5a a03d ccff 8e3d
00000130: 375e 873e e017 7abc d355 253e e583 5ebd
00000140: f469 85bb f4ab c13a d19f bc3d b144 12be
00000150: 5acf 123e 0eb6 ca3d 7d05 963b 48e4 c8bd
00000160: 4869 8bbd 2b22 62bc ebe0 c23d 047b e23d
00000170: 3019 53bd bee7 25bd 25c9 023e fe15 883e
00000180: 42f9 b43d 95c0 7cbd d71f 42bd bf09 42bb
00000190: 34ef b3bd 7881 4cbe b3d7 1ebd 7e72 f4bd
000001a0: 086f 2abe e81e 983e 6b35 a0bd 931a 27be
000001b0: 7115 6e3d 6d29 21be 761c 1ebe 9fb9 513e
000001c0: 5a41 2c3c 57bf 21bb 2f97 183e 9ae7 643e
000001d0: 29e3 993e e8a5 9a3d 754c d1bd de95 033d
000001e0: 0980 b5bc 1b52 723e 8da2 dc3d 9d29 943d
000001f0: e70a 683d ef03 0d3d 87f0 a53d 1325 603d
00000200: 76c7 10be 423b 213e ef06 8b3c bff4 b73d
00000210: 66ec 3fbd 4640 84be b0ad 49bd b9f4 f8ba
00000220: e8c6 523d b42e b0bd e728 f23d 9bba 293c
00000230: a250 a03d ffba 50bb 48a4 813e 8fb7 c3bc
00000240: fca3 843d ee81 07bd 7981 813e 79b3 df3d
00000250: 6764 06be 80cb df3d 7b88 6dbe 1e5d c9bd
00000260: f0d8 e43d 9e29 4abe e6df 0b3e 496d 213c
00000270: b0bb 4d3e 7c0d 4d3e 82e2 2ebe f604 43be
00000280: 93ea 04be 6fce 8c3c 943f a9be cb83 1dbd
00000290: 41f7 69be 2766 9cbd 8155 ecbd be13 7a3a
000002a0: 11df 2f3d ecf3 2cbe e009 0b3d 5f3e 363e
000002b0: 702a 8e3d ab45 3cbd d9eb 51be 6f1b 2ebe
000002c0: 46f3 75be d150 c43e d5e2 d03c 44d5 e43d
000002d0: 2271 b23d 0c30 873d e741 003e 6025 c13d
000002e0: e17c f13c 721c 12be 7b3c c2bd c2eb b33b
000002f0: d5a3 3f3e 37c3 5bbd e142 90bd 9f28 7f3e
00000300: aaa6 f9bd 9650 6ebe 8de0 da3c 6b25 9e3c
00000310: 5028 7abe 279c 7f3c 1333 5a3e 7e89 a4bc
00000320: 2e59 9a3c 4437 babe 28ec d33d 34fd b73d
00000330: 0fd3 4e3e ba7c 45be 6af5 34bd 562a 84be
00000340: f29c 753d 284a a0bd 105c d03d ecb6 54be
00000350: 35ce 3c3e ae4d 1d3e 02b2 893e 1fc8 07bc
00000360: 03ba 93be e1cf fb3d cf58 223e 9475 4e3d
00000370: 8587 c8bc a901 5c3d a46c 8ebd 532c 9abb
00000380: d61e 18be c46c cdbb 971d 5bbd 49eb 823e
00000390: 2003 923d eadd 9c3d 5c25 f03d 6a75 533d
000003a0: ea8a 15be 70d2 30bc 3d45 c2bd 1f0d 873d
000003b0: 651d 91bc a9d9 763c fe57 093e f889 d2bd
000003c0: 605e 543e 144c c33a 301d 80bd dc63 c5bd
000003d0: 63ff 933a c236 0bbe 6599 e7bd 6ce8 2abe
000003e0: e765 623e 359d adbc 47e6 1b3d 87ae 873d
000003f0: 8877 053d 8644 11be 3c03 2fbe 9901 35be
-0.0695628 0.09005699 0.14307582 -0.048241824 -0.12186603 -0.05834679 -0.14460152 -0.027286222
-0.21645515 -0.11321708 0.256411 0.013110293 0.0029683993 -0.047273662 -0.043191653 0.16148095
-0.10143397 -0.07089966 -0.093565695 -0.022217609 0.07638135 0.118179575 0.023493098 0.124376
0.012108735 -0.04361271 -0.2101429 -0.026132409 -0.1397999 -0.013240321 0.03228277 -0.004120529
0.00044359925 -0.10473301 0.026820142 -0.063184634 0.1215538 0.04648147 0.039740093 0.07776048
0.16205248 0.36638725 0.13919856 0.11798264 -0.13047002 0.05153818 -0.1756759 0.01651266
-0.047883853 0.029113118 0.054807775 0.012293462 -0.094750516 0.10091611 0.22896606 0.12288346
0.25541574 -0.13539137 0.056881543 0.091965154 -0.110193245 -0.158594 -0.052255347 -0.09087137
0.22354336 -0.04183977 -0.17247103 -0.023963768 -0.08632343 -0.0898905 -0.12971473 -0.07755484
0.13702056 0.11296276 0.07829687 0.06982383 0.26439068 -0.015264481 0.1614602 -0.054325003
-0.0040714685 0.0014775977 0.0921017 -0.14284016 0.14336911 0.098980054 0.004578291 -0.09809166
-0.0680719 -0.013802092 0.09515556 0.110586196 -0.051537693 -0.04050421 0.12772043 0.2657928
0.08836605 -0.061707098 -0.047393646 -0.002960786 -0.08785859 -0.19971263 -0.038779926 -0.119359
-0.16643918 0.2971108 -0.07822689 -0.16318731 0.058125917 -0.15738459 -0.15440544 0.20480965
0.010513628 -0.0024680698 0.14901422 0.22353974 0.30056122 0.07551175 -0.10219661 0.032125346
-0.022155778 0.23664133 0.107731916 0.072344996 0.056651022 0.03442758 0.081025176 0.054722857
-0.14138588 0.15745261 0.01697108 0.089822285 -0.046856306 -0.25830287 -0.049237907 -0.0018993831
0.051459223 -0.08602658 0.11824208 0.010359432 0.078278795 -0.003184974 0.2532065 -0.023891238
0.0647659 -0.033082895 0.25294092 0.109229036 -0.13124238 0.109274864 -0.23196594 -0.09832214
0.1117419 -0.19742438 0.13659629 0.009852716 0.20091128 0.20024675 -0.17078593 -0.19044861
-0.12980108 0.017188279 -0.3305632 -0.038455766 -0.22848226 -0.076366715 -0.11539746 0.0009539685
0.042937342 -0.16889924 0.033944964 0.1779723 0.06941688 -0.045964878 -0.20500125 -0.17002653
-0.24018583 0.38342908 0.025498787 0.1117349 0.087129846 0.06600961 0.1252514 0.09430957
0.029478492 -0.14268664 -0.09484192 0.005490751 0.1871484 -0.05365297 -0.07044006 0.2491784
-0.12189992 -0.23272929 0.026718402 0.019304952 -0.2442944 0.015601194 0.21308546 -0.020085093
0.018841352 -0.3637029 0.103477776 0.089838415 0.201977 -0.1928586 -0.044179358 -0.2581355
0.059964128 -0.07826644 0.101738095 -0.20772904 0.18438037 0.15361664 0.26893622 -0.008287459
-0.28852853 0.12295509 0.1585419 0.0504051 -0.024478683 0.05371252 -0.06954315 -0.004704991
-0.14855513 -0.0062690694 -0.053495016 0.25570133 0.07129502 0.07659514 0.11725876 0.051625647
-0.14603773 -0.01079236 -0.094858624 0.065942995 -0.017714212 0.015066543 0.13412473 -0.10280222
0.20739126 0.0014899992 -0.06255567 -0.09638187 0.0011291321 -0.13595107 -0.113085546 -0.16690224
0.22109185 -0.021193126 0.038061406 0.06625085 0.032584697 -0.14186296 -0.17091078 -0.1767639

conv3.bias f4 [35]
00000000: e14b 2e3d 6356 f8b8 fe52 a8bc 80a6 acbb
00000010: 1abb cfbb 20a3 79b9 303f 7f3c 94dc b0bb
00000020: c097 ce39 b1df 1b3c 9c4a 2539 26e0 5cbb
00000030: d462 91bb d416 483c d38f d33b 6806 a13c
00000040: b0d2 063c 71ca af3a 3490 67bb b344 53ba
00000050: 43f3 dfb9 f6e4 babb cb14 e33b 8367 4fbb
00000060: 1a9c a739 9bbf c0bb 33db b5bb 069f 22bb
00000070: 1ada 3ebc b49d 04bc 416f 5ebb 40fa b33b
00000080: fcd7 12bc be6b a7bb b102 863c
0.042552833 -0.00011841652 -0.020547386 -0.005268872 -0.006339443 -0.0002380726 0.01557903 -0.0053973887
0.00039404444 0.009513781 0.0001576342 -0.0033702939 -0.00443683 0.012212474 0.006456354 0.019656375
0.008228943 0.0013411773 -0.0035333754 -0.0008059248 -0.0004271512 -0.005703564 0.006929969 -0.003164739
0.00031969027 -0.005882216 -0.005549812 -0.0024814024 -0.011648679 -0.00809424 -0.0033940824 0.0054924786
-0.0089626275 -0.0051092794 0.016358705

conv4.weight f4 [35, 35, 2, 1, 1]
00000000: 52b0 eabd 25bb d83d a01d 8b3e 6466 243e
00000010: 0cb1 d13d 5db6 1fbe b079 40be 7b2b 19be
00000020: f634 97bd 0e31 01be 7bd2 8dbe 8744 1a3e
00000030: 760e 5f3e 0a71 c0be 6224 71bd bb76 6dbd
00000040: 05ae 4f3d 3b7b 6ebd 74cb 823e b57e 91bd
00000050: e8aa 9bbd e676 c8bb 2869 1cbd 24df bfbd
00000060: f9ef 2b3e a7ae 58be 1497 313d ce3e 4fbe
00000070: 2ea6 a93b a996 1a3e 3d9a e0bc fd98 dcbe
00000080: f463 c8bc d5db e83c c1af 9e3e a557 403e
00000090: 898f 00bd ab8f 6ebe 4995 0fbe 0da1 d93c
000000a0: f640 41be eb5c fb3a c872 f23d ce95 18be
000000b0: 2b4b 17be da78 1abe 2766 5d3d 0bd2 b83d
000000c0: fd70 0ebe 9b4c 993e 22df 013e eaa0 973b
000000d0: 3814 9e3d 4314 9fbd bfc3 b63c 4bb7 333d
000000e0: 2f00 7cbe ec76 3c3e 8646 86be 52dc df3d
000000f0: bb8b 113e 9388 003e ea71 783d f5a6 21be
00000100: 291d 5dbe f8c8 8bbe ec77 2e3d cdfa e53d
00000110: 1699 2e3e 2aea a53d a9c2 633e 8b90 79bb
00000120: 3e4d 313e 848b 973c 33a9 363d 5b8b 02bc
00000130: 1704 72bd 9c15 b33c 0e72 db3d 7d92 273e
00000140: 3500 0b3c be78 b8bd 5b89 94be d02a 563e
00000150: 7f6d 06bd 2451 40be 750a acbe fa8b 853e
00000160: b0b1 dfbc 534f 253d d1e0 fd3d 39d7 e7bd
00000170: 5f6b d3bd c7f6 9e3d 773f f6bc bf10 0d3d
00000180: 17a1 8ebd bcf1 9e3d 9b58 3b3e 8b7e 103e
00000190: e740 9d3d 37c5 873d 4256 5b3e f684 a43e
000001a0: 68ed 333d 536a 8bbe 2c3f 383e 7b24 8b3d
000001b0: c499 6ebd 273e ad3d 4338 ebbd 4fa3 51ba
000001c0: c470 813d dfca 543e 063b f2bc 7414 22be
000001d0: 79cd 68be 03ae 23be c2d0 7a3e 5b77 34be
000001e0: 2972 50bd 7f05 9abd 49f7 843c e512 69bd
000001f0: 463a 8a3d 0e26 a9bd bb9e 1cbe 5747 ccbd
00000200: 33c5 153e c1ee f43d 4114 14be 90c7 42be
00000210: 52d0 f0bd 272b 003e a98f 593d 52da 033e
00000220: d316 87bd ada7 ae3e 8dd0 c5bc 6e69 1d3e
00000230: 57e7 09be b218 873d 5c76 e53c 6f67 c4be
00000240: 0632 bb3a 6d31 193e f4cb 05bd b1f8 89bd
00000250: 697e 24be 780a babe d4e8 b13c b6a8 c73d
00000260: 55a0 ad3e 8a07 99bd d082 0d3d 29eb 15be
00000270: ac5f 783b 0af5 de3d a9fa 723e d85d 5d3c
00000280: c6b7 4d3e b8eb 91be ca74 2a3e 5896 d93d
00000290: bb75 1cbe 7d39 193d bab7 093d b54a 31be
000002a0: 4b10 ccbd b016 093e 8199 adbd aa63 a2bd
000002b0: bb05 a8bc 98ac 243e 9346 783d caf3 d73d
000002c0: 5690 8a3d f947 2e3d b358 2d3e 1c58 97bd
000002d0: a0f3 5cbe 8d81 8e3c 5106 263c 7848 3e3e
000002e0: edbe c93b 2d7e 85bc 9af3 0c3d cd50 3d3e
000002f0: ef84 0ebd f79e da3d 6938 213e f308 c63d
00000300: ca60 30bd 27af 30bd 70e8 24bc a1e8 4a3e
00000310: 5ced 64be 9a66 713e 047f 983d a8cd cc3c
00000320: f351 70bd 415b f73c 39d6 0c3e e605 bb3d
00000330: b732 d33d c2fb 053d effd a2be d000 e83d
00000340: 3231 133c 6064 d73d eafd e43b 0f2c 64bc
00000350: 8ac7 dcbd 6182 193e 93cb 04be 9aa4 593e
00000360: b3cd 723d 386f 0fbe 2f32 cc3d d1e8 a93d
00000370: adb3 bf3d 8780 0e3e 3f20 babd f69d a2bc
00000380: 04f9 d3bd 55ca c03c 7486 d23d 38d4 a4be
00000390: 7c09 303e 1c5a 94bd e1f9 643d 945a 6dbc
000003a0: c639 0d3e aa47 c1bd fd14 903d 6b13 58bd
000003b0: 2bb6 cbbd 68f9 bfbb e0c9 a23e cbfa b7bd
000003c0: 9138 22be d541 69be b632 a13d c34c 033e
000003d0: 6f37 633d 488b c1bd d6a0 49bd 09eb 6fbc
000003e0: dc91 083d 1499 343e 3b9c 46be 0ad5 ad3d
000003f0: ba6d aebd c60e e53d 50db d3bc 5918 c43d
-0.11459412 0.1058257 0.2717104 0.16054684 0.10238847 -0.1559691 -0.1879642 -0.14957993
-0.07383148 -0.12616369 -0.27699646 0.15065204 0.2178286 -0.37586242 -0.058872588 -0.05797456
0.050703067 -0.05822299 0.25545847 -0.071042456 -0.07600957 -0.0061176894 -0.038186222 -0.093687326
0.16790761 -0.21160375 0.04335697 -0.20238802 0.005177281 0.15096535 -0.027417297 -0.4308547
-0.024461724 0.028425137 0.30993465 0.18783434 -0.031386886 -0.23296992 -0.14021792 0.026566053
-0.18872437 0.0019177472 0.11838299 -0.14900896 -0.14774768 -0.15085164 0.0540525 0.090244375
-0.13910289 0.29941258 0.12682775 0.0046273367 0.077187 -0.077675365 0.022310136 0.043875974
-0.24609445 0.1840474 -0.2622568 0.10930695 0.14213459 0.12552099 0.060655512 -0.15786345
-0.21593155 -0.27301764 0.042594835 0.11229477 0.17050585 0.08101304 0.22242226 -0.003808054
0.17314622 0.018499143 0.044594955 -0.007967795 -0.05908593 0.02186089 0.107151136 0.16364475
0.008483936 -0.09007405 -0.29011044 0.20914769 -0.032819267 -0.18780953 -0.33601728 0.26083356
-0.027306408 0.040358853 0.12396396 -0.11320347 -0.10323214 0.07761913 -0.03005956 0.0344398
-0.06964319 0.07760951 0.18295519 0.14110772 0.07678395 0.066294126 0.21419623 0.3213269
0.04392758 -0.27229556 0.17992848 0.067940675 -0.05825211 0.0845912 -0.114853404 -0.0007997052
0.063203365 0.20780514 -0.02956916 -0.15828115 -0.22734632 -0.15984349 0.24493697 -0.17623655
-0.05089012 -0.075205795 0.016231196 -0.056902785 0.06749396 -0.082592115 -0.15294926 -0.099745445
0.14626007 0.11959601 -0.14460851 -0.1902144 -0.11758484 0.12516461 0.05311552 0.12876251
-0.0659615 0.341123 -0.024147296 0.1537225 -0.13467155 0.06596507 0.02801054 -0.38360164
0.0014281876 0.1496026 -0.032665208 -0.06736887 -0.16063847 -0.36336112 0.021717466 0.09748976
0.33911386 -0.07472141 0.03454858 -0.14640488 0.0037898822 0.10886581 0.23728432 0.013511144
0.20089635 -0.28500152 0.16646114 0.10624379 -0.15279286 0.03740834 0.03362248 -0.17313655
-0.09964045 0.13387561 -0.08476544 -0.07929166 -0.020510545 0.16081464 0.06061418 0.10544546
0.06765811 0.042549107 0.16928367 -0.073898524 -0.2157731 0.017395759 0.010133342 0.18582332
0.0061567933 -0.016295517 0.034412004 0.18487854 -0.034794744 0.106748514 0.15744175 0.09669676
-0.043061055 -0.04313579 -0.010065183 0.19815303 -0.2235617 0.23574296 0.07446101 0.025000408
-0.058671903 0.03019488 0.13753594 0.091319844 0.103124075 0.032710798 -0.3183436 0.1132828
0.008983897 0.10517192 0.0069882767 -0.01392652 -0.107802466 0.14991142 -0.12968282 0.21254197
0.0592782 -0.1400727 0.09970509 0.08296359 0.09360442 0.13916217 -0.09088182 -0.019850712
-0.1035023 0.02353398 0.10279551 -0.3219316 0.17191118 -0.072437495 0.055902366 -0.014486928
0.1379157 -0.09437497 0.07035253 -0.052752893 -0.09946855 -0.005858589 0.31794643 -0.08983382
-0.15841891 -0.22779019 0.078710005 0.12822251 0.055472787 -0.09450394 -0.04922565 -0.014643439
0.033342227 0.1763652 -0.19395535 0.084878996 -0.085170224 0.111844584 -0.025861412 0.095749564

conv4.bias f4 [35]
00000000: 3295 943c 4511 873c 5eb2 7ebb 9a9d 77bc
00000010: 25aa bb3b 82fa e5ba 709c 4ebb 4a40 f53c
00000020: 4b58 0a3d 9d59 3bbc f6f7 983c ae61 9dbc
00000030: 3b89 813c d554 a63c 3d54 6a3c 8e61 a73b
00000040: 8418 ebbb e000 0f3a 5b4c d7bb 4aae 69ba
00000050: 5cb4 afbb 9824 ec3a 8ce1 b3bc c93e 9e3c
00000060: 0961 20bc d702 363a f20c 373d 2f63 bdbb
00000070: c661 f03a 394d b93c e332 cebc 7fbc 413d
00000080: 3055 153d b243 78bb 6f7a b0bb
0.018137548 0.016487727 -0.003886364 -0.015113259 0.00572707 -0.0017545971 -0.003152635 0.029937882
0.03377561 -0.01143494 0.018672924 -0.019211616 0.015812507 0.020304123 0.0143023105 0.005108065
-0.0071745533 0.00054551475 -0.0065703816 -0.0008914216 -0.0053620767 0.0018016277 -0.021958135 0.019317048
-0.00978876 0.0006943172 0.04469008 -0.005779646 0.0018339686 0.02261983 -0.025170749 0.047298905
0.036458194 -0.0037882146 -0.005385689

fc.weight f4 [17, 1260]
00000000: 838c 8a3c be45 213d 5054 093d 888c b3bc
00000010: f07a 11bd 10b2 6b3d 78ae 073c 7cc3 af3a
00000020: 2243 9c3c 3f59 b83a 43be a0bb d96d 3cbd
00000030: 29b8 2bbd 8149 993c 71fc acbb 2af7 fa3c
00000040: 2d98 343c 6000 04b9 9eb2 b2bc 0f69 2abd
00000050: 9e4c 9a3d 126b 0e3b ed3a 30bd 105e 18bd
00000060: e83a 023d ec05 e23c bc44 aebc 0ff6 47bc
00000070: d6c1 9ebc c325 05bd 9608 a3bc 2224 3dbc
00000080: b3fb 213d d36c 823c ba53 213d 2742 81bc
00000090: 496e ddbd 115e a1bd fcc8 dcbd 7c9c 63bd
000000a0: fd57 6b3c bfe6 6f3c ba57 4ebd 6a06 093d
000000b0: 68a4 a73b 53d9 5dbd 5edb 37bd b799 72bd
000000c0: 9b72 f6ba 195d da3b 8c4b 9bbc f479 8bbd
000000d0: 8463 51bc db3a e5bc 2c68 20bd 63f2 7abd
000000e0: 0a72 2d3c 2295 61bd 789d 92bd 5f45 b2bd
000000f0: ea33 abbc 2273 98bc 0924 23bd 36c9 a7bc
00000100: 7c4f 90bd 820e 01bc fed1 87bd e224 c7bd
00000110: 756c a9bd 3c50 a6bd 4858 513d fa96 b73b
00000120: f31b 8dbd a55b 0bbc 5670 e4bc e0aa cd3c
00000130: 7f53 3c3c 223c 193c debc c0bc 4c90 5a3c
00000140: f16d cfbc c699 333d 0a4a ff3c 91bf 423c
00000150: c92c ccbc c1d0 8d3c 416e ce3c 735e 0a3b
00000160: 5f49 e5bb 70a4 9ebd cd96 5a3d e427 ae3d
00000170: 5904 1e3d 2d1a b93d 482b 5ebc 9bee f43c
00000180: f1d3 c8bb 8f18 ed3c f8bb f03b 8826 d7bc
00000190: 6457 983c bf86 983c 2317 b1bc c5d2 eb3c
000001a0: bf6d f4bc f6c4 be3a e47a 3c3d aead d5bc
000001b0: fbb0 b1bd e286 46bd b3e8 47bc cc5e 993b
000001c0: 1801 313d f432 1abd b8ef b73c cbd0 173d
000001d0: 8891 ffbc 1399 c33b af0b e23d 2786 a6bc
000001e0: cbb0 893c 5e3d 03bd f025 96bc 5443 b0bd
000001f0: 021d 87bc 59c6 8f3c 1710 d7bc 0ee9 763c
00000200: c643 d73b 86fc 4ebc d879 563d 87bf 6f3c
00000210: e996 2f3a 95a7 f43b b9ce e5bc a19e c7bc
00000220: 3fca bdbc 587b ca3c c75a 50bd 36ce c0bc
00000230: 149d 1bbd 2e13 9f3c aad8 76bc a270 81bd
00000240: 3b81 ffbc d43c 19bd c31c 023d 0b22 c43b
00000250: f242 b13b 9369 fabc a09c 8abb 4fce 89bd
00000260: 810b 1fbd c0e6 b23c 80f3 f7ba b079 543c
00000270: f1fc 103d 93a1 5dbd dd99 42bd 8200 503c
00000280: 1bc0 883c 65a3 233d 0481 613c 01df 373d
00000290: ecdc 27bc 776d 893c 788e 7abd a3f6 37bc
000002a0: efab 02bd b078 54bd 336d a4bc f2e3 33bb
000002b0: 4bce 97bc a9a7 273d 44c9 a7bc c154 103c
000002c0: ce12 ffba b164 09bb 3415 29bc dbbd 7739
000002d0: 7d58 7c3c ec90 42bd 19de 473d 41e5 3dbd
000002e0: f053 86bc 908d ef3c 0b2e 17bd 4f2a 37bc
000002f0: ea77 b0bc dc15 33bd 8a37 403d 19c2 8b3c
00000300: 48c5 e3bb 2be0 403d a5ac 83bd b287 a03c
00000310: 3185 243d fdaa ba3c 6364 a93d 1d65 6c3b
00000320: 67c3 893c e036 8fbc 137b 04bd 8c22 b53d
00000330: 413d 7bbc ad50 093d 8c60 d9bb de77 123d
00000340: 3ced 953c e7f5 6c3c d6d8 0b3d 02f6 a53c
00000350: 6d62 f13c adf0 16bd b6b2 d5bc df88 ae3c
00000360: 929a 4ebc 9b57 f839 8b0d 24bd 3822 dbbb
00000370: 6eaf b13c 862d cdbc 8c63 0f3c 44a9 d73b
00000380: 8b3b cebc e22f a03d 71f6 223d eb34 f0bc
00000390: 29cb 86bb 128e 333c bafd f8bc c85e 88bc
000003a0: 5706 c1bc a2c0 b1bd 7dc6 0c3c 2f6d 9cbc
000003b0: 2002 37bd fce9 ea3c 5c07 b0bd 84c2 50bd
000003c0: c5da 483d bb9e 00bc 5337 8c3b fa45 c43c
000003d0: f9b4 b939 bd0e 133d 8a9f 683d 4747 ec3c
000003e0: d2b2 0f3b b31e 30bd a7ce bdbc d0db 38bd
000003f0: abfa 28bd 04e1 553c 7e2d 7ebd 846e 9bbc
0.016912704 0.039373152 0.033527672 -0.021917596 -0.035517633 0.05754286 0.008281343 0.0013409699
0.01907498 0.0014064683 -0.0049054935 -0.046003196 -0.041923676 0.018711807 -0.005279117 0.030635435
0.01102261 -0.0001258864 -0.021813687 -0.041604098 0.07534145 0.00217313 -0.043024946 -0.03719908
0.03179446 0.027590714 -0.02127301 -0.012204661 -0.019379538 -0.032506716 -0.019901555 -0.011544259
0.03954668 0.015921032 0.03938649 -0.015778614 -0.10812051 -0.0787927 -0.10780522 -0.055569157
0.01436424 0.0146424165 -0.05037663 0.033453383 0.0051160343 -0.054162335 -0.04488694 -0.059228625
-0.0018802466 0.00666393 -0.018956922 -0.0681037 -0.012780074 -0.027982166 -0.039161846 -0.061266314
0.010586271 -0.055073865 -0.07158941 -0.08704638 -0.020898778 -0.018609587 -0.039829288 -0.020481687
-0.070464104 -0.007876994 -0.0663185 -0.09723832 -0.0827264 -0.08120772 0.051109582 0.0056027146
-0.068900965 -0.0085057365 -0.027885597 0.025105894 0.011494516 0.009352716 -0.023527559 0.013340067
-0.025320979 0.04384782 0.031163234 0.011886493 -0.024923699 0.017311456 0.025199058 0.0021113425
-0.006997272 -0.07746208 0.05336647 0.08503702 0.038578365 0.09038196 -0.013560124 0.029898932
-0.006128781 0.028942375 0.0073466264 -0.02626349 0.018596359 0.01861894 -0.021617478 0.028787026
-0.029837487 0.0014554549 0.046015635 -0.026083793 -0.086763345 -0.048468478 -0.012201476 0.00468049
0.043213934 -0.03764625 0.022453174 0.037064355 -0.031197324 0.0059691756 0.11037385 -0.02032764
0.016807934 -0.032040946 -0.018328637 -0.08606592 -0.016493324 0.017550634 -0.02625279 0.015070213
0.0065693585 -0.0126334485 0.052362293 0.014633066 0.00066982076 0.0074662664 -0.028052675 -0.024367632
-0.023167728 0.024717018 -0.050867822 -0.023535829 -0.0379916 0.019418325 -0.015066305 -0.06320311
-0.031189552 -0.037411526 0.03176571 0.0059855036 0.005409592 -0.03056792 -0.004230097 -0.06728803
-0.03882933 0.021838546 -0.0018917173 0.012968466 0.035397474 -0.054109167 -0.047510017 0.012695434
0.016693166 0.039950747 0.01376367 0.044890407 -0.010245543 0.01677583 -0.061171025 -0.011228236
-0.03190225 -0.05187291 -0.020071601 -0.0027449098 -0.018530985 0.040931378 -0.020481713 0.008809269
-0.001946056 -0.0020964558 -0.010319997 0.00023626482 0.015401957 -0.04750149 0.048795793 -0.04636121
-0.016397446 0.029242307 -0.036909144 -0.011179521 -0.021541554 -0.04372202 0.046927966 0.017060326
-0.006951008 0.047088783 -0.06429414 0.019595955 0.040166084 0.022786612 0.082711 0.003607101
0.016816808 -0.017482221 -0.032343935 0.0884448 -0.015334428 0.033524204 -0.0066338237 0.035758846
0.018301599 0.014462925 0.034142338 0.020258907 0.029465878 -0.03685062 -0.026086193 0.0213055
-0.012610095 0.00047367517 -0.040051978 -0.006687429 0.021690097 -0.025046121 0.008751761 0.0065814573
-0.025174877 0.07821633 0.039785806 -0.029322108 -0.004113574 0.010959165 -0.030394424 -0.016646758
-0.023562593 -0.0867932 0.008592245 -0.019095032 -0.04467976 0.028676026 -0.08595154 -0.050966755
0.04903676 -0.007850344 0.004279056 0.023959149 0.00035420785 0.035902727 0.056792773 0.028842581
0.0021926654 -0.042998027 -0.023169829 -0.045131505 -0.04125468 0.013054136 -0.062055103 -0.018973596

fc.bias f4 [17]
00000000: 2df6 8dbd 379a edbb 3c58 d83b 3d74 08bc
00000010: 1ae3 7ebc c497 5fbb 3996 163b 0c63 8b3b
00000020: 1c61 ae3d 117c f83c 92e4 10bb 77f2 92bc
00000030: 8bb6 3dbb a047 68bc c940 6bbc 7800 1f3d
00000040: 37b1 44bc
-0.0693172 -0.00725105 0.006602315 -0.008328495 -0.015557075 -0.003411756 0.0022977723 0.0042537507
0.08514616 0.030332597 -0.0022108895 -0.017937882 -0.0028947915 -0.014177233 -0.014358708 0.038818806
-0.012005142
