checkpoints/paoletti_et_al/no_class_balancing/IndianPines_PCA-Split_8/epoch20_0.89.pth (torch, 163832 bytes, 10 tensors)

gru1.weight_ih_l0 f4 [192, 8]
000000 48 c7 32 be 10 7e 2b bd 8d 76 31 be 2b 61 27 be
       -0.17458832 -0.04186827 -0.1733038 -0.1634566
000010 57 3f 64 be e0 08 5e be 9e d8 78 be a5 ca 12 be
       -0.22289787 -0.21683073 -0.24301383 -0.14335115
000020 f1 23 34 3b cd db 8e 3d 9c 6a 00 3e dd e4 88 3d
       0.0027487243 0.069755174 0.12540668 0.06684277
000030 7c a1 82 3d fa 88 0a 3e dd c4 ef bd 0e 83 00 3e
       0.06378457 0.13528815 -0.117074706 0.12549993
000040 65 2f bf be 54 4f 24 be 5c 73 c7 be dc 80 c9 be
       -0.37340847 -0.16045886 -0.389552 -0.39356124
000050 98 05 d0 be 3e fa a7 be 74 7a 55 be 19 16 95 be
       -0.40629268 -0.32808107 -0.20847493 -0.29118422
000060 fd de f4 3d 21 42 80 3e 4c 46 85 3e da 79 53 3e
       0.11956594 0.25050452 0.26030195 0.20651951
000070 f8 3a 84 3e 20 4d 90 3c e8 ce 25 3e 48 6c 88 3e
       0.2582624 0.017614901 0.1619221 0.26645112
000080 1e be db bd 20 b4 a8 bd 18 3d 3e 3e f7 be 7b 3e
       -0.10729621 -0.08237481 0.18577993 0.24584566
000090 ac b1 a1 3d a2 16 6c 3c 40 52 44 3d b6 5a bc bd
       0.07895216 0.014409693 0.047930002 -0.09196989
0000a0 cc 93 89 be a7 65 a6 be 50 a8 9f be 9b 69 d5 be
       -0.26870573 -0.3249943 -0.311831 -0.41682133
0000b0 d5 5c d8 be 91 61 ce be 87 75 8a be 38 62 b9 be
       -0.42258325 -0.40308812 -0.2704279 -0.36207747
0000c0 a4 fe 4b be 7a ff 80 be 89 f7 13 be 05 9d 66 be
       -0.19921356 -0.25194913 -0.14449896 -0.22520836
0000d0 73 3f c4 3c 29 34 5e be d4 21 28 be ac 99 91 bd
       0.023956036 -0.21699585 -0.16419154 -0.07109389
0000e0 fb 74 9c bd 2d 38 0f be 9a 16 90 bd 7b ad 02 be
       -0.076395 -0.13986273 -0.07035561 -0.1276149
0000f0 1b 7b 98 bc 53 10 3a be e2 f5 db bd 3b 42 88 bd
       -0.018613389 -0.1817029 -0.10740258 -0.066532575
000100 d9 6a 09 be 57 49 eb bd 9e 6f b1 bd 54 bc 00 be
       -0.13419665 -0.11488598 -0.086638674 -0.12571841
000110 39 16 58 be 51 a9 83 be ea 1a 34 be a4 83 98 bd
       -0.21102227 -0.25715116 -0.17588392 -0.074469835
000120 81 17 9e be bb 3a a3 be ec be bb be 4c 2d 8e be
       -0.30877307 -0.31880745 -0.366691 -0.27768934
000130 bb ea 21 be 0e d5 3d be a3 da 85 be 5a ae ad be
       -0.15812199 -0.18538305 -0.2614337 -0.33922082
000140 33 8b d5 bd 86 66 06 be ac e8 d2 bd 52 00 c0 bd
       -0.10426941 -0.13125047 -0.10298285 -0.09375061
000150 f4 ec 68 be 46 3f c2 be 65 32 a0 be 44 0d 03 be
       -0.2274664 -0.379389 -0.31288448 -0.12798029
000160 21 ae 12 bd 66 5e f3 3c 00 1e 78 bd e9 73 8b bd
       -0.035810594 0.029708099 -0.060575485 -0.068092175
000170 61 d1 03 3d 3b 2e 74 bd 4c 79 be bd 78 9f 32 be
       0.0321821 -0.0596144 -0.09300479 -0.17443645
000180 dc a4 b6 3d 82 91 16 be db e4 f8 bd 55 4e 08 bc
       0.08918163 -0.14703944 -0.12153026 -0.008319457
000190 6c d8 c9 3d 48 31 97 3d 94 23 02 3e cb ea 8b 3e
       0.09855732 0.073824465 0.12708884 0.2732757
0001a0 40 75 21 be f0 43 83 be c9 31 99 be 43 0f 51 be
       -0.15767384 -0.2563777 -0.29920796 -0.20415978
0001b0 1c a5 90 be b7 de 99 be b1 c7 78 be 28 73 b4 bd
       -0.28250968 -0.3005273 -0.24294926 -0.08811027
0001c0 7d b4 a7 3d fa 45 16 3e 06 4f 64 3e da 3c 8d 3e
       0.08188722 0.14675131 0.2229577 0.2758549
0001d0 5f c0 49 3d 86 82 ff 3d 41 7f d5 ba 17 77 cf 3c
       0.049255725 0.12476067 -0.0016288535 0.025325341
0001e0 26 bb 51 be 1b 37 67 bd 5c a3 f3 3c c4 b6 4d bd
       -0.20481548 -0.056449037 0.029740982 -0.050223127
0001f0 e5 d9 d5 bd 15 7e 2e bd 2b dd 49 be eb 09 35 be
       -0.10441951 -0.04260071 -0.19713275 -0.17679565
000200 87 f1 a5 3c 37 43 2a 3d db f4 8d be 9a 21 6d bd
       0.02025677 0.041568007 -0.27725872 -0.057893373
000210 a5 b9 d5 bd 30 af 95 3d b9 44 56 3e a5 b5 18 3e
       -0.104357995 0.07308805 0.20924653 0.14913042
000220 86 9d 64 be 0d 4c 03 bd d9 a6 98 bd cf 33 22 be
       -0.22325715 -0.03205495 -0.07453699 -0.15840076
000230 57 2e 6b be e3 7b 99 bd 8b 82 37 bd 23 05 63 be
       -0.22966896 -0.07494333 -0.04480223 -0.22169928
000240 77 c9 bb be c9 7a e1 be 55 27 99 be 74 32 a1 be
       -0.36677143 -0.4403899 -0.2991282 -0.31483805
000250 2c f7 a2 be 77 18 50 be df e0 5e be a4 eb 99 be
       -0.31829202 -0.20321833 -0.21765469 -0.30062592
000260 71 05 e6 bd c8 af b9 bd 05 56 13 be a3 cd a5 be
       -0.112315066 -0.09066731 -0.14388283 -0.3238345
000270 cc 33 c4 be 73 df aa be a9 5b 6a be 3b da 84 be
       -0.38320768 -0.33373603 -0.22886528 -0.25947747
000280 6d 14 83 be ec bb 95 be 63 82 4a be 11 b2 80 be
       -0.2560152 -0.29244936 -0.19776301 -0.25135854
000290 c4 06 fe be dd b3 f5 be 22 80 b2 be 87 fa 9c be
       -0.49614537 -0.47988787 -0.34863383 -0.30659887
0002a0 b2 ce ec 3c da 8b 82 be df 56 33 be 25 94 46 bd
       0.028907154 -0.25497323 -0.17513607 -0.048481125
0002b0 ef 2f 77 be 0b b5 bd bc 59 f4 06 bd 1d 39 c7 bc
       -0.24139379 -0.023157617 -0.03294787 -0.024319226
0002c0 d1 0f 11 bd 50 cb c8 bd 74 06 99 be ae a2 ec bd
       -0.035415474 -0.09804404 -0.29887736 -0.11554466
0002d0 bb ce 47 be 75 d7 b8 be 8a 0b 02 be 1d df 37 be
       -0.19512455 -0.3610188 -0.12699714 -0.17956205
0002e0 e5 43 d4 bd 10 72 d8 3c c0 88 73 3d 7f 77 91 3d
       -0.10364512 0.026421577 0.059456587 0.0710287
0002f0 33 0a ef bb 8f d5 c1 bc fb c9 ca bb 2a c5 67 bd
       -0.007294917 -0.023661403 -0.0061886287 -0.056584515
000300 6e 04 dc bd 65 a6 09 be b1 26 54 be c3 11 87 be
       -0.107430324 -0.1344238 -0.20717885 -0.2638074
000310 9b 24 15 be 55 2c 2e be f0 96 75 bd 87 43 43 be
       -0.14564745 -0.17009099 -0.0599584 -0.19068728
000320 d2 95 50 be de f0 03 be c4 8c 67 be ae fa 3f be
       -0.20369652 -0.12884852 -0.22612292 -0.1874797
000330 77 e4 b2 be 76 1a 86 be 84 80 c6 bd 45 48 33 be
       -0.3493993 -0.26192063 -0.09692481 -0.17508037
000340 a7 7d 88 bc d4 f6 f3 3c b2 50 1c 3d d0 dd 4b 3e
       -0.016661478 0.029780783 0.038162895 0.19908834
000350 67 8c a9 3e 7b 5f 57 3e 0e 97 80 3e b3 be 3e 3e
       0.3311493 0.21032517 0.25115246 0.18627433
000360 60 19 04 be cc 14 a1 3d 5a 59 32 bd e7 b1 54 3e
       -0.12900305 0.07865295 -0.043542244 0.2077099
000370 8c 61 a1 3e 42 2d 29 3e 6d eb 05 3e 8e 68 d4 3b
       0.31519735 0.1652117 0.13078089 0.0064821905
000380 d6 5f 9d bd 9a 76 da 3d 7a 12 59 3d 00 95 9c 3c
       -0.07684295 0.10667153 0.052996136 0.019114017
000390 a1 8e 03 be cd 0b ec bd 2a f8 52 be 3e 8a 88 be
       -0.12847377 -0.11525688 -0.2060248 -0.2666797
0003a0 f6 a8 1e bf da da 2a bf d1 5a 15 bf c5 17 13 bf
       -0.61976564 -0.6674019 -0.583417 -0.57458144
0003b0 3d e4 12 bf 5c 00 1b bf 35 7a 1e bf a9 2b ea be
       -0.57379514 -0.60547423 -0.61905223 -0.45736435
0003c0 e3 7b 36 be a7 6a 90 3c bc 23 b4 bd 77 38 2d be
       -0.17820697 0.01762898 -0.08795878 -0.16916071
0003d0 5f f4 22 be 5f fe 25 be 62 91 71 be 60 bd 07 be
       -0.15913533 -0.16210316 -0.23590615 -0.13255835
0003e0 a4 5b 60 bb 1a 42 07 3c e1 16 b0 bd 6f 52 56 bc
       -0.003423431 0.008255506 -0.08598114 -0.013081177
0003f0 55 b3 42 bc 67 31 15 be 78 25 32 be cd d0 a2 bb
       -0.011883576 -0.14569627 -0.17397106 -0.0049687386

gru1.weight_hh_l0 f4 [192, 64]
000000 e9 ad 0f be 7b e9 04 3e bb ed 5e 3e a1 6a 9b 3c
       -0.14031185 0.1297969 0.21770374 0.018971743
000010 19 be a6 3a 77 c8 7c 3e 1c 4a f1 bc 34 1a 0f be
       0.0012721448 0.24685846 -0.029454283 -0.1397484
000020 4f e3 bf bd 30 b4 a9 3d 5c 90 53 3d a7 d1 1b bd
       -0.093695275 0.08286321 0.051651344 -0.038041737
000030 d5 6c 69 ba 1a ed 07 bd 3a be 8a 3d 77 23 55 3c
       -0.0008904462 -0.033185102 0.06774564 0.013008944
000040 94 8d ac 3d 60 f9 1f be be 1a 9e 3e 47 b2 96 bd
       0.084254414 -0.15622473 0.30879778 -0.073582225
000050 6e e6 19 be bb 5d 1d be c8 70 5a 3e 9f f9 64 3d
       -0.15029308 -0.15367787 0.21332085 0.05590212
000060 a4 db e9 bb 79 0f de bc df 0b be 3d bc db a0 3d
       -0.007136779 -0.027106987 0.09279608 0.07854411
000070 f0 8e 22 bd b5 d5 01 3e ed b2 77 3c 6c 49 ec bc
       -0.039687097 0.12679179 0.015118343 -0.028843604
000080 fb b1 4e bd fd 9d 53 3e c6 97 fd bd de ab 99 3d
       -0.050462704 0.20665736 -0.12382464 0.07503484
000090 f4 6a 56 be 67 d5 f9 3d 90 2b 0e 3e 6d b4 ae bd
       -0.20939237 0.121989064 0.13883805 -0.08530507
0000a0 76 d5 be 3c e2 d4 0f 3b b4 11 ea 3d 9f 20 65 bb
       0.023295145 0.0021946956 0.11429158 -0.003496207
0000b0 b5 25 b0 3c 27 58 d2 3d 79 e4 f5 bc 1d 18 5c 3e
       0.021502355 0.1027072 -0.03001617 0.21493573
0000c0 3d e9 29 3d ab fe d1 3c ae d7 26 3e cb 3d be 3d
       0.0414822 0.02563413 0.16293213 0.0928913
0000d0 6d da 43 be 24 df 71 be f8 11 33 be 54 68 03 3e
       -0.19126292 -0.23620278 -0.17487323 0.12832767
0000e0 ba b9 80 bd bb 16 12 3e 8f 44 21 3d a4 4f 8a bd
       -0.062854245 0.14266483 0.039372023 -0.067534715
0000f0 8b 94 1c 3e a8 d3 c4 3d c0 40 14 bd 09 1e 0a bd
       0.1529104 0.09610683 -0.036194563 -0.03372005
000100 cd 4b 31 3e 6f 02 f1 bd 6e 99 ab 3e 84 7f 17 3f
       0.17314072 -0.11768042 0.33515495 0.5917895
000110 4d c0 6b 3e b2 8c 42 3e 9c 03 05 3e 80 0e a2 bc
       0.23022576 0.18998984 0.12989658 -0.019782305
000120 8b 76 c1 3d ff c5 9d 3e 9e 9f ce 3c 11 d6 a5 be
       0.094464384 0.30815122 0.025222596 -0.32389882
000130 d0 b3 8c 3c 03 9b 5b be d9 54 32 be d3 f9 3f be
       0.017175585 -0.21445851 -0.1741518 -0.18747644
000140 85 2c 86 3e 0d f7 20 3c b6 14 24 3e d8 c1 86 3d
       0.2620584 0.0098245265 0.16023526 0.065799415
000150 f2 f3 0c be 33 1e a8 bc 92 df ff 3d 7b 3d af 3e
       -0.13764933 -0.020522213 0.124938145 0.34226593
000160 7b 3c 0f be f1 f9 f2 3c bf 0b 92 3d 8b 66 79 be
       -0.13987915 0.029660197 0.07131147 -0.24355523
000170 87 38 73 3e 79 96 e9 3d 98 ed c1 3d e5 e1 17 be
       0.23752032 0.114056535 0.094691455 -0.14832266
000180 71 8d b2 bd a1 a2 43 bd 2d 3e 41 be 37 9d 2f be
       -0.08718384 -0.047762517 -0.18871374 -0.17149816
000190 65 3b ed 3d 06 b0 9b 3e 77 35 4c 3e 7c 13 2c be
       0.11583594 0.30407733 0.1994227 -0.16804308
0001a0 d4 25 07 bd 60 b9 c6 bd 69 51 9f 3e d8 a7 e9 bd
       -0.03299506 -0.09703326 0.311168 -0.11408967
0001b0 2b d1 83 bb 49 f2 a4 3d 52 e3 b3 be e9 9e c4 3d
       -0.0040227375 0.08054025 -0.3513437 0.09600622
0001c0 93 df 87 be 6d 75 79 3e 83 77 92 bd c2 8a 53 3e
       -0.2653776 0.243612 -0.07151701 0.206584
0001d0 2c c4 22 be 10 88 be 3d 91 44 4a be 1e ac c0 3c
       -0.15895146 0.093032956 -0.19752719 0.023519572
0001e0 1d 2b 8a bd d1 38 cf bc 61 e5 2e 3e b7 5a 0b be
       -0.067465045 -0.025295647 0.17079689 -0.13608824
0001f0 ce a8 d9 be 41 21 75 be 2b f1 24 3d 8e 52 00 be
       -0.425116 -0.23938467 0.04026906 -0.12531492
000200 16 33 46 3d ad c4 73 be e9 7d 0b be b8 e9 94 bd
       0.048388563 -0.23805495 -0.1362225 -0.07271141
000210 ed a0 66 3d 90 17 b5 3d eb 2d ce 3c 4d 54 0e be
       0.056305815 0.08842385 0.02516838 -0.13899346
000220 74 73 83 bc ca cf fc bc bf b8 9b 3d 11 70 3b 3e
       -0.016046263 -0.0308608 0.07603597 0.18304469
000230 14 9e 0d 3d fa 71 9a 3d 67 c0 17 bd bc 48 9d bd
       0.034574583 0.075412706 -0.037048724 -0.076798886
000240 a9 a8 37 3e 42 83 f3 bd 39 ab f4 3d a2 d1 94 be
       0.17935432 -0.1189027 0.11946721 -0.29066187
000250 32 43 3b b9 45 df a6 bd 42 1f 4a 3e 45 0e 21 3e
       -0.00017858742 -0.08148054 0.19738486 0.157281
000260 63 da 00 3e 2c 87 70 3e 9f 49 72 be 68 3e cc 3d
       0.12583308 0.23489064 -0.23660897 0.099728405
000270 86 7b 93 bd 2a b1 92 3e 29 03 6f bd e1 1a a7 bc
       -0.072012946 0.2865079 -0.058352623 -0.020398559
000280 57 bd f4 3d 65 d2 0c 3e e2 e4 1c be e9 e0 5a be
       0.11950176 0.13752134 -0.15321687 -0.21374859
000290 75 f8 8c 3c 3a 33 20 3d 52 01 8c 3e 04 4c 39 be
       0.017208317 0.039111353 0.27344757 -0.18095404
0002a0 5d a5 0f 3c ae d4 d0 b9 73 3b 40 3e d9 fc 81 be
       0.008767453 -0.0003983131 0.18772678 -0.2538822
0002b0 d0 0b 4e 3e 03 ba 45 3e 4b b8 66 3d b2 25 a5 3d
       0.20121694 0.19309239 0.0563281 0.080638304
0002c0 f2 45 2b be 44 0a 2b be d4 dc 84 3e 4e 18 c7 3c
       -0.16725901 -0.16703135 0.25949728 0.024303582
0002d0 ff 40 cd bd 09 b1 04 be 96 b8 d8 bd c6 e8 d7 bd
       -0.10022163 -0.12958159 -0.10582082 -0.10542445
0002e0 9c c9 f1 bd e9 22 0d be 0d e4 59 3d 14 65 0d be
       -0.11806032 -0.13782848 0.053196 -0.1380809
0002f0 40 54 a5 bd 66 1b a1 be 2a 3b 92 bc 17 81 c4 bd
       -0.0807271 -0.31466216 -0.017850477 -0.095949344
000300 a4 b8 58 3e c8 6b 75 3d d9 aa 66 be 16 ff fb 3d
       0.21164185 0.05991724 -0.2252611 0.12304513
000310 2a 57 9a 3c ba 13 e0 bd 2e 4c 95 be c4 ae 82 bd
       0.018840391 -0.109412625 -0.29159683 -0.0638099
000320 e3 b9 2d be b6 0d 2e bd 27 53 a2 bd 8e 72 ca bd
       -0.16965441 -0.042493545 -0.07926016 -0.09885131
000330 11 ef 43 3e 3b 52 cf be 30 83 68 3d fe db 2f 3e
       0.19134165 -0.40492424 0.056765735 0.17173764
000340 00 dd 5c be 1b 41 92 3e f7 a7 8f be 3a dd 13 3e
       -0.2156868 0.28565297 -0.28057835 0.1443986
000350 08 69 0e 3e ec 03 1b 3e 0c 0b 72 be cb 72 9a bd
       0.13907254 0.15138215 -0.23637027 -0.07541426
000360 9e 88 c5 3d 61 91 93 3e 7d cc 9e 3c a6 c7 85 bd
       0.09645198 0.28821853 0.019384617 -0.065322205
000370 cb e0 0f be 3b 65 70 bd 82 62 0e 3e 5b 75 ea bd
       -0.14050595 -0.05869029 0.13904765 -0.11448165
000380 58 d1 16 be 19 f6 96 bd 77 d1 76 bd c3 28 0c 3e
       -0.14728296 -0.07371158 -0.060258355 0.13687424
000390 6a b2 56 3e ef 4c 8e be 57 83 07 be 31 7b b0 3e
       0.20966497 -0.2779307 -0.13233696 0.34468988
0003a0 ce 00 00 3e a6 6d d5 3d ca 8d 3f 3d ba 60 27 3d
       0.12500307 0.104213044 0.04676608 0.04086373
0003b0 6d e7 42 be 1b 1e 57 be 41 6c 2a 3e 5b 03 a9 be
       -0.19033594 -0.21007578 0.16642858 -0.33010373
0003c0 b2 fb 05 3c 42 71 9c be 90 6d 9d bb 2e 18 92 be
       0.008177685 -0.3055516 -0.0048043206 -0.28534073
0003d0 d4 58 86 3e b5 8e 73 3e fd 48 54 3e f1 6f 6d bc
       0.26239645 0.23784907 0.20730968 -0.014492021
0003e0 1a eb 20 3e 18 2f cd be 50 5b 39 be 83 a4 9d 3d
       0.15714684 -0.40074992 -0.18101239 0.07697394
0003f0 db e1 52 3e 4b 92 85 3d 20 e3 a8 3d 6a 5c 41 3e
       0.2059397 0.06522044 0.08246446 0.1888291

gru1.bias_ih_l0 f4 [192]
000000 ee e1 46 3e 99 ae da 3d 36 e8 0f be a0 6f 16 be
       0.19422123 0.10677833 -0.14053425 -0.14691019
000010 da 45 a3 bd 3c 27 5a be 69 19 93 3d 5a 04 cf bd
       -0.079723075 -0.21304029 0.07182581 -0.10108252
000020 b7 e4 8a bd d1 1b 01 be 06 65 2f be f3 95 92 be
       -0.06781905 -0.12608267 -0.17128381 -0.28630027
000030 e8 2d 98 3d b3 91 4d 3d 22 b4 06 bd 56 92 94 bd
       0.07430631 0.050187778 -0.03288663 -0.07254474
000040 c8 fa 88 bd 32 da a7 be 73 dd 9a be 76 91 2b bd
       -0.06688458 -0.32783657 -0.30247077 -0.04188677
000050 dd 26 91 be ee 34 3f be bc c0 af be 4e 54 20 bc
       -0.28349963 -0.18672535 -0.34326732 -0.009785725
000060 e4 83 96 3c 9b a8 2c be b9 45 d5 3d 1e d7 94 bc
       0.018373437 -0.16861193 0.10413689 -0.018168982
000070 18 eb 80 be c3 d0 d9 be b1 e0 0b bd c7 64 69 bd
       -0.25179362 -0.42542085 -0.03414983 -0.056980874
000080 fe c5 9d 3c 85 37 9c bd 36 fd ca 3c 99 24 0b 3e
       0.01925945 -0.07627777 0.024778944 0.1358818
000090 ad d2 bf bc a6 15 3d be eb de 65 bd 0d 90 a1 be
       -0.023415888 -0.1846529 -0.056120794 -0.31555215
0000a0 db 03 96 be 66 69 b1 3d 57 ca 28 bd 87 d1 17 bd
       -0.29299816 0.08662681 -0.04120859 -0.037065055
0000b0 cc 5f 62 be 1f 98 7d 3d 7b 85 89 3c fe 44 0a be
       -0.22106856 0.061912652 0.016787281 -0.13502881
0000c0 19 ab 98 3c 3f ac 02 be f7 85 68 3c c8 7f a8 be
       0.018636273 -0.12761019 0.014192096 -0.3290999
0000d0 b4 17 8c be 47 fa e1 be 37 bd 33 be c3 62 91 bd
       -0.27361834 -0.4413626 -0.17552648 -0.070989154
0000e0 c0 31 66 bd 27 d9 85 bd 12 da 99 bd 03 6e e6 3b
       -0.05619979 -0.06535559 -0.07512297 0.0070321574
0000f0 5b 77 0b 3e ad 7d 2e 3e 79 a3 80 bd ba a9 94 bd
       0.13619749 0.17040129 -0.0628118 -0.07258935
000100 e2 dc 6b be f2 19 fa 3d fc 76 10 be 09 eb cd be
       -0.23033479 0.1221198 -0.14107889 -0.4021838
000110 24 b1 05 be 30 3f 66 be f8 74 73 be e9 d0 0b 3e
       -0.13055855 -0.22485042 -0.23775089 0.13653912
000120 0a 5c bd bd 31 7d 76 bd 24 1c 74 be 1c 0b c3 3e
       -0.09246071 -0.060177986 -0.2383886 0.38094413
000130 1d c1 e6 bc fc 08 0c bf a7 89 8b be da c8 45 bc
       -0.028168255 -0.5470121 -0.27253458 -0.0120718125
000140 69 f1 cd bd 7a ac 60 be 49 79 81 bd 3a 9a 70 bd
       -0.10055811 -0.21940795 -0.063219614 -0.058740832
000150 28 08 2f be 92 90 93 bd 21 9e 51 be 2a 3f e2 bc
       -0.17092955 -0.07205309 -0.20470478 -0.02761801
000160 28 9a 56 be 6d 6b ab be 6c 4f c8 be a7 30 d2 be
       -0.20957243 -0.33480397 -0.39123094 -0.41052744
000170 f6 b2 a7 3e 9b 22 04 be 62 54 b4 be 72 cd c4 3e
       0.32753724 -0.12903826 -0.3522063 0.38437992
000180 6f d4 5c 3d 15 c8 82 be 4f da 5f 3e cf 12 cc be
       0.05391353 -0.25543275 0.21860622 -0.398581
000190 d1 09 b3 be 43 14 87 bd 2b 3b fb bd bd e8 24 be
       -0.34968427 -0.065956615 -0.12267145 -0.16104408
0001a0 81 e4 ef bd 69 82 a8 3d c3 59 cc 3e f3 06 9b bd
       -0.117135055 0.08227999 0.39912233 -0.07569685
0001b0 0b 44 73 be 74 43 81 be 0c e9 f1 bd f5 7f 83 be
       -0.23756425 -0.25246775 -0.11812028 -0.2568356
0001c0 1f 8f 1f 3e 1c 51 99 bd c5 a3 96 be 42 48 aa bd
       0.1558194 -0.074861735 -0.2942182 -0.08314563
0001d0 bf 76 95 be 95 cb 8b be 5c e1 42 be 61 84 7b bd
       -0.2919216 -0.27303758 -0.1903128 -0.061405543
0001e0 c0 3e c0 bd 05 1b ed bd 02 cc e0 bd af 18 8f be
       -0.093869686 -0.11577419 -0.109764114 -0.2794852
0001f0 4f 9d a2 be 0f 18 85 be 1f c6 7f be 73 06 6b be
       -0.31760642 -0.25994918 -0.24977921 -0.22951679
000200 48 ff 39 be b5 8c 86 3d 9f 7b 61 3e 40 c4 32 be
       -0.18163788 0.065698065 0.22019814 -0.17457676
000210 06 7d 83 3d d4 9b 46 3e 12 0f 8c be 10 c6 c2 3d
       0.06420331 0.19395381 -0.27355248 0.09510434
000220 84 bd a5 bc 1d c1 56 3e 40 5b ff 3d 56 08 b9 bd
       -0.02023197 0.20972104 0.124685764 -0.09034793
000230 eb ec 33 bd 20 32 2d 3e 9f 85 37 3d 13 85 e0 bd
       -0.043927114 0.16913652 0.044805165 -0.10962882
000240 5a 8b 67 3c cc bc 50 be 6b d6 5a 3e fa 73 f8 bd
       0.014132345 -0.2038452 0.21370856 -0.12131496
000250 39 3c f2 bd d8 f7 27 be 28 0f 5a 3e d3 eb 0a 3e
       -0.11827893 -0.16403139 0.21294844 0.13566522
000260 d4 95 26 be 78 ad 3a be cb c8 72 bd 8f 2e 86 bc
       -0.16268092 -0.18230236 -0.059273522 -0.016379623
000270 c4 37 3a 3e 40 7b cc 3d e9 fb 59 be 08 e8 b3 3b
       0.18185335 0.099844456 -0.21287502 0.0054903068
000280 12 fd 1e be 7c 83 44 3e b0 1b dc 3d d8 04 d7 3d
       -0.15526226 0.19190782 0.107474685 0.10498971
000290 b6 5e 28 bd 21 41 25 3e 40 4c df 3d 5b f3 3a be
       -0.04110595 0.16138126 0.109032154 -0.18256895
0002a0 4a f6 54 be 1f 7b 8b bd 2a 24 4a 3d bc 95 0e 3d
       -0.20797077 -0.06810593 0.049350895 0.034810767
0002b0 f5 a9 3d 3e 89 28 7a bc d5 6d 4a be 4b f6 98 3d
       0.18521865 -0.015268453 -0.1976846 0.07468852
0002c0 16 e5 23 3e 02 60 6c 3e f2 f8 6e 3d 80 d2 52 3e
       0.16005358 0.23083499 0.05834288 0.20588112
0002d0 9f 3c 41 bd be e5 57 be f4 37 48 be 74 bd b3 3c
       -0.047176953 -0.21083733 -0.19552594 0.021940924
0002e0 17 51 25 bd 7f b8 5a 3e 1b a6 02 3e 39 05 92 bc
       -0.040360536 0.21359442 0.12758677 -0.017824756
0002f0 30 df 0b 3e 04 8e 16 3e 64 c3 11 be 21 a8 84 bc
       0.13659358 0.14702612 -0.14234692 -0.016193451

gru1.bias_hh_l0 f4 [192]
000000 1a 96 35 bd 21 91 1b 3e f4 85 a7 bd d5 e6 63 3d
       -0.0443326 0.15192081 -0.081798464 0.05564006
000010 b9 e2 0b be f6 31 b8 bd 7d 91 e8 bd 92 3a 05 be
       -0.13660707 -0.08993904 -0.11355875 -0.13010624
000020 37 38 2f 3d ca 45 6e be f6 77 c7 be 94 af 8c be
       0.04277822 -0.2326881 -0.3895871 -0.27477705
000030 a3 b9 8c 3d 52 77 8a bd 46 52 29 bd da 03 c1 bd
       0.06871345 -0.0676104 -0.041338228 -0.09424563
000040 cc 81 0a be 8a db 98 be 3d 07 27 be ba c7 f7 bc
       -0.13526076 -0.29854995 -0.16311355 -0.030246604
000050 72 8e 55 be 2b df bd bd c6 87 6a be 2a 39 65 be
       -0.2085512 -0.092710815 -0.22903356 -0.22385088
000060 20 76 c0 3d 6b 4b 0a be 29 81 9f 3d e8 11 cc 3d
       0.093975306 -0.13505332 0.07788307 0.09964353
000070 59 3a 73 be d0 06 b4 be 38 95 81 be dc 53 60 bd
       -0.23752727 -0.35161448 -0.25309157 -0.054767475
000080 6a e4 0f 3c dd 5c 9b bd 35 3a 99 bd 5e 49 0c 3e
       0.0087824855 -0.07586072 -0.07481805 0.13699862
000090 bf 2c 10 bd 20 5b 92 be 8a ff 85 be 5a 32 ac be
       -0.035198923 -0.28585148 -0.26171523 -0.33632165
0000a0 04 3c 1c be ed 7b af bb 27 b0 2c 3d f8 91 95 ba
       -0.15257269 -0.0053553493 0.04216018 -0.00114113
0000b0 14 76 af be 89 03 75 3d b1 fb f4 bd 82 c6 83 3b
       -0.34269774 0.059817825 -0.11962069 0.0040214667
0000c0 20 96 16 bd a1 2d 3c bd 44 cf c4 bd 76 1c 35 be
       -0.036764264 -0.045941953 -0.09609845 -0.17686638
0000d0 15 d9 7e be 59 8e 50 be 4b 68 6c be 61 47 14 3e
       -0.24887498 -0.20366801 -0.2308666 0.14480354
0000e0 51 a6 cf bc 95 2a ef 3d 20 4c 26 be e5 0f f3 bc
       -0.02534786 0.11678044 -0.16239977 -0.029670665
0000f0 70 ae c0 bc c2 01 38 3e 79 a4 a7 bd f3 0f d7 bd
       -0.023520678 0.1796942 -0.081856675 -0.10501089
000100 89 0a 72 be 2e c8 d6 3d 0c c0 30 be c4 03 9e be
       -0.23636831 0.104874 -0.1726076 -0.30862248
000110 48 d2 0a be 9d d1 51 bd 9f 0a bd be 12 22 11 3e
       -0.13556778 -0.051225293 -0.36922166 0.14173153
000120 cd ed 43 be 0e 07 9a bd bb f0 c3 bd b8 ae bc 3e
       -0.19133683 -0.07520877 -0.095674 0.3685205
000130 ab 9a 64 be d6 40 ec be 3f 48 93 be a2 8d 10 bd
       -0.22324626 -0.46143216 -0.28766057 -0.03529132
000140 aa f1 92 bd 2d 88 61 be 6d 80 44 be ea 46 e8 bd
       -0.07175 -0.22024603 -0.19189616 -0.11341651
000150 82 d2 b7 bd de 70 5e be b5 59 98 be 22 ce b7 3c
       -0.08975698 -0.21722743 -0.2975594 0.022437159
000160 9d c7 b6 bd b6 b9 20 be b2 cc 90 be fd e7 c3 be
       -0.08924792 -0.15695843 -0.2828117 -0.3826293
000170 31 b2 b6 3e ea 1a 2b bd 60 59 64 be 0e 62 28 3e
       0.35682824 -0.041773714 -0.22299719 0.16443655
000180 62 45 1f 3e bd b4 94 be ed 77 7f 3d 04 74 be be
       0.15553811 -0.29044142 0.06237023 -0.37197888
000190 f6 4c 8f be fb ae b3 bd 20 9f e4 bd 8a 35 a0 bd
       -0.27988404 -0.08773609 -0.11163163 -0.07822712
0001a0 2e 4d 71 be 3f ad 77 bc 8c 9a 84 3e a1 fd 89 3d
       -0.23564598 -0.015116989 0.2589916 0.06737829
0001b0 d5 60 6a be fd 03 83 be 49 4d 90 3d ae 29 79 be
       -0.22888501 -0.2558898 0.07045991 -0.24332306
0001c0 9f be 8d 3c d6 9a f1 3c 9a 48 b9 bd 1a 5e 61 3c
       0.01730281 0.029492777 -0.09047051 0.013755346
0001d0 f9 90 49 be fe 2f 4c be ed c9 66 be cc 69 3b be
       -0.19684209 -0.19940183 -0.22537966 -0.18302077
0001e0 f0 78 e7 bd 4e 73 8c be 48 79 ae be db f6 c6 be
       -0.11302364 -0.2743172 -0.34076905 -0.3886021
0001f0 cd 5c 2a be eb 34 83 be dd 41 79 be cb 44 68 be
       -0.16636963 -0.2562631 -0.24341531 -0.22682492
000200 48 75 14 be d1 bd 0e 3d 1f ba 3a 3e 2c b0 6b bd
       -0.14497864 0.03484899 0.18235062 -0.057541057
000210 7d b1 c4 3d 73 31 e5 3d 2d ef eb bc 1f ce ce 3d
       0.09604166 0.11191072 -0.028800571 0.10097908
000220 3a 5d 02 3e e6 f2 49 3e f0 d0 93 bc d9 bc 98 bd
       0.12730876 0.19721565 -0.018043965 -0.07457895
000230 f7 3c 01 3e fb 86 5d 3d ba 53 4d be f0 36 04 be
       0.12620912 0.054083806 -0.2005147 -0.12911582
000240 d8 08 ae 3b 63 1b 81 bd 47 43 ab 3d 12 e8 71 3a
       0.005311113 -0.06304052 0.083624415 0.00092280016
000250 60 0a a0 3c 2f b0 e2 bd 89 ea ac 3d 3e 06 0f 3e
       0.019536197 -0.110687606 0.084431715 0.13967225
000260 f5 dc e6 bd cb d8 19 be 82 9a cf bc 1b 1f d6 bc
       -0.11272613 -0.15024106 -0.02534223 -0.02613788
000270 2d 9e 5e 3e d8 aa dc 3c e1 0e ba bc 1c f1 f1 bc
       0.21740027 0.026936933 -0.022712173 -0.029533915
000280 b4 4b 25 be 1d 90 0f bd 90 9a 10 3e fe 3a af bd
       -0.1614216 -0.035049547 0.14121461 -0.08556174
000290 aa 6f 96 bd 76 23 27 3e b5 2e 2e 3e 2a 05 e9 bd
       -0.07345517 0.16322121 0.17010005 -0.11377938
0002a0 06 9f 41 bd 27 ec 25 be a9 4a 31 bc ec 4d 09 3c
       -0.047270797 -0.16203366 -0.010821023 0.008380394
0002b0 ae 58 e2 3c f3 c2 f8 3d 8d 8b 1e bd a5 40 67 3d
       0.027630176 0.121465586 -0.038707305 0.056458134
0002c0 35 6f c0 bc d8 bc 8c 3e b3 38 9c bc da 8f 0a 3e
       -0.023490528 0.27487826 -0.019070005 0.13531438
0002d0 32 8f 73 bd bf 09 ae 3b a5 a7 22 be 29 1e 32 be
       -0.059462734 0.0053112204 -0.15884264 -0.17394318
0002e0 23 03 08 bd 93 d4 54 3e c6 5f 88 3d a3 7e 34 be
       -0.033206116 0.20784216 0.06658892 -0.17626433
0002f0 43 87 80 ba 17 4b f0 bc 1b ee 88 3c 66 08 27 be
       -0.0009805936 -0.02933268 0.0167151 -0.16311797

gru2.weight_ih_l0 f4 [192, 64]
000000 d1 d7 2b be 07 3a 49 be de bb 86 3e 86 00 ea bd
       -0.16781546 -0.19651042 0.26315206 -0.11425881
000010 01 d3 c3 3d 7b e0 29 3e be 9e b1 bc 6e 17 19 3e
       0.0956173 0.16589539 -0.02168214 0.14950344
000020 61 e9 04 bc bc 17 9f 3e 85 f2 2e 3d e1 60 e7 3d
       -0.0081122825 0.31072795 0.042711753 0.11297775
000030 20 18 70 3e d2 0d 81 3e 60 b2 ce bd d5 ba 9c be
       0.23446703 0.25205857 -0.10092616 -0.30611292
000040 96 7b 37 be 27 5b 65 be 45 b5 9d 3e 4e 1b 11 be
       -0.17918238 -0.22398053 0.3080236 -0.14170572
000050 bf 13 ba bd 2e a5 65 be 51 3f 18 3d 0f 32 e4 3d
       -0.090857975 -0.22426292 0.03716976 0.111423604
000060 ba 4e f9 be d1 06 91 be aa 3b a3 be 2f fd 60 3e
       -0.48692876 -0.28325513 -0.31881458 0.21971582
000070 06 f9 1d 3f ab 63 bb bd 9e 10 55 be 07 b8 a2 bc
       0.61708105 -0.091498695 -0.2080712 -0.019863142
000080 ae ff 3e be 48 3e 33 3e 26 4c 06 3e 82 fb 92 3c
       -0.18652222 0.17504227 0.13114986 0.017942194
000090 38 c8 4c 3d 6b 2b a2 3e c2 13 64 3d 17 42 7c bd
       0.04999563 0.3167375 0.055682905 -0.061586466
0000a0 cd d2 89 be b5 73 c3 be fc 23 20 be 63 5d 2b 3e
       -0.2691864 -0.38174215 -0.15638727 0.16734843
0000b0 21 b4 c9 3c d7 42 f3 3b d0 54 dc be 38 03 c2 3d
       0.024622025 0.0074237394 -0.43033457 0.0947327
0000c0 4a 13 58 3d 4b 6a b0 3e 4b ee 4e bd 39 d5 52 3e
       0.05275277 0.34456095 -0.050520223 0.2058915
0000d0 75 3d 19 3e 86 91 78 be 1e ec fb be 4f 34 1b bd
       0.1496485 -0.24274263 -0.4920358 -0.037891682
0000e0 28 00 32 be 6f b8 c4 3e aa 58 b2 3c dd 42 84 3d
       -0.17382872 0.38421962 0.021770794 0.06458066
0000f0 ac da 2a 3e 84 9f 5f 3d 4e ec 3a bd 9e 74 21 3d
       0.16684979 0.054595485 -0.045635514 0.039417855
000100 e2 64 32 be f0 65 26 3d 32 be 7d 3e 4f 55 d7 3e
       -0.17421296 0.04062456 0.24779585 0.42057273
000110 17 80 ed 3d ff ae 61 3d 09 87 1e be af 43 ee bc
       0.11596697 0.05509853 -0.154812 -0.029085008
000120 a1 e0 e7 3c 80 df 33 3e 04 14 0d be 18 3b 7b bd
       0.028305354 0.17565727 -0.13777167 -0.061335653
000130 1d 26 ff 3e 2c da 64 bd 29 b0 8f 3d 8a f8 28 be
       0.49833766 -0.055872127 0.07016022 -0.1650106
000140 68 ff ba bd 08 07 e9 bc 11 4f 66 3d 33 75 6e bd
       -0.09130746 -0.028445736 0.056227747 -0.05821724
000150 8f 6e b1 bd 41 23 4e be fb e8 ec 3d 37 5a 38 3e
       -0.086636655 -0.20130636 0.11567875 0.18003164
000160 8f 24 ee bd 9d c0 4a bd 6a fe 25 bd 0b af eb bd
       -0.11628067 -0.049500097 -0.04052583 -0.11507996
000170 ca 20 92 3e 87 db 36 be e0 50 ba bd 6c ec da bd
       0.2854064 -0.1785718 -0.09097457 -0.10689625
000180 96 93 c3 bc 69 51 d0 3d 32 1c 0f 3d a9 65 a1 bc
       -0.023874085 0.10171778 0.034939 -0.019701796
000190 91 d3 24 be d1 dc c4 3d 97 98 d1 3d ad 83 f3 bc
       -0.16096331 0.0961243 0.10234182 -0.029725874
0001a0 bf 95 aa bc b7 ea 24 be fb 3c 02 be 66 43 41 be
       -0.020823358 -0.16105162 -0.12718575 -0.18873367
0001b0 81 dc 33 3d 4a c9 b9 3b e7 44 49 be 76 8d d8 3c
       0.04391146 0.0056697475 -0.1965519 0.026434641
0001c0 13 3d 72 3a e1 81 28 3e 67 9d d5 bd d8 81 14 3e
       0.0009240668 0.16455795 -0.10430413 0.14502656
0001d0 6e de f8 bd c2 64 ad 3c a6 4c 73 bd 6d f9 48 be
       -0.121518 0.02116621 -0.05939927 -0.19626398
0001e0 23 8b 31 be da 2c 21 3e 99 95 36 bc c0 bd 0a be
       -0.17338233 0.15739766 -0.011144065 -0.13548946
0001f0 a9 9f da 3d e4 b7 7c 3c 0b 17 84 bd 64 e4 cb 3c
       0.10674984 0.015424702 -0.064497076 0.024889179
000200 37 30 3b 3e 0e 72 21 be 73 59 57 3c a6 5f af 3d
       0.18280111 -0.15766165 0.013143885 0.08563165
000210 ca 75 42 bc 92 bb 4b 3e 64 71 de 3e 9f 1c 26 bd
       -0.011868903 0.19895771 0.43445885 -0.04055464
000220 e0 7f 16 3e 4a 01 3a 3d 24 92 4a bd 37 77 33 bd
       0.14697218 0.045411386 -0.049455777 -0.043814864
000230 37 03 8b be 1f 47 06 3b 6c 6e 05 be 3e 3d 0f 3e
       -0.2715089 0.0020489169 -0.13030404 0.13988206
000240 fa da a2 bd b0 b8 04 3b 03 e0 ec bd c0 97 07 be
       -0.07951923 0.0020251684 -0.11566164 -0.13241482
000250 3e 75 8a be b3 9b de 3d e5 d1 15 3d 7f 3d 3c 3e
       -0.27042574 0.10869541 0.036577124 0.18382834
000260 e7 5f b2 3c 80 51 b1 3d d6 23 5c bd 36 be 54 3e
       0.021774245 0.08658123 -0.053745113 0.20775685
000270 9e 87 0b be 2f 55 94 3a b9 96 79 bd d8 6d 11 3e
       -0.13625953 0.0011316891 -0.060934756 0.14202058
000280 8f bb 76 bd 78 96 01 bd 54 c5 e7 bd 5e c1 aa be
       -0.060237464 -0.03163764 -0.11316934 -0.33350652
000290 79 a0 26 3b ed 5d 8b 3d 10 0d 1a 3d ec 68 74 bc
       0.002542524 0.06805024 0.037610114 -0.014917593
0002a0 f6 96 4f 3c a3 63 47 bc 40 d3 10 be 80 b3 cb bd
       0.012670269 -0.012169751 -0.14143085 -0.09946346
0002b0 1d fe 06 3e 89 10 47 bc 6d cd 9e 3d 5f 45 9d 3d
       0.13182874 -0.012149938 0.077540256 0.07679247
0002c0 d1 9f 95 3d 3c 3b b9 3d 62 a7 3c 3d af 0d 22 3e
       0.07305873 0.09044501 0.046058066 0.15825532
0002d0 58 f8 19 bf be b2 f4 3c f6 06 de bd d9 70 0b 3e
       -0.6014457 0.029870387 -0.108411714 0.13617267
0002e0 20 da ad bd e1 2a e4 bd fe 16 40 bd 38 ac da 3c
       -0.0848887 -0.11140991 -0.046896927 0.026693448
0002f0 68 24 36 be e2 9a 78 be 7d ec a5 3c 46 2e 91 bd
       -0.17787325 -0.24277833 0.020254368 -0.07088904
000300 47 ac 97 3b 05 0a 30 3e d1 d6 ce 3d 7d 72 7a 3d
       0.0046286914 0.17191322 0.10099567 0.06114434
000310 90 b1 82 be 52 51 fa bc 02 74 88 3e 1e ef aa 3e
       -0.25526094 -0.030556355 0.26651007 0.33385557
000320 74 10 95 3d 8b 7f a0 bc 00 8e 2d be 7d cd a2 bc
       0.07278529 -0.019592067 -0.169487 -0.019873375
000330 18 51 cf 3d 6a 09 e0 3d 5d 93 4d 3d 60 5c f5 3c
       0.10122889 0.109392956 0.050189365 0.029951274
000340 ae b0 0f bf 60 c5 d8 bd 16 4a c5 3b 97 fd 52 be
       -0.56128967 -0.10584521 0.0060207946 -0.2060455
000350 1c a1 53 3e a7 93 80 3e 64 be 94 bd 22 32 b3 bd
       0.20666927 0.2511265 -0.07262877 -0.087497965
000360 46 c5 9f be 05 73 64 be c2 5b 2d 3e b5 ba 59 be
       -0.31205195 -0.22309501 0.16929534 -0.2126263
000370 8b bf 21 3e 56 2a 38 be 64 28 5c be 5c d0 50 3e
       0.15795724 -0.179849 -0.21499783 0.20391983
000380 d5 db 56 be 09 83 e1 3d ce d0 a2 3e c5 37 10 bc
       -0.20982297 0.11011321 0.3179993 -0.008802359
000390 9e 70 c7 3e 0d d7 bb bd c5 9b 10 bd 60 d5 1f 3e
       0.38953108 -0.09171877 -0.035304803 0.1560874
0003a0 1b 09 38 3d d2 6d ec bd c4 bc 17 be 62 40 d0 3e
       0.04493056 -0.11544384 -0.14818102 0.4067412
0003b0 62 b3 d7 3c a1 df 40 be a6 d7 c0 bd a1 5c 0c bb
       0.026330654 -0.18835308 -0.09416132 -0.0021417516
0003c0 f3 ae a2 3e e3 0f 29 3e c1 34 1a be f2 e7 81 be
       0.317741 0.16509967 -0.15059187 -0.25372273
0003d0 e1 66 9b bd 23 a9 92 bc 32 3c 8e bd 8f ba ce bd
       -0.07587982 -0.017902916 -0.06945075 -0.10094177
0003e0 4d ee 76 3e 8f 47 04 3e e2 b0 62 3c 70 8f 07 3e
       0.24114342 0.12917922 0.013836117 0.13238311
0003f0 80 83 35 be 78 1b 85 3e ec 22 22 bb df 15 66 3e
       -0.17725945 0.2599752 -0.0024740053 0.2246928

gru2.weight_hh_l0 f4 [192, 64]
000000 8e d7 91 bd 0e e4 32 3e 68 d8 09 bd bf 83 27 3b
       -0.07121192 0.17469808 -0.033653647 0.0025560705
000010 47 cf 5a be d2 82 0d be 79 92 92 3e 3c 67 4b 3e
       -0.21368133 -0.13819435 0.28627375 0.198636
000020 20 be 63 3e 39 d9 77 3d 88 4f b2 bc 69 43 37 bd
       0.22240496 0.060509894 -0.02176644 -0.04474202
000030 61 5b 95 bd fb f9 0a be 90 0f 75 be 80 4b 37 3e
       -0.0729282 -0.13571922 -0.23931718 0.17899895
000040 e6 bc 7a bd dd bb 2e bd 3c 6b a5 bd 0c 0f e5 bd
       -0.061215304 -0.04265963 -0.08077094 -0.111845106
000050 9f 20 e0 3c a9 87 18 3e 5c 1b 8f 3e 68 9e 6a be
       0.027359305 0.148955 0.2795056 -0.2291199
000060 de 7e 51 be 96 5a c2 bd de a6 cf 3e 2d c8 a7 3e
       -0.20458552 -0.09489934 0.40556997 0.3276991
000070 66 cf 81 be 8a 0e 9d 3b d0 81 48 be 49 e7 9d 3d
       -0.25353545 0.004792993 -0.1958077 0.0771013
000080 ad 2e ee bd df 17 2c bd 9d c0 81 3e 37 8b fd be
       -0.116299964 -0.042014953 0.25342265 -0.49520275
000090 dd 66 60 3e 43 60 82 be 12 4e e0 3d de db da 3b
       0.21914239 -0.25464067 0.10952391 0.0066790422
0000a0 82 14 d3 3c 24 82 09 bc 33 6c 62 3c b7 e2 be be
       0.025766615 -0.008392844 0.013819742 -0.37282345
0000b0 9b 84 70 3d ae 87 67 3e a7 73 cc 3d a0 3e 31 bd
       0.058720212 0.22610351 0.099829964 -0.043272614
0000c0 4a 47 0d 3e 7a 8f 13 be b9 29 89 bb 07 65 b6 bc
       0.13796726 -0.144102 -0.004185882 -0.02226497
0000d0 b0 65 24 3d 7d ae 01 3d 9b be 34 3e 7e 4c 83 3e
       0.04013604 0.031660546 0.17650835 0.25644296
0000e0 b0 7e 12 be 61 31 13 bd 88 5b 18 bd 80 05 96 bd
       -0.1430614 -0.035935763 -0.037196666 -0.07325268
0000f0 41 42 77 3c c5 67 5d be 42 5d 30 be 42 0c e6 3d
       0.01509148 -0.21621616 -0.17223075 0.11232807
000100 11 fc 29 be 55 2a 9c be d3 69 41 bb bf df f8 3d
       -0.16600062 -0.30501047 -0.002951254 0.12152051
000110 0b 2b 86 be ae dc ba 3e 96 71 49 3e 13 e8 97 bd
       -0.26204714 0.3649649 0.19672236 -0.074173115
000120 84 7f 61 3e 1e 58 35 be eb 5f d2 3d 22 44 7d bd
       0.220213 -0.17709395 0.10272201 -0.061832555
000130 14 bb 91 3c 47 c2 d4 bd 47 45 e6 3d 29 2d 07 bd
       0.017789401 -0.10388618 0.11243682 -0.033002052
000140 2d 65 d4 be 2c 17 3c bd ca e2 ae bd b2 77 93 bc
       -0.4148344 -0.045920536 -0.0853935 -0.018001411
000150 8b 13 58 be 5b 2d 93 3d 29 66 03 be 60 5a 9e 3d
       -0.21101205 0.07186385 -0.1283194 0.077320814
000160 33 d0 a9 bd 06 e9 a6 bd 86 c7 cf 3d 3e 32 88 bd
       -0.08291664 -0.081499144 0.10145478 -0.06650208
000170 6c a6 1f be 49 e2 f7 bb b4 72 2a 3e 6a 10 28 3d
       -0.15590829 -0.007564817 0.16645318 0.04103128
000180 51 a9 dd 3d 59 1d 30 bd 8d 79 80 bd 9d 87 12 3f
       0.1082331 -0.042996738 -0.06273184 0.5723818
000190 6d 5b 5a 3e 6c 96 3c be 4b 8b ca 3d ab 80 6f be
       0.21323939 -0.18416756 0.09889849 -0.23388927
0001a0 97 2a b5 be a0 c7 f1 3d 4b 64 95 3b f8 3d 89 be
       -0.35384056 0.118056536 0.004559075 -0.2680509
0001b0 6d b7 20 be 40 39 a4 bc e7 43 6a bd b4 41 62 bd
       -0.15694971 -0.02004683 -0.057193663 -0.05523844
0001c0 36 dd 09 3e 06 36 4d be 19 bb c1 bd 75 70 8f bd
       0.13463292 -0.2004014 -0.09459514 -0.07003871
0001d0 4d b8 3b be a2 9d 98 bd 4c 58 88 3d ae 88 3c 3c
       -0.18332024 -0.07451941 0.06657466 0.011507196
0001e0 91 b1 21 bc 3f 0e 9e bd 1e d5 41 be 24 0d 38 be
       -0.009868995 -0.07717561 -0.18928954 -0.17973763
0001f0 f3 5c b4 bc 72 4e 4b be ed b0 01 be 5b cc 6d 3d
       -0.022016978 -0.19854143 -0.12665148 0.058056217
000200 02 08 d9 bc 04 d3 f8 bc cf 26 75 3d 1b 65 d4 3e
       -0.026493076 -0.030374058 0.059851464 0.41483387
000210 3c c5 14 be 68 30 e4 bd bd 36 b7 3d 0f db 84 3e
       -0.14528364 -0.11142045 0.089459874 0.25948378
000220 ac 10 ba 3c 72 8e 0f be 53 91 c0 bd f1 8d 4a 3d
       0.022713028 -0.14019182 -0.094027184 0.049451772
000230 8e 55 6c 3d 63 52 99 be 1b 3f 2f 3e 66 4c a1 3c
       0.05769878 -0.2994567 0.17113917 0.01968975
000240 40 ec 9b ba 5b 69 36 be a9 85 ae 3d 33 53 17 bd
       -0.001189597 -0.17813627 0.085215874 -0.03694458
000250 db 3d 01 be 12 e2 15 3e 54 95 dd 3e 4e f2 9b be
       -0.12621252 0.1463702 0.4327799 -0.304583
000260 c4 57 88 bd 17 23 99 be bc 5e c2 3c 14 d5 61 3d
       -0.06657365 -0.29909584 0.023726813 0.055134848
000270 15 81 91 be a6 13 a4 3e 4d 8b 08 3d f4 2a d3 3d
       -0.28418794 0.3204624 0.033335973 0.10310927
000280 cd 79 7d 3e 06 7c ae bd 15 61 05 bd bd 5a 30 3e
       0.24753495 -0.08519749 -0.032563288 0.17222114
000290 f6 99 68 3e 82 fd a0 bd fa a0 81 bd 2e 11 6e bd
       0.22714981 -0.07860853 -0.06329532 -0.058121853
0002a0 f0 9b cd ba a9 2f 2a be a1 54 49 be 23 ea 7d 3c
       -0.0015686732 -0.16619743 -0.1966119 0.015497717
0002b0 63 23 4d be 63 d2 bd bd 4f 55 c3 3e 86 a0 3b 3e
       -0.2003303 -0.09268644 0.38151023 0.18322954
0002c0 b4 ec 48 3e d3 76 00 3d 0c 26 0f bd e7 66 8f be
       0.19621545 0.03136332 -0.034948394 -0.28008196
0002d0 f4 91 46 be 72 3f a3 3d 0c 9c ef 3d 72 93 ac 3d
       -0.19391614 0.079710856 0.116996855 0.084265605
0002e0 4c 28 cb 3e 3f 2e c5 3e 32 4c 81 bd 77 fa fc 3d
       0.39679182 0.38511845 -0.06313361 0.1235246
0002f0 5d 71 02 be bb 56 eb 3c 95 3e 0e be cb ff 10 3e
       -0.12738557 0.02872788 -0.1389106 0.14160077
000300 70 51 46 be af 80 ae 3e 78 03 c2 bd 30 0d d8 3d
       -0.19367003 0.34082553 -0.09473318 0.1054939
000310 85 14 81 3c 78 09 e4 bd d1 64 32 bc 92 19 1d 3d
       0.015756855 -0.111346185 -0.010888294 0.038354464
000320 df 32 80 3e 9e 9c 82 3e fb d1 68 be c9 54 02 bd
       0.25038812 0.25510114 -0.22736351 -0.03181914
000330 79 7a a4 bd 2c bd 34 be 0e 0e ec bd ed e8 3b 3e
       -0.08031172 -0.17650288 -0.11526118 0.18350573
000340 f9 98 84 be 49 63 47 be 54 1b e4 bd 56 4e c4 3e
       -0.2589796 -0.19471468 -0.11138025 0.38341016
000350 74 f3 a7 bd c0 9b 10 3e 93 74 07 be 9f 8b 26 be
       -0.08200732 0.14121914 -0.13228063 -0.16264199
000360 b8 cf b6 3b 05 62 21 be e4 5a 81 be ba 75 57 be
       0.005578961 -0.15760048 -0.25264657 -0.21041003
000370 8f df a7 3d cf 84 39 3d 64 3d e2 bd d2 95 40 3e
       0.08196937 0.04529267 -0.110468656 0.18807152
000380 a0 22 ea 3b 32 2d 19 3e 0e 95 a0 bd e2 1a 51 be
       0.007145241 0.14958647 -0.0784093 -0.20420411
000390 7b 31 87 3d 8a f8 74 be 82 c5 88 be 45 e3 29 be
       0.066012345 -0.23922935 -0.26713187 -0.16590603
0003a0 5f 24 32 3e 94 94 45 be 1c 3a 1f 3d a2 93 1b 3e
       0.17396687 -0.1929496 0.038873777 0.15193036
0003b0 a1 50 a1 bd 8d c1 93 3e 8f 13 ab 3e 8a 1d 03 bf
       -0.07876707 0.28858605 0.3341336 -0.5121695
0003c0 a0 a9 93 3d 89 ac a8 be ec c2 e9 3d 8c 05 0c bd
       0.07210088 -0.32944134 0.114141315 -0.034184977
0003d0 dc 4d e0 bd 99 c3 51 bd f5 6d 8b 3d 52 ab 3f 3e
       -0.109523505 -0.051211927 0.06808082 0.18717697
0003e0 6f 9b f5 bd 84 95 d1 be 07 9b 2e bd a1 19 11 3d
       -0.11992537 -0.40934384 -0.042628314 0.035424832
0003f0 58 46 59 3a ac 9d b0 3d 07 22 c7 bd a4 72 f6 39
       0.0008288375 0.086238235 -0.09723287 0.0004700619

gru2.bias_ih_l0 f4 [192]
000000 00 15 45 3d 56 13 30 3e e7 8e f4 3c f7 bf f3 3d
       0.04811573 0.17194876 0.029853297 0.11901849
000010 83 46 3a 3c 1a 5a a6 bb 1a 08 91 3c 4f 8a c8 3d
       0.01136935 -0.005076659 0.017704058 0.09792005
000020 e6 77 63 3d 11 00 9f 3d e0 bb ca 3d 1b 73 64 be
       0.055534266 0.077636845 0.098991156 -0.22309534
000030 d1 e9 65 bc 49 85 2b 3e d4 95 6d 3e e3 8f 8a 3e
       -0.014032797 0.16750063 0.23201686 0.27062902
000040 a2 5c 74 3e 55 2e 48 bc 14 7a fc 3c b7 bf 42 3e
       0.23863462 -0.012218078 0.03081993 0.19018446
000050 ad bd 9b 3e f6 be 13 3e 52 e0 21 3e 46 21 0a 3d
       0.3041815 0.14428315 0.15808228 0.03372314
000060 01 38 d9 3d ae 7e 4e 3e 94 ac 6e 3a f6 10 2d 3e
       0.10606385 0.20165512 0.00091046956 0.16901001
000070 26 87 48 3e 74 ff 0b 3d ca 3c fb 3d 60 a8 f2 3d
       0.19582805 0.034179166 0.12267454 0.11848521
000080 87 4f bb 3c 2a 5a 30 3d b5 33 6a 3e 66 21 1b 3e
       0.02286507 0.043054737 0.22871287 0.15149459
000090 04 c7 24 3e cb 65 8f 3d e2 15 0b 3e 87 04 a7 3e
       0.16091543 0.07001837 0.13582566 0.32620642
0000a0 67 73 c8 3c 83 58 4a 3e f8 35 22 3e be 0b c7 3e
       0.02446909 0.19760327 0.158409 0.38876146
0000b0 5b eb a6 3d 20 d6 de 3d 8f 24 85 bd 41 1a 37 3d
       0.08150359 0.10880685 -0.065011136 0.044702772
0000c0 c8 b8 79 3d a2 ce 86 3c 3e 86 3a 3c bb 68 44 bd
       0.060967237 0.016455952 0.011384545 -0.04795144
0000d0 6a 2d 7d 3d 68 b2 8f 3b 8a a7 15 3e 4d 4e 89 3d
       0.06181089 0.0043852814 0.14614692 0.06704388
0000e0 1c 13 7b bd 39 58 a6 bd 36 31 72 3e 34 d4 80 3e
       -0.06129752 -0.08122296 0.23651585 0.25161898
0000f0 52 94 13 3e 54 f5 1f 3d 87 33 83 3e 00 73 b5 3e
       0.14412048 0.039052323 0.2562525 0.354393
000100 17 75 1b 3e 24 9d b0 bd 96 a4 60 be 33 85 44 be
       0.15181385 -0.08623722 -0.21937785 -0.19191436
000110 e3 5b 61 3e ad 0f 6f bd 2e 32 ea 3d 17 c7 dd bd
       0.22007708 -0.05836456 0.11435352 -0.10828989
000120 3a 39 2b 3e 2e d9 d4 3d ee 9e d6 3d ed c1 a7 bc
       0.16721049 0.10392986 0.10479532 -0.020478213
000130 a5 88 00 be 4a 03 f9 3c c1 9d d1 3b 01 7c 9a be
       -0.12552126 0.030397076 0.0063969796 -0.30172732
000140 e1 28 9d bd 63 57 32 be db 5a 11 3e 64 7d dc be
       -0.07673813 -0.17416148 0.14194815 -0.43064415
000150 1f 37 5a 3d c0 b9 b0 3d ac c5 21 bc 98 01 03 3d
       0.053275224 0.08629179 -0.009873789 0.03198394
000160 c7 2e 96 be 4f 12 c3 bd 5b 66 19 be ef 45 86 be
       -0.29332563 -0.095249765 -0.14980452 -0.2622523
000170 b4 be 20 3e 87 28 69 3d 1f 77 28 3e 05 cf e2 3d
       0.15697747 0.056923416 0.16451691 0.11074642
000180 86 3a d7 3d 3c 72 0c bb 9d 0c 46 be ca ca 26 be
       0.10509209 -0.0021430394 -0.19340749 -0.16288295
000190 fb 70 0c bd 03 87 65 bd f1 8e 18 be cb b2 18 3d
       -0.034287434 -0.05603696 -0.14898278 0.037279885
0001a0 78 ff 79 bd b5 de b9 3e fb 4c 15 be fe 2c 02 bd
       -0.06103465 0.36302724 -0.14580147 -0.03178119
0001b0 c7 8a 22 3e d3 89 04 3d 75 47 84 3d 52 d4 c2 3d
       0.15873252 0.032358002 0.06458942 0.09513153
0001c0 61 b5 4b 3e ec 20 32 be 46 1f ab bb e3 72 39 bd
       0.1989341 -0.17395371 -0.005222234 -0.04527558
0001d0 4b 6f 98 3d b0 4a 4a bc d5 8d f0 bd 69 c2 13 3d
       0.074431024 -0.012346908 -0.11745802 0.036074076
0001e0 0a 4c 54 bd 40 2e 82 be 00 da 86 be 93 a6 18 3d
       -0.05183033 -0.2542591 -0.26338196 0.037268233
0001f0 71 fe b2 3d 0d 2f e1 3d 0b 23 c0 3c b6 96 24 3e
       0.08739937 0.10995302 0.02345421 0.16073117
000200 71 03 d8 3b 67 06 a3 3d 8b bc 50 3d fc 7a 30 3d
       0.006592207 0.079602055 0.05096106 0.043086037
000210 e6 20 b5 3d 37 87 33 3e 5c 5f 9e 3d af f2 71 3c
       0.088441655 0.17532049 0.07733032 0.014767333
000220 d6 7a 12 3e 37 75 c6 3c 09 ef 0e bd a6 0f 6a 3e
       0.1430467 0.024225814 -0.03489593 0.22857532
000230 21 cc cd bd e5 cc 17 3e aa 18 b8 3d 1d 10 64 3e
       -0.100487 0.14824255 0.08989079 0.22271772
000240 75 f2 09 3e 17 34 ed 3d 32 b8 6a 3e d5 fd 12 be
       0.13471396 0.11582201 0.22921827 -0.14354642
000250 ff 1e 52 be 3d c9 68 be 43 71 8c 3d b5 c0 88 3c
       -0.20519637 -0.22733016 0.068575405 0.016693452
000260 07 de 5a be 8a d7 b3 bc 6d fa af bc e2 03 0e 3e
       -0.21373759 -0.021953363 -0.021481717 0.13868669
000270 78 f0 de 3d 51 63 07 3e 12 ca f7 bd 14 fa 8c 3c
       0.108857095 0.1322148 -0.12099089 0.01720909
000280 bc d0 2b be 4d 35 f0 bd bf 12 88 bd f9 03 b3 bd
       -0.16778845 -0.11728916 -0.066442005 -0.08740992
000290 f7 ec 18 be ee 74 84 3e 25 9b 5a be fd f4 3c 3a
       -0.14934145 0.2587046 -0.21348245 0.0007208137
0002a0 b8 0f 9e 3e a5 4a 87 3d fd d4 8f 3c 53 85 10 3e
       0.30871367 0.06606034 0.017557615 0.14113359
0002b0 d2 81 39 bd 09 a2 40 bd db ab 89 bd 12 c3 8e bc
       -0.045289822 -0.04702953 -0.06722232 -0.017427001
0002c0 80 ab b6 bd 71 48 2a be bb 2b 4b 3e 4b 72 c2 bc
       -0.0891943 -0.16629197 0.198409 -0.02373614
0002d0 a4 ec d6 3d 3f b8 cc 3d 88 b6 12 bd a5 32 ff 3c
       0.10494354 0.0999608 -0.035818607 0.031152079
0002e0 10 5b d6 bd 96 70 21 bd 17 9e b8 3c a6 ab c1 bc
       -0.104665875 -0.03941401 0.02253632 -0.023641419
0002f0 c1 f6 b2 ba 4f 80 88 bd 0b b6 7d 3d f3 d2 7e 3d
       -0.0013653861 -0.06665098 0.061941188 0.062212896

gru2.bias_hh_l0 f4 [192]
000000 72 0d 50 3e 9a f8 13 3e fb d1 11 bd f3 ea b1 3d
       0.20317629 0.14450303 -0.035600644 0.08687391
000010 79 5f 3e 3e eb 05 24 be 7f da c0 3d 99 2b 9f bd
       0.18591107 -0.16017883 0.09416675 -0.077719875
000020 9a b1 be 3d 9d ff f2 bb e3 22 04 3e b9 53 ff bd
       0.093112186 -0.0074157254 0.12903933 -0.12467141
000030 1d 07 21 be f8 1f 26 bd f9 d7 56 3e 4f 55 6a 3d
       -0.1572537 -0.04055783 0.20980825 0.057210263
000040 2d 04 5b 3e 4c 5f 70 3c 74 67 3a 3e 47 9f aa 3e
       0.21388312 0.014671158 0.18203527 0.33324644
000050 6a 1c 83 3e ad 18 25 3e 29 15 2b 3e 7b dc 1f bc
       0.25607616 0.16122694 0.1670729 -0.0097571565
000060 16 dc a1 bc 58 5b 0e 3e 07 41 05 3d 6c 41 c7 3d
       -0.019758265 0.13902032 0.032532718 0.09729275
000070 34 94 db 3d 71 61 59 bd 6d b6 ff bb f7 97 3e 3e
       0.10721627 -0.053071443 -0.0078037293 0.18612657
000080 9c b1 ef 3b 1b 7a 46 3e 5e dc 8c 3e 7e 7d fa 3c
       0.007314874 0.19382517 0.27511877 0.030577417
000090 11 0d 23 3d 62 ee f5 3d f1 de 9f 3d af fe c0 3e
       0.039807383 0.120083585 0.078061946 0.37694308
0000a0 b0 3d c5 3d 11 66 49 3e 61 48 2b 3e 99 08 cd 3e
       0.096309066 0.19667841 0.16726829 0.40045622
0000b0 14 23 08 3e be 82 4e bc b8 2c 7f 3d c3 12 d2 bd
       0.13294631 -0.012604414 0.062298506 -0.10257485
0000c0 32 5d 97 3e b1 32 56 3d cb ef ed 3d 49 ac 95 bc
       0.2956329 0.052294437 0.116180025 -0.018270629
0000d0 c0 46 89 bc 8f fb b6 3b 64 fa fb 3d 2e c0 92 bb
       -0.016757369 0.0055841873 0.123036176 -0.004478476
0000e0 19 56 0c 3e 49 1d 02 be 6a fe 52 3e e6 1e 88 3e
       0.13704719 -0.12706484 0.20604864 0.26586074
0000f0 2a 7f 9a bd 80 be 1a 3e dd f2 5e 3e f7 e8 a0 3e
       -0.07543786 0.15111732 0.21772332 0.31427738
000100 4d 2e 50 3d 44 3a ce 3d 32 eb a1 bd 3a 41 c6 bd
       0.050825406 0.10069707 -0.07906188 -0.0968041
000110 ef c6 fb 3c 71 73 84 bd 0e f6 ca 3d 22 8f 64 bd
       0.030734507 -0.06467331 0.099102125 -0.055800565
000120 88 df 03 3e c4 b8 09 3d 56 48 fc 3b 87 57 4a bc
       0.12878239 0.03362347 0.007699053 -0.01234997
000130 cc c4 3c be ca 34 8e 3d ea e8 b2 3d cd f3 2e be
       -0.18434447 0.069436625 0.08735831 -0.1708519
000140 c7 67 59 be a2 bf 0f be 81 50 12 3e 22 8c fc be
       -0.21230994 -0.14037946 0.14288522 -0.49325663
000150 e0 73 e1 3c b1 dd 4f 3e 93 0e b8 3d 32 a0 e6 3d
       0.027521074 0.20299412 0.08987155 0.112610236
000160 2a c5 a6 be 30 5b 82 be 81 03 0d bd 11 6d 27 bd
       -0.325723 -0.25460196 -0.03442717 -0.0408755
000170 78 06 b6 3d 18 08 2d bd a4 c9 c6 3d cc 06 ba 3c
       0.088879526 -0.042244047 0.09706429 0.02270832
000180 14 c7 c5 3d 4c 0e 9d 3d 88 93 96 bd 7c 58 1e be
       0.09657112 0.076687425 -0.07352358 -0.15463442
000190 e2 1d fc 3c ea 7d ac bd 75 fc 17 be a4 20 a1 bd
       0.030775968 -0.08422454 -0.14842398 -0.07867554
0001a0 55 40 91 3c db f1 86 3e e8 fb 60 bd da a7 59 bd
       0.017730871 0.26356396 -0.054927737 -0.05313859
0001b0 ed 8e 03 3e f7 a8 30 bc 0c 8b 3d bd 53 5b a1 bd
       0.1284749 -0.010782472 -0.046275184 -0.07878747
0001c0 96 f6 72 3e d2 2e c9 bd f3 7f 33 be 8e ea 46 be
       0.23726878 -0.098233834 -0.17529278 -0.19425413
0001d0 e5 33 05 3e cb e2 ac 3d 16 6d 48 3c b6 39 2f 3c
       0.13008077 0.08441695 0.012233039 0.010694912
0001e0 b6 82 90 3b ca a4 5f be 5e c7 e1 bd 90 4a 66 3e
       0.004410113 -0.21840206 -0.110243544 0.22489381
0001f0 95 62 a8 3d 0c 23 0b 3e f9 02 f4 3d 93 42 e6 3d
       0.08221928 0.13587588 0.119146295 0.11243167
000200 d9 03 a5 bd b3 df 56 be c6 f6 28 bd 62 36 be 3a
       -0.080573745 -0.20983772 -0.041250966 0.0014512057
000210 1f 58 8e 3d dd 31 45 3c 65 e3 8c 3d 93 15 7f 3c
       0.069504015 0.012035814 0.068793096 0.015569109
000220 2d 1d 28 3e d5 05 1a be bc 0c 3e 3e 21 1f 10 3e
       0.1641738 -0.15041287 0.18559545 0.14074375
000230 7b d4 06 be 6d f0 34 bd 59 c1 49 3d db dc 07 ba
       -0.13166992 -0.0441746 0.049256656 -0.00051827513
000240 f3 58 f7 3c 14 e4 22 bc 06 5d 07 bd 0e eb 46 be
       0.030193781 -0.009942073 -0.0330477 -0.19425604
000250 60 ac d2 bd cb e8 86 bd cd e3 4c 3d 7c 9d 0a be
       -0.10286784 -0.065873705 0.050021935 -0.13536638
000260 06 9a 95 bd 6f 3b 46 be 1a f2 47 3a f5 c9 57 3e
       -0.07304768 -0.1935861 0.00076273235 0.21073134
000270 73 04 00 be 20 a5 a9 3d c3 2d 30 3c 56 00 8a bd
       -0.12501697 0.08283448 0.010753098 -0.06738345
000280 6a da c7 bd d0 71 96 bd ce 6a 17 3e f9 11 3e 3e
       -0.09758456 -0.07345927 0.14786837 0.18561544
000290 64 33 29 bd 65 d4 36 3e 55 fd b3 bc c1 13 3f 39
       -0.041308776 0.1785446 -0.021971384 0.00018222538
0002a0 2a 6e c2 3d 9e 89 c2 bd e9 55 5c 3e 94 3b 2e 3e
       0.094936684 -0.09498905 0.21517147 0.17014915
0002b0 c2 ac 42 bd 74 ad 90 bc 3a 7e 9c 3d 61 a2 01 3d
       -0.047528036 -0.017660834 0.07641263 0.031648997
0002c0 10 43 2c 3e cb ab 61 bd 4c 97 19 3b ae 9f ab bd
       0.16822457 -0.055095475 0.0023436127 -0.08380066
0002d0 4c 94 eb 3d dd 23 4f 3e cd ef b2 3d 6c 0f c2 bd
       0.11502895 0.20228525 0.087371446 -0.09475598
0002e0 35 b6 89 3d 07 cf 2f bd f0 24 b1 bd b3 51 17 3c
       0.06724206 -0.042922046 -0.086496234 0.009235787
0002f0 38 35 14 be e9 b3 16 be ca 24 1e bd 19 77 9f 3d
       -0.14473426 -0.14717068 -0.038609304 0.07786388
