checkpoints/hamida_et_al/Salinas_PCA_8/2024_03_15_20_53_30_epoch1_0.63.pth (torch, 170652 bytes, 14 tensors)

conv1.weight f4 [20, 1, 3, 3, 3]
-0.072683804 -0.5208366 -0.3840311 -0.24160616 -0.25060248 0.3123084 -0.042489283 0.34452286
0.41608742 0.14641675 -0.12395615 -0.08176112 0.15757212 -0.086238265 -0.49623075 -0.01635668
-0.1856197 -0.36161673 0.34903 0.38263175 -0.17060645 -0.07713449 -0.16754958 0.27871844
0.117576465 -0.13873698 0.25672853 -0.24370949 0.36154228 0.21365461 0.30910096 -0.431967
0.15856215 0.064693645 -0.27662358 -0.23676033 -0.36456046 -0.47444808 0.19763234 0.016827133
-0.4177515 0.1282122 0.06976042 0.32154176 0.18946183 -0.56396276 0.33895892 0.25076938
0.0154386945 -0.144861 0.19031557 -0.014566452 0.23095965 0.102572694 -0.22892557 0.08417152
0.16109693 0.5039586 -0.15455772 -0.1385206 -0.11486182 -0.05160766 -0.4050496 -0.15125462
-0.02059268 -0.3580522 0.36130756 -0.22091801 0.104859546 0.41548714 -0.19140926 0.07268187
-0.23078644 -0.27794147 -0.026129847 -0.20190172 0.1904828 -0.04664432 -0.017255986 0.18949343
-0.21211147 0.035676252 0.31192994 0.09070759 -0.008626818 -0.052222352 -0.064781375 0.15749793
-0.4336118 0.074048944 -0.21544681 0.11316431 -0.12148511 0.054821964 -0.019425483 -0.40749544
-0.6925057 -0.024807377 0.0734037 0.20001228 0.045651346 -0.048200507 0.1532308 0.117043465
0.12454339 -0.07928725 -0.07240167 -0.08075763 0.10683282 0.3233519 0.15383519 -0.15231703
-0.038758375 0.37613162 -0.30820572 -0.6283809 0.28541186 0.00016426668 -0.24693187 0.14991891
-0.19522761 -0.011166538 0.07637942 -0.10138314 0.21333297 0.14538401 -0.0576388 0.19298053
-0.20081723 0.15761337 0.4238556 0.030088026 0.35561207 0.08985928 0.4768667 -0.007182506
-0.13966946 0.12706006 -0.15454616 0.046161603 0.21698926 -0.075373806 -0.5827639 -0.3811493
-0.54205775 -0.25341266 0.14303152 -0.27345398 0.028743556 -0.023596276 -0.3476067 -0.2308835
0.14306125 0.21326165 0.09702839 0.42826876 -0.2929131 0.15135327 0.17082486 0.3166428
-0.15043806 -0.1620118 0.22162557 0.20148106 -0.11144584 -0.28194106 0.377524 -0.11398189
0.16149928 0.2385351 0.29210925 0.08961278 0.2748122 0.23969938 -0.04843857 0.17778744
-0.3737977 0.18148567 0.16559632 0.01633752 0.15547627 0.21863763 0.5715988 0.1987414
-0.20523182 0.26100567 -0.40058544 0.70755666 -0.45391363 0.17274581 0.11643373 0.1040522
0.21678516 0.29710397 0.08813517 -0.014495576 0.14517517 -0.26118505 0.22080113 0.25707474
0.17502083 0.04677163 0.1109436 0.29263 0.25624558 0.08785766 0.29674253 0.32873225
0.15698537 -0.6509464 -0.4927532 -0.03958182 0.25258198 -0.29367578 0.23471767 -0.029548986
-0.11032423 -0.0084114345 0.16589609 -0.20116538 -0.4663006 -0.14509368 0.11938725 -0.4083075
-0.4281083 0.0084136445 0.023455404 0.3197014 0.44216317 0.24449551 -0.2958007 -0.36810908
0.3714287 -0.5927651 -0.15770811 -0.27279168 0.008771452 -0.113904715 0.08068839 -0.07557196
-0.5135479 0.294801 0.065928526 0.028126866 0.16014563 0.39064205 0.21194729 -0.01505959
0.05902276 -0.14543515 -0.22024195 0.25034946 0.14641574 0.32329136 0.5736594 -0.055677958
00000000: 3fdb 94bd 8c55 05bf b99f c4be 9b67 77be
00000010: f84e 80be e3e6 9f3e 3e09 2ebd 4d65 b03e
00000020: 6909 d53e 46ee 153e b9dc fdbd 6072 a7bd
00000030: 965a 213e b09d b0bd f511 febe 72fe 85bc
00000040: 1713 3ebe d425 b9be 0fb4 b23e 4fe8 c33e
00000050: 75b3 2ebe b0f8 9dbd 1e92 2bbe 2fb4 8e3e
00000060: eecb f03d 1111 0ebe ec71 833e fb8e 79be
00000070: 121c b93e 46c8 5a3e 7b42 9e3e c72a ddbe
00000080: 1e5e 223e 1a7e 843d 9ba1 8dbe 4d71 72be
00000090: aba7 babe dcea f2be 2260 4a3e 0ed9 893c
000000a0: 86e3 d5be 0f4a 033e 8dde 8e3d 1fa1 a43e
000000b0: 4802 423e dd5f 10bf 068c ad3e d864 803e
000000c0: 94f2 7c3c 7156 14be 16e2 423e 21a8 6ebc
000000d0: b080 6c3e a211 d23d 776b 6abe 1e62 ac3d
000000e0: 98f6 243e 6e03 013f 6144 1ebe 58d8 0dbe
000000f0: ad3c ebbd 8e62 53bd a962 cfbe 7ee2 1abe
00000100: fbb1 a8bc 9e52 b7be 4efd b83e 5538 62be
00000110: 9ac0 d63d bbba d43e ca00 44be 3bda 943d
00000120: 4853 6cbe 584e 8ebe 430e d6bc 53bf 4ebe
00000130: ec0d 433e 1d0e 3fbd 6d5c 8dbc 910a 423e
00000140: c033 59be 4321 123d 48b5 9f3e e7c4 b93d
00000150: 7f57 0dbc 1be7 55bd 19ac 84bd 2347 213e
00000160: 5e02 debe f9a6 973d 179e 5cbe b1c2 e73d
00000170: 2fcd f8bd ff8c 603d 3122 9fbc 3ea3 d0be
00000180: 0e48 31bf d738 cbbc ae54 963d 05d0 4c3e
00000190: e8fc 3a3d e56d 45bd 89e8 1c3e 7cb4 ef3d
000001a0: 9b10 ff3d 5b61 a2bd 5447 94bd 4264 a5bd
000001b0: 2acb da3d 618e a53e f986 1d3e fff8 1bbe
000001c0: 1ac1 1ebd 5394 c03e 24cd 9dbe 92dd 20bf
000001d0: 8121 923e 003f 2c39 b5db 7cbe 5884 193e
000001e0: bfe9 47be dbf3 36bc d06c 9c3d f7a1 cfbd
000001f0: f573 5a3e 8cdf 143e aa16 6cbd b09c 453e
00000200: 08a3 4dbe 6665 213e 9a03 d93e 2a7b f63c
00000210: c912 b63e 2408 b83d df27 f43e 3a5b ebbb
00000220: 8305 0fbe 081c 023e 5941 1ebe f313 3d3d
00000230: 6f32 5e3e 955d 9abd 0430 15bf 0026 c3be
00000240: 4cc4 0abf 4ebf 81be db76 123e 2902 8cbe
00000250: 9b77 eb3c fa4c c1bc 81f9 b1be b96c 6cbe
00000260: a67e 123e 4361 5a3e d2b6 c63d 0b46 db3e
00000270: b5f8 95be 5afc 1a3e b6ec 2e3e 011f a23e
00000280: 6f0c 1abe 6ce6 25be d0f1 623e 0d51 4e3e
00000290: b73d e4bd 945a 90be d34a c13e 566f e9bd
000002a0: 1160 253e 8c42 743e 588f 953e e886 b73d
000002b0: 2fb4 8c3e c173 753e 8667 46bd e90d 363e
000002c0: 6a62 bfbe 61d7 393e 1592 293e 43d6 853c
000002d0: 2c35 1f3e 8be2 5f3e 4d54 123f de82 4b3e
000002e0: 4a28 52be 89a2 853e 8919 cdbe 6f22 353f
000002f0: 5e67 e8be 47e4 303e cf74 ee3d 5219 d53d
00000300: eefc 5d3e 031e 983e 3680 b43d da7e 6dbc
00000310: cda8 143e 0cba 85be b119 623e 4d9f 833e
00000320: a938 333e 9c93 3f3d 6636 e33d 99d3 953e
00000330: 9f32 833e b8ee b33d a3ee 973e 984f a83e
00000340: c6c0 203e 6ca4 26bf 264a fcbe 8c20 22bd
00000350: 6d52 813e ac5c 96be d459 703e b710 f2bc
00000360: abf1 e1bd 1dd0 09bc aae0 293e 4cfe 4dbe
00000370: f4be eebe 7093 14be 4d81 f43d ae0d d1be
00000380: 0331 dbbe 62d9 093c 8c25 c03c e7af a33e
00000390: 3663 e23e 085d 7a3e 3073 97be cb78 bcbe
000003a0: e72b be3e 74bf 17bf 3c7e 21be 5aab 8bbe
000003b0: 23b6 0f3c e046 e9bd f43f a53d 79c5 9abd
000003c0: e077 03bf 28f0 963e 8905 873d 506a e63c
000003d0: 37fd 233e 3c02 c83e b608 593e 80bc 76bc
000003e0: d9c1 713d f4ec 14be 1b87 61be ce2d 803e
000003f0: 02ee 153e 7286 a53e 58db 123f 920e 64bd

conv1.bias f4 [20]
-0.018579734 0.037770763 0.0 8.033215e-05 0.0027406537 1.8510582e-05 -0.10443208 -0.110677585
0.0 -0.0672244 0.00456801 0.03305233 -0.005315143 -0.023968074 0.0 -0.029339895
6.478216e-05 0.23653328 -0.068134636 0.13639018
00000000: 8734 98bc 84b5 1a3d 0000 0000 ff77 a838
00000010: 8a9c 333b 2c47 9b37 7de0 d5bd eeaa e2bd
00000020: 0000 0000 f2ac 89bd 3faf 953b e161 073d
00000030: a72a aebb b258 c4bc 0000 0000 385a f0bc
00000040: a8db 8738 c835 723e 2c8a 8bbd dea9 0b3e

pool1.weight f4 [20, 20, 3, 1, 1]
0.061143853 -0.062424485 0.22907452 0.30885744 0.08810763 -0.18003948 -0.002312029 0.03703043
-0.27491584 0.3012548 0.12984712 -0.0039043566 0.17538023 0.09353979 -0.036193613 -0.08003152
0.11698204 -0.08795239 -0.043262403 -0.12500398 0.17860974 -0.27063257 -0.1606012 -0.17037621
-0.15946195 0.15426838 -0.21091731 0.05798852 0.1680967 0.48584473 0.16224892 -0.30805892
0.21461585 0.1213899 0.039441463 -0.1339198 0.20366164 -0.009637812 0.43995747 -0.032036923
-0.031382475 -0.1546122 -0.3125091 -0.17498086 0.051431485 -0.2401771 0.12488671 -0.13802259
-0.058485195 -0.269091 -0.220279 0.3920939 0.011962944 0.100099966 0.12827033 0.4980448
-0.16494209 0.21999343 0.027379286 0.0043564904 0.15408057 -0.22054596 -0.09725566 -0.13157201
-0.06421967 0.108648136 -0.00564523 0.16076016 0.01606556 0.01766223 -0.11109143 0.13629837
0.43719175 -0.09123962 -0.032404996 -0.056498088 0.09273594 -0.14500184 0.19700713 0.33018517
0.14508566 0.058889702 0.1442433 -0.09712629 0.10184229 0.16477709 -0.14140353 0.08820193
0.16191387 0.024804069 0.19011168 -0.17862423 -0.16143523 0.012982468 -0.20770754 -0.22620307
-0.06107458 -0.04307094 -0.27235734 0.14851463 0.08783851 -0.0031985994 -0.088225745 -0.09912405
-0.04975571 0.11559217 0.39383733 0.06724977 0.13646626 -0.15418996 -0.052267086 -0.20959437
-0.49210614 -0.14140552 0.092931055 0.26978692 -0.30545643 0.014712563 -0.18092772 0.06437431
-0.094336815 0.39645934 0.19078457 0.103345565 0.06580005 0.056340575 0.08043348 -0.37102178
-0.045484062 0.053436354 -0.02684654 -0.102911815 -0.11547139 0.2958063 0.1658445 -0.1796725
0.21226667 -0.11412543 0.015404975 0.4196506 0.24332762 0.052526604 0.12560967 0.10197753
0.14715748 -0.19036914 0.15250584 0.09889118 0.010377623 -0.23490421 -0.23539883 0.06847531
-0.031438317 -0.24450131 0.29094374 -0.3997099 -0.23590766 0.19515292 0.04072233 -0.5159346
0.11763512 0.028721029 0.23787618 -0.15168151 -0.058657825 -0.23501211 0.17185652 0.1648937
0.15445821 -0.1125726 -0.2661781 -0.0021121656 -0.112008326 -0.12638356 0.016659774 0.28824323
0.2019741 0.43393284 0.1507537 -0.03150692 0.15285207 -0.33688167 0.16099833 0.24355055
-0.21265568 -0.05261557 0.32333195 -0.356841 0.113148145 -0.1744119 -0.01755236 -0.08175698
-0.31412628 -0.055842318 -0.1419984 0.16864775 0.003710935 -0.21640077 -0.20670605 -0.26458192
-0.051486697 0.2033362 -0.2858288 -0.0714817 -0.06711053 -0.1190875 0.22746995 0.2827968
0.31180924 0.1632143 0.21635455 0.028872442 0.08602079 -0.12057328 0.08172092 0.14416306
-0.070705704 0.061267626 -0.008392814 0.042211287 -0.25582388 0.036013994 -0.002297006 -0.08530527
-0.06482893 0.009189272 0.084810175 -0.18245561 0.09229387 -0.1925315 -0.23802885 0.4844922
0.08970306 0.32418585 -0.23194954 0.012667858 -0.039355837 0.120465204 -0.11336254 0.08426751
0.12149467 0.069700755 0.046210162 0.27057502 -0.4323594 -0.22812311 -0.002433496 -0.1590389
-0.010228607 0.13347453 0.114215314 0.36582285 -0.12897182 0.10626099 -0.25633454 0.07064694
00000000: fa71 7a3d d1b0 7fbd 8392 6a3e 9022 9e3e
00000010: c671 b43d 455c 38be 6985 17bb 38ad 173d
00000020: c5c1 8cbe 123e 9a3e a5f6 043e 3ce0 7fbb
00000030: e096 333e ca91 bf3d c13f 14bd 91e7 a3bd
00000040: 4894 ef3d 6220 b4bd eb33 31bd 0b01 00be
00000050: 79e5 363e 5a90 8abe a474 24be 1a77 2ebe
00000060: fe49 23be 88f8 1d3e b5fa 57be 5f85 6d3d
00000070: 8b21 2c3e a4c0 f83e 9524 263e e6b9 9dbe
00000080: 42c4 5b3e 459b f83d 5f8d 213d 4622 09be
00000090: ad8c 503e eae7 1dbc 1b42 e13e 2639 03bd
000000a0: e98a 00bd a952 1ebe 3101 a0be 2f2e 33be
000000b0: d2a9 523d fcf0 75be 9ac4 ff3d cb55 0dbe
000000c0: 2c8e 6fbd 4cc6 89be d190 61be 88c0 c83e
000000d0: 3900 443c 3601 cd3d 4c59 033e baff fe3e
000000e0: 94e6 28be f545 613e 864a e03c e4c0 8e3b
000000f0: 4cc7 1d3e cdd6 61be fa2d c7bd d0ba 06be
00000100: 9a85 83bd ea82 de3d 9ffb b8bb 509e 243e
00000110: ec9b 833c 62b0 903c e783 e3bd cd91 0b3e
00000120: 99d7 df3e d6db babd 1abb 04bd 8a6a 67bd
00000130: 57ec bd3d 5d7b 14be 3dbc 493e 080e a93e
00000140: 5691 143e 5436 713d 84b4 133e 26ea c6bd
00000150: b192 d03d 53bb 283e 16cc 10be 37a3 b43d
00000160: c0cc 253e e731 cb3c a3ac 423e 45e9 36be
00000170: 474f 25be 6bb4 543c 49b1 54be c7a1 67be
00000180: 5729 7abd 276b 30bd 6c72 8bbe 3814 183e
00000190: ade4 b33d 989f 51bb b3af b4bd 8d01 cbbd
000001a0: a5cc 4bbd 96bb ec3d 0ca5 c93e 3fba 893d
000001b0: d0bd 0b3e f9e3 1dbe 0316 56bd e89f 56be
000001c0: 56f5 fbbe 9ccc 10be a352 be3d 8321 8a3e
000001d0: c964 9cbe f60c 713c 1e45 39be aed6 833d
000001e0: a933 c1bd b8fc ca3e 085d 433e d7a6 d33d
000001f0: 2dc2 863d 60c5 663d 4fba a43d 91f6 bdbe
00000200: 7f4d 3abd 14e0 5a3d 46ed dbbc 6ec3 d2bd
00000210: 447c ecbd ec73 973e 24d3 293e 11fc 37be
00000220: 6f5c 593e 98ba e9bd 2665 7c3c 72dc d63e
00000230: e02a 793e 2326 573d d29f 003e 98d9 d03d
00000240: 73b0 163e 21f0 42be 7e2a 1c3e 7587 ca3d
00000250: e806 2a3c bb8a 70be 640c 71be c93c 8c3d
00000260: 77c5 00bd 8d5e 7abe 94f6 943e c7a6 ccbe
00000270: c791 71be 2bd6 473e 75cc 263d 4a14 04bf
00000280: afea f03d 5d48 eb3c d095 733e 6652 1bbe
00000290: 3043 70bd 04a7 70be 28fb 2f3e e5d9 283e
000002a0: 4b2a 1e3e 778c e6bd 7f48 88be 426c 0abb
000002b0: 9f64 e5bd b16a 01be 147a 883c 9e94 933e
000002c0: 4cd2 4e3e 722c de3e 2e5f 1a3e 660d 01bd
000002d0: 4185 1c3e c17b acbe bfdc 243e 5165 793e
000002e0: 69c2 59be 6d83 57bd c48b a53e ddb3 b6be
000002f0: 37ba e73d 0899 32be f8c9 8fbc 3470 a7bd
00000300: 29d5 a0be eaba 64bd 0768 11be ffb1 2c3e
00000310: 2833 733b 2a98 5dbe c0aa 53be 4877 87be
00000320: b7e3 52bd 5d37 503e 2758 92be ff64 92bd
00000330: 3f71 89bd 26e4 f3bd e2ed 683e beca 903e
00000340: 76a5 9f3e a621 273e 0c8c 5d3e e685 ec3c
00000350: ab2b b03d 20ef f6bd 4c5d a73d 7b9f 133e
00000360: 27ce 90bd c3f3 7a3d 0382 09bc bee5 2c3d
00000370: 59fb 82be 6983 133d 5e89 16bb 88b4 aebd
00000380: 08c5 84bd 9a8e 163c f5b0 ad3d a5d5 3abe
00000390: 9204 bd3d fa26 45be d6bd 73be 5d0f f83e
000003a0: 3db6 b73d b0fb a53e 2e84 6dbe d98c 4f3c
000003b0: 9633 21bd 76b6 f63d 9f2a e8bd 7294 ac3d
000003c0: 33d2 f83d 45bf 8e3d de46 3d3d cf88 8a3e
000003d0: 365e ddbe 1b99 69be 4a7b 1fbb 18db 22be
000003e0: e395 27bc 8cad 083e b8e9 e93d 224d bb3e
000003f0: 3011 04be 5d9f d93d 483e 83be 58af 903d

pool1.bias f4 [20]
0.02004192 -0.04411993 0.0028093033 0.06305143 -0.07140816 0.002176321 0.027979868 -0.040516432
0.013406675 0.02832064 0.0121040065 0.01104194 -0.0045151035 -0.047257572 0.052536406 -0.023937447
-0.016098607 0.009585688 -0.015631504 0.03244179
00000000: f42e a43c 1ab7 34bd 4a1c 383b 1c21 813d
00000010: 713e 92bd 9ca0 0e3b 0936 e53c 8ff4 25bd
00000020: aca7 5b3c b000 e83c e24f 463c 41e9 343c
00000030: 6ff3 93bb 2891 41bd 6a30 573d 7718 c4bc
00000040: 3ae1 83bc 4a0d 1d3c a40d 80bc afe1 043d

conv2.weight f4 [35, 20, 3, 3, 3]
0.08037831 0.09044476 -0.03671853 0.021481032 0.07832526 -0.0064476635 0.0060459077 0.095824316
-0.033761915 -0.09114097 -0.031167982 -0.10560745 0.027360044 -0.0029195107 -0.06247512 -0.027546523
-0.04714502 -0.037540663 0.0025487542 0.033318505 -0.031069757 -0.08869978 -0.017264634 -0.09724943
0.057934903 -0.005416692 -0.013365707 0.11896679 0.09723769 0.023957128 -0.00036488578 0.12780191
0.06053705 0.058027238 -0.09364932 -0.13319588 -0.03916219 0.008370229 -0.02264738 -0.007893745
0.009402171 0.057453293 -0.0006947688 -0.03335937 0.0074699325 0.012309095 0.029194959 0.0399908
0.017772328 0.031638004 0.09348652 -0.0014155346 -0.012972897 0.08534033 0.124451526 -0.059974395
-0.03299907 -0.03531045 0.10413428 0.007663409 0.015313118 0.012642489 -0.053648956 0.123090886
0.010650837 -0.043134537 -0.020739598 0.14208068 -0.05213598 -0.07654268 -0.04954629 0.00347443
-0.08762924 -0.013545736 0.07529266 0.103847 -0.065110214 0.1115524 -0.024214288 -0.07746779
-0.12285311 0.012374699 0.087373 -0.0071349284 -0.072920986 0.027607437 0.031148884 -0.046521544
0.0074025714 -0.012630336 0.09184786 0.042136885 -0.10860063 0.068271555 -0.05477401 -0.015598795
0.0037337488 -0.036555815 -0.029316694 -0.007907224 0.07847784 -0.11935908 0.03358983 -0.0639305
-0.0669947 0.06297628 0.13727607 0.026166374 -0.09631259 -0.0067701996 0.11553924 -0.025451627
-0.10231815 0.09841698 0.0418163 -0.05833375 -0.085960805 0.0037093367 0.08943097 0.0007241998
-0.17833479 -0.0034948797 0.047652617 -0.06919832 0.08907254 0.024555106 0.052324925 0.026189908
0.068769634 -0.04268069 0.041700285 -0.030971536 -0.0061242157 -0.014630882 0.041483067 0.03013922
0.045456707 -0.10773891 -0.054157875 0.048701227 -0.036815334 -0.037932187 0.040122584 -0.014283537
-0.0143542765 -0.030495835 -0.024883635 -0.12673356 -0.046530053 0.042182364 -0.11425611 -0.04860553
-0.05106933 -0.034141526 0.03566802 0.087238 0.03844692 0.07452532 -0.0060678017 0.060297605
-0.0036455556 -0.027836155 0.15351778 0.017679969 -0.022928324 0.11265189 0.03729452 -0.051436406
0.050946966 0.037773773 -0.13760443 0.05844214 0.009758395 -0.013653313 0.056211747 -0.025951833
0.06467553 0.03188675 -0.058596756 0.11155619 0.08209089 0.1172084 -0.025464175 0.0030009144
-0.011353469 -0.122015156 -0.045252275 0.0057760607 0.004672032 -0.03582392 0.022705538 -0.038386013
0.17389338 -0.11539903 0.04253294 0.010066868 0.05276526 0.020647252 0.1199628 -0.042575065
-0.025640808 -0.06930165 -0.02835842 -0.010316447 0.037166093 -0.068241924 0.046823304 -0.04284624
0.09936019 0.020375175 -0.078932725 0.012141019 -0.018177493 0.024951736 -0.03443849 -0.051740766
-0.0729147 -0.09180187 -0.05864813 -0.06638885 0.08832482 -0.012535733 0.0046386993 -0.072714545
0.0371375 0.0064203897 -0.06657704 0.025362192 0.054539654 0.04282169 -0.10134371 0.015526673
-0.010549227 -0.18190971 0.010951216 -0.0098269 -0.05027301 -0.106876485 -0.070234746 -0.04273856
-0.012519775 -0.10087472 0.0461252 0.025105301 0.04585527 -0.003998128 0.15696676 -0.020085132
0.032082338 0.03506662 -0.011938212 -0.016404886 0.044545922 0.030357951 -0.037912127 0.02633254
00000000: 629d a43d 1a3b b93d 2b66 16bd fdf8 af3c
00000010: fe68 a03d ec46 d3bb c01c c63b 8a3f c43d
00000020: ef49 0abd 1ea8 babd ff53 ffbc b848 d8bd
00000030: 2c22 e03c 4355 3fbb e9e5 7fbd 3fa9 e1bc
00000040: 231b 41bd 3dc4 19bd 0009 273b fc78 083d
00000050: 0186 febc 3ba8 b5bd 906e 8dbc b62a c7bd
00000060: 264d 6d3d 817e b1bb d7fb 5abc dca4 f33d
00000070: 8e24 c73d bd41 c43c 244e bfb9 81de 023e
00000080: b3f5 773d f8ad 6d3d 37cb bfbd 8064 08be
00000090: 8868 20bd 4923 093c 0087 b9bc c454 01bc
000000a0: 900b 1a3c 2554 6b3d 2521 36ba d6a3 08bd
000000b0: 56c6 f43b 16ac 493c 442a ef3c 65cd 233d
000000c0: 4697 913c da96 013d dc75 bf3d 7689 b9ba
000000d0: 468c 54bc e9c6 ae3d 71e0 fe3d b6a7 75bd
000000e0: 082a 07bd b1a1 10bd 5a44 d53d 561d fb3b
000000f0: dfe3 7a3c 7122 4f3c 02bf 5bbd 1317 fc3d
00000100: d980 2e3c d7ad 30bd 17e6 a9bc 997d 113e
00000110: 8a8c 55bd 69c2 9cbd 0df1 4abd 43b3 633b
00000120: f576 b3bd efee 5dbc 0a33 9a3d bcad d43d
00000130: 8158 85bd 9675 e43d 0b5d c6bc 6fa7 9ebd
00000140: 699a fbbd 40bf 4a3c 9ef0 b23d 1ecc e9bb
00000150: 9957 95bd fe28 e23c f22b ff3c 608d 3ebd
00000160: 4591 f23b 78ef 4ebc bb1a bc3d ba97 2c3d
00000170: 026a debd f5d1 8b3d b65a 60bd 1792 7fbc
00000180: e9b1 743b 8dbb 15bd 9029 f0bc 4d8d 01bc
00000190: fdb8 a03d 8972 f4bd 7d95 093d feed 82bd
000001a0: 8434 89bd b5f9 803d 1992 0c3e dd5a d63c
000001b0: 893f c5bd 8dd8 ddbb d69f ec3d ee7f d0bc
000001c0: 2e8c d1bd d78e c93d 9247 2b3d 5fef 6ebd
000001d0: 380c b0bd 5818 733b 9627 b73d 3ad8 3d3a
000001e0: 659d 36be 5a0a 65bb 642f 433d d9b7 8dbd
000001f0: aa6b b63d ca27 c93c a952 563d 388c d63c
00000200: 18d7 8c3d f2d1 2ebd ebcd 2a3d 05b8 fdbc
00000210: a5ad c8bb 5eb6 6fbc 26ea 293d 87e6 f63c
00000220: d030 3a3d 38a6 dcbd a6d4 5dbd f07a 473d
00000230: adcb 16bd c85e 1bbd 9457 243d 7f05 6abc
00000240: 332e 6bbc 67d2 f9bc c4d8 cbbc 71c6 01be
00000250: 4c96 3ebd 6ac7 2c3d 1bff e9bd 9816 47bd
00000260: 132e 51bd fcd7 0bbd a118 123d d6a9 b23d
00000270: 857a 1d3d bba0 983d 69d4 c6bb 9ffa 763d
00000280: 46ea 6ebb a608 e4bc c433 1d3e 95d5 903c
00000290: 2ed4 bbbc 09b6 e63d 23c2 183d fbae 52bd
000002a0: c4ad 503d acb8 1a3d 2de8 0cbe 0761 6f3d
000002b0: ade1 1f3c 25b2 5fbc 4a3e 663d f098 d4bc
000002c0: 9b74 843d ae9b 023d 2703 70bd 9277 e43d
000002d0: 451f a83d f50a f03d 3f9a d0bc fdaa 443b
000002e0: e703 3abc 15e3 f9bd 735a 39bd 1c45 bd3b
000002f0: d817 993b 1abc 12bd f700 ba3c a73a 1dbd
00000300: 1b11 323e 5456 ecbd 0537 2e3d 81ef 243c
00000310: 6320 583d 6d24 a93c 0eaf f53d 3163 2ebd
00000320: ac0c d2bc 06ee 8dbd eb4f e8bc 5106 29bc
00000330: 793b 183d 6cc2 8bbd cbc9 3f3d 8a7f 2fbd
00000340: 5b7d cb3d d7e9 a63c 7ba7 a1bd 20eb 463c
00000350: f7e8 94bc 9567 cc3c 600f 0dbd 20ee 53bd
00000360: 4d54 95bd 9e02 bcbd 0639 70bd e1f6 87bd
00000370: a5e3 b43d ad62 4dbc 3b00 983b 5deb 94bd
00000380: 7e1d 183d 2262 d23b 8b59 88bd 5fc4 cf3c
00000390: f964 5f3d cc65 2f3d 4b8d cfbd 9663 7e3c
000003a0: aad6 2cbc 8a46 3abe bb6c 333c 0201 21bc
000003b0: 12eb 4dbd 0fe2 dabd 3cd7 8fbd a10e 2fbd
000003c0: be1f 4dbc 6897 cebd c7ed 3c3d a2a9 cd3c
000003d0: bcd2 3b3d bb02 83bb e5bb 203e 9389 a4bc
000003e0: c568 033d 04a2 0f3d 7e98 43bc 8a63 86bc
000003f0: c975 363d 3db1 f83c bf49 1bbd 57b7 d73c

conv2.bias f4 [35]
-0.0020098272 -0.0028435998 -0.0066970177 0.028662866 0.0 0.01193201 -0.008630139 0.03562384
-0.0012293977 -0.009338439 -0.0043193144 0.010550917 -0.0015107826 0.004204825 -0.00309895 0.028445639
0.0014878812 0.0 0.0 -0.004768967 0.0089093875 0.0037816695 -0.004204828 0.0063519613
-0.0011928376 0.008766282 0.027024746 0.013178762 0.006666916 0.00045993418 -0.001668065 0.0047562304
-0.017132627 -0.002184558 0.0142528685
00000000: 4eb7 03bb b05b 3abb a872 dbbb 63ce ea3c
00000010: 0000 0000 7a7e 433c 6d65 0dbc 4eea 113d
00000020: be23 a1ba 4100 19bc 0989 8dbb c1dd 2c3c
00000030: 7405 c6ba a1c8 893b c117 4bbb d406 e93c
00000040: 0205 c33a 0000 0000 0000 0000 ff44 9cbb
00000050: aef8 113c e3d5 773b a7c8 89bb 1d24 d03b
00000060: fd58 9cba 74a0 0f3c 0063 dd3c bceb 573c
00000070: 2576 da3b 5223 f139 f9a2 daba 27da 9b3b
00000080: b959 8cbc cd2a 0fbb dd84 693c

pool2.weight f4 [35, 35, 3, 1, 1]
-0.074465476 -0.015193652 -0.07590243 -0.06476004 -0.051138997 -0.10562746 -0.06516043 0.20362435
-0.050643187 -0.11016803 0.059985626 0.06957194 -0.029188305 -0.2190928 0.15317005 0.032736767
0.08768125 0.26519883 0.19044633 -0.07121023 0.10526909 -0.003929045 -0.13790521 -0.04306252
0.03566381 0.1195708 -0.095190555 0.23133974 -0.09337427 0.15224543 -0.18927145 0.20116468
-0.061163206 -0.032692354 0.24542941 -0.0024251365 -0.106714785 -0.079555035 0.006364136 0.2374859
0.0016030781 0.1480373 0.08784686 0.005411121 0.077577315 -0.15165007 -0.039197624 -0.38786778
-0.00088901544 -0.014863481 -0.22059675 0.080878295 0.02023578 0.08250473 -0.17650414 -0.15616997
-0.025272 -0.08838117 -0.04153834 0.30730534 -0.18079531 -0.13824023 -0.020148737 -0.14504512
0.30341053 -0.04926335 0.111838944 -0.043901313 0.13912141 0.09921141 0.2698206 -0.11054069
0.07871906 -0.10430641 0.06609475 -0.23836522 -0.14093615 -0.048457988 -0.40622473 0.2818369
-0.0071775056 0.13286021 0.24848096 -0.11066258 0.084400296 -0.03109962 0.015758121 -0.015324327
-0.37331155 0.10781013 0.046672907 0.23925392 0.16941391 0.050096557 -0.32667315 0.26735353
-0.097983986 0.038327 0.16980831 -0.11717023 0.1899179 -0.07911861 -0.07311127 0.07621933
-0.06937474 -0.17346905 0.2942137 -0.12584652 -0.004634984 0.012299739 0.017871525 0.030252846
-0.26423228 -0.25981385 -0.11664257 -0.1553538 -0.011992156 -0.16872792 -0.06518915 0.13729283
-0.003124037 -0.0068114614 -0.14194426 -0.1786048 0.17286405 0.055993263 -0.08737878 -0.045503967
-0.09891872 0.033341125 0.060490336 -0.08178275 0.028898047 -0.060772978 0.019452997 0.053498413
-0.038624775 -0.30055735 -0.24574855 -0.23084196 -0.34114635 0.10444512 0.24713442 0.15107676
0.060789328 -0.0960682 0.16531043 0.06855907 -0.023030583 0.08248332 -0.06621866 -0.053634744
0.033761453 0.0015479355 0.033629313 0.019491684 0.0043366947 -0.1204459 0.03167584 0.25833294
-0.056687176 1.548951e-05 -0.216279 -0.15419702 0.029344441 -0.07752107 0.12968096 0.1432752
0.039896566 0.08730103 0.23056369 0.083404325 0.19793195 0.0382109 0.04982206 -0.12310062
0.07497501 0.1022046 -0.0011990226 0.050128486 -0.03349688 -0.26389956 0.22038683 -0.13406865
0.08941228 -0.4349801 0.15832792 0.044773616 -0.027135607 -0.30695984 -0.25779828 0.11008942
0.06511885 -0.11231276 0.16789316 0.13560581 -0.07295732 0.09522185 0.15209535 -0.29167438
0.27945235 -0.27715304 -0.123723924 0.096961066 0.25719756 -0.011525062 0.15403567 -0.27708814
-0.0035646243 0.033153966 0.10696117 0.022865178 -0.124205686 -0.06553025 -0.13011086 -0.12298876
-0.051863734 -0.12785074 -0.10208622 -0.20726274 0.06814653 0.17674185 0.09467053 0.033943843
0.05917509 -0.007277424 -0.0980907 0.12612024 0.0035083438 0.23332489 -0.08536397 0.0502062
-0.33224574 -0.11684951 0.03935937 0.084231965 -0.108339615 -0.053542137 0.20901534 0.06040736
-0.0053736647 -0.17654437 0.0023351572 -0.06560892 -0.0010746958 0.355503 -0.26296988 -0.08844814
-0.10828715 -0.32123584 -0.018463073 0.10883389 0.03475189 0.4003835 0.0003988305 0.18747956
00000000: 5b81 98bd ccee 78bc bc72 9bbd e9a0 84bd
00000010: 2077 51bd 3653 d8bd d572 85bd e782 503e
00000020: 3b6f 4fbd c79f e1bd 7db3 753d bc7b 8e3d
00000030: 501c efbc dd59 60be 9cd8 1c3e fd16 063d
00000040: 3a92 b33d 24c8 873e 5d04 433e abd6 91bd
00000050: 5297 d73d 38bf 80bb 0637 0dbe 5362 30bd
00000060: 3714 123d 89e1 f43d 44f3 c2bd 53e4 6c3e
00000070: 023b bfbd 3ae6 1b3e 60d0 41be 1dfe 4d3e
00000080: 4586 7abd 6be8 05bd d951 7b3e 0aef 1ebb
00000090: 488d dabd c0ed a2bd 3e8a d03b 812f 733e
000000a0: 601e d23a 1797 173e 0ee9 b33d c64f b13b
000000b0: dbe0 9e3d 284a 1bbe b08d 20bd 9b96 c6be
000000c0: d10c 69ba f585 73bc 1de4 61be 85a3 a53d
000000d0: 82c5 a53c 3df8 a83d 80bd 34be 05eb 1fbe
000000e0: 3a07 cfbc 3001 b5bd 1b24 2abd 2057 9d3e
000000f0: 6822 39be d98e 0dbe f70e a5bc b586 14be
00000100: a058 9b3e 5ec8 49bd d10b e53d ddd1 33bd
00000110: d875 0e3e 5a2f cb3d ed25 8a3e 2863 e2bd
00000120: 7537 a13d 999e d5bd af5c 873d 0316 74be
00000130: 9151 10be e27b 46bd b0fc cfbe ed4c 903e
00000140: 4831 ebbb 820c 083e cb71 7e3e 10a3 e2bd
00000150: 10da ac3d a1c4 febc 2d17 813c e312 7bbc
00000160: b122 bfbe 8fcb dc3d 172c 3f3d fbfe 743e
00000170: d77a 2d3e 0c32 4d3d b441 a7be 90e2 883e
00000180: d4ab c8bd c6fc 1c3d 3be2 2d3e f2f6 efbd
00000190: d779 423e f008 a2bd 5dbb 95bd e118 9c3d
000001a0: 5814 8ebd dfa1 31be 2ea3 963e e9dd 00be
000001b0: 10e1 97bb d884 493c 4e67 923c d1d4 f73c
000001c0: 7449 87be 5206 85be 4de2 eebd 1115 1fbe
000001d0: bf7a 44bc 03c7 2cbe e481 85bd 7e96 0c3e
000001e0: a5bc 4cbb ae32 dfbb d659 11be 2de4 36be
000001f0: 4603 313e 3159 653d a5f3 b2bd 5e62 3abd
00000200: e695 cabd b490 083d b7c4 773d b77d a7bd
00000210: 99bb ec3c 16ed 78bd e45b 9f3c 2721 5b3d
00000220: 0335 1ebd a7e2 99be 82a5 7bbe d661 6cbe
00000230: bcaa aebe 53e7 d53d ce10 7d3e deb3 1a3e
00000240: 3bfe 783d 68bf c4bd 2347 293e b368 8c3d
00000250: a2aa bcbc 04ed a83d a69d 87bd 1bb0 5bbd
00000260: 7349 0a3d 19e4 ca3a e4be 093d 06ad 9f3c
00000270: d51a 8e3b 57ac f6bd 87be 013d 3744 843e
00000280: d030 68bd 78ef 8137 3e78 5dbe d3e5 1dbe
00000290: c163 f03c 5ec3 9ebd 16cb 043e bcb6 123e
000002a0: 956a 233d e2ca b23d e318 6c3e e3cf aa3d
000002b0: acae 4a3e 0883 1c3d 3712 4c3d 2e1c fcbd
000002c0: 7f8c 993d a550 d13d 8628 9dba 8753 4d3d
000002d0: 0634 09bd d81d 87be 16ad 613e 4b49 09be
000002e0: c91d b73d b6b5 debe b720 223e 8a64 373d
000002f0: 7e4b debc d729 9dbe 23fe 83be 9076 e13d
00000300: 085d 853d 3b04 e6bd 2fec 2b3e 40dc 0a3e
00000310: a66a 95bd ac03 c33d e2be 1b3e 5856 95be
00000320: 6114 8f3e 01e7 8dbe f862 fdbd 8693 c63d
00000330: 66af 833e 9dd3 3cbc 87bb 1d3e 7fde 8dbe
00000340: 799c 69bb 74cc 073d 750e db3d c14f bb3c
00000350: 8d5f febd b934 86bd c83b 05be 88e1 fbbd
00000360: 116f 54bd 4eeb 02be 9512 d1bd af3c 54be
00000370: 6890 8b3d d1fb 343e 9fe2 c13d b308 0b3d
00000380: 9461 723d 7577 eebb c7e3 c8bd aa25 013e
00000390: 3eec 653b b8ec 6e3e 4ed3 aebd 04a5 4d3d
000003a0: 1d1c aabe cc4e efbd 4a37 213d cf81 ac3d
000003b0: 29e1 ddbd 004f 5bbd 1e08 563e b56d 773d
000003c0: 9115 b0bb 0cc8 34be 7009 193b f85d 86bd
000003d0: cfdc 8cba 7d04 b63e fda3 86be 4c24 b5bd
000003e0: a7c5 ddbd 0679 a4be df3f 97bc 4de4 de3d
000003f0: ff57 0e3d 11ff cc3e 201a d139 a4fa 3f3e

pool2.bias f4 [35]
-0.0051691304 -0.01834716 -0.004244318 -0.028449537 -0.0146283265 -0.008870294 0.005538405 0.020568965
0.010564828 -0.0044212914 -0.003934869 -0.011016331 -0.002723198 -0.0057299854 -0.0019006056 -0.0062725963
0.0033441584 0.00028805647 -0.012257462 0.009564244 0.020750616 0.024394415 -0.010907138 0.0006082472
0.0016713771 -0.0074371505 0.0089024175 -0.010277002 -0.004138634 0.00025738173 0.0078792125 0.004132089
0.020881621 -0.005643752 -0.019568589
00000000: cf61 a9bb c94c 96bc ec13 8bbb 010f e9bc
00000010: a6ab 6fbc b654 11bc 827b b53b 3f80 a83c
00000020: 1a18 2d3c 7be0 90bb 13f0 80bb d77d 34bc
00000030: ae77 32bb 9ac2 bbbb be1d f9ba 5a8a cdbb
00000040: ab29 5b3b 4906 9739 86d3 48bc 59b3 1c3c
00000050: 32fd a93c ccd6 c73c dab3 32bc c772 1f3a
00000060: 1c12 db3a 57b3 f3bb 72db 113c df60 28bc
00000070: 619d 87bb 31f1 8639 d017 013c 7a66 873b
00000080: ef0f ab3c 39ef b8bb 4e4e a0bc

conv3.weight f4 [35, 35, 3, 1, 1]
-0.07282 0.25412497 -0.13904464 -0.088758714 -0.13155606 -0.119999364 0.04914687 -0.023625711
-0.051292073 0.06970627 0.038040597 -0.04639721 0.081939355 0.23628053 -0.14011733 0.09449138
-0.017981585 -0.078250274 -0.041103918 -0.004598828 -0.016019642 0.17403466 -0.079552054 0.16909546
0.18471672 0.2969164 -0.14259337 0.06941991 -0.051682938 0.046092793 -0.07547701 0.07427246
-0.20099662 -0.072213024 -0.14578468 0.12715988 0.26087436 -0.15796839 -0.1988429 -0.03725034
0.11766277 -0.13250105 0.12937987 -0.13322692 0.15290156 0.09577251 0.21821262 -0.22397813
-0.03958465 0.2945261 -0.06204052 -0.10452895 -0.24705832 -0.1216573 0.17829303 0.047464255
-0.0038588357 -0.060988512 -0.03247309 -0.16951232 0.11017538 0.0536279 0.12384246 -0.36600697
-0.12886877 0.122052476 0.058125235 -0.105491936 0.025669271 0.025052944 0.12763214 -0.11890591
-0.2586163 -0.11624402 -0.101381116 -0.1620647 0.15072064 0.088908486 0.24329399 -0.07631659
-0.014303962 0.102693275 0.10656092 -0.1325223 -0.011530209 0.055407517 0.057396647 -0.03622242
0.11802771 -0.33156893 0.031809006 -0.075956814 -0.21848004 0.0653564 -0.048793696 -0.12297081
0.108205274 -0.11532021 -0.20264912 -0.07867118 0.34881547 -0.06040606 0.2704256 0.16407318
0.1424625 -0.14781418 -0.12262755 -0.060585972 0.010671664 0.009453662 0.00046445619 0.12932774
-0.1283489 0.17028023 -0.006603487 -0.013660042 0.25258383 -0.3669226 0.11051418 -0.22431861
0.019664928 0.23817712 0.14220956 -0.13256809 0.119386524 -0.093557395 -0.06352961 0.03655063
0.013482846 -0.24882406 -0.10178605 -0.087282516 -0.0029367781 0.011232242 0.2205693 0.14641027
0.15624292 0.0396531 -0.09728992 0.07026023 -0.0075884745 -0.10368734 -0.1722248 0.049695846
0.12295857 0.24459477 -0.18213983 -0.02326061 -0.09839347 -0.103847235 0.24584271 -0.19979024
0.036278024 0.081760176 0.051945988 -0.120046034 -0.0027684479 0.095097356 -0.11381101 -0.02255931
0.1147297 -0.23890142 -0.14075796 -0.061271764 -0.12653929 -0.013401155 0.3012105 0.12612575
-0.18781982 -0.16277087 -0.24510914 -0.15751667 -0.06847155 -0.2616567 -0.004304326 0.07091928
0.21923777 -0.1499739 0.021384232 -0.14648871 -0.028484894 -0.045006346 -0.035067502 -0.15778251
0.014034345 0.0024295037 0.22456647 -0.10057215 0.17884581 -0.15800044 0.05352816 -0.045783952
0.044391464 0.105537154 -0.24840428 0.150461 0.14219022 -0.049892504 -0.030185256 0.1548009
-0.08685213 0.16673894 -0.0269386 0.0040888055 -0.19557428 0.052504435 -0.05664284 0.24106698
-0.09239134 -0.07312018 0.22747785 0.14919429 -0.14581384 -0.04205528 0.0811688 -0.26329827
0.15920317 -0.03960722 0.15852956 -0.13262156 0.024577428 0.044153918 -0.1863213 -0.012468167
-0.20765904 -0.0037325076 0.29755148 -0.2762332 -0.20669587 -0.19462487 0.19084848 0.08105708
-0.005224092 -0.004894507 0.048095398 0.20649935 0.13034293 -0.018490268 0.26998943 -0.20634402
0.016464043 0.13677108 0.1865571 0.14747451 -0.13531564 0.14303865 0.008575217 0.2528493
-0.1652621 -0.026858272 0.085110664 0.06953328 -0.090535305 -0.07026799 -0.28720564 -0.03485069
00000000: a722 95bd ab1c 823e b861 0ebe 21c7 b5bd
00000010: a2b6 06be 3ac2 f5bd 3a4e 493d b58a c1bc
00000020: a317 52bd 29c2 8e3d 75d0 1b3d 000b 3ebd
00000030: d2cf a73d 86f3 713e eb7a 0fbe b284 c13d
00000040: 1e4e 93bc ae41 a0bd 955c 28bd c4b1 96bb
00000050: a03b 83bc 2436 323e 30ec a2bd 5c27 2d3e
00000060: 6126 3d3e 6d05 983e ff03 12be 072c 8e3d
00000070: 7db1 53bd cccb 3c3d b193 9abd 291c 983d
00000080: 0fd2 4dbe 6ce4 93bd 9448 15be 3336 023e
00000090: 5391 853e 77c2 21be 799d 4bbe d093 18bd
000000a0: 2ef9 f03d 5bae 07be 287c 043e a36c 08be
000000b0: 3a92 1c3e 6124 c43d 2173 5f3e 865a 65be
000000c0: 8423 22bd 20cc 963e 331e 7ebd 4613 d6bd
000000d0: dbfc 7cbe 7627 f9bd 7392 363e e169 423d
000000e0: 85e4 7cbb 17cf 79bd 8102 05bd a394 2dbe
000000f0: a1a3 e13d eea8 5b3d 1ea1 fd3d 4465 bbbe
00000100: 2df6 03be a6f6 f93d ba14 6e3d 280c d8bd
00000110: 5d48 d23c d53b cd3c 00b2 023e f184 f3bd
00000120: 5b69 84be 5811 eebd e7a0 cfbd 4af4 25be
00000130: 8356 1a3e a715 b63d 0f22 793e df4b 9cbd
00000140: 2a5b 6abc da50 d23d 9d3c da3d edb3 07be
00000150: 34e9 3cbc fef2 623d bf18 6b3d f65d 14bd
00000160: 83b8 f13d 67c3 a9be 294a 023d 3f8f 9bbd
00000170: 3bb9 5fbe 94d9 853d e6db 47bd 1fd8 fbbd
00000180: ba9a dd3d 012d ecbd 4083 4fbe 5b1e a1bd
00000190: f197 b23e 586c 77bd 3975 8a3e cd02 283e
000001a0: b1e1 113e 9a5c 17be 2724 fbbd ff28 78bd
000001b0: 34d8 2e3c 88e3 1a3c 4182 f339 7e6e 043e
000001c0: e56d 03be f15d 2e3e 1062 d8bb 5ece 5fbc
000001d0: ab52 813e 47dd bbbe 4255 e23d c7b3 65be
000001e0: 5818 a13c b4e4 733e 629f 113e eebf 07be
000001f0: ec80 f43d 059b bfbd d01b 82bd 1db6 153d
00000200: 28e7 5c3c bccb 7ebe 3475 d0bd 2dc1 b2bd
00000210: f676 40bb 7007 383c ebdc 613e 93ec 153e
00000220: 25fe 1f3e 4a6b 223d f03f c7bd 98e4 8f3d
00000230: bda8 f8bb 075a d4bd b35b 30be df8d 4b3d
00000240: b4d1 fb3d 0d77 7a3e dd82 3abe 098d bebc
00000250: 8482 c9bd dcad d4bd 31be 7b3e d095 4cbe
00000260: 4498 143d e171 a73d 51c5 543d b2da f5bd
00000270: d96e 35bb 67c2 c23d bf15 e9bd 4dce b8bc
00000280: 68f7 ea3d 93a2 74be db22 10be 1af8 7abd
00000290: 8493 01be 8590 5bbc 4338 9a3e 1c27 013e
000002a0: d753 40be 68ad 26be e4fd 7abe 0d4c 21be
000002b0: d03a 8cbd def7 85be 4e0b 8dbb 213e 913d
000002c0: de7f 603e c292 19be fc2d af3c 2301 16be
000002d0: 2759 e9bc 9358 38bd f1a2 0fbd bd91 21be
000002e0: 4ff0 653c 4f38 1f3b c1f4 653e c5f8 cdbd
000002f0: 5b23 373e deca 21be 5840 5b3d f487 3bbd
00000300: d3d3 353d dd23 d83d b15d 7ebe 7312 1a3e
00000310: 509a 113e 155c 4cbd 1247 f7bc 2184 1e3e
00000320: 88df b1bd 9dbd 2a3e 57ae dcbc 63fb 853b
00000330: a044 48be e40e 573d 5302 68bd 43da 763e
00000340: ac37 bdbd 08c0 95bd f4ef 683e 63c6 183e
00000350: 3950 15be 2842 2cbd d43b a63d 08cf 86be
00000360: 2806 233e 2e3b 22bd 9355 223e f2cd 07be
00000370: 9a56 c93c bdda 343d 03cb 3ebe 4847 4cbc
00000380: 92a4 54be 169d 74bb ab58 983e 706e 8dbe
00000390: 15a8 53be be4b 47be c96d 433e 4101 a63d
000003a0: dc2e abbb 1a62 a0bb aeff 443d 9174 533e
000003b0: 9e78 053e e778 97bc 0e3c 8a3e d94b 53be
000003c0: 9adf 863c b80d 0c3e d308 3f3e 8f03 173e
000003d0: 2f90 0abe b978 123e 117f 0c3c 7775 813e
000003e0: 783a 29be e105 dcbc 804e ae3d 7767 8e3d
000003f0: 936a b9bd aae8 8fbd 9e0c 93be 99bf 0ebd

conv3.bias f4 [35]
0.0019646403 -0.00080501003 -0.005196012 -0.0020828773 -0.008114933 0.0 -0.0057401503 0.013481822
-0.0007923582 0.00063558656 -0.004417434 -0.013874559 2.5046085e-05 0.03310289 -0.0039120563 -0.0005989241
-0.0017169542 0.03695105 0.019748272 0.0018089353 -0.0030611856 -0.0010429018 -0.004100126 0.0012529723
0.010936734 -0.0005701305 0.005521205 0.015504427 0.0 0.012560494 0.0 0.0004979807
0.0066295625 0.005208536 0.011833341
00000000: 32c1 003b 4f07 53ba 4f43 aabb e280 08bb
00000010: 7ff4 04bc 0000 0000 df17 bcbb dce2 5c3c
00000020: 42b6 4fba 7e9d 263a 1fc0 90bb 1e52 63bc
00000030: 0f1a d237 e596 073d b530 80bb 1e01 1dba
00000040: 6c0b e1ba fc59 173d 21c7 a13c cc19 ed3a
00000050: 2c9e 48bb fab1 88ba 5a5a 86bb c63a a43a
00000060: fd2f 333c cf74 15ba 39eb b43b 4806 7e3c
00000070: 0000 0000 88ca 4d3c 0000 0000 eb8a 023a
00000080: cd3c d93b 5eac aa3b a1e0 413c

conv4.weight f4 [35, 35, 2, 1, 1]
-0.18697071 0.20267935 0.3473425 0.06457453 -0.21665676 0.12277887 0.055581048 -0.18945171
-0.04848463 -0.12053106 0.22560565 -0.12977216 -0.22917652 -0.38410115 -0.2300712 0.078167684
-0.019582273 -0.011879011 -0.029618423 0.021776132 -0.14819846 0.27967763 0.018125968 -0.33813092
0.08684121 -0.05840914 0.061897665 0.019020198 -0.023221236 -0.02359118 -0.23517999 -0.021465322
0.01698945 0.013886416 0.03837396 -0.058048118 0.04260559 -0.07278874 -0.26122105 -0.25150242
-0.23070215 -0.15924636 -0.0714316 0.026947778 -0.21047805 -0.08494756 -0.09469494 -0.19005725
0.11100721 -0.10433204 0.011728662 0.029690122 -0.27645013 0.19036582 0.20892935 -0.24680935
0.18391187 -0.063261546 0.073349476 -0.11968665 -0.19087042 -0.23489392 0.2013979 0.0178645
-0.13297546 0.12014399 -0.19719411 -0.072204135 -0.305281 0.17293489 -0.1911351 0.23129293
-0.06459625 -0.053909842 -0.18325172 -0.054637987 0.1942384 -0.06648381 0.019519042 0.3461365
-0.033496358 -0.1861421 0.04926623 -0.06021537 -0.1352672 0.16505411 0.03393378 0.19485147
0.1726007 0.023444373 -0.13462104 -0.13900664 -0.06200143 -0.12177576 -0.08158528 0.10417345
-0.0055011306 -0.041663438 -0.29863644 -0.0073399926 -0.17107509 0.09191218 0.14382064 -0.12912558
0.07004415 0.08718665 0.22786814 0.06254698 -0.118833736 -0.15861204 0.3425252 -0.30930927
-0.11730438 -0.20931935 -0.06321978 0.19053712 -0.2908068 -0.12691759 0.10811499 -0.25524667
0.030385694 -0.040443316 0.11371159 -0.0979862 0.24644916 -0.09013191 -0.14688517 -0.150268
0.03903834 0.22218339 -0.20098609 0.2686053 -0.1786758 0.0058777537 -0.27024415 -0.18148345
0.23376872 -0.15788177 -0.14676149 0.0050219106 -0.00027393873 -0.13765208 -0.14212526 -0.4580622
0.09150721 -0.108150244 0.095276706 -0.070858195 -0.001099056 0.2852413 0.05293513 -0.077530496
0.015648434 0.23777072 0.11068773 0.07325084 0.1751555 0.3631595 0.14828503 -0.37438506
0.16151471 -0.053852275 0.072730534 0.06165497 -0.04018291 0.17236431 0.05565798 -0.077878095
-0.07056903 0.12422834 -0.22508962 -0.33021143 -0.11745959 -0.042472 -0.2758824 -0.10138204
-0.029877849 -0.15386677 0.21312499 0.07813389 0.21779118 0.27712983 -0.15413244 -0.032708302
-0.2501564 0.02284634 0.10643305 -0.033975556 -0.33975267 0.033502627 -0.120234974 -0.1272863
0.13462406 -0.14725396 -0.13461488 0.09730623 0.24787688 0.082341254 -0.009215293 0.17375284
-0.16820376 -0.028184123 0.16172005 0.08142412 0.22237071 -0.27925652 0.09555447 -0.026794618
0.1365053 -0.0124401925 0.38917252 0.2702387 0.24230196 -0.014548855 0.42092174 -0.27103257
-0.013511671 0.09077299 0.14676918 -0.021642532 0.38623312 0.2621865 -0.017891955 -0.05798757
-0.3328047 0.21143521 0.02682514 0.08578578 0.27342197 -0.21084416 0.111659124 -0.076678485
-0.053432588 -0.1757749 -0.053730335 0.31904775 0.5634447 0.053208847 0.124162525 0.03766395
0.18876062 0.06603668 0.12689935 0.044977948 0.049530976 -0.015004753 0.056279153 -0.09240708
0.071456484 0.12608314 0.012343623 -0.036179267 -0.339618 -0.18510082 -0.08640788 -0.025597725
00000000: 4075 3fbe 2d8b 4f3e e0d6 b13e a73f 843d
00000010: 45db 5dbe 7d73 fb3d f4a8 633d a1ff 41be
00000020: d297 46bd fdd8 f6bd 2b05 673e fee2 04be
00000030: 40ad 6abe e8a8 c4be c997 6bbe 6116 a03d
00000040: 016b a0bc 2fa0 42bc 56a2 f2bc dc63 b23c
00000050: 56c1 17be e831 8f3e e97c 943c 7f1f adbe
00000060: ced9 b13d 6c3e 6fbd 6888 7d3d 3fd0 9b3c
00000070: 763a bebc 4a42 c1bc 06d3 70be 0bd8 afbc
00000080: 762d 8b3c da83 633c 032e 1d3d ddc3 6dbd
00000090: 3383 2e3d 4312 95bd c4be 85be edc4 80be
000000a0: 2f3d 6cbe 7a11 23be bb4a 92bd 96c1 dc3c
000000b0: 8f87 57be fdf8 adbd 6cef c1bd 5e9e 42be
000000c0: c057 e33d 09ac d5bd 9329 403c b338 f33c
000000d0: df8a 8dbe 42ef 423e 93f1 553e 97bb 7cbe
000000e0: 6553 3c3e 458f 81bd 4038 963d 461e f5bd
000000f0: 8973 43be 0888 70be 403b 4e3e 9258 923c
00000100: b82a 08be 0d0e f63d 41ed 49be c3df 93bd
00000110: cb4d 9cbe d815 313e ebb8 43be 0ed8 6c3e
00000120: 0a4b 84bd 91d0 5cbd 57a6 3bbe 15cc 5fbd
00000130: 6ee6 463e aa28 88bd 66e6 9f3c ce38 b13e
00000140: 7a33 09bd 099c 3ebe 63cb 493d 64a4 76bd
00000150: 7c83 0abe f203 293e 26fe 0a3d 2587 473e
00000160: 3dbe 303e 6a0e c03c 19da 09be c257 0ebe
00000170: 36f5 7dbd 9265 f9bd 2f16 a7bd e458 d53d
00000180: d442 b4bb 48a7 2abd e0e6 98be 5284 f0bb
00000190: 4f2e 2fbe 743c bc3d b845 133e 7f39 04be
000001a0: 4f73 8f3d ea8e b23d 4456 693e a218 803d
000001b0: 1a5f f3bd 326b 22be 775f af3e c95d 9ebe
000001c0: 473d f0bd d057 56be 5f79 81bd 2a1c 433e
000001d0: a1e4 94be aff6 01be 646b dd3d b1af 82be
000001e0: 6beb f83c e4a7 25bd 9fe1 e83d fdac c8bd
000001f0: 2b5d 7c3e 1497 b8bd 1169 16be dbdf 19be
00000200: abe6 1f3d 0b84 633e 4ccf 4dbe a286 893e
00000210: caf6 36be 2c9a c03b 715d 8abe ccd6 39be
00000220: 1161 6f3e c2ab 21be a548 16be d78e a43b
00000230: 6f9f 8fb9 abf4 0cbe 4989 11be 2187 eabe
00000240: 2268 bb3d e07d ddbd 6f20 c33d 1a1e 91bd
00000250: 330e 90ba 260b 923e 82d2 583d 4fc8 9ebd
00000260: 2531 803c 2b7a 733e 40b0 e23d 8904 963d
00000270: f75b 333e 0bf0 b93e 08d8 173e 66af bfbe
00000280: 1d64 253e 3494 5cbd bff3 943d ec89 7c3d
00000290: d696 24bd 4580 303e 9ff9 633d 8d7e 9fbd
000002a0: 7f86 90bd 6e6b fe3d e57d 66be 7911 a9be
000002b0: a78e f0bd 1ff7 2dbd 7540 8dbe 63a1 cfbd
000002c0: 64c2 f4bc 408f 1dbe 703d 5a3e a904 a03d
000002d0: a704 5f3e f6e3 8d3e e5d4 1dbe 24f9 05bd
000002e0: 8014 80be 3f28 bb3c 92f9 d93d f429 0bbd
000002f0: 10f4 adbe 0d3a 093d c13d f6bd 5757 02be
00000300: e4da 093e bec9 16be 7cd8 09be 7d48 c73d
00000310: 70d3 7d3e 88a2 a83d befb 16bc 44ec 313e
00000320: 9b3d 2cbe 64e2 e6bc f199 253e b0c1 a63d
00000330: 26b5 633e b6fa 8ebe 10b2 c33d 6380 dbbc
00000340: 0cc8 0b3e f3d1 4bbc 9f41 c73e ba5c 8a3e
00000350: 011e 783e 525e 6ebc 0e83 d73e c8c4 8abe
00000360: 0e60 5dbc 30e7 b93d a94a 163e ae4b b1bc
00000370: 59c0 c53e 4f3d 863e 2692 92bc 6084 6dbd
00000380: 6165 aabe 7982 583e 65c0 db3c 74b0 af3d
00000390: f7fd 8b3e 88e7 57be 8aad e43d 9c09 9dbd
000003a0: 21dc 5abd 56fe 33be 5714 5cbd 3a5a a33e
000003b0: e93d 103f 85f1 593d ec48 fe3d 8445 1a3d
000003c0: 774a 413e 3d3e 873d e7f1 013e cc3a 383d
000003d0: fee0 4a3d 7fd6 75bc f884 663d ec3f bdbd
000003e0: c757 923d f01b 013e e83c 4a3c b630 14bd
000003f0: 69e2 adbe 128b 3dbe 9df6 b0bd 52b2 d1bc

conv4.bias f4 [35]
0.0024462608 -0.00854092 0.009626386 -0.0123069035 0.01085219 0.019377057 -0.020341866 0.018069062
0.008321725 -0.0054724454 0.0005664516 0.009856479 -0.0011636552 -0.010224134 0.010158449 -0.015822342
-0.00548574 -0.011392275 -0.0015157204 0.029873222 0.010366488 -0.0005042515 0.021620335 -0.0077837645
-0.000648702 0.009007608 -0.011251293 0.0022492833 0.0081154425 0.011821351 -0.0032277806 -0.015088951
0.0018167109 0.022768237 -0.0059764097
00000000: 7251 203b 37ef 0bbc fdb7 1d3c e5a2 49bc
00000010: 62cd 313c a2bc 9e3c fca3 a6bc 9205 943c
00000020: d857 083c 3352 b3bb ec7d 143a 127d 213c
00000030: ca85 98ba 2083 27bc a06f 263c db9d 81bc
00000040: b9c1 b3bb aaa6 3abc 23ab c6ba b0b8 f43c
00000050: 34d8 293c bf2f 04ba 211d b13c f30e ffbb
00000060: a70d 2aba a594 133c 5857 38bc b668 133b
00000070: a2f6 043c 57ae 413c 2c89 53bb a637 77bc
00000080: b41e ee3a 7484 ba3c c2d5 c3bb

fc.weight f4 [17, 630]
0.06584108 -0.027325045 -0.0068026753 -0.045875993 -0.08446797 -0.02096866 0.012215635 0.057966117
0.061420184 -0.09608978 -0.07646283 0.039906494 -0.08376164 0.050550263 -0.061753724 -0.0015225369
-0.0504921 0.013910731 -0.078303285 -0.10210143 0.029009888 0.018831179 0.007587066 0.0061963554
-0.054521415 0.09983494 -0.024126206 0.06624412 -0.10487644 0.13041659 0.003838635 -0.007904772
-0.0013455058 0.009546315 0.106772445 0.1320688 -0.036752194 0.082765065 -0.05413916 0.046538845
0.034034878 0.14742981 -0.0014072852 -0.028921736 0.05829134 0.009650639 0.056090035 -0.035493612
0.019357603 -0.020311138 0.047989614 -0.05461157 0.008684941 0.07900713 -0.049298815 -0.05256769
-0.058046144 -0.041919917 0.09570415 -0.05584998 -0.00323905 -0.075224355 -0.10719359 0.024505598
-0.13676402 0.054876268 -0.02176134 0.057116944 0.032576907 0.0035072833 -0.051394 -0.0326117
0.02927197 -0.0037630636 0.008351886 -0.04863073 -0.052328795 -0.048203498 -0.08891013 -0.15046346
-0.063263014 0.00034449765 -0.014173312 0.026071306 -0.007478952 0.05901656 0.0421925 -0.039046284
0.08246064 0.011492937 -0.039926734 -0.0498523 0.05193397 0.032190297 -0.013692713 -0.0340765
0.06659452 0.076916076 0.053302582 -0.121581115 0.071284704 -0.040212654 0.018128026 -0.08580458
0.035630446 0.02347565 -0.15598363 0.07421919 -0.00338629 0.014754376 -0.029777212 0.05079229
0.028629683 -0.04634174 0.07086378 0.029906627 0.13855502 -0.05150956 0.0037370722 0.02188957
0.017540019 0.039974175 -0.009048887 0.041896675 -0.036148228 -0.024457483 0.05620989 -0.07568242
0.060489703 -0.07896855 -0.03536474 -0.0037638773 -0.052093763 0.013905234 -0.045375 -0.040709227
-0.045174886 -0.10586504 -0.038603257 -0.025924463 0.067800894 -0.009212317 0.0913172 0.009293194
0.11367251 -0.045640793 -0.008539946 0.08056636 -0.09465507 0.035549615 -0.08709021 -0.033955432
-0.04917708 0.0666747 0.06256955 0.0005042926 -0.030614309 -0.043256752 0.003647468 0.095943965
-0.036249794 -0.056526292 -0.012398192 0.037792906 -0.04243768 0.05560733 -0.018312436 -0.016854754
-0.06191251 0.091571994 0.0042283344 -0.00945475 -0.054365784 -0.04930635 -0.054954138 0.09771558
-0.058590878 0.008539909 -0.028494589 0.03606615 0.019746317 -0.087299205 0.05349294 -0.08185585
-0.026639614 0.0028621121 0.066019796 0.033737905 0.017415559 0.002145355 -0.040196005 0.020403381
0.08389022 0.07831214 -0.0036560101 0.08622853 0.0039306646 0.06553585 -0.015357585 0.0034251914
-0.0043138117 0.021186363 -0.0034432597 0.023168596 -0.04548697 -0.04538069 0.012241082 0.000283465
0.019881286 -0.028994998 -0.0063913767 -0.010823513 0.12601979 -0.011755574 -0.030956706 0.026003348
-0.06936934 0.06538096 -0.079338506 -0.022330737 -0.029486967 -0.051017854 0.022280734 0.033519007
-0.08359496 -0.084191315 -0.06668092 0.03147054 -0.025208455 -0.0047811484 0.08633109 -0.0076338346
0.050882377 -0.061254557 -0.033707507 -0.08743564 0.031344295 0.00042007538 -0.055253524 -0.0018136157
-0.098988004 -0.025879338 0.0027026858 0.030341579 -0.03693197 0.043828085 0.0450251 -0.0355086
-0.0030000403 0.021651868 -0.06578791 0.0067533087 -0.06387669 -0.054187182 -0.05267757 -0.020655164
00000000: b0d7 863d c6d8 dfbc fae8 debb 77e8 3bbd
00000010: 8bfd acbd 78c6 abbc 1624 483c e16d 6d3d
00000020: bb93 7b3d b8ca c4bd 8b98 9cbd fe74 233d
00000030: 398b abbd cb0d 4f3d 79f1 7cbd dc8f c7ba
00000040: ced0 4ebd d6e9 633c 795d a0bd 8e1a d1bd
00000050: 25a6 ed3c d843 9a3c ec9c f83b cc0a cb3b
00000060: d951 5fbd 4376 cc3d 52a4 c5bc ffaa 873d
00000070: 75c9 d6bd ed8b 053e 9c91 7b3b 0483 01bc
00000080: af5b b0ba 2668 1c3c 83ab da3d 0b3d 073e
00000090: 7889 16bd bb80 a93d 06c1 5dbd 849f 3e3d
000000a0: 2868 0b3d d7f7 163e a874 b8ba 47ed ecbc
000000b0: e6c2 6e3d b71d 1e3c aabe 653d c061 11bd
000000c0: d693 9e3c 8b63 a6bc c290 443d 62b0 5fbd
000000d0: 484b 0e3c 7dce a13d 8eed 49bd 3851 57bd
000000e0: cbc1 6dbd 38b4 2bbd 8a00 c43d f3c2 64bd
000000f0: 3e46 54bb 3a0f 9abd 5088 dbbd f7bf c83c
00000100: de0b 0cbe f0c5 603d d644 b2bc 75f3 693d
00000110: 5d6f 053d 73da 653b 8482 52bd d993 05bd
00000120: c5cb ef3c bb9d 76bb 59d6 083c 0431 47bd
00000130: b856 56bd 0871 45bd 8416 b6bd 1813 1abe
00000140: 0a90 81bd b19d b439 2e37 68bc 7e93 d53c
00000150: ff11 f5bb 59bb 713d 0bd2 2c3d ffee 1fbd
00000160: 20e1 a83d df4c 3c3c 378a 23bd ed31 4cbd
00000170: b7b8 543d f9d9 033d 6757 60bc cd93 0bbd
00000180: b562 883d 2d86 9d3d cf53 5a3d 85ff f8bd
00000190: b7fd 913d 06b6 24bd 3a81 943c 50ba afbd
000001a0: 3bf1 113d 0250 c03c 2cba 1fbe 3b00 983d
000001b0: 85ec 5dbb 57bc 713c 57ef f3bc 940b 503d
000001c0: cc88 ea3c d6d0 3dbd 0821 913d befe f43c
000001d0: 5ee1 0d3e b0fb 52bd abe9 743b c151 b33c
000001e0: 16b0 8f3c f6bb 233d c841 14bc d99b 2b3d
000001f0: 2a10 14bd 0f5b c8bc 573c 663d 62ff 9abd
00000200: 0dc4 773d 43ba a1bd 9eda 10bd 62ab 76bb
00000210: 4560 55bd c7d2 633c 23db 39bd b8be 26bd
00000220: 4d09 39bd c5cf d8bd 731e 1ebd 8a5f d4bc
00000230: 32db 8a3d 42ef 16bc 8304 bb3d 7b42 183c
00000240: 22cd e83d d7f1 3abd 21eb 0bbc faff a43d
00000250: 84da c1bd 799c 113d 5a5c b2bd da14 0bbd
00000260: e86d 49bd bf8c 883d 7724 803d 8132 043a
00000270: dcca fabc fe2d 31bd 5c0a 6f3b 457e c43d
00000280: aa7a 14bd 1d88 67bd c921 4bbc bccc 1a3d
00000290: 22d3 2dbd 83c4 633d f603 96bc fb12 8abc
000002a0: f997 7dbd 198a bb3d d78d 8a3b 19e8 1abc
000002b0: a8ae 5ebd 75f5 49bd 9717 61bd 1b1f c83d
000002c0: fdfc 6fbd f9ea 0b3c 7c6d e9bc 19ba 133d
000002d0: 07c3 a13c edc9 b2bd 6a1b 5b3d 0aa4 a7bd
000002e0: 523b dabc 4692 3b3b 6335 873d c230 0a3d
000002f0: 13ab 8e3c 1699 0c3b 91a4 24bd fe24 a73c
00000300: a3ce ab3d 1e62 a03d ac99 6fbb 9598 b03d
00000310: cecc 803b a937 863d 619e 7bbc 2d79 603b
00000320: e05a 8dbb 068f ad3c 50a8 61bb 11cc bd3c
00000330: 8c50 3abd 1ae1 39bd d28e 483c 079e 9439
00000340: 14de a23c eb86 edbc c16e d1bb 1b55 31bc
00000350: 550b 013e 739a 40bc eb98 fdbc f904 d53c
00000360: 8311 8ebd 74e6 853d 3a7c a2bd f3ee b6bc
00000370: a78e f1bc 19f8 50bd 1686 b63c 3a4b 093d
00000380: d633 abbd 7f6c acbd 0290 88bd 41e7 003d
00000390: f681 cebc 2eab 9cbb 5bce b03d 3f25 fabb
000003a0: 0a6a 503d 0fe6 7abd e210 0abd 7511 b3bd
000003b0: e062 003d 903d dc39 8551 62bd d8b6 edba
000003c0: 39ba cabd e800 d4bc 8b1f 313b e78e f83c
000003d0: fa45 17bd 1485 333d 3d6c 383d 7771 11bd
000003e0: 539c 44bb 425f b13c d0bb 86bd dc4a dd3b
000003f0: c8d1 82bd 61f3 5dbd 70c4 57bd 0535 a9bc

fc.bias f4 [17]
-0.019841176 -0.005133936 -0.007542442 -0.0076882485 -0.005399421 -0.00025825523 -0.020680277 0.009560276
0.038563237 -0.0067918696 0.005844366 -0.005766479 -0.00098948 0.003973474 0.00020074431 0.013572872
0.0083765965
00000000: f689 a2bc 943a a8bb 9726 f7bb b4ed fbbb
00000010: a0ed b0bb 6e66 87b9 af69 a9bc b4a2 1c3c
00000020: 7cf4 1d3d 558e debb 1882 bf3b bbf4 bcbb
00000030: 70b1 81ba ea33 823b e47e 5239 c060 5e3c
00000040: fe3d 093c
