checkpoints/hamida_et_al/Salinas_PCA_8/2024_04_20_16_01_41_epoch5_0.88.pth (torch, 170780 bytes, 14 tensors)

conv1.weight f4 [20, 1, 3, 3, 3]
00000000: dbfe 62be bfe0 57be a59d ca3d e8ad f4be
00000010: a106 aebe 4f5a d63d 9bb1 86be 24b2 9a3e
00000020: 8bb0 86be d541 ce3d 7274 b33e 2adf 2cbe
00000030: b428 48be 6a81 653d e45f 9dba 1ce8 023f
00000040: 9cba 72bd 1d30 6ebe 15c5 55be 5e93 4f3e
00000050: a4a4 113f 58d3 a63c 0d16 5c3e d788 9b3e
00000060: 186a b7be a57c 6abe 838d 8a3e 4fd3 143f
00000070: 4119 873e 14a7 843e cba5 ef3e 90b4 d93e
00000080: e652 df3e f5ca be3d 86df c63d 972f 363f
00000090: 2f4e 793e d0d6 02be 905f 58bc effc 2ebf
000000a0: 46ef e4bc 2c27 9fbc 599e b2be 9146 e33d
000000b0: 9005 cc3e 167d d5be a0d7 b5bd 4fc6 7bbe
000000c0: 1066 84be bb87 babe 2b9f 5e3e c3eb a2be
000000d0: 5af9 b8bd 7131 293e d81b 7e3e ad08 dcbd
000000e0: bcbe b63e 211e 0ebf 5491 a5be 0a8d 8fbd
000000f0: 638f dcbe a0ba 2f3e 5c73 50be f512 86bd
00000100: eeea 8d3e 97ae 293e 9342 cdbd b93d b0bd
00000110: e034 11be 9fb8 c6be dcf1 06bd a5c8 0bbd
00000120: 4fd8 453d 2fe7 b83c 80a5 e33e bfbb d73d
00000130: c20b d4bd a7fb 373f a0f0 713e cc94 943d
00000140: 34ef f93d c923 2ebe 6b90 3cbc 5c22 71be
00000150: 60a1 e4be 219e 85be 2336 163b 14eb c8bd
00000160: f216 833e f367 db3e 5752 0e3e c798 403d
00000170: 1391 86be 13b6 52bd 6406 3fbe 781d 2fbd
00000180: 0e60 05be 4d1d 80be 7e5f e83e df2e 813e
00000190: 8aab 52be 4246 c13e 62fe 1abc 686e 29be
000001a0: 3c6d e23d f502 3a3e fc18 35be ce94 84bd
000001b0: eda4 45bd 20da c5be 3eff cb3d b9db a53a
000001c0: 4e95 853d ff6f 4bbe e291 c5be 4831 1bbe
000001d0: 4c2f b43e c959 153e 3aab e13d 1b46 673e
000001e0: aeca 1fbe fdf4 1b3e dad5 b5ba cec8 7e3d
000001f0: b6da dfbe b0ec 2c3e 88d4 83be 1d2c 4f3d
00000200: 1691 083e 8340 3fbe 4b26 23bf 0620 9b3e
00000210: 1639 97bc d74e ac3e a239 2f3e d469 b2bd
00000220: 2475 28be 14c4 3ebe 2ec1 0f3e e74e 883e
00000230: fce2 cdbc 6a0d e0bd 64b2 a8be c27e efbe
00000240: 8a30 4fbe a821 113e 197b 1ebe 82bd 2c3e
00000250: a9af 4d3e 2754 19be 9d35 8f3d 1eb1 9b3d
00000260: 3d45 d33e 18cf ccbd 1816 a7bd 6d87 9c3e
00000270: 7fbd b7be 519e ee3c a208 5abd 9216 31bd
00000280: 5304 013e 8274 ff3c 674e 583d cd6d 0cbe
00000290: aa1d b5be 7fa5 28bd e4f5 e3be be71 a33d
000002a0: 23c3 5c3e 2448 d43d a6ac f2bd ba25 753e
000002b0: ee33 d63d bbd7 d7bc dd12 023e c624 f8bd
000002c0: 72e0 033e 1535 97be 9743 bebd c0fe f33e
000002d0: 642b 433e 3a4f 883e 411f 1b3c c319 c6bd
000002e0: 1578 da3e 393c c7be 7017 0d3e e62c 40be
000002f0: 2631 76be 4b31 853c 8232 213f c807 10bb
00000300: a5d9 cd3e ef05 6a3d 7338 873e bd18 bd3e
00000310: fb2e da3e a493 bcbd 4487 a7be 8ca6 833e
00000320: 5653 983e 43e8 14be 5171 3e3e 1aa6 bebd
00000330: 5e01 243f 211b 7fbe fee6 a63c 01a9 273e
00000340: b6e2 61bd 1250 afbe 2dda 15bf 94b6 e23d
00000350: bd4f 00bf efb6 f03a 1fdd 87bd 739a c2bd
00000360: 0b27 0a3f 80ed ec3d 8fc0 d33e 5402 043f
00000370: d4c1 b23e 316f 90be a41f d63d 68db cb3d
00000380: 3b82 8b3e 650f 053d 4901 d63d d3cd 3a3e
00000390: 3fcb 103d 6ced 13be 8712 8d3d 8b21 0dbe
000003a0: e89b 43bf 1610 9f3c 346e a2be 9519 453d
000003b0: f42a 8a3d 879e 27bd c420 d7be a857 a33e
000003c0: 24b5 2dbd 0b58 d03e 5cbc 6b3d 528b fcbd
000003d0: e26d 26be b5fe 1a3e eaa5 543d 4ddb 993d
000003e0: 2cdc a73d 2884 a73d ee45 33bd 3eb8 3e3e
000003f0: 52c1 893d e8ce 843e 4a9c 173d 312d 08be
-0.22167532 -0.21081828 0.098933496 -0.4778893 -0.33989432 0.10466444 -0.26307377 0.30214036
-0.26306567 0.1007115 0.35049778 -0.16882005 -0.19546777 0.056031622 -0.0012006727 0.5113542
-0.059259996 -0.23260541 -0.20875962 0.2027106 0.56891847 0.020364448 0.21492787 0.30377838
-0.3582313 -0.2289911 0.2706109 0.5813493 0.26386455 0.2590872 0.46806177 0.4252057
0.43617934 0.09316055 0.097106025 0.71166366 0.24346231 -0.12777257 -0.013206378 -0.68354696
-0.027946126 -0.019427858 -0.34886435 0.11097444 0.39847994 -0.41696995 -0.08879018 -0.24587367
-0.25859118 -0.3643168 0.21740405 -0.31820497 -0.09031935 0.16522767 0.24815309 -0.10743842
0.35692394 -0.55514723 -0.3233744 -0.07009323 -0.43078145 0.17161036 -0.20356506 -0.065465845
0.277183 0.16570507 -0.10022464 -0.08605523 -0.14180326 -0.3881273 -0.0329455 -0.034126896
0.04830199 0.022571174 0.44462204 0.105338566 -0.10353805 0.71868366 0.23626947 0.07254943
0.122038275 -0.17005838 -0.011509041 -0.23548263 -0.4465437 -0.26097205 0.0022920452 -0.098104626
0.25603443 0.42852744 0.13898598 0.0470207 -0.26282558 -0.05144317 -0.18654782 -0.042752713
-0.13024923 -0.25022355 0.45385355 0.25231072 -0.2057325 0.37748915 -0.009460064 -0.16546023
0.11055991 0.1816519 -0.17685312 -0.06473695 -0.04825299 -0.3864298 0.09960793 0.0012653983
0.06522618 -0.19866942 -0.38587862 -0.15155518 0.35192335 0.14585032 0.11018987 0.22585337
-0.1560466 0.15230174 -0.0013872937 0.06220322 -0.4372155 0.16887164 -0.25748086 0.05057918
0.13336596 -0.18676953 -0.63730305 0.3029787 -0.018459838 0.336539 0.17111829 -0.08711591
-0.16450936 -0.18629485 0.14038536 0.26622698 -0.025132649 -0.109400585 -0.329486 -0.46776396
-0.2023336 0.14172995 -0.15476646 0.16869166 0.2008654 -0.14973508 0.06992648 0.07602142
0.41263762 -0.100004375 -0.08158511 0.30572072 -0.35886762 0.029128226 -0.05323089 -0.043234415
0.12599306 0.031183485 0.052809145 -0.1371376 -0.35374194 -0.041173454 -0.44523537 0.07980679
0.21558814 0.10365322 -0.11849336 0.23940173 0.104591236 -0.026347985 0.12702508 -0.12116389
0.12878588 -0.29532686 -0.092902355 0.47655296 0.19059521 0.26622945 0.009467901 -0.096728824
0.4266974 -0.38913134 0.13778472 -0.18767127 -0.24042186 0.016258856 0.62967694 -0.0021977294
0.40205112 0.057134565 0.26410255 0.36932936 0.42613968 -0.09207848 -0.32720387 0.25713003
0.2975108 -0.14541726 0.18597914 -0.09309025 0.64064586 -0.24912693 0.020373818 0.16373064
-0.05514785 -0.34240776 -0.58536035 0.1106998 -0.5012167 0.0018365065 -0.066339724 -0.09502115
0.53965825 0.11568737 0.41357848 0.5156605 0.34913504 -0.28209832 0.10455254 0.09953958
0.27247795 0.032485384 0.10449464 0.18242578 0.03535008 -0.14446038 0.068882994 -0.13782327
-0.7640977 0.01941685 -0.31724703 0.0481201 0.06746474 -0.040922668 -0.42017186 0.31902814
-0.042409077 0.4069217 0.05755268 -0.12331261 -0.16252854 0.15136226 0.05191604 0.075125314
0.08196291 0.08179504 -0.043767862 0.1862497 0.06726326 0.25939107 0.037014283 -0.13298489

conv1.bias f4 [20]
00000000: 937d e23d 21cc 62bb 0f4d 163d eb6f 8539
00000010: 92bc 83b8 7697 9fbb 1424 553d d759 b3bd
00000020: e3f2 bbbd f80b b239 be15 b9bd 7eac d9bd
00000030: 43e9 80bb 60dd abbd 9530 d2bd 3c10 aa3c
00000040: 2308 8dbd 13b9 ecb6 9997 403e 0000 0000
0.11059108 -0.0034606534 0.036694583 0.00025451122 -6.281691e-05 -0.0048703505 0.05203636 -0.0875737
-0.09177186 0.00033959723 -0.0903735 -0.106286034 -0.003934057 -0.08391833 -0.102631725 0.020759694
-0.068863176 -7.0548936e-06 0.1880783 0.0

pool1.weight f4 [20, 20, 3, 1, 1]
00000000: c88d 80be 0868 bd3d 5f26 f93e 1c06 ac3d
00000010: 1c3e ebbd 1bb8 f8bd ba96 4bbe e8a5 563d
00000020: 773c 883e 030f 02be e7f3 d43d 71dd f73c
00000030: 718a 09be 2490 12bd 2e1f 473e bf30 e73e
00000040: a34f b9bd 4c11 c3bd 028e 95be 58f9 96bd
00000050: 2447 23be 3a29 ccbd 4b4e d9bb dbe5 20be
00000060: 319d 93be 34ea 7fbe 1842 3b3e addf 0abe
00000070: 0719 34be 749e 58be 9e1d 8a3e 1be1 2b3e
00000080: 7b06 423e 23d2 e4bd ff52 db3c 2db1 c7bc
00000090: f816 2b3e 5b80 edbc 407c dc3b 96d4 8d3e
000000a0: 1257 b4bc 01a2 ebbd 44d9 bebd d5de 92bd
000000b0: 8872 133e d766 f43e cf8b 963e 6775 5cbe
000000c0: 6f28 58bd 4490 9dbd 4bb6 b8bd 18f9 b7be
000000d0: 6c56 443e 7dfb 413d 463d cebe 55ee 2abe
000000e0: f2f0 3c3d 7bb0 143e 5a82 943d a178 16be
000000f0: 6def dfbd b62f 6f3e 0c8e 733e 8772 1f3f
00000100: c277 b7be be6e 02bf 81d1 9abd b3cb ce3d
00000110: 7dbb 573e bb67 c93a eb66 c2be 0ee8 47bd
00000120: 3bb3 713d b55e ce3e dd55 81be 05d4 14be
00000130: 591e 5d3d 82ef 783d 1abf 94be 3138 36be
00000140: ec09 5dbe 8ebb 42be 30b2 93bd 378c bfbe
00000150: 8362 3f3e 6683 1bbf 5a33 42be 4a59 0a3e
00000160: a36d 89be 0bcb 223e f626 163d b1f9 63be
00000170: 6952 be3c b758 b1be a7ec 95be 4716 4c3e
00000180: 01ca 7abe f222 95be d983 653e 525a 653d
00000190: 2aec 62be c2d8 2b3d f1e3 36be 994f c3be
000001a0: 5876 eb3d f8a3 17be 6a3a 06bc 1f8a 16bd
000001b0: 0e1a 8fbc 2ef2 32bd f5e9 03bf 976c a23e
000001c0: 6fb4 eebd 299a 1dbd 2010 173e 8b08 e83e
000001d0: 79d3 6b3e 492e 5f3e cf67 f03c 3a16 63be
000001e0: 0ddb f03d cf32 833c 204f 85be a1cd d3bb
000001f0: 013e d53e 7a02 91be 927e 42be 5181 733d
00000200: 15c3 48bd 8d6d 993d 54c0 523e a899 4fbe
00000210: da6a a83e 8eb2 4a3d 8761 093e 5670 7dbc
00000220: 740f 4cbe 8ae1 033f 2ffb 31be 28a6 f3bd
00000230: 64e0 9bbd fb53 5c3d 08ea 96bd 6e80 ebbe
00000240: 4686 ac3d e613 9d3d 859a 0ebe 40f7 b2bd
00000250: a0c4 083e bbb8 8f3d 2878 bb3d b462 5e3e
00000260: 7eb1 69be 96f5 773e 0191 2bbe 33a5 97bd
00000270: 4db2 273e b8ba abbe 0934 a63e 3232 9c3d
00000280: ca8c 12be a6fd 61be f029 493e d636 67be
00000290: 68fe 9b3e 4e84 40be 7ca4 a13d 10ad 51be
000002a0: 56d4 793d 81ec 953d 2e6e aa3d 2754 de3c
000002b0: c8f7 693b b080 32bd ebcd e5bd fcfb 4e3e
000002c0: 55cb da3d 875e b33e 44a3 093e f6d6 abbd
000002d0: 3923 7abc f1f0 0d3e 90ec 33be ac70 29bc
000002e0: c8b4 80bd cd7e da3e cca5 273e fdd8 01be
000002f0: d0e5 9dbd 423f a33e 1245 2d3e bd35 ed3d
00000300: a5a3 823e ca80 ce3d 02a6 c43d f1ac 493d
00000310: c591 a1be bcbf 933e 0148 533e f49a b3bd
00000320: 2ef7 313d 5283 e3bd 9eed e23e 6df4 b43d
00000330: 6a22 90bd 385f 4ebe 078a 513e 011d e2bb
00000340: 0650 053c 0dc8 a8bd 7474 433d ee30 d03d
00000350: 4275 14be f543 f83d 4606 ee3e a071 893e
00000360: 4124 4e3e d0f1 b83d 42cb b3bd d3d4 aebe
00000370: 7d6a 03be 7b18 85bd e0c7 333e 6a9c e33d
00000380: cde9 17be 16dc a03d 67a7 febd 65e3 90bc
00000390: 8e07 80bc c932 b9bc d3b4 3a3d 85bd c83d
000003a0: 2b58 38be 6d07 913d 8c6d 3c3e 1a1e f6be
000003b0: b982 14be b179 703e 08e7 82be 5e90 3fbe
000003c0: eb8d 1d3d 6636 1abe 4eda 4b3e 5eb8 cebd
000003d0: 791b 93be a989 b6be 1181 883d 7c76 97bd
000003e0: d38e 5d3d 7000 17be a0db 6b3e 0750 64be
000003f0: 2263 22bd 826e 82bd ab2f a9bc a223 d5bd
-0.2510817 0.09248358 0.48662087 0.08399603 -0.11486456 -0.1214449 -0.19881716 0.052404314
0.2660863 -0.12701039 0.10398083 0.030256959 -0.13431717 -0.035781994 0.19445488 0.45154378
-0.090483926 -0.095247835 -0.29209906 -0.07371777 -0.15945107 -0.09968801 -0.0066316477 -0.15712683
-0.28830865 -0.24991685 0.18286932 -0.13561888 -0.17587672 -0.21154195 0.2697572 0.1678509
0.18947785 -0.11172893 0.026772974 -0.024376476 0.1670798 -0.028991869 0.006728679 0.27701253
-0.022014175 -0.11505509 -0.09318784 -0.07171408 0.14399159 0.4773471 0.2940354 -0.2152916
-0.052772935 -0.07693532 -0.090191446 -0.3593223 0.19173592 0.04735898 -0.40281123 -0.16692479
0.04612822 0.14520447 0.07251425 -0.14694454 -0.10934339 0.23358044 0.23784655 0.6228413
-0.35833555 -0.5095023 -0.07559491 0.10097446 0.21067615 0.0015365997 -0.37969145 -0.04880529
0.059008818 0.4030663 -0.2526082 -0.14534004 0.05398402 0.060775287 -0.2905205 -0.17794873
-0.21585816 -0.19016859 -0.07211721 -0.37411663 0.18689923 -0.60747373 -0.18964902 0.13510624
-0.2684146 0.15897767 0.03665825 -0.22263218 0.023232656 -0.34637997 -0.29282114 0.19930373
-0.24491121 -0.29128224 0.22413577 0.05599434 -0.22160402 0.041954763 -0.1786039 -0.38146666
0.11497182 -0.14808643 -0.008192638 -0.036752816 -0.017468479 -0.04368799 -0.51528865 0.31723472
-0.11655509 -0.038477097 0.14752245 0.45319018 0.23029889 0.21795 0.029346375 -0.22176448
0.117605306 0.016015438 -0.2603693 -0.006463722 0.41648868 -0.28322202 -0.18993595 0.059449498
-0.04901417 0.07491598 0.2058118 -0.20273459 0.3289402 0.04948669 0.1341611 -0.0154686775
-0.1992777 0.5151602 -0.17380975 -0.11896926 -0.076111585 0.053791028 -0.07368857 -0.45996422
0.08424048 0.07669811 -0.13926132 -0.087385654 0.13356256 0.070176564 0.09153777 0.2171734
-0.22821614 0.24214777 -0.16754533 -0.07404556 0.1637661 -0.33540893 0.32461575 0.076267615
-0.1431152 -0.22069415 0.19644904 -0.22579512 0.30467534 -0.1880047 0.07892701 -0.20476174
0.060993515 0.073205 0.08321796 0.027139736 0.0035700668 -0.043579757 -0.11220916 0.20213312
0.10683314 0.35033056 0.13441187 -0.0839061 -0.015267187 0.13861443 -0.1757071 -0.0103418045
-0.06284481 0.42674866 0.1637184 -0.1268043 -0.07709849 0.318842 0.1692088 0.115825154
0.25515476 0.10083158 0.09601976 0.049237195 -0.31556526 0.2885722 0.20632936 -0.08769789
0.04344862 -0.11109032 0.44321913 0.08835683 -0.07037814 -0.2015351 0.2046281 -0.00690043
0.008136755 -0.08241282 0.04771848 0.101655826 -0.14497855 0.12122337 0.4648916 0.26844501
0.20131017 0.09030497 -0.08779003 -0.34146747 -0.12833591 -0.0649881 0.17556715 0.11113818
-0.14835282 0.07854478 -0.12434273 -0.017686555 -0.015628602 -0.022607224 0.045582604 0.09801773
-0.18002383 0.070814945 0.18401164 -0.4806984 -0.14502992 0.23483922 -0.25566888 -0.18707415
0.03846542 -0.15059814 0.19907495 -0.10093759 -0.28731897 -0.356519 0.066652425 -0.07395646
0.054091286 -0.1474626 0.23032999 -0.22296153 -0.03964532 -0.06368734 -0.020652613 -0.10407187

pool1.bias f4 [20]
00000000: 5c99 3c3c eef6 b13d deee 0c3a 8374 c8bd
00000010: b5f4 15bd 59e2 ce3c ca45 2e3d da1b 6dbc
00000020: 3fa4 dbbc 3382 c4bc 6403 2b3d ac7f 513d
00000030: 4b72 4f3d 109b a23d 04d9 8ebc 610e 8d3d
00000040: c64c 873d 5488 933c b5ea 8e3b 79da 0a3d
0.011511173 0.08689676 0.000537617 -0.09787848 -0.036610324 0.025254415 0.042547025 -0.014471972
-0.026811717 -0.023987865 0.04175128 0.051147148 0.050646108 0.07939732 -0.017437465 0.06887508
0.0660644 0.018009342 0.0043614754 0.033899758

conv2.weight f4 [35, 20, 3, 3, 3]
00000000: d5d1 a73d da0a e9bd 9ea5 c53c fcba eb3c
00000010: e3b6 8c3c d3b6 30bc 9aaa cf3c 8374 33bc
00000020: e01b 093d 0a7c b33c eae4 87bd 1d85 f3bc
00000030: c61d b9bd 5f3d bebd 976d e2bc cb29 1fbd
00000040: 9664 043d 123a 97bd 3d5e a53d b35b aa3d
00000050: 9137 8d3d fb83 ef3c c6b4 3abd f543 30bd
00000060: 54ca b43b d247 6f3d 4999 043d e4ae b13c
00000070: 789d 77bd 94c7 94bd 919e 90bc 3fba 6c3d
00000080: 3a9c 7b3c d2b1 92bd 5582 e03c d78a a1bd
00000090: fe29 bf3d 344f 57bd 4176 b23c 8d17 7cbd
000000a0: 706a bdbd 9b0b d93c 2ee1 24bc 6703 bebd
000000b0: 0fb5 aa3d 668a 35bd 7c6c 9a3d dd40 a7bb
000000c0: fe04 d93a fa56 003c 3e9a e03b f294 95bd
000000d0: 543b d8bc ddaf 5b3d 071c ff3c f146 b93c
000000e0: 3fd7 28bd 735c 1e3d 2df7 143d 529a 683d
000000f0: 6f1a d73d 941f 1e3d a287 6fbc d0e7 38bc
00000100: b2ea 873d a79b bc3a 42c7 0f3d 2c27 65bd
00000110: 960e a73c f045 443a 3d15 433d fd3e d53c
00000120: 6cc7 a4ba 3497 fabc f9e6 1f3d 6e73 7bbb
00000130: 0fde 28bd 1f82 253d 37bb 8cbd ede7 873d
00000140: 8bd0 2fbd 2fd2 17bd d5e8 cbbd d647 04bc
00000150: ad0b a8bc 08a3 94bb 4ac7 d8bd bcda 5a3d
00000160: eb07 84bc ed5a fc3d e1bd aa3c 862c e23c
00000170: 68a5 f3bd a067 203c 0cd3 013d b271 223c
00000180: f938 64bd a6f1 cabd 100a 333d 9a11 a73d
00000190: 91c7 8dbd 89ff c2bc 6d0e d1bb 1b42 f2bd
000001a0: 1996 093d 2fb0 82bd be65 ddbd 7b93 e4bc
000001b0: b84f 08b8 0fb0 e43d c5f7 c5bc a65a 363d
000001c0: ce80 fb3d a44e d1bd 9c7d 10bd bd44 423d
000001d0: b790 35bd 82d4 2f3d 4f4e 69bd 08e8 28bd
000001e0: 2571 76bd c7f8 f63c d11b 8ebd 2b51 6ebd
000001f0: 7d5b 43bd f005 313c 4893 b8bc e7c9 d4bb
00000200: ddba a53d 8e01 503d 5a12 aa3c a6dc 893d
00000210: 8ad3 063c 1928 633c dd8e 38bd 60a9 0bbd
00000220: 065c 003e d413 333d d3e9 383c d225 32bd
00000230: 653e 41bd f735 2abc ae7a 6e3d f736 493d
00000240: fb83 7ebb d94f b23c bdb5 5cbd 4255 68bc
00000250: 036a cdbd 4f72 c33d 1eae 57bd b849 e6bc
00000260: c6c6 c8bd 835e fd3c 52af d2bd fcf9 51bb
00000270: d2cc bdbd f0c6 7a3d 145f bc3c 523c 19bb
00000280: 31c9 7dbc 1e27 97bc da19 983d 3448 e0bb
00000290: 405f 0cbd d80b ccbd 1450 8b3c d6b5 843d
000002a0: 0b65 663d e6f4 aabd 6da9 1abd 0c55 26bb
000002b0: 6ff5 883d 6a19 1fbe 7afa dcbd 5bd6 803d
000002c0: b1c1 843d ee41 c6bd a737 793d 5317 6f3d
000002d0: 6632 f3bd 9805 abbd 6187 a8bd b428 8bbb
000002e0: c377 5dbb a949 c8bd 1408 08bc 26e7 8dbd
000002f0: a9ac fe3c 9611 d03d 7149 f5bc 8323 1bbd
00000300: fda9 583d d896 bfbc 3999 f63c d89e 17bd
00000310: 37d0 7c3c 5a3c 893d 9683 433c 6d7e d03c
00000320: 7901 df3a e4d0 b0bd a4e6 36bd 7711 013d
00000330: 736a 45bc e6f0 68bd 09a9 06bc 2571 17be
00000340: 349a 81bd fc78 0abe 9ef9 76bd 1339 b4bc
00000350: bec5 813d 492e 3dbd 701c 333d fdb6 683d
00000360: 6993 a83c daf3 0c3c 3d35 363d 274b 743d
00000370: 7f29 4fbc e318 26bd 8edd 2d3c a587 213d
00000380: 0f51 14be fa5b df3b e143 c83d e660 183d
00000390: ad1a e0bc 02ef 693d 13fa 213d 7b47 d73d
000003a0: 7351 5bbd 1e5c 8cbd 101a a93c 0d8d 0cbd
000003b0: 87fe 593d c47c 25bd e150 c4bd 783c 4d3d
000003c0: 6f7c 80bd ccea abbd 1816 a2bd 9f9a 623d
000003d0: abef 80bd ee0c 83bc 1051 86bd e4a8 883d
000003e0: 617a 97bc 042c 84bc 1707 37bd 606c 433d
000003f0: e638 593d 32e0 583d a71b 41bd 0d1e 763a
0.08194319 -0.11379023 0.024126824 0.028775685 0.017177051 -0.010785776 0.025349904 -0.0109530715
0.03347385 0.021909732 -0.06635459 -0.02972656 -0.09038882 -0.09289049 -0.027640147 -0.038858216
0.03232249 -0.07384123 0.08074615 0.083182715 0.06895364 0.029237738 -0.045582555 -0.04303356
0.0055172835 0.058418103 0.032372747 0.02168984 -0.06045291 -0.07264629 -0.017653735 0.057794806
0.0153570715 -0.07162823 0.027405897 -0.0788781 0.09334181 -0.05256577 0.021784903 -0.061545897
-0.09248817 0.026494792 -0.010063453 -0.09277993 0.083353154 -0.04432144 0.07540223 -0.005104168
0.0016557274 0.007833237 0.0068543246 -0.073038 -0.026395477 0.053634513 0.031141294 0.022616835
-0.0412209 0.038662385 0.036368538 0.056787796 0.10503089 0.038604334 -0.01461974 -0.011285737
0.066365615 0.001438965 0.035102136 -0.05594556 0.020392697 0.0007487228 0.047627676 0.026031012
-0.0012571639 -0.030589677 0.039038632 -0.0038368362 -0.041227397 0.040407296 -0.06871646 0.06636033
-0.04292349 -0.03706568 -0.099565186 -0.008073768 -0.02051338 -0.0045360364 -0.10584886 0.053431258
-0.016117057 0.1232203 0.020842494 0.027609121 -0.11896783 0.009790331 0.03169541 0.009914802
-0.055718396 -0.09909372 0.04371077 0.08157654 -0.0692283 -0.02380349 -0.0063798935 -0.11829015
0.03359041 -0.063812606 -0.108104214 -0.027902355 -3.249917e-05 0.11166393 -0.024165997 0.044520043
0.12280427 -0.10220078 -0.03527604 0.047428835 -0.044327464 0.042927273 -0.056959447 -0.041236907
-0.060166497 0.030147923 -0.06938899 -0.058182877 -0.047694672 0.010804638 -0.022531167 -0.006493795
0.08092282 0.050782733 0.020760704 0.067315385 0.008229146 0.0138645405 -0.04505812 -0.034097075
0.12535104 0.04372008 0.011286217 -0.0434931 -0.047178645 -0.010388843 0.058222465 0.049124684
-0.003883599 0.02176659 -0.053884257 -0.014180483 -0.10029986 0.09543287 -0.052656285 -0.028111324
-0.09803538 0.030928856 -0.10287346 -0.0032039871 -0.09267582 0.061224878 0.022994556 -0.00233819
-0.015489862 -0.01845127 0.07426806 -0.006844545 -0.034270525 -0.099631965 0.017005958 0.06479995
0.056248706 -0.08347492 -0.037759233 -0.0025380282 0.06687438 -0.15537038 -0.10789962 0.06290885
0.06482256 -0.09680544 0.06084409 0.058371853 -0.11874847 -0.08350676 -0.082289465 -0.0042467955
-0.0033793307 -0.097796746 -0.008302707 -0.06928854 0.03108819 0.10159604 -0.029942246 -0.037875663
0.05289649 -0.023387358 0.03010236 -0.03701672 0.015430502 0.06700964 0.011933228 0.02545091
0.0017013989 -0.08633593 -0.04465355 0.031510796 -0.012049305 -0.056870364 -0.008219012 -0.14789255
-0.0632824 -0.13522714 -0.060296647 -0.021999871 0.063365445 -0.04618672 0.043728292 0.056815136
0.020578103 0.008603061 0.044484366 0.059641983 -0.012644171 -0.040551078 0.010611905 0.039436
-0.14484046 0.0068163844 0.09778572 0.037201785 -0.02735647 0.0571127 0.03954513 0.10511681
-0.053544473 -0.068535075 0.02064231 -0.034314204 0.05322125 -0.04040219 -0.09585739 0.050106496
-0.06273734 -0.08394393 -0.0791437 0.05532324 -0.06295713 -0.015997376 -0.0655843 0.06672838
-0.018490972 -0.01613427 -0.044684496 0.047710776 0.05303278 0.052948184 -0.047145512 0.0009388633

conv2.bias f4 [35]
00000000: 035d 443c 9e61 fabb 978f 833d 1129 233d
00000010: 35e1 a73c 2a4e ce3b 6cfd 47bb 91db 093d
00000020: f774 2d3d 9ce1 903c f05b a0ba 8253 b8b9
00000030: ae64 9fbb 2a71 89bb 6e82 723b da1c c8bb
00000040: dbc4 f6ba 30f5 643d d5cd 2e3d a5cf 23bc
00000050: d296 76ba f523 88bc a9c8 a13d c72e 08bb
00000060: e6bc c038 01e0 5abb 1084 5cb9 4288 b83b
00000070: 57a2 b43a 1f89 273b e8ba a8bc daec 9739
00000080: db25 b03c bca5 3dbb d3f8 f13b
0.011985066 -0.0076410314 0.06423872 0.039834086 0.02049313 0.006295939 -0.0030516041 0.03365666
0.042347874 0.017685704 -0.0012234431 -0.00035157433 -0.004864297 -0.0041943984 0.0037004012 -0.006106955
-0.0018826978 0.05589789 0.042676765 -0.009998237 -0.0009406629 -0.016618708 0.07899601 -0.0020779835
9.1904585e-05 -0.0033397677 -0.00021030032 0.0056314776 0.0013781291 0.0025563908 -0.020596936 0.00028977433
0.021502426 -0.0028937897 0.0073843985

pool2.weight f4 [35, 35, 3, 1, 1]
00000000: b6f6 62be 62ec 903e 3e65 9abc b0cd 9ebd
00000010: fa14 ae3d 3096 273c d5ad 4a3e fa26 6d3e
00000020: 6a87 3dbd d454 aebb bd01 80be c3f8 eb3d
00000030: 2c7f 293e 7962 dabd 5690 9ebe 2f65 2e3d
00000040: 0eb5 2e3c 048c a73a ecd4 9fbc 9dd1 bfbc
00000050: 8f13 25bd 18a6 75be 63be 64bd ddd5 05be
00000060: 12fc 5d3d 0bac b0bb cd08 803c 8b70 de3d
00000070: 66c8 aabd 9446 b2be 6c3c 7e3e fab5 433d
00000080: b999 5bbd 91cb 0abc 8653 b43d d9d9 fcbc
00000090: 4750 81be 1d53 46bd edc4 8b3d 7cc2 9e3d
000000a0: 34c4 083e cc32 5e3e a073 a53c ab9e c53d
000000b0: 1978 3abe a593 97bd aae2 0bbe a56e 85bd
000000c0: aa4b a1bc 5db3 063d a908 21be 987f f43c
000000d0: 45b4 983e 4619 d73d b650 2a3e 416a 083d
000000e0: 4589 2ebd 0ec4 bebd 60a7 0fbe 77df febd
000000f0: ba0a 353d c360 df3d 3c3d 433e ca10 a8bd
00000100: 91f7 0e3d 72b9 883d d59d 00be cbeb ae3a
00000110: 6e84 8c3d fa8d 6cbd 4a2a 373d 8e0a a43d
00000120: de0b 763d 1c3f cb3d 5de3 743e 05c0 45bd
00000130: 9590 213e 1c81 743d 3e89 f8bb 53d1 433e
00000140: 5b87 cb3c 488f f33b 0330 2c3e a3c7 af3d
00000150: 9978 f0be 564c 153e d0fb 053e b916 3ebe
00000160: f048 93bd 80cd 55be cdf8 c33d de49 b8bc
00000170: b2c7 abbe fc5a c63d 1fa1 ddbd 4a32 7b3e
00000180: cb8c 5b3d 3719 34be e958 87be f30c 98be
00000190: 9c7c a1bd addd 843c 633c ff3d 1479 0e3e
000001a0: ba1d 4fbe c8e9 22bd b7c0 b2bd 925e 3d3e
000001b0: 944c 8e3d 4c91 aebd d7b1 36bd 575d 8abc
000001c0: 75d0 413b 63dc 56bd c207 313e 1691 883d
000001d0: 4a30 55be f4f6 81be f382 58be 57d4 043e
000001e0: cebc 26bd ce02 e3be f032 f4bd f9be 95bd
000001f0: ccc3 273e 7169 0bbe 8939 0abe 9f84 053d
00000200: 1d52 893e 1a8a 423e 2c17 fbbd 3ef5 68bd
00000210: 014a a3bb db68 96be efc3 08bd 6509 66bb
00000220: 12d0 4abe 7640 6fbe 170b c5bd c15d 3abe
00000230: 6884 9abd d9cb 45bd 6ef7 913c c033 833e
00000240: 04e2 09bd 3543 79bd e3a7 953d 80b1 2a3e
00000250: 22bf 483d 8ded 0abe ceef f23d 4eb6 61bc
00000260: 539d 12be e86d 653e f66a f43d c1a4 e4bd
00000270: 6f87 e3bd 8f12 29bd d3f0 bc3a 7c66 1bbd
00000280: 9ad5 1cbe 535d 7ebb 355a b1bd d557 5fbd
00000290: eed5 853d 0e70 963d 1603 1d3c 9491 28be
000002a0: d7f6 863e 1172 c43b 9232 403d f00e 46be
000002b0: 253b 71bc 77be 30bd 562f 853d 5b5e d7bd
000002c0: 1ce4 473e e712 ee3d e64a 97bd 7070 173e
000002d0: d3c3 4b3e b66b 1ebe ec58 9c3d c908 89bd
000002e0: 0e58 9cbc 95b8 163e 5dd0 93bd a1eb 9cbc
000002f0: 4a8a 3abe f64e 71bc 8615 e83d 7053 92bd
00000300: 805c 2fbd d4f4 b03a 5713 653e b06c 87be
00000310: f07d 97bc 9900 093e 90da 98be 8f58 5e3c
00000320: 84d8 143d abdf 05be e389 e1bb 96fd 1a3e
00000330: 0db1 6bbd f1d0 9c3d f457 343e 51ae b7bd
00000340: 1322 ea3d c104 f0bd 0308 1dbe fa47 d6bd
00000350: 78e1 22bd 207e 293e a34f 71be 5381 4abe
00000360: fae4 203e e1dd 2e3e 55eb 00be 38bf a9bd
00000370: 6ccf 91be 0ee9 d03d 4057 d33d 1f4f 9cbe
00000380: 77ac 01bb d302 0abe 9f4c 923d 6966 2f3b
00000390: 45c6 2cbd 2062 83bd c0d8 d2bd eb42 89be
000003a0: b64b 0bbe e9ef 2f3e eb12 5cbe eda9 123e
000003b0: b26a d3bc 892a 8a3a 780c 5ebe bb02 ce3c
000003c0: 349f 11bd 14b3 b83d 3fd5 893e 67d3 f43c
000003d0: ab43 2d3d 9863 00be 4c2c cb3d 8e93 a0be
000003e0: 4048 5bbe e18f 3b3c 3b39 303e 631d 7d3d
000003f0: e5ed 34bd 1048 933d 8c80 0a3e 2b05 cdbd
-0.22164425 0.28305346 -0.018847104 -0.077540755 0.08500095 0.010228679 0.19792874 0.231594
-0.04627172 -0.005320171 -0.25001326 0.11522057 0.16552418 -0.106633134 -0.30969495 0.042576965
0.010663284 0.0012782817 -0.019510709 -0.023415381 -0.040301856 -0.23989141 -0.05584563 -0.13069864
0.05419547 -0.005391603 0.015629197 0.108613096 -0.08339004 -0.34819472 0.24827737 0.04778097
-0.0536134 -0.008471386 0.08804993 -0.030865597 -0.2525656 -0.048419107 0.0682467 0.07751939
0.13356096 0.21699065 0.020196736 0.09649404 -0.18209876 -0.07401208 -0.13660684 -0.065152444
-0.0196894 0.032885898 -0.1572596 0.029845998 0.29825035 0.105028674 0.16632351 0.033304457
-0.04261138 -0.09314738 -0.14028692 -0.12444966 0.044199683 0.10907128 0.19066328 -0.08206327
0.034904066 0.06675996 -0.12560208 0.0013345418 0.068611965 -0.057752587 0.044718064 0.08009826
0.06006991 0.099241465 0.23914857 -0.048278827 0.1577781 0.05969344 -0.00758472 0.1912282
0.024844816 0.007432852 0.1681519 0.085829996 -0.4696701 0.14579901 0.1308434 -0.18563356
-0.07191646 -0.20879173 0.09568939 -0.02249616 -0.33550793 0.09685323 -0.10821747 0.24530903
0.053601068 -0.17587744 -0.2643502 -0.2969738 -0.078850955 0.016218984 0.1246269 0.13913375
-0.20226184 -0.039773732 -0.08728164 0.18493107 0.069482 -0.08523807 -0.044603195 -0.016890211
0.0029573713 -0.05245627 0.17288116 0.06668298 -0.20819202 -0.25383723 -0.21143703 0.12971626
-0.040707402 -0.44338077 -0.11923778 -0.07311816 0.16383284 -0.13614441 -0.1349851 0.03259718
0.2682046 0.18997994 -0.12260279 -0.056874506 -0.004983187 -0.29376873 -0.03338998 -0.0035100814
-0.19805935 -0.23364434 -0.09621256 -0.18199827 -0.07544786 -0.048290107 0.017818179 0.2562542
-0.03366281 -0.06085511 0.073074125 0.16669273 0.049010403 -0.13567181 0.11862145 -0.013776375
-0.14317827 0.22405207 0.11934464 -0.11164237 -0.11109816 -0.041277464 0.0014415033 -0.037939534
-0.15315858 -0.003881295 -0.08659784 -0.054527123 0.065349445 0.073455915 0.009583255 -0.16461784
0.263602 0.005995043 0.046923228 -0.19341636 -0.014723574 -0.04315039 0.06503169 -0.10516044
0.1952061 0.11624699 -0.073873326 0.14788985 0.1989892 -0.15470776 0.07634148 -0.06691129
-0.019084956 0.1471885 -0.072174765 -0.019155325 -0.18216816 -0.014728298 0.1133223 -0.07144821
-0.042812824 0.0013500699 0.22370659 -0.2645011 -0.018492669 0.13379134 -0.2985425 0.013570919
0.036339298 -0.13073604 -0.0068828925 0.15135798 -0.057541896 0.0765704 0.17611676 -0.08968795
0.114322804 -0.11719657 -0.15335087 -0.10462947 -0.039765805 0.16552019 -0.23565535 -0.19775896
0.15712348 0.17076828 -0.12589772 -0.08288425 -0.28478563 0.10200702 0.10319376 -0.30529115
-0.0019786635 -0.1347764 0.071435206 0.0026763922 -0.042181272 -0.064152 -0.10295248 -0.26808867
-0.136031 0.17181362 -0.21491592 0.14322634 -0.025807712 0.0010541241 -0.21684444 0.025147786
-0.03555222 0.090185314 0.26920506 0.02988596 0.04230086 -0.12537992 0.09920558 -0.31362575
-0.2141428 0.011447878 0.17209332 0.061795603 -0.044172186 0.07191479 0.13525599 -0.10010751

pool2.bias f4 [35]
00000000: 0a7d fb3c e773 293c 08d7 9dbc 4d90 893c
00000010: 62f8 08bd b84d 55bd 851f 073c d259 a039
00000020: 32cd 313c cdc2 17bd e9f1 3ebd ffba 583c
00000030: fe6f dabb cd82 cd3c cf5b 8ebb 4314 45bd
00000040: 698a 723c 64d4 80bd 99ba f53a fa42 d93c
00000050: e354 9a3b b131 79bc e784 233d 1eb9 cfbc
00000060: c210 96bb b6f2 d63c 9b3a 0cbc 04a0 733b
00000070: 095c 033d 697d 8f3c ac0a 3abd d3c7 87bc
00000080: 630e d63b b0aa ed3b 4e22 dabc
0.030699272 0.010342575 -0.019267574 0.01679244 -0.03344 -0.05207607 0.008247261 0.000305845
0.010852145 -0.03705101 -0.046617422 0.013228177 -0.0066661825 0.025086785 -0.0043444405 -0.048115026
0.014803507 -0.0629051 0.0018747627 0.026521195 0.0047098263 -0.015209601 0.039921667 -0.025356825
-0.0045796344 0.02623878 -0.0085588945 0.0037174234 0.032070193 0.017515855 -0.045420334 -0.016574776
0.0065324767 0.0072530136 -0.026627686

conv3.weight f4 [35, 35, 3, 1, 1]
00000000: 708d 003b 5083 18be f891 ea3d 72dd 50be
00000010: 2285 603e c022 91bd 54ce 443e 3f54 86be
00000020: 7d93 db3d 026b ddbd c8d1 1abe b903 df3d
00000030: f1aa bdbd 092c b6bc ba75 643c 963b 79be
00000040: 4d53 a53c 4ae2 0cbd e1af a2be 31a3 c33d
00000050: 9c4f cbbe c1d1 ecbc 5912 3f3d a6c2 f8bc
00000060: 6b4a 813e e11e 823d 2b0f b53d 4573 c6bd
00000070: 8473 523c cb9b c4bd c84f 3e3e 3dc1 153e
00000080: 8895 6abe 22a4 43be 0889 18be bf50 52bc
00000090: e4bb aa3c bfb9 be3d db97 a3be b673 ef3c
000000a0: 2f07 0d3e 7aa8 b0bd c22f febb 3068 12be
000000b0: b5a9 e9bd 2bd5 5b3c e6a7 59bd 1a81 a53c
000000c0: dda1 103e d4ce 863d 74f5 b1bd 2af3 2f3c
000000d0: db39 21bd 624d 053c 2c91 8ebe c325 c0bd
000000e0: d559 2ebe f879 1dbe ef21 c43c 0fc9 0ebd
000000f0: 85b0 083e 9758 8dbd 68b6 b73d 0cb7 a7bd
00000100: 2183 73bd ac63 b1bc d3c7 1d3e 8e61 113c
00000110: 922f 033e e33d 8dbb 2568 383e fae2 12be
00000120: 892d 4a3d b408 04bd 3491 99bd a7fe a83e
00000130: ec45 563e 75d5 303d e22b bdbd 4337 9bbe
00000140: b51c 4d3e b10e cebd cfa5 5cbd 770d 8f3e
00000150: c498 d43e 82ef 413e 6e6c 693d b66e 76be
00000160: cda8 1dbe 3eb1 973d 5b28 883e 2148 863e
00000170: ad30 243e 55ed 333d 477d 77be 1e62 a23e
00000180: 0bd8 5bbc 6a42 23be 1d37 bf3c 76b7 1fbe
00000190: 672b c4bd a2fd dcbc dec7 67bd d9cb 263e
000001a0: c03c 02be 8947 b83b a76f 55be 01d8 d33d
000001b0: 737a b8bd 4668 57bc e26b 9bbd bc64 233e
000001c0: 757d 83bd fa21 823d 895a 11be f437 8bbe
000001d0: 9919 3abe 31ed dd3d ffe4 0bbe aa10 8d3e
000001e0: 5427 e03c 210f 443e ba7e 003e ca8f e13d
000001f0: 7eb7 953e 7a63 823e 90b5 983c 39a9 003e
00000200: db2c f5bc 920b b33d dbd8 b93d f278 c13d
00000210: 3790 66bc 5c05 df3d 404e 293d b51e adbc
00000220: 1e99 083e 8d9a aa3d 7d6d bdbd 8ccb 38be
00000230: 3b74 a5bd 5c58 343e 0cb6 dd3d 4287 14be
00000240: 4550 883d 2de9 4abd 8784 51bd de4a 523e
00000250: 4ce6 e7bd d478 b23d ad3f 3d3e 0e74 753c
00000260: 1fa0 8bbe f2e9 c83c c3ba a73d b931 473d
00000270: ada3 413d 96b0 9f3d d8e5 0f3d 72c9 01be
00000280: 6070 5ebd dd98 a5bc cb83 2fbe d398 50bd
00000290: fa25 4cbd 07b0 1a3e ada8 de3d 1b85 923e
000002a0: 6d05 19bd 4c27 32be 95c0 9d3d 042b a5bd
000002b0: 1146 313d 933d d3bd 4a99 b13e 9354 0a3d
000002c0: 6415 cd3c fa97 903d e04c ab3b 791c 673c
000002d0: eb53 5c3e b5de 54bd d03c adbd 1b86 66bd
000002e0: 3bba 5239 aa30 f2bd a457 93be f1cb d7bd
000002f0: b3f0 883e 1830 e5bd 8ab7 71be 709f d1bd
00000300: 0356 07be 6b8f 433e 5c73 cdbd de9d 933c
00000310: 19f5 7cbd 09fb 17be f22a 95be 0079 b93c
00000320: 927f 873d a6a6 bd3d 9880 c73d c3ed 823d
00000330: 8ed1 3bbd d091 0d3e 73a2 813e 9042 173e
00000340: 1f4b 8bbd 4731 bfbb c58e 003b e75d a8bd
00000350: 25f2 0abe d39c c3bc 2415 c4bd 9475 e53c
00000360: 83a5 653e 7f5e 043e cfb9 97bd 3c0f fcbd
00000370: 8ef0 9539 962d 8cbe b4ef b13c e56a d43d
00000380: d5ba 79bc 5c24 1dbe fdef 9bbe 2d21 a4bd
00000390: 4459 bcbd 061e d83c d7ee 2c3d d528 173e
000003a0: c373 58bd 804b c73d dcd3 d6bd 6fb8 f83d
000003b0: f252 813d b6ed fc3d 1f13 173e 3642 dfbc
000003c0: 9c64 fcbd 6675 c13c 79bf 53bd a63a a43d
000003d0: afce 433e f81e 73bd 7f3e 533e 931b 363e
000003e0: 9cae 6b3e 9f4c 5e3c ad1a 0abd e7e2 10be
000003f0: 8376 c6bc 094b 0a3e 62ee 8bbe 3d37 9ebc
0.0019615553 -0.14893842 0.114536226 -0.20396975 0.21925786 -0.07086706 0.19219333 -0.2623615
0.107214905 -0.10811426 -0.15119088 0.10889382 -0.0926112 -0.022237794 0.013944084 -0.24339136
0.020181322 -0.034395494 -0.3177481 0.09552611 -0.39709175 -0.028908612 0.046648357 -0.030366253
0.2525209 0.06353546 0.08840784 -0.09689955 0.012844924 -0.09600028 0.18585122 0.14624496
-0.22908604 -0.1910558 -0.14896023 -0.012836634 0.020841546 0.09312772 -0.31951794 0.02922998
0.13772272 -0.08625884 -0.007757158 -0.14297557 -0.11409322 0.013417522 -0.053138636 0.020203162
0.14124246 0.06582418 -0.086893946 0.010739127 -0.039361816 0.008136125 -0.27845132 -0.093822025
-0.17026456 -0.15378559 0.023941962 -0.034859713 0.13348587 -0.06901663 0.08970338 -0.0818921
-0.059451226 -0.021653973 0.15408258 0.0088733565 0.12811115 -0.004310356 0.18008478 -0.14344397
0.049359832 -0.032234862 -0.074983984 0.33006784 0.2092511 0.04317232 -0.092368856 -0.303156
0.20030482 -0.10061396 -0.053869065 0.2793996 0.415228 0.18939021 0.056988172 -0.2406567
-0.15396424 0.07406853 0.2659329 0.26226905 0.16034193 0.04392751 -0.24168883 0.31715482
-0.013418208 -0.15943304 0.02334171 -0.15597329 -0.09578591 -0.02697641 -0.056587093 0.16288699
-0.12718487 0.005623762 -0.20843373 0.10343934 -0.0900773 -0.013147419 -0.075889364 0.15956396
-0.064204134 0.06354137 -0.14194693 -0.27191126 -0.18173827 0.10836256 -0.13661574 0.27551776
0.027362503 0.19146396 0.12548342 0.11013754 0.29241556 0.2546652 0.018641263 0.12564553
-0.029928615 0.08742441 0.09074565 0.094468966 -0.014072469 0.10889694 0.04133439 -0.021132806
0.1333966 0.083302595 -0.09249399 -0.18046397 -0.0807881 0.17611831 0.10825738 -0.14504722
0.06655935 -0.04953878 -0.05115178 0.20536372 -0.113232225 0.087144524 0.18481322 0.014981283
-0.272706 0.024525616 0.08189919 0.048631404 0.047275234 0.07797353 0.035131305 -0.12674502
-0.054306388 -0.020214492 -0.17140119 -0.050926995 -0.049840905 0.15106212 0.10872016 0.28617176
-0.03735869 -0.17397803 0.07702748 -0.08064845 0.04327971 -0.10314479 0.34687263 0.033772063
0.025034614 0.07060237 0.00522767 0.0141059095 0.21516387 -0.051970202 -0.08458865 -0.056280237
0.00020096537 -0.11825688 -0.28777802 -0.105369456 0.2674614 -0.11190814 -0.23605171 -0.102354884
-0.13216405 0.19097678 -0.10031769 0.018019613 -0.06175718 -0.14841856 -0.29134327 0.022640705
0.06616129 0.09260301 0.09741324 0.06393006 -0.045854144 0.13825154 0.2531925 0.14771485
-0.068014376 -0.0058347317 0.0019616347 -0.082210355 -0.13568933 -0.02387849 -0.09574345 0.028010167
0.22426419 0.12926672 -0.07408487 -0.12307593 0.00028598722 -0.2737853 0.021720745 0.10371951
-0.015242298 -0.15345901 -0.30456534 -0.0801414 -0.091967136 0.026381504 0.042219963 0.1476167
-0.052844774 0.09731197 -0.10489628 0.12144553 0.06314649 0.12350027 0.14753388 -0.027253252
-0.12323877 0.02361555 -0.051696274 0.08018999 0.19121812 -0.059355706 0.20629309 0.17783956
0.23015827 0.013568073 -0.033716846 -0.14149056 -0.024226433 0.13505186 -0.2733031 -0.019313449

conv3.bias f4 [35]
00000000: ea54 a23b cbb3 c1bc 1536 30bb 88d5 fa3b
00000010: 86ae 293b f7b1 a13c 76c2 dc3a 1d55 13bd
00000020: aa64 ecbb 6073 893b 1122 5d3d 9ed7 1ebc
00000030: 2766 4fba 6420 c4bb 0e13 0d3a 9464 863d
00000040: fc7f a0bb 54b8 103d 7806 073d ded1 fa39
00000050: bacc 3ebb 11c5 273d 79c6 2a3c 3645 94bc
00000060: 9a36 7c3c 0b21 213d 549c b9bb 2936 26bc
00000070: 69f1 493c 2e0a b2bc 4358 f1bb 102b 593c
00000080: ecbd d7bc b00e d5bb ad48 8f3c
0.00495397 -0.023645302 -0.0026887704 0.0076548494 0.0025891378 0.01973818 0.0016842622 -0.035969842
-0.0072141485 0.004194662 0.053987566 -0.009694962 -0.0007911645 -0.0059853066 0.00053815625 0.065621525
-0.0048980694 0.03533204 0.032965153 0.0004784008 -0.0029113726 0.04095942 0.010423296 -0.018099409
0.015393877 0.039338153 -0.0056643877 -0.010144749 0.012325623 -0.02173337 -0.007365258 0.013254896
-0.026335679 -0.006501995 0.01749071

conv4.weight f4 [35, 35, 2, 1, 1]
00000000: 9617 643e 91e2 903d 827f e3bd 7bca 093f
00000010: 7c9a 90bd ced3 05bd 6e13 83be 2d4c e13b
00000020: f43f 23be ffb2 3fbe 6bc6 743e b040 a6be
00000030: 1a07 463e 3169 883d aff9 73be 0c9d 173e
00000040: 7da8 5cbd 6674 5cbe 56bd 123d 8dd8 02bd
00000050: ae4c 223e 03b6 2b3e c491 843c d700 71be
00000060: 200a ac3d 1adb 9e3d 05c4 cdbd d5b2 3bbe
00000070: de3b bf3d fed7 763d 47ef 46bd ffd3 2a3e
00000080: b199 5bbe 02b2 0c3e 8d5c 483d 09c2 bebd
00000090: 0f71 9ebe 1456 dbbd 2cf2 8a3e f684 e2bd
000000a0: 74af 8d3e 7f7e cc3c 6917 293e ea8e 1e3e
000000b0: 5dcf 63bb b83d a7bd f36b 44bd 91ef d6bd
000000c0: 4090 b53a f4cb c63e 5f45 803d 7cc4 5a3e
000000d0: 9bb1 b93e 4e82 073d 5b68 55be cd2a 19be
000000e0: 4a26 dd3c 27f5 243d 9f2a ba3d e21f d5bc
000000f0: 0285 11bd 329e 963e a904 a43e 565f ccbe
00000100: f436 8ebd 0778 5cbd 31d1 66bd b6d3 5dbd
00000110: ed92 b03d 2c96 f53e b08c b0bd ce64 563e
00000120: d552 2fbe b602 713d 023c 493e 15b2 0ebe
00000130: 820d 69bc 73e1 e4bc cdda bd3d ab7b d23d
00000140: 74a9 d53d 7b5a 2c3e 0e31 8d3d 8750 9cbe
00000150: b44e 58be 3d7b b13d 00eb 263e ae95 26bd
00000160: c5c2 123e f5b7 4fbe 2222 883d 5dde a0bc
00000170: 28aa c7bd 2598 31be 95ce 323d b955 a53d
00000180: 61e2 e0bd 6b00 453e 8276 24bc fd91 90bd
00000190: dd90 923e 6e2b 8cbd 12ef 153e 1823 813d
000001a0: fb5c b6bd e8fd c9bc 859e 0b3e 847e 45be
000001b0: 8e40 f9be 0599 bfbd 6e81 433e 43c0 223e
000001c0: b2ab 073e cfdf ecbc 96c8 b53e d3f5 c7bd
000001d0: c9f9 8dbe 48e0 5dbd f531 153e 2e14 9abd
000001e0: 6657 10bb ffc0 a5be 38b7 bf3b 67dc 21bd
000001f0: 034b f53b fe8d 2c3e 210b 0d3d 6222 a9bc
00000200: bbe1 c23d ef86 d6bc 276b aa3e 955b e7bd
00000210: 8836 9dbd 48a2 953e d782 b63d 0cf0 f3bd
00000220: 65f9 2cbe 13c7 85bd 9c5f 32be 48fd 3cbd
00000230: 8e2e e03d db02 ee3d ff52 99be c3b9 e0bd
00000240: 1fd4 49be d7db 8d3d 33a7 d4bd 3867 743e
00000250: 70b6 0c3e b103 a63c 829d fb3d 2ba1 acbc
00000260: 3d57 823c 3594 873d b63e 883e 8d48 ccbe
00000270: f37f 8a3d f2ff 00be a544 083e 1490 c8bd
00000280: 6ff3 f73c e590 8cbd 5e2e 9bbe 1563 8f3d
00000290: b67e 9ebe be9f 95bc 89c3 06bc c9ed 9dbd
000002a0: d3ef 0b3d d38f c53b 1170 713d 4b5d b93d
000002b0: 90ed b7be a657 a2bb ad3a 423e 9cd4 7ebe
000002c0: 2b9b bcbc 8247 153e 96fc fa3d 38e4 5a3e
000002d0: ca1f 343d 14e1 9abe 19f2 1a3e 2838 123e
000002e0: 1f53 f23c 9a44 64be 6701 9c3e 8e43 123d
000002f0: e326 573e 0576 8c3d 8886 913e 87a7 61bd
00000300: 20b0 babc af1a 2f3e d10d e53d acd7 3bbd
00000310: fb4e a33e 511e df3d a926 19be a35d 3fbe
00000320: 428e 7bbd 786d 6e3d f211 7cbe 1424 47bd
00000330: 8d5d 213c a317 2cbe 1eec 63bd ff9e 4cbd
00000340: f2e6 6bbd 14b6 6d3e c015 393d 823a 013d
00000350: e866 cebb 1c00 5dbd 3d52 26be 20a0 4b3d
00000360: b457 9c3e 011c 803e 4353 b13d 6bba 8c3c
00000370: f642 573e 6bec b93e d3b6 873d 19a4 d23c
00000380: 37e0 dbbe 7ebc 853e a570 363b a565 713e
00000390: e4f8 923e 53fc 4cbe 70fa 1fbd 331b 97bc
000003a0: a0c4 4ebd 69ab e4be ac76 b5be 8cd9 d4be
000003b0: b471 1fbe 2778 8fbe 9231 3ebe a98c 8e3d
000003c0: fae2 073e ca52 113e fda9 363e fc96 76be
000003d0: a8bc 833e e2d9 c3bd 457f a3be e792 783e
000003e0: 6d3b 263e a64d 8dbd 1ade d0bd 8dc0 b6bd
000003f0: 96b1 0e3e 0f47 953c 6ac6 873e 268d f13e
0.22274622 0.07074464 -0.111083046 0.53824586 -0.070607156 -0.032672696 -0.2560076 0.006875536
-0.15942365 -0.18720625 0.23903815 -0.32471228 0.19338647 0.06660689 -0.23825715 0.14806002
-0.05387162 -0.21528777 0.035825096 -0.0319448 0.15849563 0.1676865 0.016182788 -0.23535477
0.08400369 0.07756634 -0.100471534 -0.18329938 0.09337591 0.06026458 -0.048568036 0.16682433
-0.21445347 0.1373978 0.04891639 -0.09314353 -0.30945632 -0.107097775 0.27137887 -0.110605165
0.27672923 0.024962662 0.16512837 0.15484205 -0.003476105 -0.08166069 -0.04795451 -0.104949124
0.0013852194 0.3882748 0.062632315 0.21364015 0.36268315 0.033083253 -0.2084059 -0.14957733
0.026995797 0.040272858 0.090901606 -0.02601618 -0.035527237 0.29417568 0.32034805 -0.39916486
-0.06944075 -0.053825404 -0.056351844 -0.05415698 0.08621774 0.47966135 -0.08620584 0.20936891
-0.17121442 0.058840476 0.19651797 -0.1393512 -0.014224412 -0.027939534 0.092702486 0.10277494
0.10432711 0.1683139 0.06894122 -0.30530187 -0.21123773 0.08666084 0.16300583 -0.04067009
0.14332111 -0.20285018 0.06647135 -0.019637281 -0.097492516 -0.17343195 0.043654043 0.08072991
-0.10980678 0.1923844 -0.01003802 -0.07059095 0.28626147 -0.06844221 0.1464198 0.06305522
-0.08904453 -0.024657205 0.13634689 -0.19286543 -0.48682064 -0.09355358 0.19092342 0.15893655
0.1324909 -0.028915314 0.35504597 -0.09763684 -0.27729633 -0.05416897 0.14569838 -0.0752338
-0.002202475 -0.32373807 0.005850699 -0.039516833 0.0074857487 0.1685104 0.03443444 -0.020646278
0.09515711 -0.026187388 0.33284876 -0.11296765 -0.07676417 0.29225373 0.089116745 -0.1191102
-0.16892011 -0.06532111 -0.17419285 -0.046139985 0.109463796 0.116216384 -0.29946133 -0.10972931
-0.19709824 0.06926697 -0.10383453 0.238675 0.1374147 0.020265432 0.122859016 -0.021072945
0.01591074 0.06620065 0.26610345 -0.39899102 0.067626856 -0.12597635 0.13307436 -0.09793106
0.030267445 -0.06863574 -0.30308813 0.0700132 -0.30956048 -0.018264648 -0.00822533 -0.077113695
0.03416426 0.006029108 0.058944765 0.09050997 -0.35923433 -0.004954296 0.18967696 -0.24885792
-0.023023209 0.1457806 0.12255208 0.21376121 0.04397563 -0.30249846 0.15131415 0.14279234
0.02958065 -0.22291794 0.3046982 0.035708956 0.21010928 0.06858448 0.28422952 -0.055091407
-0.022789061 0.17100023 0.11184276 -0.045859978 0.31896195 0.10894454 -0.14956154 -0.18688063
-0.061414964 0.058209866 -0.2461622 -0.04861839 0.009848964 -0.16805892 -0.0556451 -0.049956318
-0.057593293 0.23213989 0.045186758 0.031549938 -0.0062988885 -0.053955182 -0.16242309 0.049713254
0.30535662 0.25021365 0.08658459 0.017178735 0.21021637 0.36313185 0.06626668 0.025713013
-0.429445 0.2612037 0.0027838137 0.2357393 0.28705513 -0.20018129 -0.039057195 -0.018445587
-0.050480485 -0.44662026 -0.35442102 -0.41572225 -0.15570718 -0.28021356 -0.18573597 0.069604225
0.13270178 0.14191738 0.17838283 -0.24081033 0.2572987 -0.09563042 -0.31933036 0.24274789
0.16233607 -0.06899576 -0.101986125 -0.08923445 0.13934931 0.01822236 0.26518565 0.47178

conv4.bias f4 [35]
00000000: d2fa 183d 5c85 f73c b85e a83d c4dc a63c
00000010: 5ffd f5bb 33e9 a13c 543a 94bc 470a 043d
00000020: 3ab3 4d3c cc54 953c 263d 83bb abc8 e13c
00000030: 6e18 293d ddf0 7ebb dc49 ae3c a804 86bc
00000040: d831 dfbc 428f 4f3c 2c02 933c 3eac 043d
00000050: 34d2 4eba 0000 0000 8a96 b03c 8e47 dd3c
00000060: 9083 bdbb 0701 9fbc 8cbf 55bc 8b6b 81bc
00000070: b845 69bd 9770 0b3d 0706 b53c 7311 13bc
00000080: 0000 0000 c7bb 2b3d 3ee7 08bc
0.037348576 0.030214958 0.08221191 0.020368941 -0.007507011 0.019764518 -0.01809422 0.032236364
0.012554938 0.01822891 -0.004005092 0.027561506 0.041283064 -0.003890089 0.021275453 -0.016359642
-0.027245447 0.012668433 0.017945372 0.032390825 -0.0007889599 0.0 0.021556158 0.027011659
-0.0057835057 -0.01940967 -0.013046157 -0.01579835 -0.056951255 0.03404292 0.0220976 -0.008976328
0.0 0.041927125 -0.008355914

fc.weight f4 [17, 630]
00000000: af3b 693d dbef 1dbd 867e 9c3b 9fba 943c
00000010: db5f 46bd 5fd9 8abd 5408 08bd 3786 093d
00000020: 7740 9dbd dc81 cdbd 249a 93bc e888 973d
00000030: d34e 90bd 5c51 65bd b155 37bd 70f6 b7ba
00000040: e164 623d 886a 2b3d 3388 e83d 1516 bc3c
00000050: 1e9e 043d 67c3 dc3c add1 8bbd 1419 c4bd
00000060: 83f5 6c3c da94 c6bd 1d6b b8bd aab9 d23c
00000070: d80d f83d 83aa cd3c eebe a43d 9b94 913c
00000080: 2711 0b3d dc8b 103d b5ac aa3c e291 b1bc
00000090: 3eaf 4dbd 4af6 64bd 09d5 edbc b2ae 24bc
000000a0: dd92 97bc 7108 75bc ec58 583d e95b 413d
000000b0: 2bcf 1e3d 0b74 ad3d 8484 9bbd a0a3 0abd
000000c0: a874 99bd a658 233d 486c 763d 054c a93c
000000d0: 0791 1bbc 48d4 073c 9f9f f63b 4638 bb3d
000000e0: 7f9d c5bd dc51 f03b cb3a 7f3d e1af a1bb
000000f0: 041d 293d e949 3c3d 5127 b23a 892e 433d
00000100: ed75 90bd 5a38 40bd 822f 3cbd bc51 a5bd
00000110: d5e1 173d 09c5 8fbd 3f98 da3c e720 a4bd
00000120: 225e a63d 413a dd3d d528 8ebd 4172 8c3d
00000130: 3839 7bbd c4c4 ec3c d0c1 953d c6d5 d7bc
00000140: bf41 3bbd 8f04 a53b 83c8 023e 4d38 9d3d
00000150: 007c 523d 9959 703d 8846 43bd 642a 7f3d
00000160: 2bf5 473d 661a dd3b 8076 7cbd 38fa 633d
00000170: aed6 3e3d eb4d 753c 90b5 4c3c 1e3d d5bc
00000180: c74f 033d f122 893d fe9a fcbc c7a3 89bb
00000190: fefa d1bd 2312 55bb e0f1 c03d 3530 4b3c
000001a0: aa7b d83c 5c6c c0bc d2f1 38bd e0e6 f5b9
000001b0: c607 6938 af95 abbc 75e2 cd3d 9063 0bbd
000001c0: f11b 6a3c b104 05be 9f9b f73c 56ac 19bd
000001d0: d023 163c 740b 5dbd 315b 29bd b22d 343d
000001e0: dab7 bb3d e598 f8bd 2f2a 57bc d37a 51bb
000001f0: 1584 0ebd a96d 753d e200 e43c b1e8 8abc
00000200: 7c80 8bbd ba89 5ebd 9d76 0ebd f7b9 723d
00000210: aa0a 47bd 3a09 05bd 1c2f 2fbd 816f a7bd
00000220: 82c9 273d 5dd7 d43c e946 523d 1efb 08be
00000230: dff4 06bd 7e9c c03c 1998 2abd 5247 163c
00000240: e3d0 62bc 6f32 06bd c2b0 a4bc 8af7 95bd
00000250: 52a0 5b3d 3ae1 12ba a85c f23a 4073 033d
00000260: 5903 713d 1656 353c 976f a4bb 4bcb d1bc
00000270: 9dc9 b63d 1ca8 7fbd 6470 81bc cb90 4a3c
00000280: 02bb 88bd 5e46 c2bc dbcd 763d 2b48 4b3d
00000290: 5e54 31bd b811 c3bb 8733 1c3c c325 b8bc
000002a0: 132d 5c3d 9d96 91bc e4c1 cdbd 9597 13bb
000002b0: ce6f 533e 6f3e 613d 597b f33c 29fc a8bd
000002c0: e4d3 cf3b b8f0 c5bd 27e6 173d e964 e4bc
000002d0: 44fb 2a3d 0aa3 223d 5594 0c3d e4da 2fbd
000002e0: f09b 99bc f55c 703d 1717 b73c 4d5b 3ebd
000002f0: 4ab4 bfbd 25db 96bc 61b8 99bd f2a1 8b3d
00000300: 3f71 bebd 84c7 d4bc 31bc 6dbc 5734 02be
00000310: 5505 38bd 250d 043c 11b7 5c3c 549a 003e
00000320: ecf3 fcbd f563 7c3d 887d b23d 707c 4b3d
00000330: 73e5 623b ebb5 9ebd 5cd0 983d bd1b f53c
00000340: 1b25 babd dde6 0ebc c6e3 cf3c 6773 9c3c
00000350: ade5 823d b5d1 0abc 4f1f 823d 6cff 16bd
00000360: 0c1e ddbc 536b 693c dac1 983b 2c64 253d
00000370: 6c1e ef3b 4304 433d 3ce6 73bc 0d5e 03be
00000380: 63dc 9c3d 606c 24bd 6460 803d a68e dc3c
00000390: ceab 933d 27fb 3dbd 15d1 60bd 9c7a 13bd
000003a0: d07f 00bd 10d4 fa3c 6c30 33bd a55d 413d
000003b0: a78a bc3d 168f 243d a82e 933c 589c bdbd
000003c0: 0339 853b 372c 923d ca2a 86bd 4906 cabc
000003d0: c928 9ebc 3a3a 01bd 4196 fdbc 6b44 babc
000003e0: 87a3 3a3d 4ffb 983d 1d91 c3bc 5ecb 223d
000003f0: 7c1e 6a3c 24c6 17bd 92d9 26bd 6b95 8ebd
0.056941684 -0.038558822 0.004775825 0.018155394 -0.04843126 -0.067797415 -0.033211067 0.033575263
-0.07678311 -0.10034534 -0.018017836 0.0739916 -0.070462845 -0.055985793 -0.044759456 -0.0014035236
0.055271987 0.041849643 0.11354103 0.022959748 0.032377355 0.026948644 -0.06827102 -0.09575096
0.014462831 -0.0969636 -0.09004805 0.025723297 0.121120155 0.02510572 0.080442294 0.017771056
0.033951905 0.03528963 0.020834306 -0.021676008 -0.050215952 -0.055898942 -0.029032247 -0.010051416
-0.018502647 -0.014955626 0.052819178 0.047206793 0.03877179 0.08469399 -0.07593635 -0.03384745
-0.074929535 0.039879464 0.06016186 0.020666132 -0.009495026 0.008290358 0.0075263525 0.09141593
-0.096491806 0.007333977 0.06231193 -0.0049342965 0.041287437 0.045968924 0.001359204 0.0476518
-0.070537426 -0.04692874 -0.045943744 -0.0807223 0.037080605 -0.07020003 0.026683925 -0.08014088
0.08123423 0.10802127 -0.06941382 0.0685773 -0.061333865 0.028902419 0.073123574 -0.026347052
-0.045716997 0.005035944 0.12771802 0.07676754 0.051387787 0.058679197 -0.047674686 0.062296286
0.048817795 0.0067475317 -0.061636448 0.05565855 0.046591453 0.01497219 0.01249446 -0.02603012
0.032058503 0.06696118 -0.030835625 -0.004200432 -0.10252951 -0.003251203 0.09421134 0.01240163
0.026426155 -0.02348917 -0.045152493 -0.00046902057 5.555877e-05 -0.020945398 0.10052959 -0.034030497
0.014288888 -0.12990071 0.030225573 -0.037517868 0.009163812 -0.053966 -0.041346733 0.04398889
0.09165926 -0.12138537 -0.013132616 -0.0031964078 -0.034793932 0.059919033 0.027832452 -0.016956659
-0.06811616 -0.054330565 -0.034781087 0.05925938 -0.048594154 -0.032479502 -0.042769536 -0.081755646
0.040963657 0.0259816 0.051337156 -0.13377044 -0.03294837 0.023512121 -0.041648958 0.0091722775
-0.013843748 -0.03276294 -0.020103816 -0.07322605 0.05361969 -0.00056030194 0.0018490748 0.032092333
0.058841083 0.011067888 -0.0050181854 -0.025609633 0.089251734 -0.06241618 -0.015800662 0.012363623
-0.06676294 -0.023715194 0.060254913 0.04962937 -0.04329335 -0.00595304 0.009533769 -0.022478944
0.053753924 -0.017772013 -0.10046747 -0.002252077 0.20648119 0.054991182 0.029721903 -0.08251221
0.006342398 -0.09665054 0.037084725 -0.027880149 0.04174353 0.039706267 0.034321148 -0.04293336
-0.018751115 0.0586824 0.022349877 -0.04647379 -0.09360559 -0.018415043 -0.075058706 0.06817998
-0.09298944 -0.025974043 -0.0145102 -0.12715279 -0.04492696 0.0080597745 0.013471381 0.12558872
-0.12351212 0.061618764 0.087153494 0.04967922 0.0034621626 -0.07749542 0.074616164 0.029920453
-0.090891086 -0.008722034 0.025377166 0.019097997 0.063914634 -0.00847285 0.06353628 -0.036864683
-0.026991867 0.0142467795 0.004661781 0.040378734 0.0072973277 0.047611486 -0.014886435 -0.12828846
0.07659223 -0.040142417 0.06268385 0.026923489 0.072105035 -0.046382096 -0.054886896 -0.0360056
-0.03137189 0.030618697 -0.04374735 0.047208447 0.09206133 0.04017552 0.017966583 -0.09258336
0.004065634 0.071373396 -0.0655113 -0.0246612 -0.019306557 -0.03154967 -0.030955436 -0.022737702
0.045566108 0.07469808 -0.023872906 0.039744727 0.014289495 -0.037054196 -0.040734835 -0.06962093

fc.bias f4 [17]
00000000: 007d 89bd 1280 d4bc 6c75 de3c 831c 3ebc
00000010: 8dc8 11bd 2b23 18bc c2c8 f4bb 63a7 97bb
00000020: a02b 8d3c 02ef 163c 223b 903c 49be 843c
00000030: b586 3bbb c2b2 16bb 47f2 023d d665 da3c
00000040: c226 aa3c
-0.06713295 -0.025939975 0.0271556 -0.011603477 -0.03559165 -0.009285728 -0.0074702213 -0.0046281083
0.017232716 0.009212257 0.017606322 0.016204016 -0.0028614227 -0.0022994732 0.031969335 0.026659887
0.020770434
