checkpoints/mou_et_al/no_class_balancing/Salinas_DiffMaps_15/epoch10_0.21.pth (torch, 70972 bytes, 10 tensors)

gru.weight_ih_l0 f4 [192, 15]
0	0x3e1fd9ce	0.1561043
1	0xbd56b180	-0.05241537
2	0x3e0fe2e0	0.1405139
3	0x3d79974b	0.0609353
4	0x3e23d64e	0.1599972
5	0x3dd2b195	0.10287777
6	0x3d545111	0.051835123
7	0x3dab493b	0.08363577
8	0xbd8de265	-0.06927947
9	0xbd0e75b1	-0.034780208
10	0x3c3218b4	0.0108701475
11	0x3e2a09d8	0.16605318
12	0xbc817248	-0.015801564
13	0x3ac4d1ee	0.0015016177
14	0x3d1dd0ef	0.038529333
15	0x3e28d0e2	0.16485932
16	0x3dec28d9	0.115312286
17	0x3d2a6240	0.041597605
18	0x3dea368e	0.11436187
19	0x3ca6e9a6	0.020375084
20	0x3b9e4481	0.0048299436
21	0xbd314a95	-0.043284018
22	0x3dfdef15	0.12399117
23	0x3caafac4	0.020871527
24	0xbd281fac	-0.04104583
25	0x3c103b79	0.008803242
26	0x3e0b4bfe	0.13603207
27	0x3d53488f	0.05158287
28	0x3e26507a	0.16241637
29	0xbd1c83c3	-0.038211595
30	0x3da18144	0.078859836
31	0x3dc8d775	0.0980672
32	0x3d83d8dc	0.06437847
33	0x3da522f4	0.080633074
34	0x3e13231e	0.14368865
35	0x3df61bec	0.120170444
36	0xbd227dc6	-0.03967073
37	0x3dea97ef	0.1145476
38	0xbd756b95	-0.05991705
39	0x3d831c02	0.064018264
40	0x3d6f3b29	0.05840603
41	0x3df7d728	0.12101585
42	0x3dab1ee0	0.08355498
43	0xbd5a8e84	-0.05335857
44	0x3dd3ebb0	0.10347688
45	0xbe377c45	-0.17918499
46	0x3d4f9f5e	0.050689094
47	0xbdc23ed4	-0.0948464
48	0xbe3f5a47	-0.18686782
49	0xbe23496c	-0.15945977
50	0x3c96842c	0.018373571
51	0x3d515af6	0.051112138
52	0xbde6b3f1	-0.1126479
53	0xbac8e2fd	-0.0015326437
54	0xbd85e7bc	-0.065383404
55	0xbdf299b4	-0.11845723
56	0xbe32486a	-0.17410436
57	0xbd89c8a6	-0.06727724
58	0xbc1ed225	-0.009693657
59	0x3c9da1ec	0.01924225
60	0xbc826d37	-0.015921218
61	0x3d60dd45	0.05489852
62	0xbcd51d6f	-0.026015012
63	0x3cb2df66	0.02183504
64	0xbe3a037c	-0.18165392
65	0xbe1d9a6e	-0.15390942
66	0x3abe9a60	0.0014541857
67	0x3c43f5d6	0.011960467
68	0xbe0a098a	-0.13480201
69	0x3cacbc3a	0.021085847
70	0x3cf74777	0.030185444
71	0xbd401781	-0.046897415
72	0xbc125ede	-0.008933751
73	0xbc227ae4	-0.009916995
74	0xbdf8600b	-0.12127694
75	0x3db2280a	0.08699043
76	0xbd38d23d	-0.045122374
77	0x3d90c815	0.070694126
78	0x3df3ef12	0.119108334
79	0xbd3d1ccf	-0.046170052
80	0xbd23e5cd	-0.040014077
81	0x3dee8d44	0.11648038
82	0x3d8e9857	0.0696265
83	0xbcc5e409	-0.024156587
84	0x3db79756	0.08964412
85	0x3df28452	0.11841644
86	0x3c9a17e5	0.018810222
87	0x3d843a0e	0.064563856
88	0x3dec0816	0.1152498
89	0x3e208396	0.15675196
90	0xbe1b39be	-0.15158746
91	0xbdc5095d	-0.096209265
92	0xbc7523c2	-0.014962139
93	0xbcf02fc4	-0.029319651
94	0xbd5bab32	-0.05363006
95	0xbe1e937a	-0.15485945
96	0xbdfe8833	-0.12428322
97	0xbdcd76f4	-0.10032454
98	0xbd360260	-0.04443586
99	0xbd5101fc	-0.051027283
100	0x3c29fad8	0.010374747
101	0xbdbb4230	-0.09143484
102	0xbe3d85fd	-0.18508144
103	0xbd8a986b	-0.06767353
104	0xbdd47c49	-0.10375268
105	0x3d3d4dc4	0.04621674
106	0x3d4a2d34	0.049359515
107	0xbb8fba49	-0.0043862206
108	0xbdc9166e	-0.09818731
109	0xbe1d3018	-0.15350378
110	0x3c59d34a	0.013295004
111	0xbb889e33	-0.0041692494
112	0x3c62edfa	0.013850683
113	0xbe061371	-0.13093354
114	0x3ca8d682	0.020610098
115	0xbd6f9d44	-0.05849959
116	0xbb506b14	-0.0031802105
117	0xbc1bbd6c	-0.009505611
118	0x3d915f26	0.07098226
119	0xbd258f75	-0.040420014
120	0xbe3c42f8	-0.18384922
121	0xbe288b46	-0.16459379
122	0xbd09735c	-0.03355728
123	0xbdcd7c05	-0.100334205
124	0xbe0376e9	-0.1283833
125	0xbd6237e5	-0.055229086
126	0xbe1e4577	-0.15456186
127	0x3ba95507	0.0051676068
128	0xb88ba534	-6.658808e-05
129	0x3b95153e	0.0045496514
130	0x3c316109	0.010826358
131	0xbe45b8b5	-0.19308741
132	0x3a023cab	0.00049681467
133	0xbd468074	-0.048462346
134	0x3bbfedf2	0.0058572227
135	0x3dcbcf3a	0.09951635
136	0x3dc1b08f	0.09457504
137	0x3dcda0ff	0.10040473
138	0x3d9d38fa	0.07676883
139	0x3e0bc6ef	0.13650106
140	0x3af73a2d	0.0018861942
141	0x3d9269fa	0.0714912
142	0x3deaf12b	0.114717804
143	0x3d91c65a	0.07117911
144	0x3d5d7ef7	0.05407616
145	0xba9ea0bd	-0.0012102347
146	0x3bb74427	0.005592841
147	0x3c4db635	0.012555649
148	0x3d697859	0.056999538
149	0x3e0261c4	0.12732607
150	0x3d24a4df	0.040196296
151	0x3d9b9ca5	0.07598237
152	0xbd11b9eb	-0.035577696
153	0xbd26e007	-0.040740993
154	0xbcae57b1	-0.021282049
155	0xbd6c4575	-0.057683427
156	0x3dde8b77	0.108664446
157	0x3db2ab8e	0.08724128
158	0xbdc537ef	-0.09629809
159	0xbd0c94ae	-0.03432148
160	0xbcfdf7ab	-0.031001886
161	0xbd11e500	-0.035618782
162	0x3dcb3cb4	0.099236876
163	0xbb837160	-0.004011318
164	0xbdf1ca29	-0.11806137
165	0xbc9a9596	-0.018870156
166	0xbd30a1b8	-0.043122977
167	0xbd82bab3	-0.06383266
168	0xbdbbc3d9	-0.09168214
169	0xbd5e9232	-0.05433864
170	0xbdf80810	-0.12110913
171	0xbd918644	-0.07105687
172	0xbe402331	-0.18763424
173	0xbe3e9e16	-0.18614992
174	0xbd804e7e	-0.06264971
175	0x3d0ca1b5	0.034333903
176	0xbcfd1b05	-0.030896673
177	0xbde5b8d8	-0.11216897
178	0xbe26ca7d	-0.1628818
179	0xbd392d90	-0.045209467
180	0x3d9da2dd	0.07697079
181	0x3d072517	0.032994356
182	0xbd256118	-0.0403758
183	0xbad98e4e	-0.0016598196
184	0xbd3d549e	-0.046223275
185	0xbd59c337	-0.053164687
186	0x3da3f7a0	0.08006215
187	0xbc8da760	-0.017291725
188	0x3d5874f0	0.052845895
189	0xbda98646	-0.08277564
190	0xbc9d8e35	-0.019232849
191	0xbd64808b	-0.05578665
192	0x3d00765c	0.031362876
193	0x3d9105fd	0.0708122
194	0xbd68fb62	-0.056880362
195	0xbdbf5a32	-0.09343375
196	0xbc0c793e	-0.008573828
197	0xbcf216da	-0.029551912
198	0x3d4e6da5	0.050397534
199	0xbdc127e6	-0.09431438
200	0xbde0aecf	-0.10970842
201	0x3d9b1593	0.07572474
202	0xbd947b1f	-0.07250046
203	0xbdd32100	-0.103090286
204	0xbdaef831	-0.085434325
205	0x3d9d70e0	0.07687545
206	0xbd746753	-0.05966885
207	0x3c8c2bfe	0.01711082
208	0x3d3ce2aa	0.0461146
209	0x3d9f8993	0.07789912
210	0x3da145a8	0.07874614
211	0x3d5e8215	0.054323275
212	0xbd1333b9	-0.035938
213	0x3e244a56	0.16043982
214	0x3bbed174	0.0058233086
215	0xbd378914	-0.044808462
216	0xbd91c116	-0.07116906
217	0xbd8a9d66	-0.067683026
218	0x3e118d7a	0.14214125
219	0x3e214002	0.15747073
220	0xbcfafdc3	-0.030638581
221	0xbd7cc186	-0.061707996
222	0x3de77867	0.11302262
223	0x3e18222c	0.14856786
224	0x3de5d1d3	0.112216614
225	0xbd4858ef	-0.04891294
226	0x3d084dad	0.033277202
227	0xbe28c8cb	-0.16482846
228	0x3cdeb7a7	0.027187182
229	0xbe43290e	-0.1905863
230	0xbd9af907	-0.075670294
231	0xbde93f37	-0.113890104
232	0x3d434abc	0.047678694
233	0xbda293a2	-0.07938315
234	0xbe39c705	-0.18142326
235	0x3ca50b81	0.020147087
236	0xbe4bc7f8	-0.19900501
237	0x3d3d8452	0.04626877
238	0xbe2e46fb	-0.17019264
239	0xbb7b790d	-0.0038371712
240	0xbd222d4d	-0.039593983
241	0xbe20dfea	-0.15710416
242	0xbe3ba60c	-0.1832506
243	0xbd941002	-0.07229616
244	0xbdaa43c2	-0.08313705
245	0xbe118fc7	-0.14215003
246	0xbe15f9b5	-0.14646037
247	0xbd8d3d7b	-0.06896492
248	0xbda4c14e	-0.080446824
249	0xbc15baa9	-0.0091387415
250	0xbd473bb8	-0.048640937
251	0xbd73d2bb	-0.05952714
252	0xbe31106a	-0.17291418
253	0x3b06ecf4	0.0020588012
254	0xbe30ef51	-0.17278792
255	0xbd6d1247	-0.05787876

gru.weight_hh_l0 f4 [192, 64]
0	0xbcc0fd79	-0.023558365
1	0x3dd7158e	0.10502158
2	0x3da941c4	0.08264497
3	0x3cad3c2c	0.021146856
4	0x3dabdca6	0.08391695
5	0x3e19ebbe	0.15031335
6	0x3c8c39b9	0.017117368
7	0xbd32c6e6	-0.043646716
8	0x3ddcacaf	0.10775124
9	0x3dfd7506	0.12375836
10	0x3e13f15e	0.14447543
11	0xbc791b71	-0.015204296
12	0x3dee5f4f	0.116392724
13	0x3dedc6b1	0.11610163
14	0xbdf0f0b0	-0.117646575
15	0xbcf2b763	-0.029628461
16	0x3bcde377	0.0062832194
17	0x3e24c40d	0.16090412
18	0xbe01c305	-0.1267205
19	0xbdd47209	-0.10373313
20	0x3b9acbb1	0.004723989
21	0x3d3f8fc8	0.04676798
22	0xbd9ca436	-0.07648508
23	0x3dd1efdf	0.1025083
24	0x3db1d9e5	0.08684138
25	0x3ca8f35f	0.02062386
26	0xbcd6e6ad	-0.026233042
27	0xbd19c5fc	-0.03754233
28	0x3da92971	0.082598574
29	0xbd3effb9	-0.046630595
30	0x3e214025	0.15747125
31	0x3bffe98a	0.0078098224
32	0xbc7d0560	-0.015443176
33	0x3de901a8	0.11377269
34	0xbdcbf8ef	-0.0995959
35	0xbdc5d8b4	-0.096604735
36	0x3d9ea909	0.07747085
37	0xbc89857c	-0.016787283
38	0xbb40bec1	-0.0029410573
39	0x3e17fcfc	0.148426
40	0xbdf4bb71	-0.11949814
41	0xbc04263d	-0.008065757
42	0x3b4f419b	0.0031624797
43	0xbdf4de08	-0.119564116
44	0xbd4fc1a8	-0.050721794
45	0xbdf755b6	-0.12076895
46	0xbdf97b3a	-0.12181707
47	0x3e05bbf8	0.13059986
48	0xbd40e220	-0.04709065
49	0xbd9cfbe7	-0.07665234
50	0xbd324998	-0.043527216
51	0xbd77b92c	-0.060479328
52	0xbd3d5ce0	-0.04623115
53	0x3e0a24ac	0.13490552
54	0x3d3506ae	0.044195823
55	0xbd9702f9	-0.07373614
56	0x3e068ed3	0.1314042
57	0x3d9d6757	0.07685726
58	0xbd7f359b	-0.06230698
59	0x3b80f586	0.0039355187
60	0x3d31894a	0.04334382
61	0xbd8ef6fa	-0.06980701
62	0xbd08aa26	-0.03336539
63	0xbdb13c96	-0.08654134
64	0x3e2df256	0.16986975
65	0x3da71ab5	0.08159391
66	0xbd7eacbb	-0.062176447
67	0x3d10ffb2	0.0354001
68	0x3c3307ff	0.010927199
69	0xbd44260c	-0.047887847
70	0xbd8568d5	-0.06514136
71	0xbdf1ec31	-0.11812628
72	0xbccba15a	-0.024857212
73	0xbd71a40e	-0.058994345
74	0x3c392d62	0.011302324
75	0xbcc874d5	-0.024469772
76	0xbd264341	-0.040591482
77	0xbaa71c24	-0.0012749475
78	0xbcec7f4b	-0.028869292
79	0xbd3ffe57	-0.046873417
80	0xbe017ee7	-0.12646066
81	0x3dea04a5	0.11426667
82	0x3da962f0	0.08270824
83	0xbd5661b2	-0.052339263
84	0xb9c11e53	-0.00036834422
85	0x3cd60195	0.026123801
86	0xbe12b7c7	-0.14327918
87	0x3df108cb	0.11769255
88	0x3d5eea39	0.05442259
89	0x3b32c266	0.0027276515
90	0xbd68043f	-0.056644674
91	0x3cc6187a	0.024181593
92	0xbd03ed2f	-0.032208618
93	0x3e0d4baf	0.13798402
94	0xbb88878d	-0.0041665495
95	0xbe0ec858	-0.13943613
96	0xbd18d3f7	-0.03731152
97	0x3e2506f7	0.16115938
98	0x3ca6831e	0.020326193
99	0xbe0f1b8f	-0.13975357
100	0xbda2d6e8	-0.07951146
101	0x3dcda2ee	0.10040842
102	0xbd043df4	-0.032285646
103	0xbbb902e0	-0.0056460947
104	0xbdd88fab	-0.105742775
105	0xbda9c649	-0.08289773
106	0x3d88322b	0.06650194
107	0xbde7e174	-0.11322299
108	0x3cccbfc2	0.024993781
109	0x3cadf44e	0.021234658
110	0x3d3c20a0	0.04592955
111	0x3d2051dc	0.039140567
112	0x3dd1647f	0.10224246
113	0x3d179f99	0.03701744
114	0x3ca8f652	0.020625267
115	0x3d5366b6	0.051611625
116	0x3cd1b446	0.025598656
117	0x3e316cf8	0.17326725
118	0x3cd90eb1	0.026496263
119	0xbe10cfef	-0.1414182
120	0x3d21e6ff	0.039526936
121	0xbd0eeb0e	-0.034892134
122	0xbd9eaedf	-0.07748198
123	0xbdab452c	-0.08362803
124	0x3da2ecd7	0.0795533
125	0xbdc1e28f	-0.09467041
126	0x3de52cef	0.11190211
127	0xbd884f7d	-0.06655786
128	0x3e01d23c	0.12677854
129	0x3b31efcb	0.0027150984
130	0x3d556d35	0.0521061
131	0xbd9e9879	-0.077439256
132	0x3dc9cdf3	0.09853735
133	0x3d734b19	0.05939779
134	0x3cdb5a78	0.026776537
135	0xbcc63292	-0.024194036
136	0xbd33079b	-0.043708425
137	0xbd1853cb	-0.037189286
138	0xbe04651c	-0.12929195
139	0xb9e279da	-0.00043196866
140	0xbc294e58	-0.01033362
141	0xbca39c44	-0.019971974
142	0xbe2da11f	-0.16955994
143	0x3d86b02c	0.06576571
144	0x3d03de06	0.03219416
145	0x3e093137	0.1339768
146	0x3cd3b293	0.025841987
147	0x3ce52f32	0.027976606
148	0xbd4c88d7	-0.04993519
149	0x3dd653a4	0.10465172
150	0xbde6553c	-0.11246726
151	0x3d092616	0.033483587
152	0x3e0bbd81	0.13646509
153	0x3e05f0f9	0.13080205
154	0xbdce9eb3	-0.10088863
155	0x3d75efaf	0.060043033
156	0x3e27ccc1	0.16386701
157	0xbd1d17f6	-0.03835293
158	0xbc8de023	-0.01731879
159	0xbd8da92e	-0.06917034
160	0xbe36817f	-0.17822836
161	0xbcdc7b37	-0.026914222
162	0xbda2c757	-0.07948177
163	0xbc602408	-0.0136804655
164	0xbd81d69f	-0.06339764
165	0xbc75550d	-0.014973891
166	0xbd6f2a1d	-0.05838977
167	0x3d73cd28	0.059521824
168	0xbdea679e	-0.11445545
169	0x3de92547	0.11384063
170	0xbd4d5ec4	-0.050139204
171	0x3d6bd780	0.057578564
172	0xbd72121c	-0.0590993
173	0xbdebd86e	-0.1151589
174	0x3d879c0f	0.06621563
175	0xbd3c77d1	-0.046012703
176	0xbd1ef58e	-0.038808398
177	0xbd145e65	-0.036222834
178	0xbc44ab1e	-0.012003688
179	0xbd51bad5	-0.051203568
180	0x3e27d914	0.16391402
181	0x3e126b22	0.1429868
182	0xbd6a7c5a	-0.057247497
183	0xbe127720	-0.14303255
184	0x3cbd8628	0.02313526
185	0xbbbed955	-0.005824248
186	0x3cd80877	0.026371224
187	0xbd55d034	-0.05220051
188	0x3c8660a3	0.016403502
189	0xbe4081ab	-0.18799464
190	0xbda9583e	-0.08268784
191	0xbd7e422f	-0.062074836
192	0xbd35e103	-0.04440404
193	0x3cfe838c	0.031068586
194	0xbe327889	-0.17428793
195	0xbcbfb68c	-0.023402475
196	0xbe3f2d9b	-0.18669741
197	0xbc166baf	-0.009180947
198	0x3c98e151	0.018662127
199	0x3dd7eafa	0.10542865
200	0xbdbceb0c	-0.09224519
201	0xbd00d938	-0.031457156
202	0xbde9cc48	-0.11415917
203	0x3dbbc9da	0.091693595
204	0xbe08d89c	-0.1336388
205	0xbd681df4	-0.05666919
206	0x3d143f95	0.03619345
207	0xbdf6e356	-0.1205508
208	0x3e042d89	0.12907995
209	0xbcfae347	-0.030625952
210	0x3e1213be	0.14265344
211	0x3dcb5643	0.099285625
212	0x3dac7fa0	0.0842278
213	0xbd8b5254	-0.06802812
214	0xbd019053	-0.03163178
215	0xbbc9cfac	-0.0061587896
216	0xbde6a16f	-0.1126126
217	0xbe1ea924	-0.1549421
218	0x3db5c2ff	0.08875083
219	0x3e0efb6b	0.13963096
220	0xbc672c4e	-0.014109684
221	0xbc85b05a	-0.016319443
222	0xbe058e4b	-0.13042562
223	0x3e5605b7	0.20900618
224	0x3cc95a66	0.024579238
225	0x3be4896d	0.0069743902
226	0x3cf2be55	0.029631773
227	0x3b4deaf5	0.0031420563
228	0x3e1b775e	0.15182254
229	0xbe0dbe3a	-0.13842097
230	0x3d9ba018	0.07598895
231	0xbe0236b6	-0.12716183
232	0x3da9ecd1	0.08297122
233	0xbdc98dd1	-0.098415025
234	0xbdb9beb9	-0.090695806
235	0x3e2bcfc9	0.16778482
236	0x3daaee94	0.083462864
237	0x3baa6bdc	0.005200846
238	0xbb232323	-0.002489277
239	0x3be01436	0.006838347
240	0xbdb4c880	-0.08827305
241	0x3dc36d9f	0.09542393
242	0xbe39369b	-0.18087237
243	0x3d205a0b	0.03914837
244	0xbd38c86a	-0.045113005
245	0xbe1019bd	-0.14072318
246	0x3deb130e	0.11478244
247	0x3d6980b9	0.057007525
248	0x3bba8ded	0.0056931884
249	0x3c537218	0.01290562
250	0x3e1d3485	0.15352066
251	0x3e1bbe11	0.15209223
252	0xbc870407	-0.016481413
253	0x3e4b8a9f	0.19877099
254	0xbd94c6e1	-0.07264496
255	0x3e128965	0.14310224

gru.bias_ih_l0 f4 [192]
0	0xbc99e271	-0.018784733
1	0x3e0c3348	0.13691437
2	0x3d7a6945	0.06113555
3	0xbd61c9e7	-0.05512419
4	0xbe025ec4	-0.12731463
5	0x3d9837ea	0.0743254
6	0x3d15acc6	0.036541723
7	0xbe11c233	-0.14234237
8	0xbd975446	-0.07389121
9	0x3dd69036	0.10476725
10	0x3da58f6a	0.08083995
11	0xbe17071a	-0.14748803
12	0xbd754e7d	-0.059889305
13	0xbdff0520	-0.124521494
14	0xbb5f8300	-0.0034105182
15	0x3d45392a	0.04815022
16	0xbbb1e7f7	-0.0054292637
17	0xbd77f9d5	-0.060540993
18	0xbd29210f	-0.041291293
19	0xbd8b15d3	-0.06791272
20	0x3c60ebaa	0.013728062
21	0x3d001a6f	0.03127521
22	0xbe0df29d	-0.13862081
23	0xbbbc3558	-0.0057436638
24	0x3e07c05a	0.1325697
25	0x3df19c70	0.11797416
26	0xbd926487	-0.0714808
27	0x3da73f79	0.08166403
28	0xbd36a38a	-0.044589557
29	0xbcab07f2	-0.020877812
30	0x3d6e0d2d	0.058118034
31	0x3c77ca7c	0.01512396
32	0xbcf90f9f	-0.030402957
33	0x3d467c77	0.048458543
34	0x3dc844ea	0.09778769
35	0x3d8cc0a3	0.0687268
36	0x3b60a450	0.0034277625
37	0x3e0b21db	0.13587134
38	0xbd806572	-0.06269349
39	0x3defebd2	0.11714901
40	0xbdbf38e2	-0.093370214
41	0xbdf17b2c	-0.11791071
42	0xbe138411	-0.14405848
43	0x3d66c8d7	0.05634388
44	0xbe34afda	-0.17645207
45	0xbdf6c4a3	-0.12049224
46	0x3d9e4ce1	0.07729507
47	0xbd46ea59	-0.048563335
48	0xbd301b73	-0.042994928
49	0x3d5f0d98	0.054456323
50	0xbd80358a	-0.06260212
51	0x3cf635ce	0.030054953
52	0xbd7c379d	-0.061576474
53	0xbda24fb6	-0.0792536
54	0x3d07ff6d	0.033202577
55	0xbd9f9c8a	-0.07793529
56	0xbe2abcfe	-0.16673657
57	0xbd18075f	-0.037116405
58	0xbd8902d6	-0.06689994
59	0x3e0c5586	0.137045
60	0x3d822db1	0.06356371
61	0x3c3e3091	0.011608259
62	0xbe400c69	-0.18754734
63	0x3da76a16	0.08174531
64	0xbde7f431	-0.11325873
65	0xbdd855f4	-0.10563269
66	0xbdab55be	-0.083659634
67	0xbdd501c5	-0.10400728
68	0x3e8a005a	0.26953393
69	0xbd864558	-0.06556195
70	0xbd1c9404	-0.038227096
71	0x3df608f3	0.12013426
72	0x3dc12962	0.09431721
73	0xbd1d4c05	-0.038402576
74	0x3dd45695	0.10368077
75	0xbc3a2e35	-0.011363556
76	0x3e94c3e0	0.2905569
77	0xbe41207e	-0.18860051
78	0xbdc29841	-0.095016964
79	0xbe6f26ae	-0.23354599
80	0x3d19694e	0.037453942
81	0xbdaa254e	-0.083078966
82	0xbcb59da0	-0.022169888
83	0xbd2f2c4b	-0.04276685
84	0xbdcb968c	-0.09940824
85	0x3d87b123	0.06625583
86	0xbceef1b0	-0.02916798
87	0xbe141883	-0.14462475
88	0xbddf7723	-0.109113954
89	0x3d545f9d	0.051848996
90	0xbda33a17	-0.07970064
91	0x3dfafd5a	0.12255354
92	0xbd86c43d	-0.06580398
93	0x3d9c7071	0.07638634
94	0xbe121473	-0.14265613
95	0xbca1a8dc	-0.019733839
96	0x3d37affb	0.044845562
97	0xbdf86ea4	-0.12130478
98	0x3c0a7ba6	0.008452332
99	0xbd123e2f	-0.035703834
100	0x3e9871df	0.29774377
101	0xbe7cff5c	-0.24706787
102	0xbe0002a7	-0.12501012
103	0x3c117f65	0.008880471
104	0xbdb25315	-0.08707253
105	0xbbe50d1f	-0.0069900895
106	0x3eb4454b	0.35209116
107	0x3db8e43a	0.09027906
108	0xbc90c23e	-0.017670747
109	0xbe2137d4	-0.15743953
110	0xbdeffcd0	-0.11718142
111	0xbcb8f9e8	-0.022580102
112	0x3d58a22b	0.05288903
113	0x3e8fc337	0.28078625
114	0xbd437ac6	-0.047724508
115	0x3db022be	0.086003765
116	0xbccddba8	-0.025129154
117	0xbe677c55	-0.22606023
118	0xbda230ae	-0.07919441
119	0x3dd61b72	0.104544535
120	0x3cc8d51a	0.024515677
121	0xbde8f67d	-0.11375139
122	0xbdd741ef	-0.10510623
123	0x3d98ea11	0.074665196
124	0xbd950c4f	-0.07277738
125	0xbcaaba83	-0.020840889
126	0x3d8e0cd1	0.06936038
127	0xbd202347	-0.039096143
128	0xbb992cd6	-0.0046745343
129	0x3e0c4190	0.13696885
130	0x3dfc71b8	0.12326378
131	0x3d88dc22	0.06682612
132	0xbd7dfecb	-0.062010568
133	0x3dd700b0	0.10498178
134	0xbe186727	-0.148831
135	0xbe04544b	-0.1292278
136	0xbc82571c	-0.015910678
137	0x3d42dfe8	0.047576815
138	0xbc8470ef	-0.016167132
139	0xbd20e57d	-0.039281357
140	0xbde125b8	-0.109935224
141	0x3e0518f1	0.12997796
142	0xbd1ac675	-0.03778692
143	0xbd192be5	-0.037395377
144	0xbc90bf92	-0.017669473
145	0x3c8448d5	0.01614801
146	0x3c60ef4b	0.013728927
147	0xbc84941e	-0.016183909
148	0xbd535f9e	-0.05160486
149	0x3d687ab5	0.056757648
150	0x3c9b68b3	0.018970823
151	0xbde3bd5c	-0.11120102
152	0x3d808f2e	0.06277309
153	0x3e0d3a97	0.13791882
154	0x3d122bef	0.03568643
155	0x3d38df4f	0.04513484
156	0xbd78183d	-0.06056999
157	0xbd82a2cf	-0.063787095
158	0x3d5cba64	0.053888693
159	0xbcef19e3	-0.029187148
160	0xbc8d259c	-0.017229848
161	0x3e17052a	0.14748064
162	0x3d1cd903	0.038292896
163	0xbdd9591d	-0.106127
164	0xbb72be86	-0.003703983
165	0x3e06cc4c	0.1316387
166	0xbc8f4390	-0.017488271
167	0x3e1b9fd3	0.15197687
168	0xbd9ff4b1	-0.07810343
169	0xbdbbfb01	-0.091787346
170	0x3cf89312	0.030343566
171	0x3d87899b	0.06618043
172	0xbd916ca9	-0.071008034
173	0xbc2da070	-0.010597333
174	0xbddd058d	-0.10792074
175	0xbd91efc7	-0.07125812
176	0xba5f06b6	-0.0008507775
177	0xbc67002e	-0.014099164
178	0xbd95d108	-0.0731526
179	0xbdd6e673	-0.104931735
180	0x3e2be300	0.16785812
181	0x3e12213f	0.14270495
182	0xbdc7b095	-0.09750477
183	0xbdf8b328	-0.12143546
184	0x3d4d7e42	0.050169237
185	0xbdb05184	-0.08609298
186	0xbd5b4df3	-0.053541135
187	0xbda803c9	-0.08203847
188	0xbd5e15bc	-0.054219946
189	0xbdba691f	-0.091020815
190	0x3da5b6db	0.080915175
191	0xbd473ba0	-0.048640847

gru.bias_hh_l0 f4 [192]
0	0x3e114bca	0.14189067
1	0x3d5c5077	0.053787675
2	0x3dd439b9	0.10362572
3	0xbe0c0a9b	-0.1367592
4	0xbe2fa56b	-0.17152946
5	0xbda0c840	-0.07850695
6	0x3c211c44	0.009833399
7	0xbd9b4ab0	-0.07582605
8	0xbe24b2b5	-0.16083796
9	0x3c5eeb07	0.01360584
10	0xbe0f0ec3	-0.13970475
11	0xbd5bd364	-0.053668395
12	0x3cb79e5a	0.022414375
13	0xbdc275b5	-0.09495107
14	0xbd6ffce9	-0.058590803
15	0xbde19a6f	-0.11015784
16	0xbd30106f	-0.042984422
17	0xbb45b3cd	-0.0030166984
18	0x3e2d89e3	0.16947131
19	0x3c5e95f1	0.0135855535
20	0xbcb2562a	-0.021769602
21	0xbd9a06da	-0.07520838
22	0xbdbff51b	-0.09372922
23	0xbdb0c187	-0.086306624
24	0x3debbe3f	0.11510896
25	0x3e285fc9	0.16442789
26	0x3bebe560	0.0071989745
27	0x3d87f2db	0.06638118
28	0xbd9d0464	-0.07666853
29	0x3de8ed2e	0.113733634
30	0x3df24694	0.11829868
31	0xbc8a7812	-0.016902957
32	0xbb9b177e	-0.004733025
33	0xbcc6014b	-0.024170538
34	0x3d3b5734	0.04573746
35	0x3d7ecd14	0.062207296
36	0xbd9cce66	-0.07656555
37	0x3d66c130	0.05633658
38	0xbe14a551	-0.14516188
39	0x3e148102	0.14502338
40	0xbd9c393c	-0.07628104
41	0xbe088712	-0.13332775
42	0xbdf71910	-0.12065327
43	0x3de5503a	0.111969426
44	0x3d1789b6	0.036996566
45	0xbd8acbd3	-0.06777158
46	0xbdb6e407	-0.089302115
47	0x3e1bdba8	0.15220511
48	0xbd4b8861	-0.049690608
49	0xbdaa5be0	-0.08318305
50	0x3d83fd78	0.0644483
51	0xbd67bb70	-0.05657524
52	0x3d5beed8	0.053694576
53	0xbd43e307	-0.047823932
54	0x3d1a725f	0.03770673
55	0x3cb0606d	0.021530354
56	0xbddd7277	-0.10812848
57	0xbd49a77d	-0.049231995
58	0xbd4de8ac	-0.05027072
59	0x3d552b67	0.052043345
60	0x3dfe7df6	0.12426369
61	0x3c14f488	0.009091504
62	0xbda0ca3c	-0.07851073
63	0xbd2edb42	-0.04268957
64	0xbd971491	-0.073769696
65	0xbe8f34b5	-0.279699
66	0xbe4d963a	-0.20076838
67	0xbe13f92f	-0.14450525
68	0x3e6fa266	0.23401794
69	0x3c38716d	0.011257512
70	0xbd4395f8	-0.047750443
71	0x3e021c4e	0.1270611
72	0x3e001737	0.12508856
73	0xbda412c0	-0.08011389
74	0x3e96a914	0.2942587
75	0xbde96c28	-0.11397582
76	0x3e2dd16b	0.16974418
77	0xbdc12e47	-0.09432655
78	0xbe5f9f3b	-0.21838085
79	0xbdfd4dc7	-0.123683505
80	0x3d26f30e	0.04075914
81	0xbcefc22c	-0.029267393
82	0xbe23d522	-0.15999272
83	0xbdb9d5d0	-0.090739846
84	0xbd853cf7	-0.06505769
85	0x3e1b6d33	0.15178375
86	0xbced25e8	-0.02894874
87	0xbe3c115e	-0.18366
88	0x3ca25b13	0.019818818
89	0xbdea1c58	-0.114311874
90	0xbc6aa056	-0.014320454
91	0x3eab589a	0.33466035
92	0xbe350c81	-0.17680551
93	0x3d829ac8	0.063771784
94	0xbe1a1b67	-0.15049516
95	0xbddfa7f6	-0.10920708
96	0xbc93f13b	-0.018059364
97	0x3c1cc9e3	0.009569618
98	0x3df5a4e1	0.11994339
99	0xbd70755d	-0.058705676
100	0x3e0a6f5f	0.13519047
101	0xbe2994c4	-0.16560656
102	0xbd18ae50	-0.037275612
103	0x3d998289	0.07495601
104	0x3df6ef75	0.120573916
105	0xbd96fe85	-0.073727645
106	0x3e51ff9e	0.20507666
107	0x3d2ef0f7	0.04271027
108	0xbe0323e7	-0.12806664
109	0xbe16a690	-0.14711976
110	0xbc26f27f	-0.0101896515
111	0xbe12ba81	-0.14328958
112	0x3ceefd80	0.029173613
113	0x3e97cfac	0.2965063
114	0x3dc07cb3	0.093987845
115	0xbcbd9f58	-0.02314727
116	0xbe44a418	-0.19203222
117	0xbe4906f5	-0.1963156
118	0x3d1c9647	0.038229253
119	0x3dcd4c74	0.10024348
120	0xbdfbad6e	-0.122889385
121	0xbe0a099f	-0.13480233
122	0xbe190310	-0.14942575
123	0xbc848d56	-0.016180675
124	0x3de5d608	0.11222464
125	0x3ddc392e	0.10753094
126	0xbdf74b34	-0.12074891
127	0xbe5529a9	-0.20816673
128	0x3dd59573	0.10428896
129	0x3d86478c	0.06556615
130	0x3dbfc0c1	0.09362937
131	0xbd8f319c	-0.06991884
132	0xbb9b17ad	-0.004733047
133	0x3da4aff1	0.08041371
134	0xbc0009a3	-0.007814798
135	0xbdea17b2	-0.11430301
136	0x3d759465	0.059955973
137	0x3dfa4735	0.12220613
138	0xbc388edd	-0.01126453
139	0x3d81fa3d	0.06346557
140	0xbc21ee59	-0.009883487
141	0x3ddac327	0.106817536
142	0xbd1b6f9f	-0.037948247
143	0xbdb31825	-0.087448396
144	0xbd799e48	-0.060941964
145	0xbd7ac757	-0.06122526
146	0xbdfc83bd	-0.123298146
147	0xbdfa7a30	-0.12230337
148	0xbd20dfd6	-0.039275967
149	0xbd8b06a0	-0.06788373
150	0xbd047491	-0.03233773
151	0x3aa1ae06	0.0012335188
152	0x3dfafe98	0.12255591
153	0x3d0e0a64	0.034677878
154	0x3d0abd94	0.033872202
155	0xbd7a265e	-0.061071746
156	0x3d6932ac	0.05693309
157	0x3d0d5e46	0.034513734
158	0x3daea97c	0.0852842
159	0xbcaacb14	-0.020848788
160	0x3d15fdcc	0.036618993
161	0x3d1922fd	0.037386883
162	0xbd156d89	-0.036481414
163	0xbb72f6b4	-0.0037073316
164	0x3b9a4a6c	0.004708579
165	0x3e21db87	0.158064
166	0x3cd57883	0.026058441
167	0x3df89170	0.12137115
168	0xbcad2d16	-0.021139663
169	0xbda92d67	-0.08260613
170	0x3c716b73	0.014735091
171	0xbdadc89c	-0.08485529
172	0x3d012790	0.03153187
173	0x3d988287	0.07446771
174	0xbd8e63c2	-0.06952621
175	0x3e20c926	0.15701732
176	0xbde45f9c	-0.111510485
177	0x3d9e0b9f	0.0771706
178	0xbc51a023	-0.012794527
179	0xbdd74ea4	-0.105130464
180	0x3e2142b4	0.15748101
181	0x3de25264	0.11050871
182	0xbcaaa6bc	-0.020831458
183	0x3dfbaac8	0.12288433
184	0xbc0b0294	-0.008484501
185	0x3e290a26	0.16507778
186	0xbda0bb4d	-0.07848225
187	0x3d6162f9	0.05502603
188	0xbcd4c967	-0.025974942
189	0x3ce8eaec	0.028432332
190	0xbd8b7cd0	-0.068109155
191	0xbd4d8372	-0.050174184

gru_bn.weight f4 [49]
0	0x3f800000	1.0
1	0x3f800000	1.0
2	0x3f800000	1.0
3	0x3f800000	1.0
4	0x3f800000	1.0
5	0x3f800000	1.0
6	0x3f800000	1.0
7	0x3f800000	1.0
8	0x3f800000	1.0
9	0x3f800000	1.0
10	0x3f800000	1.0
11	0x3f800000	1.0
12	0x3f800000	1.0
13	0x3f800000	1.0
14	0x3f800000	1.0
15	0x3f800000	1.0
16	0x3f800000	1.0
17	0x3f800000	1.0
18	0x3f800000	1.0
19	0x3f800000	1.0
20	0x3f800000	1.0
21	0x3f800000	1.0
22	0x3f800000	1.0
23	0x3f800000	1.0
24	0x3f800000	1.0
25	0x3f800000	1.0
26	0x3f800000	1.0
27	0x3f800000	1.0
28	0x3f800000	1.0
29	0x3f800000	1.0
30	0x3f800000	1.0
31	0x3f800000	1.0
32	0x3f800000	1.0
33	0x3f800000	1.0
34	0x3f800000	1.0
35	0x3f800000	1.0
36	0x3f800000	1.0
37	0x3f800000	1.0
38	0x3f800000	1.0
39	0x3f800000	1.0
40	0x3f800000	1.0
41	0x3f800000	1.0
42	0x3f800000	1.0
43	0x3f800000	1.0
44	0x3f800000	1.0
45	0x3f800000	1.0
46	0x3f800000	1.0
47	0x3f800000	1.0
48	0x3f1b0391	0.60552317

gru_bn.bias f4 [49]
0	0x00000000	0.0
1	0x00000000	0.0
2	0x00000000	0.0
3	0x00000000	0.0
4	0x00000000	0.0
5	0x00000000	0.0
6	0x00000000	0.0
7	0x00000000	0.0
8	0x00000000	0.0
9	0x00000000	0.0
10	0x00000000	0.0
11	0x00000000	0.0
12	0x00000000	0.0
13	0x00000000	0.0
14	0x00000000	0.0
15	0x00000000	0.0
16	0x00000000	0.0
17	0x00000000	0.0
18	0x00000000	0.0
19	0x00000000	0.0
20	0x00000000	0.0
21	0x00000000	0.0
22	0x00000000	0.0
23	0x00000000	0.0
24	0x00000000	0.0
25	0x00000000	0.0
26	0x00000000	0.0
27	0x00000000	0.0
28	0x00000000	0.0
29	0x00000000	0.0
30	0x00000000	0.0
31	0x00000000	0.0
32	0x00000000	0.0
33	0x00000000	0.0
34	0x00000000	0.0
35	0x00000000	0.0
36	0x00000000	0.0
37	0x00000000	0.0
38	0x00000000	0.0
39	0x00000000	0.0
40	0x00000000	0.0
41	0x00000000	0.0
42	0x00000000	0.0
43	0x00000000	0.0
44	0x00000000	0.0
45	0x00000000	0.0
46	0x00000000	0.0
47	0x00000000	0.0
48	0x3b733509	0.003711047

gru_bn.running_mean f4 [49]
0	0x3cc87e6b	0.024474343
1	0x3d04036d	0.03222983
2	0x3cd6141d	0.026132638
3	0x3c9e0514	0.01928953
4	0x3c66318c	0.014049899
5	0x3c23feb7	0.010009459
6	0x3be0505b	0.0068455166
7	0x3b8e847c	0.0043492895
8	0x3b1bc5b9	0.0023768975
9	0x3a552b71	0.00081317784
10	0xb9de877c	-0.00042444083
11	0xbab8e7a6	-0.0014107123
12	0xbb0fe42e	-0.0021956074
13	0xbb38f336	-0.0028221137
14	0xbb5993c7	-0.0033199654
15	0xbb73a4b9	-0.003717704
16	0xbb843ed0	-0.004035808
17	0xbb8c9981	-0.00429076
18	0xbb934be7	-0.0044951322
19	0xbb98ad35	-0.0046593198
20	0xbb9d01f5	-0.004791493
21	0xbba07efc	-0.00489795
22	0xbba34fa7	-0.0049838605
23	0xbba595e0	-0.005053267
24	0xbba76ffe	-0.005109786
25	0xbba8f13e	-0.0051557114
26	0xbbaa2ab9	-0.005193081
27	0xbbab28f2	-0.005223387
28	0xbbabf726	-0.0052479682
29	0xbbac9f50	-0.005268015
30	0xbbad2933	-0.0052844523
31	0xbbad99f5	-0.005297894
32	0xbbadf8e4	-0.005309211
33	0xbbae418b	-0.005317872
34	0xbbae7fba	-0.005325285
35	0xbbaeb3a8	-0.0053314753
36	0xbbaede4c	-0.0053365584
37	0xbbaf002b	-0.005340596
38	0xbbaf1c4a	-0.0053439485
39	0xbbaf32cd	-0.005346632
40	0xbbaf4576	-0.0053488566
41	0xbbaf544d	-0.0053506256
42	0xbbaf6026	-0.005352038
43	0xbbaf6b46	-0.005353364
44	0xbbaf728b	-0.0053542308
45	0xbbaf783d	-0.0053549097
46	0xbbaf7b60	-0.0053552836
47	0xbbaf7ee3	-0.0053557022
48	0xbbaf8190	-0.005356021

gru_bn.running_var f4 [49]
0	0x3dfaa7d9	0.12239046
1	0x3eb093bd	0.34487715
2	0x3edab807	0.42718527
3	0x3ee9391f	0.45551392
4	0x3ef22499	0.47293547
5	0x3ef88df3	0.485458
6	0x3efd529b	0.49477085
7	0x3f007475	0.501777
8	0x3f01d04d	0.50708467
9	0x3f02d8fe	0.51112354
10	0x3f03a38a	0.51421416
11	0x3f043e3a	0.5165745
12	0x3f04b4fd	0.51838666
13	0x3f05100c	0.5197761
14	0x3f055695	0.5208524
15	0x3f058d46	0.5216869
16	0x3f05b7c0	0.52233505
17	0x3f05d8d3	0.5228397
18	0x3f05f2ad	0.5232342
19	0x3f0606eb	0.52354306
20	0x3f0616d2	0.5237857
21	0x3f062356	0.5239767
22	0x3f062d41	0.524128
23	0x3f063542	0.52425015
24	0x3f063b82	0.5243455
25	0x3f064078	0.5244212
26	0x3f06445c	0.5244806
27	0x3f064782	0.5245286
28	0x3f064a0b	0.5245673
29	0x3f064c15	0.5245984
30	0x3f064db7	0.52462333
31	0x3f064f0a	0.52464354
32	0x3f065022	0.5246602
33	0x3f065110	0.5246744
34	0x3f0651c9	0.52468544
35	0x3f06525c	0.5246942
36	0x3f0652cf	0.52470106
37	0x3f06532f	0.5247068
38	0x3f065380	0.5247116
39	0x3f0653c4	0.52471566
40	0x3f0653fc	0.524719
41	0x3f06542a	0.52472174
42	0x3f065445	0.52472335
43	0x3f06545a	0.5247246
44	0x3f06546f	0.52472585
45	0x3f065485	0.52472717
46	0x3f06549c	0.52472854
47	0x3f0654ac	0.5247295
48	0x3f0654bb	0.5247304

fc.weight f4 [17, 64]
0	0xbde88f91	-0.11355508
1	0xbe56a97c	-0.2096309
2	0xbe5e0903	-0.21683125
3	0xbe26f057	-0.1630262
4	0xbe19aa02	-0.15006259
5	0xbe884cad	-0.26621
6	0x3e84b2a6	0.25917548
7	0x3da48338	0.080328405
8	0xbe775527	-0.24153577
9	0xbe343c93	-0.17601232
10	0xbd2984d5	-0.041386444
11	0x3e69fc52	0.22850159
12	0xbdd586c0	-0.10426092
13	0xbdfb662c	-0.12275347
14	0x3ec40159	0.38282278
15	0xbe1e46ce	-0.15456697
16	0x3dfb5068	0.12271196
17	0xbee84c21	-0.45370582
18	0x3f1010f3	0.5627586
19	0x3ec03e5e	0.37547582
20	0x3eb689ea	0.35652095
21	0xbcff012f	-0.031128494
22	0x3e8891d6	0.26673764
23	0x3e3999c3	0.18125062
24	0xbf131339	-0.57451206
25	0xbe707e8c	-0.23485774
26	0x3eb62ef3	0.35582694
27	0x3cddce47	0.0270759
28	0xbe4898de	-0.19589564
29	0x3d5d7b9b	0.054072957
30	0xbe2ec489	-0.1706716
31	0x3ebc535c	0.36782348
32	0x3eb04a0b	0.3443149
33	0xbe9e1e0d	-0.30882302
34	0x3e6cae9f	0.23113488
35	0x3e0873b3	0.13325386
36	0x3e0a992d	0.13534994
37	0xbea1bb68	-0.31588292
38	0x3c974f4e	0.018470433
39	0xbea29399	-0.31753233
40	0x3d096a75	0.03354879
41	0x3d3e15d6	0.046407543
42	0x3de9066c	0.11378178
43	0x3ec020d7	0.37525055
44	0x3d80fe26	0.06298475
45	0x3e82975d	0.25506106
46	0x3d352c33	0.044231605
47	0xbf0a0769	-0.53917557
48	0x3d89bcbc	0.06725451
49	0x3dd878c6	0.10569911
50	0xbeb010ee	-0.34387916
51	0x3e072ecb	0.13201444
52	0xbe54af05	-0.2076989
53	0xbed57be0	-0.41696072
54	0x3e56b177	0.20966135
55	0x3dcee340	0.10101938
56	0xbded8367	-0.11597329
57	0xbf116c80	-0.5680618
58	0x3e39d4ef	0.18147634
59	0x3e20e625	0.15712793
60	0x3f02dda0	0.5111942
61	0x3e9d0c31	0.30673364
62	0xbdb3b2c6	-0.08774333
63	0x3eb3edc2	0.35142332
64	0xbdc004d3	-0.0937592
65	0xbc395651	-0.011312083
66	0xbdda6562	-0.106638685
67	0xbc906d9d	-0.017630393
68	0xbd81c18a	-0.06335743
69	0xbd88de0c	-0.06682977
70	0xbcbaa708	-0.022784725
71	0xbd7058fb	-0.05867861
72	0xbd91a53e	-0.071115956
73	0x3d939134	0.0720543
74	0x3cf508d9	0.029911445
75	0xbdb9e18c	-0.09076223
76	0x3d9357a4	0.071944505
77	0xbc357153	-0.011074382
78	0xbc44c451	-0.012009696
79	0x3d94d36c	0.07266888
80	0x3dcfcf23	0.1014693
81	0xbc870d1a	-0.01648574
82	0xbdc4ec3a	-0.09615369
83	0xbddd7e55	-0.108151115
84	0xbdbd316b	-0.09237941
85	0xbc85c775	-0.01633046
86	0x3dd7c282	0.10535146
87	0xbb74ced3	-0.0037354722
88	0xbdfdec27	-0.12398558
89	0x3c665636	0.01405864
90	0xbd846c4d	-0.06465969
91	0x3b81480f	0.0039453576
92	0x3d9e72ed	0.07736764
93	0xbd927c36	-0.071525976
94	0xbdfecaed	-0.12441049
95	0x3d93818a	0.07202442
96	0x3d9ae39b	0.075629435
97	0xbde9d4bb	-0.11417528
98	0xbc09fc34	-0.008421946
99	0x3c73aaf5	0.014872302
100	0x3d8df042	0.06930591
101	0xbda3e3fd	-0.0800247
102	0xbca181a5	-0.01971514
103	0xbbb49e5e	-0.005512043
104	0x3c45b5c8	0.012067266
105	0x3cf25ec6	0.029586207
106	0xbd2df677	-0.042471375
107	0x3dec30ac	0.11532721
108	0x3bc9f5b8	0.006163325
109	0xbdcf0d28	-0.10109931
110	0x3b6d3b19	0.0036198555
111	0x3ca4b312	0.020104919
112	0xbac9d480	-0.0015398413
113	0x3dd1585e	0.10221933
114	0xbd4bcdcc	-0.04975681
115	0x3df4158c	0.11918172
116	0x3cb2217e	0.021744486
117	0x3da91030	0.08255041
118	0x3c45ae65	0.012065505
119	0x3d288ae3	0.041148078
120	0xbcdaa245	-0.026688704
121	0x3d846969	0.06465418
122	0xbde011ac	-0.10940871
123	0xbda62aca	-0.0811363
124	0x3d749353	0.05971081
125	0x3d0836e1	0.03325546
126	0x3a91a51c	0.0011111828
127	0xbd6a7a37	-0.05724546
128	0x3d622947	0.055215146
129	0xbdbfe258	-0.093693435
130	0x3adbc590	0.0016767252
131	0xbbc0351e	-0.005865707
132	0x3da7342b	0.08164247
133	0x3cf6798a	0.030087251
134	0xbd6fa934	-0.058510974
135	0xbcaa96f0	-0.020823926
136	0x3d3cf835	0.046135146
137	0xbdc4409b	-0.09582635
138	0x3d107d1d	0.035275567
139	0x3ca4532f	0.020059196
140	0x3d0d498f	0.03449398
141	0xbb65f88c	-0.0035090772
142	0x3d41ca54	0.047312096
143	0x3c9d3cad	0.019193972
144	0xbdc43bac	-0.09581694
145	0x3d8bf924	0.06834629
146	0xbd773b71	-0.060359422
147	0x3db4f0c1	0.08834983
148	0xbdc5d750	-0.09660208
149	0xbd21b597	-0.03947982
150	0xbdeaae32	-0.11459006
151	0xbcc84914	-0.024448909
152	0xbc9e90cb	-0.019356152
153	0x3d875ef6	0.06609909
154	0x3d919aa3	0.07109573
155	0x3dc2c130	0.09509504
156	0x3c843878	0.016140208
157	0x3dbff64c	0.09373149
158	0x3d065fe4	0.032806292
159	0xbd2386b2	-0.039923377
160	0xbbc4c416	-0.0060048206
161	0xbd6752ef	-0.056475576
162	0xbde4c568	-0.11170465
163	0xbde02b50	-0.10945761
164	0x3d8bf0e6	0.06833057
165	0xbd502a2a	-0.05082146
166	0xbc57db95	-0.013174911
167	0x3ca23229	0.019799309
168	0xbc0b49cf	-0.008501484
169	0x3d5f3423	0.05449308
170	0xbd16f10e	-0.03685098
171	0xbda8cb6f	-0.08241927
172	0xbc26fef5	-0.010192622
173	0xbdd53136	-0.10409777
174	0x3c2661f4	0.01015519
175	0xbd47b7d5	-0.0487593
176	0xbca4594d	-0.020062113
177	0x3c17670c	0.009240877
178	0x3dfab660	0.122418165
179	0xbc17ded4	-0.009269435
180	0xbcf1ac95	-0.029501239
181	0xbd905de5	-0.07049159
182	0x3ca3b1e4	0.019982286
183	0xbda7a913	-0.08186545
184	0xbbbd892c	-0.0057841744
185	0xbd52d48d	-0.051472235
186	0xbcea1496	-0.02857427
187	0xbdeeb3db	-0.116553985
188	0xbd7544f5	-0.059880216
189	0x3c9be31e	0.019029196
190	0x3cf00b3f	0.029302238
191	0xbdb0d259	-0.08633871
192	0xbe0128d4	-0.12613231
193	0x3cbc8fe7	0.023017837
194	0xbd1babf1	-0.038005773
195	0xbbcdb2d7	-0.006277423
196	0x3d85ab20	0.0652678
197	0xbd16f985	-0.036859054
198	0xbca89585	-0.020579109
199	0xbd549c3d	-0.051906813
200	0xbca50212	-0.020142589
201	0xbd057815	-0.032585222
202	0x3d055c01	0.032558445
203	0x3b966e37	0.0045907754
204	0x3d2334b0	0.03984517
205	0xbcd70677	-0.0262482
206	0xbd759e33	-0.059965324
207	0xbd6b292a	-0.057412304
208	0x3dc17a92	0.094472066
209	0xbd602693	-0.054724287
210	0xbc89716d	-0.016777718
211	0x3db72dc8	0.08944279
212	0xbd895053	-0.06704774
213	0xbd43b167	-0.047776606
214	0x3da8367b	0.08213516
215	0xbd0d0a10	-0.034433424
216	0x3db75e31	0.089535125
217	0xbddf7fa5	-0.10913018
218	0x3ca5635e	0.020188984
219	0xbdb3997c	-0.08769509
220	0xbdfef89f	-0.124497645
221	0xbda861a1	-0.08221746
222	0x3d1aa50b	0.037755053
223	0xbd782c7f	-0.06058931
224	0x3d3260ef	0.043549474
225	0xbe0e3cc4	-0.13890368
226	0xbc9f5767	-0.019450856
227	0xbdb4e220	-0.088321924
228	0xbb543817	-0.0032382065
229	0xbd2930de	-0.04130637
230	0xbc2ba0a3	-0.0104753105
231	0x3c5548a7	0.01301781
232	0x3cf1aca0	0.02950126
233	0x3bd911a3	0.006624417
234	0x3d046b38	0.032328814
235	0x3bc8db06	0.0061296253
236	0xbd35858f	-0.044316825
237	0x3d547f22	0.051879056
238	0x3d5b921e	0.053606145
239	0x3d63424a	0.05548314
240	0xbc47dba7	-0.012198365
241	0xbc032baf	-0.00800602
242	0x3dcf0e8e	0.10110198
243	0x3ca9a6e7	0.020709468
244	0xbc8c0e5a	-0.017096687
245	0x3d73b4d4	0.059498623
246	0x3daa7950	0.0832392
247	0x3db66381	0.089056976
248	0xbd17e58b	-0.037084144
249	0xbc79f421	-0.015255959
250	0x3dd45b61	0.10368992
251	0x3e0248d1	0.1272309
252	0xbcb2eef3	-0.021842455
253	0xbc420fdd	-0.011844602
254	0xbd58f62b	-0.05296914
255	0xbda50727	-0.08058005

fc.bias f4 [17]
0	0xbe958e75	-0.2921025
1	0xbdb5d6a6	-0.088788316
2	0x3d79182e	0.060814075
3	0x3d01c099	0.031677816
4	0x3d786483	0.06064273
5	0x3c253cce	0.010085298
6	0x3d9b681e	0.07588218
7	0x3d4a4a87	0.04938748
8	0xbc093662	-0.008374782
9	0x3c5a1c8a	0.013312468
10	0xbbb6dde8	-0.0055806525
11	0xbd832a41	-0.06404544
12	0x3dab6988	0.08369738
13	0xbde8cb1e	-0.113668665
14	0xbb6a32e8	-0.003573591
15	0x3dd299d7	0.10283249
16	0xbdb60124	-0.08886936
