checkpoints/paoletti_et_al/no_class_balancing/IndianPines_AE1_30/epoch5_0.64.pth (torch, 180720 bytes, 10 tensors)

gru1.weight_ih_l0 f4 [192, 30]
000000 fb 6b a8 3d c7 27 0e 3d 44 50 a3 3d 49 d9 d6 3b
       0.08223721 0.034705903 0.07974294 0.006556664
000010 ff df 15 3e 74 bf 17 3d a5 6f a4 3d 74 79 83 bc
       0.14636229 0.03704782 0.08029107 -0.016049124
000020 01 9b 79 3e 82 9c 1e 3d e2 73 45 3e 53 8f 33 3e
       0.24375536 0.038723476 0.19282487 0.17535143
000030 80 29 22 3e 5d 2e 84 3d 23 57 81 bd 4c 1b 44 3e
       0.15836143 0.064541556 -0.06315448 0.19151038
000040 2e 5e f2 3d d8 9a 84 3d 53 23 74 3d 24 d0 62 3d
       0.118343696 0.064748466 0.059604 0.05537428
000050 4c cf 19 be aa fa 52 bd e5 71 dd 3b bb 7a a3 bd
       -0.15020484 -0.051508583 0.006757962 -0.07982393
000060 7b 34 7c 3d 57 f8 73 3d 83 d7 4b bd d2 2a 43 be
       0.061573487 0.059563007 -0.049766075 -0.19059303
000070 ef c1 a8 bd 9c 52 6d 3c 4d b1 0c be a6 76 01 be
       -0.08240115 0.014485028 -0.1373951 -0.12642917
000080 f3 02 4d be 9d 35 c2 bd 26 a3 4a 3c d3 0d 3e be
       -0.20020656 -0.09482882 0.012367999 -0.18559961
000090 31 ab 53 be cf ee e4 3c eb 8c 83 bb 59 b7 ae bc
       -0.20670773 0.027945904 -0.0040146015 -0.021327661
0000a0 d0 a3 c8 bc 3f 56 7b be 69 e3 0e be e5 dc 2f be
       -0.024492174 -0.24544619 -0.13953938 -0.17174108
0000b0 8d 5c 35 be 9c 39 b4 bc 79 45 33 3c 25 cf c1 bc
       -0.17711087 -0.022000127 0.010941857 -0.023658345
0000c0 20 8f 91 bd 0a 70 c5 bd ba 00 2a bd cc 55 1b bd
       -0.07107377 -0.096405104 -0.0415046 -0.03792362
0000d0 c1 8d 74 bc 01 84 cb bd d8 dd f0 bc d2 ba 61 be
       -0.014926375 -0.09937287 -0.029402658 -0.22043923
0000e0 30 d2 2f be 5b 5d 7f be cf f0 29 bd fd 86 20 bd
       -0.17170024 -0.24937956 -0.04148942 -0.039191235
0000f0 89 8d b1 3d 52 4e 73 bd fc 72 83 3c 08 cf 94 3d
       0.08669574 -0.059400864 0.01604604 0.072660506
000100 92 b7 a3 3c 66 6d f0 3d 67 1e c9 bd f8 a9 6e be
       0.019984994 0.11739616 -0.09820252 -0.23307025
000110 3e f9 81 3c 2e 2a 6b be 69 40 df bd 1a 88 35 be
       0.015865918 -0.22965309 -0.10900957 -0.177277
000120 7c 9f 12 be 15 40 21 be a4 95 b7 bd 51 d0 53 3d
       -0.14318651 -0.15747102 -0.089640886 0.051712338
000130 c9 f3 a2 bd 32 df 8e bd 7c d5 02 be 14 18 fa 3d
       -0.079566546 -0.06976165 -0.1277675 0.12211624
000140 6e ce d6 3b f2 e4 15 3e 5d 9a 6c bd 1b 01 7a 3b
       0.00655537 0.14638117 -0.0577644 0.0038147632
000150 fd ff 9f bd 71 b3 b9 3d 78 3a 1d 3e c1 35 0a 3e
       -0.07812498 0.09067429 0.15354335 0.13497068
000160 f0 8b 35 bd f6 a5 10 bc dc ff 35 3e fb 9a 84 3d
       -0.044322908 -0.008828631 0.17773384 0.06474873
000170 3f 77 fc bd bf 7f 8c 3d 08 a5 e6 3d a7 23 68 3e
       -0.12327432 0.06860303 0.11261946 0.2266985
000180 c0 10 1d 3e 81 05 d3 3d 3f fa 90 bc 64 95 f0 bc
       0.15338421 0.10303784 -0.017697452 -0.02936811
000190 48 b7 10 3d 58 31 bc 3d c4 71 28 3e 43 e7 3f 3e
       0.03533104 0.09189099 0.16449648 0.18740563
0001a0 f8 54 29 3e 2c 6c 1d 3e 03 5b a3 3d d7 be db 3d
       0.1653632 0.15373296 0.079763435 0.10729759
0001b0 ae 42 2e bc 10 4b 34 bd d2 04 ba bd c0 56 ac bd
       -0.010636015 -0.044016898 -0.09082951 -0.08414984
0001c0 84 a4 43 be 2d 75 39 be 66 ff 88 3b fd 73 85 bd
       -0.19105726 -0.18111105 0.0041808365 -0.06516264
0001d0 64 0e 24 bd c1 99 aa bd b2 ab 09 be c6 3f bd bd
       -0.040052786 -0.083301075 -0.13444403 -0.092406794
0001e0 6f c3 04 be d9 08 07 be 1b ce 32 be d6 01 fe 3c
       -0.12965177 -0.13186969 -0.17461435 0.031006735
0001f0 71 1a 77 bc 7f a6 11 3d 17 6e ad bd 06 7a 8f be
       -0.015081988 0.035559174 -0.084682636 -0.28022784
000200 8d c5 a8 bd 31 45 63 be 9c 7a 41 be 29 02 99 be
       -0.08240805 -0.22194363 -0.18894428 -0.2988446
000210 68 98 12 be b2 f6 85 be dc 1b 4f be 2b 9b 7e be
       -0.14315951 -0.26164776 -0.20225471 -0.2486388
000220 30 dc ae bd b7 4c 99 be 8a ef 54 be 46 db 2c be
       -0.08538091 -0.2994134 -0.20794502 -0.16880521
000230 b8 21 1e be 84 e7 8d bd 75 27 4e be 54 c5 8e be
       -0.1544255 -0.06928924 -0.20132239 -0.27884924
000240 cb 10 9e be 4a d1 1a be 55 8f 12 be 73 4c a5 bd
       -0.30872187 -0.151189 -0.1431249 -0.08071222
000250 f2 47 29 be c6 67 59 be 7f 0e ed bc 37 37 a4 3b
       -0.16531351 -0.21230993 -0.028937576 0.005011465
000260 4b 49 db bd 40 3e 2d 3d 27 6f 93 bc 7d b2 55 be
       -0.10707339 0.042295694 -0.017997338 -0.20868869
000270 8d fb 3d be 1e be 1e bd 45 64 e2 bd f1 8a 61 be
       -0.1855299 -0.03875553 -0.11054281 -0.22025658
000280 62 66 a1 bc 49 25 21 be 68 3a bd bd a1 31 80 bd
       -0.01970214 -0.1573688 -0.09239656 -0.06259466
000290 24 31 27 be d0 b2 26 bb 77 ca 57 be db 2b a5 bd
       -0.1632734 -0.002543617 -0.21073328 -0.080650054
0002a0 6f 5d 32 3c 1b c9 b3 bd e3 9c bc 3b 07 98 41 be
       0.010886534 -0.08778592 0.005756007 -0.1890565
0002b0 cc 3e e7 bd c5 e9 b0 bd e8 c8 af bd 36 13 4a bd
       -0.112912744 -0.08638338 -0.08583242 -0.049334727
0002c0 e3 5d 5b bd af 55 42 be f0 03 7c be a1 2b 7c be
       -0.053556334 -0.18977998 -0.24610877 -0.24626018
0002d0 51 43 a0 3d fb 4b 24 3d 0b 8c b7 3d e4 ec c8 3d
       0.078253396 0.040111523 0.08962258 0.09810808
0002e0 46 85 7d 3d b2 9d 77 3c ed 06 a2 3c dd 3c 32 be
       0.061894678 0.015113281 0.019778693 -0.1740603
0002f0 f5 af e4 bc 19 21 10 be a4 e4 f1 bc b5 f3 05 3d
       -0.027915934 -0.14075126 -0.02952797 0.03270312
000300 2d 27 2f bc 8f 38 1a bc 0b e6 63 bd 76 9e d4 bd
       -0.010690493 -0.009412899 -0.055639308 -0.103817865
000310 77 c7 21 bd 01 9b 1b be 49 57 93 3c 57 e1 56 bd
       -0.039496865 -0.15195848 0.017985957 -0.052460995
000320 96 f7 d4 3b b2 26 ff bd 8d 86 56 3d 32 7d 8f bd
       0.006499241 -0.124585524 0.05237441 -0.07006301
000330 2a 2a e2 bc 83 12 9b bc 2b e4 ca bd 6e eb ae bd
       -0.027607996 -0.018929726 -0.09906801 -0.085409984
000340 3c f3 d6 bd 39 0a 8e bd 6f ea 45 3e a9 86 69 bd
       -0.10495612 -0.069355436 0.1932771 -0.057013188
000350 87 16 21 3e 40 7f 39 3e 50 1d 87 bd b7 24 a7 3d
       0.1573125 0.18114948 -0.06597388 0.081613
000360 97 ce 5b 3d aa fd c9 3d 14 06 1c 3e 90 f2 e6 3d
       0.053663816 0.09862836 0.15236694 0.11276734
000370 4c a0 99 3d 7a cd 6f 3d 20 9c 94 bc ac 9a a8 3c
       0.07501277 0.058545567 -0.018140852 0.020581566
000380 b2 84 cb bc 87 5b 2f 3e e9 8a a2 bc fc c8 f8 3d
       -0.024843547 0.17124759 -0.019841628 0.1214771
000390 91 58 55 3d 3e 23 8e 3d f4 f4 fb bb 43 df 9c 3d
       0.052086417 0.06940316 -0.007689113 0.07659771
0003a0 9f 91 2d 3e d5 a6 3a bd 35 ce 90 3b 40 f0 c1 3b
       0.16950081 -0.04556926 0.004419113 0.0059185326
0003b0 83 01 c8 3d e1 56 a7 bd 8c 10 14 3d 11 3e a7 3d
       0.09765913 -0.08170868 0.036148593 0.08166135
0003c0 e6 9b 26 3d db dc e3 bc 0e 74 26 3c 3a 09 89 bd
       0.04067602 -0.027815273 0.0101595055 -0.06691213
0003d0 0a 87 6c bd 27 01 91 bd 2d 74 d5 3d f1 2d 89 3d
       -0.05774597 -0.07080298 0.104225494 0.06698216
0003e0 fe 5e e6 3d d4 1d ba 3d 19 92 87 3c 44 1f 60 bd
       0.11248587 0.090877205 0.016549157 -0.054717317
0003f0 6b fd 6b 3d 7d bb ef bd 63 b5 ae bd 2c 05 0b bd
       0.057614725 -0.117056824 -0.085306905 -0.03394048

gru1.weight_hh_l0 f4 [192, 64]
000000 b2 3f 6c bd 19 a4 24 3d ba e0 41 3c 0f 6d c6 3d
       -0.057677932 0.04019556 0.011833364 0.0968877
000010 35 30 d1 3d 88 1a 96 be cc e3 9a be 19 a7 15 3e
       0.10214273 -0.29317117 -0.3025192 0.14614524
000020 c9 30 e1 bc 41 f6 35 be 93 0f c3 3d 57 d0 1e bd
       -0.027489083 -0.1776972 0.09524455 -0.038772907
000030 08 cf cd 3d cd ed 5d bd 82 c6 8d 3e 0a 7b 5f bd
       0.10049254 -0.054181863 0.27690512 -0.0545607
000040 c0 e8 ed bd 65 4e 0a bc ef 8d 4d be 2e 02 a2 3e
       -0.11616659 -0.008441542 -0.20073675 0.31642288
000050 17 3c 8f 3e 08 67 a0 3e 62 a5 65 be e3 8c b7 3e
       0.27975532 0.31328607 -0.2242637 0.35849676
000060 77 5d a9 be 29 8d b3 bd fe ee d4 be 77 8f a5 3e
       -0.3307912 -0.087671585 -0.41588587 0.32336017
000070 dc 77 3d 3d 6e ec 71 3e e6 2c da 3c f0 f1 24 3e
       0.046256885 0.23625347 0.026632737 0.16107917
000080 4a 3c 37 be 3e a7 57 bd b1 be bb bd 19 f5 55 be
       -0.17894092 -0.05264973 -0.09167231 -0.20894279
000090 a2 04 23 3e 8b 81 17 be dd b6 e4 3c c7 3f 10 be
       0.15919736 -0.1479551 0.027919227 -0.14086829
0000a0 23 d1 23 be 58 86 4a 3e 85 c3 b0 3d 7c ce 14 be
       -0.15997748 0.1977781 0.086310424 -0.14531893
0000b0 4a de 86 3e a3 ec d6 3d 92 e3 e4 bd 95 d1 69 be
       0.26341468 0.104943536 -0.11176218 -0.22833855
0000c0 27 3d 46 bd 03 c6 8b bd ad 48 23 3d ca e6 af bd
       -0.048398163 -0.06824877 0.03986423 -0.085889414
0000d0 31 99 f7 3d 45 1f f1 3d 66 2d ab 3e 02 12 b6 3e
       0.12089766 0.11773542 0.33433074 0.35560614
0000e0 e7 f0 c5 bc 95 2f 00 3d e5 b1 26 be 70 d7 c1 3d
       -0.024162723 0.031295378 -0.16278799 0.094649196
0000f0 ae b2 87 3c 9c 5a f2 bd f5 cd 50 3d 8a b7 5c 3d
       0.016564693 -0.118336886 0.050977666 0.053885974
000100 e3 29 06 3e 4e e4 20 3d d8 c2 cd bc a1 74 b2 bd
       0.13101916 0.03928023 -0.025117323 -0.087136514
000110 df fd ff bd 6a cf 61 bd af 07 79 3d 52 75 00 be
       -0.12499594 -0.055129446 0.060798343 -0.12544754
000120 92 54 bd bd 26 c0 dc 3d 9c 1f 18 be d0 f9 20 3d
       -0.09244646 0.10778837 -0.14855808 0.03930074
000130 53 85 08 3d 08 35 f8 3c 89 b1 ca bd 2b fa e3 3d
       0.033330273 0.030298725 -0.098971434 0.111317
000140 24 2c 76 bd 50 bf 1f 3e 7c d9 19 3d 8f 5c 83 3c
       -0.06010069 0.15600324 0.037560925 0.016035346
000150 c8 2a a7 bd 60 8a 26 be 50 f0 f9 3c 7b f1 33 bd
       -0.08162457 -0.16263723 0.030510098 -0.043931466
000160 49 87 76 3d 98 23 67 bc 7d 4a 75 bd d8 55 71 bd
       0.06018761 -0.014107607 -0.05988549 -0.058919758
000170 a2 d0 ff bc 76 4b 9b 3d cd 08 83 3d 5c e3 05 bd
       -0.031227414 0.075827524 0.06398163 -0.03268753
000180 12 4b 9e 3d 5c 01 5d 3d 3a 49 be bb 9f 90 9a 3d
       0.07729162 0.053956375 -0.005807069 0.075471155
000190 9f c2 f1 3c 98 b5 89 3b f3 c2 22 be e3 fd 14 3e
       0.029511748 0.004202556 -0.1589468 0.14549975
0001a0 10 82 31 3d 49 6a ec bd e2 f8 72 bd 6a 46 58 bd
       0.043336928 -0.1154371 -0.059319384 -0.052801527
0001b0 c6 b2 e2 bc 50 b6 a3 3c 85 f0 75 3c 8f f6 d9 3d
       -0.027673136 0.019984394 0.015010958 0.106427304
0001c0 45 a5 3e bd 93 31 f9 bc a5 fb 55 3d 97 7a 1d 3c
       -0.046544332 -0.030419147 0.05224194 0.009611747
0001d0 a7 46 bc bd 67 dc 3d 3d a9 d1 ee bd 75 00 f8 bd
       -0.09193163 0.04635277 -0.11661083 -0.12109462
0001e0 ab 89 cf 3d 95 2f 02 3e 9f 77 3f bc 86 0b bf bd
       0.1013368 0.12713464 -0.011686235 -0.0932837
0001f0 f1 e6 41 bd 4f 4a 9d bd eb 18 cb bd 63 71 08 3d
       -0.047339384 -0.07680189 -0.09916862 0.03331126
000200 81 ae 02 3e f4 de 97 bd 7c 7d 77 3d 3b c3 a9 bc
       0.1276188 -0.07415572 0.060422406 -0.020722976
000210 4f 04 60 bd f2 98 04 3e f2 d9 97 3d da 47 ea bd
       -0.05469161 0.12948969 0.07414617 -0.11439486
000220 25 44 16 be 54 c5 73 bd 80 eb 91 bd 43 43 9c bd
       -0.14674433 -0.05951436 -0.07124996 -0.07630017
000230 89 5c 2a 3d 45 b2 43 3d 4c f0 07 be 68 20 64 3d
       0.041592155 0.047777433 -0.1327526 0.055694968
000240 a5 00 fd 3d f5 25 04 3d c9 6c 31 3d 8d a8 c6 bc
       0.123536386 0.03226276 0.043316636 -0.024250293
000250 d8 ee c0 bd ab b7 eb 3c 79 3b ab bc 7a 96 1e be
       -0.09420556 0.028774103 -0.020902382 -0.1548709
000260 95 15 33 3e 5f 69 a9 3d 70 0b 98 bd e5 58 db bc
       0.17488702 0.08272051 -0.074240565 -0.026775787
000270 ae 3d 10 3c cb 4f c5 bd aa 77 92 bd a9 11 bb bd
       0.008803768 -0.0963436 -0.0715173 -0.09134228
000280 1b 18 29 be 2f cd cd bc 5a 87 36 3d c7 f7 58 3d
       -0.16513102 -0.025122253 0.044562675 0.052970674
000290 ff 46 0a be e1 4a e4 3d 18 fe 0c bd 08 0e fa 3d
       -0.13503645 0.111470945 -0.03442201 0.122097075
0002a0 bb f2 96 3d ab 2b b8 3d f0 34 ff 3d fd ff c1 3d
       0.07370516 0.08992704 0.12461269 0.09472654
0002b0 6a e8 e5 bd b3 c9 91 3b 3c e1 dc 3d f4 85 25 3e
       -0.1122597 0.0044490932 0.107851475 0.1616438
0002c0 e6 9c 04 3e c7 78 1d bd 77 15 4c bd bf ce 84 3d
       0.12950477 -0.03844526 -0.049825158 0.06484746
0002d0 12 c5 df bd 07 77 91 3d c1 81 16 bd ee 40 8b 3d
       -0.1092626 0.07102781 -0.036744837 0.06799494
0002e0 66 d8 24 3d f1 01 89 bd df e7 00 3e ea 3f fa bd
       0.040245436 -0.066898234 0.12588452 -0.12219222
0002f0 c5 de b1 bd af be 1b be bc 89 90 bd eb b9 92 bd
       -0.08685068 -0.15209459 -0.07057521 -0.07164367
000300 e8 60 dc bb 7d 6f 71 3e 03 f4 40 3e 54 88 fe 3d
       -0.0067254193 0.23577686 0.18843083 0.12428346
000310 fc 3f 9f 3e ee 58 a5 be 08 43 be be 41 10 62 3e
       0.31103504 -0.3229441 -0.37160516 0.22076513
000320 de 39 ff 3c 7d 06 9d be ac 93 5b bc 1e 02 70 bd
       0.031155523 -0.30669013 -0.013401907 -0.05859577
000330 15 62 1e 3e b0 b6 e2 3a 3e 69 42 3e a9 af 5d bd
       0.15467103 0.0017296877 0.18985459 -0.0541226
000340 1b 03 bf 3d 38 06 41 be b2 a6 73 be 61 14 ed 3d
       0.09326764 -0.18850029 -0.23794058 0.115761526
000350 67 1e b1 3d 0d 61 cd 3d ae b3 89 be 79 08 d1 3e
       0.08648377 0.100282766 -0.26894897 0.40826777
000360 f5 cb 34 be 4c 0f 7c be 7f f4 68 be 71 96 52 3e
       -0.17655928 -0.2461521 -0.22749518 0.20565201
000370 17 60 47 3e d8 e6 6d 3e a1 6d 71 3d b4 e2 9e 3c
       0.19470249 0.23232591 0.05894244 0.01939521
000380 b1 ba 64 bd c3 91 13 be 00 a2 2f be 20 a4 9f bc
       -0.055842105 -0.14411072 -0.17151642 -0.01948744
000390 3b fd 69 3e 99 3b 04 be a3 36 03 3d a5 5f 95 be
       0.22850506 -0.1291336 0.032034528 -0.29174533
0003a0 df d8 be 3c fa 3b 79 3e 16 f1 dd 3c 0f 14 90 be
       0.023296772 0.24339285 0.027092498 -0.28140303
0003b0 4b db 8b 3e 82 57 03 3e b9 e5 1f bd dd 21 7b be
       0.27315745 0.1282635 -0.03903744 -0.24524637
0003c0 0b d3 b6 bb f9 f9 47 3d 4d d1 81 3c 35 a6 45 bd
       -0.0055793575 0.048822377 0.015846873 -0.04825421
0003d0 6b 85 0b 3e 84 ae 2c 3e 22 64 b5 3e b7 29 1a 3e
       0.13625114 0.16863447 0.35427958 0.15054975
0003e0 c8 3e a5 bd 3c f3 9b 3c ff bb 27 be f4 ae 60 bd
       -0.08068615 0.019036882 -0.16380309 -0.05485435
0003f0 01 2f cc bd 2e 05 c2 3c 95 81 00 3e e2 01 0a bc
       -0.09969903 0.02368411 0.12549432 -0.0084233

gru1.bias_ih_l0 f4 [192]
000000 ee 6b 16 3e 50 10 28 3c 4c 1b ec bd ec a8 b4 3d
       0.1468961 0.010257795 -0.11528644 0.08821282
000010 59 b6 ea bd dc 6e c6 3d ab 7c c8 3d a2 a2 2c 3d
       -0.11460561 0.096891135 0.097894035 0.042147286
000020 15 3a 0f 3d 2c 62 dd 3d 21 95 0f 3d b9 e5 41 3d
       0.0349675 0.108097404 0.03505433 0.04733822
000030 11 2d 2d 3e 5a b1 f7 bc c2 4a e5 3c aa d7 e6 3b
       0.16911723 -0.030235935 0.027989749 0.007044752
000040 72 69 e6 3d 60 f3 67 3d 68 f1 b3 bc 7c 2a f2 3d
       0.11250581 0.056628585 -0.021965697 0.118245095
000050 56 c9 91 3d 3f 12 71 bd 2c 68 da bc 3f da 2b 3d
       0.0711848 -0.05885529 -0.026661001 0.041956183
000060 7e 28 d2 bc c7 70 55 3d 99 31 f7 3d 8b 63 55 3e
       -0.025654074 0.052109506 0.12070007 0.20838754
000070 9f 4e bd bd 07 e8 9b bd 91 a8 a1 bd af 24 1f be
       -0.092435114 -0.07612615 -0.078934796 -0.15541337
000080 14 36 1f 3e 8a 0b b6 bc dd 18 83 3d ff 7b 7d 3d
       0.15547973 -0.0222223 0.06401227 0.06188583
000090 a5 ac 96 3d 6c 9a 03 3e 04 81 84 3d af 29 51 3b
       0.07357148 0.12851876 0.0646992 0.0031915714
0000a0 6f 81 0a bd 55 2c 0d 3e 9b 7e 31 be b0 fa 96 3d
       -0.033814844 0.13786443 -0.17333452 0.073720336
0000b0 72 2f 00 be 3a 54 8a bb c9 df 10 bd 57 0b 8b bd
       -0.12518099 -0.0042214664 -0.03536967 -0.06789272
0000c0 e7 98 64 bd d1 72 95 bd 5f b1 2a 3d 12 20 83 bd
       -0.05580988 -0.0729729 0.04167306 -0.06402601
0000d0 c4 a8 07 be 6e ab b4 3d 55 28 a0 bd a6 2e 24 bd
       -0.13247973 0.0882176 -0.07820193 -0.04008355
0000e0 e2 fa a5 bd 79 44 a5 3b 4f b1 90 3d e9 c6 51 bb
       -0.08104493 0.005043563 0.07065069 -0.0032009429
0000f0 57 69 b5 3d f4 42 06 3e 21 1e 1a 3d b7 ca 7f bc
       0.088579826 0.13111478 0.03762639 -0.015612296
000100 b0 57 45 3e 9e d9 26 be 5e f9 5c bd b5 ee 36 bd
       0.19271731 -0.16293952 -0.053948753 -0.044661243
000110 da 55 1d be 75 26 66 bd 59 df 00 3d bc 9b 01 be
       -0.15364781 -0.05618902 0.031463 -0.12657064
000120 23 92 54 be 03 b5 df bd 20 bc 35 3d e7 17 48 bd
       -0.20758872 -0.10923197 0.044368863 -0.04885092
000130 51 88 0e bc a4 0c 30 be 2c e4 08 be b4 1a 85 bc
       -0.008699493 -0.17192322 -0.1336829 -0.016248085
000140 16 f9 e6 bd 47 ec 3b be 4c 36 4e bd 8c 85 cf 3c
       -0.11277978 -0.18351851 -0.05034475 0.025332235
000150 5a 49 6b be c3 e5 1b be c2 ed 05 3e 6d 2d 3c be
       -0.229772 -0.15224366 0.13078979 -0.18376704
000160 41 89 0c be 0e 79 d5 3c 89 bf 5c 3c 97 48 d6 3c
       -0.13724233 0.0260587 0.0134734 0.02615766
000170 fc e9 9c bd e8 31 2f be d8 0a 43 bd 3b a0 c3 3d
       -0.076618165 -0.17108881 -0.047617763 0.09552046
000180 e5 f4 14 3c 38 2b 5f 3c 72 e1 1f be 4c c5 f5 3d
       0.0090915905 0.013621144 -0.15613344 0.12000522
000190 9e c4 18 be 85 9d 41 be ec 6f d7 3d 4a 9d f6 bc
       -0.14918754 -0.18907745 0.10519394 -0.030104298
0001a0 51 8b 3a bc 82 d1 34 3d 4a 5d d9 bd c2 5a ca bd
       -0.011385755 0.044145115 -0.106134966 -0.09880592
0001b0 30 74 e7 3d 5c 03 97 3d 95 d0 36 3e fa ff 52 bd
       0.11301458 0.073736876 0.17853005 -0.05151365
0001c0 f4 af bd 3d ef e9 08 3c 40 7d f7 3d 3e 76 dc 3d
       0.09262076 0.008356555 0.120844364 0.107647404
0001d0 09 4e 99 3d 2e a9 49 be f1 8e 19 be 98 bb 9d 3d
       0.07485587 -0.19693443 -0.14995934 0.07701796
0001e0 6f 7b 76 3d 7b ce a8 3d 4c c5 e2 bd d3 b9 d3 3c
       0.06017631 0.08242508 -0.11072788 0.025845444
0001f0 60 66 e0 3d d5 1c dc 3d 92 6f 25 bd 52 6a 30 3b
       0.109570265 0.10747687 -0.040389605 0.002691884
000200 f9 8d 73 3d 9b ec 94 3c f7 55 54 3d d2 44 13 3c
       0.059461568 0.018179229 0.051839795 0.008988576
000210 21 98 18 3e ec bc 81 3d e9 1f 85 bd 36 3f 9b 3d
       0.14901783 0.06334862 -0.06500227 0.07580416
000220 98 49 ad bd cd 13 7b bd 6f c8 0b 3d 5b c4 3e 3e
       -0.084613025 -0.06129818 0.034126695 0.18629591
000230 1d b6 b3 3d 8b 38 e5 bc b7 dd c0 3d 4e d9 56 3a
       0.0877497 -0.027981063 0.09417289 0.0008195833
000240 11 d4 eb 3d 85 b2 6a bc a6 8d 70 3d e2 4b 06 bd
       0.11515058 -0.014324789 0.058728836 -0.03278721
000250 1d 46 00 bd 36 65 83 3b ed 48 be bd a5 da bd 3d
       -0.031316865 0.004009868 -0.09291253 0.09270219
000260 ff 8a 0c 3e eb c2 c9 bb 7f 0d 11 bd 6c f8 17 be
       0.13724898 -0.0061572692 -0.03541326 -0.14840859
000270 c4 a4 37 3d 62 9f 26 3d 74 bd 16 be 32 ce 97 3d
       0.044834867 0.040679343 -0.14720708 0.074123755
000280 37 ee fe 3c 44 79 38 bd b9 c6 fd bc ff 3f c7 3c
       0.031119449 -0.045037523 -0.030978547 0.024322508
000290 9c bf 77 bd 85 53 e8 3c 33 85 50 3d 21 48 45 3d
       -0.060485467 0.028360138 0.05090828 0.04816449
0002a0 d3 32 0b 3d 27 e2 3f 3d 4a 3a ae 3d 4e 76 e6 3c
       0.033984017 0.046846535 0.085072115 0.028132584
0002b0 97 a9 a1 3d 14 b3 f5 3d fa 86 16 bd 8d 89 aa bb
       0.07893675 0.11997047 -0.036749817 -0.0052043856
0002c0 3a 55 eb bd a3 b0 b8 3d 4c b0 dd 3b 37 49 ff 3c
       -0.11490865 0.09018066 0.006765401 0.031162841
0002d0 a7 ff 82 3d 23 c4 c8 bc 1d e2 45 bb 1e 9c 60 3d
       0.06396418 -0.024507588 -0.0030194588 0.054836385
0002e0 65 34 96 bd fd ba b5 3d ba 68 00 be 31 d3 16 3d
       -0.07334212 0.08873556 -0.1253995 0.0368225
0002f0 be a6 44 3d c9 ac b7 bc be 54 1b be dc f6 cf 3c
       0.04801058 -0.022421258 -0.15169045 0.025386266

gru1.bias_hh_l0 f4 [192]
000000 c2 96 eb 3d 3c 39 03 be b3 95 36 3c 94 35 66 3d
       0.11503364 -0.12814802 0.0111440895 0.05620344
000010 c7 5d cd 3d 52 97 29 bd 52 af 85 3d bd 7d 21 3c
       0.10027652 -0.041404076 0.0652758 0.0098566385
000020 d3 53 0e 3e 8f 98 35 3d e9 91 4b 3d e1 95 2f 3d
       0.13899164 0.044334944 0.049699698 0.042867545
000030 85 5c 43 3e df de ce 3d 3c a1 8c bc 45 08 ef 3a
       0.19078262 0.10101103 -0.017166726 0.0018236717
000040 bf 4c c8 bd e3 5a 57 bc a5 97 b8 3d 57 b0 a6 3d
       -0.09780263 -0.013144228 0.09013299 0.08139103
000050 c1 4e 92 bd a0 22 c8 bd 84 fd 0e 3e 9e b7 8e bd
       -0.07143927 -0.09772229 0.13963896 -0.06968616
000060 e4 11 0a be 8e ec 04 bd a3 74 d3 bd 33 d4 43 3d
       -0.13483387 -0.03245216 -0.10324981 0.04780979
000070 ff c2 da 3d 53 79 24 3d e9 05 83 bd e8 36 72 bd
       0.10681724 0.040154766 -0.06397612 -0.059134394
000080 7d 51 90 3b 7e af 51 37 f5 a5 5d 3c 38 75 0d 3e
       0.0044042454 1.2498231e-05 0.013528337 0.13814247
000090 30 c2 99 3d 0c a2 74 bb 80 fa 0d be 1e fe 12 bd
       0.075077415 -0.0037328033 -0.1386509 -0.035886876
0000a0 12 6b 48 3a 1b 7e 1e 3c e9 3e d7 bd 7d 48 73 3d
       0.0007645349 0.009673621 -0.10510046 0.059395302
0000b0 04 1d a8 3d 86 33 20 3e a7 6c 47 3d 49 1a bd 3d
       0.08208659 0.15644655 0.048687603 0.09233529
0000c0 bd e7 85 3c fe ca b2 bd 0f 7b 54 3c 41 fd 03 3d
       0.016345853 -0.08730124 0.012968793 0.032223944
0000d0 08 17 59 3d aa 12 a5 3c a8 55 0d 3e b5 1c 67 3d
       0.05300048 0.020150501 0.13802207 0.05642386
0000e0 47 d9 e8 3d b9 14 df bb f3 34 9a 3d cf 92 3b 3d
       0.11369567 -0.0068078903 0.075296305 0.045794304
0000f0 7a 1b 58 bd cb f5 59 3d f6 df c9 3c 01 da 52 38
       -0.05276058 0.053212922 0.024642926 5.0270934e-05
000100 86 a8 3f 3d c7 c9 30 bd f5 40 20 3d 2c 94 da 3c
       0.046791576 -0.04316118 0.039124448 0.026681982
000110 48 37 1a bd 89 e6 20 3c 3c d3 1e be 3e d1 2c bd
       -0.037650377 0.009820589 -0.15510267 -0.042191736
000120 29 35 b4 bd 60 f3 fc 3c 9e c4 89 bd 05 ae e0 3c
       -0.08799202 0.030877769 -0.06726955 0.027426729
000130 bb 5b 1e 3e f6 d0 54 bd ca aa 8c bd a8 dc bd bd
       0.1546468 -0.051957093 -0.06868513 -0.092706025
000140 96 26 b8 bc b0 5e 5b bd 68 2f 31 bc ed 07 14 be
       -0.022479337 -0.053557098 -0.010814525 -0.14456148
000150 69 6d c9 bd c2 85 5f be 53 7b 8f bd 61 12 36 3a
       -0.098353215 -0.21828368 -0.07005944 0.00069454877
000160 63 d9 15 3d aa cb b4 3c ed ec ec bd 6c 06 08 be
       0.03658427 0.02206977 -0.115686275 -0.132837
000170 15 cd 91 bd 1f 6e 26 be ef 24 d0 3c d6 b7 f0 bd
       -0.071191944 -0.16252945 0.025408236 -0.11753814
000180 38 85 8c 3d 95 b0 97 3c 77 ec 13 3c d0 72 f3 3d
       0.06861347 0.018516818 0.009028546 0.11887133
000190 be 58 43 be 9a 37 07 be 2b ca 59 3d bb 3e 09 be
       -0.19076821 -0.13204804 0.053171318 -0.13402836
0001a0 ca de e2 3d fd e8 9d bd 23 25 ea bd 3a 04 b1 bd
       0.1107765 -0.077104546 -0.114328645 -0.08643384
0001b0 00 3e f3 3d 4e 79 db 3c 75 82 19 3e f8 ff 39 bd
       0.1187706 0.026791241 0.14991172 -0.045410126
0001c0 e9 c9 0c 3d d7 b8 a7 3c 59 07 11 bb e8 33 b1 3c
       0.034372244 0.02047388 -0.0022129624 0.021631196
0001d0 5a c2 90 bd 4c 63 d0 bd 88 dc 31 be 34 89 bd bc
       -0.070683196 -0.101751894 -0.17369282 -0.023136713
0001e0 b6 b8 1e 3e 21 94 6f 3d 98 42 1b be 24 1f 1d 3b
       0.15500149 0.058490876 -0.15162122 0.002397486
0001f0 27 dc 24 3d 6c 09 4c 3d ff 9b 33 be f7 a1 87 bd
       0.040249016 0.049813673 -0.17539977 -0.06622689
000200 be b6 0c be 3d bb cf bb 83 36 71 3d 54 e5 30 3e
       -0.13741586 -0.006339459 0.058889877 0.17274982
000210 f0 f9 cb 3c a3 1f a5 3d 4f b2 3d 3c 8d 16 61 3c
       0.024899453 0.08062675 0.011578157 0.013738287
000220 a6 25 1a 3d 9a 87 89 3d 0e 21 8e 3c ab 0d 3d bc
       0.03763356 0.06715317 0.017349746 -0.011538903
000230 03 42 a3 3d 1c 7d 8b 3d 37 a6 f1 3d bb d7 ba 3d
       0.07971575 0.06810972 0.11799281 0.091231786
000240 03 88 b0 3d 44 58 2d 3b a5 2e 35 bd 24 1e da 3d
       0.08619692 0.0026450315 -0.044233937 0.1065028
000250 8f 38 85 3d c1 c4 cf 3d 04 7e b3 bd 48 5c 80 3d
       0.06504928 0.1014495 -0.0876427 0.06267601
000260 8b a7 b0 bd 08 f6 ba 3d e8 2c d6 bd 64 29 89 3b
       -0.08625706 0.09128958 -0.10457784 0.0041858424
000270 bf 0c ea 3d 04 4d db 3d 8f 38 19 be 8b fd 3f 3d
       0.114282124 0.10708049 -0.14962982 0.046872657
000280 5a f0 3a 3e c1 a9 80 bd 7d 1d ae bd 06 f5 26 3e
       0.1825575 -0.06282378 -0.08501718 0.16304407
000290 ec 53 9b bd 60 15 06 3e 4c bf 06 3e 07 43 54 bd
       -0.07584366 0.13094091 0.13158911 -0.051821735
0002a0 47 bd 23 3c 7b af d9 3c 41 14 3d bd aa c2 d5 bc
       0.009993858 0.026572933 -0.046161894 -0.0260938
0002b0 8f de 1d bd 98 12 10 3e 39 35 3a ba 70 00 c1 bd
       -0.038542327 0.14069593 -0.00071032677 -0.094239116
0002c0 66 f4 41 bd a0 cd 24 3d 2e dd b3 3c ce 9b 61 3b
       -0.047352217 0.04023516 0.021956053 0.0034425142
0002d0 89 27 62 bd 7a 07 4a 3c be 42 54 3d 9d f1 95 bd
       -0.055213485 0.012330884 0.051821463 -0.07321475
0002e0 46 71 5a bd fd 30 cc 3d 02 4b 05 3d 7a ee 4b bd
       -0.053330682 0.09970281 0.032542236 -0.049787976
0002f0 ce f0 48 3d f4 b3 8b 3d 3e 16 97 3d 45 97 07 3e
       0.049057774 0.06821433 0.07377289 0.13241298

gru2.weight_ih_l0 f4 [192, 64]
000000 c6 c4 3a be d7 f1 4a bd f3 01 0b bd 8e 4d 65 bd
       -0.18239126 -0.049547043 -0.033937406 -0.055982165
000010 44 f9 76 3d 18 76 b1 3d 2e 3b 34 3e 8a 22 a1 be
       0.060296312 0.08665103 0.176007 -0.31471664
000020 a7 e6 19 be 5d cb be 3d fc be 81 3d 35 11 14 3e
       -0.15029393 0.09316132 0.063352555 0.14459689
000030 4c 76 95 3c d6 b7 be bc 31 be 31 bd a8 02 f8 3d
       0.018244885 -0.02328102 -0.04339427 0.12109882
000040 5d a7 75 bd e4 6b b4 bc 49 2e d1 3d ce 6c 68 bb
       -0.059974063 -0.022024103 0.10213906 -0.0035465243
000050 77 46 d3 3d 41 91 fb bd 29 5d 58 3e 7a 6b 5e be
       0.103161745 -0.12283564 0.21129288 -0.21720687
000060 1f 9e 81 bd c2 2c 64 3d 48 38 10 3e b8 f7 69 be
       -0.06328987 0.055706747 0.1408397 -0.22848403
000070 da fc 93 be 6b 07 ae bc 4a 49 37 be b1 d9 ec 3d
       -0.28903848 -0.021243772 -0.17899051 0.11564959
000080 60 25 78 3e 73 df d4 bd 62 a5 31 be 3d ac 2d 3d
       0.24233007 -0.10394182 -0.17348245 0.042400587
000090 6b 89 34 be 23 5e 91 3e d5 86 c3 bc b6 4d 2b 3d
       -0.17630546 0.28392133 -0.023868004 0.041822158
0000a0 2e 1d 84 bd 7a ce 4c be cc a0 09 3e c3 2d 8d 3e
       -0.06450878 -0.2000064 0.13440245 0.27573976
0000b0 19 8d 07 3d 1a a6 32 3e c3 66 3d 3d 9d 84 fb 3d
       0.033093546 0.17446175 0.04624058 0.12281153
0000c0 8b f6 4f 3d 66 62 86 3e a0 f5 70 3d 36 99 31 3e
       0.05077223 0.26246947 0.058827996 0.17343602
0000d0 0e b0 b6 bd 54 ee 71 be 0a ff d9 bd 4c 96 22 be
       -0.089202985 -0.23626071 -0.10644348 -0.15877646
0000e0 e8 e9 17 be db 21 98 3d d7 dc ee bc 49 0d 58 3e
       -0.14835322 0.074283324 -0.029158039 0.21098818
0000f0 a1 8e e2 3d 5a cb c5 3d f5 91 0c be 67 63 31 3e
       0.110623606 0.09657927 -0.13727553 0.17323075
000100 92 78 f6 bd 8a 94 0c 3e 6b 4d 70 3e c0 f9 5a 3b
       -0.12034716 0.13728538 0.23467033 0.0033413023
000110 df 40 f5 3d b0 83 18 be 5e de d3 3c af 5e 86 bd
       0.11975264 -0.14893985 0.025862869 -0.06561028
000120 e8 5d ae 3d 52 a6 1d 3c 16 8d be 3d c2 58 29 bd
       0.08514005 0.009622173 0.09304254 -0.04134441
000130 96 e8 87 3d 02 1b cb 3d a1 99 2c 3d fb 75 9e bd
       0.06636159 0.09917261 0.0421387 -0.07737347
000140 c9 f4 15 be 48 f2 dd bd 0f c8 be bc 40 57 05 3e
       -0.1464416 -0.10837227 -0.023288755 0.13021564
000150 b2 0c 54 3e 72 79 19 3e 72 29 b3 3d 9b f6 93 bd
       0.20707968 0.14987734 0.087481394 -0.07224771
000160 11 ae cd bd 64 ec 7a 3d aa 92 d7 bd 4a cd c8 bd
       -0.10042966 0.061260596 -0.10526021 -0.09804781
000170 33 39 8c 3d 50 2c 5e 3e 1d 82 52 3d 8c ad 1f 3e
       0.068468474 0.21696591 0.051393617 0.15593547
000180 c0 90 ae 3b 1a 0d 6f bd bd a9 31 3c 50 b5 af bd
       0.005327314 -0.058362104 0.010843691 -0.085795045
000190 71 7e 74 3d 41 41 47 3c f3 ad 35 3e f8 6c f4 bd
       0.059690896 0.012161554 0.17742138 -0.11934847
0001a0 62 a4 04 be 7d 52 c2 bc 85 f4 a6 3d 26 af 1b be
       -0.12953332 -0.023720974 0.08152107 -0.15203533
0001b0 a7 03 0c 3e f1 d7 f1 bc 1f 63 25 be 9e 77 22 be
       0.13673268 -0.029521914 -0.16151093 -0.15865943
0001c0 87 b8 48 3b ca 08 15 be dc 25 00 3d 3c ce d8 bd
       0.0030627565 -0.14554134 0.031286106 -0.10586211
0001d0 84 d5 09 3e e7 62 33 3e 1f 48 26 3e e1 9e 58 3d
       0.13460356 0.17518197 0.1623845 0.052885894
0001e0 90 3a 92 3c ad e1 c6 bd 83 7a 81 be 28 56 47 3d
       0.01785019 -0.09711013 -0.25288782 0.04866615
0001f0 e2 06 32 3d 8b 02 c3 3d 7a f5 57 3e 79 6d a6 3b
       0.043463595 0.095219694 0.21089736 0.005078968
000200 d5 9f 1d be 37 ff 16 be c7 17 5d 3d b6 0b f6 3d
       -0.15393002 -0.14745794 0.053977754 0.120139524
000210 47 fe 5c 3d 55 66 e7 3d 49 af 0d 3d ed f6 2b bd
       0.053953435 0.11298815 0.034590993 -0.041983534
000220 7b 27 94 3c b1 fd 28 3d 3c 89 36 3e 52 76 b7 bc
       0.018085232 0.041257564 0.17825788 -0.022395287
000230 3d 20 56 3d b3 47 a3 bd 96 e0 83 3e 9a ee 8e 3d
       0.05227684 -0.0797266 0.25757283 0.069791034
000240 46 e1 21 bd 23 6b 64 bd 66 75 51 bd 74 c5 19 3e
       -0.039521478 -0.055766236 -0.05113735 0.15016729
000250 c5 d4 10 3e 63 bd 54 3d 2a 57 a0 bd 98 a2 9c bd
       0.14143665 0.051938426 -0.07829125 -0.076482
000260 e0 a3 fd 3c de 68 da 3d 98 1b 7a 3d f5 58 36 3e
       0.03096193 0.10664533 0.06106147 0.17807372
000270 82 64 93 bd d0 0b 77 3e 71 ea 8b bc 79 56 a7 bc
       -0.07196905 0.241256 -0.017079564 -0.020426976
000280 08 aa 8f 3b 36 6d bf bd 88 0a 8b 3d 59 44 74 3d
       0.004384283 -0.09347002 0.06789118 0.059635494
000290 c7 28 4e bc 0c 86 d7 3d aa e4 db 3d fd c7 9d 3d
       -0.012582964 0.10523614 0.107369736 0.0770416
0002a0 c6 7a 1c 3c 5d 8a 7a bd ac 10 39 3e 1d 9d b0 3c
       0.009550756 -0.06116711 0.18072766 0.021559292
0002b0 f1 39 b4 3d b8 37 bd 3c 3b bd 58 3c 78 7d ff bd
       0.08800114 0.023097858 0.01322871 -0.12475103
0002c0 7c 50 95 bd 12 03 12 be ff 08 26 bd 40 af ac bd
       -0.07290742 -0.14258984 -0.040535923 -0.08431864
0002d0 63 23 09 3e ee fe 04 be 3e 1f 91 bd c2 98 50 3d
       0.13392405 -0.12987873 -0.07086037 0.05092693
0002e0 d5 70 1c be d0 e9 fb bd e4 bc 1b be 6d 1d d8 3c
       -0.15277417 -0.123004556 -0.15208775 0.026381219
0002f0 b8 fd 94 3c b7 27 3f 3c ab a4 e4 bd 83 10 20 3d
       0.018187389 0.011667184 -0.111642204 0.039078247
000300 7a eb c1 bd c1 4f da bd ad 70 bc 3d 69 ed 4e 3e
       -0.09468742 -0.10659743 0.09201179 0.20207752
000310 51 5d f0 3d 25 6b 8e bc 1c 39 00 bd 21 f8 49 3e
       0.11736549 -0.017385075 -0.031304464 0.1972356
000320 26 5d e8 3d ed bd 0a bd ae a9 a3 3c e9 a9 d2 bd
       0.11345892 -0.033872534 0.01997837 -0.10286314
000330 df 59 3e 3e 33 02 b7 bd ab 57 44 3d 12 64 b2 bd
       0.1858897 -0.08935966 0.04793517 -0.08710493
000340 e0 26 65 be 83 86 4a be 54 bf 91 bd 5f 30 4e 3d
       -0.22378111 -0.19777875 -0.07116571 0.0503391
000350 56 f9 16 bd 8b e4 be 3d 42 4b 4a 3c a9 fe af 3d
       -0.03685888 0.09320935 0.012347044 0.085934944
000360 9f 8e dc 3b de 67 52 bd d4 f8 91 bd c2 28 1f 3d
       0.006730869 -0.051368587 -0.07127538 0.03885723
000370 ff df f8 3c 0c 42 a3 3d f8 8e 6c bd 49 43 a8 3e
       0.030380247 0.07971582 -0.057753533 0.32863835
000380 2b c2 5d 3e d8 cb 86 3c 2f 98 19 3d 31 7a c4 3d
       0.216561 0.016454622 0.03749865 0.09593619
000390 95 db 8a 3d 4e e2 90 3d 46 b9 1f 3e 98 04 b4 bc
       0.06780163 0.07074414 0.1559802 -0.021974847
0003a0 2b b1 25 be ce df 13 bb 9c 89 0a 3d a3 46 c8 bd
       -0.16180865 -0.0022563818 0.03382264 -0.09779098
0003b0 04 2e 0a 3d 58 90 46 3d f2 f1 f2 bc 32 b2 c1 3b
       0.03373529 0.0484775 -0.029656384 0.005911135
0003c0 8a 51 5e be e5 b7 43 be 2c 61 04 3e 01 06 25 be
       -0.21710792 -0.19113119 0.12927693 -0.16115572
0003d0 cf a2 13 3d 7a 77 0f be 4d 52 46 bd 4e 5b af bd
       0.03604394 -0.1401042 -0.048418332 -0.08562337
0003e0 55 89 c2 bd 9c 6b 20 3d 6b a7 58 be f1 9f c6 3d
       -0.0949885 0.039165124 -0.21157615 0.09698475
0003f0 a0 f9 6b 3e c7 9a 21 3e d8 a9 a2 bc 61 32 a1 3d
       0.23044443 0.15781699 -0.019856378 0.07870937

gru2.weight_hh_l0 f4 [192, 64]
000000 aa 94 28 bd 3f ec 0c be b7 c6 33 be ae 60 a4 bd
       -0.041157402 -0.13761996 -0.17556272 -0.08026253
000010 40 a6 ca 3d b7 46 00 3e 36 01 ef 3c d0 5e ad 3d
       0.09894991 0.12526976 0.029175382 0.0846535
000020 46 98 25 3e 9e 2b 42 3e 64 77 86 3d 8a 5b 42 be
       0.16171369 0.18961951 0.06565741 -0.18980232
000030 95 0b 9c bd c7 58 20 3e 8c cc b4 3e 4e 60 41 3e
       -0.076193966 0.15658866 0.35312307 0.18884394
000040 99 9d 69 3d 23 34 f5 bd 03 2b 6d bd f2 cd 84 bc
       0.057035062 -0.11972835 -0.057902347 -0.016211484
000050 7f 76 30 bd 17 af d8 3d 23 22 63 3d 30 e3 c7 bd
       -0.043081757 0.10580271 0.055452477 -0.097601295
000060 96 87 06 3e 0d 84 11 bd 48 1e 08 be 4f eb 4c bd
       0.1313766 -0.035526324 -0.13292801 -0.050029095
000070 9a f3 b7 bb 56 03 55 bd b1 80 82 bd b7 74 0f 3d
       -0.0056137564 -0.052005135 -0.06372202 0.035023417
000080 0b 5a 31 bd 41 41 49 be 30 47 74 3e 50 97 98 bd
       -0.043298762 -0.19653799 0.23855281 -0.074507356
000090 43 d1 0c bf 24 cc 8a 3d a8 2f 4e be bd 4c e0 3c
       -0.5500681 0.06777218 -0.20135367 0.027380342
0000a0 c9 32 9c 3d 79 8b 02 3c 43 7e 95 bd 8a 39 1b be
       0.07626874 0.007967823 -0.07299473 -0.15158668
0000b0 7c a3 8b 3d 3a ff e1 bd 65 15 14 be e6 e4 5e be
       0.068182915 -0.11035009 -0.14461286 -0.21767005
0000c0 29 57 a0 3d 72 76 23 3e ab aa dd bd 0f ed a1 bc
       0.078291245 0.15963152 -0.10823568 -0.019766359
0000d0 b3 b3 19 3e 91 01 1b 3d d7 50 52 3b 9d 08 c9 bd
       0.15009956 0.03784329 0.0032091641 -0.09816096
0000e0 0a 22 19 bb 1a d3 0a 3e c5 40 99 3e d3 71 62 3d
       -0.0023366236 0.13557091 0.29932228 0.055284332
0000f0 7d f8 06 3e c3 c4 79 bd d3 f3 41 3e 5e 5b 2e be
       0.13180728 -0.060978662 0.18940668 -0.17027041
000100 0c ca a1 bd 89 07 cd 3d 79 39 4f bd f7 b2 22 be
       -0.078998655 0.10011203 -0.05059192 -0.15888582
000110 63 23 98 be 26 24 9e 3d ab 47 a7 3b b7 84 dc bd
       -0.29714498 0.077217385 0.005104979 -0.10767501
000120 b4 29 b7 bc ac fe 83 3d 0a 7c 2d 3e 4b 6a 54 be
       -0.022358753 0.06445059 0.16941848 -0.20743673
000130 dd a3 90 bd 00 2e 56 be 12 6f dd 3b ae 44 23 bc
       -0.070625044 -0.20915985 0.0067576254 -0.009965105
000140 55 e1 4b 3e 13 18 b3 bd 27 ca a2 bd c7 17 62 3c
       0.19910176 -0.08744826 -0.07948714 0.013799614
000150 f9 a8 8e 3b 36 6c 90 3a c0 4f c8 bc c9 68 5f 3e
       0.004353639 0.0011018577 -0.02445209 0.21817316
000160 b0 4b 6d bd 13 ea f7 bd a3 db cb bd 33 85 53 bd
       -0.05793351 -0.12105193 -0.09954002 -0.0516407
000170 27 92 8a bd ef 01 1f be c3 e1 9e 3d f7 bf c3 bc
       -0.067661576 -0.15528081 0.077579044 -0.023895247
000180 a8 25 8e bd 2b 8f 0a 3e 4d 8a 14 bd a8 e7 a0 bd
       -0.06940776 0.13531177 -0.036264706 -0.07856685
000190 0f 05 06 be c1 39 3d 3e 3d a1 c5 bc 7d 7e 44 bd
       -0.13087867 0.18479063 -0.024124736 -0.04797219
0001a0 97 93 15 3d 90 a2 c8 3c d8 bb 9a 3d fd 1f f7 bd
       0.036517706 0.024491578 0.075553596 -0.12066648
0001b0 af d9 86 3e 7d c1 4b 3e 75 c8 cd 3d 0a 05 f0 3c
       0.26337954 0.19898029 0.10048 0.029299278
0001c0 36 37 06 3e a7 56 41 bd d0 89 78 3e a4 38 2a be
       0.13106999 -0.04720178 0.24271321 -0.16623169
0001d0 ce d9 2e 3d e5 64 87 bd 51 be 2f be d4 a1 9e bd
       0.042688183 -0.06611041 -0.17162444 -0.0774571
0001e0 a0 37 3a bd ab bf c8 bd 0e 63 06 3e f4 bd 51 3d
       -0.045463204 -0.09802183 0.13123724 0.051206544
0001f0 8b 24 62 bd 15 a2 20 bd 19 cc 06 be 9e ec 5b 3e
       -0.05521063 -0.039217073 -0.13163795 0.21476981
000200 90 a3 e3 bc 6e 9a d8 bd c4 1b 2c 3c 70 91 c3 bd
       -0.027787954 -0.1057633 0.010504667 -0.095492244
000210 91 09 99 bd 5c af f8 bc c9 b2 2d 3d 03 7e 1b be
       -0.07472528 -0.030357055 0.04240683 -0.15184788
000220 f5 eb 5e 3d 05 3c 49 3e c7 96 0d 3e 01 a9 38 be
       0.054424245 0.19651802 0.13827048 -0.1803322
000230 af f7 1c be 76 77 eb bd 04 86 78 bd a4 4f 68 3e
       -0.15328859 -0.11497395 -0.060674682 0.2268663
000240 c5 4f 8b bc 58 7d dc bc f3 f3 19 be c9 08 11 3d
       -0.01700581 -0.026915237 -0.15034465 0.03540877
000250 a0 eb ca bc dc 0e cd 3d 57 d9 87 bd 31 eb 5b 3d
       -0.024770558 0.100126 -0.06633251 0.053691093
000260 1c 6b 97 bd 94 08 33 3d c4 71 ff bd ad 55 72 3d
       -0.07393476 0.043709353 -0.12472871 0.059163738
000270 ca f5 98 be 6c 9c 46 bd f9 8c 6a 3d 26 bd 22 bd
       -0.29875022 -0.04848902 0.05726335 -0.039731167
000280 62 49 8c 3d 03 6a ad 3d a8 bf 8d 3b 52 19 9e bd
       0.06849934 0.08467486 0.0043258257 -0.07719673
000290 1d 0e df 3d 3d 07 47 3c 12 ba 6a 3c b0 14 b3 3d
       0.10891364 0.012147722 0.014326589 0.0874418
0002a0 a9 7e 81 bd 91 4c b2 3d 00 5c 7a 3d fc 34 52 be
       -0.06322987 0.0870601 0.061122894 -0.20528024
0002b0 d0 5c b0 bc 29 8a fe b9 4a b0 57 be 0a 2d e8 bd
       -0.021528631 -0.00048549593 -0.21063343 -0.113367155
0002c0 20 0c 23 be f2 56 1c 3e fb 58 94 3d 0a af 2d bd
       -0.15922594 0.15267542 0.07243534 -0.04240326
0002d0 d9 f4 4d bc ad 92 c5 3d d5 96 1d bc c9 82 3c be
       -0.012570583 0.09647117 -0.009618481 -0.18409266
0002e0 0f 52 01 be fa 1b 02 3e 8f 75 09 be bb f5 24 be
       -0.12628959 0.12705985 -0.13423751 -0.16109364
0002f0 da ed 3c 3e f7 4c ca bd 82 52 48 3e 5d 59 f0 3d
       0.18450108 -0.09877961 0.19562724 0.11735795
000300 cc 09 db 3c cb 29 99 bb 1e 75 6b 3d cc d0 5f 3d
       0.02673807 -0.0046741716 0.05748474 0.054642484
000310 76 98 f6 bc 8f e5 88 3e f8 96 88 3e 16 11 01 3e
       -0.030101996 0.2673764 0.2667768 0.12604174
000320 23 16 25 bc 56 f5 fa 3d 93 51 11 3e f6 1b 82 bb
       -0.010076079 0.12253825 0.14191274 -0.0039706184
000330 de 11 c6 bd 37 ea 77 3c de 1d c0 bd 78 84 b0 3d
       -0.09671377 0.015131525 -0.09380697 0.086190164
000340 cd 9f b6 bd ad 90 e9 3d cb 3e 6f be ad 21 8f 3d
       -0.08917198 0.11404548 -0.23363797 0.06988845
000350 59 48 e8 bd b4 10 ab 3e b0 97 9c bd d9 44 2e 3d
       -0.11341924 0.3341118 -0.076461196 0.042546127
000360 bb 45 dd bd 33 ff c7 bd 2a 87 96 3d b1 ce 63 3e
       -0.10804316 -0.09765472 0.07349999 0.22246815
000370 82 a5 93 be 82 41 52 be 7b 96 ad bc d6 b6 53 bb
       -0.2883721 -0.20532802 -0.021189919 -0.0032305024
000380 eb ec f3 3c 92 8f f9 3d 9d 45 47 be 64 3b 45 3e
       0.029776057 0.12185587 -0.19460149 0.19260937
000390 79 ef 83 bd d3 0a ee bd ea 09 24 3e c9 fe e9 3c
       -0.0644216 -0.11623158 0.16019407 0.028563874
0003a0 20 1d 1a 3e 71 74 3d be d0 5b 11 be eb 38 8f be
       0.15050173 -0.1850145 -0.1419518 -0.27973112
0003b0 08 45 2c be 7c 6f 1d be fa 5f f0 bd 19 dd aa 3e
       -0.16823208 -0.15374559 -0.11737056 0.3337181
0003c0 ca f5 c1 bc 29 38 cd 3e cf 4f 98 bd 59 a2 85 be
       -0.023676772 0.4008191 -0.07437097 -0.26100424
0003d0 f9 c5 38 bd 3c 3b 50 3e f4 50 91 3e 3f 94 9a 3d
       -0.045110676 0.20335096 0.28382075 0.07547807
0003e0 ea 67 2f 3e f1 d1 84 3d 5b 1d f3 be 5a d1 80 3c
       0.17129484 0.06485356 -0.47483334 0.015724827
0003f0 da 8b ad 3a ed bc 39 be 07 53 28 bd 6d 13 4a 3d
       0.0013240532 -0.18138476 -0.041094806 0.049334932

gru2.bias_ih_l0 f4 [192]
000000 b1 20 8c 3d fd d4 f6 3d 52 68 24 bb 18 e0 1c 3e
       0.06842173 0.12052343 -0.0025086594 0.1531986
000010 02 58 e8 3d 27 89 9c bc 3a b3 b1 3d 61 31 cd 3d
       0.11344911 -0.019108368 0.08676763 0.10019184
000020 ea ee 5f bd 4d 25 a5 3d 3c 11 63 3c a3 30 61 3b
       -0.054671206 0.08063755 0.013859089 0.0034361265
000030 e7 e9 6f bd e9 f5 5d 3e d3 cd 0d bd b2 94 77 3e
       -0.058572676 0.21675839 -0.034620117 0.24177817
000040 b2 2a cc 3d 12 60 d5 3d c2 ec ad 3e 8b 3c cb 3d
       0.09969081 0.104187146 0.33969694 0.09923657
000050 0a 05 87 bd 9d 9c 16 3e a6 80 c2 3d 9c f9 33 3d
       -0.06592758 0.1470818 0.09497194 0.043939218
000060 2d 91 98 3d 4b eb a5 bc 7e e7 94 3d c4 7e 9c 3e
       0.07449565 -0.020253798 0.07270716 0.30565464
000070 3b 79 86 3e a1 ad 90 39 97 a9 11 bd d1 05 2b 3e
       0.26264367 0.00027595184 -0.035562124 0.16701438
000080 39 8f 29 3e fc b7 be 3d 8e f6 71 3d 13 87 70 3d
       0.16558541 0.09312436 0.059073023 0.058722567
000090 2c 38 b9 3d 96 45 d6 3d 9e 87 34 3d 77 da fa 3d
       0.09043917 0.10462491 0.044074647 0.122487
0000a0 7f ae 3d 3d c5 89 3b 3d 88 6b f7 3d 53 a7 b7 3d
       0.04630899 0.045785684 0.12081057 0.089674614
0000b0 ac 57 37 3d c8 01 99 3e 74 71 ca 3c 1c 76 df 3d
       0.044761345 0.2988417 0.024712302 0.109111995
0000c0 cb a9 7d ba d4 85 84 3e da ec 1c 3d bd c7 9f 3d
       -0.0009676485 0.25883353 0.038311817 0.07801769
0000d0 53 cf 28 3c ef 59 d7 3d f7 90 42 3e 7d 14 54 3d
       0.010303336 0.105152 0.19000612 0.05177735
0000e0 51 de 0b 3e 14 cc 2f 3c 66 26 d6 bd 23 86 ee 3d
       0.13659026 0.010729808 -0.10456543 0.11646678
0000f0 3b fd 07 3e 56 6c 47 3e e5 24 03 bd 46 65 cc 3d
       0.13280194 0.1947492 -0.032017607 0.09980254
000100 fa 3f 5c 3d 24 e6 9f bd 6e b6 2e bd b6 4f fb bd
       0.05377195 -0.07807568 -0.042654447 -0.12271063
000110 40 e7 e1 bd ac 9c 59 3e e2 4a 62 3d ac dc a7 bd
       -0.110304356 0.21251172 0.055247195 -0.08196387
000120 36 b7 a0 be de c8 3f 3e f7 49 bf 3c 67 1e 06 be
       -0.3138978 0.18728969 0.023350699 -0.13097535
000130 59 1c 40 be 56 0a f2 bd 93 54 72 be 5c a0 be bb
       -0.18760814 -0.11818378 -0.23665075 -0.005817456
000140 cf 93 1d 3b cd df 30 be 0a 63 0b bd 4b 28 fd bd
       0.00240444 -0.17272873 -0.034029998 -0.12361201
000150 62 0d d5 bc b4 45 c1 3e e0 57 05 be c8 e3 57 be
       -0.026007358 0.37748492 -0.13021803 -0.21082985
000160 3a 7b 39 3c 54 ce 91 bc 92 91 2c 3c be 9a 42 3d
       0.011320883 -0.01779858 0.010532754 0.047510855
000170 be 12 c3 3d 51 94 24 be 23 9d 1d bd d2 28 ba 3d
       0.09525059 -0.16072203 -0.038479935 0.09089817
000180 71 0d d3 3c a6 a8 96 bd 52 5e 62 be b7 bf 37 be
       0.025763245 -0.07356386 -0.22106293 -0.17944227
000190 46 6d fd 38 67 b9 3a 3d 58 d7 83 bd 5c 38 8f bd
       0.00012084334 0.04558697 -0.06437558 -0.069931716
0001a0 4f 2a 33 3e c9 bd aa bd 66 86 3e bb 10 28 99 3c
       0.17496608 -0.0833698 -0.0029071807 0.018695861
0001b0 bf a4 23 3d c2 4f bb 3d 8f 5a 5a 3d f1 5d 40 3d
       0.039952036 0.09146072 0.05330902 0.04696459
0001c0 86 6d 15 3e c8 e1 9c 3d 15 c1 50 bd 22 47 6d 3c
       0.14592561 0.07660252 -0.050965387 0.014482291
0001d0 c7 9b a8 bd cb 11 d2 3d 8c 20 9a 3d ed cf 17 bd
       -0.08232837 0.102573 0.07525739 -0.037063528
0001e0 00 47 9e bd 77 84 5d be 89 b1 a5 bc cf 1d 1c 3e
       -0.07728386 -0.21632563 -0.020226257 0.15245746
0001f0 55 10 23 3d e5 4e 80 bd 6b 50 21 be 39 87 ff bd
       0.039810497 -0.06265048 -0.15753333 -0.124769635
000200 0d a4 cb 3c 54 56 b0 bd aa e7 ea 3d e1 80 9d bd
       0.024858499 -0.08610216 0.11469968 -0.07690597
000210 a7 1f 55 3d d2 55 1d be 84 1d da 3d 46 49 a2 bb
       0.05203214 -0.15364769 0.10650161 -0.0049525825
000220 78 4c 25 3d 56 e6 cf bc e6 60 18 3e e6 88 49 bd
       0.04035613 -0.025378387 0.14880714 -0.049202822
000230 2a 6e a0 3d fc ac 92 bd 3a 19 8f bd 5c dc 89 bd
       0.07833512 -0.071619004 -0.069872335 -0.06731483
000240 3b f8 06 bd 82 77 de bb ac 14 36 3d ff 72 83 bd
       -0.032951575 -0.006789149 0.044453308 -0.06418418
000250 f2 29 4c 3c ca ef 11 3e 9f c0 65 bd 34 08 a5 3d
       0.012461172 0.14251629 -0.0560919 0.08058205
000260 96 8c 8a bd eb ba c9 3c eb 0b 1a be 16 0d c6 3d
       -0.06765096 0.024625262 -0.15043609 0.09670465
000270 77 cc 64 bd 73 4f 46 bd 65 ef 9f bd c9 a9 61 3d
       -0.055859055 -0.048415612 -0.07809333 0.05509356
000280 ff 64 fe 3d 86 85 d1 3b 1e 01 1a bd c0 65 89 bd
       0.12421607 0.006394091 -0.03759872 -0.067088604
000290 e9 ce a2 3b 6f ba 7b 3d ec c0 58 ba 4b a4 c3 3c
       0.0049685133 0.061457094 -0.00082684937 0.023882052
0002a0 b4 e6 d9 3d b9 f9 b0 3d 32 7f 17 bd 74 9e 97 3d
       0.10639706 0.08641381 -0.036986537 0.074032694
0002b0 71 6a 69 bd 61 45 b8 3c 38 4d 4c 3b 91 61 ec 3d
       -0.056986276 0.02249402 0.0031173956 0.11542047
0002c0 84 d3 cc bd 23 26 4b 3d 75 00 84 bd 35 42 93 3c
       -0.10001281 0.049596917 -0.064454 0.017975906
0002d0 11 7f 19 bc 6e 9c 9d bd a4 85 da bd 2e 96 d6 bc
       -0.009368674 -0.07695852 -0.10670021 -0.026194658
0002e0 40 7b b4 bc 52 6a e8 3c 6d 6a 92 bd 29 5a 94 3d
       -0.022031426 0.02837101 -0.07149205 0.07243759
0002f0 c7 d5 9d 3d 78 dd 8a 3d 1b 8d 1e 3d 0d 1d be bd
       0.077067904 0.06780523 0.038708787 -0.09282885

gru2.bias_hh_l0 f4 [192]
000000 ea 42 28 3e aa 37 84 3c fa 72 25 3e 39 81 94 3d
       0.16431776 0.016139824 0.16157141 0.0725121
000010 d5 f9 6f 3e c6 ad 4c 3e 45 ec f5 bc e8 ca 69 3d
       0.23435147 0.19988164 -0.030019889 0.057078272
000020 a9 44 ef 3d e3 16 32 3e 93 9f 2b 3e 04 61 13 3d
       0.11683018 0.17391543 0.16760091 0.035981193
000030 a8 5e f5 bd dc 04 67 3e f6 b6 87 bd e7 4a 6a 3e
       -0.11980945 0.22560447 -0.06626694 0.22880135
000040 c3 3b 26 3e 27 8e 17 3d 14 1f a4 3e 54 c8 6a 3e
       0.16233735 0.0370008 0.3205496 0.22927982
000050 39 01 c2 3d a3 cd d1 3d 32 c8 b8 3d 52 5e e5 3d
       0.094728895 0.102443 0.09022559 0.11199631
000060 85 f8 97 3c 01 f1 d2 bd a4 56 1f 3e 42 79 4a 3e
       0.01855112 -0.10299874 0.15560395 0.19772819
000070 60 e5 81 3e 23 b1 46 3e d7 65 3f 3d 76 c6 61 3d
       0.25370312 0.1940351 0.04672798 0.055120908
000080 7b 2c 36 3e 9c 17 d4 3d db 72 ba bb 70 47 a3 bc
       0.17790405 0.10356066 -0.0056899614 -0.019931525
000090 84 17 5b 3d 0c 99 0b 3d 07 07 af 3d 37 b2 ba bc
       0.053489223 0.034081504 0.08546262 -0.022790058
0000a0 c5 f2 ab bd 4a d5 a5 3d 30 b0 8c 3d e3 4a 67 3e
       -0.08395914 0.08097322 0.068695426 0.22587161
0000b0 2f 7e 1f 3e 9b 8c 1a 3e 65 c9 1b 3d 23 fc 65 3e
       0.15575479 0.15092699 0.03803386 0.22459464
0000c0 2a 89 08 3e c3 a3 6e 3e 5e 83 59 3e cb 66 0c 3b
       0.13333574 0.23304658 0.21241519 0.0021423574
0000d0 e1 b9 3e 3e 01 81 69 3e d5 89 13 3e b5 41 56 bd
       0.18625595 0.22803117 0.14408047 -0.052308757
0000e0 5c 13 c7 bc f8 82 d8 3d d2 47 b1 3d 57 5e 4a 3e
       -0.024301223 0.10571855 0.08656277 0.1976255
0000f0 a3 3a 51 3c ef ef 8a 3e cb e4 c3 bc dd 32 ec 3d
       0.012770328 0.2713618 -0.023912808 0.11533139
000100 26 c3 47 3d 76 50 e7 3d d3 0e f2 bd d4 7b e6 bd
       0.048770092 0.112946436 -0.11819234 -0.11254087
000110 46 df a2 bd 56 7d 35 bc 27 6b 73 3d 09 65 0a 3d
       -0.07952742 -0.011077246 0.05942836 0.03378776
000120 05 b2 d2 bd 6b cf 45 3d 32 c3 85 3c 85 e8 f0 bd
       -0.10287861 0.048293512 0.016328428 -0.117630996
000130 ce 50 80 be d2 87 2e bd 2d 53 54 bd ac 95 2c be
       -0.2506165 -0.042609997 -0.051837135 -0.1685397
000140 b6 54 d0 bc 9e 6d 3b be 77 7f fc bd 53 4e 33 be
       -0.025431018 -0.18303534 -0.123289995 -0.17510347
000150 8a df 9b bd 44 06 7d 3e df cf 6d bd 44 cf 10 be
       -0.07610996 0.24709421 -0.05805957 -0.14141566
000160 c0 e3 89 3d c4 f2 c2 3d f9 c6 47 be 5e 64 a3 bd
       0.06732893 0.0951896 -0.19509496 -0.07978128
000170 f5 6e 4e 3d e8 43 60 be 36 4b 0e 3e e6 c7 a3 3d
       0.050398786 -0.21900904 0.13895878 0.07997112
000180 9d 4b 48 bd 95 c8 a8 3b 9d 51 cc bd fb b1 90 bd
       -0.048900235 0.0051508644 -0.09976504 -0.07065197
000190 9a 06 11 bd c4 be f3 bb d1 b9 31 be 55 6d a2 3c
       -0.035406686 -0.0074385125 -0.1735604 0.019827524
0001a0 4d a2 e8 bc 0a e1 c6 bd e1 86 b4 3d 26 2a 14 3e
       -0.028397704 -0.097108915 0.088147886 0.14469203
0001b0 53 8c 1b bc 38 19 83 bd fb e0 1f be 4a 86 27 be
       -0.009493905 -0.064012945 -0.15613167 -0.16359821
0001c0 b3 19 bd 3c de 44 90 3e b8 a4 7e bd 2c 88 9e 3d
       0.023083543 0.28177541 -0.062168807 0.077408165
0001d0 db c9 49 bd 53 f0 e0 3d 6c 63 0d 3e ca 4b 90 bd
       -0.04926477 0.10983338 0.13807458 -0.070457056
0001e0 fb 44 c6 3c fe f1 e2 bd 53 4c bf 3c 7a 17 d3 3c
       0.024202814 -0.110813126 0.023351824 0.02576803
0001f0 65 c2 59 3c ed 3c 60 3d 55 69 27 be 49 4e 99 bd
       0.013290976 0.054745603 -0.16348775 -0.07485635
000200 11 4a 37 3c 7f 36 0c ba 42 b3 ad bd cd e7 ad 3d
       0.011187092 -0.0005348697 -0.08481456 0.08491478
000210 0f 46 1b be dd d0 07 3e 87 c8 d5 3d 25 11 97 bd
       -0.15163444 0.13263269 0.10438638 -0.07376317
000220 b2 29 65 3d 5e 19 00 bd f6 43 1c 3e 3e 6b a1 bd
       0.055947967 -0.031274192 0.152603 -0.07881783
000230 91 b3 8d bd af 95 5e bc c6 b7 ba 3d f6 02 32 3c
       -0.06919015 -0.013585492 0.09117083 0.010864964
000240 96 d4 da 3d 2d b5 f1 bc fa 60 37 3d 5f 24 08 bd
       0.10685079 -0.029505337 0.04477022 -0.03323781
000250 0d 48 dd 3d 94 3b 22 3e 30 c7 40 bd 97 fe 99 3d
       0.10804758 0.1584304 -0.04706496 0.07519262
000260 20 8b 0e 3d e7 7f 43 3d ee e7 78 3d fb 4d 87 3d
       0.03480065 0.0477294 0.06076806 0.066066705
000270 a2 fd d1 bd 4c 69 13 be 2b 2b 2a 3e 2b 94 0b be
       -0.10253455 -0.14395636 0.1661803 -0.1363074
000280 3f 21 b0 3d dc 4d a0 3d 19 fd b7 3d 5b 9c dd bd
       0.08600091 0.078273505 0.089838214 -0.10820838
000290 4f 3d ea bd b0 c3 3c 3e 62 6e ba bc d8 00 ac 3d
       -0.11437475 0.18434024 -0.022757713 0.083985984
0002a0 5f 4d e5 bc ed b7 be 3d 24 9b cc 3d 63 62 b0 bd
       -0.027990995 0.09312425 0.09990528 -0.08612516
0002b0 a0 41 23 3d e5 0c c4 bc fb 40 1c be 71 a3 c6 bc
       0.039857507 -0.02393193 -0.15259163 -0.024247857
0002c0 39 ca 04 be 08 e8 a6 bd c5 0b 33 3e e6 04 ca bd
       -0.12967767 -0.08149725 0.17484958 -0.098642156
0002d0 85 7a 96 3d 52 92 dc 3d b4 2b c6 bd bf 9c cc 3b
       0.073475875 0.10770096 -0.096763045 0.0062442715
0002e0 ba a9 ad 3d 9b d1 df 3d 8b a5 15 3c 3d 19 2b 3d
       0.084796384 0.10928651 0.009133707 0.041772116
0002f0 9c ad bf 3d 03 3b 2d bd c4 b0 23 3d 4e a8 36 bd
       0.09359285 -0.042292606 0.0399635 -0.0445941
