checkpoints/paoletti_et_al/no_class_balancing/IndianPines_PCA-Split_15/epoch12_0.76.pth (torch, 169208 bytes, 10 tensors)

gru1.weight_ih_l0 f4 [192, 15]
0.14162144 0.19760598 -0.0040045814 0.23321609 -0.019212214 -0.0017750512 0.0019271793 0.08766256
-0.0017024581 -0.0020931426 0.14266233 -0.036422145 0.0145062385 0.113869 0.17695186 -0.101177946
-0.20594692 -0.25033498 -0.24632198 -0.07828167 -0.21729067 -0.16335796 -0.22003222 -0.23831168
-0.15685374 -0.30703783 -0.2410632 -0.17567295 -0.08418752 -0.25234467 -0.12606667 -0.12467542
-0.1577681 -0.03803917 -0.27126503 -0.27612847 -0.1318511 -0.10747031 -0.0014708022 -0.09751623
-0.25535497 -0.13237152 -0.106737554 -0.25477117 -0.03617539 -0.1315023 -0.1439841 -0.105507575
-0.31023398 -0.31357127 -0.25867704 -0.08978335 -0.13876091 -0.17156927 -0.23206857 -0.10650469
-0.17350608 -0.16441607 -0.115743294 -0.040182218 -0.12353336 0.065697126 -0.03604611 0.12563504
-0.03642588 0.09574129 -0.08474655 0.04933659 -0.07624455 -0.023891775 0.09037581 0.100191
0.14962249 0.061497137 -0.05651523 -0.09898012 0.09228235 -0.10500624 0.083892204 -0.12181515
0.061494227 -0.11669245 0.105529346 0.18877941 0.13146865 0.051257182 -0.07698607 -0.04596783
-0.03324123 0.04819477 -0.054114733 0.10633338 -0.001425364 0.09593451 -0.0904664 0.012135961
0.10450216 0.10338319 0.013152422 -0.032728318 -0.044606123 0.06930499 -0.06460825 -0.05147169
-0.023007473 0.20533894 0.16966584 0.31818345 0.323908 0.06026671 0.11150416 0.10234706
0.22367784 0.077731274 0.11629639 0.17325376 0.14134832 0.11578736 0.019487288 0.06755113
-0.26735845 -0.2418908 -0.015167005 -0.22138062 -0.19897899 -0.1386437 -0.17793195 -0.18078431
-0.24374366 -0.3252175 -0.22395645 -0.2859243 -0.15144753 -0.10261189 -0.06301155 -0.46417025
-0.34796336 -0.26190454 -0.29138762 -0.30308244 -0.07327291 -0.39482948 -0.45913023 -0.47039485
-0.19145069 -0.37380198 -0.16090177 -0.24014668 -0.15990031 -0.31015778 0.091387205 0.008706323
0.02512594 -0.025204126 -0.1326781 -0.11263572 0.075566046 -0.0698707 0.0046981936 -0.10591538
0.10134704 -0.0066323187 0.056569617 0.025341127 0.022117382 0.09062158 0.10667141 0.082196645
0.1234632 0.108136386 0.0704377 0.20731242 -0.019647922 0.051909313 0.07359711 0.16302687
0.09650188 0.17115559 0.114734985 0.047738146 -0.050471343 0.19228211 -0.019575117 0.03859505
0.09166481 -0.0075491103 0.039739106 0.110288635 0.04386758 0.07383887 0.08288263 -0.06586929
-0.006251173 0.09395801 -0.06751917 0.003259952 -0.09735231 -0.104378134 -0.103739776 0.08596062
-0.020416608 0.0839518 0.096199155 -0.08605518 -0.00035481987 -0.061705083 -0.019680088 0.117700696
0.12812886 -0.019596908 -0.04527408 -0.06447386 0.061072208 -0.045054656 -0.120649934 -0.00031607226
-0.1288417 -0.1246702 -0.08847181 -0.14794815 0.023652423 -0.015208205 -0.0234925 -0.10145579
-0.088401064 -0.17206007 0.027348619 0.08761081 -0.1472908 0.048735082 -0.02663289 0.015725626
-0.044076182 0.053632803 0.15375465 0.11238405 0.02457303 -0.048428074 -0.13448349 0.12179017
-0.26498446 -0.21672948 -0.26989746 -0.03464964 -0.07983527 -0.23037758 -0.19802426 -0.12980366
-0.16652843 -0.22103909 -0.25522244 -0.103781596 -0.1947901 -0.18490131 -0.2562799 0.050698895
00000000: 3605 113e 3959 4a3e dd38 83bb 33d0 6e3e
00000010: ef62 9dbc d6a8 e8ba 6899 fc3a 6e88 b33d
00000020: 0425 dfba 1b2d 09bb 1316 123e 632f 15bd
00000030: 93ab 6d3c 2634 e93d de32 353e 6236 cfbd
00000040: c0e3 52be e82b 80be d43b 7cbe 2452 a0bd
00000050: 7281 5ebe 4f47 27be 2050 61be fa07 74be
00000060: 449e 20be 1034 9dbe 46d9 76be 9ce3 33be
00000070: 826a acbd 5233 81be 9f17 01be d455 ffbd
00000080: f68d 21be f6ce 1bbd 40e3 8abe b660 8dbe
00000090: fa03 07be 6519 dcbd efc7 c0ba 97b6 c7bd
000000a0: e3bd 82be 668c 07be 3899 dabd 5e71 82be
000000b0: a52c 14bd 8aa8 06be 9170 13be 5b14 d8bd
000000c0: fdd6 9ebe 6a8c a0be 5171 84be 55e0 b7bd
000000d0: 5717 0ebe dbaf 2fbe 62a3 6dbe 221f dabd
000000e0: 94ab 31be b05c 28be d20a edbd 1c96 24bd
000000f0: 0fff fcbd 378c 863d 16a5 13bd 79a6 003e
00000100: 4e33 15bd 0214 c43d 998f adbd 2a15 4a3d
00000110: 1a26 9cbd afb8 c3bc f416 b93d f030 cd3d
00000120: a336 193e 6ce4 7b3d 847c 67bd 17b6 cabd
00000130: 87fe bc3d 830d d7bd adcf ab3d 397a f9bd
00000140: 5fe1 7b3d 74fc eebd c51f d83d 644f 413e
00000150: b89f 063e 0df3 513d dfaa 9dbd c348 3cbd
00000160: f527 08bd e167 453d 69a7 5dbd 51c5 d93d
00000170: 48d3 baba 5079 c43d 7346 b9bd e9d5 463c
00000180: 3a05 d63d 91ba d33d 427d 573c 210e 06bd
00000190: e9b4 36bd c6ef 8d3d 5551 84bd fbd3 52bd
000001a0: 2b7a bcbc 5f44 523e e2bc 2d3e f1e8 a23e
000001b0: 45d7 a53e 3ada 763d 4b5c e43d 569b d13d
000001c0: ce0b 653e 9331 9f3d cd2c ee3d 6f69 313e
000001d0: 9dbd 103e ec21 ed3d cea3 9f3c 3f58 8a3d
000001e0: 35e3 88be 39b2 77be 087f 78bc 9ab1 62be
000001f0: 26c1 4bbe 9df8 0dbe cb33 36be 861f 39be
00000200: f097 79be e882 a6be d754 65be ab64 92be
00000210: 1015 1bbe 2f26 d2bd 330c 81bd b9a7 edbe
00000220: 4128 b2be 5a18 86be c230 95be 9f2d 9bbe
00000230: 1c10 96bd 1727 cabe 1e13 ebbe 98d7 f0be
00000240: a60b 44be f962 bfbe 6fc3 24be 03e9 75be
00000250: e8bc 23be 00cd 9ebe 3729 bb3d f7a4 0e3c
00000260: ead4 cd3c e278 cebc c5dc 07be 8ead e6bd
00000270: 5fc2 9a3d 5f18 8fbd 4ef3 993b 2aea d8bd
00000280: 098f cf3d ec53 d9bb 8bb5 673d 3298 cf3c
00000290: 832f b53c cf97 b93d 8a76 da3d b756 a83d
000002a0: 46da fc3d 9c76 dd3d a441 903d b549 543e
000002b0: aef4 a0bc dc9e 543d 15ba 963d 84f0 263e
000002c0: c7a2 c53d 6943 2f3e 2dfa ea3d 1389 433d
000002d0: 0abb 4ebd 9ae5 443e ff5b a0bc d815 1e3d
000002e0: c3ba bb3d 875e f7bb 79c5 223d 02df e13d
000002f0: 7eae 333d d538 973d 5ebe a93d 7ae6 86bd
00000300: a4d6 ccbb 0f6d c03d 7e47 8abd eba4 553b
00000310: a660 c7bd 34c4 d5bd 8575 d4bd 1f0c b03d
00000320: bb40 a7bc ecee ab3d 1004 c53d b33d b0bd
00000330: 1e07 bab9 78be 7cbd 2338 a1bc 100d f13d
00000340: 3634 033e b289 a0bc 5071 39bd df0a 84bd
00000350: da26 7a3d 3b8b 38bd 5017 f7bd 80b6 a5b9
00000360: 14ef 03be 1753 ffbd b530 b5bd b87f 17be
00000370: bac2 c13c d62b 79bc 5873 c0bc 0ec8 cfbd
00000380: 9e0b b5bd 8430 30be 360a e03c 4c6d b33d
00000390: 66d3 16be 709e 473d 382d dabc 07d3 803c
000003a0: 3a89 34bd 12ae 5b3d dc71 1d3e 9c29 e63d
000003b0: 614d c93c 845c 46bd 0ab6 09be 206d f93d
000003c0: 0bac 87be 55ee 5dbe 0030 8abe c8ec 0dbd
000003d0: ad80 a3bd 1ae8 6bbe dfc6 4abe 40eb 04be
000003e0: 6e86 2abe 1258 62be 84ac 82be 728b d4bd
000003f0: 0e77 47be c556 3dbe 1e37 83be a5a9 4f3d

gru1.weight_hh_l0 f4 [192, 64]
-0.09335152 -0.06887506 0.08697216 0.41531312 0.052683793 -0.012662819 -0.14081675 -0.09862837
0.31337583 -0.06712507 -0.0634432 0.16948552 -0.07548363 0.14219758 -0.54538745 0.0046741255
0.1822397 -0.050380316 0.28208816 -0.06141073 -0.12150824 -0.07479631 -0.06314056 -0.019772412
-0.24430314 -0.2569879 0.35512474 0.057973888 -0.035238132 0.017769272 -0.060774133 -0.11519156
-0.157508 0.09706083 -0.045790177 0.020144857 0.10054833 0.16748068 -0.114664935 -0.10634866
0.2580286 0.10763575 -0.116053686 0.44328517 0.23345414 0.21461087 -0.05855009 -0.11502757
0.056040686 -0.056777578 0.042095527 0.05569324 0.1697324 0.26322588 0.10692838 -0.23438466
0.19394755 0.08524826 0.21748763 0.33438048 0.022672249 -0.08591249 -0.04222975 0.05462278
-0.10518733 -0.060626145 -0.10935129 -0.008234465 0.082684144 0.17229892 0.06575309 0.06272797
-0.1500301 0.03590598 -0.007953579 0.01984307 -0.06297026 -0.060934428 0.10327204 0.007026647
0.10108629 -0.019687416 -0.11681736 -0.18748476 0.019163584 0.087613784 -0.04616781 -0.011411365
-0.03868577 0.12956516 0.115618944 0.11531521 -0.025601191 0.073236525 -0.036467265 -0.019758781
0.09408727 -0.14238432 -0.16598365 -0.14080189 0.093957715 0.23773347 0.030213805 -0.030794865
0.06932518 -0.06404668 0.005092379 -0.04027199 0.21161473 -0.006406928 0.055200838 -0.056094494
-0.12966496 0.020612022 0.14358793 -0.089496955 0.005599313 0.060646143 -0.08952482 0.13355814
0.04181196 0.14612716 0.076164976 -0.04919946 -0.17429721 -0.010280934 -0.055760987 -0.019486321
-0.04674278 0.01398553 0.068741225 0.10848928 0.2938714 0.39162853 0.28005192 0.010504615
-0.17911941 0.14296605 0.22667675 -0.26068062 0.07383592 -0.24827306 0.061903473 -0.0146920495
0.24661419 -0.041668896 0.00995395 -0.114037536 -0.09149837 0.12910317 0.14847843 -0.35247147
-0.19041027 0.30137807 0.12158398 0.15365043 -0.16672401 0.021542326 -0.011106662 -0.041386224
0.0084741535 0.17878956 -0.08504722 -0.0050268522 0.18751636 0.035201278 0.1455331 0.18922262
-0.2510677 -0.16976386 -0.00018000929 0.08178497 0.31978306 -0.03945425 0.059224706 0.26780105
-0.28038266 0.30825254 0.025461828 0.1812975 0.11610469 -0.3035779 -0.021930309 0.057370897
-0.28088215 0.21252804 -0.064363554 -0.11431943 -0.21647799 0.08647855 -0.1550718 -0.12039494
-0.009203783 -0.121968076 0.09801361 -0.065147415 0.1407479 0.014896359 0.07465402 -0.06822903
0.10910132 -0.04137112 0.018083937 0.029158672 -0.04720121 0.060397528 0.008562162 -0.084221005
0.0741526 0.13147482 -0.11507795 -0.032846536 -0.12975745 0.12642361 -0.03614478 0.049110603
0.13614358 0.073997475 -0.022464963 0.18958558 -0.03002126 -0.0027033333 0.050473243 0.079968974
0.010148125 -0.07041636 -0.074296586 -0.1211749 0.110353336 0.24511687 -0.048785508 0.054162834
-0.052594587 0.11312651 -0.02563601 -0.0016363985 -0.0052346303 -0.013414853 -0.016232105 0.11559739
-0.08039201 0.11420226 -0.027897906 -0.0034187324 0.16116066 0.10604617 0.05341649 -0.14166999
-0.029154463 0.023943957 0.10515766 0.03228076 -0.10884107 -0.037986744 -0.07287668 0.25103322
00000000: 152f bfbd 5e0e 8dbd 761e b23d eca3 d43e
00000010: f6ca 573d b677 4fbc 4432 10be acfd c9bd
00000020: cc72 a03e de78 89bd 82ee 81bd 9d8d 2d3e
00000030: 2997 9abd 3e9c 113e 839e 0bbf 6829 993b
00000040: 0b9d 3a3e 975b 4ebd dc6d 903e d189 7bbd
00000050: 50d9 f8bd cf2e 99bd d74f 81bd c1f9 a1bc
00000060: 9a2a 7abe eb93 83be e9d2 b53e 0776 6d3d
00000070: dc55 10bd dd90 913c 4cee 78bd 8de9 ebbd
00000080: c749 21be d4c7 c63d 7b8e 3bbd d406 a53c
00000090: 48ec cd3d 0e80 2b3e 73d5 eabd 54cd d9bd
000000a0: 531c 843e 2270 dc3d 8ead edbd 46f6 e23e
000000b0: 9a0e 6f3e f4c2 5b3e 38d2 6fbd 9393 ebbd
000000c0: eb8a 653d 9b8f 68bd 5c6c 2c3d 981e 643d
000000d0: 55ce 2d3e 8bc5 863e 44fd da3d 8802 70be
000000e0: 309a 463e a496 ae3d 14b5 5e3e eb33 ab3e
000000f0: 27bb b93c e3f2 afbd 1af9 2cbd 23bc 5f3d
00000100: 746c d7bd 1f53 78bd 92f3 dfbd d9e9 06bc
00000110: 4e56 a93d 216f 303e 8ea9 863d 8677 803d
00000120: 7ea1 19be 2612 133d ba4f 02bc ef8d a23c
00000130: 8df6 80bd 6196 79bd 4b80 d33d ca3f e63b
00000140: 5406 cf3d 8147 a1bc f13d efbd 01fc 3fbe
00000150: f3fc 9c3c db6e b33d 751a 3dbd bcf6 3abc
00000160: f874 1ebd bbac 043e a0c9 ec3d 612a ec3d
00000170: 97b9 d1bc 08fd 953d b35e 15bd 2bdd a1bc
00000180: d4b0 c03d 32cd 11be 9ef7 29be 5f2e 10be
00000190: e76c c03d 6770 733e f182 f73c 8345 fcbc
000001a0: 5cfa 8d3d e82a 83bd f9dd a63b 3ef4 24bd
000001b0: 88b1 583e 35f1 d1bb 461a 623d 57c3 65bd
000001c0: e4c6 04be 8bda a83c b708 133e 2e4a b7bd
000001d0: 717a b73b 1768 783d ca58 b7bd 77c3 083e
000001e0: 0543 2b3d 5ca2 153e 62fc 9b3d 5f85 49bd
000001f0: f87a 32be 5d71 28bc a265 64bd c7a1 9fbc
00000200: 5b75 3fbd 9023 653c 33c8 8c3d a12f de3d
00000210: 5076 963e 8983 c83e f762 8f3e 8c1b 2c3c
00000220: 146b 37be b165 123e f31d 683e ee77 85be
00000230: 4937 973d 4b3b 7ebe 7f8e 7d3d ecb6 70bc
00000240: 6e88 7c3e 01ad 2abd e415 233c 838c e9bd
00000250: 7f63 bbbd 9f33 043e bb0a 183e 2477 b4be
00000260: e9fa 42be 3a4e 9a3e 0601 f93d 8a56 1d3e
00000270: b3b9 2abe 8879 b03c b8f8 35bc 9a84 29bd
00000280: 2dd7 0a3c 9c14 373e 3d2d aebd 4bb8 a4bb
00000290: 4a04 403e 372f 103d a106 153e 93c3 413e
000002a0: f28b 80be 94d6 2dbe e0c0 3cb9 e17e a73d
000002b0: 9bba a33e c89a 21bd 9b95 723d 381d 893e
000002c0: 518e 8fbe 47d3 9d3e 5395 d03c 0da6 393e
000002d0: 4cc8 ed3d 906e 9bbe 31a7 b3bc bffd 6a3d
000002e0: c9cf 8fbe f3a0 593e 0ad1 83bd 4e20 eabd
000002f0: 68ac 5dbe ab1b b13d 24cb 1ebe 9f91 f6bd
00000300: 77cb 16bc 66ca f9bd 5cbb c83d 026c 85bd
00000310: 3820 103e dc0f 743c 35e4 983d a9bb 8bbd
00000320: 8370 df3d c374 29bd c424 943c 2bde ee3c
00000330: 0e56 41bd 6663 773d 4f48 0c3c 107c acbd
00000340: 51dd 973d 56a1 063e fdad ebbd 178a 06bd
00000350: 23df 04be 3175 013e 8d0c 14bd 3328 493d
00000360: 3969 0b3e fd8b 973d 7108 b8bc b922 423e
00000370: 25ef f5bc 682a 31bb 08bd 4e3d c6c6 a33d
00000380: 5244 263c 7436 90bd cf28 98bd 8c2a f8bd
00000390: ee00 e23d ebff 7a3e 50d3 47bd d9d9 5d3d
000003a0: 6c6d 57bd dfae e73d 9c02 d2bc 6c7c d6ba
000003b0: 4387 abbb f9c9 5bbc 31f9 84bc 53be ec3d
000003c0: 91a4 a4bd e0e2 e93d 268a e4bc d00c 60bb
000003d0: 4d07 253e bc2e d93d 40cb 5a3d f011 11be
000003e0: 57d5 eebc 1e26 c43c e65c d73d d538 043d
000003f0: 11e8 debd fd97 1bbd 5e40 95bd 6d87 803e

gru1.bias_ih_l0 f4 [192]
-0.03224314 0.18192641 -0.20099555 0.16929588 -0.018552333 -0.15992445 0.17791441 -0.15907395
0.06837422 -0.11023978 0.10657026 0.091582164 -0.09703594 0.024142519 -0.075890854 0.09938327
-0.15746833 -0.19925414 0.24047354 -0.03830108 -0.12788448 0.19414492 0.00931963 -0.097301096
-0.11994622 0.064713374 0.16479363 -0.12526229 -0.13107237 -0.07071255 -0.0068681566 -0.031249894
0.03341903 -0.000986006 -0.0078069167 0.15151705 -0.047027916 0.11464623 -0.043123003 -0.27341235
0.015240191 0.11521439 -0.05307016 0.15406083 -0.0718197 0.10578894 -0.15133785 0.042189933
-0.09636637 -0.08636429 0.16408314 0.09968248 -0.21830235 0.05120454 -0.22326997 0.16450305
-0.046139657 -0.038914446 -0.19200763 -0.037414335 -0.010645005 0.017570136 -0.018761123 -0.02160526
0.006387511 -0.22368026 -0.1734208 -0.013678483 0.0325954 0.1283785 0.20288435 -0.28747112
0.063766524 -0.024989298 0.21145278 0.20868193 0.018075647 0.04005889 0.05986093 -0.19284898
-0.05672962 -0.25738165 0.052633252 0.08871077 -0.23874804 -0.05282458 -0.27862528 -0.17880292
-0.037116505 0.12172236 -0.07706222 -0.19829361 0.11287183 -0.12955202 -0.034954198 -0.11651952
-0.1372787 0.023237213 -0.12563084 -0.01050564 -0.03373346 -0.09331207 0.061740197 0.14233373
0.20547761 0.06946972 -0.15365131 0.14611435 -0.17765418 -0.087588124 0.17130752 0.15654632
0.27205542 -0.06194033 0.017694393 -0.0055588414 0.09458474 0.04459478 0.08255292 -0.0985297
0.16574728 -0.06753964 -0.21553685 0.19167262 -0.29560414 0.09973719 -0.12501954 -0.046916258
-0.026720226 -0.25488296 0.23526739 0.15763743 0.20590945 -0.01662936 -0.19399936 -0.26143467
0.21952151 0.10116137 -0.15938717 0.20554538 0.05322333 -0.1108085 -0.14617887 -0.13906032
0.14071876 -0.15507592 0.12805352 0.11146999 -0.21765944 -0.019191343 0.1830521 -0.15246703
-0.12259975 0.035482787 0.0022519617 0.25656408 -1.2246146e-05 -0.19600463 -0.19066674 -0.101233214
-0.17663345 0.06808135 -0.2503043 -0.118536405 0.0025236935 0.12673402 -0.15324882 0.21764092
0.11814826 0.056078743 -0.17677137 0.09484714 0.2549139 -0.06717269 0.047805205 0.07634925
0.10830804 0.05622817 0.16354473 0.01617748 0.20956482 -0.093116716 0.03957475 -0.22738619
0.099939995 0.20727406 0.26379624 0.17382254 -0.26191258 -0.112334386 -0.096226126 0.09896303
00000000: 6211 04bd eb4a 3a3e c7d1 4dbe e65b 2d3e
00000010: 10fb 97bc 3cc3 23be 322f 363e 48e4 22be
00000020: c807 8c3d 65c5 e1bd 8241 da3d 6e8f bb3d
00000030: c7ba c6bd 88c6 c53c aa6c 9bbd 7589 cb3d
00000040: 613f 21be 4709 4cbe b23e 763e 98e1 1cbd
00000050: 26f4 02be edcd 463e 5db1 183c cc45 c7bd
00000060: 5da6 f5bd 7288 843d a9bf 283e c244 00be
00000070: d637 06be bed1 90bd 460e e1bb c7ff ffbc
00000080: 65e2 083d df3c 81ba 2ad1 ffbb 4927 1b3e
00000090: 58a0 40bd a5cb ea3d bfa1 30bd b4fc 8bbe
000000a0: feb1 793c 86f5 eb3d 1960 59bd 1fc2 1d3e
000000b0: 3516 93bd dfa7 d83d 4ff8 1abe 5acf 2c3d
000000c0: bb5b c5bd c3df b0bd 6905 283e 5426 cc3d
000000d0: a78a 5fbe dabb 513d e2a0 64be 7d73 283e
000000e0: f0fc 3cbd c164 1fbd a69d 44be c63f 19bd
000000f0: 6368 2ebc 3fef 8f3c edb0 99bc 84fd b0bc
00000100: 534e d13b 700c 65be 3995 31be b71b 60bc
00000110: c182 053d a775 033e eac0 4f3e 6a2f 93be
00000120: 0698 823d 5bb6 ccbc 1487 583e b7b0 553e
00000130: 6113 943c ca14 243d bc30 753d 347a 45be
00000140: 515d 68bd 87c7 83be f795 573d fead b53d
00000150: 5e7a 74be 965e 58bd f9a7 8ebe 1d18 37be
00000160: 7a07 18bd 9349 f93d ccd2 9dbd 7b0d 4bbe
00000170: 5929 e73d 49a9 04be 222c 0fbd c9a1 eebd
00000180: ca92 0cbe f85b be3c 5fa5 00be d91f 2cbc
00000190: 192c 0abd 661a bfbd 4ae3 7c3d efbf 113e
000001a0: b968 523e 2446 8e3d c556 1dbe 009f 153e
000001b0: faea 35be 6761 b3bd 3d6b 2f3e ae4d 203e
000001c0: d94a 8b3e 25b5 7dbd d5f3 903c f126 b6bb
000001d0: a5b5 c13d 04a9 363d 8111 a93d f0c9 c9bd
000001e0: a8b9 293e 3952 8abd b1b5 5cbe d445 443e
000001f0: 6d59 97be 0343 cc3d 1f05 00be 432b 40bd
00000200: 60e4 dabc 0580 82be efe9 703e b56b 213e
00000210: edd9 523e 4c3a 88bc c5a7 46be c4da 85be
00000220: 3fca 603e b12d cf3d 6436 23be 7d7a 523e
00000230: b500 5a3d 91ef e2bd eaaf 15be d465 0ebe
00000240: 9418 103e 39cc 1ebe 7620 033e 614a e43d
00000250: 1ee2 5ebe 2a37 9dbc 0272 3b3e 5120 1cbe
00000260: 9415 fbbd 6656 113d a695 133b 5e5c 833e
00000270: cc74 4db7 70b5 48be 243e 43be 5c53 cfbd
00000280: 66df 34be 3c6e 8b3d e327 80be 37c3 f2bd
00000290: 8d64 253b 90c6 013e 42ed 1cbe 43dd 5e3e
000002a0: b7f7 f13d d3b2 653d 8e03 35be 383f c23d
000002b0: 1384 823e d691 89bd 64cf 433d ff5c 9c3d
000002c0: 9bd0 dd3d 824f 663d 4578 273e a286 843c
000002d0: 2998 563e fab3 bebd 2219 223d edd7 68be
000002e0: 57ad cc3d a73f 543e 4d10 873e 89fe 313e
000002f0: 6819 86be 920f e6bd 3412 c5bd 21ad ca3d

gru1.bias_hh_l0 f4 [192]
-0.01781035 0.1245584 -0.14541095 0.052109364 0.09994167 -0.05467968 -0.033329625 -0.0018103351
0.16285394 -0.20280118 0.097419135 0.11918568 0.046302862 0.083935395 0.057130445 0.0578219
-0.05672201 -0.19761702 0.056788772 -0.06886816 0.0059650335 0.1502302 0.11771125 -0.13180257
-0.25677186 0.04032337 0.08400973 -0.055340856 0.03536293 -0.09466235 0.028921971 0.113456905
-0.12858902 -0.010940127 -0.026743231 0.12819831 0.14264369 0.0038846335 -0.0002461299 -0.16497573
0.060336106 0.072689176 -0.011782272 0.10900025 -0.04844567 0.15160277 -0.019734139 -0.05940471
-0.05259864 -0.07491273 0.045431666 0.10938625 -0.21522178 0.046903767 -0.009436459 -0.056162316
-0.102900565 0.079095274 -0.2665163 0.100101426 -0.11288236 -0.108030766 -0.09182876 -0.15976614
-0.09325949 -0.1843297 -0.04337089 -0.025255958 0.08787644 0.18492186 0.1985006 -0.10679364
-0.020205855 -0.0018137232 0.21206473 0.08763807 0.16608176 0.055447094 0.091418624 -0.2644192
-0.0727893 -0.25251943 0.10015093 0.1487876 -0.27633604 -0.26373523 -0.11006785 -0.18885374
-0.016956005 0.094026096 -0.15995598 -0.20911585 0.15495022 -0.053369727 -0.10391702 -0.050202686
-0.08436366 0.053144466 -0.13405421 -0.089913815 -0.04060441 -0.07053392 -0.12789981 0.07286755
0.18162845 0.13993597 -0.017405663 0.11079908 -0.013472041 -0.0546281 -0.025931329 0.20352861
0.23578264 0.02185418 0.020994747 -0.14208639 0.012384253 0.08413826 0.19892302 -0.0884982
0.15764236 -0.1598912 -0.26974732 0.10215633 -0.11758963 0.2527426 -0.096637666 0.11342898
-0.127675 -0.2450778 0.21939453 0.10486685 -0.0055014645 -0.038247503 -0.16868475 -0.19386823
0.1390452 0.047814913 0.016043512 0.20182492 0.13345669 0.0029183533 -0.16466947 -0.25215536
0.037005078 -0.15236151 0.27073717 0.14116192 -0.11128749 -0.04003121 0.24437849 -0.058613177
-0.036892913 0.122583725 -0.09409246 0.1430865 -0.004359703 -0.08642634 -0.1459149 -0.17486794
-0.1877397 0.045901664 -0.21840408 -0.010613634 0.2311954 0.2231045 -0.19435427 -0.0128114885
0.08621425 -0.058505956 -0.1603041 0.12486268 -0.019732913 0.07145139 0.036273174 0.020362861
-0.06512287 0.05797944 0.21997617 0.10834845 -0.05372966 -0.20237693 0.0142494505 -0.13097663
0.11779052 0.19430633 -0.008467961 0.1982404 -0.20530294 -0.075656846 -0.012360109 0.04517809
00000000: 03e7 91bc 7918 ff3d 9ce6 14be a170 553d
00000010: 38ae cc3d cdf7 5fbd a584 08bd c448 edba
00000020: 2fc3 263e 1dab 4fbe af83 c73d 9f17 f43d
00000030: 12a8 3d3d 52e6 ab3d 9d01 6a3d a8d6 6c3d
00000040: 5755 68bd 1e5c 4abe 589b 683d c00a 8dbd
00000050: 5476 c33b f2d5 193e 9912 f13d 41f7 06be
00000060: 9a77 83be 1e2a 253d 4b0d ac3d 18ad 62bd
00000070: b8d8 103d 56de c1bd c5ed ec3c 185c e83d
00000080: d7ac 03be 383e 33bc 9f14 dbbc 6b46 033e
00000090: 3011 123e 5695 7e3b ff0a 81b9 66ef 28be
000000a0: fe22 773d 10de 943d 6e0a 41bc 863b df3d
000000b0: f86e 46bd c23d 1b3e 7da9 a1bc 5a52 73bd
000000c0: ac71 57bd d86b 99bd 8e16 3a3d e605 e03d
000000d0: 1963 5cbe 2a1e 403d 619b 1abc 750a 66bd
000000e0: 88bd d2bd b4fc a13d d374 88be fa01 cd3d
000000f0: de2e e7bd 3c3f ddbd b810 bcbd bc99 23be
00000100: d5fe bebd edc0 3cbe ada5 31bd 95e5 cebc
00000110: 90f8 b33d 285c 3d3e be43 4b3e a0b6 dabd
00000120: c086 a5bc 74ba edba 7f27 593e 977b b33d
00000130: 5611 2a3e 7e1c 633d b039 bb3d f461 87be
00000140: 8e12 95bd 3a4a 81be ee1b cd3d c75b 183e
00000150: eb7b 8dbe 4e08 87be 416b e1bd e062 41be
00000160: 52e7 8abc c190 c03d 80cb 23be 7722 56be
00000170: 45ab 1e3e 379a 5abd 72d2 d4bd 55a1 4dbd
00000180: dbc6 acbd 03ae 593d 8245 09be bc24 b8bd
00000190: cf50 26bd 1674 90bd 2bf8 02be 953b 953d
000001a0: cffc 393e 604b 0f3e 5296 8ebc a1ea e23d
000001b0: d6b9 5cbc b7c1 5fbd f06d d4bc ce69 503e
000001c0: 0171 713e 8a07 b33c 2dfd ab3c 187f 11be
000001d0: 52e7 4a3c ae50 ac3d 7ab2 4b3e 8b3e b5bd
000001e0: 006d 213e 85ba 23be 521c 8abe 5737 d13d
000001f0: d5d2 f0bd 7a67 813e f8e9 c5bd 744d e83d
00000200: 3cbd 02be adf5 7abe f6a8 603e 6ec4 d63d
00000210: a145 b4bb 6aa9 1cbd b2bb 2cbe 6585 46be
00000220: dd61 0e3e 92d9 433d af6d 833c 31ab 4e3e
00000230: dfa8 083e d841 3f3b 1d9f 28be 821a 81be
00000240: a392 173d a804 1cbe 109e 8a3e c08c 103e
00000250: b2ea e3bd c4f7 23bd 5b3e 7a3e 5f14 70bd
00000260: 061d 17bd 2d0d fb3d 8cb3 c0bd 4485 123e
00000270: d7db 8ebb 4b00 b1bd b76a 15be 9510 33be
00000280: d63e 40be 6203 3c3d 52a5 5fbe cfe4 2dbc
00000290: 7dbe 6c3e 8275 643e ce04 47be 47e7 51bc
000002a0: 1991 b03d f1a3 6fbd c226 24be 01b8 ff3d
000002b0: eba6 a1bc 1b55 923d 2e93 143d 04d0 a63c
000002c0: 245f 85bd d97b 6d3d 6f41 613e cbe5 dd3d
000002d0: a213 5cbd e63b 4fbe 8776 693c bd1e 06be
000002e0: 283c f13d 3df8 463e 34bd 0abc 88ff 4a3e
000002f0: ef3a 52be faf1 9abd 0e82 4abc a90c 393d

gru2.weight_ih_l0 f4 [192, 64]
0.008253216 -0.26977286 0.28193942 0.18085885 0.032493733 -0.104667254 -0.18785349 -0.32068312
0.3612985 -0.064804144 -0.11644162 0.035319954 -0.08520153 0.20076628 -0.0664816 -0.1782608
0.09668082 -0.06673735 0.15300933 0.27117023 -0.04589279 -0.23649861 0.11138826 -0.13491476
-0.035227686 0.1365935 -0.2554326 0.35408562 0.16602017 -0.04269849 -0.2435867 -0.20473132
-0.15757258 0.044929348 -0.28436783 -0.014085143 -0.1536757 0.17472982 -0.30495963 0.007920129
-0.0705605 -0.15860172 -0.2623917 0.26843327 0.06767549 -0.26547995 0.17082071 -0.17518164
0.13691099 -0.04092755 0.17340969 -0.12976708 0.018214842 -0.30141243 -0.17661195 -0.28518784
-0.09087583 0.2225641 0.562811 0.21640207 -0.08317176 -0.18299885 0.050640192 -0.118133746
0.1596438 -0.06412717 -0.09460708 0.17415434 -0.2190382 -0.2004277 -0.28743055 -0.19699965
0.13361898 -0.07278186 -0.20353588 0.2729583 0.033042587 0.21705766 -0.00817542 0.085412525
-0.26498944 0.069483615 0.040950555 0.035346612 0.12594594 -0.28026256 -0.06401994 0.25245506
0.003498577 -0.25078395 0.015126262 -0.185723 -0.00393062 0.03556438 -0.001432586 0.1337767
-0.012169367 -0.14214207 0.062924325 -0.098261245 -0.10421434 -0.1894338 -0.10955849 -0.11479225
0.24019738 0.024020044 0.1131045 -0.15740122 -0.33405754 0.075101696 0.018101567 0.0049937773
0.18382174 -0.07002906 -0.10996305 -0.11977339 -0.09428667 0.17218918 -0.1490485 -0.059647013
0.058835875 -0.26431698 0.14849676 0.14840236 0.076332696 -0.062272023 0.12998275 -0.093036786
0.109104946 0.012343511 -0.007950647 0.23371923 0.06806598 -0.07808703 -0.20481856 0.10366137
0.21508615 -0.13254353 -0.11505391 0.2061582 -0.023999702 0.008751154 -0.00090116746 0.2715942
-0.28169975 0.03234951 0.1273458 0.055383746 -0.07035696 -0.02529024 -0.1305743 0.23510478
-0.028420279 -0.2409013 0.007431437 -0.15068829 0.19216497 0.0695784 0.00027054653 0.23333886
0.09358561 0.10596897 0.16493125 0.067529544 0.015087324 -0.2407115 -0.16838323 -0.044525158
0.25696483 0.17896155 0.1539661 0.15457423 -0.054263007 0.03696233 -0.2012028 -0.27390054
0.30415404 -0.13027617 0.28327608 0.15229 -0.21309064 0.2942085 0.30137447 0.04092903
0.22839569 0.029439708 -0.19509001 0.19464055 0.060459666 -0.05517589 0.047289222 0.115290165
-0.055633556 -0.13013287 0.052430075 0.17066374 -0.1391324 0.039410714 -0.29361042 -0.17446613
0.23096208 -0.062177707 -0.17122334 0.31120437 0.12922512 0.10075346 -0.08058445 -0.019875742
-0.059076082 0.0926085 0.254526 0.31398943 0.16930532 0.075139165 0.03252554 0.20463328
-0.056874186 -0.20876221 -0.21103396 -0.059715603 0.20348015 -0.11682544 -0.05613908 0.18173485
-0.019401357 0.003469202 -0.17415684 0.2144597 0.015138538 -0.07390388 -0.34581584 -0.16516288
0.22938854 0.19897494 -0.15328516 -0.01638429 -0.19413732 0.08875018 0.0009260503 -0.1906878
0.35508654 0.028258964 -0.069806844 -0.08616828 -0.054169837 0.19158782 -0.014408777 -0.1522783
0.08091111 -0.11802229 0.26065978 0.01640084 -0.030075723 -0.101815805 0.023383481 -0.09005968
00000000: 7f38 073c ab1f 8abe 5d5a 903e 1033 393e
00000010: 2618 053d c95b d6bd aa5c 40be 9430 a4be
00000020: 1efc b83e 09b8 84bd f278 eebd a8ab 103d
00000030: 247e aebd ad95 4d3e 8127 88bd 008a 36be
00000040: 9800 c63d 97ad 88bd 7aae 1c3e d3d6 8a3e
00000050: 14fa 3bbd b12c 72be 871f e43d 1827 0abe
00000060: e84a 10bd 2bdf 0b3e 10c8 82be b64a b53e
00000070: 3101 2a3e 9de4 2ebd cb6e 79be 16a5 51be
00000080: b55a 21be d607 383d a998 91be 5fc5 66bc
00000090: 2a5d 1dbe 60ec 323e ab23 9cbe 6ec3 013c
000000a0: 0682 90bd 7d68 22be 3458 86be 1670 893e
000000b0: 7399 8a3d fdec 87be a0eb 2e3e d162 33be
000000c0: 6532 0c3e a6a3 27bd 4f92 313e a9e1 04be
000000d0: 4b37 953c bb52 9abe c3d9 34be 2404 92be
000000e0: 1b1d babd d8e7 633e 6214 103f 8198 5d3e
000000f0: f555 aabd 0d64 3bbe 176c 4f3d 1bf0 f1bd
00000100: aa79 233e 1b55 83bd 5bc1 c1bd 8455 323e
00000110: 8d4b 60be eb3c 4dbe 192a 93be 47ba 49be
00000120: 6ad3 083e a80e 95bd b66b 50be 31c1 8b3e
00000130: aa57 073d 5d44 5e3e 32f2 05bc c3ec ae3d
00000140: b2ac 87be 6d4d 8e3d c5bb 273d 9cc7 103d
00000150: f9f7 003e 937e 8fbe e31c 83bd ca41 813e
00000160: 6248 653b c166 80be 24d4 773c 2c2e 3ebe
00000170: 6ecc 80bb f5ab 113d 9cc5 bbba c2fc 083e
00000180: 0662 47bc b18d 11be 78de 803d 313d c9bd
00000190: 546e d5bd effa 41be 3460 e0bd 3318 ebbd
000001a0: 4df6 753e afc5 c43c 55a3 e73d c92d 21be
000001b0: 9709 abbe ebce 993d bd49 943c d7a2 a33b
000001c0: c43b 3c3e 656b 8fbd 4f34 e1bd c04b f5bd
000001d0: 5f19 c1bd 5c52 303e 2ca0 18be 6d50 74bd
000001e0: e3fd 703d 8e54 87be 890f 183e caf6 173e
000001f0: 5154 9c3d f310 7fbd 331a 053e 128a bebd
00000200: 6a72 df3d 703c 4a3c 6e43 02bc 1854 6f3e
00000210: 2d66 8b3d 18ec 9fbd f5bb 51be 6a4c d43d
00000220: 8b3f 5c3e 7eb9 07be 62a1 ebbd 231b 533e
00000230: 069b c4bc 0061 0f3c 533c 6cba 650e 8b3e
00000240: f33a 90be eb80 043d f066 023e 11da 623d
00000250: 4f17 90bd 7a2d cfbc 45b5 05be 4fbf 703e
00000260: a5d1 e8bc d5ae 76be 6983 f33b 084e 1abe
00000270: e5c6 443e 1f7f 8e3d 24d8 8d39 62f0 6e3e
00000280: d0a9 bf3d 4206 d93d bde3 283e ee4c 8a3d
00000290: d330 773c 137d 76be a76c 2cbe 0360 36bd
000002a0: e590 833e b241 373e 4aa9 1d3e b548 1e3e
000002b0: e342 5ebd d065 173d 1b08 4ebe b13c 8cbe
000002c0: 14ba 9b3e 1e67 05be 9009 913e e9f1 1b3e
000002d0: 6f34 5abe 7fa2 963e c14d 9a3e 33a5 273d
000002e0: 8fe0 693e 8b2b f13c adc5 47be da4f 473e
000002f0: 8ea4 773d 1d00 62bd 58b2 413d 401d ec3d
00000300: 03e0 63bd 8d41 05be ebc0 563d 7ac2 2e3e
00000310: b978 0ebe 216d 213d 1b54 96be 40a7 32be
00000320: 5381 6c3e 0dae 7ebd 2c55 2fbe 2e56 9f3e
00000330: 9753 043e d457 ce3d 7609 a5bd 74d2 a2bc
00000340: c3f9 71bd 86a9 bd3d 3b51 823e 39c3 a03e
00000350: 605e 2d3e 90e2 993d 8039 053d 638b 513e
00000360: e8f4 68bd c3c5 55be 4919 58be 5998 74bd
00000370: 1a5d 503e 2d42 efbd 18f2 65bd b318 3a3e
00000380: 98ef 9ebc 8d5b 633b 2c56 32be 539b 5b3e
00000390: a107 783c eb5a 97bd c60e b1be 7520 29be
000003a0: d4e4 6a3e 16c0 4b3e c9f6 1cbe 5938 86bc
000003b0: efcb 46be a8c2 b53d 2fc2 723a aa43 43be
000003c0: e7cd b53e 587f e73c e4f6 8ebd ff78 b0bd
000003d0: 31e1 5dbd 992f 443e ca12 6cbc d8ee 1bbe
000003e0: b9b4 a53d acb5 f1bd 3375 853e 0e5b 863c
000003f0: 5d61 f6bc ce84 d0bd b78e bf3c 3671 b8bd

gru2.weight_hh_l0 f4 [192, 64]
-0.112458594 -0.06698027 0.15758726 -0.07263983 -0.16421902 0.055779014 0.08300985 0.09732122
-0.1287995 0.19379477 -0.17955966 -0.077888235 -0.370681 0.088184565 0.06491245 -0.06836499
-0.0008167133 0.27457765 -0.059381716 0.12109027 -0.046524912 0.090036646 0.14584911 0.14990844
0.071370795 0.00898091 0.023471322 0.11461106 0.054928694 -0.14212796 0.04648279 0.07760593
0.15019654 -0.025485795 -0.2578564 0.11056524 -0.10201693 -0.08862154 -0.0938689 0.38654292
-0.059472006 -0.12064422 0.20780955 0.252722 -0.2956955 0.101007275 0.10638583 -0.13947731
0.08510199 -0.16072726 -0.16268745 -0.035248578 -0.24138409 0.049373798 -0.048933648 0.20669523
-0.1795699 -0.0893668 -0.104228124 0.09033962 -0.19708276 -0.11411251 0.08599658 0.10746068
-0.0070183123 0.19149794 0.299692 0.0054670866 0.04756293 0.080052875 0.062392034 -0.0073913084
0.07800936 -0.006162171 -0.14593565 0.19245106 -0.022698509 -0.032408405 -0.075008005 -0.07705479
-0.022833975 -0.06112106 -0.03577582 -0.09851104 0.083672665 -0.07978502 0.16192895 0.028519537
-0.0431159 0.06994477 -0.121714294 -0.23299111 -0.13814166 -0.06705617 0.16164462 -0.34227762
0.103612624 -0.2970738 -0.15801358 0.27220166 -0.040061124 -0.23133142 -0.050733782 0.06900311
-0.18893738 -0.22108729 0.11825509 0.27330709 -0.1922753 -0.04332682 0.16241744 0.20763516
0.21764116 -0.018183915 -0.019992532 0.17472841 -0.3763009 -0.15239833 0.09622738 -0.07199514
-0.086702265 -0.18328065 -0.11057262 -0.04612131 -0.19369896 -0.22590657 0.19424504 0.17392437
-0.0159821 0.23254266 -0.076827414 -0.15023662 -0.12577564 0.17789459 0.13135262 0.007965056
0.0048795193 0.02304819 0.030870523 -0.057151165 0.17349254 0.009394619 -0.1197447 -0.25716045
0.16678791 0.024250021 0.08417642 -0.22653267 0.1545078 0.0019938215 0.010122038 -0.08988321
-0.055016886 0.08603666 -0.085746065 -0.18247552 -0.08195406 -0.037602074 0.09413912 -0.11707524
0.08563034 -0.108593285 -0.13387199 -0.17267074 -0.047234654 0.0050085187 0.10634915 0.076083034
0.040924657 -0.11421291 -0.09495663 0.24710095 -0.08503839 -0.053024568 0.27180094 0.24053784
-0.0043199104 0.14532238 -0.10038835 -0.09626543 -0.013824559 -0.25009134 -0.008622764 0.05385449
-0.050788336 0.024663586 -0.011470097 -0.014428842 -0.16663432 -0.028107658 -0.28441578 0.17448707
-0.1391592 -0.04121594 -0.19440736 -0.023038385 -0.10664859 0.17922446 -0.006930043 -0.06342108
-0.17398953 0.024915239 -0.29211423 0.005235753 0.078694984 0.049843293 -0.10369467 -0.05527188
0.21014401 -0.05953735 -0.106510796 -0.03440632 0.09813603 -0.0039489795 0.14550363 0.30867526
0.24574977 0.005980241 -0.16139215 -0.10241649 -0.33018783 0.0018960562 0.25177398 -0.106518954
0.07724084 -0.20340343 -0.18986048 0.07933239 0.13328137 -0.059933 -0.057254765 0.3301053
-0.09873903 -0.24163361 0.20019697 0.16715193 -0.1917259 0.30807057 -0.10086034 0.10499316
0.112942636 -0.04560337 -0.013051822 -0.040548015 -0.39666077 0.11446721 -0.10681096 0.0070241774
-0.23836799 -0.25589767 -0.06840588 0.2819557 -0.046431616 -0.14372727 0.11566266 0.28189173
00000000: b150 e6bd f42c 89bd 8e5e 213e 31c4 94bd
00000010: 0829 28be 8978 643d 1101 aa3d 5950 c73d
00000020: 04e4 03be 2372 463e 7dde 37be de83 9fbd
00000030: e6c9 bdbe 1c9a b43d d2f0 843d f202 8cbd
00000040: b418 56ba 7195 8c3e 3e3a 73bd 2dfe f73d
00000050: e890 3ebd 2265 b83d 7859 153e 9981 193e
00000060: da2a 923d ab24 133c ee46 c03c 34b9 ea3d
00000070: e9fc 603d fe89 11be bd64 3e3d dcef 9e3d
00000080: 1fcd 193e 96c7 d0bc c105 84be 0770 e23d
00000090: 41ee d0bd 367f b5bd 563e c0bd f4e8 c53e
000000a0: eb98 73bd 5114 f7bd 07cc 543e c764 813e
000000b0: 6765 97be e7dc ce3d d0e0 d93d 24d3 0ebe
000000c0: f449 ae3d b095 24be 8a97 26be d060 10bd
000000d0: 642d 77be 2e3c 4a3d a66e 48bd eaa7 533e
000000e0: 2ce1 37be f105 b7bd 8e75 d5bd fb03 b93d
000000f0: 10d0 49be d2b3 e9bd fa1e b03d 5814 dc3d
00000100: dff9 e5bb 0918 443e 3b71 993e 3f25 b33b
00000110: 59d1 423d c3f2 a33d ca8e 7f3d ca32 f2bb
00000120: 5fc3 9f3d 09ec c9bb 2870 15be e411 453e
00000130: 39f2 b9bc adbe 04bd cc9d 99bd e7ce 9dbd
00000140: 510e bbbc 145a 7abd ab89 12bd 28c0 c9bd
00000150: 935c ab3d 5466 a3bd b4d0 253e cea1 e93c
00000160: 4c9a 30bd 343f 8f3d 5845 f9bd 3995 6ebe
00000170: 0275 0dbe bf54 89bd 2b86 253e 033f afbe
00000180: db32 d43d 0f1a 98be 50ce 21be 045e 8b3e
00000190: 2217 24bd 25e2 6cbe 3ace 4fbd 8151 8d3d
000001a0: cd78 41be b564 62be ba2f f23d e8ee 8b3e
000001b0: d1e3 44be 7777 31bd c250 263e 509e 543e
000001c0: 53dd 5e3e 6ff6 94bc 61c7 a3bc 01ec 323e
000001d0: 83aa c0be 4f0e 1cbe dc12 c53d 3072 93bd
000001e0: f590 b1bd ecad 3bbe e673 e2bd b3e9 3cbd
000001f0: 0559 46be 0d54 67be 2ce8 463e 3b19 323e
00000200: e5ec 82bc aa1f 6e3e b157 9dbd a1d7 19be
00000210: 54cb 00be 002a 363e 4d81 063e de7f 023c
00000220: 60e4 9f3b 8fcf bc3c 2ee4 fc3c 5717 6abd
00000230: 07a8 313e e3eb 193c b63c f5bd 89aa 83be
00000240: 73ca 2a3e fba7 c63c b064 ac3d 2ef8 67be
00000250: 4b37 1e3e c6aa 023b e8d6 253c b014 b8bd
00000260: 6359 61bd fd33 b03d a29b afbd ddda 3abe
00000270: 88d7 a7bd a204 1abd 03cc c03d 25c5 efbd
00000280: f65e af3d 2866 debd bd15 09be 99d0 30be
00000290: 2079 41bd 801e a43b 95cd d93d 6cd1 9b3d
000002a0: 9da0 273d 75e8 e9bd 9f78 c2bd 0808 7d3e
000002b0: 9b28 aebd 4a30 59bd 7e29 8b3e 8d4f 763e
000002c0: 098e 8dbb 64cf 143e 6898 cdbd cf26 c5bd
000002d0: 6780 62bc f90b 80be 7e46 0dbc 8796 5c3d
000002e0: 6e07 50bd 4a0b ca3c 13ed 3bbc f366 6cbc
000002f0: 30a2 2abe 0842 e6bc f29e 91be bdac 323e
00000300: c07f 0ebe 0cd2 28bd b912 47be ffba bcbc
00000310: 936a dabd 9e86 373e 6a15 e3bb e9e2 81bd
00000320: 502a 32be 0b1b cc3c ff8f 95be ae90 ab3b
00000330: d62a a13d 7b28 4c3d df5d d4bd c464 62bd
00000340: fe2f 573e 70dd 73bd 5522 dabd a4ed 0cbd
00000350: 8bfb c83d 7166 81bb e7fe 143e af0a 9e3e
00000360: d4a5 7b3e e6f5 c33b fc43 25be bdbf d1bd
00000370: 610e a9be 1785 f83a 85e8 803e 9c26 dabd
00000380: 7230 9e3d fd48 50be c96a 42be 0579 a23d
00000390: e97a 083e 4e7c 75bd f983 6abd 9003 a93e
000003a0: b037 cabd cd6e 77be 6f00 4d3e e029 2b3e
000003b0: cb53 44be 6dbb 9d3e de8f cebd a706 d73d
000003c0: 784e e73d 99ca 3abd 4fd7 55bc ad15 26bd
000003d0: 1f17 cbbe c96d ea3d b4bf dabd 122b e63b
000003e0: bd16 74be 0505 83be 6218 8cbd 7f5c 903e
000003f0: 142f 3ebd 3e2d 13be 8be0 ec3d 1d54 903e

gru2.bias_ih_l0 f4 [192]
0.15060243 0.2652457 -0.076977074 0.2463415 0.38069743 0.2637567 0.10614893 -0.026639525
0.28145114 0.013902909 0.14259548 0.11063871 0.14708576 0.11916286 -0.116162814 0.21339591
0.04585343 0.06621468 0.18388425 0.17423847 -0.08341794 0.13751036 0.2366591 0.04064
0.18468983 0.23779508 0.10409868 0.17371449 0.22579375 0.0812273 0.11840418 -0.11346418
0.16771565 0.2779591 0.09757993 0.29219943 -0.008185276 -0.105876446 -0.07714258 0.14025033
0.2354383 -0.057020105 0.20457491 0.1342571 0.1544545 0.07037623 0.24315503 -0.04487846
0.33980146 -0.037230153 -0.0039462484 0.016175335 0.20986441 0.2244525 0.14670885 0.10554068
0.1930469 0.08249658 -0.055514116 0.26155114 0.068785675 -0.05935458 -0.014191231 0.06331017
0.1766107 -0.016966274 -0.23790428 -0.009450005 0.058087658 0.0029919604 0.18938133 -0.16098852
-0.10411353 0.10964845 -0.06735853 -0.08066224 0.33147737 0.106841736 -0.10161402 0.012067909
0.18562464 0.08805451 0.10950637 -0.109093755 0.2007448 0.08619299 -0.2838353 0.11039378
-0.0005269097 -0.067311496 0.022714794 0.09250787 0.008916773 0.06840083 -0.14444634 -0.019797996
-0.024655351 0.045696247 -0.25492525 0.0013097109 -0.025498545 0.2898468 0.11235668 -0.022515563
-0.015080859 0.065817356 0.096281946 0.17261039 -0.0050468748 0.061284732 -0.057384763 -0.19509096
-0.0412886 0.050554316 0.024272382 0.07963933 0.07273279 -0.022310551 0.069461435 -0.20707464
0.03049334 0.11136043 0.058837507 -0.16313009 -0.076921046 0.22291364 -0.068641566 0.24690858
-0.09703724 0.011599142 -0.022714151 0.08725237 -0.123662926 0.047683306 -0.18246461 0.0738387
-0.22203492 0.05273646 -0.21193428 0.10806632 -0.17849533 0.15500814 0.08852572 -0.22368228
0.14787497 0.05253474 -0.01057246 0.06856659 0.1497071 0.16383024 0.1717079 0.13691954
0.10081574 0.17163381 0.005916044 0.10421575 -0.10766634 -0.033068564 0.21717568 -0.081420064
0.04784374 -0.012498471 -0.059796177 0.25980842 -0.12502475 0.035341214 0.02166568 0.18195705
-0.039994232 -0.053134177 0.15938058 0.12072681 -0.14545333 0.06562149 0.16333082 -0.14495274
0.21110424 -0.16239978 0.007469915 -0.00037808708 -0.14292458 -0.037526876 0.10749027 -0.07719037
-0.17590372 -0.10635861 -0.079432674 0.09523529 -0.04238207 -0.05070454 0.103901975 -0.012577723
00000000: 8637 1a3e 49ce 873e 28a6 9dbd f240 7c3e
00000010: c6ea c23e 1e0b 873e 9c64 d93d 223b dabc
00000020: 5d1a 903e 07c9 633c 8d04 123e 8c96 e23d
00000030: a69d 163e a80b f43d c5e6 edbd 7584 5a3e
00000040: ced0 3b3d 909b 873d 274c 3c3e 926b 323e
00000050: 06d7 aabd 84cf 0c3e c356 723e 2176 263d
00000060: 551f 3d3e 8e80 733e b031 d53d 36e2 313e
00000070: 7a36 673e 805a a63d e47d f23d e85f e8bd
00000080: a7bd 2b3e a850 8e3e fdd7 c73d 2a9b 953e
00000090: 891b 06bc c0d5 d8bd eefc 9dbd c89d 0f3e
000000a0: bd16 713e ea8d 69bd 167c 513e b17a 093e
000000b0: 5229 1e3e 6a21 903d a2fd 783e 7ad2 37bd
000000c0: 75fa ad3e a57e 18bd 884f 81bb 2382 843c
000000d0: b2e6 563e e0d6 653e d83a 163e b625 d83d
000000e0: 16ae 453e f8f3 a83d c562 63bd 08ea 853e
000000f0: 81df 8c3d ca1d 73bd 5682 68bc c3a8 813d
00000100: 6fd9 343e dbfc 8abc 2e9d 73be 32d4 1abc
00000110: 53ed 6d3d c414 443b 2eed 413e 2dda 24be
00000120: 7939 d5bd 5e8f e03d 45f3 89bd 3f32 a5bd
00000130: 67b7 a93e d7cf da3d 031b d0bd 7bb8 453c
00000140: 6314 3e3e ec55 b43d e044 e03d 8c6c dfbd
00000150: 0b90 4d3e f385 b03d dc52 91be 2216 e23d
00000160: 5020 0aba 9cda 89bd 6014 ba3c c474 bd3d
00000170: a817 123c bc15 8c3d bee9 13be 682f a2bc
00000180: 05fa c9bc fd2b 3b3d 9085 82be 9baa ab3a
00000190: 53e2 d0bc cd66 943e 421b e63d 8f72 b8bc
000001a0: b515 77bc 40cb 863d 782f c53d c7c0 303e
000001b0: 4160 a5bb b305 7b3d 490c 6bbd edc5 47be
000001c0: 3c1e 29bd 0b12 4f3d e0d6 c63c f219 a33d
000001d0: eef4 943d 9ec4 b6bc cc41 8e3d 600b 54be
000001e0: 2bcd f93c f010 e43d 99ff 703d 930b 27be
000001f0: c888 9dbd 7943 643e f393 8cbd 9ad5 7c3e
00000200: 76bb c6bd 540a 3e3c 0713 babc 5fb1 b23d
00000210: fd42 fdbd 924f 433d 01d8 3abe bf38 973d
00000220: 1f5d 63be 3002 583d 4d05 59be e051 dd3d
00000230: 7bc7 36be 74ba 1e3e f94c b53d f80c 65be
00000240: 896c 173e ab2e 573d 1c38 2dbc a46c 8c3d
00000250: d14c 193e 1dc3 273e 32d4 2f3e a334 0c3e
00000260: 7c78 ce3d c6c0 2f3e 60db c13b 116f d53d
00000270: 2c80 dcbd e772 07bd 4d63 5e3e 90bf a6bd
00000280: ccf7 433d 63c6 4cbc d6ec 74bd 9c05 853e
00000290: 7d06 00be f3c1 103d 397c b13c f352 3a3e
000002a0: fed0 23bd 39a3 59bd aa34 233e 9e3f f73d
000002b0: b8f1 14be 8f64 863d 3240 273e 7e6e 14be
000002c0: b62b 583e 214c 26be 30c6 f43b fd39 c6b9
000002d0: d25a 12be c8b5 19bd dc23 dc3d fc15 9ebd
000002e0: 1b20 34be 8bd2 d9bd 99ad a2bd b80a c33d
000002f0: d298 2dbd 90af 4fbd 8fca d43d cb12 4ebc

gru2.bias_hh_l0 f4 [192]
0.24002257 0.24385574 -0.060186956 0.096579745 0.3058001 0.13066815 -0.035937212 0.21669604
0.13266805 0.17472114 0.14841294 0.008268962 0.25778097 -0.0018281741 -0.12450924 0.27108353
0.21252102 0.10585468 0.08856439 0.09794506 -0.055112023 0.12113066 0.22817858 0.074483484
0.17729996 0.22256416 0.16692907 0.31107903 0.029416982 0.30911934 0.10590839 0.0039865337
0.06614544 0.15806523 0.14347231 0.168115 0.010067917 -0.008966644 0.046101615 0.043427914
0.13997084 0.029642163 0.063280895 0.09031462 0.2013779 0.02992482 0.05738847 -0.10223879
0.2699925 0.08831632 -0.018091843 0.1145322 0.23954578 0.18013836 0.25186542 0.11606458
-0.04003494 0.30726975 0.096987896 0.11725943 0.08563905 -0.11299953 0.1438393 0.1289318
0.028726602 0.12698135 -0.1711488 -0.1323819 -0.033988528 0.24721386 -0.020545108 -0.17340337
-0.10640524 -0.0057083205 0.13922739 0.08302061 0.31578916 -0.03597515 0.048312493 -0.18579133
0.11847813 0.20516923 0.22376598 0.0117028 0.115062244 0.027440546 -0.11384032 -0.060854614
0.17042969 -0.0053062416 -0.039496716 0.26936957 0.095887266 -0.04931599 0.0022132918 -0.04558887
-0.009777502 -0.045370553 -0.18856204 -0.1473512 0.09299042 0.20166193 -0.058400612 -0.039365914
0.104170874 0.16087402 -0.0025414713 0.07661683 -0.009351771 0.08345457 0.091680236 -0.10039951
0.14932983 -0.043105252 -0.07607566 0.10354596 0.034521826 0.044745333 0.04475222 -0.22659485
-0.028194228 0.0067201992 0.12067155 -0.13768595 0.10744051 0.17209679 0.039982382 0.24371642
-0.049149714 -0.12509677 -0.0062508415 0.12001786 0.0008704747 0.11639369 -0.02371146 -0.053896967
-0.083347395 0.065282896 -0.093620226 -0.06804901 -0.269586 0.2476517 -0.11884664 -0.2467357
0.043950483 0.04648563 0.017449025 0.04413505 0.09719001 0.04467939 0.16154759 0.099815786
0.07819087 0.027342238 0.08148102 -0.021555368 0.047661867 -0.1534867 0.14032753 -0.09616294
0.19168223 0.062857136 -0.19592309 0.12876438 -0.00606447 0.024070144 -0.12162437 0.07570897
0.07044283 0.018302538 0.201142 0.08853429 -0.15281168 -0.03110831 0.05675798 0.0065485258
0.06772299 0.075634666 -0.054263864 -0.109890506 -0.15620631 -0.062651515 0.08009164 0.18118288
-0.04597384 -0.06375152 0.0049002827 -0.120838635 -0.09740059 0.08315509 0.18537581 0.02637163
00000000: 7ac8 753e 52b5 793e 9986 76bd 9acb c53d
00000010: d591 9c3e dfcd 053e e632 13bd 91e5 5d3e
00000020: 22da 073e 19ea 323e 90f9 173e 8a7a 073c
00000030: defb 833e 589f efba b3fe febd 76cb 8a3e
00000040: 1c9f 593e 57ca d83d 3f61 b53d 6b97 c83d
00000050: 25bd 61bd 5a13 f83d a5a7 693e cc8a 983d
00000060: 1f8e 353e dce7 633e 74ef 2a3e c045 9f3e
00000070: e2fb f03c e444 9e3e 7fe6 d83d 78a1 823b
00000080: 4377 873d dadb 213e 68ea 123e 5726 2c3e
00000090: e8f3 243c d5e8 12bc 0cd5 3c3d 78e1 313d
000000a0: 8454 0f3e 1fd4 f23c 6a99 813d dff6 b83d
000000b0: 0236 4e3e e524 f53c 2c10 6b3d 9262 d1bd
000000c0: 753c 8a3e 30df b43d 5835 94bc dc8f ea3d
000000d0: 7d4b 753e 3176 383e 81f4 803e 44b3 ed3d
000000e0: adfb 23bd 7652 9d3e 97a1 c63d b625 f03d
000000f0: 8763 af3d 4c6c e7bd 9c4a 133e b306 043e
00000100: 0d54 eb3c 6607 023e a241 2fbe 1f8f 07be
00000110: 8e37 0bbd a125 7d3e 374e a8bc a790 31be
00000120: feea d9bd dd0c bbbb a091 0e3e b606 aa3d
00000130: 1eaf a13e ae5a 13bd 52e3 453d 1540 3ebe
00000140: a9a4 f23d e217 523e e922 653e 1abd 3f3c
00000150: c1a5 eb3d ffca e03c 1d25 e9bd b042 79bd
00000160: 1f85 2e3e fbdf adbb 4fc7 21bd cfea 893e
00000170: 8b60 c43d 90ff 49bd e00c 113b 65bb 3abd
00000180: d131 20bc 79d6 39bd 6816 41be 3ce3 16be
00000190: c371 be3d 7780 4e3e 7b35 6fbd 273e 21bd
000001a0: 8a57 d53d 29bc 243e d08e 26bb 49e9 9c3d
000001b0: 2c38 19bc 3bea aa3d d9c2 bb3d 429e cdbd
000001c0: ebe9 183e 228f 30bd 8ecd 9bbd e70f d43d
000001d0: c266 0d3d e246 373d 1b4e 373d 7b08 68be
000001e0: 95f7 e6bc 1e35 dc3b a522 f73d 8cfd 0cbe
000001f0: c509 dc3d 243a 303e 91c4 233d cc90 793e
00000200: 3651 49bd 5e19 00be dcd3 ccbb eccb f53d
00000210: 9130 643a d15f ee3d 893e c2bc 11c3 5cbd
00000220: 0ab2 aabd 0ab3 853d f6bb bfbd 485d 8bbd
00000230: 2d07 8abe 6898 7d3e de65 f3bd 49a8 7cbe
00000240: 6c05 343d b767 3e3d 42f1 8e3c f4c6 343d
00000250: 8e0b c73d bc01 373d bb6c 253e 386c cc3d
00000260: 8922 a03d d4fc df3c 85df a63d e294 b0bc
00000270: 1739 433d 9e2b 1dbe 05b2 0f3e 13f1 c4bd
00000280: 5948 443e 3ebb 803d 10a0 48be cfda 033e
00000290: 76b8 c6bb c02e c53c 3316 f9bd 4e0d 9b3d
000002a0: 5544 903d 34ef 953c 2bf8 4d3e 7751 b53d
000002b0: aa7a 1cbe dbd6 febc 0e7b 683d 0495 d63b
000002c0: 5ab2 8a3d 59e6 9a3d c943 5ebd 460e e1bd
000002d0: 8cf4 1fbe 704f 80bd 1607 a43d 0188 393e
000002e0: 114f 3cbd 2890 82bd 8d92 a03b 3f7a f7bd
000002f0: f679 c7bd 374d aa3d 28d3 3d3e 5109 d83c

fc.weight f4 [17, 64]
0.16320793 0.019799257 -0.04224235 0.061956324 0.19550097 -0.45864382 -0.37383324 0.00045997853
0.12282966 -0.18915546 0.3098519 0.19321539 -0.13946484 0.21456197 -0.03351435 0.1079396
-0.13800076 0.2706864 0.4202727 -0.06172302 0.114201404 -0.0934853 -0.43514916 -0.34303212
-0.08307816 -0.0624202 0.28093386 0.5270587 0.3832872 -0.0534284 -0.32411772 0.17970128
-0.16641788 0.30940223 0.4876967 -0.27484393 -0.17506976 0.1263707 0.323541 -0.2873052
0.26837605 -0.13552341 -0.21652572 -0.568564 0.35989943 -0.3605208 0.083651274 -0.10512139
-0.23252246 -0.10420194 0.15863705 0.11511424 0.37890536 -0.053382285 0.1522135 -0.060443778
0.37982672 0.4999115 0.28012478 -0.1997689 0.13636723 0.2945395 0.019352632 -0.47536445
-0.24652903 0.2519555 -0.18823794 -0.015587809 0.29873225 -0.14406313 0.061320662 0.20417984
0.014110394 0.22409429 0.068044186 -0.22451855 -0.6018682 -0.025171142 0.45331484 -0.16183083
-0.47446257 -0.058130134 0.3632968 -0.14520329 -0.46938494 -0.4328697 -0.37837622 -0.06676854
-0.101507366 0.07247929 -0.08694336 -0.3082939 0.21208692 -0.18632941 -0.1662761 0.5227574
-0.001467991 0.09486135 -0.007850499 -0.058069244 0.0903124 0.094457 0.2450281 -0.07513626
-0.16963981 0.3731872 0.2514586 -0.23774178 0.21372497 -0.06958381 0.40461898 -0.3593751
0.35498893 0.14674841 0.11385079 -0.42536324 0.21771462 -0.1528304 -0.25206143 0.21884838
0.56835705 0.03300865 0.17844585 0.19904469 0.3283672 0.037464235 0.31955406 -0.13403197
-0.1860667 0.04379616 0.106065094 -0.3312829 -0.23484443 0.06922428 0.053068332 -0.24547075
0.20274861 0.14094 0.45670018 0.15710762 -0.06197155 -0.029377338 -0.31449127 -0.31029305
0.14108086 -0.16185226 -0.24362312 -0.23986496 0.39856517 -0.016306123 0.10627788 -0.032485336
-0.063538484 0.04060954 -0.0198877 -0.10740249 -0.22001101 0.06616198 -0.15125205 0.046439353
0.13994917 -0.10423773 -0.041594498 -0.39810187 -0.019430578 -0.25696453 0.14950179 0.32102293
0.027299602 0.40119326 -0.22429076 -0.0040581548 -0.23549643 0.22331443 0.07154258 0.08656843
0.07103034 0.04654152 -0.14411636 -0.29083887 -0.22572327 -0.21307175 -0.18240805 0.12396671
-0.20267016 -0.12684193 -0.1910715 0.26490387 -0.12713125 -0.2969854 -0.15129353 -0.4694423
0.002669216 0.032917436 0.5856483 -0.44165397 -0.15366761 0.07887113 0.094792694 -0.15353051
0.124893054 0.25578815 -0.18421717 0.53577405 -0.20451368 0.005505832 -0.052932806 -0.40979874
0.20679283 0.2134242 0.26082337 -0.051904343 0.1390326 -0.0122249015 0.14920205 0.4856707
-0.062276475 -0.12265178 -0.03621818 0.087194696 0.02458069 0.16803434 -0.001915468 -0.1914944
-0.06650464 0.033588782 0.38641912 0.5524775 -0.047823474 0.17492826 0.0032461383 0.19935939
-0.1534756 -0.3818397 -0.19889015 0.15158042 -0.0017245178 -0.028616536 0.33254373 0.23954473
-0.025610477 -0.28844246 -0.18465358 0.8568834 -0.12026318 -0.13868198 0.233525 -0.5903473
-0.09501799 2.6071091e-05 -0.17449777 -0.7016548 -0.04420795 -0.08854448 -0.35253167 0.29240543
00000000: fb1f 273e 0d32 a23c 5006 2dbd eac5 7d3d
00000010: 6831 483e 5dd3 eabe 1267 bfbe 4629 f139
00000020: 1e8e fb3d f8b1 41be e9a4 9e3e 41da 453e
00000030: dfcf 0ebe 22b6 5b3e 5846 09bd 700f dd3d
00000040: 1250 0dbe 6897 8a3e fc2d d73e 47d1 7cbd
00000050: 6de2 e93d 3975 bfbd dfcb debe e8a1 afbe
00000060: e224 aabd 53ac 7fbd 90d6 8f3e 52ed 063f
00000070: 383e c43e bdd7 5abd c2f2 a5be 9d03 383e
00000080: 7369 2abe f869 9e3e 62b3 f93e 58b8 8cbe
00000090: 7d45 33be 5267 013e 2aa7 a53e ab19 93be
000000a0: 9668 893e a6c6 0abe ebb8 5dbe 698d 11bf
000000b0: bd44 b83e 2f96 b8be 5c51 ab3d e249 d7bd
000000c0: 5e1a 6ebe d467 d5bd c071 223e 04c1 eb3d
000000d0: e2ff c13e 62a7 5abd dbdd 1b3e e593 77bd
000000e0: a678 c23e 66f4 ff3e 846c 8f3e 3890 4cbe
000000f0: daa3 0b3e e2cd 963e 6989 9e3c f862 f3be
00000100: 1b72 7cbe 5000 813e 72c1 40be 0264 7fbc
00000110: 6ff3 983e 4985 13be 602b 7b3d 8514 513e
00000120: 482f 673c f978 653e c05a 8b3d 31e8 65be
00000130: 0914 1abf b633 cebc e218 e83e fbb6 25be
00000140: c2ec f2be dd19 6ebd 0a02 ba3e 2cb0 14be
00000150: 3953 f0be 19a1 ddbe 87ba c1be f2bd 88bd
00000160: 18e3 cfbd 0670 943d 5c0f b2bd b3d8 9dbe
00000170: 502d 593e 23cd 3ebe 4844 2abe 6ed3 053f
00000180: 9b69 c0ba ab46 c23d 619f 00bc 04da 6dbd
00000190: b5f5 b83d ac72 c13d a5e8 7a3e 0ae1 99bd
000001a0: 0fb6 2dbe 6512 bf3e 2ebf 803e 9572 73be
000001b0: b8da 5a3e f581 8ebd 382a cf3e 0300 b8be
000001c0: 1cc1 b53e 3745 163e 9a2a e93d 36c9 d9be
000001d0: 95f0 5e3e 937f 1cbe 320e 81be ca19 603e
000001e0: d97f 113f 1434 073d 82ba 363e 5fd2 4b3e
000001f0: bf1f a83e 1974 193d 979c a33e ad3f 09be
00000200: 4588 3ebe 9a63 333d a838 d93d ea9d a9be
00000210: 0f7b 70be 76c5 8d3d 2e5e 593d af5c 7bbe
00000220: 559d 4f3e 9352 103e 9bd4 e93e d2e0 203e
00000230: e1d5 7dbd bea8 f0bc 0005 a1be bbde 9ebe
00000240: 8077 103e 99bc 25be 5778 79be 299f 75be
00000250: bc10 cc3e 6b94 85bc 38a8 d93d 580f 05bd
00000260: 7720 82bd 3056 263d 88eb a2bc d6f5 dbbd
00000270: 914a 61be ef7f 873d d1e1 1abe 3137 3e3d
00000280: d64e 0f3e 977a d5bd fe5e 2abd 02d4 cbbe
00000290: e02c 9fbc db90 83be ff16 193e 1e5d a43e
000002a0: 6aa3 df3c 3469 cd3e 7aac 65be 45fa 84bb
000002b0: fa25 71be 8aac 643e eb84 923d ca4a b13d
000002c0: 5b78 913d 52a2 3e3d 3d93 13be d5e8 94be
000002d0: 0024 67be 7b2f 5abe 2dc9 3abe 42e2 fd3d
000002e0: c488 4fbe dae2 01be 3fa8 43be 7ba1 873e
000002f0: b22e 02be 780e 98be b1ec 1abe be5a f0be
00000300: 03ee 2e3b 6fd4 063d 0ced 153f 7820 e2be
00000310: 0b5b 1dbe 3087 a13d ac22 c23d 1a37 1dbe
00000320: eec7 ff3d aaf6 823e 6da3 3cbe 7d28 093f
00000330: 096c 51be 446a b43b 12d0 58bd 24d1 d1be
00000340: 80c1 533e e08b 5a3e a48a 853e a699 54bd
00000350: 905e 0e3e f44a 48bc 6cc8 183e d4a9 f83e
00000360: 9e15 7fbd db30 fbbd 8459 14bd 2293 b23d
00000370: 715d c93c 3211 2c3e 7110 fbba 1c17 44be
00000380: 9633 88bd 6494 093d bad8 c53e 2a6f 0d3f
00000390: 8ce2 43bd 6520 333e 2abd 543b de24 4c3e
000003a0: b528 1dbe 7e80 c3be dca9 4bbe e637 1b3e
000003b0: 3709 e2ba 3a6d eabc 2c43 aa3e 374b 753e
000003c0: 10cd d1bc bbae 93be d415 3dbe b65c 5b3f
000003d0: 8b4c f6bd a602 0ebe 2d21 6f3e 0021 17bf
000003e0: cb98 c2bd 3eb3 da37 8baf 32be a69f 33bf
000003f0: 6513 35bd cf56 b5bd 087f b4be 2ab6 953e
