checkpoints/li_et_al/no_class_balancing/Salinas_PCA_8/epoch7_0.96.pth (torch, 140656 bytes, 6 tensors)

conv1.weight f4 [16, 1, 7, 3, 3]
0	0xbc1a804d	-0.009430003
1	0xbcdfd431	-0.02732286
2	0xbd246575	-0.04013582
3	0x3d43a0c6	0.047760747
4	0xbba6b0e6	-0.005087006
5	0x3d732ec1	0.05937076
6	0x3cba256b	0.02272292
7	0x3b9bf754	0.0047597084
8	0x3da8181c	0.082077235
9	0x3e698fe9	0.22808804
10	0x3e35feb6	0.17772946
11	0x3dd7c6cf	0.105359666
12	0x3e490d49	0.19633974
13	0x3e164c23	0.14677481
14	0x3e0a23f1	0.13490273
15	0x3e8ae277	0.27125904
16	0x3e5624da	0.20912495
17	0x3e0a4e20	0.13506365
18	0x3c74e24f	0.014946534
19	0x3c239b17	0.009985707
20	0x3d21d820	0.039512753
21	0xbd8beac7	-0.068318896
22	0x3d05fbbc	0.032710776
23	0xbd1e87b8	-0.03870365
24	0xbcfc0a37	-0.03076659
25	0xbdef93e1	-0.116981275
26	0xbe0debc0	-0.13859463
27	0xbe8d7595	-0.2762877
28	0xbe9b6661	-0.30351546
29	0xbe95781e	-0.29193205
30	0xbeb02d3a	-0.34409505
31	0xbe5a08c1	-0.21292402
32	0xbe6cf4e2	-0.2314029
33	0xbeaa76f1	-0.3329387
34	0xbea3d116	-0.31995457
35	0xbe62ea95	-0.22159798
36	0x3cf41f2a	0.029800016
37	0x3dc39d88	0.09551531
38	0x3cb138c8	0.02163352
39	0x3cdec4d2	0.02719346
40	0x3dd63797	0.10459822
41	0x3da72a6a	0.08162387
42	0x3e13fb43	0.14451317
43	0x3ddede55	0.1088225
44	0x3d5929f5	0.05301853
45	0x3e010d24	0.12602669
46	0x3da239fd	0.07921217
47	0x3d8d1ccd	0.06890259
48	0x3c4806ca	0.01220865
49	0x3c939ae0	0.018018186
50	0xbc677bb8	-0.014128618
51	0x3d044bd0	0.032298863
52	0xbd12bb4b	-0.035823148
53	0xbdd6bb7c	-0.104849786
54	0x3e2decca	0.16984859
55	0x3e709401	0.23493959
56	0x3e648430	0.2231605
57	0x3e80c870	0.25152922
58	0x3e567b63	0.20945506
59	0x3e1b72c7	0.15180503
60	0x3e8a8388	0.27053475
61	0x3e854184	0.26026547
62	0x3e58d451	0.21174742
63	0xbd4e6792	-0.05039174
64	0xbd392424	-0.045200482
65	0xbbf26b1c	-0.0073980223
66	0xbd9e94c7	-0.07743221
67	0xbd4c5263	-0.049883258
68	0x3d518af9	0.051157925
69	0x3d069af7	0.03286263
70	0xbd2fde87	-0.042936828
71	0xbca486df	-0.020083843
72	0xbed9666c	-0.42460954
73	0xbea51a5b	-0.3224667
74	0xbe9b987b	-0.3038977
75	0xbebf9244	-0.3741628
76	0xbe90ab8f	-0.2825589
77	0xbe52e8b9	-0.20596589
78	0xbe9198c8	-0.28436875
79	0xbe5f8c7b	-0.21830933
80	0xbe555447	-0.2083293
81	0x3e07db23	0.13267188
82	0x3dda9a72	0.10673989
83	0x3e0ba566	0.13637313
84	0x3e1c1856	0.15243658
85	0x3daa4ecf	0.08315813
86	0x3e0169db	0.12638037
87	0x3dcb34c3	0.09922173
88	0x3e06fee6	0.13183174
89	0x3e3c9653	0.18416719
90	0x3e18e2f2	0.14930323
91	0x3ddd6b65	0.108114995
92	0x3d771e79	0.060331795
93	0x3e02da41	0.1277857
94	0x3df5d605	0.120037116
95	0x3d754119	0.059876535
96	0x3b777360	0.0037757978
97	0x3da00d02	0.07814981
98	0xbcdc4ab6	-0.026891094
99	0xbd0c9e58	-0.034330696
100	0x3cd0dd4b	0.025496146
101	0x3d19e3d4	0.03757079
102	0xbda02351	-0.07819236
103	0xbd8c09b0	-0.06837785
104	0xbd81776b	-0.06321605
105	0xbd0741ed	-0.033021856
106	0x3acc4b7c	0.0015586461
107	0xbd6c2a32	-0.057657428
108	0x3e5b840f	0.21437095
109	0x3e46f5d1	0.19429709
110	0x3e573052	0.21014526
111	0x3e53aa93	0.20670538
112	0x3e5a3ca5	0.21312197
113	0x3ea162b4	0.31520617
114	0x3e8ad5a9	0.27116135
115	0x3eadfa52	0.33980042
116	0x3ebc9c65	0.3683807
117	0xbdb37183	-0.08761885
118	0xbe10250e	-0.14076635
119	0xbe3f9432	-0.18708876
120	0xbd8540c9	-0.065064974
121	0xbe2f41d2	-0.17114952
122	0xbe0c38cc	-0.13693541
123	0xbdf2e388	-0.118598044
124	0xbe2cf833	-0.16891555
125	0xbe496fcf	-0.19671558
126	0x3f1ce240	0.6128273
127	0x3f126e96	0.5719999
128	0x3f12e237	0.57376426
129	0x3f0c3aad	0.5477703
130	0x3f0b78e1	0.5448132
131	0x3effd255	0.49965158
132	0x3eeb07a3	0.45904264
133	0x3ed6168e	0.41814083
134	0x3eddc3fc	0.43313587
135	0x3f2ea56f	0.6822118
136	0x3f1b5a40	0.60684586
137	0x3ef76be4	0.48324502
138	0x3f244cea	0.6417986
139	0x3eeb99c6	0.46015757
140	0x3ef869e7	0.48518297
141	0x3f062fdb	0.5241677
142	0x3eef1333	0.46694335
143	0x3efc482f	0.49273822
144	0xbdb3a3ba	-0.08771463
145	0xbd9935e0	-0.07480979
146	0xbdfa7765	-0.12229804
147	0xbd806255	-0.06268755
148	0xbd83fc68	-0.06444627
149	0xbe45720d	-0.19281788
150	0xbd105dee	-0.03524583
151	0xbdaa217d	-0.08307169
152	0xbe2f2147	-0.17102538
153	0x3d8b1c93	0.067925595
154	0x3d9c3e78	0.076291025
155	0x3dc75962	0.09733845
156	0x3db4100a	0.08792122
157	0xbd19c4a9	-0.037541065
158	0xbcd8a528	-0.02644594
159	0x3dd580cd	0.104249574
160	0xbd0cd3e3	-0.03438176
161	0xbc20fbff	-0.009825706
162	0x3c1eeb4e	0.009699656
163	0x3ca2abe1	0.019857349
164	0xbdda25fa	-0.10651775
165	0xbb4210e5	-0.002961212
166	0xbdc7bf21	-0.09753252
167	0xbe003b27	-0.12522565
168	0xbdb08e39	-0.08620877
169	0xbdebf6d3	-0.11521687
170	0xbdba261c	-0.090893
171	0xbd838326	-0.06421499
172	0xbd23eee8	-0.04002276
173	0xbdc405d5	-0.09571425
174	0xbdd3a9aa	-0.10335095
175	0xbd9be99e	-0.07612918
176	0xbd9a73f4	-0.075416476
177	0xbd2400c5	-0.040039796
178	0xbddfb252	-0.10922684
179	0xbe3f5206	-0.18683633
180	0xbefece50	-0.4976678
181	0xbef3a4ee	-0.4758677
182	0xbf046eb8	-0.51731443
183	0xbeb702de	-0.35744375
184	0xbe8f2d10	-0.27964067
185	0xbea1ee99	-0.31627348
186	0xbe753742	-0.2394686
187	0xbe55bcae	-0.20872757
188	0xbe92e2be	-0.28688616
189	0xbc92f32d	-0.01793822
190	0x3c950c33	0.018194294
191	0x3d24b99d	0.040216077
192	0xbd6cdba4	-0.057826653
193	0xbb21a007	-0.0024662034
194	0x3cb17d9b	0.021666339
195	0xbcc6b3a3	-0.02425558
196	0xbc5142ce	-0.012772275
197	0x3ddbcf93	0.10732951
198	0xbef4fb70	-0.47848082
199	0xbecdbe34	-0.40184176
200	0xbeac79b8	-0.33686614
201	0xbef29bb3	-0.47384414
202	0xbec93b4a	-0.39303046
203	0xbeacd758	-0.33758044
204	0xbee3bdc7	-0.44480726
205	0xbea85a15	-0.32881227
206	0xbed7a081	-0.42114642
207	0x3da2cda8	0.07949382
208	0x3e4d8c06	0.20072946
209	0x3e7d0473	0.24708728
210	0x3e0c50d8	0.13702714
211	0x3e48b8f8	0.1960181
212	0x3e7f47f6	0.24929795
213	0x3e34abbe	0.1764364
214	0x3e343def	0.17601751
215	0x3e77497f	0.2414913
216	0x3db4d368	0.08829385
217	0x3d7a21bb	0.061067324
218	0x3c8c1ca8	0.017103508
219	0x3dc2ec36	0.0951771
220	0x3db94890	0.09047043
221	0xbd38f433	-0.04515476
222	0x3d679cb1	0.056545917
223	0x3d5f06b4	0.054449752
224	0xbd90644a	-0.070503786
225	0xbda3ee5f	-0.0800445
226	0xbc87b4bb	-0.016565671
227	0x3b01556b	0.001973475
228	0xbdfbf5e5	-0.1230276
229	0x3bd8f32e	0.006620786
230	0xbd9b2c30	-0.075767875
231	0xbd28b9cb	-0.04119281
232	0xbdb996eb	-0.090619884
233	0xbdf679e5	-0.12034968
234	0x3e14aabb	0.14518254
235	0x3daa1d7a	0.083064035
236	0x3e6bc692	0.23024967
237	0x3df96ba7	0.12178736
238	0x3e3df7d0	0.18551564
239	0x3e3695b7	0.17830549
240	0x3e423793	0.18966512
241	0x3e84221d	0.25807276
242	0x3e74d960	0.23911047
243	0x3e00b6a1	0.12569667
244	0x3d82f47d	0.06394289
245	0x3e24c7c1	0.16091825
246	0xbbc4a06b	-0.0060005686
247	0x3d3d9385	0.046283264
248	0x3d4a5246	0.04939487
249	0x3d8826b2	0.066480055
250	0x3d1a50e2	0.037674792
251	0x3d916121	0.07098604
252	0x3cc4af70	0.024009436
253	0xbbc4faa4	-0.006011324
254	0xbd450132	-0.048096843
255	0x3cd69546	0.026194226

conv1.bias f4 [16]
0	0xbea6e227	-0.32594416
1	0x3ee2c57e	0.442913
2	0xbf1e1d48	-0.6176343
3	0x3e436bfc	0.19084162
4	0x3b8202b2	0.0039676065
5	0xbb8b3edc	-0.004249437
6	0xbd69b815	-0.05706032
7	0x00000000	0.0
8	0x00000000	0.0
9	0x3f013df4	0.5048516
10	0xbc293316	-0.010327121
11	0xbeb6a762	-0.35674578
12	0xbc22c47f	-0.009934544
13	0x3ea638da	0.3246525
14	0xbe59732b	-0.2123534
15	0xbcc5aa95	-0.024129191

conv2.weight f4 [32, 16, 3, 3, 3]
0	0x3e615a70	0.22007155
1	0x3e43765f	0.19088124
2	0x3e3445fa	0.17604819
3	0x3e42280b	0.18960588
4	0x3e3a0a4d	0.18167992
5	0x3e1cc81f	0.15310715
6	0x3e4fec11	0.20304896
7	0x3e3afeee	0.1826131
8	0x3e327495	0.17427285
9	0xbd880930	-0.066423774
10	0xbc15a6e8	-0.009134032
11	0x3c383752	0.011243658
12	0xbd909053	-0.07058778
13	0x3c647fb6	0.013946464
14	0x3c575c84	0.013144616
15	0xbd96f615	-0.07371155
16	0x3b48ad91	0.0030621032
17	0xbd31cad1	-0.04340631
18	0xbd78d18d	-0.06074672
19	0xbc492571	-0.012276993
20	0xbdd0ac93	-0.10189166
21	0xbdbb57f7	-0.09147637
22	0xbcb9b171	-0.022667618
23	0xbcfa5bed	-0.030561412
24	0xbcb41a7d	-0.021985287
25	0xbdee9c99	-0.116509624
26	0xbccae089	-0.02476527
27	0xbde74768	-0.112929165
28	0xbe0a02f9	-0.13477696
29	0xbd174838	-0.036934108
30	0xbe1c4010	-0.15258813
31	0xbd82ea6d	-0.063923694
32	0xbd47b6ac	-0.048758194
33	0xbdea9132	-0.11453475
34	0xbe02c109	-0.1276895
35	0xbdf13867	-0.11778336
36	0xbdb1ce77	-0.08681958
37	0xbe00a124	-0.1256147
38	0xbd5c9e26	-0.05386176
39	0xbdc78e35	-0.09743921
40	0xbd9cda54	-0.0765883
41	0xbdb7b128	-0.08969337
42	0xbdb1f0a9	-0.086884804
43	0xbd840972	-0.06447114
44	0xbd81ad29	-0.06331856
45	0x3c4e6647	0.012597627
46	0xbd4af30a	-0.049548186
47	0x3d5be26e	0.053682737
48	0x3d10e9ca	0.03537921
49	0xbbad5007	-0.005289081
50	0x3cfa7f59	0.030578302
51	0x3c4caadc	0.012491908
52	0xbb7cf438	-0.0038597714
53	0x3d9837e6	0.07432537
54	0x3db99c29	0.09062988
55	0x3d83e47b	0.064400636
56	0x3d1d60d2	0.038422413
57	0x3cbe2477	0.023210747
58	0xbcb42c0d	-0.021993661
59	0xbd478113	-0.04870708
60	0x3dda6585	0.106638946
61	0x3d9848a8	0.07435733
62	0x3ca05114	0.019569911
63	0x3ee83947	0.453562
64	0x3ebf1670	0.37321806
65	0x3e83db9c	0.25753486
66	0x3e9a0e1f	0.300889
67	0x3e478eb2	0.19488028
68	0x3e3a85b8	0.18215072
69	0x3e7050ca	0.23468319
70	0x3e06b40c	0.1315462
71	0x3dbc7eb6	0.09203856
72	0x3d8c32fa	0.068456605
73	0x3d9f4464	0.07776716
74	0x3ca699c7	0.020336999
75	0x3d5771f6	0.052598916
76	0x3d0800bb	0.03320382
77	0x3da7f7aa	0.08201535
78	0x3d535b96	0.051601015
79	0x3c9e5e99	0.019332217
80	0x3d4db9a7	0.05022588
81	0xbdf3e655	-0.11909167
82	0xbd8a630d	-0.06757174
83	0xbdc384a8	-0.095467865
84	0xbd9e1dfb	-0.07720562
85	0xbdb7fa80	-0.08983326
86	0xbbcd3d93	-0.0062634437
87	0xbdd7a604	-0.10529712
88	0xbcbecafd	-0.023290152
89	0x3c666f2c	0.014064591
90	0xba4724ae	-0.0007596713
91	0xbbaaca56	-0.0052121086
92	0xbde26a1f	-0.11055397
93	0x3bf31bf7	0.007419105
94	0x3bbee6c9	0.0058258516
95	0xbc8fb620	-0.017542899
96	0xbcf07f1c	-0.029357485
97	0xbbed4c6e	-0.007241777
98	0xbdc39605	-0.09550098
99	0x3cdc602a	0.026901323
100	0xbc4e0efc	-0.012576815
101	0x3dda82b1	0.10669459
102	0x3c349a9f	0.011023193
103	0x3d8b1554	0.067911774
104	0x3c9b4f8c	0.01895883
105	0x3dd0cd96	0.101954624
106	0x3d935365	0.071936406
107	0x3d827445	0.06369833
108	0x3d0b9af4	0.03408332
109	0xbd22dcb2	-0.039761253
110	0x3b85c46e	0.004082254
111	0x3c18537c	0.009297248
112	0xbd0da4ec	-0.03458111
113	0xbd0e4e7e	-0.034742825
114	0x3c5dd552	0.013539629
115	0x3d14a249	0.03628758
116	0xba9ac560	-0.001180809
117	0xbb1b1845	-0.0023665589
118	0x3cdfd07c	0.027321093
119	0xbd477ed9	-0.048704956
120	0x3d2ebc9a	0.042660333
121	0x3cade94e	0.021229412
122	0xbc599318	-0.013279699
123	0x3b154890	0.0022778846
124	0xbd50593b	-0.050866347
125	0x3be249b6	0.0069057597
126	0x3d4d139e	0.050067537
127	0x3d44ea54	0.048075035
128	0xbd28f41e	-0.041248433
129	0x3d537809	0.051628146
130	0x3d67626a	0.05649034
131	0x3cfb6415	0.030687371
132	0xbbf01ab8	-0.007327404
133	0x3d416a7e	0.0472207
134	0xbd53c23c	-0.05169891
135	0x3a535af5	0.0008062565
136	0x3d4f3da5	0.0505959
137	0x3c61a5f0	0.013772473
138	0x3da4d721	0.08048845
139	0xbd71ccec	-0.05903332
140	0xbca38751	-0.019961985
141	0x3c9f071c	0.01941257
142	0xbd91ebba	-0.071250394
143	0xbde19d56	-0.110163376
144	0x3deaa4f1	0.11457241
145	0x3e481369	0.19538654
146	0x3e308dbf	0.17241572
147	0x3dfffbf5	0.12499229
148	0x3e01dd12	0.12681988
149	0x3e275fd3	0.16345148
150	0x3e3e4561	0.18581153
151	0x3e39afc9	0.18133463
152	0x3e3850c8	0.17999566
153	0xbe38c70a	-0.18044677
154	0xbe1d3520	-0.15352297
155	0xbe0c5782	-0.13705257
156	0xbe1fb390	-0.15595841
157	0xbe209b59	-0.1568426
158	0xbe1e43f3	-0.15455608
159	0xbd8494f0	-0.0647372
160	0xbdfec549	-0.12439973
161	0xbe01b622	-0.12667134
162	0xbdb332f6	-0.087499544
163	0xbc75be5d	-0.014998999
164	0xbd39eb2d	-0.045390297
165	0xbd2feb49	-0.042948995
166	0x3cbb654e	0.022875454
167	0x3c982afc	0.018575184
168	0xbd1be32b	-0.03805844
169	0xbc050f2c	-0.008121293
170	0xbd19dfbe	-0.037566893
171	0xbe1a5436	-0.15071186
172	0xbe0abb24	-0.13547951
173	0xbe2b9137	-0.16754614
174	0xbe429f8e	-0.19006178
175	0xbdd87b20	-0.10570359
176	0xbe033567	-0.1281334
177	0xbe041769	-0.12899555
178	0xbdc3468c	-0.0953494
179	0xbdcc1909	-0.099657126
180	0xbd41bc8e	-0.04729896
181	0xbd4e8207	-0.050416972
182	0x3c720ef8	0.014774077
183	0xbd88a9fa	-0.066730455
184	0xbc8619bc	-0.016369693
185	0x3cd3921e	0.02582651
186	0x3cdbf2cf	0.026849179
187	0xbd14e038	-0.036346644
188	0x3d2c683c	0.042091593
189	0x3d51f08e	0.0512548
190	0xbd2ce02e	-0.042205982
191	0x3d1e3f38	0.03863451
192	0xbca6949c	-0.020334534
193	0x3d016021	0.031585816
194	0x3d0cd1a2	0.03437961
195	0xbd04d946	-0.03243377
196	0xbd2dbb49	-0.042414937
197	0x3c3dc57c	0.0115827285
198	0xbd5dfc23	-0.054195534
199	0x3d111a7f	0.03542566
200	0xbcf094dc	-0.029367857
201	0xbd16bbe2	-0.036800273
202	0xbb378562	-0.0028003086
203	0xbc7fd699	-0.015615129
204	0x3d1e0f4c	0.038588807
205	0xbd3c92cc	-0.046038434
206	0xbd1d177f	-0.038352486
207	0x3d37c358	0.04486403
208	0xbc5e4992	-0.013567345
209	0x3d2c1867	0.04201546
210	0xbd46e5a2	-0.04855884
211	0x3cf6658f	0.030077724
212	0x3d23bce8	0.039975077
213	0xbd4d5fbb	-0.050140124
214	0x3cc4512d	0.023964489
215	0x3d0a4be7	0.033763792
216	0x3ca85691	0.02054909
217	0x3b9d7686	0.004805389
218	0x3c138017	0.009002707
219	0xbd4115ad	-0.047139812
220	0x3c35d63c	0.011098441
221	0xbba3dcc1	-0.005000681
222	0xbd550328	-0.052004963
223	0x3d19bc48	0.037533075
224	0x3c4c04c4	0.012452308
225	0x3cd96aa9	0.026540117
226	0xbd3e4f12	-0.046462126
227	0x3d3244b4	0.04352255
228	0xbcfe1369	-0.031015115
229	0xbc34b3b1	-0.01102917
230	0xbc900e20	-0.01758486
231	0x3b0496e4	0.002023154
232	0x3b62d388	0.0034610946
233	0x3c4c1131	0.012455271
234	0x3ce04e97	0.027381225
235	0xbcbf6cfd	-0.0233674
236	0xbcd94945	-0.026524195
237	0xbbc75734	-0.0060833935
238	0xbce8a38f	-0.028398303
239	0xbd6257bc	-0.05525945
240	0x3d1bcd76	0.03803774
241	0x3c9eb1c7	0.01937188
242	0xbd1d6a91	-0.038431708
243	0xbdfe965c	-0.124310225
244	0xbd8d63e6	-0.0690382
245	0xbc1da489	-0.009621748
246	0xbd986fe9	-0.0744322
247	0xbdebdbe6	-0.11516552
248	0xbdbc6f94	-0.09200969
249	0xbe241473	-0.16023426
250	0xbd8b31da	-0.06796618
251	0xbd015b58	-0.031581253
252	0xbe82a94f	-0.25519797
253	0xbe45fad9	-0.19333972
254	0xbe589bd5	-0.21153195
255	0xbe5ed07c	-0.21759218

conv2.bias f4 [32]
0	0xbe451b25	-0.19248636
1	0x3d835b91	0.06413949
2	0xbce58791	-0.028018745
3	0xbce4ee1d	-0.027945573
4	0x3a098aab	0.00052467984
5	0xbdc6a395	-0.096991695
6	0x3cd98016	0.026550334
7	0xbd7440e9	-0.059632216
8	0x3d9e36d5	0.07725302
9	0xbd05789e	-0.032585733
10	0x3e19676e	0.14980862
11	0xbb9f4553	-0.004860559
12	0xbde20194	-0.11035457
13	0xbce5b46f	-0.028040139
14	0xbd763f53	-0.060118984
15	0xbd92bb90	-0.07164681
16	0xbd27fe2d	-0.041013885
17	0xbd036722	-0.032080777
18	0xbbad49ef	-0.0052883546
19	0x3e119fe8	0.14221156
20	0xbc1e4300	-0.009659529
21	0xbc995c64	-0.018720813
22	0xb5d97041	-1.620043e-06
23	0xbc5f58f1	-0.013632045
24	0x3c1defd3	0.009639698
25	0xbda8f6f4	-0.082502276
26	0xbc4b113f	-0.0123942485
27	0xbcb9200f	-0.022598295
28	0xbcc489b7	-0.023991449
29	0x3c226f51	0.009914235
30	0x3d48f924	0.049065724
31	0x3d8e2e95	0.069424786

fc.weight f4 [17, 1152]
0	0x3be2d870	0.006922774
1	0x3c3e6880	0.011621594
2	0x3badd8ae	0.0053053712
3	0xbdaa304f	-0.083099954
4	0xbd307f98	-0.043090433
5	0xbd95640b	-0.07294472
6	0xbd1860dc	-0.037201747
7	0x3cf1c102	0.029510979
8	0x3c23b4a5	0.0099917995
9	0x3c1e3647	0.009656495
10	0xbdacd851	-0.084396966
11	0xbd164be3	-0.036693465
12	0xbda11ef8	-0.07867235
13	0xbcfea033	-0.031082248
14	0xbb7679e7	-0.003760928
15	0xbc3461b0	-0.011009619
16	0xbd19491c	-0.03742324
17	0xbd3491c0	-0.04408431
18	0xbd680d92	-0.056653567
19	0xbd9ea92b	-0.0774711
20	0xbb716ea9	-0.003683964
21	0x3c2fbc4b	0.010726045
22	0xbc9101f6	-0.01770113
23	0xbd9e4d6e	-0.07729612
24	0xbd899734	-0.06718293
25	0xbd9af970	-0.07567108
26	0x3a06087d	0.0005112959
27	0xbc821436	-0.015878778
28	0xba6f0f33	-0.00091193913
29	0xbd49f922	-0.049309857
30	0xbc1ac741	-0.00944692
31	0x3ceec53a	0.02914678
32	0xbd3a76ad	-0.045523334
33	0xbcbfac99	-0.02339773
34	0x3cac38b6	0.021023136
35	0x3d0599fe	0.03261756
36	0x3c51301f	0.012767821
37	0xbc958f66	-0.018256854
38	0x3d4c0e6e	0.04981845
39	0x3d698394	0.05701025
40	0xbd674cbe	-0.05646967
41	0xbd138e1e	-0.036024205
42	0x3c32e208	0.010918148
43	0x3d11d50e	0.035603575
44	0xbca19fcf	-0.019729523
45	0xbd35a8c1	-0.04435039
46	0xbd6d20d9	-0.057892654
47	0x3b3c3dd9	0.0028723388
48	0xbc9ac04f	-0.018890528
49	0x3c0417ff	0.008062362
50	0x3cee00ca	0.02905311
51	0xbc3817d0	-0.011236146
52	0x3d1f4ffb	0.038894635
53	0xbd3d56b0	-0.04622525
54	0x3c77aeba	0.015117342
55	0x3d57b131	0.052659217
56	0xbd2d0d4c	-0.04224901
57	0xbc376e6b	-0.011195759
58	0xbd352540	-0.044224977
59	0xbcc265fe	-0.023730274
60	0x3cf9fe5a	0.030516792
61	0x3c45ae1b	0.012065436
62	0xbc5cbff1	-0.013473497
63	0x3d578dd7	0.052625503
64	0x3bc2c90a	0.005944376
65	0x3d6a96f7	0.057272878
66	0x3ccf84d4	0.025331892
67	0x3d163528	0.036671788
68	0x3d526c1f	0.051372644
69	0xbc8035b0	-0.0156506
70	0x3c7c7444	0.015408579
71	0x3cbbf4d8	0.022943899
72	0xbcfa5919	-0.030560063
73	0xbc429260	-0.011875719
74	0x3cfc759c	0.0308178
75	0xbd6ec333	-0.058291625
76	0xbd4a80d5	-0.04943927
77	0xbd028217	-0.031862345
78	0x3cc873c7	0.02446927
79	0x3b39fb75	0.002837864
80	0x3c9338ff	0.017971514
81	0xbcb590a3	-0.022163695
82	0xbd57eddc	-0.052717075
83	0x3cf8b67b	0.030360451
84	0x3ba75987	0.005107108
85	0xbc8f7524	-0.017511912
86	0xbd59c9b3	-0.05317087
87	0xbc2a13f0	-0.01038073
88	0x3cc33b02	0.023831848
89	0x3d4108dc	0.04712759
90	0xbd5a9277	-0.053362336
91	0x3d178c2a	0.036998905
92	0x3c12eb07	0.008967168
93	0xbd19b4f7	-0.037526097
94	0xbd482173	-0.048860025
95	0xbd7298eb	-0.059227865
96	0x3c26bbbb	0.010176594
97	0x3b7394bf	0.0037167517
98	0xbbc6bb38	-0.0060647987
99	0x3cd5b283	0.026086098
100	0x3d26f036	0.040756427
101	0xbd405b51	-0.046962086
102	0xbb9fb21b	-0.0048735267
103	0x3d49fb1c	0.049311742
104	0xbd45ba80	-0.048273563
105	0x3cafd6e7	0.021464778
106	0xbc449c0b	-0.012000094
107	0xbcdb3aa9	-0.02676137
108	0x3cfd9fad	0.030959928
109	0xbd49cd2b	-0.04926793
110	0xbd1f4500	-0.038884163
111	0xbcd33cd5	-0.025785843
112	0x3ce1e02b	0.027572712
113	0xbc877d61	-0.016539278
114	0xbd70c315	-0.058779795
115	0x3cf38704	0.029727466
116	0x3d51c3a1	0.051211957
117	0xbd0a6b20	-0.03379357
118	0x3c8d1157	0.017220182
119	0xbcffb1e4	-0.031212755
120	0xbd4da868	-0.050209433
121	0xbbe3f7b1	-0.0069570174
122	0xbce71dcb	-0.028212449
123	0xbbf74f23	-0.0075472756
124	0x3d1ec600	0.038763046
125	0x3ced57c2	0.02897251
126	0xbd0592e1	-0.032610778
127	0x3ce010b6	0.027351718
128	0xbbe64a32	-0.0070278877
129	0xba9f8199	-0.001216936
130	0xbca299f2	-0.019848797
131	0xbb57cec8	-0.0032929648
132	0x3cbc9ac3	0.023023015
133	0xbce67ea7	-0.028136564
134	0x3d4dcadb	0.050242286
135	0xbce2352e	-0.027613249
136	0x3d4b98fd	0.049706448
137	0xbcd0b772	-0.025478099
138	0xbd2e5344	-0.042559877
139	0xbd01ace3	-0.03165902
140	0xba6cd9e8	-0.0009035156
141	0x3d19cd50	0.037549317
142	0x3d5bbb22	0.05364526
143	0x3c2b5910	0.010458246
144	0x3d3b26fc	0.045691475
145	0xbd3d2f5f	-0.046187755
146	0xbce2a6d0	-0.027667433
147	0xbc80ee70	-0.015738696
148	0x3d20e3ec	0.039279863
149	0x3b55190e	0.0032516154
150	0xbd56e3f0	-0.052463472
151	0x3d11bb02	0.035578735
152	0xbd6ed3fe	-0.05830764
153	0x3d734117	0.059388246
154	0x3d0a2456	0.03372606
155	0xbcc1b316	-0.023644965
156	0xbd5d6891	-0.0540548
157	0xbc8c262d	-0.017108047
158	0x3d2ce6c9	0.04221228
159	0xbd5526d3	-0.05203898
160	0xbc154abd	-0.009112057
161	0xbd324905	-0.043526668
162	0x3b8e0f39	0.004335311
163	0xbc3dc3e2	-0.011582347
164	0x3c7ca71f	0.015420704
165	0x3d427bf0	0.047481477
166	0x3c1a9001	0.009433747
167	0x3d5b1194	0.05348356
168	0x3d2a852f	0.04163092
169	0x3d29eead	0.041487385
170	0xbd5c7aa0	-0.05382788
171	0x3c1b3e6e	0.009475334
172	0x3ad47c3f	0.0016211345
173	0xbd0d0967	-0.034432795
174	0x3c456fe8	0.012050606
175	0xbcb3f219	-0.021966027
176	0x3d1759dd	0.036950935
177	0xbc711f4d	-0.014716935
178	0xbd35b27b	-0.044359665
179	0x3d47c6ed	0.048773695
180	0xbb72baeb	-0.0037037681
181	0xbd60d71d	-0.054892648
182	0x3d61ba5c	0.055109367
183	0xbc3c0fb0	-0.01147835
184	0x3c8253d4	0.015909113
185	0x3d0250db	0.03181539
186	0x3c573ef0	0.013137564
187	0xbc0f1422	-0.008732827
188	0x3c8a116b	0.016854009
189	0xbd0c9167	-0.034318354
190	0x3d65d563	0.056111705
191	0xbd2b892a	-0.041878857
192	0x3d115c05	0.035488147
193	0x3d02743f	0.031849142
194	0x3d603ac1	0.054743532
195	0xbbef92d3	-0.007311204
196	0x3d316696	0.043310724
197	0x3c4a0a28	0.012331523
198	0xbce25518	-0.027628466
199	0x3d587833	0.052849006
200	0xbd0061aa	-0.03134314
201	0x3ca707c2	0.020389441
202	0x3d0aad67	0.033856776
203	0x3d109b22	0.035304196
204	0xbd6cef6b	-0.057845514
205	0xbd1089fd	-0.035287846
206	0xbd319870	-0.043358266
207	0xbc2d1514	-0.010564107
208	0xbd80e40b	-0.06293496
209	0x3cfc91a6	0.03083117
210	0x3bee9f9f	0.007282212
211	0xbc7420a8	-0.014900364
212	0xbbe193e7	-0.0068840864
213	0x3c130acd	0.008974743
214	0xbd51fa04	-0.051263824
215	0x3c49938f	0.012303247
216	0xbd3df474	-0.046375707
217	0xbd6e9130	-0.05824393
218	0x3cb6c628	0.022311285
219	0x3d0e1768	0.03469029
220	0xbd49cf78	-0.049270123
221	0x3d0f072a	0.03491894
222	0xbd1b7782	-0.03795577
223	0x3c3c83c2	0.011506023
224	0x3d305384	0.043048397
225	0x3d1fba8e	0.03899627
226	0x3d17822a	0.03698937
227	0x3c6045ec	0.013688546
228	0xbc914e78	-0.017737612
229	0xbd8098d7	-0.06279152
230	0x3b6e5479	0.0036366268
231	0xbcf5aae0	-0.029988706
232	0xbc9eb597	-0.019373698
233	0x3c8fb17d	0.017540688
234	0x3c9b5c94	0.018965043
235	0x3d5a5ae7	0.053309347
236	0xbcc9cc69	-0.024633603
237	0x3cde955e	0.027170833
238	0xbd830730	-0.06397855
239	0x3d280303	0.041018497
240	0xbc6b5763	-0.014364096
241	0xbccdf1c1	-0.025139691
242	0xbbfbb98d	-0.0076820315
243	0xbc6190b8	-0.013767414
244	0x3d6422f7	0.055697408
245	0xbd4c59c5	-0.0498903
246	0xbd30efb6	-0.043197356
247	0x3d3e765a	0.046499588
248	0xbc1198dd	-0.008886543
249	0x3c39c7f6	0.011339178
250	0xbd106aab	-0.035257977
251	0xbd1f685a	-0.038917877
252	0xbcd1b9c9	-0.025601285
253	0x3cecdf00	0.028914928
254	0xbcff15c0	-0.0311383
255	0xbd6bafb8	-0.057540625

fc.bias f4 [17]
0	0xbdcd0722	-0.10011126
1	0xbd9c1044	-0.0762029
2	0xbd99e829	-0.07514984
3	0x3c3f9ecd	0.011695576
4	0xbd9952e7	-0.074865155
5	0xbcef9969	-0.029247956
6	0x3cca14a6	0.024668049
7	0x3a9a16c4	0.0011756052
8	0x3db5fe98	0.088864505
9	0x3d6e8eb9	0.05824158
10	0x3db4f931	0.08836592
11	0xbd226bb5	-0.0396535
12	0xbc49336f	-0.012280329
13	0xbd468f53	-0.04847653
14	0xbccf108f	-0.02527645
15	0x3e5dfccb	0.21678464
16	0xbc0bd732	-0.008535193
