checkpoints/paoletti_et_al/no_class_balancing/Salinas_Corr_30/epoch14_0.85.pth (torch, 180728 bytes, 10 tensors)

gru1.weight_ih_l0 f4 [192, 30]
0	0xbe48bac0	-0.1960249
1	0xbdbb28a2	-0.091386095
2	0xbd93bf6c	-0.07214245
3	0xbe2311cd	-0.15924759
4	0xbdcca173	-0.099917315
5	0xbe2e2c16	-0.17009005
6	0xbe0f5839	-0.13998498
7	0xbdeceea3	-0.11568954
8	0xbc98425d	-0.018586332
9	0xbd100816	-0.03516396
10	0xbd76e767	-0.060279276
11	0x3cf2bb9e	0.029630478
12	0xbe3d642d	-0.18495245
13	0x3d0c173d	0.03420185
14	0x3d3c82a5	0.04602303
15	0xbd3c71b1	-0.046006862
16	0x3d066fcb	0.032821458
17	0xbccae3ed	-0.024766887
18	0xbd29e31b	-0.04147635
19	0xbe1ae098	-0.15124738
20	0xbcc2c28e	-0.023774412
21	0xbda93e1a	-0.08263798
22	0xbd86bee7	-0.065793805
23	0xbe0a3080	-0.13495064
24	0xbd9642c0	-0.0733695
25	0xbda818b1	-0.082078345
26	0x3c8eda4e	0.01743808
27	0xbe0a4516	-0.13502917
28	0xbe3b0b43	-0.18266015
29	0xbe6a6251	-0.22889067
30	0x3d431698	0.04762897
31	0xbc82b6c6	-0.015956294
32	0x3d7c253b	0.061558943
33	0x3cbe9b11	0.0232673
34	0xbbe19759	-0.006884497
35	0xba1ff03e	-0.00061011675
36	0xbc1d39d0	-0.009596303
37	0xbd8b8be2	-0.0681379
38	0xbd3e9bb1	-0.046535198
39	0xbd955ff4	-0.07293692
40	0xbc6b94e9	-0.014378765
41	0x3d2a3147	0.0415509
42	0xbdbc1ff8	-0.09185785
43	0x3da7cafb	0.08193012
44	0xbdc99015	-0.098419346
45	0xbdad0fc7	-0.08450275
46	0x3de9b13e	0.114107594
47	0x3d22fad6	0.039789997
48	0xbdc5967e	-0.09647845
49	0xbc8d39e6	-0.017239522
50	0xbd9204b1	-0.07129801
51	0x3d4ff758	0.050772995
52	0x3cccf955	0.025021235
53	0x3db7f628	0.089824975
54	0x3dd90332	0.105963126
55	0xbce0233b	-0.02736055
56	0x3cbeffc4	0.023315318
57	0xbd0eee51	-0.034895245
58	0xbdaa10f7	-0.08304017
59	0x3b840342	0.0040287087
60	0xbd1adec3	-0.0378101
61	0xbe31ccf4	-0.1736334
62	0xbe107243	-0.14106087
63	0xbe009f8b	-0.12560861
64	0xbe3d1df2	-0.18468454
65	0xbdb88208	-0.090091765
66	0xbd90888e	-0.07057296
67	0xbe2f7d45	-0.1713763
68	0xbe0f388f	-0.13986419
69	0xbde237ed	-0.11045823
70	0x3c7dd6ea	0.015493134
71	0x3bef12df	0.007295951
72	0xbe48833f	-0.19581316
73	0xbdb5435a	-0.08850737
74	0xbdd97a33	-0.10619011
75	0xbd105876	-0.035240613
76	0xbe5c087c	-0.21487612
77	0xbdd41af4	-0.103567034
78	0xbe1d791d	-0.15378232
79	0xbe50f09e	-0.20404288
80	0xbc60eafb	-0.013727899
81	0x3b93f629	0.0045154286
82	0xbdc5692a	-0.09639199
83	0xbe04604f	-0.12927364
84	0xbdea9d16	-0.11455743
85	0xbe3b319d	-0.18280645
86	0x3ca94f0d	0.020667577
87	0xbdc14d87	-0.09438615
88	0xbdf0584d	-0.11735592
89	0xbe2a3673	-0.16622333
90	0xbe31cc28	-0.17363036
91	0xbdc731ba	-0.097262815
92	0x3ab5e605	0.0013877755
93	0xbdf23b84	-0.11827758
94	0xbe03d8f6	-0.12875733
95	0xbca9e8e6	-0.020740937
96	0x3d052623	0.032507073
97	0xbc5db4bc	-0.01353186
98	0xbd9e3893	-0.077256344
99	0xbe35b265	-0.17743833
100	0xbe2c4cd7	-0.16826187
101	0xbe110413	-0.1416171
102	0xbdc76bb6	-0.09737341
103	0xbdbe00cd	-0.092774965
104	0xbe341483	-0.1758595
105	0xbdf69544	-0.12040189
106	0xbe463089	-0.19354452
107	0xbe26f387	-0.16303836
108	0xbd550c7f	-0.05201387
109	0xbdd5be48	-0.10436684
110	0xbe164743	-0.14675622
111	0xbe513b09	-0.20432676
112	0xbd7f7adf	-0.06237304
113	0xbd84197a	-0.06450172
114	0xbe11c49f	-0.14235161
115	0xbdafad25	-0.085779466
116	0xbc845f71	-0.016158791
117	0xbd1900a6	-0.037354134
118	0xbd4f2dee	-0.05058091
119	0xbd00625f	-0.031343814
120	0xbd7af5a2	-0.06126941
121	0xbe058c7b	-0.1304187
122	0xbd942a1e	-0.07234596
123	0x3c2cdee3	0.010551187
124	0xbd88f7fa	-0.06687923
125	0xbdf98605	-0.12183765
126	0x3cb2342e	0.021753397
127	0x3d9e5a00	0.0773201
128	0xbd86f1ce	-0.06589089
129	0xbe00dd3c	-0.12584394
130	0xbdd5fd85	-0.10448746
131	0x3d5a8403	0.053348552
132	0xbcc8eaec	-0.024526082
133	0xbe223d19	-0.1584362
134	0x3d6c8e44	0.057752863
135	0xbd93df91	-0.07220376
136	0xbd969772	-0.07353105
137	0xbba27f71	-0.00495904
138	0x3d9ad39b	0.07559892
139	0x3d9cc3c9	0.076545306
140	0xbd347730	-0.04405898
141	0xbc880fe7	-0.016609145
142	0xbc59e623	-0.013299498
143	0x3d88c039	0.066772886
144	0x3dc367f6	0.09541313
145	0xbc92da05	-0.017926225
146	0xbda77650	-0.08176863
147	0xbd093a4a	-0.033502854
148	0xbd17e3d1	-0.037082497
149	0x3d8e596b	0.06950649
150	0xbd43f083	-0.04783679
151	0x3e064b00	0.13114548
152	0x3d4b9adc	0.049708232
153	0x3d298356	0.041385017
154	0xbddc1d1f	-0.10747742
155	0x3cb0f9e8	0.02160354
156	0x3d209653	0.03920586
157	0xbd5f462e	-0.054510288
158	0xbdb07b8e	-0.08617316
159	0xbd89fa7f	-0.067372315
160	0x3d84cbf7	0.06484216
161	0x3da33855	0.07969729
162	0x3d6ab7a6	0.057304047
163	0xbdc66085	-0.096863784
164	0xbdbb1e2e	-0.09136616
165	0x3d0eb4ff	0.03484058
166	0x3d1232e0	0.03569305
167	0xbd398676	-0.045294248
168	0xbc86544a	-0.016397614
169	0xbcf89faa	-0.030349571
170	0xbd1893f2	-0.037250467
171	0x3db1b231	0.086765654
172	0x3dfbf5bb	0.12302729
173	0x3d062853	0.0327533
174	0x3df3f3a6	0.119117066
175	0x3ca5a46b	0.020220002
176	0x3dfbc440	0.12293291
177	0x3c691f8b	0.014228712
178	0xbdb48c59	-0.08815832
179	0x3d73170c	0.05934815
180	0xbda57146	-0.08078246
181	0x3e12a0fe	0.14319226
182	0x3d2993fd	0.0414009
183	0x3d205a68	0.039148718
184	0xbd8b4148	-0.06799561
185	0x3a932b9d	0.0011228208
186	0xbd26b71d	-0.040701974
187	0xbcd1eaaf	-0.025624601
188	0x3d441a3a	0.047876574
189	0x3d190ce9	0.037365828
190	0xbe001136	-0.12506565
191	0xbd283121	-0.041062478
192	0x3e01bcc9	0.12669672
193	0x3dac86d6	0.084241554
194	0xbd3d349b	-0.046192747
195	0xbdbb7c92	-0.09154619
196	0x3da9aefb	0.08285328
197	0xbbb1001d	-0.005401625
198	0xbd46f559	-0.048573826
199	0x3dd630cf	0.10458528
200	0xbb2ac22a	-0.0026055672
201	0x3ce0670b	0.027392885
202	0xbdee966e	-0.11649786
203	0xbd99af94	-0.07504192
204	0xbd99cf1e	-0.075102076
205	0x3da8cfc0	0.0824275
206	0xbca3e947	-0.020008696
207	0x3e1bf550	0.15230298
208	0x3c9ec2fc	0.019380085
209	0xbdc41334	-0.09573975
210	0xbd050cfc	-0.032483086
211	0x3cba1b40	0.022718072
212	0xbe24cc7d	-0.16093631
213	0x3d300cc2	0.042980917
214	0x3d94306f	0.072358005
215	0x3d1ff785	0.039054412
216	0xbe118b08	-0.14213192
217	0xbde733f6	-0.11289208
218	0xbdd7720e	-0.10519801
219	0xbd0db66a	-0.03459779
220	0xbe358d0f	-0.17729591
221	0xbdc7f050	-0.09762633
222	0xbdd1cf80	-0.102446556
223	0xbe2ac708	-0.16677487
224	0xbe27b322	-0.16376927
225	0xbdbe58fd	-0.09294317
226	0xbd0009c2	-0.031259306
227	0xbe397cb5	-0.18113978
228	0x3c50f2fb	0.012753244
229	0xbc80e63b	-0.015734782
230	0xbe06aac9	-0.13151087
231	0xbe20525d	-0.15656419
232	0xbe226fee	-0.1586301
233	0x3bce8294	0.006302187
234	0xbe2422d2	-0.16028908
235	0x3d735581	0.059407715
236	0xbe166427	-0.14686643
237	0xbdb885e3	-0.09009912
238	0xbdaf5094	-0.08560291
239	0xbce1edc9	-0.027579205
240	0xbd3d0dde	-0.046155803
241	0x3d427d7f	0.047482964
242	0x3dfcb832	0.1233982
243	0x3dca7233	0.09885063
244	0x3d6e0884	0.05811359
245	0x3dd6a3e5	0.10480479
246	0xbc206284	-0.009789113
247	0xbd562331	-0.052279655
248	0x3ce21ce7	0.027601672
249	0xbd620d1d	-0.055188287
250	0xbd3662ea	-0.044527926
251	0x3d0ae143	0.033906233
252	0x3d669e36	0.056303225
253	0x3dee1d2e	0.11626659
254	0x3d6e388d	0.0581594
255	0x3d544903	0.051827442

gru1.weight_hh_l0 f4 [192, 64]
0	0x3e0602f9	0.13087071
1	0xbe5c9f9b	-0.2154526
2	0xbb5fad1f	-0.0034130288
3	0x3dcafc8d	0.099114515
4	0xbc8d4be0	-0.017248094
5	0x3de2f19f	0.11081242
6	0xbde4c97a	-0.11171241
7	0xbdd83e2f	-0.105587356
8	0xbdc119d1	-0.09428752
9	0x3df90882	0.12159826
10	0x3c4cee3c	0.012507971
11	0xbe57c1d4	-0.21070033
12	0xbe018f34	-0.12652284
13	0x3e21a5ab	0.15785854
14	0xbe981cf9	-0.29709604
15	0x3e75d743	0.24007897
16	0x3e3534d2	0.1769593
17	0xbdf99472	-0.12186517
18	0x3e2b2c0f	0.16716026
19	0x3e1bb8e8	0.15207255
20	0x3de7a001	0.11309815
21	0x3e379c4a	0.17930713
22	0x3dc49099	0.09597892
23	0xbcae7343	-0.021295195
24	0x3e3047fd	0.17214961
25	0xbe531f1c	-0.20617336
26	0x3d2f2538	0.042760104
27	0x3d44ff14	0.048094824
28	0xbe97ec2e	-0.29672378
29	0xbd47563d	-0.048666228
30	0x3e314280	0.17310524
31	0xbd38ad2b	-0.04508702
32	0x3e36dbb7	0.17857252
33	0xbe4db909	-0.20090117
34	0x3bb60429	0.005554695
35	0xbe76c5a1	-0.24098827
36	0xbe2ed047	-0.17071639
37	0xbe427179	-0.18988599
38	0xbd2d1c93	-0.04226358
39	0x3eb6ce7d	0.35704413
40	0x3d2e1791	0.042502943
41	0x3df94d21	0.12172914
42	0x3d7b2356	0.061312996
43	0x3de3df3f	0.11126565
44	0xbd88aa08	-0.06673056
45	0xbe03d38a	-0.12873664
46	0xbe3fe50b	-0.18739717
47	0xbe6ae008	-0.22937024
48	0x3e745c91	0.23863436
49	0x3e27ad97	0.16374813
50	0x3e6c855f	0.23097752
51	0xbd80dba9	-0.06291897
52	0x3df3459a	0.1187851
53	0xbdbf2305	-0.09332851
54	0xbc274e8c	-0.010211598
55	0xbe42626b	-0.18982856
56	0x3d3dad48	0.046307832
57	0xbe3eafa4	-0.18621689
58	0xbe7b5bcd	-0.24546738
59	0xbe0b5460	-0.13606405
60	0xbdc7705c	-0.09738228
61	0xbcd1e58b	-0.02562215
62	0x3e2108ab	0.15725963
63	0x3e24725b	0.16059248
64	0xbd83b25e	-0.06430505
65	0xbe452666	-0.19252929
66	0xbd2eec3b	-0.042705756
67	0xbc99f8b1	-0.018795343
68	0xbd908a9b	-0.07057687
69	0x3e2a32f4	0.16621
70	0x3ba8ba7a	0.005149183
71	0xbb104837	-0.00220157
72	0xbe5084a2	-0.20363095
73	0x3cd65c0c	0.026166938
74	0x3dee6490	0.116402745
75	0xbd147e7c	-0.036253437
76	0xbc8688c5	-0.016422639
77	0xbd17a467	-0.03702202
78	0xbe2bda56	-0.16782507
79	0x3e7b875f	0.24563359
80	0x3dbf5462	0.093422666
81	0x3da18bfd	0.07888029
82	0x3e490102	0.1962929
83	0x3e0caf8b	0.1373884
84	0xbda31a88	-0.07964045
85	0xbcef611a	-0.029221106
86	0xbdca9554	-0.09891763
87	0xbd80f5d0	-0.06296885
88	0x3da1ac31	0.07894171
89	0x3d01543a	0.031574465
90	0x3d45106b	0.04811136
91	0xbd90265f	-0.07038569
92	0xbe0e2fd5	-0.13885434
93	0xbd80bea2	-0.0628636
94	0x3dc70fd2	0.09719814
95	0x3dec7d43	0.11547329
96	0x3b1c8f8e	0.0023889276
97	0xbdfdf212	-0.12399687
98	0x3dd4a953	0.103838585
99	0xbdd83898	-0.105576694
100	0x3d808615	0.06275574
101	0xbce2ccdc	-0.027685575
102	0xbd648e5b	-0.055799823
103	0x3cd45550	0.025919586
104	0x3e307ca2	0.17235044
105	0x3c972153	0.018448507
106	0x3dd013cd	0.10160027
107	0x3dd41f92	0.10357584
108	0x3de6cf4d	0.11270008
109	0xbe133767	-0.14376603
110	0xbe8920fa	-0.26782972
111	0xbe447249	-0.19184221
112	0x3ccbf271	0.024895879
113	0x3dfa4c18	0.12221545
114	0x3db61914	0.08891502
115	0xbcdc40ed	-0.026886428
116	0x3c722c92	0.014781134
117	0xbd3ce1a1	-0.046113614
118	0x3d9ee1dd	0.07757924
119	0xbda29338	-0.07938236
120	0xbda105dc	-0.07862446
121	0xbdd9c178	-0.10632604
122	0xbe2fc836	-0.17166218
123	0xbe479d2b	-0.19493549
124	0x3cb1d12b	0.021706184
125	0x3c020b9e	0.00793734
126	0x3db29f6f	0.08721816
127	0x3e3c88ce	0.18411562
128	0xbd9f0ac2	-0.07765724
129	0x3cffd427	0.031229092
130	0xbcbaac0b	-0.022787115
131	0xbd5f9de5	-0.05459394
132	0x3c3389d3	0.010958153
133	0x3de9a956	0.114092514
134	0xbd80120b	-0.062534414
135	0xbd5bf47d	-0.05369996
136	0xbd9e23db	-0.07721683
137	0x3db87cec	0.09008202
138	0x3e41a458	0.18910348
139	0x3dfb2014	0.12261978
140	0x3c174dfb	0.009234901
141	0x3c82f984	0.015988119
142	0x3d43c6c5	0.047796983
143	0xbdb3dead	-0.087827064
144	0x3df2eedb	0.11861964
145	0x3cc4f0f7	0.024040682
146	0xbd2cd57c	-0.042195782
147	0x3dcb42b8	0.09924835
148	0xbd757b24	-0.05993189
149	0x3d3ce36c	0.046115324
150	0x3d89a9a1	0.06721807
151	0x3d65f46f	0.056141313
152	0x3de50fa6	0.11184625
153	0xbd409aee	-0.047022752
154	0x3e0961a0	0.13416147
155	0x3d82286e	0.063553676
156	0xbd8de584	-0.06928542
157	0x3d478f59	0.04872069
158	0x3d11c1f3	0.035585355
159	0xbcfad5cb	-0.030619523
160	0x3d89c52c	0.06727061
161	0x3bc03b88	0.0058664717
162	0xbd20dd59	-0.039273594
163	0xbe098148	-0.13428223
164	0xbd7c92db	-0.06166349
165	0x3ca8e9a8	0.020619228
166	0xbd711799	-0.058860395
167	0x3bb72cd3	0.0055900603
168	0x3c18e849	0.009332725
169	0x3e4406c3	0.19143204
170	0xbd8af8ed	-0.0678576
171	0x3d90fc12	0.070793286
172	0x3c1dc99c	0.009630587
173	0x3b82d0d3	0.003992179
174	0xbe1655b2	-0.14681128
175	0xbd0dfc94	-0.034664705
176	0xbdc061f5	-0.09393684
177	0xbc2a4786	-0.010393029
178	0xbd4b18c1	-0.049584154
179	0x3bf138b7	0.0073614973
180	0x3d86dea5	0.06585435
181	0xbe474ceb	-0.19462936
182	0xbdd3a92b	-0.103350006
183	0xbe28ce02	-0.16484836
184	0xbde8165d	-0.113323905
185	0xbdaf2281	-0.08551503
186	0xbdab4678	-0.0836305
187	0x3d8d7c8a	0.069085196
188	0x3b9b4fc0	0.0047397316
189	0x3ea7cc26	0.3277294
190	0xbc68dd0f	-0.014212861
191	0xbe1546ed	-0.14577837
192	0xbd578540	-0.05261731
193	0xbd4b27da	-0.049598552
194	0xbe466f7d	-0.19378467
195	0xbe2f0805	-0.17092903
196	0xbdffc714	-0.12489143
197	0x3d18221b	0.0371419
198	0xbc233607	-0.009961612
199	0xbcdba553	-0.026812231
200	0xbbf1b167	-0.0073758843
201	0xbdad77c3	-0.08470108
202	0x3d852780	0.06501675
203	0x3e3ab0db	0.18231528
204	0xbd0a5306	-0.033770584
205	0xbda3c9d7	-0.07997482
206	0xbd0de260	-0.034639716
207	0xbe55b6c2	-0.20870498
208	0x3b420c79	0.0029609485
209	0xbdc7f757	-0.09763973
210	0xbd106418	-0.035251707
211	0x3e215485	0.15754898
212	0xbcb581aa	-0.022156555
213	0xbc97bd4e	-0.018522885
214	0xbd977ce9	-0.073968716
215	0xbd4322ae	-0.047640495
216	0x3e3d65bd	0.18495841
217	0x3cd6b018	0.026207015
218	0xbdcbb144	-0.0994592
219	0x3d471b18	0.048609823
220	0xbd7bd835	-0.061485488
221	0xbc07a669	-0.008279421
222	0x3dc6ba66	0.097035214
223	0xbd9bf724	-0.07615498
224	0xbdc36af0	-0.09541881
225	0x3e5fd946	0.21860227
226	0xbd2374e2	-0.03990639
227	0x3d8cc236	0.0687298
228	0xbd573349	-0.052539144
229	0x3e23896c	0.15970391
230	0x3ca6b21d	0.020348603
231	0xbe126d17	-0.14299427
232	0x3e3d3cbb	0.18480198
233	0x3c55d7f9	0.01305198
234	0xbd0b6d7b	-0.034039956
235	0xbdbedf08	-0.093198836
236	0x3cede916	0.029041808
237	0x3d6d65b4	0.05795832
238	0x3c84db3f	0.016217826
239	0x3a3f94c6	0.0007308241
240	0xbe11fc51	-0.14256407
241	0xbd9d9b5a	-0.076956466
242	0x3d7736b3	0.0603549
243	0x3e142a62	0.14469293
244	0xbc3dffbc	-0.011596616
245	0xbdaaede5	-0.08346156
246	0xbe91d89f	-0.2848558
247	0xbe11428f	-0.14185546
248	0xbe22e607	-0.15908061
249	0x3e4e1a6b	0.20127265
250	0xbcd67abb	-0.02618157
251	0x3d36e411	0.044651095
252	0xbc8e218d	-0.017349983
253	0x3e9dd984	0.30830014
254	0x3e2ad5c9	0.16683115
255	0xbd596077	-0.05307051

gru1.bias_ih_l0 f4 [192]
0	0x3dc09c2b	0.09404787
1	0x3d07f370	0.033191144
2	0xba1f6c40	-0.0006081499
3	0x3dc259a6	0.09489755
4	0xbe12eea7	-0.14348851
5	0x3d052e35	0.03251477
6	0x3e0a6d8f	0.13518356
7	0xbc81152f	-0.015757171
8	0xb977a409	-0.00023616863
9	0x3e5384d7	0.20656143
10	0xbcf84790	-0.030307561
11	0xba5a7e29	-0.00083348394
12	0xbe012342	-0.12611106
13	0xbe180d1d	-0.14848752
14	0x3d93710e	0.07199298
15	0x3df78d65	0.12087516
16	0xbd9a3aef	-0.07530772
17	0x3c605c52	0.013693886
18	0x3d9820dc	0.074281424
19	0x3d9910bf	0.07473897
20	0xbc9fb0e4	-0.019493528
21	0x3dd0e116	0.10199182
22	0xbca5a0b3	-0.020218229
23	0x3e1f3f26	0.15551433
24	0x3da8186c	0.08207783
25	0x3e6aad1a	0.22917596
26	0x3b93b37c	0.00450748
27	0x3dc4385f	0.095810644
28	0xbdf73a31	-0.12071646
29	0x3e1c7735	0.15279849
30	0xbdc18e33	-0.094509505
31	0xbd9d9761	-0.07694889
32	0x3c87da49	0.016583579
33	0x3e0c39a6	0.13693866
34	0x3e109b32	0.14121702
35	0xbd55d86e	-0.052208357
36	0x3e33355e	0.17500827
37	0x3e2851a0	0.16437387
38	0x3e054105	0.13013084
39	0x3d6258e0	0.05526054
40	0xbdc15cb9	-0.094415136
41	0xbcfdc857	-0.030979319
42	0xbda40c2e	-0.080101356
43	0x3e2caf2a	0.16863695
44	0x3e1c98bd	0.1529264
45	0x3d26a0e9	0.0406808
46	0xbe2683c8	-0.16261208
47	0x3da804b6	0.082040235
48	0x3d9a4e02	0.0753441
49	0x3e075f12	0.1321986
50	0x3c2cce14	0.01054718
51	0x3dff60ed	0.12469659
52	0xbd66e060	-0.056366324
53	0x3df06f4f	0.117399804
54	0x3e0cbbfc	0.13743585
55	0xbd367c42	-0.044552095
56	0x3e2cbff0	0.16870093
57	0x3d1a883d	0.037727583
58	0x3ddc6869	0.10762102
59	0xbd338da7	-0.043836262
60	0x3ccdf3fb	0.025140753
61	0x3e46c81f	0.19412278
62	0xbd2ffc93	-0.042965483
63	0xbbf541ee	-0.007484666
64	0x3ccf8b61	0.025335016
65	0x3d69a2f5	0.057040174
66	0x3d308e8d	0.043104697
67	0xbd86ca23	-0.06581523
68	0xbd5e1bac	-0.05422561
69	0xbdd6ad73	-0.104823016
70	0xbd153abd	-0.03643297
71	0xbd0699f5	-0.03286167
72	0x3e81811a	0.2529381
73	0xbd9f082c	-0.077652305
74	0x3da5bbde	0.080924734
75	0x3e1d1329	0.1533934
76	0x3dccfea6	0.10009508
77	0x3d563573	0.052297067
78	0x3e1067f8	0.14102161
79	0x3df62c84	0.120202094
80	0x3e3aa087	0.18225299
81	0x3c089574	0.008336414
82	0x3d4dfcf7	0.050290074
83	0x3e3514aa	0.17683664
84	0xbd41928f	-0.04725891
85	0x3d9fad82	0.07796766
86	0xbd625457	-0.055256214
87	0xbe101724	-0.14071327
88	0x3d8cf433	0.06882515
89	0x3c552fcd	0.013011885
90	0xbe0c6573	-0.13710575
91	0x3c985def	0.018599479
92	0xbd4ae162	-0.049531348
93	0x3e8e6eb3	0.27818832
94	0x3ca645d7	0.020296974
95	0x3befd659	0.0073192534
96	0x3dac4b8f	0.08412849
97	0x3d5115d0	0.051046193
98	0x3e01e6ce	0.12685701
99	0x3d22d806	0.039756797
100	0x3d3503c1	0.044193033
101	0xbbce52c9	-0.00629649
102	0x3e362045	0.17785747
103	0x3d6a8f1a	0.05726538
104	0x3e6d0502	0.23146442
105	0x3d991df4	0.07476416
106	0xbb8770bb	-0.0041333116
107	0x3ea4f001	0.32214358
108	0xbd75073c	-0.059821352
109	0x3cf89abe	0.030347224
110	0xbd516980	-0.051126003
111	0x3dc4d693	0.09611239
112	0x3ddb26af	0.10700738
113	0x3e30c7f0	0.1726377
114	0x3de50972	0.11183442
115	0x3e3f58f1	0.18686272
116	0xbd2c5a8d	-0.042078543
117	0x3d05610a	0.032563247
118	0xbd571ee7	-0.052519705
119	0xbd9e5ff9	-0.07733149
120	0xbd00c2d2	-0.031435795
121	0x3de22d09	0.11043746
122	0x3d0fd854	0.035118416
123	0x3e4fe4c6	0.20302114
124	0xbd399550	-0.04530841
125	0x3d85cd08	0.06533247
126	0x3d9cbc9a	0.076531604
127	0xbd78662c	-0.060644314
128	0xbd47cd93	-0.048780035
129	0xbe3039cf	-0.17209552
130	0xbde3fc6a	-0.111321285
131	0xbe0316f4	-0.12801725
132	0xbdfdccab	-0.12392553
133	0x3e32ce0a	0.1746141
134	0xbdf4077c	-0.1191549
135	0x3e1eded2	0.15514687
136	0x3dac7cfc	0.084222764
137	0x3d95bc67	0.073113255
138	0x3e3e052a	0.18556657
139	0xbdb75fec	-0.089538425
140	0xbc682d85	-0.014171009
141	0x3e2fb829	0.17160095
142	0x3cac5f6d	0.021041596
143	0xbc9b091e	-0.018925246
144	0x3d4f6894	0.050636843
145	0xbc409997	-0.011755369
146	0x3d33c5ca	0.0438898
147	0x3d59c1a3	0.053163182
148	0xbe17c81e	-0.14822432
149	0x3d9b0bd2	0.07570614
150	0x3dd3723b	0.10324522
151	0xbe1c6126	-0.15271434
152	0x3e296940	0.16544056
153	0xbdfd841f	-0.12378716
154	0x3e284da1	0.16435863
155	0x3db5bc81	0.08873845
156	0xbe6664ba	-0.22499362
157	0xbce8006e	-0.028320517
158	0x3d9c327c	0.07626817
159	0xbcf1cee7	-0.029517604
160	0x3d980d18	0.074243724
161	0xbbb9430f	-0.005653746
162	0x3e025e44	0.12731272
163	0x3d489caf	0.04897755
164	0xbdac6deb	-0.08419403
165	0xbd63b43e	-0.055591814
166	0x3c4fdb51	0.012686566
167	0xbdd05f87	-0.101744704
168	0x3df5f230	0.12009084
169	0xbcd29d63	-0.025709813
170	0x3e129628	0.14315093
171	0xbd1fe2d4	-0.03903468
172	0xbe0a1577	-0.1348475
173	0xbdc3b52b	-0.095560394
174	0xbe31fe56	-0.17382178
175	0xbd6d721a	-0.057970144
176	0xbde63643	-0.11240818
177	0x3deb8a76	0.11501019
178	0xbcd3dbdd	-0.025861675
179	0x3d9e0993	0.0771667
180	0x3d809760	0.062788725
181	0xbd55b0cd	-0.052170563
182	0xbdebf961	-0.115221746
183	0xbd5d166b	-0.053976458
184	0xbd620259	-0.05517802
185	0xbd943dfe	-0.072383866
186	0x3cc83cec	0.024443112
187	0x3c79c9b9	0.015245848
188	0xbd95ff4c	-0.07324085
189	0x3e2a2b49	0.16618074
190	0x3d6e1872	0.05812878
191	0x3e23f31f	0.16010712

gru1.bias_hh_l0 f4 [192]
0	0xbdec9a83	-0.11552908
1	0xbc57d6b5	-0.013173749
2	0x3d0ec383	0.034854423
3	0x3cea5d98	0.028609082
4	0xbd39ec72	-0.045391507
5	0xbe29b20f	-0.1657183
6	0x3e1b3345	0.15156277
7	0xbc99feee	-0.018798318
8	0x3db8af6f	0.09017836
9	0x3e5b6c00	0.21427917
10	0xbda779e3	-0.08177545
11	0xbd4f25b0	-0.05057305
12	0xbc2aed02	-0.010432484
13	0xbd3451ae	-0.04402321
14	0x3d8d2b91	0.06893075
15	0x3e810420	0.2519846
16	0xbc887ee4	-0.016662069
17	0x3dcd4cee	0.10024439
18	0x3cff09dd	0.031132633
19	0xbde84fe5	-0.11343364
20	0xbdc75565	-0.097330846
21	0x3d88017a	0.06640907
22	0x3e34e931	0.1766708
23	0x3df4ae0f	0.119472615
24	0x3e363a03	0.17795567
25	0xbab5e050	-0.0013876054
26	0xbd84e44c	-0.06488857
27	0xbc9c1ab4	-0.019055702
28	0x3d34b1e3	0.04411496
29	0x3e861378	0.26186728
30	0x3df481a1	0.11938787
31	0x3d8ead9b	0.06966706
32	0x3e0ddec9	0.13854517
33	0x3e458f35	0.1929291
34	0xbd1a40ec	-0.03765957
35	0xbe02b1ea	-0.12763181
36	0x3e033ed0	0.1281693
37	0x3df025f7	0.11725991
38	0x3de45eb2	0.11150874
39	0x3d60c8dc	0.054879054
40	0xbdcfd50a	-0.10148056
41	0x3dbbac53	0.091637276
42	0xbd6bac73	-0.057537507
43	0x3d1cc880	0.03827715
44	0x3d5e0ad3	0.05420954
45	0x3c4011b6	0.011722973
46	0xbd7033f4	-0.058643296
47	0xbda016aa	-0.07816823
48	0x3cbd384a	0.02309813
49	0xbc95f375	-0.018304566
50	0xbdc91cd8	-0.09819955
51	0xbdb88167	-0.090090565
52	0x3e04e9f9	0.12979878
53	0xbd510c17	-0.05103692
54	0xbcbd0155	-0.023071924
55	0x3dc5e0ad	0.09661994
56	0x3ca17045	0.019706855
57	0x3dbab234	0.09116021
58	0x3e29e5d5	0.1659158
59	0xbd1d768c	-0.038443133
60	0x3e2409ad	0.16019316
61	0x3e3f1461	0.18660118
62	0x3da75aa3	0.081715845
63	0x3d6bcd90	0.057569087
64	0x3c39dcd5	0.011344154
65	0xbdae19a6	-0.08500986
66	0x3daa27e2	0.08308388
67	0x3d70ecd3	0.058819603
68	0x3d105629	0.03523842
69	0x3d3e4e94	0.046461657
70	0xbca650a7	-0.02030213
71	0xbc60e1ba	-0.013725692
72	0x3e42fbc2	0.1904135
73	0xbdbf12c7	-0.09329753
74	0xbbca152b	-0.006167074
75	0x3e7b2f11	0.24529673
76	0xbca163d2	-0.019700918
77	0x3d4a9c93	0.049465727
78	0x3e786c6d	0.24260111
79	0x3e2389a5	0.15970476
80	0x3e505e14	0.20348388
81	0xbd4fb252	-0.05070717
82	0x3e65b29c	0.22431415
83	0x3e3b69e2	0.1830211
84	0x3d4b9898	0.04970607
85	0x3e082e86	0.13298997
86	0x3d5b1878	0.053490132
87	0x3c0290fc	0.007969137
88	0xbcce381e	-0.025173243
89	0xbd50cdf0	-0.050977647
90	0xbd84f27f	-0.06491565
91	0xbd7e71da	-0.062120296
92	0xbd363177	-0.044480767
93	0x3d59e57d	0.053197373
94	0x3de401be	0.11133145
95	0xbdd17c0b	-0.102287374
96	0x3df57adc	0.11986324
97	0x3e83dd75	0.25754896
98	0x3d38dfae	0.045135193
99	0x3db8af35	0.09017793
100	0x3dfc4e84	0.12319663
101	0x3d2d7399	0.04234657
102	0x3e7b1ec0	0.24523449
103	0x3c83deff	0.016097544
104	0x3dc6df40	0.0971055
105	0x3db5aca2	0.08870818
106	0xbdcca032	-0.09991492
107	0x3e832b8b	0.25619158
108	0xbe479d84	-0.19493681
109	0xbe0b3260	-0.13593435
110	0xbe2a263d	-0.16616149
111	0x3e404a18	0.18778265
112	0x3d2d44d5	0.04230197
113	0xbcd59af9	-0.026074873
114	0x3e03b157	0.12860619
115	0x3e16950d	0.14705296
116	0x3d5b6410	0.053562224
117	0xbd3f0b9e	-0.04664194
118	0xbd06459a	-0.03278122
119	0x3dd4ee41	0.10397006
120	0x3e567f53	0.20947008
121	0x3e17b5b9	0.14815415
122	0x3dd39046	0.10330252
123	0x3e536a5e	0.20646045
124	0xbe06a9a0	-0.13150644
125	0x3aebe167	0.0017996252
126	0x3c189428	0.009312667
127	0xbdb5cb91	-0.08876718
128	0xbd9d0721	-0.07667375
129	0xbde6d319	-0.112707324
130	0xbde3830f	-0.11108982
131	0xbe017caa	-0.12645212
132	0x3d376348	0.044772416
133	0xbb4f8e07	-0.0031670348
134	0xbe2539ab	-0.1613528
135	0x3e33c0a2	0.17553952
136	0x3dac5f94	0.084166676
137	0x3e285cfd	0.16441722
138	0x3e2a9519	0.16658439
139	0xbd19a726	-0.03751292
140	0xbde968a7	-0.11396914
141	0x3d616759	0.0550302
142	0xbe216556	-0.15761313
143	0x3d53e16d	0.051728655
144	0xbc67002b	-0.014099161
145	0xbe03d9a9	-0.12876
146	0x3e2e3305	0.1701165
147	0x3d7f79d9	0.062372062
148	0xbca8dc73	-0.02061293
149	0x3daa2f69	0.08309824
150	0x3d960d09	0.07326705
151	0xbe1b955d	-0.15193696
152	0x3e212ae1	0.15739013
153	0xbe2ed3e8	-0.17073023
154	0x3d255bfe	0.040370934
155	0x3dcad6a1	0.099042185
156	0xbdf2e207	-0.118595175
157	0xbd3331ec	-0.04374878
158	0x3d777941	0.06041837
159	0xbdcd42a6	-0.10022478
160	0x3d75eac8	0.060038358
161	0xbd25fa30	-0.0405218
162	0x3df2677b	0.118361436
163	0xbda2a14f	-0.079409234
164	0xbe2b95b3	-0.16756324
165	0xbe3bbd38	-0.183339
166	0xbd2710a8	-0.04078737
167	0x3bcccd43	0.006250055
168	0xbd30bec9	-0.043150697
169	0x3df1a0fc	0.117982835
170	0x3d8b08e1	0.06788803
171	0x3dd5b451	0.10434783
172	0xbe0e2eb0	-0.13884997
173	0xbe33cc6e	-0.17558452
174	0xbe2c00d0	-0.16797185
175	0xbd902892	-0.07038988
176	0xbd0119fa	-0.031518914
177	0x3cdbc7ba	0.026828635
178	0xbd1a6acc	-0.037699506
179	0x3e3c8dc8	0.1841346
180	0x3dbbd30b	0.091711126
181	0xbe10b00d	-0.14129658
182	0xbe1f016e	-0.15527889
183	0xbe3f626e	-0.18689892
184	0x38f616aa	0.000117344156
185	0x3ce30a20	0.027714789
186	0x3d50cee2	0.05097855
187	0x3dc0f436	0.094215795
188	0xbe064963	-0.13113932
189	0x3d872833	0.06599464
190	0x3da8baff	0.08238792
191	0xbbd0d0ac	-0.006372532

gru2.weight_ih_l0 f4 [192, 64]
0	0x3e13e4dc	0.14442772
1	0xbe68333d	-0.22675796
2	0xbeb2b9e7	-0.34907457
3	0x3d9defae	0.07711731
4	0xbe714052	-0.23559693
5	0x3e576fe2	0.21038774
6	0xbe673405	-0.22578438
7	0x3d004802	0.031318672
8	0xbe0521c4	-0.13001162
9	0x3e8fb45e	0.28067297
10	0x3e35053b	0.17677777
11	0xbe5fbc2c	-0.21849126
12	0xbe5f486c	-0.2180497
13	0x3df1642f	0.11786687
14	0xbd9d8c4f	-0.07692777
15	0x3e94ea23	0.29084882
16	0x3e0ebede	0.13939998
17	0xbec4babf	-0.38423726
18	0x3e291297	0.16510998
19	0x3d798b61	0.060923938
20	0x3d079bd1	0.033107582
21	0x3e86f8b2	0.26361614
22	0x3e4520a6	0.19250736
23	0xbe9f7b54	-0.3114878
24	0x3ed9a727	0.4251034
25	0xbe48e878	-0.1961993
26	0x3e11dc19	0.14244117
27	0x3ec6ea17	0.3885047
28	0xbdd8f6d2	-0.10593952
29	0xbd6e175f	-0.058127757
30	0x3e91c839	0.2847307
31	0x3c8cbea3	0.017180746
32	0x3e8861d5	0.2663714
33	0xbe43524e	-0.19074365
34	0x3e8cb1ba	0.27479345
35	0xbd86143e	-0.0654683
36	0xbed513f7	-0.41616794
37	0xbe1ed37e	-0.15510365
38	0xbe40367e	-0.18770787
39	0x3ed248b2	0.41071087
40	0x3cd80f84	0.026374586
41	0x3ea0ec12	0.31430107
42	0xbb611502	-0.0034344797
43	0x3e6e4550	0.23268628
44	0xbe723967	-0.2365471
45	0xbe66d4ca	-0.2254211
46	0xbe4a53e9	-0.19758572
47	0xbe8318df	-0.25604913
48	0x3cade746	0.021228444
49	0x3c00f7fe	0.007871626
50	0x3e3c75fd	0.18404384
51	0x3e55a766	0.20864639
52	0x3de66665	0.11249999
53	0xbe87a2ea	-0.2649148
54	0xbe78327f	-0.24238013
55	0xbe9bd83a	-0.30438405
56	0xbe8e6b32	-0.2781616
57	0xbd80cb77	-0.06288808
58	0xbe2bd398	-0.16779935
59	0xbe48835d	-0.19581361
60	0xbe95bcb3	-0.2924553
61	0x3eb90ebf	0.36144063
62	0x3e7180da	0.23584309
63	0x3e9e0d8c	0.3086971
64	0xbe0758bd	-0.13217445
65	0x3d3d7e09	0.046262775
66	0x3d2e5f15	0.042571146
67	0xbde5a870	-0.112137675
68	0xbc887e6b	-0.016661843
69	0xbe09e282	-0.13465312
70	0xbe889816	-0.26678532
71	0x3e15358b	0.14571206
72	0x3e04a968	0.12955248
73	0x3e867de1	0.26267913
74	0x3d826a10	0.06367886
75	0xbc7972ef	-0.015225156
76	0x3cdb4571	0.02676651
77	0x3d9c16d6	0.07621543
78	0x3d2dc76b	0.042426508
79	0xbc482788	-0.012216456
80	0x3c1665ba	0.009179527
81	0x3dff3db9	0.124629445
82	0xbc0c0e25	-0.008548294
83	0xbdcbfa4a	-0.09959848
84	0x3dff9875	0.12480251
85	0x3d59b2ef	0.05314916
86	0x3e17aa31	0.14811017
87	0xbd13e1c5	-0.036103982
88	0x3da1ab41	0.07893992
89	0xbeb77153	-0.35828647
90	0x3d8006c1	0.06251288
91	0x3ba944c9	0.0051656705
92	0xbda29034	-0.07937661
93	0xbb943274	-0.004522616
94	0xbe13238a	-0.14369026
95	0xbda14a53	-0.07875504
96	0x3e24201a	0.16027871
97	0x3cdc5f6c	0.02690097
98	0x3c70ccf6	0.014697304
99	0x3e267b37	0.1625794
100	0xbe0f30f1	-0.13983513
101	0xbe0c1f06	-0.1368371
102	0xbd71d28f	-0.059038695
103	0x3d805a33	0.06267204
104	0xbe666707	-0.2250024
105	0xbd8f3d1f	-0.0699408
106	0x3d8dab1d	0.06917403
107	0xbd0b5072	-0.034012266
108	0xbe4d1882	-0.2002888
109	0xbdd735db	-0.10508319
110	0x3dbe6266	0.09296112
111	0xbdabc342	-0.08386852
112	0x3dc0f29f	0.09421276
113	0x3e01ed82	0.12688258
114	0x3dbf3b8a	0.09337528
115	0xbd848eb3	-0.0647253
116	0x3e1b6fc5	0.15179355
117	0x3dbb7246	0.09152655
118	0xbdb53562	-0.088480726
119	0xbd3ea164	-0.046540633
120	0x3e794e41	0.24346258
121	0xbde0bb0c	-0.10973176
122	0x3c53de13	0.012931365
123	0xbcbfdd78	-0.023421034
124	0x3def0e91	0.116727
125	0x3c92decc	0.017928503
126	0xbc19a120	-0.009376794
127	0x3e09840c	0.13429278
128	0xbe415bf5	-0.18882735
129	0x3f021079	0.50806385
130	0x3cd341c2	0.025788192
131	0xbd7b24a4	-0.06131424
132	0x3e2d6c7c	0.16935915
133	0xbec9b737	-0.39397594
134	0x3df9e006	0.12200932
135	0x3e74f862	0.23922876
136	0x3e17b05b	0.14813368
137	0x3e00d9b6	0.1258305
138	0xbeadc525	-0.33939472
139	0x3e9be6f6	0.30449647
140	0x3ea4ccc7	0.32187483
141	0xbb7ab4f9	-0.003825484
142	0x3ecb8988	0.39753366
143	0xbd8c977a	-0.06864829
144	0xbe722dd2	-0.23650292
145	0x3dbba665	0.091625966
146	0xbe08207f	-0.13293646
147	0xbf0ab7b1	-0.5418654
148	0xbda0f979	-0.07860083
149	0x3de489ee	0.111591205
150	0xbdd95fe1	-0.106139906
151	0x3e72cd30	0.23711085
152	0xbe62142b	-0.22078006
153	0xbd0866cd	-0.033301163
154	0xbea5792d	-0.32319012
155	0xbe95ee18	-0.29283214
156	0x3efd7633	0.4950424
157	0x3e36cf57	0.17852531
158	0xbf121d36	-0.5707582
159	0xbe2ee7da	-0.17080632
160	0xbe6c57d1	-0.23080374
161	0x3da8b919	0.082384296
162	0xbe9c3069	-0.30505684
163	0x3ede4401	0.43411258
164	0x3dc9993a	0.09843679
165	0x3e08fa77	0.13376795
166	0x3e2d21da	0.16907445
167	0xbe96ef97	-0.29479668
168	0xbeb5b724	-0.35491288
169	0xbe900c71	-0.28134492
170	0x3df5ada2	0.119960085
171	0xbcd037ed	-0.025417292
172	0xbdcb632b	-0.09931024
173	0x3e563ebf	0.20922373
174	0x3f16a125	0.5883964
175	0x3e3221ef	0.17395757
176	0xbd08f2d0	-0.03343469
177	0xbc1f62fe	-0.009728191
178	0xbe6cc2a1	-0.2312112
179	0xbe302571	-0.17201783
180	0x3bc46dbf	0.005994528
181	0x3deab17e	0.11459635
182	0x3e2534f9	0.16133489
183	0x3e6a0952	0.22855118
184	0x3e816813	0.25274715
185	0x3e6a30fa	0.22870246
186	0x3e909c03	0.28244027
187	0x3dd3e9eb	0.10347351
188	0xbdbe0b0a	-0.09279449
189	0xbe63dc53	-0.22252016
190	0xbf03bdfd	-0.51461774
191	0xbea1ce61	-0.31602767
192	0xbdc42343	-0.09577038
193	0x3e314c07	0.17314158
194	0x3e17db8b	0.14829843
195	0xbe33a362	-0.17542794
196	0x3dfd8a15	0.12379853
197	0xbe4f1689	-0.2022344
198	0xbb62e8a8	-0.0034623537
199	0x3e8f9cd2	0.28049332
200	0x3e024da1	0.12724926
201	0xbe408bff	-0.18803404
202	0xbde2b0e6	-0.11068897
203	0x3d92e7a5	0.07173089
204	0x3ea14586	0.31498355
205	0x3e0321f0	0.12805915
206	0x3e12d652	0.14339569
207	0x3d1d8b45	0.038462896
208	0xbe26455f	-0.162374
209	0x3d10a71f	0.03531563
210	0xbe1ecbdd	-0.15507455
211	0xbe566a8b	-0.2093908
212	0xbe56d093	-0.20978002
213	0x3e479105	0.19488914
214	0xbe0622eb	-0.13099258
215	0x3e1e676c	0.1546914
216	0xbe1ae2fb	-0.15125649
217	0xbd9490b9	-0.07254166
218	0xbc0cdcbc	-0.008597549
219	0xbe3c8e10	-0.18413568
220	0x3e257892	0.16159275
221	0x3e6c4dad	0.23076506
222	0xbe185da8	-0.14879477
223	0xbdf3c90b	-0.1190358
224	0xbe2e5be7	-0.17027245
225	0x3e76086a	0.24026647
226	0xbe6a2b49	-0.22868074
227	0x3e7d3d16	0.24730334
228	0xbbb4136d	-0.00549548
229	0x3e21048d	0.15724392
230	0x3eaba8f4	0.33527339
231	0x3b3c88f2	0.002876815
232	0xbe8c5cd3	-0.2741457
233	0xbe032679	-0.12807645
234	0x3e12f699	0.14351882
235	0xbe09c54b	-0.13454168
236	0xbd54a6c9	-0.05191687
237	0x3e4b90b1	0.19879414
238	0x3dddda34	0.108326346
239	0x3e2f2ac8	0.17106164
240	0xbcb43286	-0.021996748
241	0x3db63f69	0.08898813
242	0xbe1778d3	-0.14792185
243	0xbd83cb51	-0.06435264
244	0x3e26469f	0.16237877
245	0x3e8aa76f	0.27080867
246	0x3e713314	0.23554641
247	0x3e3fe9a7	0.18741475
248	0x3e32d2a9	0.17463173
249	0x3c179cbb	0.009253676
250	0x3e8527e6	0.26007003
251	0x3ea5e3bc	0.3240031
252	0x3d02c540	0.031926394
253	0xbe42f289	-0.19037832
254	0xbe2dc7f1	-0.16970803
255	0xbe253de1	-0.16136886

gru2.weight_hh_l0 f4 [192, 64]
0	0x3f04a765	0.51817924
1	0xbd4ddaa1	-0.05025733
2	0x3e06607f	0.13122748
3	0x3d08b5ef	0.03337663
4	0xbdb4381c	-0.087997645
5	0x3c1ca604	0.009561066
6	0x3c7dc7db	0.015489544
7	0x3d8e74be	0.069558606
8	0xbe4339ee	-0.19065067
9	0xbe7567cb	-0.23965375
10	0xbd88b2eb	-0.06674751
11	0xbd8052de	-0.06265806
12	0xbd28eefb	-0.041243535
13	0x3c3613fc	0.011113163
14	0x3dc7a66e	0.09748541
15	0xbc791fa3	-0.015205297
16	0xbab59e63	-0.0013856407
17	0x3dfa413b	0.12219473
18	0x3d739716	0.05947026
19	0x3e317c40	0.17332554
20	0x3e1a0b7c	0.15043443
21	0xbd59851d	-0.053105462
22	0xbd362ec0	-0.044478178
23	0x3bd34ef9	0.0064486233
24	0x3e27ecdb	0.16398947
25	0x3e4c4f17	0.19952045
26	0x3c645569	0.013936379
27	0xbd8445a3	-0.06458595
28	0xbe532713	-0.20620374
29	0x3e1b74fa	0.15181342
30	0x3e156f27	0.14593183
31	0xbdfec05a	-0.12439032
32	0xbe1018ad	-0.14071913
33	0xbc6c5580	-0.014424682
34	0x3e12d981	0.14340784
35	0x3d641d6c	0.05569212
36	0xbe1aae60	-0.15105581
37	0xbd51ebdd	-0.051250327
38	0xbe080833	-0.13284378
39	0xbe12f7dd	-0.14352365
40	0x3ceb44b9	0.028719293
41	0x3dd54607	0.10413747
42	0xbe36d160	-0.17853308
43	0x3e1b8d4b	0.15190618
44	0x3e459d32	0.19298247
45	0xbe208cb9	-0.15678681
46	0xbdc02862	-0.093827024
47	0x3db8e100	0.0902729
48	0x3c4f06e9	0.012635925
49	0x3ba5ba3b	0.005057601
50	0xbdea69e9	-0.11445982
51	0xbda2cba7	-0.07949
52	0x3d573434	0.05254002
53	0x3da5c039	0.08093304
54	0x3dd58759	0.10426206
55	0x3da3cef9	0.07998461
56	0x3dbaf508	0.09128767
57	0x3d311217	0.043230142
58	0xbd39c1b7	-0.045350756
59	0xbd9af8a2	-0.07566954
60	0xbdc4508c	-0.095856756
61	0x3d4f2b61	0.05057848
62	0xbd8c9ceb	-0.06865867
63	0x3c87ba5e	0.016568359
64	0x3d859280	0.06522083
65	0x3e5248f4	0.20535642
66	0x3df4ef44	0.11959699
67	0x3e799cc1	0.24376203
68	0xbd40b792	-0.047050066
69	0x3d4ae513	0.04953487
70	0xbd6f5828	-0.05843368
71	0xbe2ede77	-0.17077051
72	0x3e17e5f7	0.14833818
73	0x3c032134	0.008003522
74	0xbd3bdf9e	-0.045867555
75	0x3d4c510d	0.049881984
76	0x3e557748	0.20846283
77	0xbe9af1e6	-0.3026268
78	0x3d290b3f	0.04127049
79	0xbe6d23ac	-0.23158139
80	0x3df0da96	0.11760442
81	0xbe35bbe1	-0.17747451
82	0xbe975c59	-0.29562643
83	0xbd191a9e	-0.0373789
84	0x3e302b26	0.1720396
85	0x3e649184	0.22321135
86	0xbdca1a92	-0.09868349
87	0x3b0a63d6	0.0021116636
88	0x3ce75cd8	0.028242514
89	0x3c97bf32	0.018523786
90	0xbca7deb6	-0.020491939
91	0xbca915b1	-0.020640226
92	0xbdc2fa95	-0.09520451
93	0xbde61c4f	-0.11235868
94	0x3cfa6ef0	0.030570477
95	0xbd6be3f9	-0.05759046
96	0xbdf08668	-0.11744386
97	0x3bc2a665	0.005940246
98	0xbe219ac0	-0.15781689
99	0x3d97ba9c	0.0740864
100	0x3d0d0bd6	0.034435116
101	0x3d5becbb	0.05369256
102	0xbe5135c0	-0.2043066
103	0xbda67096	-0.08126943
104	0xbe8c1eba	-0.27367193
105	0xbe19f016	-0.15032992
106	0xbd5cdd86	-0.0539222
107	0xbdf07344	-0.11740735
108	0x3d113a44	0.035455957
109	0xbcc1facd	-0.023679161
110	0xbd5764e8	-0.052586466
111	0x3e4872a7	0.19574986
112	0x3dd2966f	0.10282599
113	0x3d979630	0.07401693
114	0x3dd19859	0.10234136
115	0xbd921cfe	-0.07134436
116	0x39dd78f5	0.00042242525
117	0x3e26d6e6	0.16292915
118	0x3e82ac7e	0.25522226
119	0x3dad5ea3	0.08465316
120	0x3c0b54d6	0.008504113
121	0x3da75c89	0.081719466
122	0xbdb52876	-0.08845608
123	0xbe032fea	-0.12811247
124	0x3e56fcfd	0.20994945
125	0xbe3a7ac8	-0.182109
126	0x3e97f25c	0.29677093
127	0xbcce708b	-0.025200149
128	0xbe34fcbd	-0.17674537
129	0x3deee433	0.11664619
130	0xbe698232	-0.22803572
131	0x3bd3b69c	0.0064609777
132	0xbe6014dc	-0.21882957
133	0x3d133cec	0.03594677
134	0x3cf47859	0.029842542
135	0x3c59fc93	0.013304847
136	0x3e0a26bd	0.1349134
137	0xbdda0102	-0.106447235
138	0x3d46f622	0.048574574
139	0xbc922fd5	-0.017845074
140	0x3e82247e	0.25418466
141	0x3cc41aec	0.023938619
142	0xbdf8c879	-0.12147612
143	0xbd43d62e	-0.04781168
144	0xbcebfbe3	-0.028806632
145	0xbe03c0ac	-0.12866467
146	0xbce8e0dd	-0.028427536
147	0x3d708046	0.05871608
148	0xbe1c50af	-0.15265153
149	0x3bcc3ae8	0.006232608
150	0x3e836b3e	0.25667757
151	0x3e09be79	0.13451566
152	0xbcfba5ab	-0.030718645
153	0x3d9fc8b8	0.07801956
154	0xbddf6418	-0.10907763
155	0x3e8b92bf	0.27260396
156	0x3e92f79b	0.28704533
157	0xbecfe333	-0.40603027
158	0xbb8b4a83	-0.004250826
159	0x3f08d36c	0.53447604
160	0x3d428ba6	0.04749646
161	0x3e1e9f55	0.15490468
162	0xbe79ac0a	-0.24382034
163	0xbe869742	-0.26287276
164	0xbea8d480	-0.32974625
165	0xbdaebc46	-0.08532004
166	0xbe3351b2	-0.17511633
167	0xbd5c4995	-0.05378111
168	0xbe0e7acd	-0.13914032
169	0xbe56d25b	-0.20978682
170	0x3e5044a3	0.20338683
171	0xbe319f8c	-0.17346019
172	0xbe990791	-0.29888585
173	0xbe330e19	-0.17485847
174	0x3db09b4a	0.08623369
175	0x3e772d4a	0.2413837
176	0xbdbee6b1	-0.09321345
177	0xbd04d70b	-0.032431643
178	0x3cdd5227	0.027016712
179	0xbd47a918	-0.048745245
180	0x3cb7ac78	0.022421107
181	0xbd769d3a	-0.060208537
182	0x3c22468f	0.009904518
183	0x3de63ec4	0.1124244
184	0xbd868c59	-0.06569738
185	0x3ea0be22	0.3139506
186	0x3d735fc2	0.059417494
187	0x3e6d75aa	0.23189417
188	0xb8e364cc	-0.000108429784
189	0x3c7419e4	0.014898751
190	0x3eb2aeee	0.34899086
191	0x3d4c1a9c	0.049830064
192	0x3d7ec127	0.062195923
193	0xbbe57e9d	-0.007003619
194	0xbd8d274a	-0.068922594
195	0xbe1ce744	-0.15322596
196	0xbdf527e9	-0.11970503
197	0x3ef66efd	0.48131552
198	0xbd21e7a1	-0.03952754
199	0xbde5d741	-0.11222697
200	0x3c8d436c	0.017244063
201	0x3ddc4ab5	0.10756437
202	0x3e275aa2	0.16343167
203	0xbd83df71	-0.064391024
204	0x3ddc7065	0.10763625
205	0xbd1226bb	-0.035681468
206	0xbe118c31	-0.14213635
207	0x3df3c4f3	0.119027995
208	0x3b9d7f10	0.004806407
209	0xbdbd0653	-0.09229722
210	0x3e24e7ab	0.16104
211	0x3d666a01	0.056253437
212	0x3e8ca435	0.2746903
213	0xbd6fdd14	-0.058560446
214	0xbd2c087c	-0.04200028
215	0x3c704976	0.014665952
216	0x3dfab0c5	0.12240747
217	0xbd7606ca	-0.06006507
218	0x3d633356	0.05546888
219	0xbd4199ad	-0.047265697
220	0xbc740ad2	-0.014895158
221	0xbd4fc1c2	-0.05072189
222	0xbe1f1325	-0.15534647
223	0xbd1bfc7b	-0.03808258
224	0xbd808f59	-0.062773414
225	0x3e3c769f	0.18404625
226	0xbe76b46d	-0.24092264
227	0xbe5d1b09	-0.21592344
228	0x3da8b826	0.082382485
229	0xbd3d6a1c	-0.046243772
230	0xbdb5d9b5	-0.08879415
231	0x3c49325c	0.012280073
232	0xbc9a523f	-0.018838046
233	0xbe0bacfd	-0.13640209
234	0x3e114e17	0.14189945
235	0xbe2867dd	-0.1644587
236	0x3b2b7fef	0.0026168784
237	0x3e1e1930	0.15439296
238	0x3e7ea5c9	0.2486793
239	0x3e0764d2	0.13222054
240	0x3c8343b8	0.016023502
241	0x3db762f0	0.08954418
242	0xbdc122dd	-0.09430478
243	0xbe4b9d58	-0.1988424
244	0xbe340c48	-0.1758281
245	0xbcd3a6d5	-0.025836388
246	0x3d2d2d0c	0.04227929
247	0xbe3182d3	-0.17335062
248	0x3d8ea380	0.06964779
249	0x3dd9d2dc	0.10635921
250	0xbd32ca62	-0.04365004
251	0xbd46a6ed	-0.048499037
252	0x3e8192df	0.25307366
253	0xbd6ed61b	-0.058309656
254	0x3bc05df0	0.005870573
255	0xbd640cd9	-0.055676315

gru2.bias_ih_l0 f4 [192]
0	0xbe1ceda5	-0.15325029
1	0x3e779e42	0.24181464
2	0x3e0c7216	0.13715395
3	0x3ec02fea	0.37536556
4	0x3e4216d8	0.18954027
5	0x3c38b74e	0.011274172
6	0x3e1c0acc	0.15238494
7	0x3dc23aef	0.09483897
8	0x3ce9bb9d	0.028531844
9	0x3e43c5b9	0.19118394
10	0xbdcf9229	-0.101353
11	0x3daa1bac	0.08306059
12	0x3b8d5c7e	0.0043140044
13	0x3d5668dc	0.052346095
14	0x3e837a18	0.25679088
15	0x3e91e575	0.28495374
16	0x3d2526f6	0.04032036
17	0x3eae684b	0.34063944
18	0x3e91f909	0.2851031
19	0xbdc25b0c	-0.09490022
20	0x3db34897	0.0875408
21	0x3d4161b7	0.04721233
22	0x3e24af85	0.1608258
23	0x3d62f969	0.055413637
24	0x3e096eec	0.1342122
25	0x3e1abef2	0.15111902
26	0x3e3b2035	0.18274005
27	0x3e198106	0.14990625
28	0x3b4137c1	0.0029482695
29	0x3e88be74	0.26707804
30	0x3e973c59	0.2953823
31	0x3e097190	0.13422227
32	0x3da664ea	0.081247166
33	0x3e73557a	0.23763075
34	0x3e5d53f3	0.21614055
35	0x3bd6d856	0.006556551
36	0x3e0cd5f1	0.13753487
37	0x3ebc800e	0.36816448
38	0x3e226997	0.15860592
39	0x3eacbdb1	0.33738473
40	0x3e6a454e	0.22878
41	0xbc09592c	-0.008383077
42	0x3e998cd8	0.29990268
43	0x3d7f53f3	0.06233592
44	0xbd263978	-0.04058215
45	0x3e64e726	0.22353801
46	0xbe1a4f82	-0.15069392
47	0x3d5c3c45	0.053768415
48	0x3e13b41c	0.14424175
49	0x3e1498c9	0.14511408
50	0x3dfdf93d	0.12401054
51	0x3e821f34	0.2541443
52	0x3e435d79	0.19078626
53	0x3da46b0c	0.0802823
54	0x3d8216cf	0.06352007
55	0x3d51ccb2	0.051220603
56	0x3e56cfdc	0.2097773
57	0x3dfccc60	0.12343669
58	0x3de88bf7	0.11354821
59	0x3e3bce3d	0.18340392
60	0x3e91b8a0	0.2846117
61	0x3c470d42	0.012149157
62	0x3e3e9d42	0.18614677
63	0x3d7573cb	0.059924882
64	0x3d694e53	0.05695946
65	0xbd74a83b	-0.05973075
66	0xbda22078	-0.07916349
67	0xbd0ab99c	-0.033868417
68	0x3e1d2809	0.15347303
69	0x3beebe46	0.007285866
70	0xbd2079cb	-0.03917865
71	0xbd86dc0e	-0.06584941
72	0x3e0cee10	0.13762689
73	0xbd0581e2	-0.03259457
74	0xbbf843bc	-0.007576434
75	0xbcfdd8e9	-0.03098722
76	0xbeb81f78	-0.3596151
77	0x3df5efe3	0.120086454
78	0xbdfcad05	-0.12337688
79	0xbe442c01	-0.19157411
80	0x3e017d5f	0.12645482
81	0xbdf70be5	-0.120628156
82	0xbdc77765	-0.097395696
83	0x3e6fc362	0.23414376
84	0xbe02a62c	-0.12758702
85	0xbd8bbc7d	-0.06823061
86	0xbd49f10d	-0.04930215
87	0x3a194440	0.0005846657
88	0xbdeeb0ce	-0.116548166
89	0xbe509f51	-0.20373274
90	0xbdd8230f	-0.10553562
91	0x3e2e3c1e	0.1701512
92	0x3df89411	0.121376164
93	0x3d77c42c	0.06048982
94	0xbd7f98d7	-0.06240162
95	0x3cb3ca9e	0.021947201
96	0xbd3197dd	-0.04335772
97	0xbd23eb18	-0.040019125
98	0xbdf36481	-0.11884404
99	0xbe345089	-0.17608847
100	0x3d28e775	0.04123636
101	0x3d89963e	0.067181095
102	0x3e06623b	0.1312341
103	0xbe16ea6c	-0.14737862
104	0xbe2f2f6f	-0.17107938
105	0x3db27104	0.08712962
106	0xbca834e3	-0.02053303
107	0x3d8e06a0	0.06934857
108	0xbda8ef28	-0.082487404
109	0x3ce345cf	0.027743248
110	0x3e0831f6	0.13300309
111	0x3dac6ddf	0.08419394
112	0x3e2822ca	0.16419521
113	0xbd41bfde	-0.04730212
114	0x3e2eaf5f	0.17059086
115	0xbde78c10	-0.11306012
116	0x3b93da81	0.0045121317
117	0x3d8e1e61	0.06939388
118	0xbd5efc09	-0.05443958
119	0xbd717d64	-0.058957472
120	0xbdc12329	-0.094305344
121	0xbd17407e	-0.03692674
122	0x3cfc6996	0.030812066
123	0x3d5986e4	0.053107157
124	0xbd18ee5b	-0.03733669
125	0xbd8b3b5b	-0.067984305
126	0xbe0faf47	-0.14031707
127	0xbdd6f2d4	-0.104955345
128	0x3db0e9ac	0.086383194
129	0x3e72f20c	0.23725146
130	0x3d656028	0.055999905
131	0x3dafa9f0	0.08577335
132	0xbe420952	-0.18948868
133	0x3da5d704	0.080976516
134	0xbdce31bf	-0.10068082
135	0xbdd56c6a	-0.10421069
136	0x3c902930	0.017597765
137	0xbda8f3a6	-0.08249597
138	0x3d821586	0.063517615
139	0xbdac7c2b	-0.08422121
140	0x3e33269b	0.17495196
141	0x3ca2c637	0.019869907
142	0xbe0f3059	-0.13983287
143	0xbde410f4	-0.11136046
144	0x3e0cb112	0.13739422
145	0xbe2ded3e	-0.16985032
146	0xbc10f5db	-0.008847679
147	0x3e16a37d	0.14710803
148	0x3e3a05e3	0.18166308
149	0x3c6a1b23	0.014288696
150	0xbc93cd22	-0.01804215
151	0xbdb63f30	-0.08898771
152	0x3e621af3	0.22080593
153	0x3e4cec55	0.20012029
154	0x3d8b0726	0.06788473
155	0xbdd5317b	-0.10409828
156	0x3e475181	0.19464685
157	0xbd639b63	-0.05556811
158	0xbcc12d98	-0.023581311
159	0x3e3862d5	0.18006451
160	0xbe1e2370	-0.15443206
161	0x3d047bd2	0.032344647
162	0xbd4e0fd6	-0.05030807
163	0xbd8758fd	-0.0660877
164	0x3e6446e5	0.22292669
165	0x3c7d69d8	0.01546713
166	0xbde424dc	-0.11139843
167	0xbe0304d1	-0.12794806
168	0xbdacfaab	-0.084462486
169	0xbe0d6fd5	-0.13812192
170	0x3d6ec5bc	0.058294043
171	0xbe08cdc2	-0.1335974
172	0xbbdf1f43	-0.0068091466
173	0xbd851b08	-0.064992964
174	0xbe3e505e	-0.18585345
175	0xbcc69937	-0.02424298
176	0xbbf925c5	-0.0076033794
177	0x3d832e16	0.064052746
178	0x3d1b5d22	0.037930615
179	0xbe111dfc	-0.14171594
180	0xbdcaf270	-0.099095225
181	0x3dae70fb	0.08517643
182	0x3e0fa5d4	0.14028102
183	0x3d328ab8	0.043589324
184	0x3e3bdda2	0.18346265
185	0x3e305288	0.17218983
186	0x3bf66796	0.0075196726
187	0xbdf81b5b	-0.12114593
188	0x3e820246	0.2539236
189	0x3d1dcb92	0.038524218
190	0x3e135dc7	0.14391242
191	0x3dafe6c5	0.08588938

gru2.bias_hh_l0 f4 [192]
0	0xbdc103a1	-0.0942452
1	0x3e997f1d	0.29979792
2	0x3e0b3409	0.13594069
3	0x3e9a86dd	0.30181018
4	0x3e9565de	0.2917928
5	0x3ccaf14c	0.024773262
6	0x3e7fbb49	0.24973787
7	0x3e4c6532	0.19960478
8	0x3cb4942c	0.02204331
9	0x3ea5131b	0.3224114
10	0xbbd570f4	-0.006513709
11	0x3e02d55c	0.12776703
12	0xbcad95dd	-0.021189624
13	0x3e528563	0.20558695
14	0x3d96e9c2	0.073688045
15	0x3e6b8f94	0.2300399
16	0x3d8ba468	0.068184674
17	0x3e9e29cf	0.30891272
18	0x3e2f5b44	0.17124659
19	0xbe58b350	-0.21162152
20	0x3ddd33db	0.10800906
21	0x3e1eb925	0.15500315
22	0x3d1ca250	0.03824073
23	0x3e16a41c	0.1471104
24	0x3e2c4fb7	0.16827284
25	0x3e16c6f1	0.14724328
26	0x3df496fd	0.11942861
27	0x3e98e96d	0.2986559
28	0x3e00486d	0.12527628
29	0x3e4a4cfe	0.19755933
30	0x3e729fad	0.23693724
31	0x3cc3e070	0.023910731
32	0x3d04ccb2	0.032421775
33	0x3e86e66c	0.26347673
34	0x3ceb5b1d	0.02872997
35	0x3e3217cf	0.17391895
36	0x3e35e384	0.17762572
37	0x3eac7992	0.336865
38	0x3e4c7fae	0.19970581
39	0x3e74613c	0.23865217
40	0x3dc7e774	0.09760943
41	0xbd0fc5b5	-0.035100657
42	0x3ea891fe	0.32923883
43	0x3e40af7d	0.18816943
44	0xbd954b02	-0.07289697
45	0x3e31881c	0.17337078
46	0xbdc91da1	-0.098201044
47	0x3d9f14cb	0.07767638
48	0x3c8f0dd1	0.017462643
49	0xbd9077aa	-0.07054074
50	0xbd62ce7b	-0.055372696
51	0x3ebfc149	0.37452152
52	0x3d403160	0.046922088
53	0x3d5c77b3	0.05382509
54	0x3c2ad0e9	0.010425785
55	0x3e62ade3	0.22136645
56	0x3c931a8c	0.017956994
57	0x3dfd466b	0.12366947
58	0x3e811784	0.25213253
59	0x3e2b176b	0.16708152
60	0x3e12be60	0.14330435
61	0xbc50e280	-0.012749314
62	0x3e97755e	0.29581732
63	0x3d96ca23	0.07362773
64	0x3d9dbb57	0.07701748
65	0xbe128a99	-0.14310683
66	0xbd765abb	-0.06014512
67	0xbda3ee44	-0.0800443
68	0xbda3c13e	-0.079958424
69	0x3c971d7c	0.018446676
70	0xbdcea014	-0.10089126
71	0xbab5f308	-0.0013881633
72	0x3b655e60	0.003499888
73	0x3cc8a8aa	0.024494488
74	0x3c6d699c	0.014490511
75	0x3de1738f	0.11008369
76	0xbec0eddf	-0.3768148
77	0x3d70332c	0.05864255
78	0x3c609a61	0.013708682
79	0xbdf7acc3	-0.120934986
80	0x3ca6e5b8	0.02037321
81	0xbde797ce	-0.11308251
82	0xbb063805	-0.0020480168
83	0x3e8af5d3	0.27140674
84	0xbe3c09c7	-0.18363105
85	0x3d22bb4f	0.039729413
86	0x3d63d7f7	0.055625882
87	0x3c847603	0.016169554
88	0xbe3a97b8	-0.18221939
89	0xbd0e0e4c	-0.034681603
90	0x3bdbeb3b	0.0067113913
91	0xbbb8faba	-0.0056451233
92	0xbdb96d91	-0.09054101
93	0xbd97fbdc	-0.07421085
94	0xbe2048e9	-0.15652813
95	0x3e168bec	0.14701813
96	0xbd43d679	-0.04781196
97	0x3d7a5386	0.06111481
98	0xbdaf4755	-0.085585274
99	0xbd48258f	-0.048863944
100	0xbcea6035	-0.028610328
101	0xbbe979b2	-0.007125103
102	0xbc4c4057	-0.012466512
103	0xbd972d6d	-0.07381711
104	0xbdf7ea0c	-0.12105188
105	0x3db73d84	0.0894728
106	0x3ce230d0	0.027611166
107	0xbcdeabb7	-0.02718149
108	0xbb4529d8	-0.0030084755
109	0xbd7ab26f	-0.061205324
110	0xbdce1917	-0.10063379
111	0x3d9f3e25	0.07775525
112	0x3db3a7b1	0.08772219
113	0xbd631cf8	-0.05544755
114	0x3dbb6b38	0.0915131
115	0xbb780cd9	-0.0037849455
116	0x3d6e283a	0.05814383
117	0x3e1c98a4	0.15292603
118	0xbd5ef2ee	-0.054430895
119	0x3d5db8c8	0.0541313
120	0xbdcb2ee3	-0.09921052
121	0x3d90e22b	0.07074388
122	0x3debcd8b	0.115138136
123	0x3e12f38a	0.14350715
124	0xbe0fbf3a	-0.14037791
125	0xbe00b201	-0.12567903
126	0xbe02aff3	-0.12762432
127	0x3d17238a	0.036899127
128	0x3c9bc91c	0.019016795
129	0x3e8643af	0.26223513
130	0xbdd86d66	-0.10567741
131	0x3c17a825	0.009256397
132	0xbd610987	-0.054940727
133	0xbb3b606c	-0.0028591407
134	0x3d99b8c7	0.075059466
135	0xbe5400e1	-0.2070346
136	0x3d849739	0.06474156
137	0xbe0a51d0	-0.13507771
138	0xbd7d9950	-0.06191379
139	0x3d90e1c7	0.070743136
140	0xbca83e41	-0.020537497
141	0xbe19a68a	-0.15004936
142	0x3c6d6613	0.014489668
143	0xbde18e10	-0.110134244
144	0x3e43ba6e	0.19114086
145	0xbe5bda90	-0.21470094
146	0xbe598ba1	-0.2124467
147	0xbccce06b	-0.025009355
148	0x3db75d19	0.08953304
149	0x3e070e6a	0.13189092
150	0x3de7823d	0.11304138
151	0xbd9adca7	-0.07561617
152	0x3e092990	0.13394761
153	0x3c99f0cc	0.018791579
154	0x3dd6cd87	0.1048842
155	0x3da5829d	0.08081553
156	0x3c0c4ae4	0.008562777
157	0xbd138308	-0.036013633
158	0xbe487264	-0.19574887
159	0xbd895f75	-0.0670766
160	0xbe0fc943	-0.14041619
161	0x3ddd329b	0.10800668
162	0xbd9ad29e	-0.07559703
163	0x3cd4071d	0.025882298
164	0x3d40ff0b	0.047118228
165	0x3d2aae49	0.041670118
166	0xbcede74f	-0.02904096
167	0x3bf4859a	0.0074622156
168	0xbe1acbf9	-0.15116872
169	0xbc77cb39	-0.015124136
170	0x3d713d71	0.058896486
171	0xbded59cd	-0.11589394
172	0x3d4f2e2a	0.050581135
173	0x3d4a3f20	0.049376607
174	0x3ce539cc	0.027981661
175	0x3e3c005d	0.18359514
176	0xbdd2df5f	-0.10296511
177	0xbcd309a7	-0.025761439
178	0x3d24e63e	0.04025864
179	0xbe886b00	-0.26644135
180	0x3deb7e32	0.11498679
181	0xbdbee8bf	-0.093217365
182	0x3d58408c	0.05279593
183	0x3e603157	0.21893822
184	0x3e836170	0.25660276
185	0x3e3f481c	0.18679851
186	0x3d48387e	0.048882
187	0xbe39351e	-0.18086669
188	0x3e78ed81	0.2430935
189	0xbcc5da7a	-0.02415203
190	0x3e6ad519	0.22932853
191	0x3da4c30c	0.08045015
