checkpoints/li_et_al/no_class_balancing/Salinas_UMAP_15/epoch5_0.95.pth (torch, 277744 bytes, 6 tensors)

conv1.weight f4 [16, 1, 7, 3, 3]
0	0x3cd83576	0.02639268
1	0x3cf7abb0	0.030233234
2	0xba9fe79c	-0.0012199762
3	0xbd80e1b9	-0.06293053
4	0xbd0e3aaa	-0.034723915
5	0xba9eae7b	-0.0012106443
6	0xbd028932	-0.03186912
7	0x3cb6594b	0.022259375
8	0xbd32ccf9	-0.04365251
9	0xbd11c56a	-0.03558866
10	0x3c5096f4	0.0127313025
11	0x3d0979fd	0.033563603
12	0x3be387df	0.0069436873
13	0xbd00e1d9	-0.031465385
14	0xbc553844	-0.013013903
15	0xbd18857f	-0.037236687
16	0xbb240e0c	-0.0025032787
17	0x3d670bb8	0.05640766
18	0x3d41c38f	0.04730564
19	0xbcd804bd	-0.026369447
20	0xbd6aebf1	-0.057353918
21	0xbd85295c	-0.06502029
22	0xbcdf1f20	-0.027236521
23	0x3c176735	0.009240915
24	0xbd563eaa	-0.052305855
25	0xbd5ac94e	-0.053414635
26	0x3d12fbbd	0.035884608
27	0xbd3ffd31	-0.04687232
28	0xbd8105ee	-0.06299959
29	0x3d5163e6	0.05112066
30	0xbd1894d5	-0.037251312
31	0x3d6f1a5f	0.05837476
32	0xbb1b7a10	-0.0023723878
33	0xbd467ad8	-0.048456997
34	0xbd455b3e	-0.04818272
35	0xba1532e4	-0.0005691482
36	0x3d44f960	0.048089385
37	0x3d00cd02	0.03144551
38	0x3c66e33c	0.014092263
39	0x3c0d52b7	0.008625678
40	0x3d531a77	0.05153891
41	0xbc98c171	-0.018646928
42	0xbd2d56f2	-0.042319246
43	0x3d18e626	0.03732886
44	0x3d456362	0.048190482
45	0x3b501c89	0.003175529
46	0xbcdcb085	-0.02693964
47	0xbd200424	-0.03906645
48	0x3d77345e	0.060352676
49	0xbd57fa50	-0.05272895
50	0xbcaf2222	-0.02137858
51	0xbd4dd4fc	-0.050251946
52	0xbc987aab	-0.01861318
53	0x3bba34a8	0.0056825466
54	0xbc222355	-0.009896119
55	0x3d569dd8	0.052396625
56	0xbd3cfc04	-0.04613878
57	0xba7d49a5	-0.0009662158
58	0xbb92004a	-0.004455601
59	0x3d59ea69	0.053202067
60	0xbd396d0d	-0.045270015
61	0xbd0daba8	-0.034587532
62	0xbd2d4b67	-0.042308237
63	0x3d082590	0.033238947
64	0xbda12bf4	-0.078697115
65	0xbdb119cf	-0.08647501
66	0x3c9f720e	0.019463565
67	0x3c83fd2e	0.016111936
68	0x3c453c93	0.012038368
69	0x3cf9c722	0.030490462
70	0x3d6bf498	0.05760631
71	0xbd709c7d	-0.05874299
72	0xbc7d702a	-0.0154686365
73	0xbd5d489a	-0.054024316
74	0xbd1cc020	-0.038269162
75	0x3d0a7380	0.033801556
76	0xbda16499	-0.078805156
77	0xbd9035f7	-0.07041543
78	0x3cb00fc7	0.021491898
79	0xbbbffc15	-0.005858908
80	0xbd6b501f	-0.057449456
81	0x3b924a61	0.004464433
82	0x3d389de5	0.045072455
83	0xbd5567e2	-0.052101023
84	0xbcf6ac7c	-0.030111544
85	0x3d077002	0.033065803
86	0xbd94be6e	-0.07262884
87	0xbd655262	-0.05598677
88	0xbdb5da64	-0.08879545
89	0xbe0df03a	-0.1386117
90	0x3d29b3d3	0.04143126
91	0xbc7e5704	-0.015523676
92	0xbd998748	-0.07496506
93	0x3d7aa183	0.061189186
94	0x3ba68d2c	0.005082747
95	0xbd8f3a90	-0.06993592
96	0x3b1ab1a8	0.0023604427
97	0xbcd92144	-0.02650512
98	0xbdf558bd	-0.11979816
99	0x3e50ba6a	0.20383611
100	0x3dc970d9	0.09835977
101	0x3dea6c72	0.114464656
102	0x3d9e5bb5	0.077323355
103	0x3db6d27f	0.08926868
104	0x3da82090	0.08209336
105	0x3ddea6c7	0.10871654
106	0x3db2c06e	0.08728109
107	0x3c02fcb0	0.007994816
108	0x3e01a815	0.12661774
109	0x3d32a24d	0.043611813
110	0xbcb95eb4	-0.022628166
111	0x3dd3e4f9	0.103464074
112	0x3c48094c	0.012209248
113	0xbd2bf2de	-0.041979663
114	0x3df89974	0.12138644
115	0xbd5d8bdf	-0.05408847
116	0xbc1c42bd	-0.009537396
117	0x3dfb57ef	0.122726314
118	0x3dea9870	0.114548564
119	0x3de60850	0.11232054
120	0x3e05bc01	0.13059999
121	0x3d864a64	0.06557158
122	0x3d9d7be5	0.07689647
123	0x3bc5cec0	0.0060366094
124	0xbd885f20	-0.06658769
125	0x3c21cc86	0.009875422
126	0x3db7966b	0.08964237
127	0x3e01a8de	0.12662074
128	0x3da6a370	0.08136642
129	0x3daf3e31	0.08556784
130	0x3d079dc9	0.03310946
131	0x3d87e576	0.06635563
132	0x3d6b4529	0.057439003
133	0xbc8f9164	-0.017525382
134	0xbcf423ad	-0.029802168
135	0xbe706b86	-0.23478517
136	0xbdc5c1e0	-0.09656119
137	0xbdb4379b	-0.087996684
138	0xbe1c8edf	-0.15288876
139	0xbe07e20f	-0.13269828
140	0xbe3bfb3e	-0.1835756
141	0xbe376748	-0.17910492
142	0xbe5c1acb	-0.21494596
143	0xbe87f857	-0.26556656
144	0x3cd69f5b	0.026199033
145	0x3d2cdd49	0.04220322
146	0x3e04aeb6	0.12957272
147	0x3de743ad	0.11292205
148	0xbb87f9c8	-0.0041496493
149	0x3dd18c84	0.10231879
150	0x3d9f51b7	0.07779258
151	0x3c639c33	0.013892221
152	0x3e12b4c8	0.14326775
153	0xbd5105ef	-0.05103105
154	0x3d8b550e	0.06803332
155	0x3d9c6d65	0.07638053
156	0xbd6361b8	-0.055513114
157	0x3cab2036	0.020889383
158	0x3c9ea9f9	0.019368159
159	0xbd9bf3b4	-0.07614842
160	0xbdae5653	-0.08512559
161	0xbc9fa873	-0.019489503
162	0x3cd1f767	0.025630666
163	0xbd681251	-0.056658093
164	0xbdc6af1e	-0.0970137
165	0x3d36751b	0.044545274
166	0xbd3bd368	-0.04585591
167	0xbd603da7	-0.054746296
168	0x3bb58505	0.005539539
169	0x3b473084	0.0030393908
170	0xbe067733	-0.13131408
171	0x3d7bd24a	0.061479844
172	0xbd727101	-0.0591898
173	0x3c7fd25d	0.015614119
174	0x3dac9543	0.08426907
175	0xba9b7736	-0.0011861089
176	0xbd69eac2	-0.057108648
177	0x3d50a4a2	0.050938256
178	0xbcf7c009	-0.030242937
179	0xbcd53581	-0.02602649
180	0x3e732434	0.23744279
181	0x3e3d40c9	0.18481745
182	0x3e0d291b	0.13785212
183	0x3e69440e	0.22779867
184	0x3e2ace47	0.16680251
185	0x3e16ed76	0.14739022
186	0x3e819d07	0.25315115
187	0x3df4fb32	0.11961974
188	0x3e711d1f	0.23546265
189	0xbb0a270e	-0.0021080407
190	0xbd4a166c	-0.04933779
191	0xbd754d2a	-0.059888043
192	0x3d4a7104	0.049424186
193	0xbb07e796	-0.0020737401
194	0x3bcf4ed7	0.006326537
195	0x3b7ac47e	0.003826409
196	0xbd750e1a	-0.0598279
197	0xbd07866c	-0.03308718
198	0x3d107bed	0.035274435
199	0xbc9ae0ec	-0.01890608
200	0xbcc5a730	-0.024127573
201	0x3d6fc655	0.058538754
202	0xbc5a1939	-0.013311678
203	0x3cbc8fbe	0.02301776
204	0x3cb88b30	0.022527307
205	0xbbed150c	-0.007235175
206	0x3c819f02	0.015822891
207	0xbcb8d4f5	-0.022562483
208	0x3c1d93fc	0.009617802
209	0xbd7d84e1	-0.0618943
210	0xbd00fbb1	-0.03149003
211	0x3d01b054	0.0316623
212	0xbd6c913b	-0.05775569
213	0xbca5835e	-0.020204242
214	0x3c06abb5	0.008219649
215	0xbcb2bbfe	-0.021818157
216	0x3d2c994c	0.042138383
217	0xbcda3e64	-0.026641078
218	0xbd55c81a	-0.052192785
219	0x3d843f83	0.064574264
220	0xbc7ca2dd	-0.015419689
221	0x3b90d9ea	0.0044205086
222	0xbd05ff08	-0.03271392
223	0xbc849d38	-0.016188249
224	0x3d08ce91	0.033400122
225	0x3d6ed513	0.058308672
226	0xbd4220ad	-0.047394443
227	0xbcc7ed32	-0.024405096
228	0x3d0577ad	0.032584835
229	0xbd6196c2	-0.055075414
230	0xbcd3418a	-0.025788087
231	0xbb3e528f	-0.0029040908
232	0xbd05117c	-0.032487378
233	0xbc753a28	-0.014967479
234	0xbc5eb686	-0.013593322
235	0x3d6beab4	0.057596877
236	0xbd708710	-0.058722556
237	0xbb3e10d1	-0.0029001723
238	0x3bc2da67	0.0059464457
239	0xbd762f1f	-0.060103532
240	0xbd5a57c2	-0.05330635
241	0x3d3fa1ef	0.04678529
242	0x3ca9f5c5	0.020747075
243	0xbcc65890	-0.024212152
244	0x3d546f05	0.05186369
245	0x3cfccbd5	0.030858913
246	0xbd57350a	-0.052540816
247	0xbd560194	-0.0522476
248	0x3cba7fd8	0.022766039
249	0xbd536a4a	-0.051615037
250	0xbce8e371	-0.028428765
251	0xbaa318a0	-0.0012443252
252	0x3e5418cd	0.20712586
253	0x3ddfd9e2	0.1093023
254	0x3d2613e7	0.040546324
255	0x3e00855e	0.12550876

conv1.bias f4 [16]
0	0xb8ec2a03	-0.00011261182
1	0x3d2aa709	0.041663203
2	0xbdbf26d3	-0.09333577
3	0xb6f3c9a5	-7.265439e-06
4	0xbbec42d6	-0.007210116
5	0x3d9df1e8	0.077121556
6	0x3dffa77a	0.124831155
7	0xb83eaa5c	-4.545819e-05
8	0x3d72c4d3	0.059269737
9	0xbd2d2795	-0.042274076
10	0xbba0bfb4	-0.0049056653
11	0xbc0af7f9	-0.008481973
12	0xbe17a842	-0.14810279
13	0xbe13c196	-0.14429316
14	0x00000000	0.0
15	0x3c2ee952	0.010675745

conv2.weight f4 [32, 16, 3, 3, 3]
0	0x3cf8bae5	0.030362556
1	0x3c90c0ff	0.017670153
2	0x3c7140f0	0.014724955
3	0xba916a2f	-0.0011094267
4	0x3d705e12	0.058683462
5	0xbce3d0a3	-0.027809447
6	0xbd48633a	-0.048922755
7	0xbd169637	-0.03676435
8	0x3c8e14c2	0.017343882
9	0xbcfe1f26	-0.031020712
10	0xbcc4e3de	-0.024034437
11	0xbd29c8f4	-0.04145141
12	0x3a9df9ab	0.0012052556
13	0x3cb5b70c	0.02218201
14	0xbd37657b	-0.044774514
15	0x3d4e8e64	0.050428763
16	0xbd5aac12	-0.053386755
17	0xbd5fd5e4	-0.05464734
18	0x3d327d1e	0.043576352
19	0x3d518434	0.05115147
20	0xbc9bd6e3	-0.019023364
21	0x3d0d7b12	0.034541197
22	0x3d4f9514	0.05067928
23	0xbc65a4a7	-0.014016307
24	0x3c6b51f8	0.014362805
25	0x3d0af627	0.033926155
26	0xbcc829d5	-0.02443401
27	0xbd2cc69f	-0.042181607
28	0xbd2a9290	-0.04164368
29	0x3d93b6b4	0.07212582
30	0xbd2ffd8b	-0.042966407
31	0xbc93c3f7	-0.01803778
32	0xbd1cc2db	-0.038271766
33	0x3c48f72c	0.012265962
34	0x3b9ca7f3	0.0047807633
35	0xbccc52df	-0.02494186
36	0x3d77db3d	0.060511816
37	0xbccb0c93	-0.02478627
38	0xbd10a886	-0.035316966
39	0x3d72d4e6	0.059285067
40	0x3bb0a2fa	0.005390522
41	0xbd270d3e	-0.040784113
42	0x3cfdcdc0	0.030981898
43	0xbd4863d7	-0.04892334
44	0x3cb62d4c	0.022238396
45	0x3d56dd99	0.052457426
46	0xbcce1af8	-0.025159344
47	0xbd6f70d1	-0.0584572
48	0x3d1b0256	0.037844025
49	0x3c9f4cea	0.019445855
50	0xbc8193b9	-0.01581751
51	0xbc93cf7b	-0.01804327
52	0xbccac341	-0.024751307
53	0x3cbea3ef	0.023271529
54	0x3d8e954f	0.06962072
55	0xbd56bd72	-0.052426763
56	0xbd2f9b5e	-0.04287278
57	0x3d8f4229	0.06995041
58	0x3ca10dd8	0.019659922
59	0xbcec7ca9	-0.028868036
60	0x3d88e448	0.06684166
61	0x3d8c86eb	0.06861671
62	0xbc5d7c24	-0.013518367
63	0x3cd36b62	0.02580804
64	0x3d0d5c04	0.03451158
65	0x3d1e4b46	0.038646005
66	0x3d8405fe	0.064464554
67	0x3d0736a7	0.033011105
68	0x3d8a3b6d	0.06749616
69	0x3d5ecb46	0.054393075
70	0x3c362dcb	0.011119316
71	0x3dc3f124	0.09567478
72	0x3c7a8896	0.015291354
73	0xbc8686af	-0.016421644
74	0xbd9eb299	-0.077489085
75	0xbbc7680d	-0.006085402
76	0xbc2de06a	-0.0106125865
77	0xbb916bf5	-0.0044379183
78	0xbd532dcc	-0.051557347
79	0x3cfeb78c	0.031093381
80	0xbd161c5f	-0.03664815
81	0xbce78570	-0.02826187
82	0xbc24432f	-0.010025783
83	0x3c0e494f	0.00868447
84	0x3d085f44	0.033293977
85	0x3be8f255	0.0071089664
86	0x3ba92718	0.005162131
87	0xbc822c1e	-0.015890177
88	0xbd5361ea	-0.05160705
89	0x3ccd541d	0.025064522
90	0xbc63c8fa	-0.013902897
91	0xbc921168	-0.017830566
92	0xbc4d99d6	-0.012548884
93	0xbb813dc1	-0.003944129
94	0x3d5e842b	0.054325264
95	0xbd3827ee	-0.044959955
96	0x3d3c77e8	0.04601279
97	0x3ced02b1	0.028931947
98	0x3d356063	0.044281375
99	0xbcb66c83	-0.02226854
100	0xba9d9832	-0.0012023507
101	0x3ca9f6cc	0.020747565
102	0x3bfec50e	0.0077749556
103	0xbd38bdd7	-0.04510292
104	0xbc044bf3	-0.008074748
105	0x3ce42f94	0.027854718
106	0x3d1d961e	0.03847324
107	0xbc8e5d8a	-0.017378587
108	0x3cd6a696	0.026202481
109	0x3c23405b	0.009964074
110	0xbccbee82	-0.024894003
111	0x3bf9a5eb	0.007618656
112	0xbd27f643	-0.041006338
113	0xbd303a7e	-0.043024532
114	0xbccbfa17	-0.024899526
115	0x3cd9b54a	0.026575703
116	0x3d4553c9	0.048175607
117	0x3c8e286c	0.017353259
118	0xbc11099b	-0.008852388
119	0x3c09f751	0.008420781
120	0xbd8c8d08	-0.06862837
121	0x3ccc7450	0.024957806
122	0xbd2ad707	-0.041708972
123	0xbd75db3d	-0.060023535
124	0xbc60d204	-0.013721947
125	0xbd59f252	-0.05320961
126	0x3afa535d	0.001909833
127	0x3c0735ef	0.008252605
128	0xbd00bded	-0.031431127
129	0xbc121d25	-0.008918081
130	0xbcb497df	-0.022045074
131	0x3c4945bb	0.012284691
132	0xbcf1ef14	-0.029532947
133	0x3c2ad060	0.010425657
134	0x3b7f6a8e	0.0038973424
135	0x3d941bda	0.07231875
136	0x3c0ca232	0.008583592
137	0xbc984b7a	-0.018590678
138	0xbd598b5c	-0.05311142
139	0x3cab287b	0.020893326
140	0xbc16b774	-0.009199012
141	0x3c34b733	0.011030006
142	0xbd7625d7	-0.06009468
143	0xbd829ff4	-0.06378165
144	0xbc857496	-0.016290944
145	0xbda929dc	-0.08259937
146	0xbcff2924	-0.031147547
147	0xbddd2fa1	-0.108001
148	0xbd801db3	-0.06255665
149	0xbd8d6107	-0.06903272
150	0xbc716321	-0.014733107
151	0xbc85868e	-0.016299512
152	0xbc9dfaa1	-0.019284548
153	0xbdeaca64	-0.11464384
154	0xbd267fd6	-0.040649258
155	0xbdad852f	-0.084726684
156	0xb9bf22c1	-0.00036456253
157	0xbd8d7ad8	-0.06908196
158	0xbda5ca97	-0.080952816
159	0xbd68b03d	-0.0568087
160	0xbd7b7bac	-0.06139724
161	0xbdd4acb3	-0.10384502
162	0xbdc6fad5	-0.09715811
163	0xbc60b3c7	-0.013714737
164	0xbd9b538e	-0.07584296
165	0xbd659100	-0.056046486
166	0x3c599ba2	0.013281735
167	0xbd6a133e	-0.057147257
168	0xbc86d97a	-0.016461123
169	0xbda96f29	-0.08273155
170	0xbcb373e2	-0.021905843
171	0x3da64047	0.08117729
172	0x3da3d327	0.079992585
173	0x3dd7268c	0.10505399
174	0x3d3fab4c	0.04679422
175	0x3de386f9	0.11109728
176	0x3be3ee82	0.0069559226
177	0x3cee2651	0.029071005
178	0x3d812896	0.06306569
179	0x3d3e7d43	0.046506178
180	0xbde985e2	-0.11402489
181	0xbd857ffd	-0.065185525
182	0x3c9b17c5	0.018932233
183	0xbda70bdb	-0.08156558
184	0xbda4e68b	-0.08051785
185	0x3cc8dc79	0.024519192
186	0xbd5b29e1	-0.053506736
187	0xbe06c2bb	-0.13160221
188	0xbd766014	-0.06015022
189	0x3d062efa	0.032759644
190	0x3d50e98c	0.051003978
191	0xbd659975	-0.05605455
192	0xbb3fbd08	-0.0029256959
193	0x3ccd1933	0.02503643
194	0xbcf0b0d3	-0.029381191
195	0x3c96238c	0.018327497
196	0xbd3f96c9	-0.04677466
197	0xbcc1b60a	-0.023646373
198	0xbd6cc5a9	-0.05780569
199	0xbc2e0307	-0.010620839
200	0x3aa7abd3	0.0012792296
201	0x3c9d96cd	0.019236946
202	0x3d6eb01b	0.058273416
203	0x3d0f5cca	0.0350006
204	0xbb9326e9	-0.0044907224
205	0xbc8dc879	-0.017307507
206	0x3c63bf31	0.013900564
207	0xbcfae880	-0.030628443
208	0x3d19f6df	0.03758895
209	0x3d4e6973	0.050393533
210	0x3cdd159f	0.026987849
211	0x3b2c450d	0.0026286275
212	0x3c2941c0	0.010330617
213	0xbc8cc4ea	-0.01718374
214	0x3be70f3e	0.0070513776
215	0x3d1e0193	0.03857572
216	0xbd85bef3	-0.06530561
217	0x3bf2ac32	0.007405781
218	0xbd5abb2c	-0.053401157
219	0xbcbab257	-0.022790117
220	0xbcb000d7	-0.021484775
221	0xbc963e11	-0.018340142
222	0xbb9eae08	-0.0048425235
223	0xbd0370ab	-0.03208987
224	0xbd15a124	-0.03653063
225	0xbcd25749	-0.025676386
226	0x3d942ce2	0.07235123
227	0x3cb5ce5d	0.022193128
228	0x3d29d509	0.04146293
229	0x3ce0e536	0.027453046
230	0x3d4e8172	0.050416417
231	0x3cc5f0c0	0.02416265
232	0x3d3c243b	0.04593299
233	0xbd254edc	-0.04035841
234	0xbdbdaba0	-0.092612505
235	0xbd5d13b9	-0.053973887
236	0xbd4e766b	-0.0504059
237	0xbd54cbb5	-0.051952083
238	0x3cc99acf	0.024609951
239	0x3b9e4c44	0.004830869
240	0xbc873ada	-0.016507555
241	0xbb70d1d9	-0.0036746173
242	0xbdb15b56	-0.08659999
243	0xbc4fa79f	-0.012674241
244	0x3b905cdb	0.0044056005
245	0x3db4ba4d	0.088245966
246	0xbbf1cf66	-0.00737946
247	0x3d958dc4	0.0730243
248	0x3d7cb312	0.061694212
249	0x3d68d5ad	0.056844402
250	0x3d1cdf08	0.038298637
251	0x3be19312	0.006883987
252	0x3c80496b	0.015660008
253	0x3c6b8d4d	0.01437695
254	0xbc878aa9	-0.01654561
255	0xbcf49e8c	-0.029860757

conv2.bias f4 [32]
0	0xbc4b18aa	-0.012396017
1	0x3cb939b9	0.022610532
2	0xbce662e6	-0.02812333
3	0xbd0bf0fa	-0.03416536
4	0xbd9b2296	-0.07574956
5	0x3c9671b1	0.01836476
6	0x3d6bf04b	0.057602208
7	0x3c63de0c	0.013907921
8	0xbbe5edf8	-0.0070168935
9	0x3c84ac46	0.016195428
10	0x3c220979	0.009889954
11	0xbc9fc45e	-0.019502815
12	0xbc8556d2	-0.01627675
13	0x3d4c462e	0.049871616
14	0xbcb2fc33	-0.021848774
15	0x3cc4fe13	0.024046933
16	0xb8c9373e	-9.5947165e-05
17	0xbc716d23	-0.014735493
18	0xbc465bbe	-0.012106834
19	0xbd709cb7	-0.058743205
20	0x3d3b75c6	0.045766614
21	0xbb612d70	-0.0034359358
22	0x3c249be3	0.010046932
23	0x3b22f1f1	0.0024863447
24	0x3c956111	0.018234761
25	0x3cd94ad2	0.026524935
26	0x3c9bc43d	0.019014472
27	0xbb87f24f	-0.0041487585
28	0x3ca8a555	0.020586649
29	0x3cfd5cda	0.030928064
30	0xbced15bf	-0.028941033
31	0xbb6c2377	-0.003603188

fc.weight f4 [17, 3168]
0	0x3cd1a8b8	0.025593147
1	0xbd4bb2a7	-0.049730923
2	0x3b9ce58a	0.0047881054
3	0x3ca20266	0.019776534
4	0x3c03e668	0.008050539
5	0xbd0b1f5b	-0.03396545
6	0xbd0e53dd	-0.034747947
7	0x3c71d954	0.014761288
8	0x3c62f5b4	0.0138525255
9	0x3c5ed3ad	0.013600272
10	0x3b7d3562	0.0038636555
11	0x3c6fff00	0.014648199
12	0xbd065b7e	-0.032802097
13	0xbc3f4e65	-0.011676406
14	0xbd063eed	-0.032774854
15	0xbb9fb1fe	-0.0048735132
16	0xbd21b4a2	-0.039478905
17	0xbd4817cd	-0.048850823
18	0xbd181bce	-0.03713589
19	0x3b935de1	0.004497275
20	0x3c990f15	0.01868395
21	0xbc556cc9	-0.013026425
22	0x3c611e2c	0.013740104
23	0x3c17aa85	0.009256964
24	0x3cc9b4fa	0.02462243
25	0xbcb497bf	-0.022045014
26	0xbd3cd348	-0.04609993
27	0x3c2e5dd3	0.010642487
28	0xbc1c7d87	-0.009551412
29	0xbcd5c545	-0.026095042
30	0x3a056f59	0.00050901395
31	0xbc999ca7	-0.018751455
32	0xbd30166c	-0.042990133
33	0xbcd652eb	-0.026162585
34	0xbcc98dea	-0.024603803
35	0xbd16b8a9	-0.0367972
36	0x3c0b4222	0.008499654
37	0xbca04cb5	-0.019567827
38	0xbd431312	-0.04762561
39	0x3bfe56d4	0.0077618156
40	0x38b612f5	8.681967e-05
41	0xbd1ba9ca	-0.03800372
42	0xbd13b56c	-0.03606169
43	0xbcb92ee1	-0.022605361
44	0xbac6a488	-0.0015155235
45	0x3c991d04	0.018690594
46	0xbc494b7a	-0.012286061
47	0xbd1761bf	-0.036958452
48	0xbc04032a	-0.008057395
49	0xbbc4de10	-0.006007917
50	0x3c48c3b1	0.012253688
51	0x3b8448af	0.004036985
52	0x3c8f0269	0.017457204
53	0xbd28aaad	-0.041178394
54	0xbd06c2ba	-0.03290055
55	0x3c18f705	0.009336238
56	0x3cb05722	0.021525923
57	0xbd35ad7a	-0.044354893
58	0xbaa185b2	-0.001232317
59	0xbca59043	-0.02021039
60	0x3b19be86	0.0023459508
61	0xbcd3d0ea	-0.025856454
62	0xbc47f536	-0.012204459
63	0xbcf74fcd	-0.03018942
64	0x3caf36ea	0.02138849
65	0xbd291165	-0.041276354
66	0x3c8a3acb	0.016873738
67	0xbcbb0274	-0.022828318
68	0xbd0f63d9	-0.03500733
69	0xbb8bd0bc	-0.0042668264
70	0xbba490db	-0.005022151
71	0xbcbdbd12	-0.023161445
72	0xbd31a592	-0.04337079
73	0xbb7794b0	-0.0037777834
74	0xbb9208d3	-0.0044566183
75	0xbd1a68e4	-0.037697688
76	0xbd4a1e66	-0.049345396
77	0xbbaba980	-0.005238712
78	0xbc55934b	-0.013035606
79	0xbc299f78	-0.010352962
80	0x3cc25681	0.023722889
81	0xbd0e0cd8	-0.034680218
82	0xbcbb557e	-0.022867914
83	0x3b56e79c	0.0032791859
84	0xbc5fb1f6	-0.013653269
85	0x3c82310c	0.015892528
86	0xbcb822fa	-0.022477616
87	0x3c5b01d8	0.013367139
88	0xbd45ab8c	-0.048259303
89	0xbba8660a	-0.005139117
90	0xbc72b47e	-0.0148135405
91	0x3befe7f0	0.0073213503
92	0xbd240a49	-0.04004887
93	0x3c72e038	0.014823966
94	0xbcdaf0f1	-0.026726218
95	0xbcef27da	-0.029193807
96	0xbc811969	-0.015759187
97	0xbcce4785	-0.025180588
98	0xbd0bbf84	-0.03411819
99	0x3c1149e6	0.008867716
100	0x3cf47a4b	0.02984347
101	0xbc364b7c	-0.011126395
102	0xbba5743c	-0.0050492566
103	0xbce9b207	-0.028527273
104	0xbcb31de3	-0.021864837
105	0x3a717bd4	0.0009211872
106	0xbc80d096	-0.015724462
107	0x3cb3dfc8	0.021957293
108	0x3be56a67	0.0070012095
109	0xbcc68e4f	-0.02423778
110	0x3b2c54ad	0.0026295588
111	0x3cdfe407	0.027330412
112	0x3cc55fa7	0.024093462
113	0xbd1aee38	-0.03782484
114	0xbcdf3ee0	-0.02725166
115	0xbcad2c96	-0.021139424
116	0xbc87aaa2	-0.016560856
117	0xbc8a799a	-0.016903687
118	0xbae0942c	-0.0017134002
119	0xbbc6df98	-0.006069135
120	0xbc7182f6	-0.014740696
121	0xbd0af9f1	-0.03392977
122	0xbc164016	-0.009170553
123	0xbc8fc106	-0.017548095
124	0xbcfbcc90	-0.030737191
125	0xbc87be04	-0.016570099
126	0xbd05215c	-0.032502517
127	0xbb4fbc0e	-0.0031697783
128	0x3cd6e205	0.026230821
129	0xbba711af	-0.0050985436
130	0xbd310492	-0.04321725
131	0x3c55cca4	0.013049278
132	0x3b9777ee	0.004622451
133	0x3c8f6d8e	0.017508294
134	0x3c99cda2	0.018774811
135	0xbd21adb2	-0.03947229
136	0xbbc05664	-0.0058696736
137	0x3ccc3961	0.024929704
138	0xbce7edd2	-0.028311644
139	0xbca162b9	-0.019700395
140	0x3d058e80	0.0326066
141	0xbb9d53dd	-0.004801257
142	0x3ba7ce8e	0.005121059
143	0x3c3e5277	0.011616341
144	0x3c2c70ce	0.010524942
145	0xbd090d99	-0.033460233
146	0xbd0cdfcd	-0.03439312
147	0x3b0222eb	0.0019857239
148	0x3b687f53	0.0035476282
149	0xbcbba151	-0.02290407
150	0x3cc5a6dd	0.024127418
151	0x3cdb8602	0.026797298
152	0x3b3c5477	0.0028736868
153	0xbca67269	-0.020318227
154	0x3cce4fb5	0.025184492
155	0x3c7dfc7e	0.015502093
156	0x3ca2b751	0.019862803
157	0xbcc0aa52	-0.023518715
158	0x3c95a006	0.018264782
159	0xbbdd1038	-0.006746318
160	0xbc68e161	-0.014213891
161	0xbd1850ca	-0.03718642
162	0xbc7293c2	-0.014805736
163	0xbb9ad881	-0.0047255163
164	0x3cf7e8f3	0.030262446
165	0xbcf2fdea	-0.029662091
166	0xbc293d89	-0.0103296125
167	0x3cce4a6a	0.025181968
168	0xbc816484	-0.015795
169	0x3b9bd33b	0.0047554052
170	0xbc88682b	-0.016651234
171	0x3c48b48d	0.012250078
172	0xbc64b0bb	-0.013958151
173	0xbd121ec9	-0.03567389
174	0x3c75d2b9	0.0150038535
175	0xbc2b89c0	-0.010469854
176	0xb91af9a6	-0.00014779586
177	0xbc7fb52d	-0.0156071605
178	0xbcfb688c	-0.0306895
179	0xbd2707b0	-0.040778816
180	0x3d0d31f1	0.034471456
181	0x3b5c346c	0.0033600582
182	0xbd075383	-0.033038627
183	0xbc8d69ad	-0.017262304
184	0xbcba5f88	-0.022750631
185	0xbc8aea5b	-0.016957453
186	0x3cb11052	0.021614227
187	0x3c3a9340	0.011387646
188	0xbc03bb5c	-0.008040275
189	0x3c8bd73f	0.01707041
190	0xbc0217c1	-0.007940234
191	0x3cde88a4	0.027164765
192	0xbb3f883e	-0.0029225494
193	0xba86b96f	-0.0010278652
194	0x3c2fdfc7	0.010734505
195	0x3cb97213	0.022637403
196	0xbc5b1a5e	-0.013372986
197	0xbd10cbeb	-0.03535072
198	0xbc1722f7	-0.009224645
199	0xbce6e329	-0.02818449
200	0x3c9bda9c	0.01902514
201	0xbd184eb8	-0.037184447
202	0x3cdd7f62	0.02703828
203	0x3c6c2ecc	0.014415454
204	0xbcebfc82	-0.028806929
205	0xbc21dd31	-0.009879396
206	0xbcdc5572	-0.026896212
207	0x3c8fd2a0	0.017556489
208	0xbc14f328	-0.009091176
209	0xbcb526de	-0.02211326
210	0x3c52a906	0.012857681
211	0xbcb12df6	-0.021628361
212	0xbb2d177a	-0.0026411698
213	0x3d114b96	0.035472475
214	0x3c865605	0.01639844
215	0xbcc274fd	-0.023737425
216	0xbc631437	-0.0138598
217	0xbd17be89	-0.037046943
218	0xbcdd2afe	-0.02699804
219	0x3d033aa4	0.032038346
220	0x3d07fb7b	0.033198815
221	0xbd1419a3	-0.03615726
222	0x3c371c1e	0.011176137
223	0xbce92a7f	-0.028462647
224	0xbd1a68ad	-0.037697483
225	0xba2991dc	-0.0006468573
226	0x3cb032c6	0.021508586
227	0x3d1b2ccb	0.037884515
228	0xbce1b56b	-0.027552327
229	0x3c931646	0.017954957
230	0x3bf3defa	0.0074423524
231	0xbbb7fd6f	-0.0056149284
232	0x3b9e4897	0.0048304307
233	0xbcdf9836	-0.02729426
234	0x3d0c5540	0.03426099
235	0xbd029499	-0.031879995
236	0x3cbf670d	0.023364568
237	0x3c1de5b0	0.009637281
238	0x3cec36a4	0.028834648
239	0xbc879db2	-0.016554687
240	0xbadfb71e	-0.0017068123
241	0xbcd14c8b	-0.025549194
242	0xbcfd905e	-0.030952629
243	0x3cba6ceb	0.022757014
244	0x3bd32c68	0.0064445026
245	0xbb84bbc2	-0.004050703
246	0xbd0bb141	-0.03410459
247	0xbc61d085	-0.013782625
248	0x3cc9ad42	0.024618749
249	0xbcaa1ac1	-0.02076471
250	0x3c4f52ea	0.012654046
251	0xbcc4e45b	-0.02403467
252	0x3cd42bfe	0.025899883
253	0xbc29dfb2	-0.0103682745
254	0x3d0f3043	0.034958135
255	0x3cd7c670	0.02633974

fc.bias f4 [17]
0	0xbd456b3a	-0.048197962
1	0xbcaaca6e	-0.02084848
2	0x3bfedbe2	0.007777677
3	0xbbe9584f	-0.007121123
4	0xbce3ef54	-0.027824081
5	0xbc444c06	-0.011981016
6	0x3d0c1684	0.03420116
7	0x3c0702b0	0.008240387
8	0x3e462a1e	0.19352004
9	0x3b108969	0.002205456
10	0xbc2289fc	-0.009920593
11	0xbcee5bc1	-0.029096486
12	0xbd0e659b	-0.034764867
13	0xbd540255	-0.051760036
14	0xbcfa173a	-0.030528653
15	0x3d0d7d0f	0.034543093
16	0xbc0a65c7	-0.008447117
