checkpoints/li_et_al/no_class_balancing/IndianPines_PCA_15/epoch16_0.81.pth (torch, 277754 bytes, 6 tensors)

conv1.weight f4 [16, 1, 7, 3, 3]
0.0002465636 0.03849525 0.037660837 -0.03383627 -0.03648335 0.026727654 -0.04953139 0.024280079
-0.047477487 -0.034510892 0.0053081624 -0.0201817 -0.023692515 -0.040108472 -0.032109655 0.041584827
-0.02515967 -0.04650435 0.022653839 -0.0009889263 0.029903613 -0.049230605 0.040301338 -0.03677657
-0.021293553 0.035333477 0.002671452 0.025359115 0.04765308 0.032170366 0.00614778 -0.019310946
0.03962164 -8.608643e-05 0.041609067 0.011186967 -0.039275408 0.025080102 -0.026044056 -0.03421865
0.0011693763 -0.039291624 0.031896345 0.027561147 -0.039955795 0.038941465 -0.015005457 -0.033167467
-0.025048923 0.044764638 0.020957217 -0.021677254 -0.039295107 0.007936464 0.04940251 -0.009382862
-0.04686352 0.04001408 0.0266085 -0.0343407 -0.045587867 0.022699794 -0.038997214 -0.006031296
0.0060616396 -0.0155352 0.029409759 -0.047248285 -0.040514868 -0.044425685 -0.028094126 0.0012954676
-0.035872582 -0.05732076 -0.0077539324 0.016354376 -0.05216261 0.019563064 0.0075462176 -0.049182586
0.010762723 -0.048705604 -0.059231237 -0.046536632 0.018624773 -0.00255761 -0.043903645 -0.045060527
0.0052598165 -0.032252487 0.02552638 0.04742272 0.04542362 0.0072136694 -0.035905544 0.013286735
0.016460098 0.010425134 0.04201116 -0.002248488 -0.003300309 0.016808841 0.021344697 -0.03164695
-0.020207314 -0.006215635 -0.03031425 0.018937545 -0.04685814 0.01722497 -0.035737492 0.047204033
0.019848894 0.047110867 0.00014431684 0.021737736 -0.025484663 -0.038380112 -0.03316005 0.045396578
-0.046511494 0.019153034 0.026457874 0.025832327 0.0123199485 0.022690194 -0.0058302493 -0.02650689
-0.041218556 -0.06662617 -0.03400705 -0.04327857 -0.08043412 0.005476508 0.013349685 0.06762269
0.062136143 0.052266758 0.08518981 0.08803361 0.061705798 0.04820261 0.07287792 0.10627949
-0.048664164 0.009985063 -0.020304484 0.0023018941 0.0020013715 -0.07694414 -0.031301036 -0.030221561
-0.025522178 -0.08112818 -0.06369446 -0.045163963 -0.096280895 -0.007843848 -0.07953502 -0.08839892
-0.045073807 -0.030949496 -0.1013142 -0.07536785 -0.059706345 -0.086209774 -0.07021695 -0.034285467
-0.036606763 -0.09546706 -0.064456925 -0.04235254 -0.086708546 -0.03752448 -0.024284463 -0.06662795
-0.021153998 -0.014171469 -0.024034819 -0.10004179 -0.04026684 -0.0781877 -0.041134324 -0.035612617
-0.044835478 -0.06357131 -0.046492558 -0.025941042 -0.08507596 0.016500741 -0.045434084 -0.038831815
0.041956253 -0.029851634 0.024593836 0.021046216 0.010142932 -0.030876758 -0.0114765 -0.050507948
0.021363927 -0.001014004 0.00582172 0.0123102255 -0.04264253 -0.00061787816 -0.024257699 0.01478928
-0.04704712 0.02125406 0.04213091 0.00392252 -0.040136863 -0.027564676 0.039194003 0.04162643
-0.02015574 -0.029095948 -0.023904908 -0.029679248 0.050023682 0.046542343 0.016142897 0.048020665
0.016304325 0.022082366 0.007734809 -0.0053743473 -0.0011700984 0.041376796 -0.0057536718 -0.01372864
-0.034354687 -0.04252655 0.025076428 -0.04787266 -0.030191211 -0.003483824 0.045109574 0.0003924795
-0.002899362 -0.03522429 0.009566152 -0.043197904 -0.0054183425 -0.032380518 0.03741346 0.022082612
-0.0045390655 -0.02229395 -0.02202544 0.02281822 -0.0017811019 -0.031303596 -0.037278417 0.04366703
00000000: 3545 8139 32ad 1d3d 4042 1a3d e797 0abd
00000010: 916f 15bd f4f3 da3c 6de1 4abd 04e7 c63c
00000020: c177 42bd 4b5b 0dbd 18f0 ad3b 1854 a5bc
00000030: ce16 c2bc c848 24bd 6a85 03bd da54 2a3d
00000040: a71b cebc 587b 3ebd 8b94 b93c dc9e 81ba
00000050: 6cf8 f43c 08a6 49bd 0413 253d 07a3 16bd
00000060: d16f aebc d6b9 103d 8713 2f3b ebbd cf3c
00000070: e02f 433d 13c5 033d 5173 c93b fd31 9ebc
00000080: 4d4a 223d 4d89 b4b8 456e 2a3d 8a49 373c
00000090: 40df 20bd c974 cd3c 585a d5bc db28 0cbd
000000a0: c245 993a 41f0 20bd bea5 023d eac7 e13c
000000b0: b0a8 23bd 1681 1f3d 73d9 75bc 9cda 07bd
000000c0: 6633 cdbc 205b 373d 78ae ab3c 7f94 b1bc
000000d0: e8f3 20bd f107 023c 495a 4a3d 93ba 19bc
000000e0: f6f3 3fbd cee5 233d 12fa d93c d5a8 0cbd
000000f0: 58ba 3abd ebf4 b93c 8bbb 1fbd 2ea2 c5bb
00000100: b8a0 c63b 5a87 7ebc bcec f03c 6b87 41bd
00000110: ebf2 25bd b5f7 35bd a725 e6bc aecc a93a
00000120: 21ef 12bd 2cc9 6abd b314 febb 9df9 853c
00000130: 76a8 55bd b842 a03c 4346 f73b ae73 49bd
00000140: 2256 303c 877f 47bd 749c 72bd 329d 3ebd
00000150: fb92 983c 939d 27bb 4fd4 33bd 6391 38bd
00000160: 8a5a ac3b 2f1b 04bd b31c d13c 533e 423d
00000170: 1e0e 3a3d a560 ec3b b111 13bd 9bb0 593c
00000180: 54d7 863c 2ece 2a3c e513 2c3d 5e5b 13bb
00000190: ff49 58bb b2b2 893c 13db ae3c 3ba0 01bd
000001a0: cf89 a5bc 87ac cbbb 9755 f8bc e922 9b3c
000001b0: 52ee 3fbd 611b 8d3c 7a61 12bd 0459 413d
000001c0: 269a a23c 53f7 403d c253 1739 5613 b23c
000001d0: 36c5 d0bc 7734 1dbd d5d2 07bd c3f1 393d
000001e0: d682 3ebd d3e6 9c3c 2fbe d83c 519e d33c
000001f0: 9cd9 493c c9e0 b93c ad0b bfbb fa24 d9bc
00000200: cad4 28bd 4d73 88bd fa4a 0bbd df44 31bd
00000210: a5ba a4bd 4774 b33b a3b8 5a3c c47d 8a3d
00000220: 7882 7e3d ab15 563d ff77 ae3d f74a b43d
00000230: 38bf 7c3d 1a70 453d 0541 953d 10a9 d93d
00000240: 1354 47bd 6498 233c 9755 a6bc 60db 163b
00000250: 7129 033b e494 9dbd 8435 00bd 3593 f7bc
00000260: e313 d1bc 8826 a6bd 3e72 82bd d9fd 38bd
00000270: eb2e c5bd 7c83 00bc 42e3 a2bd 7e0a b5bd
00000280: 509f 38bd cc89 fdbc d27d cfbd 765a 9abd
00000290: a48e 74bd c08e b0bd e7cd 8fbd eb6e 0cbd
000002a0: f9f0 15bd 3c84 c3bd fe01 84bd db79 2dbd
000002b0: 4094 b1bd 45b3 19bd 36f0 c6bc 3c74 88bd
000002c0: 264b adbc 732f 68bc abe4 c4bc b6e2 ccbd
000002d0: d8ee 24bd df20 a0bd 777c 28bd 89de 11bd
000002e0: 68a5 37bd ad31 82bd fb6e 3ebd 4f82 d4bc
000002f0: 4e3c aebd 902c 873c 1719 3abd 1c0e 1fbd
00000300: 52da 2b3d 6a8b f4bc 0379 c93c 1d69 ac3c
00000310: 8a2e 263c 41f1 fcbc ee07 3cbc 6ce1 4ebd
00000320: 6703 af3c 54e8 84ba 21c4 be3b d4b0 493c
00000330: efa9 2ebd 1af9 21ba 15b8 c6bc bc4e 723c
00000340: 7bb4 40bd ff1c ae3c 7691 2c3d 7c88 803b
00000350: 8d66 24bd 51cf e1bc e489 203d 7a80 2a3d
00000360: a71d a5bc a05a eebc 3ad4 c3bc e521 f3bc
00000370: a2e5 4c3d 2fa3 3e3d 1c3e 843c 51b1 443d
00000380: a690 853c 14e6 b43c 4874 fd3b 4b1b b0bb
00000390: fd5d 99ba b77a 293d 4c89 bcbb 17ee 60bc
000003a0: 80b7 0cbd 5230 2ebd 156d cd3c 1f16 44bd
000003b0: 8f53 f7bc de50 64bb d1c4 383d b5c5 cd39
000003c0: 3903 3ebb 5847 10bd 59bb 1c3c 49f0 30bd
000003d0: 5a8c b1bb 6fa1 04bd db3e 193d 98e6 b43c
000003e0: 71bc 94bb cda1 b6bc b26e b4bc 47ed ba3c
000003f0: dd73 e9ba 3338 00bd 41b1 18bd 33dc 323d

conv1.bias f4 [16]
0.0 -0.0048018866 -0.1131565 -0.0006932416 0.0 -0.12311137 0.0 0.0
-0.01738002 -0.048432067 -0.012009318 0.0 0.0 -0.04544119 0.10649916 -0.02669222
00000000: 0000 0000 2559 9dbb 98be e7bd a8ba 35ba
00000010: 0000 0000 d021 fcbd 0000 0000 0000 0000
00000020: 8b60 8ebc b460 46bd bbc2 44bc 0000 0000
00000030: 0000 0000 8b20 3abd 3b1c da3d a4a9 dabc

conv2.weight f4 [32, 16, 3, 3, 3]
-0.039809253 0.014219811 -0.022981424 0.0455527 0.03613496 -0.025698448 0.006688625 -0.0077504884
-0.04095478 0.017325556 0.010441817 -0.0406718 0.009400363 0.03587945 0.032016713 0.017064266
0.0036444704 0.024523303 -0.042868514 -0.04302183 0.010124036 0.043235015 -0.019182611 0.032485683
0.024331594 -0.030571511 -0.0038268801 -0.030815067 -0.034206927 0.018847268 0.012407511 -0.02164804
0.021583894 0.045787804 -0.04294924 0.024215458 -0.02980841 0.043835312 -0.030987589 0.034594133
-0.019854613 0.006179913 -0.018689606 -0.04192649 -0.0026413403 0.01757778 0.024515029 -0.0053052492
-0.0046141054 0.017091295 0.0067757485 -0.030704545 -0.02548908 0.0042283433 -0.030740172 -0.019700978
0.01785541 0.006274714 -0.036596283 -0.034793835 -0.043170452 -0.013812873 -0.020730825 0.0095745055
-0.024749799 0.009480508 -0.03876672 -0.013234401 0.032529913 0.035799 -0.00087322004 0.0032494504
0.0037871487 0.026512228 -0.028435854 0.0141769145 -0.035108533 0.024824284 -0.023840591 0.0007006313
-0.012916461 0.0054035587 -0.02098355 -0.0053387354 0.0010558013 -0.01443649 0.043697402 0.044820823
0.0015412642 -0.004638645 -0.0042976183 0.020222457 0.030060025 0.0017732844 0.010880718 0.013412448
-0.030644577 0.02640003 0.026431708 0.030634878 0.028923078 -0.0062657236 -0.038076565 -0.0029495053
0.023541052 -0.003975909 0.002652869 -0.010533661 0.018709503 0.009943697 -0.0456375 -0.012441659
-0.0064939316 -0.02471632 0.04189855 0.042998616 0.04560774 0.007990785 -0.04008965 0.040618796
-0.0022394012 0.03989565 -0.025760112 -0.031245833 0.03635917 0.035926867 -0.04203423 -0.0055448357
0.015651602 -0.01051483 0.025651509 -0.03681764 0.014862496 -0.027904036 0.03963466 -0.16969971
-0.14332518 -0.16213755 -0.12464612 -0.19340225 -0.1854465 -0.10722335 -0.19737808 -0.14706247
-0.17947166 -0.20556514 -0.19907801 -0.16469422 -0.12795661 -0.1437399 -0.1783876 -0.17410345
-0.13991697 -0.15124002 -0.14026773 -0.09431453 -0.083926015 -0.084769875 -0.07858487 -0.075465254
-0.086385116 -0.13092618 -0.042595427 -0.04203096 -0.03303773 -0.004258937 0.005678247 0.0051974687
-0.043607425 0.0012418553 0.014620977 0.043023776 -0.0032094058 -0.0056953384 -0.004283893 0.010662863
-0.01956919 0.007090244 -0.024796903 -0.009911618 0.043250196 -0.033252243 0.044707585 0.021807702
0.033698153 -0.022779068 -0.009655532 -0.007863888 -0.03804167 0.008185531 0.0271006 -0.0011194573
-0.0059643225 0.014945985 -0.027870698 0.037824165 0.014196689 -0.035872526 -0.04405476 0.024672132
0.01803637 0.0438803 0.018550657 -0.0041785883 0.009240412 -0.015727114 -0.036191765 0.026547223
-0.045079276 0.041069325 -0.025704926 -0.0077681895 -0.005795415 -0.011789931 -0.024083262 -0.03230121
0.04078595 0.032998353 0.0051105795 0.033249885 -0.01029147 0.00835763 -0.025482705 -0.014300756
-0.003714749 0.025185972 -0.01521869 -0.0059139887 0.037067994 0.010697646 0.025218008 -0.00438738
0.036204632 0.0077415993 -0.035477728 -0.032845657 -0.045336775 0.022868317 0.0045287195 -0.0065143253
0.025344655 0.015453857 -0.019502902 0.0250594 -0.01462209 0.03422589 -0.012002436 -0.0006822754
-0.042433035 -0.045306657 0.02557332 0.0033077495 0.040818255 0.0086707575 -0.012826387 -0.032971833
00000000: 070f 23bd 36fa 683c 8a43 bcbc 7895 3a3d
00000010: 4002 143d 8d85 d2bc 412c db3b cff7 fdbb
00000020: 33c0 27bd 53ee 8d3c 2814 2b3c 7997 26bd
00000030: fb03 1a3c 55f6 123d f523 033d 5cca 8b3c
00000040: 11d8 6e3b 18e5 c83c e596 2fbd a937 30bd
00000050: 49df 253c 3317 313d da24 9dbc b50f 053d
00000060: 0d53 c73c 1b71 fabc 65cc 7abb e16f fcbc
00000070: 901c 0cbd 9665 9a3c df48 4b3c 3b57 b1bc
00000080: b5d0 b03c fe8b 3b3d 8beb 2fbd 7f5f c63c
00000090: c430 f4bc a88c 333d afd9 fdbc 94b2 0d3d
000000a0: 24a6 a2bc de80 ca3b f21a 99bc 1cbb 2bbd
000000b0: 561a 2dbb 47ff 8f3c bed3 c83c a8d7 adbb
000000c0: ec31 97bb 0b03 8c3c 1907 de3b 1988 fbbc
000000d0: 7ace d0bc ea8d 8a3b d0d2 fbbc f263 a1bc
000000e0: 8245 923c 1e9c cd3b fce5 15bd fb83 0ebd
000000f0: 80d3 30bd 634f 62bc b1d3 a9bc 63de 1c3c
00000100: 17c0 cabc 2254 1b3c dac9 1ebd 1ad5 58bc
00000110: 163e 053d f9a1 123d cee8 64ba bbf4 543b
00000120: d031 783b 2c30 d93c 4ff2 e8bc 4a46 683c
00000130: f7cd 0fbd 4c5c cb3c 584d c3bc 92aa 373a
00000140: 909f 53bc 5610 b13b b2e5 abbc 8ff0 aebb
00000150: d062 8a3a 0787 6cbc 0cfc 323d 0a96 373d
00000160: 3f04 ca3a c6ff 97bb 09d3 8cbb 91a9 a53c
00000170: 7140 f63c 8d6d e83a 0a45 323c e2bf 5b3c
00000180: 560a fbbc e044 d83c 4f87 d83c fff5 fa3c
00000190: 17f0 ec3c b350 cdbb 2cf6 1bbd 7d4c 41bb
000001a0: 2ad9 c03c 5848 82bb c2db 2d3b 6095 2cbc
000001b0: ac44 993c e3ea 223c 63ee 3abd 1ad8 4bbc
000001c0: 0ccb d4bb e179 cabc d09d 2b3d 511f 303d
000001d0: 2ecf 3a3d c8eb 023c 0b35 24bd e55f 263d
000001e0: ebc2 12bb 9f69 233d df06 d3bc 43f7 ffbc
000001f0: 5aed 143d 0d28 133d 162c 2cbd 74b1 b5bb
00000200: ca37 803c 6546 2cbc 1d23 d23c 18ce 16bd
00000210: d481 733c 0197 e4bc f457 223d c3c5 2dbe
00000220: d6c3 12be 6307 26be 7746 ffbd 3d0b 46be
00000230: b0e5 3dbe ea97 dbbd 7b1d 4abe 8b97 16be
00000240: 6bc7 37be ab7f 52be 1bdb 4bbe 9aa5 28be
00000250: 0f07 03be 8d30 13be 3dab 36be 2d48 32be
00000260: 6546 0fbe aade 1abe 58a2 0fbe fa27 c1bd
00000270: 67e1 abbd d49b adbd 1bf1 a0bd 878d 9abd
00000280: aeea b0bd 8311 06be 8b78 2ebd a828 2cbd
00000290: 9252 07bd 8e8e 8bbb 9710 ba3b 874f aa3b
000002a0: b39d 32bd c0c5 a23a d38c 6f3c b339 303d
000002b0: e554 52bb f69f babb e65f 8cbb 4ab3 2e3c
000002c0: 914f a0bc 4755 e83b e022 cbbc 5764 22bc
000002d0: 1e27 313d 8133 08bd 4d1f 373d 11a6 b23c
000002e0: 1307 0a3d 2b9b babc 3d32 1ebc 89d7 00bc
000002f0: 95d1 1bbd 9b1c 063c 1402 de3c c1ba 92ba
00000300: 5d70 c3bb 01e0 743c 1751 e4bc 83ed 1a3d
00000310: 3b99 683c 12ef 12bd c472 34bd 361d ca3c
00000320: 02c1 933c d4bb 333d 8cf7 973c 8aec 88bb
00000330: 1965 173c 26d6 80bc d13d 14bd 9079 d93c
00000340: 0ca5 38bd 4f38 283d 2393 d2bc 4c8c febb
00000350: 77e7 bdbb 8e2a 41bc 434a c5bc 464e 04bd
00000360: 2b0f 273d 4829 073d a676 a73b 0831 083d
00000370: 8e9d 28bc 71ee 083c 1bc1 d0bc b84d 6abc
00000380: 2573 73bb d052 ce3c d057 79bc 22ca c1bb
00000390: 9cd4 173d 2e45 2f3c ff95 ce3c 03c4 8fbb
000003a0: 4f4b 143d 3ead fd3b 1851 11bd 2b89 06bd
000003b0: 0eb3 39bd 5656 bb3c a765 943b 1f76 d5bb
000003c0: 989f cf3c 2d32 7d3c 8dc4 9fbc 5f49 cd3c
000003d0: 7e91 6fbc 7230 0c3d dea5 44bc bada 32ba
000003e0: 43ce 2dbd 7993 39bd 247f d13c d4c6 583b
000003f0: 0b31 273d cb0f 0e3c c425 52bc 790d 07bd

conv2.bias f4 [32]
-0.07808537 -0.044640794 -0.003190888 0.18255104 -0.073075026 -0.03838361 -0.03282581 -0.063771784
-0.026745377 0.07197573 0.5470899 0.033905268 -0.05213229 -0.2467247 0.29461426 -0.2972783
0.08498478 -0.043575376 0.022510553 0.36835292 -0.076373756 -0.0172587 -0.050337095 -0.04441557
-0.07897618 -0.009940118 -0.037493303 0.55581504 -0.005974134 0.083989866 0.22279245 -0.05638265
00000000: 39eb 9fbd 44d9 36bd 381e 51bb a9ee 3a3e
00000010: 5ca8 95bd 2238 1dbd 5b74 06bd c89a 82bd
00000020: 1f19 dbbc 0368 933d 150e 0c3f 40e0 0a3d
00000030: ab88 55bd 66a5 7cbe aed7 963e dd34 98be
00000040: 800c ae3d 187c 32bd 0d68 b83c c198 bc3e
00000050: d869 9cbd 1e62 8dbc 452e 4ebd 1aed 35bd
00000060: 43be a1bd e0db 22bc 9492 19bd e549 0e3f
00000070: abc2 c3bb e102 ac3d b423 643e 7ef1 66bd

fc.weight f4 [17, 3168]
0.0057679727 -0.011761516 -0.009215661 0.0021143688 0.025910955 0.022174403 -0.00014365267 0.013189619
0.02001003 -0.013148187 -0.041623253 -0.0026013786 -0.014434526 -0.041816063 -0.025053877 -0.00056753535
-0.016313642 -0.033468127 0.010946581 -0.028452307 0.0008108487 -0.02953288 -0.014848527 -0.043619554
-0.02766201 -0.035839316 -0.029083489 0.0029689611 -0.03919089 -0.0029437493 -0.041717242 0.010660384
0.012568232 -0.02332545 0.0020834387 0.002351129 0.0113562355 -0.021547543 -0.02719345 0.0024158964
0.0014247189 0.010324864 -0.015635755 -0.014899267 0.008024453 0.0022044766 -0.03220056 -0.009033805
-0.036256067 -0.0397607 -0.02098188 0.0018043484 -0.034253795 0.0041774167 0.010312473 -0.014203192
-0.039917428 0.008821962 0.008363961 0.001049778 -0.005709216 -0.03760142 -0.02485901 -0.008052009
-0.0047179125 -0.008960021 0.012396208 -0.03407064 -0.009812283 0.008815616 -0.028947286 -0.040663984
-0.011180765 -0.023071751 -0.017944586 -0.01524438 -0.027023198 -0.012854833 -0.03979375 0.010305703
-0.0059998827 -0.012754027 -0.040721904 -0.036129218 -0.021569612 -0.041948114 -0.04112852 0.003073132
-0.019624988 0.0062965103 0.01749329 0.004925455 0.005414609 -0.023591934 -0.01075373 0.010537148
0.0042762877 -0.021863885 0.019266985 -0.0033954314 0.008155983 0.0018545535 0.021879235 -0.025227385
0.02122589 -0.02380542 0.0046376954 0.007902843 -0.0071514626 0.012835078 0.008309177 -0.025115518
-0.0103389295 0.014867126 0.009011613 -0.026190674 0.022513775 -0.018151674 0.020928567 0.023031173
-0.009516346 -0.019525412 0.020633403 0.0044966764 -0.0073635443 -0.028052386 -0.0074504237 -0.007092136
-0.01163885 0.023631046 -0.020873884 -0.016402029 0.010773144 0.0037610705 0.021278813 -0.011463654
0.0190266 -0.013913875 -0.020789266 -0.0021922095 0.005541747 0.020320248 0.009372725 0.022281818
-0.01663767 -0.02598111 0.011420648 -0.019620188 -0.026322534 0.024453845 0.027335383 -0.00923531
-0.027338976 -0.009959655 0.012245171 0.0084114345 0.016868237 -0.009207193 -0.027103271 0.009820985
-0.021416849 -0.009876946 0.017775951 0.0036745318 -0.0017110466 -0.016936734 0.0029619322 -0.02164508
0.016999325 -0.010662071 -0.026456483 -0.024959287 0.019227281 0.01705049 0.0027497339 0.008331093
0.013787282 -0.018579533 -0.0014799155 -0.016959464 0.018882629 -0.009203055 -0.008455232 -0.02266365
0.014010284 0.007384486 -0.022241648 0.026895385 -0.0012105941 -0.015159118 0.0023275323 0.025507746
-0.013875114 0.010738914 0.0042498345 0.022716653 -0.020761998 -0.009811708 -0.0005600547 -0.035110366
-0.003623035 -0.035999537 -0.0031283784 -0.028554706 -0.037773274 -0.03083839 -0.015958017 -0.009008995
-0.02108264 0.012909592 -0.019061895 -0.029988138 -0.02976656 -0.00416596 -0.009165944 -0.025930762
0.024671352 0.023986049 0.0101720635 -0.0130668115 -0.010728811 -0.018121371 -0.022145968 -0.018856961
0.0025053814 0.025422635 0.016231436 0.014916105 -0.011884652 0.0012148985 -0.02059136 -0.013009506
0.0111857485 0.017585868 0.018548286 -0.012745224 -0.025409764 -0.0102455 0.015850376 -0.014674806
0.015018468 -0.0069186185 -0.023838347 0.00557679 0.016591676 0.01135735 -0.02770506 -0.027919864
0.019926395 -0.011706737 0.02339263 -0.020236785 0.010251125 0.008148786 -0.015939672 -0.009286659
00000000: 4301 bd3b 60b3 40bc 49fd 16bc 3991 0a3b
00000010: 3643 d43c 18a7 b53c 78a1 16b9 4619 583c
00000020: 13ec a33c 7e6b 57bc 257d 2abd e47b 2abb
00000030: ca7e 6cbc 5247 2bbd ca3d cdbc a7c6 14ba
00000040: 30a4 85bc e015 09bd 4a59 333c d014 e9bc
00000050: 238f 543a f0ee f1bc 3c47 73bc 6baa 32bd
00000060: 719b e2bc 3fcc 12bd 7f40 eebc e792 423b
00000070: a086 20bd ebeb 40bb b3df 2abd e4a8 2e3c
00000080: fcea 4d3c 0415 bfbc 4d8a 083b 6615 1a3b
00000090: 810f 3a3c 7984 b0bc ccc4 debc 0454 1e3b
000000a0: a2bd ba3a 9e29 293c 8e16 80bc 0e1c 74bc
000000b0: ff78 033c fb78 103b bce4 03bd 8602 14bc
000000c0: 3e81 14bd 1edc 22bd 31e2 abbc e37f ec3a
000000d0: b54d 0cbd b6e2 883b a6f5 283c 81b4 68bc
000000e0: 7580 23bd fe89 103c ff08 093c b498 893a
000000f0: 6014 bbbb f203 1abd 1fa5 cbbc 93ec 03bc
00000100: b898 9abb 0dcd 12bc 7719 4b3c a88d 0bbd
00000110: b3c3 20bc 606f 103c dc22 edbc 478f 26bd
00000120: 872f 37bc f800 bdbc 8600 93bc 90c3 79bc
00000130: c15f ddbc 149d 52bc c5fe 22bd 40d9 283c
00000140: aa9a c4bb 44f6 50bc 03cc 26bd 3bfc 13bd
00000150: c1b2 b0bc c9d1 2bbd 6176 28bd 9966 493b
00000160: 95c4 a0bc f552 ce3b 174e 8f3c b665 a13b
00000170: 086d b13b df43 c1bc 6a30 30bc 01a4 2c3c
00000180: 1a20 8c3b e41b b3bc ccd5 9d3c e385 5ebb
00000190: aca0 053c 7d14 f33a 153c b33c a9a9 cebc
000001a0: ebe1 ad3c 9603 c3bc cff7 973b ed7a 013c
000001b0: d156 eabb 384a 523c 3723 083c 0fbf cdbc
000001c0: 9d64 29bc 3f95 733c 72a5 133c d38d d6bc
000001d0: cf6e b83c d2b2 94bc 6372 ab3c dfab bc3c
000001e0: 73ea 1bbc c2f3 9fbc 6207 a93c db58 933b
000001f0: e349 f1bb 1ece e5bc af22 f4bb 2665 e8bb
00000200: e0b0 3ebc e595 c13c b5ff aabc 8c5d 86bc
00000210: d781 303c 4b7c 763b e850 ae3c 0dd2 3bbc
00000220: acdd 9b3c 06f7 63bc 404e aabc 2cab 0fbb
00000230: 8b97 b53b a676 a63c 0f90 193c 5c88 b63c
00000240: b94b 88bc 56d6 d4bc ab1d 3b3c 84ba a0bc
00000250: 5ba2 d7bc 6e53 c83c 74ee df3c b34f 17bc
00000260: fdf5 dfbc d22d 23bc f89f 483c 1dd0 093c
00000270: 422f 8a3c c4d9 16bc ae07 debc 32e8 203c
00000280: 6372 afbc ead2 21bc df9e 913c 6ad0 703b
00000290: 3245 e0ba e8be 8abc fa1c 423b 0651 b1bc
000002a0: 2b42 8b3c f8af 2ebc 44bb d8bc 6b77 ccbc
000002b0: 8882 9d3c 78ad 8b3c e134 343b 237f 083c
000002c0: 0de4 613c 1b34 98bc b9f9 c1ba 93ee 8abc
000002d0: beaf 9a3c 69c8 16bc d087 0abc 1ea9 b9bc
000002e0: 648b 653c 8ff9 f13b 1e34 b6bc b653 dc3c
000002f0: ccac 9eba f35d 78bc 8389 183b 9ff5 d03c
00000300: 7254 63bc 45f2 2f3c 3242 8b3b 4618 ba3c
00000310: 1115 aabc 49c1 20bc a2d0 12ba e3cf 0fbd
00000320: 7170 6dbb 4074 13bd 7b05 4dbb 8feb e9bc
00000330: 26b8 1abd cba0 fcbc 63ba 82bc 779a 13bc
00000340: 80b5 acbc c182 533c b127 9cbc afa9 f5bc
00000350: 00d9 f3bc 9b82 88bb c12c 16bc c06c d4bc
00000360: 931b ca3c 647e c43c baa8 263c 2e16 56bc
00000370: e5c7 2fbc 4573 94bc 766b b5bc ea79 9abc
00000380: 5331 243b 2143 d03c caf7 843c ae62 743c
00000390: d8b7 42bc 3b3d 9f3a 36af a8bc d325 55bc
000003a0: 6e44 373c 3d10 903c 93f2 973c 58d1 50bc
000003b0: 2328 d0bc bedc 27bc a6d8 813c 996e 70bc
000003c0: 0510 763c 94b5 e2bb a348 c3bc 81bd b63b
000003d0: 44eb 873c 2e14 3a3c b9f5 e2bc 33b8 e4bc
000003e0: ae3c a33c 9dcd 3fbc e7a1 bf3c 9dc7 a5bc
000003f0: 56f4 273c 7c82 053c ea93 82bc 1227 18bc

fc.bias f4 [17]
-0.185067 -0.17666635 0.34079176 1.6466167 0.42282102 0.037762817 -0.5071571 -0.1450712
-0.121374734 -0.13314837 -0.4056689 -0.14390932 0.2372661 -0.20798503 -0.114251174 -0.17014536
-0.37481955
00000000: 3482 3dbe 06e8 34be 427c ae3e 56c4 d23f
00000010: ff7b d83e 2fad 1a3d 0cd5 01bf 8b8d 14be
00000020: 5193 f8bd 0c58 08be d6b3 cfbe f75c 13be
00000030: e2f5 723e 07fa 54be 85fc e9bd 963a 2ebe
00000040: 59e8 bfbe
