checkpoints/hamida_et_al/no_class_balancing/Salinas_PCA_Split_15/epoch25_0.96.pth (torch, 191622 bytes, 14 tensors)

conv1.weight f4 [20, 1, 3, 3, 3]
0.001360967 0.13529736 -0.01558743 0.07818893 0.41270298 -0.036353853 0.036949795 -0.21876183
0.2364528 -0.05908834 -0.34269485 0.27070472 -0.33359647 0.28791538 -0.3065435 0.031050863
-0.13551526 0.13681583 0.0890454 0.2055903 0.21439697 0.3634206 -0.7561628 -0.10399737
-0.1851445 -0.06829215 -0.20442809 -0.048690625 -0.06602939 0.17232357 -0.06174429 -0.116930485
0.083664864 0.16660962 0.3428547 0.083094455 0.3811984 0.8041039 -0.053186532 0.16405176
-0.15657718 0.022094784 0.5029966 0.11881496 -0.107691616 -0.24342854 -0.28495663 0.1526838
0.07650422 -0.00947614 0.23809014 0.32712424 0.35049632 0.5435248 0.3902631 0.2393983
-0.28041968 0.2432949 0.101379424 -0.13444762 0.15799868 -0.014335151 -0.26314253 -0.06329751
-0.03126332 -0.4651507 0.0062382915 -0.22180803 0.5343304 0.11896421 -0.28758025 -0.51130736
0.47815165 -0.0356546 -0.3719844 -0.10704672 -0.060312986 -0.07372375 0.056792445 0.051788058
0.053809594 -0.70669436 -0.094496034 0.14764486 0.24692506 -0.26223484 0.053596493 0.07028713
0.3399742 0.15764754 0.13264193 0.36373606 -0.4716377 -0.12456186 -0.19759268 -0.017345633
0.26841068 -0.28169918 -0.48139116 -0.16790664 0.21597068 -0.37776384 0.041112654 0.23398042
-0.09248473 0.30927414 -0.49984708 -0.0031993361 -0.056936353 0.43270472 0.17379275 0.15664668
0.5426237 -0.041111823 0.35368368 -0.031736113 0.5507044 -0.25455964 -0.65821695 -0.34356877
-0.21453281 0.024277335 0.11266407 0.0004050653 0.25326693 0.17584169 -0.008505994 -0.0034447005
0.3304023 0.14232188 -0.10359529 0.29397297 0.009011333 0.2296004 -0.65679556 -0.07998745
-0.13000126 -0.40654388 -0.443407 -0.23692814 0.08158424 0.30697423 0.10713287 0.025862027
0.16118647 -0.40317965 0.119237386 -0.31967074 -0.44266856 -0.18531193 0.095946886 0.0566087
-0.17962454 0.16596285 0.34419972 0.19005325 0.7784819 -0.35439262 0.44286662 0.7911154
0.28588095 0.06673138 -0.05962478 0.26414123 0.067879066 -0.22335917 0.47754902 0.8417878
-0.025281964 0.40231782 0.37829792 -0.5876914 0.3639726 0.22018234 -0.1935063 -0.30504924
0.17761154 -0.37156555 0.0759639 0.01566274 0.5514434 -0.3764463 0.19003871 0.39283064
0.2533143 0.05275881 -0.16349985 0.050029937 0.23877269 0.033706088 0.08124027 -0.20433763
0.56848097 -0.12058703 -0.11677563 0.07870996 -0.54951763 0.07761525 -0.16508853 -0.34240025
0.6295496 -0.2084659 -0.4320368 0.24009612 0.109188296 -0.09214068 -0.4444011 0.0068585663
-0.039266817 -0.14652893 -0.04434603 0.0920077 0.21079607 0.021950934 0.5511765 -0.10772011
0.17659853 0.4123434 0.0744667 -0.18279831 0.21560103 0.10513076 -0.20985761 -0.10589439
0.19213155 0.15066747 -0.33931622 -0.06732192 -0.31436652 -0.24582899 0.21562636 0.0113745425
0.04943961 0.00091210613 -0.094913535 -0.077215984 -0.31667903 0.22109248 0.24545385 0.1890471
0.05776578 -0.07091956 0.36690837 0.60681 0.5870976 0.3291367 0.13035533 0.69629115
0.19127661 0.9445234 0.18095198 0.28186563 0.21666235 0.065691695 0.13675386 -0.1419848
00000000: 7a62 b23a 648b 0a3e 6c62 7fbc 8521 a03d
00000010: ce4d d33e c7e7 14bd ab58 173d 1a03 60be
00000020: af20 723e 9d06 72bd b375 afbe cf99 8a3e
00000030: 28cd aabe a569 933e 45f3 9cbe 615e fe3c
00000040: 83c4 0abe 7319 0c3e 6f5d b63d 4386 523e
00000050: e18a 5b3e 4412 ba3e e393 41bf 93fc d4bd
00000060: 8596 3dbe c1dc 8bbd 9955 51be d26f 47bd
00000070: 6b3a 87bd 9775 303e 95e7 7cbd 4079 efbd
00000080: 7c58 ab3d b69b 2a3e a78a af3e 6d2d aa3d
00000090: 702c c33e c1d9 4d3f 1fda 59bd 2ffd 273e
000000a0: c555 20be 1f00 b53c 63c4 003f 4255 f33d
000000b0: 6c8d dcbd 5545 79be d6e5 91be 2459 1c3e
000000c0: 3fae 9c3d d041 1bbc e7cd 733e d47c a73e
000000d0: 4174 b33e 7124 0b3f 91d0 c73e d424 753e
000000e0: 2b93 8fbe 4c22 793e 04a0 cf3d a3ac 09be
000000f0: 68ca 213e fbdd 6abc 9eba 86be 20a2 81bd
00000100: f80d 00bd 3c28 eebe 956a cc3b a521 63be
00000110: e1c9 083f 82a3 f33d b83d 93be 0ae5 02bf
00000120: 4bd0 f43e 8f0a 12bd bd74 bebe 503b dbbd
00000130: c00a 77bd 7afc 96bd 329f 683d b71f 543d
00000140: 7367 5c3d ece9 34bf 2387 c1bd 3730 173e
00000150: ecd9 7c3e a543 86be ff87 5b3d b3f2 8f3d
00000160: 1911 ae3e 5b6e 213e 49d3 073e 9d3b ba3e
00000170: 7f7a f1be 4a1a ffbd bc55 4abe 6e18 8ebc
00000180: 206d 893e e03a 90be e778 f6be b8ef 2bbe
00000190: 6b27 5d3e 436a c1be be65 283d 9098 6f3e
000001a0: a268 bdbd 2e59 9e3e f5eb ffbe f4ab 51bb
000001b0: 1836 69bd 798b dd3e baf6 313e fd67 203e
000001c0: 63e9 0a3f df64 28bd 0716 b53e bafd 01bd
000001d0: f7fa 0c3f a455 82be e880 28bf 3fe8 afbe
000001e0: 7dae 5bbe 43e1 c63c 6cbc e63d f25e d439
000001f0: 34ac 813e d80f 343e ba5c 0bbc 7cc0 61bb
00000200: 7e2a a93e d4bc 113e c429 d4bd a083 963e
00000210: 45a4 133c 5e1c 6b3e c123 28bf 76d0 a3bd
00000220: 0d1f 05be 8526 d0be 3e06 e3be 4a9d 72be
00000230: a315 a73d ba2b 9d3e 7a68 db3d 9adc d33c
00000240: 110e 253e 906d cebe bb32 f43d e2ab a3be
00000250: 74a5 e2be 69c2 3dbe cd7f c43d 86de 673d
00000260: 7fef 37be 2af2 293e f23a b03e 529d 423e
00000270: 974a 473f f372 b5be 6abf e23e 8a86 4a3f
00000280: fd5e 923e 76aa 883d 1d39 74bd 853d 873e
00000290: 2e04 8b3d 44b8 64be 4e81 f43e 687f 573f
000002a0: 1f1c cfbc 9afc cd3e 44b0 c13e f272 16bf
000002b0: 9e5a ba3e 7b77 613e 8426 46be 6a2f 9cbe
000002c0: cddf 353e d73d bebe f692 9b3d 264f 803c
000002d0: 652b 0d3f 92bd c0be 8299 423e 1921 c93e
000002e0: 69b2 813e 9f19 583d 816c 27be 31ec 4c3d
000002f0: d480 743e 650f 0a3d 4c61 a63d e23d 51be
00000300: f887 113f 55f6 f6bd 1028 efbd b032 a13d
00000310: 30ad 0cbf bff4 9e3d f80c 29be 164f afbe
00000320: 2a2a 213f 1678 55be ed33 ddbe c2db 753e
00000330: 1d9e df3d 41b4 bcbd 8a88 e3be d3bd e03b
00000340: 3ed6 20bd ae0b 16be 2fa4 35bd 886e bc3d
00000350: edda 573e 72d2 b33c e719 0d3f 5c9c dcbd
00000360: 3fd6 343e ad1e d33e ff81 983d 7b2f 3bbe
00000370: 84c6 5c3e cc4e d73d eae4 56be 28df d8bd
00000380: 22be 443e 9348 1a3e dbba adbe 13e0 89bd
00000390: a6f4 a0be 98ba 7bbe 28cd 5c3e 4a5c 3a3c
000003a0: 3081 4a3d 681a 6f3a 0762 c2bd 6a23 9ebd
000003b0: c123 a2be 1166 623e 4158 7b3e 9095 413e
000003c0: cf9b 6c3d 463e 91bd 6adb bb3e e657 1b3f
000003d0: 074c 163f 9b84 a83e de7b 053e 2340 323f
000003e0: 04de 433e 49cc 713f 7a4b 393e b150 903e
000003f0: bcdc 5d3e 5e89 863d 3409 0c3e 7764 11be

conv1.bias f4 [20]
0.18939428 -0.22998543 0.046638157 0.002878194 -0.30429238 -0.026701074 -0.49678174 -0.041151997
0.118492275 -1.0763211 0.0010146088 -0.018120514 0.0010770524 -0.0559717 0.67705977 -0.002412379
-0.15321839 0.0 -0.032973472 -0.29782546
00000000: 93f0 413e 4d81 6bbe a707 3f3d 15a0 3c3b
00000010: 36cc 9bbe 36bc dabc 2d5a febe ff8e 28bd
00000020: 14ac f23d e4c4 89bf 9ffc 843a 7971 94bc
00000030: e22b 8d3a 9542 65bd ca53 2d3f 0119 1ebb
00000040: 48e5 1cbe 0000 0000 310f 07bd 947c 98be

pool1.weight f4 [20, 20, 3, 1, 1]
0.078796044 0.03392155 -0.26901355 0.03629906 -0.40475607 0.022822812 -0.2002051 0.016014155
-0.25836188 -0.18688315 -0.15223104 0.14164135 -0.21176356 -0.05013806 -0.19459307 0.124413855
-0.12431185 0.3138459 -0.1742049 -0.0587117 0.23329477 0.17095268 0.22807606 0.07283056
1.8311377e-05 -0.28436294 -0.20234436 -0.3893664 0.24507211 0.1769054 0.0487247 -0.46448418
-0.1822512 -0.42619255 0.13932517 -0.07057375 0.022451058 -0.04952717 -0.12270969 0.05676028
-0.3624538 -0.007933905 -0.04572982 -0.16653913 -0.12306117 0.16115226 0.2549849 0.03981094
0.07631196 0.08249005 0.13856989 -0.31677568 0.04163744 -0.2360435 0.014008741 -0.13119325
0.12925874 -0.24229646 -0.22572649 0.07500491 -0.38537592 0.09396388 0.30854684 -0.16827166
-0.014001945 -0.109104514 0.025260435 -0.027965078 -0.21088731 -0.037536576 0.2361935 -0.04907342
0.08409091 -0.015381852 0.09836435 -0.044145662 -0.024539206 0.4252619 -0.08586494 0.3433236
-0.2198484 -0.1362098 0.17236045 -0.0027716884 0.13291179 -0.0032017152 -0.012649136 0.4470844
0.35859677 -0.0050947117 -0.18998896 0.17660883 0.21568632 -0.026550066 0.010189903 -0.15732796
-0.24865688 -0.20697978 0.045740634 -0.22897162 -0.109793626 -0.18116148 0.1597048 -0.33449742
-0.3989177 -0.038811043 0.18867302 0.08108756 -0.18009257 0.06917907 -0.23642269 -0.057868764
-0.1834667 0.14262575 -0.12635694 0.107504055 0.24240237 -0.1670027 0.052131835 0.11010265
0.2008065 -0.10252561 -0.10206472 -0.19495547 0.1434702 -0.061855145 0.15075737 0.0765969
-0.022735747 -0.36084345 -0.2543524 0.020750284 -0.22743246 -0.13339289 -0.011724363 -0.10501212
-0.18008646 -0.113898754 0.05376768 -0.0086019365 -0.045802366 0.0027744565 0.05624795 -0.085113384
0.017865194 -0.0054386845 -0.11039321 0.10557881 -0.11643378 -0.26333892 0.012057849 -0.5180572
-0.1974824 0.09725403 -0.28972316 0.07765631 -0.16305564 -0.32819232 -0.016826078 0.16181624
-0.12194309 0.37115645 0.4821867 -0.060313508 0.054782722 0.106546015 -0.1853231 0.4115403
0.12802818 -0.16842668 0.30381 0.21270442 -0.34470627 0.07174606 0.022327727 0.27165288
-0.17505766 -0.22481927 -0.20174696 -0.090654194 0.24683055 0.19985044 0.0052308524 0.18167701
-0.22758472 0.15370284 0.35875607 -0.08783985 -0.16040078 -0.51856405 0.13461535 0.1785924
0.26408604 -0.22534814 -0.38747096 -0.3992385 -0.16639373 -0.025295787 0.10386029 0.11727477
0.0079624085 0.020333039 0.36809272 0.3705307 -0.018678952 -0.035569794 0.00816867 0.16235161
-0.0020081457 -0.0030396355 0.08774673 0.1272057 0.09756163 0.09151414 -0.37750444 0.22943369
-0.00014561097 -0.040651947 0.03213236 -0.022618432 0.020341167 -0.5611325 0.30871147 0.06081413
-0.55549955 0.10599944 -0.1093266 0.18180628 -0.06668973 -0.04155124 0.09809724 -0.42012846
-0.3847304 0.21454485 0.1745302 -0.059797566 0.07835156 -0.009276702 -0.4195793 0.31452408
0.045366935 0.08443911 -0.23403828 0.5618108 -0.13703483 0.28292757 -0.18502104 -0.105334945
0.26914474 0.01036043 0.22680533 0.2837028 0.062994525 -0.0029724487 -0.023115048 0.15547644
00000000: d25f a13d 53f1 0a3d 25bc 89be 53ae 143d
00000010: 303c cfbe e8f6 ba3c 9102 4dbe 1e30 833c
00000020: 0248 84be 4c5e 3fbe 74e2 1bbe 6e0a 113e
00000030: 8cd8 58be 915d 4dbd 6843 47be b1cc fe3d
00000040: 3697 febd 69b0 a03e c562 32be ae7b 70bd
00000050: d3e4 6e3e 380e 2f3e c58c 693e 3028 953d
00000060: 629b 9937 0598 91be 5c33 4fbe 085b c7be
00000070: 2ff4 7a3e b026 353e 8d93 473d dfd0 edbe
00000080: 0fa0 3abe e935 dabe 42ab 0e3e f888 90bd
00000090: 48eb b73c 00dd 4abd 384f fbbd 787d 683d
000000a0: 8b93 b9be 36fd 01bc 314f 3bbd 3c89 2abe
000000b0: 7f07 fcbd 1905 253e 618d 823e cc10 233d
000000c0: 7249 9c3d 8bf0 a83d 44e5 0d3e 6c30 a2be
000000d0: 058c 2a3d 63b5 71be eb84 653c 8657 06be
000000e0: 675c 043e 901c 78be d824 67be 2d9c 993d
000000f0: fe4f c5be 2270 c03d daf9 9d3e 684f 2cbe
00000100: 6a68 65bc 3072 dfbd f9ee ce3c 0517 e5bc
00000110: d8f2 57be f4bf 19bd b5dc 713e 3601 49bd
00000120: db37 ac3d 2a04 7cbc 4073 c93d 15d2 34bd
00000130: 7206 c9bc eebb d93e f5d9 afbd 1cc8 af3e
00000140: f01f 61be 957a 0bbe 427f 303e 37a5 35bb
00000150: 071a 083e ded3 51bb 523e 4fbc 3fe8 e43e
00000160: ff99 b73e 8af1 a6bb 778c 42be f2d8 343e
00000170: e0dc 5c3e 867f d9bc 8df3 263c 951a 21be
00000180: e99f 7ebe 82f2 53be 885a 3b3d 8977 6abe
00000190: 7bdb e0bd 6582 39be a889 233e 3f43 abbe
000001a0: f13e ccbe 54f8 1ebd 8033 413e 3c11 a63d
000001b0: 306a 38be c2ad 8d3d ca18 72be cc07 6dbd
000001c0: b2de 3bbe 7c0c 123e b763 01be 162b dc3d
000001d0: 5438 783e c102 2bbe 3188 553d 807d e13d
000001e0: 38a0 4d3e f2f8 d1bd 4f07 d1bd 68a2 47be
000001f0: dae9 123e d25b 7dbd 2460 1a3e d6de 9c3d
00000200: 5140 babc 79c0 b8be 7a3a 82be 80fc a93c
00000210: 0ee4 68be 2598 08be 8b17 40bc 9810 d7bd
00000220: 9668 38be c043 e9bd 803b 5c3d 23ef 0cbc
00000230: 439b 3bbd a8d3 353b 4064 663d ed4f aebd
00000240: 075a 923c fe36 b2bb d615 e2bd b439 d83d
00000250: d574 eebd 5cd4 86be 498e 453c 669f 04bf
00000260: d438 4abe 1f2d c73d 9856 94be 450a 9f3d
00000270: 0ff8 26be d308 a8be d8d6 89bc 28b3 253e
00000280: 4cbd f9bd 3808 be3e 2de1 f63e 4c0b 77bd
00000290: d963 603d cc34 da3d 57c5 3dbe 69b5 d23e
000002a0: d219 033e 0b78 2cbe fc8c 9b3e 30cf 593e
000002b0: 577d b0be 99ef 923d a3e8 b63c 1616 8b3e
000002c0: 5142 33be 0637 66be c196 4ebe e8a8 b9bd
000002d0: 26c1 7c3e 98a5 4c3e 9267 ab3b 8a09 3a3e
000002e0: f80b 69be 4764 1d3e e0ae b73e 61e5 b3bd
000002f0: 1a40 24be 9dc0 04bf 9bd8 093e ede0 363e
00000300: 4936 873e aac1 66be 9862 c6be fd68 ccbe
00000310: 1e63 2abe 1c39 cfbc b4b4 d43d c12d f03d
00000320: c374 023c 7991 a63c a676 bc3e 33b6 bd3e
00000330: 9a04 99bc a2b1 11bd e3d5 053c 803f 263e
00000340: 189b 03bb 9f34 47bb 8fb4 b33d 3642 023e
00000350: 64ce c73d c46b bb3d 4348 c1be aaf0 6a3e
00000360: 26af 18b9 a882 26bd 399d 033d 4a4a b9bc
00000370: 85a2 a63c 61a6 0fbf 6e0f 9e3e 3d18 793d
00000380: 3835 0ebf 3c16 d93d a0e6 dfbd 6d2b 3a3e
00000390: a094 88bd a231 2abd 35e7 c83d 141b d7be
000003a0: 62fb c4be a5b1 5b3e 0bb8 323e 4bee 74bd
000003b0: c876 a03d 4ffd 17bc 19d3 d6be 4d09 a13e
000003c0: aed2 393d 69ee ac3d bba7 6fbe d5d2 0f3f
000003d0: dc52 0cbe e2db 903e 2876 3dbe d9b9 d7bd
000003e0: 57cd 893e cbbe 293c a83f 683e 7e41 913e
000003f0: 4603 813d 6acd 42bb c55b bdbc 3735 1f3e

pool1.bias f4 [20]
0.29279247 -0.31907496 0.28393286 0.03520538 -0.21953656 0.1486273 -0.24380995 0.14580339
0.035730492 -0.57596356 0.7765729 0.35546318 0.33400133 -0.1345968 -0.0038112162 -0.2520311
-0.056839056 -0.00029327508 0.37890795 -0.1126237
00000000: e5e8 953e cb5d a3be a65f 913e 8433 103d
00000010: 31ce 60be c131 183e 51a9 79be 7c4d 153e
00000020: 235a 123d 5972 13bf 7bcd 463f 45ff b53e
00000030: 3902 ab3e bed3 09be 99c5 79bb 380a 81be
00000040: 12d0 68bd b7c2 99b9 3900 c23e 41a7 e6bd

conv2.weight f4 [35, 20, 3, 3, 3]
0.046388645 0.023570357 0.07342713 -0.045712665 0.042726755 -0.0542285 0.0895335 0.073425494
0.07917302 0.019144533 0.07483335 -0.012098277 0.13653317 0.11594174 -0.024462957 0.09423647
-0.05548795 0.031042388 -0.0921317 -0.031782605 0.02077289 -0.12920235 -0.03180512 -0.03205066
-0.06847514 -0.041247096 -0.0063398625 0.040978156 0.12684745 0.055229798 -0.08065508 0.058520522
0.057123292 0.03314427 0.10065902 0.06478679 -0.06660632 0.052264776 0.08963148 -0.02881613
0.057318512 0.021011265 0.040661305 0.033091843 -0.03306129 0.07406857 0.13624617 -0.016250394
0.05806709 -0.052757367 0.0855209 0.032858025 -0.018435638 -0.002112837 -0.058467 0.022160385
0.010684633 -0.049744397 0.06786985 -0.042887785 0.019468885 0.1619377 0.037341736 -0.028634934
-0.09998084 -0.028942334 -0.05763677 -0.08359714 0.05440718 0.02976297 -0.057137612 -0.1438747
0.014901204 -0.058567766 -0.038113777 0.071963996 0.005452743 -0.11487767 -0.04384145 -0.029067859
-0.0656047 0.081246935 -0.063880116 0.020218143 0.123123534 0.026808335 0.0034300156 0.020103548
0.032505345 0.05862592 -0.0118887145 0.014679017 -0.09713436 -0.05218138 -0.00840901 -0.07470438
-0.046211544 -0.023335582 0.04456663 0.043894883 0.07427565 -0.034427583 0.06069488 0.05267991
-0.10149026 -0.053203035 0.021554599 0.032076295 -0.15512659 0.029250717 0.011416619 -0.034584288
-0.0011721933 0.055929624 -0.012059096 0.031952705 0.01262656 -0.00019329273 0.070187524 0.031816907
0.10208537 0.08953841 0.04312941 0.0837663 0.023178179 -0.03397369 -0.029536692 0.008306132
-0.015997494 -0.0010985325 -0.015016274 0.13447893 -0.03691995 -0.047191728 -0.0029862705 0.034711875
-0.057329074 -0.01875228 -0.1949923 0.0037893762 -0.0025278958 -0.062301893 -0.12298865 -0.06814425
0.10637542 0.05130311 -0.01417094 -0.009182667 0.04240244 0.06147335 -0.025658702 0.02412367
0.02469385 -0.03976168 0.07317816 0.043278225 0.018428672 0.030476507 0.0041973153 0.0059233676
0.015560495 -0.11128971 -0.082235426 -0.034819387 -0.001994536 0.12134627 -0.043359548 0.012197364
-0.06345202 -0.05717067 0.038428504 -0.03167213 -0.042771026 0.029700464 -0.02367159 -0.03861836
0.0058157877 -0.03837093 0.00910141 0.11347592 -0.022394804 -0.0053821728 -0.09917366 0.045209367
0.024821592 0.07610135 -0.077225715 -0.025416788 0.058007307 -0.075684555 -0.022477468 0.057439994
0.07811301 -0.021487398 0.046490666 -0.046870895 0.05153882 -0.008883061 -0.04989894 0.012667829
0.0077947 -0.07351 0.10818758 -0.04167898 0.0036402594 0.03188068 -0.01333111 -0.002537111
-0.106115155 -0.1432697 -0.08525181 -0.06916068 0.015643163 0.0069075944 -0.08253965 -0.11166636
-0.04980735 0.039829694 0.044448607 0.03445914 0.0855746 0.09027469 0.049649708 -0.035355244
-0.00713149 0.05013598 -0.03473517 -0.011939499 -0.108857915 0.026144557 -0.027084881 0.05017985
-0.042474613 -0.092751905 -0.0128656505 0.0012752338 -0.06158985 -0.048207633 -0.06822185 0.020138122
-0.009347659 -0.026102787 0.037123326 0.0056525036 -0.07022908 -0.08089996 -0.022862798 0.03088427
0.039446753 0.076095134 0.0061559016 -0.007341686 0.0011864427 0.029641762 0.09935967 0.09989308
00000000: 0502 3e3d 9f16 c13c f760 963d 343d 3bbd
00000010: 4002 2f3d b41e 5ebd 575d b73d 1b60 963d
00000020: 7725 a23d ffd4 9c3c 3a42 993d da37 46bc
00000030: 5acf 0b3e dd72 ed3d 8a66 c8bc 0dff c03d
00000040: 5547 63bd 9b4c fe3c 8baf bcbd 7a2e 02bd
00000050: e82b aa3c 9f4d 04be 1646 02bd 8e47 03bd
00000060: b23c 8cbd b7f2 28bd 9fbe cfbb b6d8 273d
00000070: 4ce4 013e a438 623d 7e2e a5bd 37b3 6f3d
00000080: 1dfa 693d 49c2 073d 5126 ce3d f0ae 843d
00000090: e568 88bd 9713 563d b690 b73d ce0f ecbc
000000a0: d1c6 6a3d d11f ac3c 788c 263d 508b 073d
000000b0: 466b 07bd 43b1 973d 1e84 0b3e 8c1f 85bc
000000c0: c2d7 6d3d 1c18 58bd 9525 af3d 2396 063d
000000d0: 5606 97bc 8677 0abb 187b 6fbd b289 b53c
000000e0: 990e 2f3c c8c0 4bbd 59ff 8a3d 1aab 2fbd
000000f0: 367d 9f3c ffd2 253e a6f3 183d cf93 eabc
00000100: c1c2 ccbd 7918 edbc 8914 6cbd fa34 abbd
00000110: 10da 5e3d 79d1 f33c 2109 6abd e453 13be
00000120: 2e24 743c c1e4 6fbd 311d 1cbd dc61 933d
00000130: ecac b23b fc44 ebbd 1893 33bd b81f eebc
00000140: c25b 86bd cb64 a63d 94d3 82bd 85a0 a53c
00000150: 3128 fc3d 279d db3c 1dca 603b 32b0 a43c
00000160: 5324 053d bc21 703d e2c8 42bc 4280 703c
00000170: 61ee c6bd 25bc 55bd f2c5 09bc 9cfe 98bd
00000180: 5148 3dbd 432a bfbc 808b 363d 1fcb 333d
00000190: d51d 983d f003 0dbd 329b 783d e4c6 573d
000001a0: 20da cfbd 6deb 59bd 4593 b03c 6f62 033d
000001b0: 81d9 1ebe 339f ef3c c50c 3b3c 41a8 0dbd
000001c0: 48a4 99ba 7616 653d 8493 45bc d7e0 023d
000001d0: a2df 4e3c 9fae 4ab9 7abe 8f3d 7252 023d
000001e0: 2212 d13d ea5f b73d 77a8 303d aa8d ab3d
000001f0: 2ae0 bd3c ff27 0bbd eff6 f1bc 7116 083c
00000200: 2d0d 83bc a2fc 8fba d106 76bc d8b4 093e
00000210: 6039 17bd 1d4c 41bd 4eb5 43bb 0a2e 0e3d
00000220: e4d1 6abd 629e 99bc 10ac 47be 2f57 783b
00000230: 0eab 25bb 4530 7fbd 79e1 fbbd 368f 8bbd
00000240: 5bdb d93d 3623 523d 3b2d 68bc e672 16bc
00000250: 2eae 2d3d 7bcb 7b3d 3332 d2bc 019f c53c
00000260: c24a ca3c 25dd 22bd 6ede 953d 8244 313d
00000270: baf7 963c dea9 f93c a289 893b cf18 c23b
00000280: 72f1 7e3c dceb e3bd 0c6b a8bd c69e 0ebd
00000290: c3b6 02bb 6584 f83d c899 31bd 74d7 473c
000002a0: 22f3 81bd cb2b 6abd 3567 1d3d a3ba 01bd
000002b0: ac30 2fbd 634e f33c ecea c1bc 492e 1ebd
000002c0: 5d92 be3b d62a 1dbd 151e 153c 1066 e83d
000002d0: 4f75 b7bc f05c b0bb 8f1b cbbd 752d 393d
000002e0: a756 cb3c 06db 9b3d 8428 9ebd de36 d0bc
000002f0: 1299 6d3d 8100 9bbd ab22 b8bc 3346 6b3d
00000300: b7f9 9f3d 5706 b0bc ff6c 3e3d b2fb 3fbd
00000310: 5f1a 533d 428a 11bc d562 4cbd ba8c 4f3c
00000320: af6a ff3b 698c 96bd 7391 dd3d 94b7 2abd
00000330: 6b91 6e3b 5195 023d ba6a 5abc a945 26bb
00000340: e752 d9bd 4bb5 12be 8098 aebd 1da4 8dbd
00000350: 1726 803c 1a59 e23b 8c0a a9bd 55b1 e4bd
00000360: cb02 4cbd 7624 233d be0f 363d 0725 0d3d
00000370: bc41 af3d f0e1 b83d 7e5d 4b3d a9d0 10bd
00000380: 46af e9bb 635b 4d3d 7746 0ebd e39d 43bc
00000390: e6f0 debd 1c2d d63c 1de1 ddbc 6389 4d3d
000003a0: dcf9 2dbd b6f4 bdbd 73ca 52bc bf25 a73a
000003b0: a345 7cbd 5e75 45bd e6b7 8bbd b4f8 a43c
000003c0: ec26 19bc 83d5 d5bc a10e 183d a338 b93b
000003d0: 44d4 8fbd e1ae a5bd c34a bbbc 0201 fd3c
000003e0: eb92 213d c4d7 9b3d 72b7 c93b 8792 f0bb
000003f0: 6982 9b3a 48d3 f23c 157d cb3d be94 cc3d

conv2.bias f4 [35]
-0.073957525 0.011224798 0.0042224918 0.08201506 -0.15291423 0.04055805 -0.10245375 0.061433
-0.0025737362 0.018735293 0.03301305 0.08208395 -0.018875984 0.007856879 -0.018192634 0.009499311
-0.01576759 -0.043346517 0.0807341 0.05316733 0.14141306 -0.006991985 0.011550112 0.0138376895
0.0008103184 -6.6613706e-05 -0.009462404 -0.050620455 -0.056719635 0.022050483 -0.13116895 -0.054809086
0.1582574 0.02439106 -0.022438843
00000000: 0b77 97bd 37e8 373c d45c 8a3b 83f7 a73d
00000010: 8c95 1cbe 3320 263d 46d3 d1bd 2ba1 7b3d
00000020: 21ac 28bb c27a 993c b138 073d a11b a83d
00000030: cfa1 9abc 24ba 003c b808 95bc 00a3 1b3c
00000040: 082b 81bc 1e8c 31bd eb57 a53d fcc5 593d
00000050: 96ce 103e 051d e5bb ae3c 3d3c 7ab7 623c
00000060: 8c6b 543a f6b2 8bb8 3308 1bbc 6557 4fbd
00000070: d952 68bd 37a3 b43c 2751 06be 7e7f 60bd
00000080: 3a0e 223e c3cf c73c aad1 b7bc

pool2.weight f4 [35, 35, 3, 1, 1]
0.07912149 0.21210462 -0.08448813 -0.17472267 0.0030460765 0.13929549 -0.011093173 0.076304466
0.1887007 -0.0925943 -0.11763365 0.049537726 -0.11643963 -0.015151917 -0.19604416 0.057549212
-0.0033203487 0.02762077 -0.00035718677 -0.30295295 0.016531887 0.049445935 0.07749853 0.027708678
-0.026784068 -0.042026453 -0.24917887 -0.06615969 0.069994465 0.050010163 0.13008676 -0.22907749
0.026330048 0.088223584 -0.13758364 0.06357643 -0.068276726 0.15844645 0.032043114 0.048703883
0.08574316 -0.037496187 -0.21919352 -0.002550767 -0.14511189 0.10215826 0.17003745 -0.18821071
0.031979743 -0.07963786 -0.04401443 0.14292866 -0.20144875 0.032630406 0.014759103 -0.12674727
0.012408642 0.082009725 -0.23723882 -0.119912624 0.115910426 0.11928819 -0.057162628 -0.32785994
0.08724767 -0.12348484 -0.27588725 0.09881856 -0.053358153 -0.0032151323 -0.012232932 0.11760992
-0.14332965 -0.051925812 -0.012476774 -0.13007896 0.10198102 -0.123542055 0.088532336 -0.32960987
-0.0706793 -0.2279526 -0.12590115 0.22921169 -0.25071928 -0.18277247 0.08286544 0.18881907
0.036890727 0.077649586 -0.12889443 0.099813856 -0.12040513 -0.33230639 0.13404246 0.010591079
0.21957411 0.011601083 -0.12864563 0.1557688 0.06034185 -0.14953691 -0.11180214 0.044657115
-0.070053846 0.15139332 -0.08953003 0.05332523 -0.090785965 -0.016593112 0.022380512 -0.38690093
0.035554886 -0.2640114 -0.10013518 -0.1338128 0.3367295 0.054024253 -0.11116738 0.21030991
0.12730798 0.02163714 0.17631145 0.21619326 0.20707016 -0.07831241 0.25925103 -0.15490738
-0.0015848154 0.03500355 0.059279148 -0.008585514 0.033727042 0.03656928 0.30825976 0.036094107
-0.17970136 -0.07936436 0.15959795 -0.18706578 0.14399967 -0.0097147655 0.16522531 0.16494675
-0.12824394 0.03310386 0.059979968 0.13562423 -0.034330327 -0.09140644 -0.0053442433 0.043048915
-0.06680123 -0.17944112 0.25938034 0.113020875 0.14072092 -0.08320186 -0.1389571 0.0573379
0.03736564 0.3465412 0.025025772 0.031751685 0.06788761 -0.005264329 0.06431139 0.14535804
0.08130157 -0.14472169 -0.16191104 -0.09367727 -0.18009141 -0.16576518 0.0284442 0.38612625
0.18477057 -0.157562 0.06433151 0.1276766 0.015709346 -0.115997486 -0.15844437 -0.10341738
-0.026712801 -0.105222955 -0.23085523 0.05446292 -0.22019286 0.15459971 -0.15583366 -0.123108625
0.16780336 0.05785127 0.036540516 -0.1567617 -0.0797409 0.050833635 -0.08468462 0.13710095
-0.106270626 0.025543815 0.14104427 -0.15331845 0.016899306 0.0009063139 -0.08175987 0.109683126
-0.087097436 -0.12459685 -0.071425796 0.091795616 -0.08152411 -0.067015216 -0.11268423 0.1724798
0.048748843 0.12545386 0.035304468 0.11630775 0.082529776 -0.0086751785 0.17523468 -0.08027494
0.27372593 0.041698962 -0.03815134 0.09328172 -0.09245285 0.12564473 0.065312535 -0.163368
0.08518929 0.13357909 -0.015565613 0.06954271 0.22541136 0.009539466 0.25626785 0.03554376
-0.04461037 -0.060662184 -0.146033 -0.15377367 -0.055369034 0.012618298 -0.09751473 0.19300386
-0.29807678 0.07261126 0.03709608 -0.11479867 -0.06220512 -0.04222172 0.042091522 -0.13036312
00000000: 730a a23d f431 593e 1d08 adbd 80ea 32be
00000010: afa0 473b 7aa3 0e3e 24c0 35bc 8445 9c3d
00000020: c23a 413e 15a2 bdbd e9e9 f0bd 12e8 4a3d
00000030: e777 eebd bf3f 78bc cdbf 48be b9b8 6b3d
00000040: 359a 59bb f444 e23c cc44 bbb9 a61c 9bbe
00000050: e16d 873c d287 4a3d 8db7 9e3d 4ffd e23c
00000060: 436a dbbc ee23 2cbd bf28 7fbe bb7e 87bd
00000070: 4259 8f3d 75d7 4c3d 7735 053e 4a93 6abe
00000080: 1db2 d73c 91ae b43d bae2 0cbe 5c34 823d
00000090: abd4 8bbd c93f 223e a43f 033d b97d 473d
000000a0: 1c9a af3d 9a95 19bd 4474 60be c52a 27bb
000000b0: 3698 14be 5a38 d13d 4c1e 2e3e 4fba 40be
000000c0: 31fd 023d 2d19 a3bd 7a48 34bd e45b 123e
000000d0: 9548 4ebe 76a7 053d 2ad0 713c 09ca 01be
000000e0: 9e4d 4b3c b7f4 a73d bcee 72be c094 f5bd
000000f0: 7262 ed3d 5e4d f43d 5c23 6abd 42dd a7be
00000100: e8ae b23d 9fe5 fcbd 1841 8dbe 6361 ca3d
00000110: 148e 5abd f8b4 52bb a36c 48bc 78dd f03d
00000120: 02c5 12be 29b0 54bd 626b 4cbc 6b33 05be
00000130: 6ddb d03d 9e03 fdbd 7150 b53d a0c2 a8be
00000140: 4fc0 90bd 686c 69be 3bec 00be 78b6 6a3e
00000150: 475e 80be b528 3bbe 5bb5 a93d c959 413e
00000160: bb1a 173d bf06 9f3d e7fc 03be 356b cc3d
00000170: f796 f6bd 1024 aabe 6d42 093e 3486 2d3c
00000180: 09d8 603e 7812 3e3c aebb 03be db81 1f3e
00000190: 0429 773d 3420 19be 85f8 e4bd 61ea 363d
000001a0: 6478 8fbd da06 1b3e 855b b7bd 8e6b 5a3d
000001b0: feed b9bd 47ee 87bc 5657 b73c e117 c6be
000001c0: 00a2 113d 812c 87be ac13 cdbd 3906 09be
000001d0: cf67 ac3e 8948 5d3d b9ab e3bd 7b5b 573e
000001e0: 065d 023e 5f40 b13c fd8a 343e c461 5d3e
000001f0: 330a 543e 4262 a0bd 8dbc 843e 0aa0 1ebe
00000200: 95b9 cfba e25f 0f3d b1ce 723d 41aa 0cbc
00000210: 5e25 0a3d abc9 153d 39d4 9d3e 6ad7 133d
00000220: a203 38be c889 a2bd a56d 233e 2c8e 3fbe
00000230: a674 133e ae2a 1fbc d330 293e cde7 283e
00000240: 6152 03be ea97 073d 8ead 753d 14e1 0a3e
00000250: f59d 0cbd 4d33 bbbd c31e afbb 0f54 303d
00000260: 15cf 88bd 6abf 37be 80cd 843e 7d77 e73d
00000270: 2519 103e bd65 aabd c54a 0ebe 25db 6a3d
00000280: b70c 193d d96d b13e d902 cd3c 0e0e 023d
00000290: a908 8b3d 6480 acbb b1b5 833d bdd8 143e
000002a0: 7081 a63d ec31 14be 02cc 25be ded9 bfbd
000002b0: e269 38be 59be 29be d003 e93c 57b2 c53e
000002c0: 7f34 3d3e ef57 21be 3dc0 833d a8bd 023e
000002d0: e3b0 803c 1790 edbd 3e3f 22be 7ecc d3bd
000002e0: ced4 dabc 227f d7bd 5065 6cbe 8314 5f3d
000002f0: 3d7a 61be 634f 1e3e dc92 1fbe 6020 fcbd
00000300: a5d4 2b3e 74f5 6c3d 82ab 153d 2486 20be
00000310: 324f a3bd ee36 503d 216f adbd 3164 0c3e
00000320: 6aa4 d9bd 4341 d13c e96d 103e 83ff 1cbe
00000330: 6a70 8a3c b295 6d3a b871 a7bd 8ca1 e03d
00000340: 2460 b2bd a22c ffbd b047 92bd 57ff bb3d
00000350: 1df6 a6bd 463f 89bd fdc6 e6bd 8b9e 303e
00000360: deac 473d fa76 003e 6b9b 103d c232 ee3d
00000370: 5f05 a93d 5622 0ebc b870 333e 3067 a4bd
00000380: ce25 8c3e 88cc 2a3d 9444 1cbd 7d0a bf3d
00000390: eb57 bdbd 03a9 003e 94c2 853d f149 27be
000003a0: b977 ae3d f5c8 083e ea06 7fbc 696c 8e3d
000003b0: 3cd2 663e 6c4b 1c3c 8a35 833e 5596 113d
000003c0: 5db9 36bd e978 78bd ad89 15be d876 1dbe
000003d0: a4ca 62bd fabc 4e3c ceb5 c7bd cea2 453e
000003e0: 859d 98be 36b5 943d 0ff2 173d 911b ebbd
000003f0: ccca 7ebd aff0 2cbd 2968 2c3d e97d 05be

pool2.bias f4 [35]
0.03328403 0.043153282 -0.011982097 0.0034821418 -0.01078593 -0.038030066 0.068533875 0.018452248
-0.100460455 -0.06345588 0.03757502 -0.1635959 0.02991683 -0.008201086 0.08068408 0.016713198
-0.084918186 -0.036433615 -0.10328546 0.08424228 -0.05849674 0.017484223 0.01135933 0.013365439
-0.017535033 0.02449204 -0.0032220758 0.15486665 -0.049842395 -0.12031627 -0.116995044 0.07822183
-0.009307773 0.043603163 0.043466553
00000000: d654 083d 7fc1 303d 8f50 44bc a534 643b
00000010: 78b7 30bc 6ac5 1bbd 7d5b 8c3d 2b29 973c
00000020: 36be cdbd 28f5 81bd 44e8 193d af85 27be
00000030: 2414 f53c d95d 06bc b23d a53d 1eea 883c
00000040: 96e9 adbd 6a3b 15bd 5487 d3bd 3787 ac3d
00000050: 479a 6fbd 133b 8f3c 7c1c 3a3c b7fa 5a3c
00000060: a1a5 8fbc 88a3 c83c 7629 53bb 5d95 1e3e
00000070: 8a27 4cbd 6068 f6bd 199b efbd c432 a03d
00000080: a17f 18bc 3b99 323d fc09 323d

conv3.weight f4 [35, 35, 3, 1, 1]
-0.0028294986 0.033677075 -0.17679326 0.12796429 -0.27357194 0.06516246 -0.09108937 0.15520757
-0.03936742 0.0694691 -0.07229453 -0.09367351 0.08332815 -0.046260316 0.042006973 0.04714328
0.17987682 0.040960297 0.19025089 -0.25537586 0.13111104 0.15376171 -0.030341862 0.04262122
-0.07688992 -0.25100625 0.1390029 -0.090622656 -0.19805844 0.03533186 -0.04763829 0.021877965
0.0919302 0.029591711 0.032703213 -0.1072142 0.017600657 -0.14907408 0.18977797 -0.008726131
0.015811795 -0.097510196 -0.2087206 -0.004678894 0.023957698 -0.045235388 -0.18335679 -0.022644032
-0.11027658 -0.17441432 -0.25400564 0.17232431 -0.1946917 -0.17580064 -0.061369836 -0.15831845
0.18876469 -0.03728481 -0.07554039 0.02155856 -0.3120603 -0.104361944 0.043371838 0.09560234
-0.09181988 -0.06353109 -0.08797944 0.079083025 -0.017006675 -0.0101409005 -0.3404236 0.12129682
0.03139575 -0.10630728 0.18088372 0.023274465 -0.15200315 -0.16792847 -0.089761175 -0.016731199
-0.0328877 -0.18410328 -0.09998057 -0.023241399 -0.06002139 0.13416345 -0.1419015 -0.008785593
-0.21438883 0.18588485 -0.092373304 -0.11503693 0.2483285 -0.10231204 0.103515744 0.07392582
0.06141205 -0.058516532 -0.09343386 0.17126527 -0.031089025 -0.16462167 0.1479953 -0.21651085
-0.085032985 0.047373686 0.41624466 0.1078959 -0.12366613 -0.0956221 0.09750971 -0.06430827
0.18039635 0.09890238 0.113276646 -0.06066034 0.032418285 -0.03843606 0.06249191 -0.22121881
0.03811218 -0.024531625 -0.019641122 -0.041364215 -0.32374188 -0.015621668 0.0014532044 -0.06806061
0.003945056 0.18802708 -0.50493133 0.12550306 0.06608955 -0.07401217 -0.056206897 0.11062533
0.23848055 0.13362528 -0.04118048 0.12021274 -0.13241534 0.124775276 -0.20810743 -0.032614276
0.11204624 -0.028558452 -0.039713226 0.18036155 0.11439826 -0.17598346 0.097328685 -0.36453435
0.019652883 -0.05257059 -0.33457094 0.28975752 -0.14777048 -0.15320617 0.03860268 -0.01590237
-0.24829 0.03236433 0.06885737 -0.13784297 -0.21422224 0.08309613 0.25863636 -0.0011449165
0.18784373 -0.11769939 0.068626106 0.107361265 0.17504881 -0.015756998 0.049644984 0.07015775
-0.036890477 0.066578396 -0.093010634 0.086684845 0.15486366 0.117037185 0.17600697 -0.056125864
-0.03759409 -0.18119054 0.08685635 -0.042921316 -0.08019329 -0.09101422 0.17599878 -0.04743707
-0.034228496 -0.09397935 0.17319855 0.12687436 -0.13316649 -0.39558303 -0.07777021 0.12651777
0.04026063 0.023213403 0.19384472 -0.027232395 0.09290077 -0.26234278 -0.020953508 0.15193178
0.12743342 0.16435611 -0.13528046 -0.40139875 0.100444175 0.021872146 0.11034433 -0.025670143
-0.1028005 -0.27825278 0.23875126 -0.06647262 -0.026871877 -0.32735363 -0.11754833 0.14557524
0.105479814 0.12577695 0.043422416 0.22465411 -0.09924475 -0.09854072 0.10604769 0.112007186
-0.0177946 -0.17051041 0.03387613 0.01769746 -0.08468484 0.203061 0.14599757 -0.00040434158
0.02614007 0.08656921 0.03994418 0.2224922 0.2060067 0.020542571 -0.07862177 0.0029278353
-0.3452942 -0.07652604 -0.07296677 0.16932625 0.11383044 -0.015374575 -0.13932279 0.02522262
00000000: 1c6f 39bb f9f0 093d 4b09 35be 1209 033e
00000010: 9f11 8cbe e573 853d 108d babd bcee 1e3e
00000020: bb3f 21bd d145 8e3d 280f 94bd e6d7 bfbd
00000030: f3a7 aa3d 757b 3dbd 810f 2c3d 5019 413d
00000040: a131 383e fcc5 273d 21d1 423e a0c0 82be
00000050: f941 063e b673 1d3e 7f8f f8bc 9793 2e3d
00000060: 7678 9dbd e483 80be c756 0e3e 5f98 b9bd
00000070: d5cf 4abe 24b8 103d 5e20 43bd 6b39 b33c
00000080: e745 bc3d 516a f23c cef3 053d 1e93 dbbd
00000090: 412f 903c e0a6 18be 2855 423e 0cf8 0ebc
000000a0: bd87 813c 6db3 c7bd daba 55be 6851 99bb
000000b0: ef42 c43c be48 39bd e2c1 3bbe fa7f b9bc
000000c0: b0d8 e1bd ab99 32be 070d 82be c975 303e
000000d0: 435d 47be 1505 34be f05e 7bbd 3b1e 22be
000000e0: 884b 413e f5b7 18bd ecb4 9abd 949b b03c
000000f0: 5ec6 9fbe b7bb d5bd aba6 313d 29cb c33d
00000100: 100c bcbd 971c 82bd 912e b4bd 48f6 a13d
00000110: 9551 8bbc 0526 26bc 014c aebe 786a f83d
00000120: d498 003d a2b7 d9bd 9539 393e 17aa be3c
00000130: b7a6 1bbe 71f5 2bbe b5d4 b7bd de0f 89bc
00000140: 41b5 06bd 9285 3cbe 9dc2 ccbd bf64 bebc
00000150: fdd8 75bd 2562 093e a04e 11be 73f1 0fbc
00000160: bf88 5bbe 9958 3e3e 372e bdbd 7b98 ebbd
00000170: d449 7e3e fa88 d1bd 1000 d43d 6c66 973d
00000180: 348b 7b3d 08af 6fbd 405a bfbd 2a60 2f3e
00000190: 69ae febc 9592 28be 148c 173e 05b5 5dbe
000001a0: c625 aebd e90a 423d 051e d53e 87f8 dc3d
000001b0: ab44 fdbd 85d5 c3bd 2cb3 c73d 0eb4 83bd
000001c0: d2b9 383e 558d ca3d 96fd e73d fa76 78bd
000001d0: 09c9 043d 216f 1dbd 84f7 7f3d 2f87 62be
000001e0: 841b 1c3d 8cf6 c8bc 6be6 a0bc 866d 29bd
000001f0: 7fc1 a5be 06f2 7fbc 7379 be3a 5c63 8bbd
00000200: 8745 813b 2c8a 403e 2e43 01bf e083 003e
00000210: f559 873d b193 97bd 3439 66bd 888f e23d
00000220: 3f34 743e 11d5 083e ddac 28bd 1932 f63d
00000230: e397 07be 2e8a ff3d 1d1a 55be 8c96 05bd
00000240: 8078 e53d 6af3 e9bc 56aa 22bd b3b0 383e
00000250: a349 ea3d 0235 34be 4354 c73d 3fa4 babe
00000260: 15ff a03c 4254 57bd e24c abbe 195b 943e
00000270: 2551 17be 14e2 1cbe d81d 1e3d b045 82bc
00000280: bc3f 7ebe 7690 043d 1805 8d3d b526 0dbe
00000290: 135d 5bbe 4e2e aa3d fc6b 843e 0611 96ba
000002a0: 1b5a 403e 610c f1bd d88b 8c3d 39e0 db3d
000002b0: ff3f 333e d214 81bc 8a58 4b3d deae 8f3d
000002c0: 781a 17bd 415a 883d 5c7c bebd d387 b13d
000002d0: 9494 1e3e 31b1 ef3d 2c3b 343e 3ce4 65bd
000002e0: 43fc 19bd 038a 39be bee1 b13d 43ce 2fbd
000002f0: 613c a4bd aa65 babd 0639 343e 604d 42bd
00000300: 2e33 0cbd 3f78 c0bd f65a 313e 5aeb 013e
00000310: cc5c 08be dc89 cabe fd45 9fbd e08d 013e
00000320: 55e8 243d 092a be3c 3b7f 463e 7916 dfbc
00000330: c242 be3d cb51 86be b1a6 abbc 0194 1b3e
00000340: e87d 023e f84c 283e f686 0abe 2384 cdbe
00000350: adb5 cd3d 372d b33c 35fc e13d 314a d2bc
00000360: 1289 d2bd 2677 8ebe 367b 743e cc22 88bd
00000370: 6922 dcbc e59a a7be 2ebd f0bd ad11 153e
00000380: cd05 d83d accb 003e b4db 313d ba0b 663e
00000390: d540 cbbd b8cf c9bd 882f d93d 0664 e53d
000003a0: fbc5 91bc 489a 2ebe b2c1 0a3d 43fa 903c
000003b0: 3f6f adbd 39ef 4f3e 6380 153e cffd d3b9
000003c0: b323 d63c 334b b13d 829c 233d ffd4 633e
000003d0: 6cf3 523e e548 a83c 7304 a1bd ede0 3f3b
000003e0: 67ca b0be afb9 9cbd 9a6f 95bd dc63 2d3e
000003f0: ef1f e93d a4e5 7bbc a2aa 0ebe ab9f ce3c

conv3.bias f4 [35]
0.00062690635 -0.052608848 -0.01121262 0.011672039 -0.027086722 0.004537536 0.030766277 0.014680278
-0.037945166 -0.0024947575 0.021132419 0.056596145 -0.021975912 -0.008064686 0.009075957 0.046270087
0.018293258 -0.084402084 -0.0742175 -0.054178104 0.03428703 0.029675016 -0.045890555 -0.001053797
0.0018041844 0.08667623 -0.027116973 0.03699347 -0.052673362 -0.004879467 0.08642132 0.06450464
-0.05694666 -0.01517536 -0.044392884
00000000: f956 243a 607c 57bd 23b5 37bc 143c 3f3c
00000010: f9e4 ddbc 9caf 943b 8f09 fc3c 8c85 703c
00000020: 646c 1bbd 167f 23bb e51d ad3c 5cd1 673d
00000030: d406 b4bc bf21 04bc 53b3 143c b485 3d3d
00000040: bedb 953c 00db acbd 58ff 97bd dce9 5dbd
00000050: 8f70 0c3d 0519 f33c bcf7 3bbd 8f1f 8aba
00000060: 627a ec3a 4f83 b13d 6a24 debc 7786 173d
00000070: 06c0 57bd f0e3 9fbb a9fd b03d 021b 843d
00000080: e740 69bd 13a2 78bc 50d5 35bd

conv4.weight f4 [35, 35, 2, 1, 1]
0.019567478 -0.070179 -0.2847537 0.110369876 -0.13414924 -0.045974884 -0.17794485 -0.10571479
-0.37404996 0.23045093 0.22546394 -0.022079423 -0.09960902 -0.21205913 0.12547547 -0.050720863
-0.3078102 0.053051807 0.034831397 -0.31604472 -0.4456138 0.016070748 -0.3563817 0.031270944
-0.13400532 -0.08227041 -0.12425226 -0.28719237 0.252504 0.01395642 0.20400515 0.13954835
0.22229831 -0.05047057 -0.01912743 -0.073693685 -0.032493856 -0.0009108844 0.023356015 -0.12733208
0.16422078 -0.10591485 0.23712721 -0.14374778 -0.08719088 0.22919415 0.1904246 0.1185498
0.082510486 0.05551347 -0.033546317 -0.12565486 0.06769773 -0.38281178 0.077393025 -0.15092301
0.0035672013 -0.029124938 0.14905666 -0.012246833 0.035410516 0.3257751 -0.0049778684 0.08806142
-0.17801587 0.12857401 0.14321528 -0.12957759 0.18621072 0.05845544 0.14231344 0.0038209704
-0.106356986 0.02293064 0.23295364 -0.013936128 0.13780989 0.08869816 -0.08036234 0.09878597
-0.22751132 -0.31692553 -0.14270893 0.302996 0.35297218 -0.39516893 -0.06265525 0.18348722
0.15006544 0.012104746 0.25616917 -0.013351426 0.1104859 -0.009239635 0.09158295 -0.11510573
0.20844592 -0.086212784 -0.07981997 0.0033360224 0.13250709 -0.10882289 0.13537422 0.083373435
0.39200303 0.123880245 0.21725817 -0.014596346 0.39436454 -0.107566655 -0.1665671 -0.11373101
0.051845666 -0.2550109 -0.24130908 0.10668384 -0.32466492 0.04169583 -0.08307372 -0.11719798
-0.09119557 0.06872458 -0.0040114983 -0.17990857 -0.089924335 -0.12400811 0.04061085 0.031175548
0.0014942503 0.054064907 -0.127091 0.040959705 -0.20560461 -0.19812432 -0.27356404 0.116085626
0.062011737 -0.1773856 -0.21925032 -0.34919745 -0.091148935 -0.009866938 0.21688004 0.123705745
0.05749065 -0.09820889 -0.060373187 0.081698366 -0.13915825 -0.07683962 0.042904165 0.117389195
0.14253996 -0.020456199 -0.06382663 -0.29561877 -0.005052943 0.21182366 0.0268278 -0.16534014
0.16809432 0.037092168 0.21432525 0.03855314 -0.04623447 0.078427464 0.014292709 0.1870651
0.087346956 -0.062968045 -0.30728582 -0.03793219 -0.24343324 -0.09570576 -0.10675836 -0.010065838
-0.0960319 0.10783132 -0.29005903 -0.058004264 -0.10579665 0.08876128 0.13282236 0.017094128
-0.27452514 0.050637316 0.21754105 -0.38881993 -0.006452241 0.107404694 0.2907475 -0.10204661
-0.03396731 0.24369352 -0.23175348 -0.14032628 0.0045600664 0.090821736 -0.06021935 0.07823617
-0.10641552 -0.22431725 0.085318156 -0.15817691 0.025522124 -0.25801644 0.013643633 -0.17843845
0.0868997 -0.102492124 0.2750466 -0.042823147 -0.111186266 0.09589318 -0.1782373 -0.25022984
-0.025874283 0.116230726 -0.18767765 -0.20502518 0.16022138 0.11244467 -0.072381034 0.026806233
-0.21122758 -0.22065209 0.053141028 0.15070674 0.08178408 0.0073916684 -0.17333134 0.270485
-0.08593498 -0.13113931 -0.007616404 0.12018317 -0.16918144 0.03673346 0.018856362 0.12046143
-0.04279719 0.10086442 -0.12694944 -0.19974005 0.18804312 -0.12286466 0.029684044 0.031597745
0.08805368 0.3325249 -0.010276516 0.07979107 0.024411222 0.14513777 0.111050256 -0.181749
00000000: fa4b a03c 02ba 8fbd 3dcb 91be 9a09 e23d
00000010: 6b5e 09be 2950 3cbd 2d37 36be ff80 d8bd
00000020: 7a83 bfbe 54fb 6b3e 05e0 663e e8df b4bc
00000030: d0ff cbbd 0726 59be a47c 003e aec0 4fbd
00000040: 4c99 9dbe da4c 593d 5eab 0e3d 9dd0 a1be
00000050: 7e27 e4be cda6 833c aa77 b6be f615 003d
00000060: b138 09be 647d a8bd f877 febd e10a 93be
00000070: 3448 813e 78a9 643c bae6 503e c3e5 0e3e
00000080: 2ba2 633e 3aba 4ebd 21b1 9cbc b7ec 96bd
00000090: 4718 05bd 6bc8 6eba 1d55 bf3c 5763 02be
000000a0: 7e29 283e e3e9 d8bd 7ad1 723e 9e32 13be
000000b0: 2291 b2bd dfb1 6a3e abfe 423e 3dca f23d
000000c0: 42fb a83d 1862 633d dd67 09bd abab 00be
000000d0: 1ca5 8a3d e8ff c3be 3c80 9e3d 908b 1abe
000000e0: b5c7 693b 6c97 eebc 4fa2 183e f1a6 48bc
000000f0: 9e0a 113d fecb a63e 631d a3bb 8c59 b43d
00000100: cb49 36be e8a8 033e 07a7 123e fdaf 04be
00000110: 06ae 3e3e f96e 6f3d 9dba 113e 3f69 7a3b
00000120: b1d1 d9bd 0ad9 bb3c 668b 6e3e 5b54 64bc
00000130: 091e 0d3e 62a7 b53d 0395 a4bd 4c50 ca3d
00000140: baf8 68be 1044 a2be 4a22 12be 4b22 9b3e
00000150: c5b8 b43e 9553 cabe 6551 80bd 13e4 3b3e
00000160: c1aa 193e fc52 463c 9b28 833e f1bf 5abc
00000170: 6e46 e23d d761 17bc d78f bb3d 8ebc ebbd
00000180: d972 553e 5490 b0bd a778 a3bd 2ba1 5a3b
00000190: f0af 073e 89de debd 8a9f 0a3e b1bf aa3d
000001a0: 9fb4 c83e edb4 fd3d ed78 5e3e 8325 6fbc
000001b0: 26ea c93e e84b dcbd 9190 2abe ceeb e8bd
000001c0: 1f5c 543d ca90 82be ba19 77be 0f7d da3d
000001d0: 7b3a a6be 3fc9 2a3d 8e22 aabd 7f05 f0bd
000001e0: bec4 babd 79bf 8c3d e372 83bb f439 38be
000001f0: 402a b8bd f7f7 fdbd 9057 263d dd63 ff3c
00000200: b8da c33a 2a73 5d3d 2524 02be 5dc5 273d
00000210: 048a 52be 1ae1 4abe 9610 8cbe 4dbe ed3d
00000220: 0500 7e3d 92a4 35be 2883 60be 02ca b2be
00000230: 4bac babd f0a8 21bc cd15 5e3e 7059 fd3d
00000240: 517b 6b3d be21 c9bd e049 77bd 7951 a73d
00000250: 807f 0ebe 175e 9dbd 47bc 2f3d bf69 f03d
00000260: fff5 113e c293 a7bc 89b7 82bd 585b 97be
00000270: 2893 a5bb 4de8 583e f9c5 db3c ed4e 29be
00000280: eb20 2c3e f5ed 173d 1478 5b3e e6e9 1d3d
00000290: 5b60 3dbd 949e a03d f72b 6a3c fe8d 3f3e
000002a0: f6e2 b23d 64f5 80bd 9154 9dbe c95e 1bbd
000002b0: 9046 79be 6201 c4bd 21a4 dabd 2feb 24bc
000002c0: 5fac c4bd abd6 dc3d 9e82 94be e195 6dbd
000002d0: eaab d8bd 79c8 b53d 9602 083e fc08 8c3c
000002e0: 8f8e 8cbe 1369 4f3d 15c3 5e3e 6813 c7be
000002f0: 526d d3bb fef6 db3d dbdc 943e d0fd d0bd
00000300: 4e21 0bbd cb8a 793e c950 6dbe b1b1 0fbe
00000310: 9c6c 953b bf00 ba3d 91a8 76bd 493a a03d
00000320: 61f0 d9bd 6cb3 65be 49bb ae3d 21f9 21be
00000330: c613 d13c bb1a 84be 8b89 5f3c 92b8 36be
00000340: 78f8 b13d 64e7 d1bd e8d2 8c3e 5367 2fbd
00000350: a0b5 e3bd a563 c43d d783 36be 201e 80be
00000360: 4ef6 d3bc 600a ee3d 922e 40be 1ff2 51be
00000370: 1311 243e 6449 e63d 823c 94bd bf98 db3c
00000380: 0b4c 58be 9ff2 61be 68aa 593d de52 1a3e
00000390: 697e a73d cf35 f23b c57d 31be 037d 8a3e
000003a0: aefe afbd 6249 06be 0793 f9bb 9822 f63d
000003b0: e63d 2dbe d375 163d a878 9a3c 7bb4 f63d
000003c0: 1b4c 2fbd 0192 ce3d 09ff 01be a888 4cbe
000003d0: 608e 403e 78a0 fbbd f42b f33c a36c 013d
000003e0: 7d55 b43d b440 aa3e d55e 28bc 8069 a33d
000003f0: 0bfa c73c ff9e 143e 516e e33d 691c 3abe

conv4.bias f4 [35]
0.015630616 -0.060523227 -0.010859636 -0.049704112 0.021117091 -0.008349283 0.026645642 0.11686088
0.0683843 0.028354194 -0.1912352 -0.00048675147 -0.0014076193 -0.102358624 0.046782892 -0.038153924
-0.0021911296 -0.0028435825 -0.06742772 0.039401818 -0.017262874 0.14026415 -0.058538623 0.006252617
-0.044331715 8.919045e-05 -0.011552226 0.051039636 -0.0030623293 -0.02648884 -0.014279854 0.0008939684
-0.0040938226 0.04845046 0.031475376
00000000: c70b 803c 34e7 77bd 9dec 31bc 8a96 4bbd
00000010: c0fd ac3c 6ecb 08bc f647 da3c c254 ef3d
00000020: 110d 8c3d 0e47 e83c 29d3 43be ad32 ffb9
00000030: de7f b8ba 66a1 d1bd 6b9f 3f3d 4a47 1cbd
00000040: 0e99 0fbb 665b 3abb 8b17 8abd cd63 213d
00000050: df6a 8dbc 68a1 0f3e 32c6 6fbd c1e2 cc3b
00000060: 2c95 35bd c20b bb38 8c45 3dbc f00e 513d
00000070: 5cb1 48bb 20ff d8bc 0cf6 69bc 3459 6a3a
00000080: 7925 86bb fd73 463d 53ec 003d

fc.weight f4 [17, 945]
-0.015986385 0.0051360307 0.012017155 0.015667912 0.005999739 -0.015377245 -0.05145261 -0.04893029
-0.07488864 -0.05975163 -0.0029127894 -0.042566296 0.017461354 0.036621593 0.12019069 -0.082933985
-0.1026038 0.006505403 -0.010111928 -0.035590068 -0.03866989 0.039197583 -0.014706561 0.016651101
0.022700336 -0.040751953 -0.03276809 -0.06830428 0.037872776 -0.049574785 0.024955586 0.034111805
-0.1288709 -0.012831379 -0.063346505 0.034336433 0.02615496 0.04285335 -0.04764461 -0.0058764424
-0.0124671655 -0.010176289 0.018549839 -0.009877714 0.07446743 -0.04491486 -0.006279098 -0.02105997
0.024860783 0.008120687 -0.087474644 0.038418934 0.044968843 0.13025723 0.06238944 -0.031091718
-0.024335025 -0.020450266 -0.06419435 -0.08463093 0.00958954 -0.033833943 -0.03083727 -0.0014600102
0.06486288 -0.007802043 -0.015887713 0.043905348 -0.008696724 -0.008604475 -0.01789961 0.036887843
0.004048706 0.0095772 0.05788462 -0.0017087035 0.0071398322 -0.01860659 -0.05007403 -0.05579719
0.048966914 0.045391146 0.0192865 -0.009436317 -0.025383 -0.004845131 0.0069170087 0.011819103
-0.00032504025 0.024585966 0.09362443 0.015827363 -0.041820887 0.033219546 0.06717918 -0.026850197
-0.059633255 0.019335441 0.07135717 -0.0051360563 0.04136316 -0.07873975 -0.051041245 -0.0153274955
0.006253074 -0.04422785 -0.024095891 -0.08680229 -0.054087 0.013268054 0.023459274 0.086494
0.020756265 -0.0027902867 0.071743764 0.12493923 0.02213779 0.06060889 -0.102571346 0.029753149
0.05214887 -0.113375925 0.064007215 0.010356341 0.021724759 -0.029099913 0.0298003 0.0058158957
0.11338796 -0.050819337 0.034243982 -0.05302182 0.0880739 -0.03095149 0.024476115 0.017993907
0.044567555 -0.020653848 0.027801722 -0.075220205 -0.049067434 -0.0017121753 0.081162944 -0.08567607
0.041117545 -0.08362901 0.0435709 0.023853708 -0.075623006 0.0043711704 0.018672023 -0.008732892
-0.08975919 0.009657238 -0.009112477 -0.009844396 0.014521752 0.04043258 0.01884534 0.024468388
0.020466197 0.048500553 0.07852827 0.012231876 0.057871167 -0.028924653 0.0026573148 0.03716402
-0.029370047 0.05166986 -0.021205414 -0.094394594 -0.006225173 0.038974054 -0.006931878 -0.031786174
-0.013456172 0.018703744 0.0022024566 -0.03353915 0.062159434 0.07268589 -0.010898165 -0.024353703
0.019067265 0.023206243 0.024803123 0.011238325 -0.097218215 0.04434755 -0.07368459 0.029152784
-0.09657787 0.046803165 0.03356764 -0.03543793 -0.056676146 0.025963942 -0.020137528 0.014620871
-0.0009045191 -0.005036652 0.06941077 0.03530542 -0.028252367 -0.022576736 -0.03235967 -0.030440638
-0.037534535 -0.033696994 0.040082663 0.009768542 0.0034027747 -0.029718 -0.012523855 0.04744018
0.031109413 -0.034685332 -0.041507613 -0.02308478 0.0071889353 -0.014595225 0.057239767 -0.07708915
-0.06075577 0.02134176 -0.058017496 -0.04763324 0.057872538 0.009265459 -0.02107634 -0.029661965
0.04969553 -0.024599256 -0.0163076 0.08392818 0.02362713 -0.016566137 -0.035095815 -0.033416968
-0.024236469 0.024348753 -0.038792882 -0.023048984 -0.020860385 -0.037807766 -0.026039949 0.07055613
0.054578118 -0.0031110644 -0.043765 -0.0047382438 -0.005405228 -0.08658387 -0.01875407 -0.032796096
00000000: e1f5 82bc 264c a83b 9ae3 443c fe59 803c
00000010: 7599 c43b d7f0 7bbc f9bf 52bd 216b 48bd
00000020: 375f 99bd 20be 74bd 7fe4 3ebb ff59 2ebd
00000030: 1d0b 8f3c 8600 163d 8926 f63d 4bd9 a9bd
00000040: f121 d2bd 472b d53b 80ac 25bc e4c6 11bd
00000050: 5264 1ebd a58d 203d caf3 70bc e467 883c
00000060: 0ef6 b93c 85eb 26bd d537 06bd 1de3 8bbd
00000070: 7c20 1b3d ee0e 4bbd a86f cc3c d2b8 0b3d
00000080: bcf6 03be b43a 52bc d0bb 81bd 5ca4 0c3d
00000090: ed42 d63c ff86 2f3d ff26 43bd 2c8f c0bb
000000a0: 1543 4cbc 73ba 26bc d5f5 973c 23d6 21bc
000000b0: 6182 983d a5f8 37bd e4c0 cdbb f585 acbc
000000c0: d7a8 cb3c a10c 053c e825 b3bd 2c5d 1d3d
000000d0: 4031 383d 2762 053e 128c 7f3d 0fb4 febc
000000e0: 3f5a c7bc 5187 a7bc 5478 83bd fb52 adbd
000000f0: 721d 1d3c 7695 0abd 719e fcbc d05d bfba
00000100: d4d6 843d 48a8 ffbb f326 82bc 18d6 333d
00000110: b47c 0ebc c9f9 0cbc 34a2 92bc b517 173d
00000120: 02ab 843b b0e9 1c3c 6c18 6d3d 93f6 dfba
00000130: 41f5 e93b d96c 98bc 6d1a 4dbd 988b 64bd
00000140: 8891 483d 11ec 393d b9fe 9d3c c89a 1abc
00000150: 02f0 cfbc e8c3 9ebb 13a8 e23b e9a4 413c
00000160: 2a6a aab9 8268 c93c 2abe bf3d 63a8 813c
00000170: 614c 2bbd 3811 083d 3d95 893d f2f4 dbbc
00000180: 0042 74bd 5c65 9e3c b523 923d 5d4c a8bb
00000190: 6b6c 293d 4e42 a1bd a010 51bd 2d20 7bbc
000001a0: 96e6 cc3b 4328 35bd bf64 c5bc 66c5 b1bd
000001b0: 558a 5dbd 4162 593c aa2d c03c c423 b13d
000001c0: 0b09 aa3c 3edd 36bb 65ee 923d 24e0 ff3d
000001d0: 505a b53c 0741 783d ed10 d2bd e0bc f33c
000001e0: 0e9a 553d a331 e8bd 3716 833d a4ad 293c
000001f0: 1ff8 b13c f162 eebc c21f f43c 4593 be3b
00000200: f237 e83d f027 50bd 6b43 0c3d 682d 59bd
00000210: 1760 b43d fb8d fdbc 2282 c83c f567 933c
00000220: 788c 363d 4232 a9bc 70c0 e33c 0d0d 9abd
00000230: effa 48bd 126b e0ba c238 a63d ef76 afbd
00000240: df6a 283d b045 abbd 6677 323d da68 c33c
00000250: 3ce0 9abd 093c 8f3b 12f6 983c 6714 0fbc
00000260: abd3 b7bd 6439 1e3c 804c 15bc 644a 21bc
00000270: a4ec 6d3c a29c 253d 8b61 9a3c ee71 c83c
00000280: baa8 a73c 84a8 463d 6ed3 a03d 3568 483c
00000290: 510a 6d3d 65f3 ecbc 5826 2e3b 4d39 183d
000002a0: 7499 f0bc c6a3 533d fab6 adbc f451 c1bd
000002b0: 89fc cbbb 42a3 1f3d cf24 e3bb 3832 02bd
000002c0: 4777 5cbc 9838 993c 1757 103b 5960 09bd
000002d0: e49a 7e3d 57dc 943d 388e 32bc 6b81 c7bc
000002e0: f432 9c3c 051b be3c eb2f cb3c f420 383c
000002f0: 581a c7bd c7a5 353d f2e7 96bd d2d1 ee3c
00000300: 9eca c5bd adb4 3f3d 397e 093d 5d27 11bd
00000310: 3f25 68bd 55b2 d43c 75f7 a4bc 618c 6f3c
00000320: 401d 6dba 800a a5bb 3c27 8e3d 6b9c 103d
00000330: 8271 e7bc d9f2 b8bc 938b 04bd a55e f9bc
00000340: d0bd 19bd dc05 0abd b82d 243d 3c0c 203c
00000350: 1601 5f3b 2a73 f3bc db30 4dbc a250 423d
00000360: 2bd9 fe3c 3512 0ebd e303 2abd 4b1c bdbc
00000370: 2991 eb3b d020 6fbc 3f74 6a3d ebe0 9dbd
00000380: 0bdb 78bd ead4 ae3c c1a3 6dbd 131b 43bd
00000390: c10b 6d3d 27ce 173c 4aa8 acbc a6fd f2bc
000003a0: 8a8d 4b3d 6184 c9bc 8497 85bc 8ae2 ab3d
000003b0: af8d c13c b5b5 87bc a1c0 0fbd 3be0 08bd
000003c0: 8f8b c6bc 0977 c73c 49e5 1ebd 39d1 bcbc
000003d0: 66e3 aabc 51dc 1abd bb51 d5bc bb7f 903d
000003e0: 4e8d 5f3d 00e3 4bbb ee42 33bd 4543 9bbb
000003f0: 571e b1bb e252 b1bd 23a2 99bc 3355 06bd

fc.bias f4 [17]
-0.010611069 -0.10825127 -0.045154404 -0.0077961106 0.04367246 0.036458798 -0.063618496 0.048339337
0.04532095 -0.049865462 -0.0425225 -0.021899426 0.020726755 0.010857106 -0.0039184783 0.08561385
0.062648885
00000000: 0dda 2dbc d8b2 ddbd d3f3 38bd 8476 ffbb
00000010: e5e1 323d d255 153d 6a4a 82bd 78ff 453d
00000020: 76a2 393d ba3f 4cbd 132c 2ebd 6d66 b3bc
00000030: 28cb a93c 01e2 313c 9466 80bb 5056 af3d
00000040: 0f4e 803d
