checkpoints/mou_et_al/no_class_balancing/IndianPines_FastICA_8/epoch2_0.52.pth (torch, 65520 bytes, 10 tensors)

gru.weight_ih_l0 f4 [192, 8]
0.0042668227 0.14247312 -0.02028992 0.03828582 0.027970899 0.05182577 -0.034996357 0.016287375
-0.03095603 -0.050827146 0.07675545 -0.008915084 -0.12049318 -0.10516131 0.0045276936 0.009897821
0.081515 -0.014917733 0.03852788 -0.019271294 0.09935337 -0.037375465 0.017469462 0.085414864
0.1461476 -0.028540403 0.023850454 0.111339316 -0.05026673 0.13421029 0.11873747 0.09965472
0.026411816 0.13361478 0.12936938 0.06718335 0.01773679 -0.09611899 0.13770661 -0.017328111
-0.14321601 -0.09511961 -0.005203751 -0.022088837 -0.02554356 0.07074784 -0.1208423 0.020367067
0.0015716088 -0.030273674 -0.008567746 0.09559498 0.007391558 0.089436576 0.02355109 0.09703511
0.14547598 0.11111348 0.032315664 0.17101817 0.1749538 0.039044026 0.14059061 -0.03143028
0.10393335 0.056158718 -0.044496488 0.12951763 0.15457311 -0.009569339 -0.018388988 0.14111751
0.007238108 0.06263582 0.036815032 0.12982258 -0.010807588 0.092242025 -0.0052550514 0.08299623
-0.15008533 0.0012314977 -0.100355566 0.0853076 0.007981094 -0.06840538 0.05972981 -0.07389264
0.07892086 -0.028107544 0.17883809 0.16398561 0.012193075 0.16704921 -0.037388533 0.12873223
-0.036067564 0.043925144 0.0776797 0.006606714 0.0033595918 -0.10635579 0.0056195455 -0.13843726
-0.002023911 0.07095703 0.11557487 0.11221708 0.16719574 0.102081746 0.14989603 0.029033845
-0.031995084 0.023031963 0.16936955 0.110845014 0.026542949 0.16937438 0.019391565 0.15635933
0.027277801 -0.020262862 0.081975184 -0.011316027 0.103653654 -0.09874172 0.08091528 -0.08238833
-0.0331118 -0.0028470298 -0.07952545 0.012226222 0.02537919 0.13972941 0.07867992 0.13552101
0.019764828 -0.17754503 -0.009983244 -0.08211342 -0.04364408 -0.1929274 -0.046606313 -0.13407534
-0.0027468405 -0.13495046 0.079386435 0.085022956 0.0212364 -0.016027274 -0.03363664 -0.13230361
0.16071595 0.0064165923 0.068631314 0.21859975 0.22344257 0.20927233 0.1883623 0.21535031
0.105847396 -0.11562306 0.022360485 -0.06475199 -0.07937666 0.027576808 -0.06366339 0.103425466
0.18181156 0.02507223 0.07843257 0.15806776 0.18995832 0.16831852 0.18573545 0.02673762
0.072171755 0.24125692 0.11068011 0.17451371 0.25250998 0.045460016 0.059400994 0.14706863
-0.16242602 -0.011442067 -0.016711127 -0.13317814 0.03118686 -0.046334956 -0.100795485 0.010661712
0.09454824 -0.0067348806 0.11576754 -0.036625933 0.11572318 -0.01674304 0.17146361 -0.004632058
0.005583744 0.11635303 0.023777552 -0.015616885 0.06361219 0.06815014 0.08430163 0.18998195
0.032941073 0.0007317925 -0.053573646 0.07634435 0.038092006 0.04091257 0.120807074 0.034234613
0.08084498 0.103188194 0.029682025 -0.036816772 -0.044071496 0.07945001 0.043577507 0.0353613
0.12024767 0.050800126 0.07934992 0.124303654 -0.039656963 -0.02553191 -0.016909705 0.16819768
-0.06513752 -0.021198578 0.11775979 0.15613835 0.16824374 0.17484589 0.073128246 0.07647688
-0.007869667 0.02414032 -0.06062102 0.06648549 0.0077808723 0.0033342403 0.01612379 0.0062912176
-0.034740888 0.075482056 0.0070748576 -0.067251414 -0.08411146 0.10966936 -0.02621605 -0.03212397
00000000: b4d0 8b3b 79e4 113e 0c37 a6bc 98d1 1c3d
00000010: 3a23 e53c 4247 543d 5758 0fbd 1a6d 853c
00000020: 8097 fdbc 2030 50bd f631 9d3d 9310 12bc
00000030: 21c5 f6bd d05e d7bd 0c5d 943b 782a 223c
00000040: 56f1 a63d 8269 74bc 69cf 1d3d d5de 9dbc
00000050: c879 cb3d 0417 19bd 1e1c 8f3c fded ae3d
00000060: b7a7 153e 90cd e9bc 0762 c33c de05 e43d
00000070: 7de4 4dbd 6c6e 093e a12c f33d c617 cc3d
00000080: 985d d83c 50d2 083e 6879 043e 6d97 893d
00000090: bf4c 913c 08da c4bd f602 0d3e aff3 8dbc
000000a0: 38a7 12be 12ce c2bd 3a84 aabb a6f3 b4bc
000000b0: ba40 d1bc 3ee4 903d 2b7c f7bd d6d8 a63c
000000c0: 71fe cd3a 7f00 f8bc bb5f 0cbc 4dc7 c33d
000000d0: e234 f23b 862a b73d 37ee c03c 58ba c63d
000000e0: a8f7 143e 778f e33d 6e5d 043d 631f 2f3e
000000f0: 1727 333e a1ec 1f3d fcf6 0f3e 0abd 00bd
00000100: 02db d43d af06 663d f341 36bd 45a0 043e
00000110: 6a48 1e3e b8c8 1cbc 81a4 96bc 1c81 103e
00000120: a72d ed3b 3547 803d 5ccb 163d 36f0 043e
00000130: 4f12 31bc 63e9 bc3d 9132 acbb edf9 a93d
00000140: f8af 19be 356a a13a 3887 cdbd c0b5 ae3d
00000150: 22c3 023c 1f18 8cbd 3fa7 743d 0655 97bd
00000160: 43a1 a13d cb41 e6bc 5521 373e d8eb 273e
00000170: 77c5 473c f30e 2b3e b824 19bd 62d2 033e
00000180: 95bb 13bd daea 333d 8916 9f3d 227d d83b
00000190: 992c 5c3b 10d1 d9bd 2a24 b83b 7fc2 0dbe
000001a0: 98a3 04bb eb51 913d 84b2 ec3d 12d2 e53d
000001b0: 5c35 2b3e 3c10 d13d 587e 193e 63d8 ed3c
000001c0: 470d 03bd 87ad bc3c 366f 2d3e b602 e33d
000001d0: 9970 d93c 7a70 2d3e 0fdb 9e3c a91c 203e
000001e0: b275 df3c 4dfe a5bc 9be2 a73d db66 39bc
000001f0: 5e48 d43d 1939 cabd e9b6 a53d 36bb a8bd
00000200: 3da0 07bd 3c95 3abb 3dde a2bd 7e50 483c
00000210: 05e8 cf3c 3a15 0f3e f022 a13d 05c6 0a3e
00000220: d9e9 a13c 5dce 35be c390 23bc 152b a8bd
00000230: 23c4 32bd c38e 45be 43e6 3ebd 0c4b 09be
00000240: 5604 34bb 7430 0abe 5b95 a23d 8420 ae3d
00000250: f5f7 ad3c a14b 83bc 93c6 09bd 997a 07be
00000260: b992 243e 4742 d23b 938e 8c3d 9dd8 5f3e
00000270: 21ce 643e 7c4b 563e 0ce2 403e cb84 5c3e
00000280: 85c6 d83d c8cb ecbd 562d b73c b19c 84bd
00000290: 3b90 a2bd c2e8 e13c f461 82bd bbd0 d33d
000002a0: cf2c 3a3e 4764 cd3c 41a1 a03d 84dc 213e
000002b0: 6f84 423e b15b 2c3e 6f31 3e3e da08 db3c
000002c0: c9ce 933d 0e0c 773e 41ac e23d b9b3 323e
000002d0: fd48 813e 4834 3a3d 754e 733d 2999 163e
000002e0: 0253 26be 8277 3bbc c6e5 88bc da5f 08be
000002f0: 967b ff3c b9c9 3dbd dd6d cebd 76ae 2e3c
00000300: 82a2 c13d 46b0 dcbb 8817 ed3d 1305 16bd
00000310: 4600 ed3d b328 89bc 2894 2f3e 85c8 97bb
00000320: d7f7 b63b 7f4a ee3d 24c9 c23c f7dd 7fbc
00000330: 1c47 823d 4d92 8b3d 55a6 ac3d a18a 423e
00000340: 38ed 063d c3d5 3f3a 0a70 5bbd 6d5a 9c3d
00000350: 5d06 1c3d f093 273d b369 f73d 9839 0c3d
00000360: 0e92 a53d 5554 d33d b827 f33c 2fcd 16bd
00000370: 5084 34bd b0b6 a23d 547e 323d 03d7 103d
00000380: 6944 f63d cb13 503d 3682 a23d ea92 fe3d
00000390: 576f 22bd 4c28 d1bc 3986 8abc 033c 2c3e
000003a0: d266 85bd a4a8 adbc 0b2c f13d bbe2 1f3e
000003b0: 1648 2c3e cd0a 333e 43c4 953d e99f 9c3d
000003c0: c7ef 00bc ecc1 c53c bf4d 78bd 8b29 883d
000003d0: b0f6 fe3b 4583 5a3b 0a16 843c 8f26 ce3b
000003e0: 764c 0ebd 5696 9a3d 35d4 e73b 1cbb 89bd
000003f0: a142 acbd 549a e03d 0bc3 d6bc 6d94 03bd

gru.weight_hh_l0 f4 [192, 64]
0.069503315 -0.14990553 -0.1209861 0.13633403 0.049246762 -0.021123437 -0.07881148 0.05929843
0.024082864 -0.047586832 0.0104677435 -0.048832763 0.080377385 -0.07728644 -0.10776327 -0.20704296
-0.115294226 0.06288116 -0.16720083 0.14426893 -0.055487104 0.03476162 0.08561897 0.049063873
-0.13271905 0.087861426 -0.17742872 -0.006242415 -0.042300418 -0.07495136 0.07866941 -0.10105489
-0.0058076973 -0.024452621 -0.11213359 0.024575226 0.03840444 0.14858612 0.088369355 0.118703336
-0.0756199 -0.041653924 0.094831474 0.066658884 -0.020875141 -0.0024586571 -0.09418148 0.09314441
0.008852957 0.12214462 0.16578421 0.04815738 -0.054063074 0.074608415 -0.01599677 -0.059417766
0.055072874 -0.19461425 -0.090045065 0.010720956 -0.09379871 -0.007913376 0.014926518 -0.13607702
0.16851579 0.18381119 0.025904384 -0.08607214 -0.08712041 -0.040652476 0.019824624 -0.032337144
0.030250177 0.010107968 0.15413576 0.12318526 0.052357845 0.18824868 0.0439699 0.0492532
0.099683434 0.00956741 -0.05640075 -0.0076176645 -0.0037480607 0.013328509 -0.08735039 -0.03725489
0.14236376 0.029864151 0.14709349 0.074367374 0.06722725 0.062119737 -0.060809713 0.12975942
-0.01908469 0.18678689 0.17016603 0.14093776 0.09278318 0.034315024 -0.13448283 0.055888925
-0.08296713 0.06793613 -0.15489487 0.069444254 -0.11850348 -0.044106536 0.048220843 0.12433672
0.09503324 0.06170651 -0.08893954 0.17800133 -0.07609185 -0.013828866 -0.07188392 0.11334146
-0.072877094 0.06619999 0.10798431 -0.034049183 0.009629101 0.0137923 0.15543416 -0.026354896
0.14379442 0.15587983 0.0119089335 -0.06906229 0.014923417 -0.04296363 -0.015217581 -0.0417388
0.12569045 -0.07369692 -0.083485335 -0.028797114 0.09212622 0.09116081 -0.08318161 -0.16091329
0.08745098 0.004152813 -0.01512762 0.041317217 0.091810405 0.062491287 0.054259032 0.015290347
0.17560391 -0.2617599 0.0046605156 -0.047452938 0.11089624 0.05069669 0.074518815 0.14836241
-0.10996181 -0.018269261 0.1408351 0.072864376 -0.101134606 -0.031328157 -0.1311188 0.032819632
-0.04445614 -0.1376966 0.022900488 -0.04193423 0.05657132 0.037366852 0.007413638 -0.11080371
-0.09564004 0.027308188 -0.013453838 0.031353194 0.095556445 0.027105073 0.0021882786 -0.027027467
-0.17484348 0.08410653 -0.07145726 0.05858268 0.06741138 -0.033725563 0.22314452 0.005351051
-0.011749552 0.04835976 -0.07930774 -0.0067115095 0.11439756 -0.19959956 0.06293801 -0.14397526
0.001238584 0.0910902 -0.13866042 0.06227106 -0.14333244 -0.00011588005 0.023764424 -0.15671954
0.10213213 0.05629707 -0.015618482 0.18168034 -0.01830269 -0.086305365 0.15113454 0.009449523
0.089808345 -0.02444627 -0.10157325 -0.17470925 0.081177086 -0.23587662 0.09422945 0.08252683
0.027765302 0.06984316 0.10785088 -0.10628604 -0.13847424 0.13674957 0.05239297 -0.16518278
0.008630471 -0.15826067 0.07208032 0.022440683 -0.0056884033 -0.08101257 -0.12654996 0.06502636
0.09891302 0.019644644 0.16736771 -0.009517522 0.118521184 0.013390001 -0.102634214 -0.06537436
-0.070785135 -0.026617603 -0.15588638 -0.19936249 0.019585382 0.039191592 0.20305613 0.10804017
00000000: c157 8e3d d680 19be 8fc7 f7bd 269b 0b3e
00000010: f9b6 493d 0f0b adbc ea67 a1bd e9e2 723d
00000020: 6d49 c53c 69ea 42bd e680 2b3c dd04 48bd
00000030: e69c a43d 5a48 9ebd fdb2 dcbd 1203 54be
00000040: 611f ecbd d6c7 803d b236 2bbe 3cbb 133e
00000050: 7246 63bd 3362 0e3d 0059 af3d 33f7 483d
00000060: 81e7 07be b1f0 b33d e0af 35be 2c8d ccbb
00000070: 3443 2dbd 1980 99bd 6d1d a13d def5 cebd
00000080: 7f4e bebb dd50 c8bc 4ca6 e5bd fc51 c93c
00000090: f94d 1d3d f626 183e fefa b43d bc1a f33d
000000a0: 9bde 9abd 4e9d 2abd 0137 c23d 7484 883d
000000b0: 5802 abbc 6c21 21bb 38e2 c0bd 7fc2 be3d
000000c0: fe0b 113c f526 fa3d 56c3 293e ac40 453d
000000d0: 3e71 5dbd 4ccc 983d a80b 83bc 0b60 73bd
000000e0: 1894 613d f548 47be 8c69 b8bd f3a6 2f3c
000000f0: 8a19 c0bd 1ba7 01bc 5b8e 743c c657 0bbe
00000100: 678f 2c3e 0039 3c3e 6e35 d43c 9746 b0bd
00000110: 2f6c b2bd 3683 26bd 4067 a23c f473 04bd
00000120: 38cf f73c e49b 253c c4d5 1d3e 8e48 fc3d
00000130: 2e75 563d 43c4 403e c819 343d b9bd 493d
00000140: d426 cc3d a0c0 1c3c 7904 67bd 9a9d f9bb
00000150: 06a2 75bb d25f 5a3c c3e4 b2bd 9598 18bd
00000160: cec7 113e aaa5 f43c ad9f 163e ec4d 983d
00000170: 71ae 893d 4471 7e3d 9b13 79bd a7df 043e
00000180: 7f57 9cbc 1045 3f3e 0140 2e3e fd51 103e
00000190: 1c05 be3d e98d 0c3d deb5 09be c9eb 643d
000001a0: acea a9bd 1922 8b3d c39c 1ebe ca38 8e3d
000001b0: f4b1 f2bd 0ea9 34bd 3883 453d 40a4 fe3d
000001c0: caa0 c23d f7bf 7c3d ef25 b6bd fb45 363e
000001d0: 0bd6 9bbd 7892 62bc e037 93bd 911f e83d
000001e0: 9640 95bd dc93 873d e126 dd3d 2877 0bbd
000001f0: 60c3 1d3c 19f9 613c 222a 1f3e 39e6 d7bc
00000200: d83e 133e f69e 1f3e b01d 433c 8870 8dbd
00000210: 5981 743c a2fa 2fbd 2953 79bc 4ef6 2abd
00000220: ffb4 003e 69ee 96bd 5cfa aabd ede7 ebbc
00000230: acac bc3d 85b2 ba3d 1f5b aabd 74c6 24be
00000240: 8019 b33d 5214 883b d6d9 77bc 3e3c 293d
00000250: 1807 bc3d ddf6 7f3d b83e 5e3d 5d84 7a3c
00000260: 83d1 333e 6505 86be 3db7 983b 035e 42bd
00000270: 911d e33d 55a7 4f3d 529d 983d 51ec 173e
00000280: a833 e1bd 6ba9 95bc 1437 103e eb39 953d
00000290: a91f cfbd f451 00bd 0244 06be e16d 063d
000002a0: a417 36bd 5600 0dbe ce99 bb3c 3ac3 2bbd
000002b0: 54b7 673d fc0d 193d 1aee f23b 0eed e2bd
000002c0: edde c3bd 6cb5 df3c 7d6d 5cbc 356c 003d
000002d0: 19b3 c33d 750b de3c 3969 0f3b b568 ddbc
000002e0: 2b0a 33be 0b40 ac3d 2f58 92bd 64f4 6f3d
000002f0: fa0e 8a3d d123 0abd ff7f 643e df57 af3b
00000300: 3181 40bc e214 463d 196c a2bd 39ec dbbb
00000310: 4549 ea3d d463 4cbe a5e5 803d 406e 13be
00000320: fc57 a23a 808d ba3d fffc 0dbe f00f 7f3d
00000330: bdc5 12be a104 f3b8 9cad c23c 167b 20be
00000340: a62a d13d c297 663d a9e4 7fbc 690a 3a3e
00000350: 86ef 95bc dec0 b0bd 03c3 1a3e 2cd2 1a3c
00000360: 70ed b73d 8b43 c8bc a305 d0bd fbe6 32be
00000370: 2c40 a63d a489 71be 5ffb c03d d403 a93d
00000380: 0f74 e33c ee09 8f3d ece0 dc3d 7fac d9bd
00000390: 31cc 0dbe 1408 0c3e 039a 563d ad25 29be
000003a0: d266 0d3c 160f 22be d99e 933d 86d5 b73c
000003b0: c965 babb ebe9 a5bd 5096 01be 8a2c 853d
000003c0: e992 ca3d ceed a03c 7162 2b3e 61ef 1bbc
000003d0: 3cbb f23d bc61 5b3c e331 d2bd fee2 85bd
000003e0: ccf7 90bd 290d dabc aea0 1fbe ae25 4cbe
000003f0: 8671 a03c 5d87 203d f2ed 4f3e 2a44 dd3d

gru.bias_ih_l0 f4 [192]
0.09903557 0.05110901 0.11795721 0.12947623 -0.0055133225 -0.023668611 0.06267728 0.02028274
0.055375855 0.049360804 0.091061726 -0.028492631 0.074479125 -0.08834363 0.16090263 0.08673174
0.0075284834 0.089559086 0.09442065 0.0068865027 0.1805207 0.01920653 0.027998801 0.10304642
0.0448327 0.038476966 0.01674619 -0.058812194 0.122761026 -0.06615222 -0.1579259 -0.054390956
-0.022543572 0.14411694 -0.04181471 0.06767472 0.033139832 0.14143391 -0.0034187415 -0.0012396164
0.022814719 0.0011018278 0.100745976 0.07069461 0.1335539 0.02687007 0.0972623 -0.036794174
-0.04554387 -0.07713467 -0.09808741 -0.024304833 0.075262964 0.08535225 -0.09547021 0.08240741
-0.027187107 0.13908477 0.1613957 0.028720094 0.08348974 -0.027744535 0.0098119965 -0.08510956
-0.01612792 0.05376841 0.12016778 0.09872918 0.13777761 0.061387014 0.011448507 -0.08032344
0.032087978 0.28420305 0.01775356 0.11948857 -0.08558408 0.06912465 0.05598018 0.09354851
0.06116226 0.031221604 0.12996367 -0.061520044 0.016180916 -0.10848743 -0.03415889 -0.021422382
0.047150325 0.1418663 0.06255871 0.11696483 0.19325122 0.052666552 -0.15761733 -0.10194935
0.029846512 0.14318672 0.019506494 0.14976957 -0.048404455 0.028441181 -0.0122233005 -0.11948001
0.0641136 0.046624217 0.04193084 0.09640141 -0.20885402 0.12928042 0.09420031 0.123072214
0.10528163 0.10228858 0.10399653 -0.026984196 0.04219355 -0.041749917 0.09310128 0.1545006
0.0929993 0.04568196 0.21544647 0.03561108 0.099434525 0.23460063 -0.034366302 0.111343406
0.036842894 -0.01941779 -0.07113058 -0.11145108 0.10696024 -0.012436057 0.038739868 0.14523642
-0.055529594 0.09064532 0.01523449 0.11343499 -0.12107531 0.05054748 0.1447001 -0.14075786
0.024154576 0.06338209 -0.16450396 0.13345338 -0.086606234 0.14286228 0.092475645 -0.06725438
0.12311323 -0.051590573 0.09428371 0.10740409 0.04450226 0.00506271 0.07934746 0.0140674105
0.049747046 -0.068448626 0.01101673 -0.079515666 -0.10323842 0.10051082 0.02537255 0.07982377
-0.011452215 -0.08807229 0.042139318 -0.05867693 0.022553174 0.037305716 -0.07740095 -0.10994406
0.105735615 -0.07353587 -0.069062024 0.051953923 -0.10507306 0.0037594389 -0.15241352 -0.11368086
0.06459451 0.12415689 0.05322321 0.035054926 -0.016445737 0.09015387 0.0016010393 0.0047160257
00000000: 29d3 ca3d ae57 513d 8d93 f13d 6b95 043e
00000010: 1aa9 b4bb ade4 c1bc f25c 803d fd27 a63c
00000020: cbd1 623d 8e2e 4a3d 927e ba3d 6169 e9bc
00000030: 8388 983d 81ed b4bd a9c3 243e 69a0 b13d
00000040: 7fb1 f63b c16a b73d 9d5f c13d 2ca8 e13b
00000050: 6bda 383e 0357 9d3c be5d e53c 000a d33d
00000060: 7ea2 373d 069a 1d3d 4e2f 893c 0ee5 70bd
00000070: 226a fb3d d17a 87bd 54b7 21be 0dc9 5ebd
00000080: 4cad b8bc 6493 133e e745 2bbd 0b99 8a3d
00000090: a2bd 073d 0dd4 103e f70c 60bb a07a a2ba
000000a0: efe5 ba3c 356b 903a e853 ce3d 56c8 903d
000000b0: 5bc2 083e 9f1e dc3c 7531 c73d 7db5 16bd
000000c0: 368c 3abd c8f8 9dbd 0de2 c8bd ee1a c7bc
000000d0: 7823 9a3d 29cd ae3d e385 c3bd 37c5 a83d
000000e0: 7fb7 debc 3d6c 0e3e ea44 253e 6746 eb3c
000000f0: abfc aa3d 8248 e3bc 7fc2 203c ec4d aebd
00000100: b31e 84bc 443c 5c3d 861a f63d 8632 ca3d
00000110: 9315 0d3e f370 7b3d 8592 3b3c 9e80 a4bd
00000120: af6e 033d 1083 913e ea6f 913c 6cb6 f43d
00000130: b546 afbd 3991 8d3d 794b 653d 5c96 bf3d
00000140: 4785 7a3d 73c4 ff3c 3215 053e 71fc 7bbd
00000150: d78d 843c a82e debd 31ea 0bbd fe7d afbc
00000160: b320 413d 6645 113e c81e 803d 428b ef3d
00000170: a6e3 453e e2b8 573d 7066 21be d2ca d0bd
00000180: ac80 f43c 8a9f 123e 15cc 9f3c 325d 193e
00000190: c043 46bd 7bfd e83c 3d44 48bc efb1 f4bd
000001a0: fe4d 833d 09f9 3e3d acbf 2b3d 1a6e c53d
000001b0: d4dd 55be 1662 043e 18ec c03d 490d fc3d
000001c0: e59d d73d ad7c d13d 22fc d43d f60d ddbc
000001d0: 25d3 2c3d f601 2bbd e2ab be3d 6835 1e3e
000001e0: 6b76 be3d 021d 3b3d 009e 5c3e ecdc 113d
000001f0: 54a4 cb3d 263b 703e aec3 0cbd 0308 e43d
00000200: 93e8 163d 0f12 9fbc e9ac 91bd 7740 e4bd
00000210: f80d db3d 9bc0 4bbc b2ad 1e3d dbb8 143e
00000220: 0073 63bd 41a4 b93d 159a 793c 9b50 e83d
00000230: 55f6 f7bd e00a 4f3d 432c 143e d422 10be
00000240: d1df c53c 78ce 813d ba73 28be 01a8 083e
00000250: 9c5e b1bd 7d4a 123e df63 bd3d aabc 89bd
00000260: ca22 fc3d a350 53bd d117 c13d adf6 db3d
00000270: 0048 363d 17e5 a53b ec80 a23d ff7a 663c
00000280: 8fc3 4b3d cb2e 8cbd 847f 343c 1cd9 a2bd
00000290: aa6e d3bd 9ed8 cd3d 18da cf3c a57a a33d
000002a0: 12a2 3bbc 3f5f b4bd 479a 2c3d 3857 70bd
000002b0: 6fc1 b83c e1cd 183d 6484 9ebd 5a2a e1bd
000002c0: ea8b d83d f999 96bd 6470 8dbd a3cd 543d
000002d0: 8b30 d7bd eb60 763b 4a12 1cbe 83d1 e8bd
000002e0: 204a 843d f845 fe3d 9500 5a3d c195 0f3d
000002f0: 36b9 86bc 98a2 b83d f7d9 d13a e488 9a3b

gru.bias_hh_l0 f4 [192]
0.014891268 0.09901058 0.1727478 0.075207874 -0.07937259 0.08207762 0.0692354 -0.06279504
-0.012666639 0.013343492 0.027463531 -0.012510638 -0.10733516 0.074252516 -0.043186624 -0.035022143
-0.008608299 0.004468935 -0.010706338 0.17640647 0.11797584 0.052443493 0.2152471 -0.004820657
0.0072659287 0.110882334 0.0990781 0.06261084 -0.021997731 0.045561977 -0.057217844 0.0796936
0.0719551 -0.104981035 -0.012877792 -0.012583598 -0.03618751 0.11101741 0.1675802 0.17338495
-0.0019919088 -0.014793297 0.17879933 -0.012428319 0.0075065857 0.029181572 -0.0025571932 0.005714184
-0.07829129 0.11795444 0.14421815 0.098547176 0.0063052406 0.01024978 0.06024147 -0.031405654
0.14226972 0.131471 0.009326012 -0.053268004 0.022773005 -0.07114945 -0.019660952 -0.06937289
0.04709297 0.07472403 0.20765804 0.076419786 0.0051523577 0.045008678 -0.042441357 -0.082827315
0.19100098 0.11019813 -0.00034372837 0.040561117 -0.048609007 0.07014199 0.027230466 0.3315822
0.06089294 0.019193066 0.041313946 0.12266425 0.14199705 0.09474531 -0.11536976 -0.021085165
0.08826958 -0.0059933993 0.050481144 0.0042637764 0.111030735 0.05285541 -0.027447633 0.05917455
0.20934078 0.05417282 0.023880702 0.097357675 0.0038750453 0.07740071 0.15050791 -0.1192677
0.2536715 0.093820125 0.06391239 -0.09355254 -0.23393913 0.24663582 0.123593114 0.21708389
-0.028873086 0.130546 0.15023403 0.11004273 -0.0125672845 0.016352164 -0.100763224 -0.01500941
0.15987104 0.09826126 0.24137856 0.05052886 0.009010259 0.061123524 -0.05328358 -0.057336614
0.012805936 0.03700036 0.01804026 -0.11733786 -0.105639 -0.09530575 0.037670314 -0.031538963
-0.120843105 0.07669746 -0.003199897 0.090938516 0.005842045 0.06277488 0.13526927 -0.028896272
-0.06481862 0.13917089 -0.095135204 0.08954694 -0.058222033 0.090725824 -0.031610657 -0.112524405
-0.07607783 0.11726936 -0.006925642 -0.011231751 -0.06826459 -0.053493988 0.09821424 0.13447301
0.040565554 -0.015534943 0.100541234 0.033065546 0.03529661 -0.117781855 -0.13432698 0.07077387
-0.006084778 0.15250339 0.0055983304 -0.022667287 -0.09686947 0.0043668984 0.034164432 -0.018943477
0.027462525 0.12889351 0.008378823 -0.062273253 -0.042738326 0.047494084 0.028971901 0.05326578
-0.07023987 0.030545272 -0.076038934 -0.080775626 -0.0107368855 0.05073245 -0.041679837 0.009423183
00000000: 81fa 733c 0fc6 ca3d cde4 303e 9606 9a3d
00000010: 198e a2bd 5018 a83d 4acb 8d3d b09a 80bd
00000020: bc87 4fbc a99e 5a3c 33fb e03c 6bf9 4cbc
00000030: 89d2 dbbd b411 983d 75e4 30bd 6173 0fbd
00000040: d309 0dbc 2570 923b a369 2fbc e6a3 343e
00000050: 519d f13d fdce 563d bc69 5c3e 9af6 9dbb
00000060: 0717 ee3b 4716 e33d 75e9 ca3d 1d3a 803d
00000070: 9634 b4bc 329f 3a3d 425d 6abd 6636 a33d
00000080: 325d 933d 4c00 d7bd 60fd 52bc 6f2b 4ebc
00000090: 5b39 14bd 195d e33d 259a 2b3e d38b 313e
000000a0: af8a 02bb 965f 72bc 2c17 373e 26a0 4bbc
000000b0: cef9 f53b 310e ef3c 9596 27bb 0d3e bb3b
000000c0: 2f57 a0bd 1992 f13d ecad 133e 1ad3 c93d
000000d0: 319c ce3b b1ee 273c c2bf 763d 37a3 00bd
000000e0: 27af 113e 55a0 063e 21cc 183c 8d2f 5abd
000000f0: 748e ba3c ceb6 91bd 0110 a1bc 6013 8ebd
00000100: 8fe4 403d ea08 993d 4fa4 543e fa81 9c3d
00000110: 1cd5 a83b 055b 383d fdd6 2dbd 5ea1 a9bd
00000120: c395 433e 8faf e13d 7136 b4b9 6a23 263d
00000130: 3d1a 47bd 9ba6 8f3d 6d12 df3c 24c5 a93e
00000140: e06a 793d c73a 9d3c d038 293d 6537 fb3d
00000150: ad67 113e d409 c23d fb46 ecbd ccba acbc
00000160: aec6 b43d 4764 c4bb 51c5 4e3d 26b7 8b3b
00000170: 1564 e33d ea7e 583d dcd9 e0bc 0361 723d
00000180: 6e5d 563e 52e4 5d3d 76a1 c33c 7663 c73d
00000190: 79f4 7d3b 4384 9e3d bf1e 1a3e a042 f4bd
000001a0: 3be1 813e c424 c03d 80e4 823d 7998 bfbd
000001b0: bd8d 6fbe 1a8e 7c3e 631e fd3d 3d4b 5e3e
000001c0: 4087 ecbc daad 053e f3d6 193e 155e e13d
000001d0: 03e7 4dbc f9f4 853c f35c cebd 07ea 75bc
000001e0: 3cb5 233e 333d c93d f12b 773e 5af7 4e3d
000001f0: c49f 133c a95c 7a3d e23f 5abd ccd9 6abd
00000200: fdcf 513c b18d 173d 2bc9 933c d54e f0bd
00000210: 4359 d8bd a92f c3bd 304c 1a3d 002f 01bd
00000220: 977c f7bd 8f13 9d3d 5db5 51bb f93d ba3d
00000230: a06e bf3b 1e90 803d 0784 0a3e e0b7 ecbc
00000240: a0bf 84bd d082 0e3e 3fd6 c2bd 6364 b73d
00000250: 3a7a 6ebd 76ce b93d 2d7a 01bd 3273 e6bd
00000260: b1ce 9bbd eb2a f03d 7ff0 e2bb 6105 38bc
00000270: 4ece 8bbd 831c 5bbd 8c24 c93d 4bb3 093e
00000280: 1128 263d 4686 7ebc 90e8 cd3d bd6f 073d
00000290: 2e93 103d 9d37 f1bd 038d 09be e4f1 903d
000002a0: d162 c7bb d929 1c3e 3372 b73b bfb0 b9bc
000002b0: 8063 c6bd 3318 8f3b 01f0 0b3d 5a2f 9bbc
000002c0: 17f9 e03c a9fc 033e 5547 093c 3d12 7fbd
000002d0: 620e 2fbd 2889 423d 7b56 ed3c 382d 5a3d
000002e0: ecd9 8fbd 143a fa3c 4dba 9bbd b16d a5bd
000002f0: c3e9 2fbc d4cc 4f3d 7ab8 2abd b263 1a3c

gru_bn.weight f4 [49]
1.0 1.0 1.0 1.0 1.0 1.0 1.0 1.0
1.0 1.0 1.0 1.0 1.0 1.0 1.0 1.0
1.0 1.0 1.0 1.0 1.0 1.0 1.0 1.0
1.0 1.0 1.0 1.0 1.0 1.0 1.0 1.0
1.0 1.0 1.0 1.0 1.0 1.0 1.0 1.0
1.0 1.0 1.0 1.0 1.0 1.0 1.0 1.0
1.4523357
00000000: 0000 803f 0000 803f 0000 803f 0000 803f
00000010: 0000 803f 0000 803f 0000 803f 0000 803f
00000020: 0000 803f 0000 803f 0000 803f 0000 803f
00000030: 0000 803f 0000 803f 0000 803f 0000 803f
00000040: 0000 803f 0000 803f 0000 803f 0000 803f
00000050: 0000 803f 0000 803f 0000 803f 0000 803f
00000060: 0000 803f 0000 803f 0000 803f 0000 803f
00000070: 0000 803f 0000 803f 0000 803f 0000 803f
00000080: 0000 803f 0000 803f 0000 803f 0000 803f
00000090: 0000 803f 0000 803f 0000 803f 0000 803f
000000a0: 0000 803f 0000 803f 0000 803f 0000 803f
000000b0: 0000 803f 0000 803f 0000 803f 0000 803f
000000c0: 23e6 b93f

gru_bn.bias f4 [49]
0.0 0.0 0.0 0.0 0.0 0.0 0.0 0.0
0.0 0.0 0.0 0.0 0.0 0.0 0.0 0.0
0.0 0.0 0.0 0.0 0.0 0.0 0.0 0.0
0.0 0.0 0.0 0.0 0.0 0.0 0.0 0.0
0.0 0.0 0.0 0.0 0.0 0.0 0.0 0.0
0.0 0.0 0.0 0.0 0.0 0.0 0.0 0.0
0.00084252685
00000000: 0000 0000 0000 0000 0000 0000 0000 0000
00000010: 0000 0000 0000 0000 0000 0000 0000 0000
00000020: 0000 0000 0000 0000 0000 0000 0000 0000
00000030: 0000 0000 0000 0000 0000 0000 0000 0000
00000040: 0000 0000 0000 0000 0000 0000 0000 0000
00000050: 0000 0000 0000 0000 0000 0000 0000 0000
00000060: 0000 0000 0000 0000 0000 0000 0000 0000
00000070: 0000 0000 0000 0000 0000 0000 0000 0000
00000080: 0000 0000 0000 0000 0000 0000 0000 0000
00000090: 0000 0000 0000 0000 0000 0000 0000 0000
000000a0: 0000 0000 0000 0000 0000 0000 0000 0000
000000b0: 0000 0000 0000 0000 0000 0000 0000 0000
000000c0: 05dd 5c3a

gru_bn.running_mean f4 [49]
-0.00044524658 -0.0053256103 -0.012168549 -0.020368692 -0.029176565 -0.0379012 -0.043700892 -0.049127556
-0.054163955 -0.058182072 -0.06132064 -0.063261144 -0.06808883 -0.07116475 -0.074248396 -0.07702628
-0.07951005 -0.08169331 -0.08940102 -0.09449768 -0.10047141 -0.10699544 -0.11352504 -0.11965164
-0.11984248 -0.117798135 -0.116067 -0.113854036 -0.111310825 -0.10859609 -0.10440654 -0.098107785
-0.09246815 -0.087556615 -0.08311065 -0.07788668 -0.07074842 -0.060812272 -0.050720178 -0.04089345
-0.031958185 -0.0240879 -0.017301485 -0.01136738 -0.0071369144 -0.004595013 -0.0039852103 -0.00546847
-0.009001948
00000000: fc6f e9b9 7582 aebb 985e 47bc 3edc a6bc
00000010: b103 efbc 4a3e 1bbd b5ff 32bd fa39 49bd
00000020: 06db 5dbd 5350 6ebd 5a2b 7bbd 0f8f 81bd
00000030: 2872 8bbd d3be 91bd 8b0f 98bd f4bf 9dbd
00000040: 2ad6 a2bd d24e a7bd e217 b7bd 0088 c1bd
00000050: f4c3 cdbd 6d20 dbbd d17f e8bd eb0b f5bd
00000060: f96f f5bd 2640 f1bd 89b4 edbd 4e2c e9bd
00000070: eef6 e3bd a067 debd 19d3 d5bd bcec c8bd
00000080: f15f bdbd e250 b3bd eb35 aabd 0d83 9fbd
00000090: 8ce4 90bd 4a16 79bd f6bf 4fbd e47f 27bd
000000a0: 96e6 02bd fd53 c5bc d8bb 8dbc 3f3e 3abc
000000b0: c7dc e9bb c391 96bb 5e96 82bb da30 b3bb
000000c0: e87c 13bc

gru_bn.running_var f4 [49]
0.0031302385 0.00925779 0.017247027 0.026957199 0.03841185 0.05100484 0.05722149 0.06309051
0.06849298 0.07288907 0.07595907 0.07726354 0.07802721 0.07852265 0.078546196 0.07828485
0.07782356 0.077099465 0.08030792 0.08836691 0.09811886 0.10946962 0.12207376 0.1353976
0.14151019 0.13823831 0.13724752 0.13609996 0.13370182 0.12975879 0.12413769 0.1166047
0.1102396 0.10601474 0.10440255 0.10394931 0.102945834 0.09764244 0.09194122 0.08539216
0.07846604 0.0717454 0.06593643 0.060473084 0.056544602 0.054052662 0.05299209 0.053320885
0.05496398
00000000: b024 4d3b fcad 173c a349 8d3c 58d5 dc3c
00000010: be55 1d3d 73ea 503d 1561 6a3d 9935 813d
00000020: 0c46 8c3d dd46 953d 6e90 9b3d 593c 9e3d
00000030: bbcc 9f3d 7cd0 a03d d4dc a03d cf53 a03d
00000040: f561 9f3d 53e6 9d3d 7b78 a43d b6f9 b43d
00000050: 8af2 c83d 9c31 e03d cf01 fa3d aba5 0a3e
00000060: 0ce8 103e 588e 0d3e 9d8a 0c3e ca5d 0b3e
00000070: 21e9 083e 7ddf 043e e73b fe3d 72ce ee3d
00000080: 4dc5 e13d 421e d93d 01d1 d53d 60e3 d43d
00000090: 44d5 d23d c2f8 c73d ae4b bc3d 16e2 ae3d
000000a0: ceb2 a03d 41ef 923d ae09 873d a0b2 773d
000000b0: 509b 673d 5366 5d3d 3c0e 593d 0067 5a3d
000000c0: e921 613d

fc.weight f4 [17, 64]
-0.059711058 -0.058944087 -0.008551331 0.15610914 -0.32412404 0.009193059 -0.23937792 0.16803007
-0.104132146 0.029790632 -0.11250013 -0.24683996 0.35186732 0.03212169 -0.20097366 0.16542292
-0.11648832 -0.13417022 0.000916097 -0.0021055865 -0.020194119 -0.09054114 -0.0032629839 0.15475425
0.043648507 0.014472443 -0.22180538 -0.01642672 0.026457177 -0.006317642 -0.13375758 -0.059770305
0.1815749 0.21453092 -0.053575218 0.09933582 0.2146656 -0.09110682 -0.042325668 0.19661768
0.2615262 0.20873845 -0.173916 -0.23722388 0.35128722 0.20411578 -0.006541728 0.07514475
-0.20343037 0.07451923 -0.15877305 -0.1796626 -0.0862156 0.015318094 0.15720172 0.03838916
0.18712652 0.028960899 0.07977917 0.13631348 -0.11254652 -0.14497803 -0.017469008 -0.2388116
-0.1576459 -0.19975455 -0.16097192 -0.008718355 -0.19528572 -0.088451885 -0.105648726 0.23829864
0.07836739 -0.14666207 -0.058214843 -0.11662756 -0.026833683 -0.05337965 0.03196334 0.10240972
-0.08876754 0.003877775 -0.21408936 0.06397164 -0.0917782 0.025256692 0.033187862 0.10687252
-0.103828624 0.124655806 -0.20787883 -0.20404965 -0.022993645 0.14228362 -0.060290784 -0.25727066
0.07442453 0.14617336 -0.08794755 0.1032766 -0.022752391 -0.20935087 0.032318987 0.10130874
0.07260978 0.05588545 0.009179987 -0.14572848 0.055645578 -0.021920769 -0.03264918 -0.039982066
-0.077296354 -0.0036843913 0.008189352 0.005323878 -0.15063034 0.12726341 0.15161936 -0.18497488
0.026783502 -0.07725272 0.047709864 0.14388525 -0.03623324 -0.03523695 -0.123429626 -0.16095072
-0.12763306 -0.012521817 0.17334676 -0.15273368 0.043310665 0.16029678 0.013098738 -0.0678873
-0.07890431 0.113812424 0.06988813 0.03573249 -0.099114425 0.06470384 0.079598926 -0.06375904
0.053616174 -0.028781397 0.084900066 0.13412103 0.044342645 -0.11719688 0.13504961 0.052661963
0.17434412 0.014472532 0.03199661 0.08564453 0.24608153 -0.11840563 0.045610193 -0.04508087
-0.043151177 -0.073190875 0.019699246 -0.09773334 -0.1439027 0.021593895 -0.12193287 -0.15986001
0.04675753 -0.17169051 -0.10791128 0.13134417 -0.15388201 0.064264 0.14693029 -0.014852677
-0.07853738 0.012628854 -0.078129455 0.22771601 0.017386327 -0.015918704 -0.08905194 0.1504897
-0.055691235 0.11206209 -0.1116324 0.14415601 0.178457 0.05662179 0.14588004 0.010761497
-0.069878384 -0.03387157 0.13705447 -0.02552218 -0.07923782 0.03636789 0.08140925 -0.1393903
0.0055926275 0.13367346 -0.055055436 0.013955992 -0.0680477 -0.06791588 0.0036361932 0.042744406
-0.059476346 0.038790867 0.18682209 -0.09015965 0.06602072 0.032128595 0.2102656 0.06229312
0.10954122 -0.1365425 0.059136715 0.1142002 0.15227436 -0.05122827 0.0703974 0.17185648
0.040438145 0.020901248 -0.008112454 -0.06418364 0.047893006 -0.048242208 -0.19116604 -0.13647115
0.07898279 -0.16809551 -0.12571053 -0.04404412 -0.11338217 0.15567012 0.08345887 -0.1127175
-0.13119076 -0.06456931 -0.107943185 0.14637305 0.15136507 0.00043369122 -0.070734374 0.05073271
-0.11523102 0.11306534 -0.044782344 0.065035366 0.15240689 0.043513123 0.08333002 0.05287994
00000000: 9593 74bd 5b6f 71bd e21a 0cbc 13db 1f3e
00000010: 96f3 a5be 7c9e 163c 7c1f 75be 1310 2c3e
00000020: 3c43 d5bd 7c0b f43c 7866 e6bd 9dc3 7cbe
00000030: f427 b43e 0992 033d 0acc 4dbe a064 293e
00000040: 6e91 eebd eb63 09be 3b26 703a e1fd 09bb
00000050: 236e a5bc a26d b9bd c9d7 55bb e677 1e3e
00000060: c7c8 323d d31d 6d3c f320 63be 5491 86bc
00000070: b9bc d83c 3904 cfbb bff7 08be b5d1 74bd
00000080: c5ee 393e fead 5b3e b071 5bbd 9470 cb3d
00000090: 4dd1 5b3e 3696 babd ae5d 2dbd 2556 493e
000000a0: c3e6 853e 88bf 553e 0917 32be d1ea 72be
000000b0: ebdb b33e ba03 513e fe5b d6bb 7ee5 993d
000000c0: 0d50 50be 8a9d 983d 6795 22be 79f9 37be
000000d0: ce91 b0bd bef8 7a3c 7df9 203e f43d 1d3d
000000e0: 189e 3f3e 683f ed3c 4363 a33d c395 0b3e
000000f0: ca7e e6bd 1f75 14be 2a1b 8fbc 078b 74be
00000100: ed6d 21be 758c 4cbe d3d5 24be 6ed7 0ebc
00000110: fbf8 47be 4326 b5bd 5c5e d8bd 8f04 743e
00000120: 157f a03d 952e 16be b072 6ebd 6eda eebd
00000130: 50d2 dbbc 9fa4 5abd feeb 023d 30bc d13d
00000140: c2cb b5bd 4522 7e3b 3e3a 5bbe 9003 833d
00000150: 35f6 bbbd 1fe7 ce3c ffef 073d fbdf da3d
00000160: 1aa4 d4bd 8b4b ff3d 30de 54be 64f2 50be
00000170: 2b5d bcbc ccb2 113e 78f3 76bd fbb8 83be
00000180: e36b 983d 78ae 153e d81d b4bd af82 d33d
00000190: 3963 babc 1360 56be ea60 043d f57a cf3d
000001a0: 70b4 943d 24e8 643d a867 163c d939 15be
000001b0: 9eec 633d 2f93 b3bc 26bb 05bd 3cc4 23bd
000001c0: 8d4d 9ebd d475 71bb a22c 063c ed73 ae3b
000001d0: d73e 1abe 5751 023e 1b42 1b3e 0e6a 3dbe
000001e0: 1369 db3c ad36 9ebd 6b6b 433d a856 133e
000001f0: 4e69 14bd 9f54 10bd acc8 fcbd 44d0 24be
00000200: 3eb2 02be 4f28 4dbc d081 313e 3866 1cbe
00000210: 8666 313d d724 243e 179c 563c 7f08 8bbd
00000220: 9598 a1bd 7d16 e93d 8221 8f3d 3b5c 123d
00000230: 81fc cabd 7283 843d c304 a33d 1994 82bd
00000240: a29c 5b3d f7c6 ebbc 16e0 ad3d 0657 093e
00000250: a2a0 353d eb04 f0bd 724a 0a3e 12b4 573d
00000260: 4487 323e 331e 6d3c e10e 033d 6666 af3d
00000270: ccfc 7b3e a77e f2bd c1d1 3a3d b8a6 38bd
00000280: 4abf 30bd 19e5 95bd 5060 a13c 6b28 c8bd
00000290: 3b5b 13be aee5 b03c f1b7 f9bd 58b2 23be
000002a0: d384 3f3d a3cf 2fbe 9700 ddbd 167f 063e
000002b0: 3f93 1dbe d89c 833d e574 163e a458 73bc
000002c0: 35d8 a0bd 41e9 4e3c 5602 a0bd 632e 693e
000002d0: c56d 8e3c f167 82bc dd60 b6bd f919 1a3e
000002e0: 7e1c 64bd cf80 e53d 879f e4bd a29d 133e
000002f0: 6fbd 363e 40ec 673d 9461 153e fd50 303c
00000300: 661c 8fbd eabc 0abd 0258 0c3e e413 d1bc
00000310: 7047 a2bd 7ff6 143d e5b9 a63d 55bc 0ebe
00000320: 5c42 b73b b2e1 083e cf81 61bd aca7 643c
00000330: 985c 8bbd 7b17 8bbd 334d 6e3b c214 2f3d
00000340: 789d 73bd 2ce3 1e3d 4a4e 3f3e 9fa5 b8bd
00000350: df35 873d 4699 033d de4f 573e 1227 7f3d
00000360: 2657 e03d ccd1 0bbe 5739 723d cbe1 e93d
00000370: cfed 1b3e bcd4 51bd 832c 903d 25fb 2f3e
00000380: 78a2 253d 1839 ab3c 19ea 04bc b672 83bd
00000390: 752b 443d 9f99 45bd 08c1 43be 18bf 0bbe
000003a0: bbc1 a13d 3b21 2cbe 43ba 00be 9b67 34bd
000003b0: e934 e8bd fd67 1f3e 7cec aa3d 6fd8 e6bd
000003c0: df56 06be ea3c 84bd 5111 ddbd d1e2 153e
000003d0: 72ff 1a3e 0d61 e339 2fdd 90bd 1acd 4f3d
000003e0: 3efe ebbd cd8e e73d b16d 37bd 4331 853d
000003f0: 8d10 1c3e d13a 323d eea8 aa3d a398 583d

fc.bias f4 [17]
-0.25656718 -0.06466953 0.06375977 0.09800528 -0.13763541 0.017725196 0.031588815 -0.20626494
-0.015963918 -0.2437194 -0.0065215286 0.0065916884 0.124203704 -0.09986833 -0.089102246 -0.052692577
0.0003222551
00000000: c65c 83be 7571 84bd 7b94 823d feb6 c83d
00000010: 4cf0 0cbe 6e34 913c 4663 013d 1e37 53be
00000020: c3c6 82bc 9491 79be 8cb2 d5bb 17ff d73b
00000030: 835e fe3d c487 ccbd 3d7b b6bd 2cd4 57bd
00000040: 59f4 a839
