checkpoints/mou_et_al/no_class_balancing/IndianPines_PCA_8/epoch18_0.89.pth (torch, 65596 bytes, 10 tensors)

gru.weight_ih_l0 f4 [192, 8]
0	0xbc0a50cc	-0.008442115
1	0xbd22d4b4	-0.03975363
2	0x3ccfe842	0.025379304
3	0x3e2acd21	0.16679813
4	0x3d2da1ca	0.042390622
5	0x3d5142d0	0.051089108
6	0x3c867bd5	0.01641647
7	0xbdc05f12	-0.09393133
8	0x3da3b462	0.0799339
9	0xbcb4c551	-0.022066744
10	0x3d588d47	0.052869108
11	0x3d93ff0e	0.07226382
12	0x3d456d27	0.0481998
13	0x3e266951	0.16251113
14	0x3cb69d9b	0.022291949
15	0xbcc44020	-0.023956358
16	0xbe26dbbe	-0.16294762
17	0xbd7a342d	-0.061084915
18	0x3e8468ef	0.25861308
19	0x3e83ffb8	0.25781035
20	0x3e006874	0.12539846
21	0x3c505389	0.012715229
22	0xbcf7dfc4	-0.030258067
23	0x3c51d8ec	0.012808066
24	0xbe395dde	-0.18102214
25	0xbe366d5c	-0.17815155
26	0xbc889946	-0.016674649
27	0xbe83ffd1	-0.2578111
28	0xbe0c16bb	-0.13680546
29	0xbe2fbcdb	-0.17161886
30	0xbe42b51d	-0.19014402
31	0xbe4d719f	-0.20062874
32	0x3e151a85	0.14560898
33	0xbd42d048	-0.047561914
34	0x3e030254	0.12793857
35	0x3bf13140	0.0073606074
36	0x3daac55b	0.08338424
37	0xbd8a8f48	-0.0676561
38	0x3db662e7	0.08905583
39	0x3c56fd4f	0.013121917
40	0xbdf4c30c	-0.11951265
41	0xbe1dfa16	-0.15427431
42	0xbcf4199b	-0.029797366
43	0x3c9e1a87	0.019299759
44	0x3e118778	0.14211833
45	0xbe01bb93	-0.1266921
46	0xbd4a6ab6	-0.049418174
47	0x3c872fd1	0.016502293
48	0xbd994575	-0.07483951
49	0xbd1cc63e	-0.038274996
50	0xbe955ed5	-0.29173914
51	0xbd0a1f15	-0.03372105
52	0xbb57d8cd	-0.003293562
53	0x3d6aa622	0.057287343
54	0x3d8e256e	0.06940733
55	0x3d7da2fe	0.06192302
56	0x3e9eae2b	0.30992255
57	0x3e35b0d5	0.17743237
58	0x3e084335	0.13306887
59	0x3e75a4ee	0.23988697
60	0x3e933b00	0.2875595
61	0x3dd34075	0.103150286
62	0x3eb401be	0.3515758
63	0x3ea19b6d	0.31563893
64	0x3daa85b9	0.08326287
65	0xbdc45c83	-0.09587958
66	0xbe12fa7a	-0.14353362
67	0xbe139998	-0.1441406
68	0x3c500554	0.012696583
69	0x3da14be5	0.07875804
70	0x3afcdb6c	0.0019291467
71	0x3da15b75	0.07878772
72	0xbdafd59c	-0.08585665
73	0xbd782bd4	-0.060588673
74	0xbe08de76	-0.13366112
75	0xbd15579e	-0.03646051
76	0xbe348cb2	-0.17631796
77	0xbe301162	-0.17194131
78	0xbe76fbc7	-0.24119483
79	0xbe7ba3a0	-0.24574137
80	0xbca69f2e	-0.020339575
81	0xbdb6a5a5	-0.08918313
82	0xbe15aaac	-0.14615887
83	0xbddd1706	-0.10795407
84	0xbdbaf838	-0.09129375
85	0xbd9c9745	-0.0764604
86	0x3d153338	0.0364258
87	0x3b9165ad	0.0044371695
88	0xbbe0b32e	-0.0068572974
89	0xbe350e7b	-0.17681305
90	0xbdceaed7	-0.10091942
91	0x3cfef156	0.031120937
92	0x3ccfcf69	0.025367456
93	0xbe0d9c20	-0.13829088
94	0xbdd87007	-0.105682425
95	0xbe0fad80	-0.14031029
96	0x3b09acc6	0.0021007522
97	0x3de875bd	0.11350582
98	0xbd285478	-0.04109618
99	0x3e3b04fe	0.18263623
100	0x3c3dcaa0	0.011583954
101	0x3db56c26	0.08858518
102	0x3d909665	0.070599355
103	0xbcdfb03e	-0.027305719
104	0x3de006c5	0.10938791
105	0x3c144483	0.009049538
106	0xbd87aa92	-0.066243306
107	0xbd1a0500	-0.037602425
108	0x3e37336b	0.17890708
109	0x3e6ca706	0.2311059
110	0x3ea153be	0.31509203
111	0x3e90afe6	0.282592
112	0xbc99434a	-0.018708844
113	0x3e01520b	0.12628953
114	0xbc71b88f	-0.014753475
115	0x3dcf4457	0.10120457
116	0x3e1f899a	0.15579835
117	0x3e1b5aa8	0.15171301
118	0x3db79632	0.08964194
119	0x3e305568	0.1722008
120	0xbbeaa315	-0.007160554
121	0x3db9191e	0.09037994
122	0x3c445d63	0.011985156
123	0x3e8e86ca	0.2783721
124	0x3e327647	0.17427932
125	0x3e514b5d	0.20438905
126	0x3d5a9adc	0.05337034
127	0x3d34b9cd	0.044122506
128	0xba0d5107	-0.0005390797
129	0x3e18bc06	0.14915475
130	0x3e38a0da	0.1803011
131	0x3e5919ff	0.21201323
132	0xbbfa721a	-0.0076429965
133	0xbd15f09e	-0.036606424
134	0x3dec6fc3	0.11544754
135	0x3e0788c4	0.13235766
136	0x3d85d76c	0.06535229
137	0x3dd10255	0.10205523
138	0x3d426d0c	0.047467276
139	0xbc580d28	-0.01318673
140	0x3e7a27f6	0.24429306
141	0x3e25884c	0.16165274
142	0x3e8bf06a	0.2733186
143	0xbcec549b	-0.028848937
144	0x3e9c7f86	0.30566043
145	0x3e10786c	0.14108437
146	0x3e72b21e	0.23700759
147	0x3eb6d091	0.35706
148	0x3e6a628f	0.2288916
149	0x3ec1e999	0.37873533
150	0x3eba93b7	0.36440822
151	0x3e609f9a	0.21935883
152	0xbe61ba11	-0.22043635
153	0xbe98d899	-0.2985275
154	0xbe3a3ea5	-0.1818796
155	0xbe42f99f	-0.19040535
156	0xbdcf73ef	-0.101295345
157	0xbe63fa3b	-0.22263424
158	0xbe7d055c	-0.24709076
159	0xbd9dfcb0	-0.07714212
160	0xbda7a72f	-0.081861846
161	0xbcef727e	-0.029229399
162	0x3cc73c9e	0.024320897
163	0xbd9045d6	-0.0704457
164	0x3c2a2d65	0.010386799
165	0xbe2ebee4	-0.17065006
166	0xbe058bdf	-0.13041638
167	0xbe0c959c	-0.13728946
168	0x3d0ca16a	0.034333624
169	0x3e14f2c1	0.14545728
170	0x3ca96075	0.020675877
171	0x3e24e1b7	0.16101728
172	0x3e6c85d8	0.23097932
173	0x3ce3192a	0.02772196
174	0x3e507e79	0.20360745
175	0x3ce40943	0.027836448
176	0x3da0daea	0.078542545
177	0x3e98da42	0.29854017
178	0x3e61f446	0.22065839
179	0x3e8c0343	0.27346238
180	0x3e8451cd	0.2584366
181	0x3e99bbb6	0.30026025
182	0x3db05998	0.08610839
183	0x3e5133ad	0.20429869
184	0x3e618af8	0.22025669
185	0x3e32c3b3	0.17457466
186	0x3e11ac30	0.1422584
187	0xbadf3122	-0.0017028193
188	0x3d20815e	0.039185874
189	0x3d44e0f0	0.04806608
190	0x3dc46d1a	0.09591122
191	0x3c49359b	0.012280847
192	0xbe1adedf	-0.15124081
193	0xbe5e4434	-0.21705705
194	0xbe310563	-0.17287211
195	0xbe348b29	-0.1763121
196	0xbe801b43	-0.250208
197	0xbd2d5500	-0.04231739
198	0xbe5bc765	-0.21462782
199	0xbe7ca38b	-0.24671762
200	0xbc9dd70a	-0.019267578
201	0x3da9ac29	0.0828479
202	0x3dfef6a4	0.12449387
203	0x3dfd0c26	0.12355833
204	0xbdd17b54	-0.10228601
205	0xbcbbb6bf	-0.022914289
206	0x3cbded8d	0.023184562
207	0x3d62a53e	0.05533337
208	0xbdefedc1	-0.1171527
209	0x3d9b39c6	0.07579379
210	0x3e69c71b	0.22829859
211	0x3eb09306	0.3448717
212	0x3e1e440f	0.1545565
213	0x3cd2c2e9	0.025727706
214	0x3c4e53cc	0.012593221
215	0xba925a9a	-0.0011165917
216	0x3dd36412	0.10321821
217	0x3d858535	0.06519548
218	0x3e1de067	0.15417634
219	0x3dff5d04	0.12468913
220	0x3dfe3c72	0.12413873
221	0x3d67d28c	0.056597278
222	0x3e2e6a72	0.17032793
223	0x3d562910	0.052285254
224	0xbe0e0770	-0.13870025
225	0x3c501d4f	0.0127023
226	0x3e18e515	0.14931138
227	0x3dd5e5a6	0.104441926
228	0x3e2f8fd5	0.17144711
229	0x3d6bebd4	0.05759795
230	0x3c8a5521	0.016886296
231	0xbd1419de	-0.03615748
232	0x3e1a0ac4	0.1504317
233	0x3b0b37fe	0.002124309
234	0x3e37ffda	0.17968693
235	0x3e23e2fb	0.16004555
236	0x3c935194	0.017983235
237	0x3e1a13c3	0.15046601
238	0x3df5f9ca	0.12010534
239	0xbc515316	-0.012776157
240	0x3d3cc6d5	0.04608806
241	0x3e356d55	0.17717488
242	0x3dac7995	0.084216274
243	0x3df11805	0.117721595
244	0x3e6cc59e	0.2312226
245	0x3e9691da	0.2940815
246	0x3e77d94c	0.24203986
247	0x3e21f235	0.15815051
248	0xbe52db20	-0.20591402
249	0xbe07c5ae	-0.13259003
250	0xbe8b5777	-0.27215168
251	0xbeb7f565	-0.3592941
252	0xbe07528f	-0.13215087
253	0xbe628d86	-0.221243
254	0xbe89cfab	-0.2691625
255	0xbe68333f	-0.22675799

gru.weight_hh_l0 f4 [192, 64]
0	0x3cce0c3b	0.025152316
1	0x3dc7831c	0.09741804
2	0xbe7e3348	-0.2482425
3	0xbdaa0248	-0.08301216
4	0x3dc69eeb	0.0969828
5	0x3e98ede9	0.2986901
6	0x3e32904a	0.17437854
7	0xbeb88487	-0.3603861
8	0x3e090016	0.13378939
9	0xbd728ce5	-0.0592164
10	0xbe17414f	-0.14771007
11	0xbe5c323f	-0.21503542
12	0xbe6a98fe	-0.22909924
13	0xbea6d273	-0.32582435
14	0xbe3ef2c6	-0.18647298
15	0xbe42edda	-0.19036046
16	0x3e1addaa	0.1512362
17	0xbe0f9c97	-0.14024578
18	0x3d6d782c	0.057975933
19	0xbd51cbcf	-0.051219758
20	0x3e461423	0.19343619
21	0x3e0ad36d	0.13557215
22	0xbe36535e	-0.1780524
23	0xbda5bbac	-0.08092436
24	0xbd84d527	-0.06485968
25	0x3d492a09	0.049112353
26	0xbc6556d4	-0.013997752
27	0x3e3c63f0	0.18397498
28	0xbdb11a33	-0.08647575
29	0xbd50095e	-0.050790183
30	0xbc6476dd	-0.013944355
31	0xbd3a975d	-0.045554508
32	0xbe7df04e	-0.247987
33	0xbe77ec2a	-0.24211183
34	0xbe48ef14	-0.19622451
35	0xbe3168b9	-0.17325105
36	0x3babd2b1	0.005243622
37	0x3cf8ecda	0.030386377
38	0xbe1f0778	-0.15530193
39	0x3e83c248	0.25734162
40	0xbe5993d8	-0.21247804
41	0x3eccc667	0.3999512
42	0xbe3f7969	-0.18698658
43	0xbea30960	-0.3184309
44	0xbd811470	-0.06302726
45	0x3d82fb19	0.06395549
46	0x3d1bbe7a	0.03802345
47	0xbd9c287f	-0.076249115
48	0xbe9fc83c	-0.31207454
49	0x3e5481c3	0.20752625
50	0xbb967bbc	-0.004592387
51	0xbcbf2f04	-0.023337848
52	0x3eadce2b	0.33946356
53	0xbd1623a1	-0.036655072
54	0x3e219b4f	0.15781902
55	0xbd971b26	-0.07378225
56	0x3db47fa3	0.08813407
57	0x3df1be14	0.11803833
58	0x3e004a86	0.12528428
59	0x3da32110	0.079652905
60	0xbebc8c61	-0.3682585
61	0x3e843433	0.25821075
62	0xbe8a8429	-0.27053955
63	0xbc8ee680	-0.017443895
64	0x3df64313	0.12024512
65	0x3da882f4	0.08228102
66	0x3e5acbc4	0.21366793
67	0xbdd2bb3b	-0.10289618
68	0x3e4aa5b3	0.19789772
69	0x3e5636e7	0.20919381
70	0x3d8ad6ec	0.06779274
71	0xbd72dcce	-0.059292607
72	0x3e53cfb0	0.20684695
73	0x3d8d8067	0.069092564
74	0xbe22fda0	-0.15917063
75	0x3de84b63	0.11342504
76	0x3dd70053	0.10498109
77	0xbe40d63d	-0.18831725
78	0x3d62369b	0.055227857
79	0x3df40761	0.1191547
80	0xbdfc7fd9	-0.123290725
81	0x3e8b7133	0.27234802
82	0xbd7f69dc	-0.062356815
83	0xbdf601cb	-0.12012061
84	0x3e6b4577	0.22975717
85	0xbe82b667	-0.25529787
86	0x3cd6452b	0.026156029
87	0x3d116d58	0.03550467
88	0xbe474d41	-0.19463064
89	0xbdcf0527	-0.101084046
90	0xbc863aa6	-0.016385388
91	0x3e6c506f	0.23077558
92	0x3d38f870	0.045158803
93	0xbdaa23cc	-0.08307609
94	0x3e6f74a9	0.23384346
95	0x3dab375b	0.083601676
96	0xbe077574	-0.13228399
97	0xbe52b849	-0.20578112
98	0x3da56f17	0.08077829
99	0xbe288677	-0.16457544
100	0xbe6a450c	-0.22877902
101	0x3d1d7eed	0.038451124
102	0xbcbc7e1f	-0.023009358
103	0x3e4c6fd6	0.19964537
104	0xbd9fab9e	-0.07796405
105	0x3ebbf757	0.36712143
106	0xbda6a072	-0.08136071
107	0xbe920185	-0.28516784
108	0xbdc1622c	-0.09442553
109	0x3ebe1095	0.37122026
110	0xbba21c67	-0.0049472335
111	0xbbaa3061	-0.0051937555
112	0xbc3c355f	-0.011487334
113	0x3d0a87c4	0.033820882
114	0xbcb31f55	-0.021865526
115	0x3ca61815	0.020275155
116	0x3db94e7b	0.09048172
117	0x3d8fbf1a	0.070188716
118	0x3e840032	0.257814
119	0x3e6cf741	0.23141195
120	0x3db57152	0.08859505
121	0x3e85768d	0.2606701
122	0xbe130a38	-0.14359367
123	0x3da5d0bc	0.080964535
124	0xbe60dcdc	-0.21959251
125	0x3e6ef1e9	0.23334469
126	0xbcb4f479	-0.02208923
127	0x3d3e1eb5	0.046416003
128	0xbde5c336	-0.11218874
129	0xbd8e9972	-0.06962861
130	0xbd6d3cba	-0.05791924
131	0xbe46d573	-0.19417362
132	0xbb73d6aa	-0.0037206807
133	0xbc5520c5	-0.013008301
134	0x3df43713	0.11924567
135	0xbe08825a	-0.13330975
136	0xbe3226df	-0.1739764
137	0xbd30c1f1	-0.043153707
138	0xbe5f2954	-0.21793109
139	0x3e490290	0.19629884
140	0xbd902ecc	-0.07040176
141	0xbe7bd327	-0.24592267
142	0xbebaed63	-0.36509237
143	0xbd7d6a84	-0.06186916
144	0x3ea734f4	0.32657588
145	0x3ca510d0	0.020149618
146	0x3eae2b99	0.34017637
147	0x3d2b3f25	0.041808266
148	0xbd3ca549	-0.046056066
149	0x3e17da2d	0.14829321
150	0xbdd33aef	-0.10313975
151	0xbe181a39	-0.14853753
152	0xbd407d91	-0.04699475
153	0x3e05fa6b	0.13083808
154	0x3dca9c9e	0.098931536
155	0x3e2de82a	0.16983095
156	0xbe10c1d5	-0.14136441
157	0xbe13b064	-0.14422756
158	0xbe104ad2	-0.14091042
159	0x3e7eb503	0.24873738
160	0x3d5c1f81	0.053740982
161	0xbe26e8f8	-0.16299808
162	0xbdf04e25	-0.11733655
163	0xbd9acbe0	-0.07558417
164	0xbe823566	-0.25431365
165	0x3d96783b	0.07347151
166	0x3de12af6	0.10994522
167	0xbd070391	-0.032962386
168	0xbc852278	-0.016251788
169	0x3e780b90	0.2422316
170	0x3e1b3384	0.1515637
171	0xbebf586d	-0.3737215
172	0x3e5c078e	0.21487257
173	0xbdc34ee4	-0.095365316
174	0x3e969d4e	0.2941689
175	0x3d875c70	0.06609428
176	0xbe67bb35	-0.22630008
177	0xbd07a910	-0.033120215
178	0xbe4dc925	-0.20096262
179	0x3dc08bd8	0.09401673
180	0x3dca6e1d	0.09884284
181	0xbdc8d4c0	-0.09806204
182	0xbe919026	-0.2843029
183	0xbe327a5e	-0.17429492
184	0xbb5e7185	-0.0033942175
185	0xbd1e7b76	-0.03869196
186	0xbe002ec3	-0.12517838
187	0x3e04c914	0.1296733
188	0xbd13dcdd	-0.036099304
189	0xbdf13a7c	-0.11778733
190	0xbdb27189	-0.08713061
191	0xbe44a91b	-0.19205134
192	0xbdc70ae2	-0.097188726
193	0x3e3c3edc	0.18383354
194	0x3e264e05	0.162407
195	0x3e5c1388	0.21491826
196	0x3d6110b6	0.054947577
197	0xbc6eda42	-0.014578404
198	0xbe5aec75	-0.21379264
199	0x3f04cf89	0.51879174
200	0x3dac9b96	0.08428113
201	0xbe3acddc	-0.18242592
202	0xba8042e2	-0.0009785558
203	0xbeab3cc6	-0.33444804
204	0x3dbd2e52	0.092373505
205	0xbcf52102	-0.029922966
206	0x3dc94236	0.09827082
207	0x3e87cd23	0.26523694
208	0xbea08a94	-0.31355727
209	0xbc8d4839	-0.017246353
210	0x3ded96cc	0.11601028
211	0xbd9741bc	-0.07385585
212	0xbe657684	-0.22408491
213	0xbcafa6a6	-0.021441769
214	0x3df5f477	0.120095186
215	0x3f121439	0.5706211
216	0x3d3d3db5	0.046201427
217	0xbe0f7c7f	-0.14012335
218	0xbd7f17c9	-0.062278543
219	0x3b589ee5	0.0033053693
220	0x3d8b5505	0.068033256
221	0x3f322298	0.69584036
222	0xbe6f5540	-0.23372364
223	0xbf0d6ad1	-0.55241114
224	0x3e3516ed	0.17684527
225	0xbcebbfa0	-0.028777897
226	0x3c7d1ef2	0.0154492725
227	0x3c2aa304	0.0104148425
228	0xbdccdb39	-0.10002751
229	0x3eb02968	0.3440659
230	0xbe8fc00c	-0.28076208
231	0xbdd89a99	-0.10576362
232	0xbde80003	-0.11328127
233	0xbda0987b	-0.07841583
234	0x3de75b05	0.112966575
235	0x3d921127	0.07132178
236	0xbf119298	-0.5686431
237	0x3c63c9b4	0.01390307
238	0xbe1658e9	-0.14682354
239	0xbe86751d	-0.26261225
240	0x3dd7ef3e	0.10543679
241	0x3de7c326	0.113165185
242	0xbe297ca9	-0.1655146
243	0xbd4a284c	-0.049354836
244	0xbc527b41	-0.012846769
245	0x3e8950eb	0.26819548
246	0x3d94ee2d	0.07271991
247	0x3e310e19	0.17290534
248	0x3e81edd3	0.25376758
249	0x3e65b79f	0.22433327
250	0xbd9fb0dd	-0.07797406
251	0xbe5402e5	-0.20704229
252	0xbeb394e2	-0.35074526
253	0x3e435095	0.19073708
254	0x3d82ee98	0.063931644
255	0xbcc27536	-0.023737531

gru.bias_ih_l0 f4 [192]
0	0x3e42e686	0.1903325
1	0xbbf5f8a9	-0.0075064492
2	0x3dce6047	0.10076957
3	0xbc58c4b8	-0.013230495
4	0x3e340090	0.1757834
5	0xbd11f817	-0.035636988
6	0xbda78c76	-0.08181088
7	0x3d935382	0.07193662
8	0x3dca79b3	0.098864935
9	0x3dc109c6	0.09425692
10	0x3dec6e5c	0.11544487
11	0xbd763cb7	-0.060116496
12	0x3e2a25ec	0.16616029
13	0x3e4c3168	0.19940722
14	0x3e2e7a76	0.17038903
15	0x3e2c0694	0.16799384
16	0x3e231d47	0.15929137
17	0x3e7ad40c	0.24494952
18	0x3e3929c2	0.18082336
19	0xbe0feaea	-0.14054456
20	0x3d9ef5af	0.07761704
21	0x3d9575af	0.07297837
22	0x3e8d7b96	0.2763335
23	0x3e025412	0.12727383
24	0x3df17f3c	0.11791846
25	0xbd7e29ef	-0.06205171
26	0xbdef0e41	-0.116726406
27	0x3cc568f8	0.024097905
28	0x3d2a7f20	0.041625142
29	0x3d875fb7	0.06610053
30	0x3cfcfd1a	0.030882407
31	0x3d84c00f	0.06481945
32	0x3d5c2df4	0.05375476
33	0xbd01e91e	-0.03171646
34	0x3dbbb6ad	0.09165702
35	0xbd8464f9	-0.064645715
36	0x3e86f031	0.26355127
37	0x3cdabf01	0.026702406
38	0x3e1ef5e2	0.15523484
39	0x3eadd695	0.33952776
40	0x3e0643fb	0.1311187
41	0x3ca14826	0.019687723
42	0x3cfdf79b	0.031001857
43	0xbd91bf2e	-0.07116543
44	0x3d45e258	0.04831156
45	0xbc0896d0	-0.008336738
46	0x39939219	0.00028146876
47	0xbd3369ba	-0.043802
48	0x3e39c215	0.18140443
49	0xbe1e83ae	-0.1547992
50	0x3d5c2071	0.053741876
51	0x3dee57eb	0.11637863
52	0xbd7c55d1	-0.06160528
53	0xbd90cd7b	-0.07070442
54	0x3db41c40	0.08794451
55	0x3de56f38	0.11202854
56	0x3ca621f6	0.020279866
57	0x3e552d1e	0.20817992
58	0xbdc73aa9	-0.097279854
59	0x3d891543	0.066935085
60	0xbdb06941	-0.086138256
61	0x3d83a7d2	0.064284936
62	0x3d7a3637	0.06108686
63	0xbc2c5f73	-0.010520804
64	0x3df451ba	0.119296506
65	0x3dea8e89	0.11452968
66	0xbbb194b8	-0.00541934
67	0x3cd2586c	0.025676928
68	0x3e183214	0.14862853
69	0x3e1af370	0.15131927
70	0x3df9c6d1	0.12196124
71	0xbcd0e0e1	-0.025497856
72	0x3e441827	0.19149838
73	0xbe22af32	-0.15887144
74	0xbdbccb4c	-0.09218463
75	0xbd909dbc	-0.070613354
76	0x3e58e4f0	0.21181083
77	0x3e96300d	0.29333535
78	0x3d081cdd	0.03323065
79	0x3e07bd91	0.13255908
80	0x3e2f3987	0.17111789
81	0x3e8d36a6	0.27580756
82	0x3e9c68c8	0.30548692
83	0x3de9388b	0.11387738
84	0x3e12d3eb	0.14338653
85	0x3d8ec5b0	0.069713
86	0x3d613a9f	0.054987546
87	0xbd17705b	-0.036972385
88	0x3dc3ca77	0.095601015
89	0x3c61e48d	0.013787401
90	0x3d3d700d	0.046249438
91	0xbd27eddc	-0.040998325
92	0x3e74bdae	0.23900482
93	0x3e461f97	0.19347988
94	0x3eaaa6de	0.33330435
95	0x3d83a37c	0.064276665
96	0x3ecd3ba8	0.40084577
97	0xbdf2071b	-0.118177615
98	0xbe13f4b3	-0.14448814
99	0xbbb75735	-0.0055951127
100	0x3e849ee7	0.25902483
101	0xbd1111ab	-0.03541724
102	0x3e5672e9	0.20942272
103	0x3e4b3fb3	0.19848518
104	0x3dc27e6d	0.0949677
105	0xbdd60cb5	-0.104516424
106	0x3e381972	0.17978457
107	0x3e0906cc	0.13381499
108	0xbde494f4	-0.11161223
109	0x3e591f45	0.21203335
110	0x3e663af1	0.22483422
111	0x3de2e84a	0.11079462
112	0x3e4d2a1d	0.20035596
113	0x3cb69cd6	0.022291582
114	0x3e552b33	0.2081726
115	0xbdd92fa5	-0.106047906
116	0xbbacd937	-0.0052749175
117	0x3c5ab27a	0.013348216
118	0xbddfa493	-0.10920062
119	0x3d8e9c0e	0.06963359
120	0x3e83f339	0.25771502
121	0x3d11270e	0.035437636
122	0xbdb84c41	-0.08998919
123	0xbd3f979c	-0.046775445
124	0x3e26d990	0.16293931
125	0xbc037d8e	-0.00802554
126	0x3e7797a8	0.24178946
127	0x3ed15896	0.40887898
128	0xbdfeb338	-0.12436527
129	0xbd7282dc	-0.05920683
130	0xbe49587e	-0.19662663
131	0xbd1ff798	-0.039054483
132	0x3e363c5a	0.1779646
133	0xbcddad90	-0.0270603
134	0xbd3f5cdd	-0.04671942
135	0xbda58e4f	-0.08083784
136	0x3dc93268	0.09824067
137	0xbe8abb5f	-0.27096078
138	0x3e001d9f	0.125113
139	0xbe07267e	-0.13198277
140	0x3e1d44ea	0.1535832
141	0x3df838de	0.121202216
142	0x3d69baf3	0.057063054
143	0xbcae9774	-0.021312453
144	0xbdb7f5c2	-0.089824215
145	0xbcd7b222	-0.026330058
146	0xbe4ea289	-0.2017919
147	0xbdac3bad	-0.0840982
148	0x3e129de0	0.14318037
149	0x3ca2cbe2	0.01987261
150	0xbdcf609e	-0.1012585
151	0xbdc2b741	-0.09507609
152	0xbe59876e	-0.21243069
153	0xbe6fac40	-0.23405552
154	0xbe3670eb	-0.17816512
155	0x3e543a35	0.20725329
156	0xbe41152b	-0.18855731
157	0xbe1b6781	-0.15176202
158	0x3baca9db	0.005269272
159	0xbe527554	-0.2055257
160	0xbe08b39d	-0.13349767
161	0x3e174873	0.14773731
162	0x3e48569a	0.19564286
163	0x3e394e44	0.18096262
164	0xbcd06999	-0.025440978
165	0x3e405f67	0.18786393
166	0xbe7875ec	-0.24263734
167	0x3db2eb28	0.08736259
168	0xbb3a1c72	-0.0028398302
169	0x3e702873	0.2345293
170	0xbe44d0a5	-0.19220217
171	0xbd01a3a9	-0.03165022
172	0xbe5d5c39	-0.21617211
173	0x3e1a1f45	0.15050991
174	0xbcc2d93e	-0.02378523
175	0xbdd8fa82	-0.105946556
176	0xbd33da29	-0.043909226
177	0x3e1557e0	0.14584303
178	0xbdb847ed	-0.08998094
179	0xbe86d965	-0.26337734
180	0xbe4cd18f	-0.20001815
181	0xbd071bc8	-0.03298548
182	0x3e5fd5cc	0.21858901
183	0x3d949c6c	0.072563976
184	0x3d100ecd	0.035170365
185	0x3dda0ffa	0.106475785
186	0x3e4e9745	0.20174892
187	0xbe4b370c	-0.19845217
188	0xbe021ea5	-0.12707002
189	0x3e2a1eba	0.16613284
190	0xbe094c1b	-0.13407938
191	0xbcf1b6b4	-0.029506065

gru.bias_hh_l0 f4 [192]
0	0x3e4f029a	0.20215836
1	0x3df73c35	0.120720305
2	0x3bc03040	0.005865127
3	0x3de2769a	0.11057778
4	0x3e5c89a0	0.21536875
5	0x3d2d76e0	0.042349696
6	0xbe39bff2	-0.18139628
7	0x3dc78049	0.09741265
8	0x3e025ca0	0.12730646
9	0xbcf00142	-0.029297475
10	0x3d95446f	0.07288443
11	0x3ddaa15c	0.10675308
12	0x3e041b54	0.1290105
13	0x3e1204de	0.14259669
14	0x3e367dca	0.17821422
15	0x3e0175ed	0.12642641
16	0xbb3cbb2e	-0.0028798091
17	0x3dd6e8f1	0.10493649
18	0x3cdca790	0.026935369
19	0xbe41544b	-0.18879811
20	0xbb53a2e4	-0.0032293135
21	0x3e061f0a	0.13097778
22	0x3e853cda	0.2602299
23	0x3dfe03b9	0.12403054
24	0x3e004e12	0.12529781
25	0xbd1802e8	-0.037112147
26	0xbcbb1fbe	-0.022842284
27	0x3deb2d0d	0.11483202
28	0x3e16547e	0.14680669
29	0x3db473f7	0.08811181
30	0x3e6c2610	0.23061395
31	0x3db2e218	0.0873453
32	0x3c5bf2fd	0.013424632
33	0xbd822256	-0.06354205
34	0xbc4b1289	-0.012394556
35	0x3d50dfad	0.050994564
36	0x3e1754da	0.14778462
37	0xbc80eb51	-0.015737208
38	0x3c3a9b6f	0.011389597
39	0x3e239599	0.15975036
40	0xbd2dc0fb	-0.04242037
41	0xbe03665e	-0.12832019
42	0x3e194497	0.14967571
43	0xbd0218a0	-0.031761765
44	0xbcdcab5f	-0.026937185
45	0x3e037ae5	0.1283985
46	0x3dac2583	0.08405592
47	0xbd6d7785	-0.05797531
48	0x3dcb82e0	0.09937072
49	0xbc382bb1	-0.011240886
50	0x3d85034a	0.06494768
51	0x3c29a797	0.010354898
52	0xbe39224c	-0.1807949
53	0xbc5ff360	-0.013668865
54	0x3d986e87	0.074429564
55	0xbd148a5f	-0.036264773
56	0xbd977187	-0.073947005
57	0x3d5b9b4a	0.053614892
58	0xbd810e58	-0.06301564
59	0xbdbfc1ed	-0.0936316
60	0xbc26ac65	-0.010172938
61	0xbd5bb902	-0.053643234
62	0x3c8aba86	0.016934644
63	0x3d44b568	0.048024565
64	0x3dd30207	0.10303121
65	0x3e14d0fd	0.14532848
66	0x3e1ee1fe	0.15515897
67	0xbe376ee5	-0.17913397
68	0x3e29ab9f	0.16569375
69	0x3e774f71	0.24151398
70	0x3e201623	0.15633444
71	0xbdce7d44	-0.10082486
72	0x3e775b64	0.24155957
73	0xbdc0b235	-0.0940899
74	0x3c70146f	0.014653309
75	0xbc5ba011	-0.013404862
76	0x3e6e06c9	0.23244776
77	0x3e671bea	0.22569242
78	0xbc4f0a9b	-0.012636806
79	0x3e69d146	0.22833738
80	0x3d3952d0	0.04524499
81	0x3e9c196f	0.30488154
82	0x3ebd2932	0.36945492
83	0x3cbda9d7	0.023152275
84	0x3d895422	0.067055
85	0x3d6b7a90	0.05748993
86	0x3dde4945	0.10853819
87	0x3dc11f83	0.094298385
88	0x3df686d8	0.12037438
89	0xbda101d0	-0.07861674
90	0x3e67fe04	0.22655493
91	0x3d181237	0.037126746
92	0x3d572948	0.052529603
93	0x3de58035	0.11206094
94	0x3e73a5ef	0.23793767
95	0x3c59a300	0.013283491
96	0x3e541a62	0.20713189
97	0xbcc3601b	-0.023849538
98	0x3cc7ee43	0.024405604
99	0x3c8d00ee	0.017212357
100	0x3e881dc3	0.26585206
101	0xbc333837	-0.010938696
102	0x3e15a556	0.14613852
103	0x3ec0fe85	0.37694183
104	0x3e4cbc93	0.1999381
105	0xbdeb6b0c	-0.11495027
106	0x3eaf570e	0.34246105
107	0x3cfbb878	0.03072761
108	0xbe6ba20c	-0.23011035
109	0x3e7c9ef1	0.24670006
110	0x3e8d9883	0.2765542
111	0x3e5a6611	0.21327998
112	0x3ddfebc1	0.10933638
113	0x3d161852	0.036644287
114	0x3da5e0a0	0.080994844
115	0xbdc2ec3f	-0.095177166
116	0x3de8233c	0.113348454
117	0xbcebcd8c	-0.028784536
118	0xbd77a370	-0.0604586
119	0x3e0d2c8c	0.13786525
120	0x3e5d55fd	0.21614833
121	0x3e378c4d	0.17924614
122	0xbd9a0580	-0.0752058
123	0xbd0fd296	-0.03511294
124	0x3e7906a5	0.24318941
125	0xbd0e20cc	-0.034699246
126	0x3e0c275b	0.13686888
127	0x3e96fb50	0.2948861
128	0xbe15d1ea	-0.14630857
129	0xbd896449	-0.06708581
130	0xbdd8cfde	-0.105865225
131	0x3e742f6c	0.23846215
132	0x3e6a42a9	0.22876991
133	0x3df4cfbe	0.11953686
134	0xbdebd440	-0.11515093
135	0xbe1a1ce9	-0.15050091
136	0x3e3d4acb	0.18485563
137	0xbe4c08b7	-0.199252
138	0x3e5a01d4	0.2128976
139	0xbe53b2d2	-0.20673683
140	0x3db7eb28	0.08980399
141	0xbd768911	-0.06018931
142	0xbd373466	-0.044727705
143	0x3d853818	0.0650484
144	0x3e11d534	0.14241487
145	0x3d236e6c	0.03990023
146	0xbc3084e7	-0.010773874
147	0x3d63c6db	0.055609565
148	0x3d7dcb77	0.061961617
149	0x3cfab663	0.030604547
150	0x3d0ab15c	0.03386055
151	0xbd3c10a4	-0.045914307
152	0xbe5042be	-0.2033796
153	0xbe27932a	-0.16364732
154	0x3d00ac6e	0.03141444
155	0xbab660eb	-0.0013914382
156	0xbe59c0ab	-0.21264903
157	0xbc84f3f1	-0.016229602
158	0xbdd01fb3	-0.10162296
159	0xbe458de0	-0.19292402
160	0xbe245d48	-0.16051209
161	0x3ce9d79a	0.02854519
162	0x3db4edc4	0.08834413
163	0x3e147a12	0.14499691
164	0xbb90797e	-0.0044090142
165	0x3db35a2c	0.08757433
166	0xbd5f2acd	-0.054484177
167	0xbd71986f	-0.058983263
168	0xbdaa247f	-0.08307742
169	0x3d9794f6	0.07401459
170	0xbe324c3d	-0.17411895
171	0x3e12049f	0.14259575
172	0xbe070be0	-0.13188124
173	0x3e21b970	0.15793395
174	0xbd44704f	-0.04795867
175	0xbc861d02	-0.016371254
176	0xbdbb0627	-0.09132033
177	0x3b680bc4	0.0035407403
178	0xbcb8414c	-0.022492073
179	0xbe7292dc	-0.23688835
180	0x3d1505fb	0.036382657
181	0x3e1390a2	0.14410642
182	0x3e49b5a7	0.19698201
183	0x3da146e8	0.078748524
184	0x3da19306	0.078893706
185	0x3e471168	0.19440234
186	0x3e6493b2	0.22321966
187	0xbe58f5c0	-0.21187496
188	0xbe7363c1	-0.23768522
189	0x3e5ac5aa	0.21364465
190	0x3d090d03	0.033459675
191	0xbd6f67a3	-0.058448445

gru_bn.weight f4 [49]
0	0x3f800000	1.0
1	0x3f800000	1.0
2	0x3f800000	1.0
3	0x3f800000	1.0
4	0x3f800000	1.0
5	0x3f800000	1.0
6	0x3f800000	1.0
7	0x3f800000	1.0
8	0x3f800000	1.0
9	0x3f800000	1.0
10	0x3f800000	1.0
11	0x3f800000	1.0
12	0x3f800000	1.0
13	0x3f800000	1.0
14	0x3f800000	1.0
15	0x3f800000	1.0
16	0x3f800000	1.0
17	0x3f800000	1.0
18	0x3f800000	1.0
19	0x3f800000	1.0
20	0x3f800000	1.0
21	0x3f800000	1.0
22	0x3f800000	1.0
23	0x3f800000	1.0
24	0x3f800000	1.0
25	0x3f800000	1.0
26	0x3f800000	1.0
27	0x3f800000	1.0
28	0x3f800000	1.0
29	0x3f800000	1.0
30	0x3f800000	1.0
31	0x3f800000	1.0
32	0x3f800000	1.0
33	0x3f800000	1.0
34	0x3f800000	1.0
35	0x3f800000	1.0
36	0x3f800000	1.0
37	0x3f800000	1.0
38	0x3f800000	1.0
39	0x3f800000	1.0
40	0x3f800000	1.0
41	0x3f800000	1.0
42	0x3f800000	1.0
43	0x3f800000	1.0
44	0x3f800000	1.0
45	0x3f800000	1.0
46	0x3f800000	1.0
47	0x3f800000	1.0
48	0x408bc353	4.3675933

gru_bn.bias f4 [49]
0	0x00000000	0.0
1	0x00000000	0.0
2	0x00000000	0.0
3	0x00000000	0.0
4	0x00000000	0.0
5	0x00000000	0.0
6	0x00000000	0.0
7	0x00000000	0.0
8	0x00000000	0.0
9	0x00000000	0.0
10	0x00000000	0.0
11	0x00000000	0.0
12	0x00000000	0.0
13	0x00000000	0.0
14	0x00000000	0.0
15	0x00000000	0.0
16	0x00000000	0.0
17	0x00000000	0.0
18	0x00000000	0.0
19	0x00000000	0.0
20	0x00000000	0.0
21	0x00000000	0.0
22	0x00000000	0.0
23	0x00000000	0.0
24	0x00000000	0.0
25	0x00000000	0.0
26	0x00000000	0.0
27	0x00000000	0.0
28	0x00000000	0.0
29	0x00000000	0.0
30	0x00000000	0.0
31	0x00000000	0.0
32	0x00000000	0.0
33	0x00000000	0.0
34	0x00000000	0.0
35	0x00000000	0.0
36	0x00000000	0.0
37	0x00000000	0.0
38	0x00000000	0.0
39	0x00000000	0.0
40	0x00000000	0.0
41	0x00000000	0.0
42	0x00000000	0.0
43	0x00000000	0.0
44	0x00000000	0.0
45	0x00000000	0.0
46	0x00000000	0.0
47	0x00000000	0.0
48	0x3e014f8f	0.12628005

gru_bn.running_mean f4 [49]
0	0xbc39e4f6	-0.011346092
1	0xbca49b60	-0.02009362
2	0xbce933f1	-0.02846715
3	0xbd11ae0d	-0.03556638
4	0xbd1ffda5	-0.039060254
5	0xbd1c24f5	-0.038121182
6	0xbd08b3d4	-0.033374622
7	0xbcdb63c4	-0.02678097
8	0xbcb16ae8	-0.021657422
9	0xbc946985	-0.018116722
10	0xbc77f952	-0.015135126
11	0xbc501543	-0.012700382
12	0xbc19e16e	-0.0093921255
13	0xbbae5527	-0.0053202095
14	0x3ac763b4	0.0015212209
15	0x3bc4e6de	0.006008967
16	0x3c469767	0.012121058
17	0x3c990e6a	0.018683631
18	0x3cc81b5e	0.024427112
19	0x3cf7d41f	0.030252514
20	0x3d08b4ce	0.033375554
21	0x3d09471f	0.033515092
22	0x3cf22908	0.02956058
23	0x3cbd4807	0.023105634
24	0x3c82a6e7	0.015948726
25	0x3c0f2f3e	0.008739291
26	0x3b760d78	0.003754465
27	0x39092337	0.00013078457
28	0xbb0c7fc2	-0.0021438454
29	0xbb9b66b1	-0.0047424664
30	0xbbdc75b8	-0.0067279004
31	0xbc0ecd8d	-0.008715999
32	0xbc18503a	-0.009296471
33	0xbc30632e	-0.010765834
34	0xbc609578	-0.013707511
35	0xbc8a00ad	-0.016846025
36	0xbc9f267a	-0.019427527
37	0xbcb2aa4f	-0.021809725
38	0xbcb39574	-0.02192185
39	0xbcaf3d87	-0.021391643
40	0xbcac3c34	-0.0210248
41	0xbcabc2a2	-0.020966832
42	0xbca84b99	-0.02054386
43	0xbca7697d	-0.020436043
44	0xbca260a2	-0.019821469
45	0xbc9ecb37	-0.01938401
46	0xbc9d2fa4	-0.019187756
47	0xbc9872eb	-0.018609485
48	0xbc92e88e	-0.017933156

gru_bn.running_var f4 [49]
0	0x3baa3d3f	0.0051952894
1	0x3c6ef0a9	0.014583745
2	0x3cd3a4d4	0.025835432
3	0x3d203d8e	0.039121203
4	0x3d5a32b8	0.053271025
5	0x3d883855	0.066513695
6	0x3d93e30b	0.072210394
7	0x3d99c8be	0.07508992
8	0x3d9bcf18	0.076078594
9	0x3d9beb21	0.07613207
10	0x3d9adb92	0.07561411
11	0x3d98c7ef	0.07460009
12	0x3d928665	0.0715454
13	0x3d91ef35	0.07125703
14	0x3d968d2f	0.073511474
15	0x3d9e74cb	0.0773712
16	0x3da446da	0.08021326
17	0x3da6ac2e	0.081383094
18	0x3da3e3c5	0.08002428
19	0x3d9fa84f	0.07795774
20	0x3d9d5981	0.07683087
21	0x3d9df727	0.07713156
22	0x3da06d1c	0.07833311
23	0x3da677fe	0.081283554
24	0x3dabb76f	0.083845966
25	0x3dade4dd	0.08490918
26	0x3dafe550	0.0858866
27	0x3db25e86	0.08709435
28	0x3db50a4e	0.08839856
29	0x3db93550	0.09043372
30	0x3dbc987c	0.092087716
31	0x3dbf5c76	0.093438074
32	0x3dc4ffb4	0.09619084
33	0x3dcbab9c	0.09944841
34	0x3dd1313a	0.10214467
35	0x3dd547e6	0.10414104
36	0x3dd8816e	0.10571562
37	0x3dd5d666	0.10441284
38	0x3dd39e8a	0.10332973
39	0x3dd2242b	0.10260805
40	0x3dd0d290	0.101964116
41	0x3dcfafe2	0.10140969
42	0x3dce49d5	0.10072676
43	0x3dcc5663	0.099774145
44	0x3dcb3032	0.09921302
45	0x3dcafd92	0.09911646
46	0x3dcbb4be	0.09946583
47	0x3dccbb4a	0.0999666
48	0x3dce81d0	0.100833535

fc.weight f4 [17, 64]
0	0xbb95e0d4	-0.0045739207
1	0xbc4f6f79	-0.0126608545
2	0x3dc06ba6	0.09395532
3	0x3f09d7ad	0.5384472
4	0xbdc62adb	-0.09676143
5	0xbe4901c6	-0.19629583
6	0xbe543d07	-0.20726405
7	0xbd63715c	-0.05552803
8	0xbe953850	-0.29144526
9	0x3f0a3c93	0.5399868
10	0xbd5643bb	-0.052310687
11	0xbdba0b4c	-0.09084186
12	0xbe9354b4	-0.2877556
13	0x3e544c66	0.20732269
14	0x3e10fe41	0.1415949
15	0xbe5bf1a6	-0.214789
16	0xbe0fed71	-0.1405542
17	0x3e1a46ab	0.1506602
18	0x3ef4254d	0.47684708
19	0xbed52315	-0.41628328
20	0xbee03369	-0.43789223
21	0xbe1a5488	-0.15071309
22	0x3d328f8c	0.04359393
23	0xbde3235b	-0.11090728
24	0x3ceee166	0.029160213
25	0xbd90f14f	-0.07077276
26	0xbf05b068	-0.522223
27	0xbe8f885b	-0.28033718
28	0x3e23553e	0.15950486
29	0xbef24b28	-0.47322965
30	0x3e7d65d0	0.2474587
31	0xbec94b99	-0.3931549
32	0x3de1d934	0.11027756
33	0xbd91f59c	-0.071269244
34	0xbe016c25	-0.1263891
35	0xbeaa6a14	-0.33284056
36	0x3ee2f3bc	0.4432658
37	0x3edfd794	0.4371916
38	0xbcc7ba54	-0.02438084
39	0xbda78427	-0.08179503
40	0x3d9e224f	0.077213876
41	0xbe24e915	-0.16104539
42	0x3e3d6580	0.1849575
43	0x3e7073ca	0.2348167
44	0xbf038371	-0.5137244
45	0xbecc1a29	-0.3986371
46	0xbeb96f65	-0.362178
47	0xbee30580	-0.44340134
48	0xbc8b4de8	-0.017004922
49	0x3ea5d692	0.32390267
50	0x3e4b9a5c	0.19883102
51	0x3dbdca91	0.09267152
52	0xbea1a76f	-0.31573054
53	0x3d826017	0.06365984
54	0xbeb65f16	-0.3561942
55	0xbe509ce6	-0.20372352
56	0x3da76126	0.081728265
57	0x3e972f6c	0.29528368
58	0xbe1ccc03	-0.153122
59	0xbf0fef93	-0.56224936
60	0xbef48831	-0.47760156
61	0xbee78ab7	-0.4522302
62	0x3e1037dc	0.14083809
63	0xbe4a06af	-0.19729112
64	0x3e346469	0.17616428
65	0x3e0af193	0.13568716
66	0x3ecffe9e	0.40623945
67	0x3e0eba50	0.1393826
68	0xbe9cb9c9	-0.30610493
69	0xbe30fe7f	-0.17284583
70	0x3d919b81	0.07109738
71	0x3dea59cb	0.11442908
72	0xbecef949	-0.40424564
73	0x3e62d61f	0.22151993
74	0xbe13698d	-0.14395733
75	0x3d7107cd	0.05884533
76	0xbd55cf38	-0.052199572
77	0xbe31c152	-0.17358902
78	0x3e536f25	0.20647867
79	0xbedc1452	-0.42984253
80	0x3e4ca291	0.19983889
81	0x3dbad39f	0.09122395
82	0x3eeffac1	0.46870998
83	0xbe332c85	-0.17497452
84	0xbf139575	-0.5764993
85	0xbc52d4d6	-0.012868127
86	0xbeb514ed	-0.35367528
87	0xbe97501f	-0.29553315
88	0x3e3b8040	0.18310642
89	0x3e16e035	0.14733966
90	0xbaf77032	-0.0018878041
91	0xbe60645a	-0.21913281
92	0xbe78f4d1	-0.2431214
93	0xbeda1e93	-0.4260145
94	0x3e6074e3	0.21919589
95	0xbdb1becd	-0.086789705
96	0x3dbbc0a6	0.09167604
97	0xbe25f77d	-0.1620769
98	0xbe59fa2a	-0.21286836
99	0xbf21b610	-0.6316843
100	0x3e0b70fb	0.13617317
101	0x3f73f35d	0.9529322
102	0x3e4d47b1	0.2004688
103	0xbd17619b	-0.03695832
104	0x3f0ac80b	0.5421149
105	0xbe9de1ae	-0.30836242
106	0x3e18a8a2	0.14908078
107	0x3e2a01cf	0.16602252
108	0xbe13f18b	-0.1444761
109	0xbe514f1c	-0.20440334
110	0xbd096e97	-0.033552732
111	0xbdb7ea30	-0.089802146
112	0x3e544b06	0.20731744
113	0x3e9f429f	0.31105515
114	0xbdc48b43	-0.095968746
115	0x3e0a40f1	0.13501336
116	0x3b579be5	0.0032899317
117	0x3ea6984b	0.32538065
118	0xbed7a4bc	-0.4211787
119	0xbef0f53c	-0.470621
120	0xbe7349af	-0.23758577
121	0xbe22bb78	-0.15891826
122	0xbe1f8882	-0.15579417
123	0x3e1fe40d	0.15614338
124	0xbe465b7f	-0.1937084
125	0xbea192f8	-0.3155744
126	0xbebf37dd	-0.37347308
127	0xbcb3c917	-0.021946473
128	0xbe95f7e3	-0.29290685
129	0xbe046e97	-0.12932812
130	0xbe740417	-0.23829685
131	0x3e621997	0.22080074
132	0xbe0a7ec5	-0.13524921
133	0x3ed74231	0.42042688
134	0x3e4dfaf9	0.2011527
135	0xbf020231	-0.50784594
136	0x3ea27e64	0.31737053
137	0x3eb0517e	0.34437174
138	0x3e014b5e	0.12626407
139	0x3f015743	0.50523776
140	0x3d6bd98d	0.05758052
141	0x3eb2443b	0.3481768
142	0xbe597152	-0.21234635
143	0xbec8d3ea	-0.39224178
144	0xbdd8d2c1	-0.10587073
145	0xbe9c9b9f	-0.3058748
146	0xbf0a88ad	-0.541148
147	0x3ee59ba1	0.44845298
148	0x3ed92c3d	0.42416564
149	0xbe74524c	-0.23859519
150	0xbe4740db	-0.19458334
151	0xbe961f17	-0.29320595
152	0xbd94d11d	-0.07266448
153	0xbe02084b	-0.12698476
154	0x3e8d43db	0.27590832
155	0xbe6591f2	-0.22418955
156	0xbeeba1ff	-0.4602203
157	0x3e05f010	0.13079858
158	0xbeb20317	-0.34767982
159	0x3d21b29d	0.03947698
160	0xbd9b836f	-0.07593428
161	0xbf1d872d	-0.61534387
162	0xbeecbe86	-0.46239108
163	0x3eb4aefb	0.3528975
164	0xbe2eb418	-0.17060888
165	0xbec62a71	-0.38704255
166	0xbea5c7f8	-0.32379127
167	0xbe6f9b97	-0.23399197
168	0xbe978f0d	-0.29601327
169	0x3f35f506	0.71077
170	0xbe45e176	-0.19324288
171	0x3e351914	0.17685348
172	0x3d1cf2f6	0.038317643
173	0x3ef57a78	0.47945
174	0x3ed47f45	0.4150335
175	0x3edfe161	0.43726638
176	0xbe92d3a2	-0.28677088
177	0xbd7ea6f6	-0.062170945
178	0xbe529fef	-0.20568822
179	0x3ea7fa30	0.32808065
180	0x3e931721	0.28728583
181	0xbecaa33b	-0.3957766
182	0x3dbed804	0.093185455
183	0xbe667375	-0.22504981
184	0xbe4c96ac	-0.19979352
185	0x3ed4c5e3	0.41557226
186	0x3e4b4ad5	0.19852765
187	0xbdddeeeb	-0.108365856
188	0x3ef8e1f1	0.4860988
189	0x3eb56a79	0.35432795
190	0x3ea12486	0.31473178
191	0x3ec893a4	0.3917514
192	0xbeef15d4	-0.4669634
193	0x3dd8ba44	0.10582402
194	0xbeb8fde0	-0.3613119
195	0xbe2d4298	-0.16919935
196	0x3e79709b	0.24359362
197	0x3b1ce27b	0.0023938704
198	0x3eb45f8c	0.35229146
199	0xbea13777	-0.3148763
200	0x3e5636a7	0.20919286
201	0xbe098d77	-0.13432871
202	0x3ecffdb4	0.40623248
203	0xbf4fa6f3	-0.8111412
204	0x3d2ed72f	0.042685684
205	0xbd85f9cd	-0.06541786
206	0x3dd2427d	0.10266588
207	0x3d6faa64	0.058512107
208	0x3e0ae5bb	0.13564198
209	0xbce52b57	-0.027974768
210	0xbe5e7025	-0.21722467
211	0xbed61706	-0.4181444
212	0xbdb332cb	-0.08749922
213	0xbd5310ac	-0.05152957
214	0xbda67d5d	-0.0812938
215	0x3e10bad9	0.14133777
216	0xbcd1d1e7	-0.025612785
217	0x3d0fed53	0.03513844
218	0xbe605c34	-0.21910173
219	0x3e655e9c	0.22399372
220	0xbd9fe7c5	-0.078078784
221	0xbd8499fb	-0.06474682
222	0xbe3fa1c3	-0.18714051
223	0x3ec12ac3	0.37727937
224	0x3d0316e5	0.032004256
225	0x3ec3fc6b	0.38278517
226	0x3ef5b07d	0.47986212
227	0x3e7bd08f	0.24591278
228	0xbdd2e042	-0.1029668
229	0x3e2a887b	0.16653626
230	0xbe90d0c9	-0.2828429
231	0x3dc866fc	0.09785268
232	0xbe9fd0b7	-0.31213924
233	0x3d9770d7	0.07394569
234	0xbd8f87c6	-0.070083186
235	0xbcc39577	-0.023874981
236	0x3f0be78a	0.54650176
237	0xbcd9285b	-0.0265085
238	0x3edcfdc4	0.43162358
239	0xbf35dc96	-0.7103971
240	0xbdee3844	-0.116318256
241	0x3ebb649b	0.36600193
242	0xbe97261a	-0.29521257
243	0xbe9c3d40	-0.3051548
244	0xbe13d11a	-0.14435235
245	0xbce07a95	-0.027402202
246	0x3cbebc20	0.023283064
247	0x3c878eee	0.016547646
248	0x3f1ab4b9	0.6043201
249	0x3d7d2e58	0.061811775
250	0x3e5efff8	0.21777332
251	0x3e9873ed	0.29775944
252	0x3cf96c39	0.030447112
253	0x3c0532d1	0.008129791
254	0xbdb77ba1	-0.08959127
255	0x3e98994a	0.2980445

fc.bias f4 [17]
0	0xbed6d40d	-0.41958657
1	0xbe535ac0	-0.20640087
2	0x3de8031b	0.11328717
3	0xbdc707d6	-0.097182915
4	0x3e2e4aa8	0.17020667
5	0x3dbcdc05	0.09221653
6	0x3dd98e18	0.10622805
7	0xbe943aed	-0.28951207
8	0xbe8aba2d	-0.27095166
9	0xbed40e05	-0.41416946
10	0x3e68c4fa	0.2273139
11	0x3deeb411	0.11655439
12	0xbe0e47c8	-0.1389457
13	0xbeab745a	-0.33487207
14	0x3e0b62c3	0.13611893
15	0xbd2482bc	-0.04016374
16	0xbe325b1d	-0.1741757
