checkpoints/hamida_et_al/no_class_balancing/IndianPines_Var_30/epoch21_0.96.pth (torch, 212998 bytes, 14 tensors)

conv1.weight f4 [20, 1, 3, 3, 3]
0	0xbdfdef6e	-0.12399183
1	0x3e7f5bb1	0.24937321
2	0x3f240009	0.64062554
3	0x3e99d2cc	0.30043638
4	0x3e5ad975	0.21372016
5	0xbcfc5e7b	-0.03080677
6	0xbe22f51c	-0.15913814
7	0xbea834b9	-0.32852724
8	0xbdfbf04b	-0.123016916
9	0xbe06e682	-0.13173869
10	0xbe070650	-0.13186002
11	0xbe98ae0c	-0.29820287
12	0xbf0cb326	-0.5496086
13	0xbea1fadd	-0.31636706
14	0xbbb93c91	-0.005652972
15	0xbe40d225	-0.18830164
16	0xbe76bb14	-0.24094802
17	0xbea30d94	-0.31846297
18	0xbed0fc16	-0.40817326
19	0xbe094ec8	-0.13408959
20	0x3e8219d6	0.25410336
21	0xbe98170c	-0.29705083
22	0x3e5d89f6	0.21634659
23	0x3e8c718f	0.27430388
24	0xbd98e605	-0.07465748
25	0x3e29a145	0.16565426
26	0x3d2e0362	0.042483695
27	0x3d4ba4f7	0.04971787
28	0xbe888634	-0.2666489
29	0x3dd59dfd	0.104305245
30	0xbe5b71e4	-0.21430165
31	0xbe0cb301	-0.1374016
32	0xbd8c7918	-0.06859034
33	0xbedc4ddb	-0.4302815
34	0x3d311708	0.043234855
35	0x3edc0f6a	0.4298051
36	0x3ece23cf	0.40261695
37	0x3eee46e8	0.46538472
38	0xbca2c219	-0.019867944
39	0xbc31a44c	-0.010842394
40	0x3d700148	0.058594972
41	0x3edb27f0	0.42803907
42	0x3e29a9d8	0.16568696
43	0x3d954df7	0.07290261
44	0x3ed9d6cc	0.4254669
45	0xbe462f54	-0.19353992
46	0x3eb84cfb	0.3599623
47	0xbf234138	-0.6377139
48	0xbe2ab55b	-0.16670744
49	0xbdfed6a7	-0.124432854
50	0x3e9429ec	0.28938234
51	0x3e64bf92	0.22338703
52	0x3e43106c	0.19049233
53	0x3ea44861	0.3208647
54	0xbe259551	-0.16170241
55	0xbe56da4c	-0.20981711
56	0x3c8e8ec8	0.017402068
57	0xbe847fea	-0.2587884
58	0x3dfc4567	0.12317925
59	0x3dfff448	0.12497765
60	0xbe1d38b8	-0.15353668
61	0xbe806d77	-0.25083515
62	0x3e2ad503	0.1668282
63	0xbe241c05	-0.16026314
64	0xbe2230f6	-0.1583899
65	0xbf10e7c6	-0.5660366
66	0x3e8522eb	0.26003203
67	0xbcf364b4	-0.029711105
68	0xbeda7fb2	-0.4267555
69	0x3b5885db	0.0033038768
70	0x3ee6ab1f	0.4505243
71	0xbe41c744	-0.1892367
72	0xbd896ee8	-0.06710607
73	0x3cfc5273	0.030801034
74	0x3dd76234	0.10516778
75	0x3ed5f9e9	0.4179223
76	0x3e06074a	0.13088718
77	0x3e1bbb8f	0.15208267
78	0x3e98100b	0.2969974
79	0x3cca3275	0.024682263
80	0xbe7f2700	-0.24917221
81	0xbeaa97ee	-0.33319038
82	0xbc68ff3e	-0.014221011
83	0xbf03d7de	-0.5150126
84	0xbe4bc2b6	-0.19898495
85	0x3d0488a2	0.032356866
86	0xbced73e1	-0.02898592
87	0x3d32b602	0.043630607
88	0xbe283cb2	-0.16429403
89	0xbe9e0b9a	-0.30868226
90	0xbd79cc74	-0.060985997
91	0xbd67432c	-0.056460544
92	0x3e9e027c	0.3086127
93	0x3c20a769	0.009805539
94	0x3ec80d7a	0.39072782
95	0x3ef7ca8e	0.48396724
96	0x3d7d0587	0.06177285
97	0x3ecddb78	0.40206504
98	0x3f13baba	0.577068
99	0xbeffc794	-0.49956954
100	0x3e342ed3	0.17595987
101	0xbe8730ab	-0.26404318
102	0x3e88c086	0.26709384
103	0xbdb2bdff	-0.08727645
104	0x3dba86c0	0.09107733
105	0x3e4fd4e1	0.2029605
106	0x3c977abb	0.01849114
107	0x3d82d97c	0.06389138
108	0xbf01f3b4	-0.50762486
109	0xbe8cea17	-0.27522346
110	0xbce53e1c	-0.027983718
111	0xbdaf0a5e	-0.08546899
112	0xbe7d3749	-0.24728121
113	0x3e9d5968	0.30732274
114	0x3e872123	0.2639247
115	0xbed1e573	-0.40995368
116	0x3e85990f	0.26093337
117	0xbec367fb	-0.38165268
118	0xbca93320	-0.020654261
119	0x3ea82a09	0.3284457
120	0x3e30c3a4	0.17262131
121	0xbd640cfe	-0.055676453
122	0xbe3dbb3d	-0.18528457
123	0x3cb7a27e	0.02241635
124	0xbe99753d	-0.29972258
125	0x3ec7361c	0.3890847
126	0xbd88a88c	-0.06672773
127	0x3ef8e92e	0.48615402
128	0x3e706e37	0.23479544
129	0xbf0fe8d9	-0.5621467
130	0x3d600cea	0.054699816
131	0x3eecb9be	0.4623546
132	0xbe0c71c7	-0.13715278
133	0xbe6267bf	-0.22109888
134	0x3c779514	0.015111227
135	0xbd34aa68	-0.044107825
136	0x3f02ee4b	0.51144856
137	0x3e99686b	0.29962477
138	0x3f1d4d60	0.6144619
139	0xbcf79472	-0.030222151
140	0x3efb5433	0.49087676
141	0xbdf31544	-0.118692905
142	0xbe80b282	-0.2513619
143	0xbe89579a	-0.26824647
144	0xbea50bb9	-0.32235506
145	0x3e5ed81a	0.21762124
146	0x3ebce9f5	0.36897245
147	0x3e262cd9	0.16228046
148	0x3f03a61b	0.5142533
149	0x3be54f39	0.0069979695
150	0x3e01df8f	0.12682937
151	0x3e864ba3	0.2622958
152	0xbe0bef70	-0.13665557
153	0xbe52b6cd	-0.20577545
154	0xbe8ded64	-0.27720177
155	0x3e82cc3c	0.25546443
156	0xbdcf2410	-0.101143
157	0xbf006708	-0.50157213
158	0xbf2a8713	-0.66612357
159	0x3cf66ce3	0.030081218
160	0x3e5c5c91	0.21519686
161	0xbe524d2a	-0.20537248
162	0x3ee596cf	0.4484162
163	0x3e924e3a	0.28575307
164	0xbdece65f	-0.11567377
165	0x3ef6d618	0.48210216
166	0xbcd43e55	-0.025908628
167	0x3e8d3e17	0.27586433
168	0x3e6d9787	0.23202334
169	0xbf235da3	-0.63814753
170	0xbc01ad38	-0.007914834
171	0xbeb86e4f	-0.3602166
172	0x3cb4e721	0.022082867
173	0x3c8551ff	0.01627445
174	0x3e7cc111	0.24683024
175	0xbd93a971	-0.07210053
176	0x3c9106e3	0.01770348
177	0x3d2c9f3e	0.042144053
178	0xbf143cf1	-0.5790549
179	0xbe917b1a	-0.28414232
180	0x3ec4709d	0.38367167
181	0xbd67ead2	-0.056620426
182	0x3e83ad5a	0.25718194
183	0x3edd1d0f	0.43186232
184	0xbd172f0a	-0.036910094
185	0x3d7f7f75	0.062377412
186	0x3ea11ac5	0.31465736
187	0xbeb31eae	-0.34984344
188	0xbd49d57c	-0.04927586
189	0x3e1a5196	0.15070185
190	0x3e657aed	0.22410174
191	0xbdd8e613	-0.10590758
192	0x3d8389e6	0.064227864
193	0x3d0b1681	0.03395701
194	0x3dc1ec91	0.094689496
195	0x3e8c139c	0.2735871
196	0x3e36e5fb	0.17861168
197	0xbd518060	-0.05114782
198	0x3e9fca06	0.3120882
199	0x3e18ff1a	0.14941064
200	0xbe50d8fa	-0.2039527
201	0x3d239f9c	0.039947137
202	0x3ccccce4	0.025000043
203	0xbea8c4dd	-0.32962695
204	0xbd31f654	-0.043447807
205	0x3d27e2cd	0.04098778
206	0xbe8f01a2	-0.27930933
207	0xbe2bc45d	-0.16774125
208	0xbdda13ea	-0.106483296
209	0xbf251339	-0.64482456
210	0xbd590b86	-0.052989505
211	0xbddff58e	-0.10935508
212	0xbf0761e5	-0.5288375
213	0xbea41899	-0.32050017
214	0x3dee921d	0.11648963
215	0xbec94200	-0.39308167
216	0xbf05ee40	-0.52316666
217	0x3de22b63	0.110434316
218	0x3beb2060	0.0071754903
219	0xbe87327b	-0.264057
220	0xbe71ce4b	-0.23613851
221	0xbea8a7f7	-0.32940647
222	0xbacf0b9d	-0.0015796308
223	0x3e02cb1a	0.1277279
224	0x3e18c7b2	0.14919928
225	0x3de1ae14	0.11019531
226	0xbdc677ba	-0.09690805
227	0x3eacbd6b	0.33738264
228	0xbe0a305d	-0.13495012
229	0x3c2637df	0.010145157
230	0xbe91a68f	-0.28447387
231	0xbecd3812	-0.4008184
232	0x3edea160	0.43482494
233	0xbdc0b031	-0.09408606
234	0xbe9f3938	-0.31098342
235	0x3de9f7eb	0.1142424
236	0xbb9444ba	-0.0045247944
237	0xbe65f127	-0.22455274
238	0xbd96edf1	-0.073696025
239	0x3ef089d1	0.46980146
240	0x3e2b5172	0.16730288
241	0xbe67560c	-0.22591418
242	0x3e963842	0.29339796
243	0xbe668e82	-0.225153
244	0x3f0a2a1d	0.5397051
245	0xbd15da15	-0.036584932
246	0xbe277034	-0.16351396
247	0xbed50d8e	-0.41611904
248	0x3daef847	0.08543449
249	0xbf04198e	-0.51601493
250	0x3d30c7bf	0.043159243
251	0xbd26438a	-0.040591754
252	0x3eaf16c5	0.3419706
253	0xbe95fd65	-0.29294887
254	0x3dec60c8	0.11541897
255	0xbe97cee6	-0.29650038

conv1.bias f4 [20]
0	0x3f99ef92	1.2026236
1	0xbdc76a46	-0.09737067
2	0x3c0f3892	0.008741515
3	0x3e923e31	0.28563073
4	0x3dd593ec	0.104286045
5	0xbe15b225	-0.14618738
6	0x3d3787d3	0.044807266
7	0x3efcedc1	0.49400142
8	0x3da4294b	0.080156885
9	0xbde868a5	-0.11348084
10	0xbc3bf19d	-0.011471179
11	0xbddf4a5e	-0.10902856
12	0xbf545c7c	-0.8295362
13	0x3db00dcf	0.08596384
14	0xbd37b00e	-0.044845633
15	0x3ea0b465	0.3138763
16	0xbf0ecc63	-0.5578062
17	0xbdccb99e	-0.09996341
18	0x3d1d1ea5	0.038359303
19	0x3dbe6c45	0.092979945

pool1.weight f4 [20, 20, 3, 1, 1]
0	0x3d46c7a4	0.048530236
1	0xbe4ce843	-0.20010476
2	0x3cc21e1d	0.023696
3	0xbc8cf55b	-0.017206838
4	0x3e5d7443	0.21626382
5	0x3e03e739	0.12881173
6	0xbdebd7fe	-0.115158066
7	0x3e3399d8	0.17539155
8	0xbe4b65db	-0.19863074
9	0x3e36e71c	0.17861599
10	0xbe820696	-0.2539565
11	0x3dd37da7	0.10326701
12	0xbeac23ef	-0.33621165
13	0xbd20479d	-0.039130796
14	0x3e206db5	0.1566685
15	0xbd352dc4	-0.0442331
16	0xbec416b3	-0.38298568
17	0x3e7408df	0.23831509
18	0xbeab0446	-0.33401698
19	0xbeae0385	-0.3398706
20	0xbeb2ca70	-0.34920073
21	0xbe38450f	-0.17995094
22	0x3defcf3f	0.11709451
23	0x3d516409	0.05112079
24	0x3cb707c6	0.022342574
25	0x3dc26adf	0.0949304
26	0x3da233a9	0.0792001
27	0xbe49b770	-0.19698882
28	0x3e102f10	0.14080453
29	0xbc8708f6	-0.016483765
30	0xbe3a9fc8	-0.18225014
31	0x3b99eacc	0.0046971794
32	0x3cd330a2	0.025780026
33	0x3e8877d6	0.26653928
34	0x3ca156df	0.019694744
35	0x3e48240b	0.19545
36	0xbe17dab3	-0.14829521
37	0x3e3f69de	0.18692729
38	0x3dd4deea	0.1039408
39	0xbea3daea	-0.32002956
40	0xbe2bd927	-0.16782056
41	0xbdee948d	-0.116494276
42	0x3dfd5123	0.12368991
43	0x3dc96e46	0.09835486
44	0xbd81d0eb	-0.06338676
45	0x3e1d3f81	0.15356256
46	0xbd94ad24	-0.072595865
47	0xbe52c751	-0.20583846
48	0x3e9f54db	0.31119427
49	0xbe57f7b0	-0.21090579
50	0xbe29b5e8	-0.16573298
51	0x3d9b004f	0.07568418
52	0xbe899ec3	-0.26878938
53	0x3e6872d1	0.22700049
54	0x3e0bc53e	0.1364946
55	0x3e14a08c	0.14514369
56	0xbe813adc	-0.2524022
57	0x3e5c7215	0.21527894
58	0x3aa2b43b	0.0012413332
59	0xbdba46cd	-0.090955354
60	0xbe7cc15a	-0.24683133
61	0xbe647e44	-0.22313792
62	0xbe336e8b	-0.17522638
63	0xbe5d2c6f	-0.21598981
64	0xbc411b5d	-0.011786309
65	0xbe8c7e2d	-0.27440014
66	0xbe2ad085	-0.16681106
67	0xbc8b8e44	-0.017035611
68	0x3e809ac4	0.25118077
69	0xbe58ff88	-0.21191227
70	0xbecbc167	-0.39795992
71	0x3d6cc998	0.057809442
72	0x3ded4685	0.11585716
73	0x3d5ef360	0.05443132
74	0x3d89b922	0.067247644
75	0x3deba7ea	0.115066364
76	0xbe82e5a9	-0.25565842
77	0xbdc16552	-0.094431534
78	0xbe78d721	-0.24300815
79	0x3e901101	0.28137973
80	0x3dd5dbd7	0.10442322
81	0x3cf38ac1	0.029729249
82	0x3e89766a	0.26848155
83	0xbdeee7e6	-0.11665325
84	0xbdf1df25	-0.118101396
85	0x3eaaac66	0.33334655
86	0xbea47f29	-0.32128266
87	0x3e19462b	0.14968173
88	0xbe56b020	-0.20965624
89	0x3d862b2c	0.06551203
90	0xbdfe10a2	-0.12405516
91	0xbd41b110	-0.047288
92	0xbe203f8f	-0.15649246
93	0xbe8808f2	-0.26569325
94	0xbda094bb	-0.07840868
95	0x3e127dd3	0.1430581
96	0x3e131dbd	0.14366813
97	0x3e9f5846	0.31122035
98	0xbdbba5ff	-0.091625206
99	0x3d8d98f8	0.06913942
100	0x3e2fabb5	0.17155345
101	0x3da333d2	0.07968868
102	0xbc820d44	-0.015875466
103	0xbe3ad54d	-0.1824543
104	0x3e1ae2f9	0.15125646
105	0x3ebe26c5	0.37138954
106	0x3eb5ec4a	0.35531837
107	0xbd264fa4	-0.040603295
108	0x3e938c0a	0.2881778
109	0xbe4f2229	-0.20227875
110	0x3e7b91bb	0.2456731
111	0x3e038880	0.1284504
112	0xbdf3c1c3	-0.119021915
113	0xbc7e60a3	-0.01552597
114	0xbeb5931c	-0.35463798
115	0x3dec94c5	0.11551813
116	0xbe4bb52f	-0.19893335
117	0x3e4a441b	0.19752543
118	0x3d4184d0	0.0472458
119	0xbe5e5bd2	-0.21714714
120	0xbe4c2e34	-0.199395
121	0xbe24ef5e	-0.16106936
122	0x3c9d29bb	0.019184938
123	0xbdd0919a	-0.10184021
124	0x3e782805	0.24234016
125	0x3e0bc86f	0.13650678
126	0xbdc9a598	-0.098460376
127	0x3da56206	0.08075337
128	0xbe8ad02f	-0.27111956
129	0x3ed5675b	0.41680416
130	0x3e27dd81	0.16393091
131	0xbdc8c454	-0.098030716
132	0xbd15c32b	-0.03656308
133	0x3e9bc2ca	0.3042205
134	0x3cb4d4fd	0.022074217
135	0xbe3c2dfb	-0.18376915
136	0x3e8a472c	0.27007425
137	0x3e0a97ad	0.13534422
138	0x3e42bc55	0.19017155
139	0xbe806d18	-0.25083232
140	0x3dbb7c20	0.09154534
141	0x3dfdd573	0.12394228
142	0xbed67a92	-0.4189039
143	0x3e74c177	0.23901926
144	0x3d826b88	0.06368166
145	0xbd113d7c	-0.035459027
146	0x3dc0d8c2	0.09416343
147	0xbd9dd5f8	-0.07706827
148	0x3dc13fee	0.09436022
149	0xbe2c2dde	-0.16814372
150	0x3e03fd58	0.12889612
151	0xbe886d56	-0.26645917
152	0xbd93c3b0	-0.07215059
153	0xbec977be	-0.3934917
154	0x3ddc04d5	0.10743109
155	0xbdad5f7d	-0.084654786
156	0x3d48f2e7	0.049059775
157	0x3d8ba0c0	0.0681777
158	0x3c77ae55	0.015117248
159	0x3e15d6e5	0.14632757
160	0xbce6bab8	-0.028165206
161	0x3d28cd74	0.04121156
162	0xbe49dcda	-0.19713154
163	0xbdf4218e	-0.119204625
164	0xbdb8a6a8	-0.09016162
165	0x3dde1c66	0.1084526
166	0xbe020209	-0.12696089
167	0x3d6cf568	0.057851225
168	0xbba08df2	-0.0048997337
169	0xbdce453a	-0.10071798
170	0x3e9510df	0.29114434
171	0xbda5d5f4	-0.08097449
172	0xbe1f461e	-0.15554091
173	0xbe49699d	-0.19669195
174	0x3e9990c4	0.2999326
175	0x3dc41987	0.095751815
176	0x3e9f7fbd	0.31152144
177	0xbcd2a6e0	-0.025714338
178	0x3e97aa1c	0.2962197
179	0x3da844de	0.082162604
180	0x3cb871be	0.022515174
181	0x3f222bb3	0.6334793
182	0x3de99caa	0.114068344
183	0x3e172b84	0.14762694
184	0x3c8fae08	0.01753904
185	0xbd828dfb	-0.06374737
186	0xb8afe730	-8.387712e-05
187	0x3e207834	0.15670854
188	0x3eb700ee	0.35742897
189	0xbe6c17de	-0.2305598
190	0x3d1e113d	0.03859066
191	0x3e84184d	0.2579979
192	0x3e4d8379	0.20069684
193	0x3e1e4beb	0.15458648
194	0x3ece95c5	0.4034864
195	0x3e4c0b63	0.19926219
196	0x3c8d8653	0.017275965
197	0xbe3b212c	-0.18274373
198	0x3e7dcbea	0.24784818
199	0xbe0e4036	-0.13891682
200	0xbd277eb4	-0.040892318
201	0x3e5ef19a	0.21771851
202	0xbe8586fd	-0.2607955
203	0xbed22387	-0.4104273
204	0xbe355ad6	-0.17710432
205	0x3d9d43b8	0.07678932
206	0xbe313653	-0.1730588
207	0xbe9d0769	-0.30669716
208	0x3dfea620	0.124340296
209	0x3eee1c24	0.46505845
210	0xbe483105	-0.1954995
211	0xb8acd23f	-8.2407605e-05
212	0xbe53a069	-0.2066666
213	0x3d805d9f	0.06267857
214	0xbd197c2b	-0.03747193
215	0xbe195a15	-0.1497577
216	0xbe3b2a55	-0.18277867
217	0xbe9c3282	-0.30507284
218	0xbdf3ca7a	-0.11903854
219	0xbe17938f	-0.14802383
220	0x3e51d5cc	0.20491713
221	0x3ea34a83	0.31892785
222	0xbd829836	-0.06376688
223	0xbe8f5288	-0.27992654
224	0x3e7f1dd1	0.24913718
225	0x3ea03bf5	0.31295744
226	0xbe437516	-0.19087633
227	0xbb308e05	-0.002694012
228	0xbe39e659	-0.18154277
229	0x3e0e371d	0.13888212
230	0xbe42802c	-0.18994206
231	0x3cc09284	0.023507364
232	0xbdaf1886	-0.08549599
233	0xbe68f09a	-0.22748032
234	0x3e440bd0	0.19145131
235	0xbc0e12c4	-0.008671466
236	0xbe8003eb	-0.2500299
237	0xbcdbe17e	-0.026840921
238	0xbe103cb1	-0.14085652
239	0x3e30e17e	0.17273518
240	0xbd695aee	-0.056971483
241	0xbd7c4758	-0.061591476
242	0xbe140926	-0.14456615
243	0xbe246e88	-0.1605779
244	0x3e5aa093	0.21350317
245	0xbdaeeae7	-0.08540898
246	0xbcf09834	-0.029369451
247	0xbda7d52e	-0.08194958
248	0x3d33df20	0.04391396
249	0x3dccfbbb	0.10008951
250	0xbd7b55ab	-0.061360996
251	0xbe5eddb1	-0.21764256
252	0xbe062edf	-0.13103817
253	0xbe585f09	-0.21130003
254	0x3cfa8ecc	0.030585669
255	0x3e1feaac	0.15616864

pool1.bias f4 [20]
0	0xbd0560fb	-0.03256319
1	0x3c4a7350	0.012356594
2	0xbd8ac98f	-0.067767255
3	0x3e2b974c	0.16756934
4	0x3c85e30b	0.016343614
5	0xbd710a98	-0.058847994
6	0xbdddfbf4	-0.10839072
7	0x3b09f5aa	0.0021050968
8	0x3db14206	0.08655171
9	0xbf071f9d	-0.52782613
10	0xbec1d764	-0.37859643
11	0xbd8e180f	-0.069381826
12	0xbece3d9c	-0.4028138
13	0x3c8d85a9	0.017275648
14	0x3f018a7f	0.50601953
15	0xbea346ce	-0.31889957
16	0x3d6972e4	0.056994334
17	0x3e808652	0.25102478
18	0x3ebbc894	0.36676466
19	0xbd7ab84d	-0.06121092

conv2.weight f4 [35, 20, 3, 3, 3]
0	0xbd7258b3	-0.05916662
1	0xbb898a00	-0.004197359
2	0x3d577ce5	0.052609343
3	0xbce8b0d4	-0.02840463
4	0x3de3dff5	0.11126701
5	0xbd226813	-0.039650034
6	0xbcbc7545	-0.023005137
7	0xbbd7d5bd	-0.006586759
8	0x3c20080e	0.009767545
9	0xbdf9ef88	-0.1220389
10	0xbd626b00	-0.055277824
11	0xbdaefe08	-0.08544546
12	0xbcb6a0ec	-0.02229353
13	0xbe21dd96	-0.15807185
14	0xbd376204	-0.04477121
15	0x3c825496	0.015909474
16	0x3ded5963	0.11589315
17	0x3d91f5e1	0.07126976
18	0x3d52237e	0.05130338
19	0xbcef88de	-0.029240068
20	0xbdef9134	-0.11697617
21	0x3cd4cc5e	0.025976356
22	0xbd382315	-0.04495533
23	0x3d382024	0.044952527
24	0xbc9eb548	-0.019373551
25	0x3d08568e	0.03328567
26	0xbc941964	-0.018078513
27	0xbd0a335b	-0.033740383
28	0xbce93c56	-0.028471153
29	0x3d866008	0.06561285
30	0xbe0a8703	-0.13528065
31	0xbd84bc6e	-0.064812526
32	0x3bc8a3ce	0.0061230427
33	0x3d51fa5a	0.051264144
34	0xbda6cc33	-0.08144417
35	0xbda65fab	-0.08123716
36	0x3ca993be	0.020700332
37	0x3bbb1b2b	0.005710026
38	0xbd4b2ec2	-0.04960514
39	0xbd4c20f9	-0.049836133
40	0x3da3b29b	0.07993051
41	0xbd1dcab6	-0.0385234
42	0xbc9ac329	-0.018891888
43	0xbdd139ac	-0.10216078
44	0x3daeac17	0.08528917
45	0x3db7f4e5	0.08982257
46	0xbdbce645	-0.09223608
47	0xbb1b9a85	-0.0023743224
48	0xbcdf64ac	-0.027269684
49	0x3c8ae581	0.01695514
50	0xbc66d979	-0.014089935
51	0xbd35fdb0	-0.04443139
52	0x3b86d6ec	0.004114976
53	0x3d85d455	0.0653464
54	0xbe0eddc3	-0.13951783
55	0x3bed438d	0.0072407187
56	0xbd7c95d2	-0.061666317
57	0x3c5a8390	0.013337031
58	0x3d688dce	0.05677586
59	0xbc87fd20	-0.016600192
60	0x3d671efe	0.05642604
61	0xbcd1240b	-0.025529882
62	0x3c16be56	0.009200653
63	0x3c823600	0.01589489
64	0x3e1749f3	0.14774303
65	0xbb5ccc30	-0.0033691041
66	0x3d867659	0.06565542
67	0x3d985e9e	0.07439922
68	0x3d93b613	0.07212462
69	0xbd600ab0	-0.054697692
70	0xbd129214	-0.035783842
71	0xbdb2d1ff	-0.0873146
72	0xbdbfead7	-0.09370964
73	0xbd02d6eb	-0.031943243
74	0xbe1d059f	-0.15334176
75	0x3cecb9b4	0.028897144
76	0x3cb5ab4c	0.022176407
77	0x3d0d40a9	0.034485493
78	0x3d851854	0.06498781
79	0xbd4069df	-0.046975967
80	0x3c0f7d5a	0.0087579135
81	0x3d04b343	0.03239752
82	0x3af0666e	0.0018341073
83	0x3dc01411	0.09378827
84	0xbc5f1da4	-0.013617907
85	0xbcfbe9e0	-0.030751169
86	0xbcfe1dfa	-0.031020153
87	0x3d45c6ba	0.048285224
88	0x3d91155d	0.07084153
89	0xbcbbd001	-0.022926332
90	0x3d39c20c	0.045351073
91	0xbd33f6fc	-0.043936715
92	0x3c72a230	0.014809176
93	0x3d23e821	0.040016297
94	0xbd297097	-0.04136714
95	0xbda62341	-0.08112193
96	0xbd4cb2e6	-0.0499753
97	0xbd68da42	-0.056848772
98	0x3d8b50fa	0.068025544
99	0x3c6594ba	0.01401251
100	0xbd72def5	-0.05929466
101	0x3d068e0e	0.032850318
102	0x3c622b17	0.013804219
103	0x3d098859	0.033577297
104	0x3cbdd9f3	0.023175215
105	0xbb9b1dbd	-0.0047337697
106	0x3cbcaa81	0.023030521
107	0x3d929b98	0.071585834
108	0xbda66caf	-0.081261985
109	0xb9f9c8c3	-0.0004764256
110	0xbceaedb0	-0.028677791
111	0xbd528fd3	-0.051406693
112	0xbd7a1065	-0.06105079
113	0xbdce0de3	-0.100612424
114	0x3d6bcfda	0.05757127
115	0xbe32e13e	-0.17468736
116	0xbdf6568c	-0.12028226
117	0x3c8a7a8b	0.016904136
118	0x3d1bb685	0.03801586
119	0xbcacb9bc	-0.021084659
120	0x3bebb10f	0.007192738
121	0x3c0546d9	0.008134567
122	0xbc73f24f	-0.014889314
123	0xbb9b28d1	-0.0047350903
124	0x3be4e66f	0.0069854776
125	0xbc95cf94	-0.018287458
126	0x3db8b0b2	0.09018077
127	0x3d69ac81	0.05704928
128	0x3cf84f3e	0.030311223
129	0x3e1560a2	0.14587644
130	0x3d1d37c7	0.03838327
131	0x3d09495a	0.03351722
132	0x3e0cbbe0	0.13743544
133	0xbc8a1e44	-0.016860135
134	0x3db9a3fc	0.09064481
135	0x3ca2b24a	0.019860405
136	0xbb0233d0	-0.0019867308
137	0xbd94c4fd	-0.07264135
138	0x3e101a95	0.1407264
139	0xbda0639a	-0.078314975
140	0xbd1557e0	-0.036460757
141	0x3daaf4a7	0.08347445
142	0x3d45e21f	0.04831135
143	0xbc425cf1	-0.011862979
144	0x3d77de63	0.06051482
145	0x3c2f400e	0.010696424
146	0x39835f34	0.000250572
147	0xbcb17cdc	-0.021665983
148	0x3d38b66b	0.045095842
149	0xbd1376d5	-0.036002
150	0xbc5d5907	-0.013509995
151	0x3e23feb3	0.16015129
152	0x3d45715f	0.048203822
153	0xbd59153c	-0.052998766
154	0x3c62c86f	0.013841732
155	0x3da61794	0.08109966
156	0x3dcd13a5	0.100135125
157	0xbcb739ac	-0.022366367
158	0xbd884d0c	-0.066553205
159	0xbcaf9c8d	-0.021436954
160	0xbc4903cd	-0.012268973
161	0x3e3aeaa8	0.18253577
162	0x3d5a4412	0.053287573
163	0x3e2bd64c	0.16780967
164	0x3a9c50c3	0.0011925924
165	0xbd56dd8f	-0.05245739
166	0x3d8eac73	0.06966486
167	0x3da40602	0.080089584
168	0x3de7d8b3	0.11320629
169	0x3d76831b	0.060183626
170	0xbcca5b83	-0.02470184
171	0xbcc60b8a	-0.024175424
172	0xbd5661f2	-0.0523395
173	0xbdaf415c	-0.08557388
174	0x3cd2b498	0.02572088
175	0x3cca1a9d	0.024670893
176	0xbcb3d140	-0.021950364
177	0x3d67a9da	0.056558467
178	0xbda74943	-0.081682704
179	0xbc947527	-0.018122269
180	0xbd2fa7b9	-0.042884562
181	0xbb9d6be8	-0.004804123
182	0xbd0dbe98	-0.034605592
183	0x3c9ed4d9	0.019388603
184	0x3d43ca43	0.047800314
185	0xbcd4be64	-0.025969692
186	0x3d56b648	0.05241993
187	0x3cffadf5	0.031210879
188	0x3c2cf67c	0.010556813
189	0xbcfe0a52	-0.03101078
190	0xbcc44990	-0.023960859
191	0xbc47beb3	-0.012191462
192	0x3c365f73	0.011131155
193	0x3d1adfdb	0.03781114
194	0xbbfbf389	-0.0076889438
195	0x3e04c3ed	0.12965365
196	0x3d3d285c	0.046181068
197	0xbc002d19	-0.007823252
198	0xbd50bdf6	-0.05096241
199	0xbd465953	-0.04842503
200	0x3da1b6a5	0.07896165
201	0x3d12b8a6	0.035820626
202	0x3d921718	0.07133311
203	0x3cfc7288	0.030816332
204	0x3dccb378	0.099951684
205	0x3df28637	0.11842006
206	0x3d6c2825	0.057655472
207	0xbd2fdcdd	-0.04293524
208	0x3db2f935	0.08738939
209	0xbd42516e	-0.04744094
210	0x3aab3ace	0.001306379
211	0xbc21e84e	-0.009882046
212	0xbd1559ed	-0.036462713
213	0x3d5c49c3	0.053781282
214	0x3ca3d1cc	0.0199975
215	0xbd626ca9	-0.055279408
216	0x3dbf02e2	0.09326722
217	0x3d7d1304	0.061785713
218	0xbce6be9e	-0.028167065
219	0x3df7e572	0.1210431
220	0xbb330b22	-0.0027319868
221	0x3c7ded8a	0.015498528
222	0x3d533e65	0.051573176
223	0x3c8ce6a5	0.017199824
224	0x3dbad745	0.09123091
225	0x3b0f042c	0.0021822555
226	0xbc23e73f	-0.010003864
227	0x3c1fc64b	0.009751867
228	0xbc317d32	-0.010833072
229	0x3d068fd9	0.032852028
230	0x3cc7adae	0.02437481
231	0xbd07acee	-0.033123903
232	0xbbf03c6b	-0.007331421
233	0x3ca0e04b	0.019638201
234	0xbbe07557	-0.0068499255
235	0x3d66d79f	0.056357976
236	0x3b8ecdf9	0.00435805
237	0x3c5bfcc8	0.013426967
238	0xbb8dbd33	-0.004325533
239	0xbdf63283	-0.12021353
240	0xbc88fe1d	-0.016722733
241	0xbc6710c8	-0.014103122
242	0xbd856b2e	-0.065145835
243	0x3db57e7e	0.08862017
244	0x3e1f8f9e	0.1558213
245	0x3be62af4	0.0070241634
246	0x3c9b1357	0.01893012
247	0x3da009c6	0.07814364
248	0x3c4e19a3	0.012579354
249	0x3df7c380	0.120978355
250	0x3e0aefba	0.13568011
251	0x3e0e1b5a	0.13877621
252	0xbd4497bd	-0.04799627
253	0xbda41ce6	-0.080133244
254	0xbe0b0b93	-0.13578634
255	0x3d0597a6	0.032615326

conv2.bias f4 [35]
0	0x3da89746	0.08231978
1	0x3d14b7ac	0.036307976
2	0x3bcb8cea	0.0062118666
3	0xbc649b8d	-0.013953102
4	0xbc3b11f8	-0.011417858
5	0xbd51633a	-0.05112002
6	0x3c5f2a01	0.013620854
7	0x3cfcc363	0.030854886
8	0x3c4fa521	0.012673647
9	0x3d907368	0.07053262
10	0xbcf26302	-0.029588226
11	0xbc1c97b7	-0.009557656
12	0xbb99b321	-0.0046905433
13	0xbd169956	-0.036767326
14	0x3c9fc7e4	0.019504495
15	0xbcc0a149	-0.023514407
16	0x3d49b513	0.04924495
17	0xbc9a5cec	-0.018843137
18	0x3dfd2b77	0.12361806
19	0x3c92046c	0.017824374
20	0xbd22571c	-0.039633855
21	0xbde59e00	-0.11211777
22	0xbd81eb26	-0.06343679
23	0xbc836fd6	-0.016044538
24	0xbe107f87	-0.14111148
25	0xbd7ff07d	-0.062485207
26	0xbdb0da46	-0.08635382
27	0x3cdcf42c	0.026971899
28	0xbcd8b63e	-0.026454087
29	0xbc94b15b	-0.018150976
30	0x3b937afe	0.004500746
31	0xbc2fdf9a	-0.010734463
32	0xbc060c0d	-0.008181584
33	0xbd3e5f44	-0.04647757
34	0xbd939a71	-0.07207192

pool2.weight f4 [35, 35, 3, 1, 1]
0	0xbdb24093	-0.08703723
1	0xbe24571b	-0.16048853
2	0xbe303a3b	-0.17209713
3	0xbe2ed926	-0.17075023
4	0xbd0d6ef0	-0.034529626
5	0x3e6628c7	0.22476493
6	0x3d90c1be	0.070682034
7	0xbe7bd35b	-0.24592344
8	0xbd6e9fde	-0.05825793
9	0xbcb9bb97	-0.022672458
10	0xbe26228b	-0.16224115
11	0x3dab32b4	0.0835928
12	0x3d6c7a20	0.057733655
13	0x3c98933c	0.018624894
14	0xbdfce20a	-0.12347801
15	0x3d4371e2	0.04771603
16	0x3e29df40	0.1658907
17	0x3e30645e	0.17225787
18	0xbdc8c286	-0.098027274
19	0xbda45be3	-0.080253385
20	0xbdc0d332	-0.09415282
21	0xbda3ade5	-0.07992152
22	0x3da73d87	0.08166032
23	0x3e3115f9	0.17293538
24	0xbe098cec	-0.13432664
25	0x3e1af467	0.15132295
26	0xbe6aeb38	-0.22941291
27	0xbdd2d5d7	-0.10294693
28	0xbe368d24	-0.17827278
29	0x3d098dbb	0.03358243
30	0x3e6b3832	0.22970656
31	0xbd4cf874	-0.05004163
32	0xbbaff1d9	-0.0053694067
33	0xbde431e3	-0.11142328
34	0xbdb4dc55	-0.088310875
35	0xbdb4c026	-0.08825712
36	0xbcfe94fa	-0.031076897
37	0xbe06e6cc	-0.1317398
38	0xbed5a8eb	-0.41730437
39	0xbbeaa5fa	-0.007160899
40	0x3e2ad211	0.16681696
41	0xbd0440af	-0.03228825
42	0x3e8caad9	0.27474096
43	0x3e9b60c2	0.30347258
44	0xbd1359ba	-0.03597424
45	0xbdb7a722	-0.08967425
46	0x3df1928d	0.117955305
47	0xbba548dc	-0.005044086
48	0xbe6af005	-0.22943123
49	0xbe67e84c	-0.22647208
50	0x3da0da18	0.07854098
51	0x3e105e95	0.1409858
52	0x3e378d11	0.17924906
53	0xbbaa10c6	-0.005189988
54	0x3e5a390a	0.21310821
55	0xbe5ce47e	-0.21571538
56	0xbe32c031	-0.17456128
57	0xbdb820ea	-0.08990653
58	0xbdb39c82	-0.08770086
59	0x3e19e8cb	0.1503021
60	0x3e58fda2	0.21190503
61	0xbceb1579	-0.028696762
62	0xbdeb0881	-0.11476231
63	0x3dccf60a	0.10007866
64	0xbe31cbb7	-0.17362867
65	0x3e0000aa	0.12500253
66	0x3e1a0fb7	0.15045057
67	0x3d87855d	0.06617234
68	0x3e9cb288	0.3060496
69	0x3e050bf3	0.1299284
70	0xbe53120c	-0.20612353
71	0x3d037777	0.032096352
72	0xbe6ba37a	-0.2301158
73	0x3dabfc78	0.08397764
74	0xbc888ef6	-0.016669732
75	0x3e26e371	0.162977
76	0x3c11ab3d	0.008890924
77	0x3d083e96	0.03326281
78	0xbcc4a3a1	-0.024003806
79	0xbdc2cb75	-0.095114626
80	0x3d8a701e	0.06759666
81	0x3dec43e8	0.115363896
82	0xbbdbf4ec	-0.0067125466
83	0x3cb7bbb8	0.022428378
84	0xbe7adf65	-0.24499281
85	0xbccef112	-0.025261436
86	0xbe51b50a	-0.20479217
87	0x3d9b4377	0.07581227
88	0xbc3c850f	-0.011506333
89	0x3db4cb68	0.08827859
90	0x3e88b009	0.26696804
91	0xbdba071b	-0.090833865
92	0x3c42b125	0.011883055
93	0x3e500c69	0.20317234
94	0xbdf4dd00	-0.11956215
95	0xbe5c2807	-0.21499644
96	0x3d049b4c	0.032374665
97	0xbd41308f	-0.04716545
98	0x3cf26852	0.02959076
99	0x3d2b6579	0.04184482
100	0xbde304bc	-0.110848874
101	0xbddc2091	-0.10748399
102	0xbe977c7c	-0.29587162
103	0x3cd9c692	0.026583944
104	0xbdf10a4b	-0.11769541
105	0x3e2eb045	0.17059429
106	0x3e46d8ec	0.19418687
107	0x3dd90ba5	0.10597924
108	0xbd3024dc	-0.0430039
109	0xbcf55bad	-0.029950941
110	0x3d93f5ac	0.072245926
111	0xba9a6eaa	-0.0011782248
112	0x3dc12eb2	0.094327345
113	0x3cb76d28	0.022390917
114	0x3de76f83	0.11300566
115	0xbeb367f0	-0.35040236
116	0x3d256e50	0.040388405
117	0xbdb4d66c	-0.0882996
118	0xbc0c6408	-0.008568771
119	0xbe1dd402	-0.15412906
120	0xbe682064	-0.22668606
121	0xbe119296	-0.14216074
122	0xbd2b6f4b	-0.041854184
123	0x3dc4214e	0.09576665
124	0x3d94da1a	0.07268162
125	0x3e0b2f8c	0.13592356
126	0x3e1dfbc2	0.15428069
127	0x3e167ef0	0.1469686
128	0xbe3be1ff	-0.1834793
129	0x3d87f668	0.06638795
130	0xbe3b1f5c	-0.18273681
131	0x3cb6425e	0.022248443
132	0xbe0cab8e	-0.13737318
133	0x3d0de4cb	0.034642022
134	0xb9d28da1	-0.00040159843
135	0x3dd5e4f9	0.10444064
136	0x3de974de	0.11399244
137	0xbde3db0b	-0.111257635
138	0xbe0a4234	-0.13501817
139	0x3cd31b43	0.025769835
140	0x3b817e2d	0.003951809
141	0x3d2db10f	0.042405184
142	0x3da2ac06	0.07942967
143	0xbd837686	-0.06419091
144	0xbe214e2a	-0.15752473
145	0xbd8378b3	-0.06419506
146	0x3e1be3f4	0.15223676
147	0x3c8d7564	0.01726789
148	0x3df55ba6	0.11980371
149	0x3da8e12d	0.08246074
150	0xbc8760a3	-0.016525572
151	0x3b143a06	0.0022617592
152	0x3e8afe6c	0.27147233
153	0x3d8f9034	0.070099264
154	0xbe146e60	-0.1449523
155	0x3e30f716	0.17281756
156	0xbda8eb63	-0.082480215
157	0xbde84272	-0.113407984
158	0xbdfa8037	-0.12231486
159	0x3e982f22	0.2972346
160	0xbe24de30	-0.16100383
161	0xbe4d33e8	-0.20039332
162	0x3e43d53f	0.19124316
163	0xbe5b53a1	-0.2141862
164	0xbd645db8	-0.05575344
165	0x3e08eb52	0.13371018
166	0x3de23f97	0.11047285
167	0x3e13103e	0.14361665
168	0xbe7fdf55	-0.24987538
169	0xbdce9a52	-0.10088028
170	0xbdcdaccf	-0.10042726
171	0x3e229914	0.15878707
172	0x3d072a77	0.032999482
173	0x3e19fa39	0.15036859
174	0xbe45faa5	-0.19333895
175	0x3d96eaa4	0.07368973
176	0x3daf1d18	0.08550471
177	0x3e06a54e	0.13148996
178	0x3d15680f	0.03647619
179	0x3e5aeb64	0.21378857
180	0xbe1c00c6	-0.1523467
181	0x3eb9a02d	0.36255017
182	0x3dbf6ace	0.09346543
183	0xbe0b273b	-0.13589184
184	0x3b40601e	0.0029354165
185	0x3c9e15da	0.019297529
186	0xbddf7ea8	-0.1091283
187	0x3db1f33d	0.08688972
188	0x3d94a336	0.072576925
189	0xbe374a46	-0.17899427
190	0xbd97d7a1	-0.07414175
191	0xbddc3cf7	-0.107538156
192	0xbb3569c0	-0.002768144
193	0x3d8a0faa	0.06741269
194	0xbbc94727	-0.006142515
195	0x3ddb0624	0.106945306
196	0xbd82272a	-0.06355126
197	0x3e4e8854	0.20169193
198	0x3df13769	0.11778147
199	0xbe4f0363	-0.20216136
200	0xbeb7ee51	-0.35924008
201	0xbde10237	-0.109867506
202	0xbcb1478c	-0.021640562
203	0x3e7049e7	0.23465692
204	0x3c31be90	0.010848656
205	0x3d2e2f2b	0.04252545
206	0x3c04bc16	0.008101484
207	0xbc298931	-0.01034765
208	0x3e48db00	0.19614792
209	0x3b2261c0	0.0024777502
210	0xbd9a456f	-0.07532775
211	0x3b94b4fe	0.0045381775
212	0xbe06be89	-0.13158621
213	0x3e4ec7fe	0.20193478
214	0x3e946386	0.2898218
215	0xbe0dbd50	-0.13841748
216	0x3d1d9dfd	0.038480747
217	0x3def8a29	0.11696274
218	0x3e7c3e59	0.24633159
219	0x3e18c0ed	0.14917345
220	0x3e5d9680	0.21639442
221	0xbdf6d620	-0.1205256
222	0x3df14893	0.117814206
223	0xbb203f29	-0.002445171
224	0x3d2cc299	0.04217777
225	0xbc67910e	-0.014133705
226	0xbd66fd5c	-0.056393966
227	0xbc632405	-0.013863568
228	0x3e79f849	0.2441112
229	0xbd8c38ef	-0.06846797
230	0xbd8d2abc	-0.068929166
231	0xbe281c29	-0.16416992
232	0xbd17f49d	-0.037098516
233	0x3ea43d5f	0.32078072
234	0xbeb6edff	-0.35728452
235	0x3e65a7c5	0.2242728
236	0x3ced3ce1	0.028959693
237	0xbdf5717a	-0.119845346
238	0x3d905205	0.07046894
239	0x3d018e4e	0.031629853
240	0xbe446333	-0.19178466
241	0xbd0ea469	-0.034824762
242	0x3e26fa59	0.16306438
243	0x3e5ead80	0.21745872
244	0xbc02a1ed	-0.007973176
245	0xba5d3826	-0.0008438848
246	0x3dcf61d4	0.10126081
247	0xbe46b7ac	-0.19406003
248	0xbe02ca9a	-0.12772599
249	0x3bd56101	0.006511808
250	0x3d1430e9	0.036179457
251	0xbcf5f47f	-0.030023811
252	0xbe3fa1a9	-0.18714012
253	0xbda9be25	-0.0828822
254	0xbe5b21d6	-0.21399626
255	0xbe5ca906	-0.21548852

pool2.bias f4 [35]
0	0xbdf1ed8b	-0.11812886
1	0xbd6b33de	-0.05742251
2	0xbcbea919	-0.023273991
3	0x3d9bab85	0.07601074
4	0xbe0161c1	-0.12634946
5	0xbe1d59dd	-0.15366311
6	0xbdf6eb4e	-0.120565996
7	0xbd17e5ff	-0.037084576
8	0xbdb2859d	-0.08716891
9	0xba09f83e	-0.0005263126
10	0x3e17b102	0.14813617
11	0x3d4deff4	0.050277665
12	0xbd9d0cab	-0.07668432
13	0x3d43dd70	0.0478186
14	0xbdc238c8	-0.094834864
15	0xbdb794fc	-0.089639634
16	0x3e26bc52	0.16282776
17	0x3e00ea37	0.12589346
18	0xbc25a7d4	-0.010110814
19	0xbdf7d95c	-0.12102005
20	0xbd8c57b4	-0.068526655
21	0x3d936fc5	0.07199053
22	0xbde0e44d	-0.10981045
23	0xbd24862e	-0.040167026
24	0xbc27dd94	-0.010245699
25	0xbcfd6b12	-0.030934844
26	0x3cfc7dd2	0.030821715
27	0xbd6fff30	-0.058592975
28	0x3c1830a3	0.00928894
29	0xbe0b79a1	-0.13620616
30	0x3db6c6cc	0.08924636
31	0xbd84a35d	-0.064764716
32	0xbc95c2ec	-0.018281423
33	0x3d153143	0.036423933
34	0xbdf2a401	-0.118476875

conv3.weight f4 [35, 35, 3, 1, 1]
0	0x3d34b78b	0.044120353
1	0xbdd2abaf	-0.10286652
2	0x3c870854	0.016483463
3	0xbcadbc33	-0.021207904
4	0xbe40894d	-0.18802376
5	0xbbf6e533	-0.007534647
6	0xbe1e833a	-0.15479746
7	0x3d891a75	0.066944994
8	0x3db7f00f	0.089813344
9	0xbd3e8f27	-0.04652324
10	0x3de01442	0.10941364
11	0xbe90e8d6	-0.2830264
12	0xbe10bbaa	-0.14134088
13	0x3dee8a0f	0.11647426
14	0x3c01f6a6	0.007932341
15	0xbe1e8efe	-0.15484235
16	0xbe2b390e	-0.16720983
17	0x3d33912f	0.04383963
18	0x3cfd8a8d	0.030949855
19	0xbe94f5b5	-0.2909371
20	0xbd6ec1c7	-0.05829027
21	0xbb9d809a	-0.0048065903
22	0x3dc04aac	0.093892425
23	0xbd8ababa	-0.067738965
24	0xbe1722f3	-0.14759426
25	0xbd897687	-0.067120604
26	0xbe8212ce	-0.25404972
27	0x3d58834b	0.052859586
28	0x3ca5037e	0.020143267
29	0x3d429d0c	0.047513053
30	0xbda842c5	-0.0821586
31	0xbbed4e55	-0.007242004
32	0x3e880ff6	0.26574677
33	0x3e9931af	0.29920718
34	0x3c8d4fdc	0.017249994
35	0xbd03ac68	-0.03214684
36	0x3bae07fd	0.005311011
37	0x3e06db82	0.13169673
38	0xbd963c72	-0.07335748
39	0xbd6702bd	-0.056399096
40	0xbe1768f0	-0.14786124
41	0xbde57555	-0.1120402
42	0x3eb4133f	0.35170934
43	0x3e2c45d1	0.16823508
44	0x3c329a95	0.010901113
45	0x3d96b4b9	0.07358689
46	0xbbc7b5ef	-0.006094686
47	0xbd36e7e7	-0.044654753
48	0x3df56951	0.11982978
49	0x3dae5314	0.0851194
50	0x3d77ea6b	0.060526293
51	0x3e3f3ba8	0.18675101
52	0xbe2e68c2	-0.1703215
53	0x3c7cbbf0	0.015425667
54	0x3ca46ce3	0.020071452
55	0x3e3455da	0.17610875
56	0xbd6ac722	-0.057318814
57	0x3d2985ee	0.04138749
58	0xbe0d9612	-0.13826779
59	0xbd572a21	-0.05253041
60	0x3ce6d45d	0.028177435
61	0x3d99a1e9	0.07501585
62	0x3d9c7827	0.07640105
63	0x3cd8bd87	0.026457561
64	0x3d7073fa	0.058704354
65	0x3dbda7bc	0.092605084
66	0x3d33832f	0.04382628
67	0xbb5c6adc	-0.003363303
68	0x3c95d399	0.018289374
69	0x3e8e7461	0.27823165
70	0x3ea38086	0.31933993
71	0x3e9cfca4	0.306615
72	0x3b2ba53a	0.0026191012
73	0xbe66d55e	-0.2254233
74	0xbe899b33	-0.2687622
75	0x3d9d73cc	0.07688102
76	0xbe34d155	-0.17657979
77	0x3e454b64	0.1926704
78	0xbcc1d273	-0.02365992
79	0xbd984be6	-0.074363515
80	0x3e27b901	0.16379167
81	0xbcc1b17b	-0.0236442
82	0x3d402a3e	0.046915285
83	0xbe0f24c2	-0.13978866
84	0xbdd629cb	-0.1045719
85	0xbde7d7b8	-0.11320442
86	0x3e007f0f	0.12548469
87	0x3da17dca	0.078853205
88	0xbde998d2	-0.11406101
89	0xbd058d75	-0.032605607
90	0xbd9ec624	-0.07752636
91	0x3e190ecb	0.1494705
92	0x3e478288	0.19483387
93	0x3e19332d	0.14960928
94	0xbd906936	-0.070513174
95	0xbc50ff3b	-0.012756164
96	0xbe437b4f	-0.19090007
97	0xbc55aeba	-0.013042146
98	0x3d8bef6f	0.06832778
99	0x3d2e851f	0.042607423
100	0x3d61ebe1	0.055156592
101	0x3d2aecf8	0.041729897
102	0x3e70ad59	0.23503627
103	0xbdd723b5	-0.105048575
104	0xbe441d95	-0.1915191
105	0xbe34e0f6	-0.17663941
106	0x3cb5d05e	0.022194084
107	0x3b84287c	0.0040331464
108	0x3dd03a26	0.10167341
109	0xbe727bfe	-0.23680112
110	0xbd870238	-0.0659222
111	0x3dffd155	0.12491099
112	0xbe9a8c8a	-0.30185348
113	0xbdb04552	-0.08606972
114	0xbe72a855	-0.23697026
115	0x3cd04331	0.025422664
116	0x3e7d2c32	0.2472389
117	0x3d6af5db	0.057363372
118	0xbdbaac94	-0.09114948
119	0xbd9157d4	-0.0709683
120	0x3d839f3f	0.06426858
121	0x3dd62f20	0.10458207
122	0x3e1b1473	0.1514452
123	0xbdaec117	-0.08532923
124	0xbdafcda9	-0.085841484
125	0xbd57c051	-0.05267364
126	0x3df1b77f	0.11802577
127	0xbd716731	-0.0589363
128	0xbe089a34	-0.13340074
129	0x3c9c59dc	0.019085817
130	0xbe705e53	-0.23473482
131	0x3e045c39	0.12925805
132	0x3e40dd40	0.188344
133	0x3dcb978b	0.09941014
134	0xbd7c8fb3	-0.06166048
135	0x3e142495	0.1446708
136	0xbe0cf29a	-0.1376442
137	0x3bfb561b	0.0076701767
138	0x3e29c55c	0.16579193
139	0xbd9260e9	-0.071473904
140	0x3e2b0932	0.16702726
141	0x3e5dc604	0.21657568
142	0xbe22891a	-0.15872613
143	0xbcce00ac	-0.025146805
144	0xbc520506	-0.0128185805
145	0xbd647829	-0.055778656
146	0x3b17b2bd	0.0023147308
147	0xbe5073b0	-0.20356631
148	0x3d8ef1bb	0.069797
149	0x3ca522be	0.020158168
150	0xbdd1fff0	-0.10253894
151	0xbd749d3e	-0.05972027
152	0xbd7fcebd	-0.06245302
153	0xbd29ce32	-0.04145641
154	0xbd36e327	-0.044650223
155	0xbe093de2	-0.13402513
156	0x3cc31ded	0.02381798
157	0x3d25bf2a	0.04046551
158	0xbe8f00e2	-0.2793036
159	0xbe2d4d1a	-0.16923943
160	0xbdd62387	-0.10455995
161	0xbdfe42f3	-0.12415113
162	0xbe80a14d	-0.25123063
163	0x3e229b5c	0.15879577
164	0x3dad8f5c	0.08474609
165	0xbe08d16f	-0.13361143
166	0x3dbada72	0.091236964
167	0xbe07d366	-0.13264236
168	0x3d54d34d	0.051959325
169	0xbe2ce469	-0.16884007
170	0xbd854e81	-0.06509114
171	0x3e92d721	0.28679755
172	0x3e34dc81	0.1766224
173	0x3de2d1a7	0.11075144
174	0x3bedb149	0.0072538
175	0x3e41db01	0.189312
176	0xbe4eb39e	-0.20185706
177	0x3e293367	0.16523515
178	0xbe12e624	-0.14345604
179	0x3cb29c3f	0.02180302
180	0x3e714651	0.2356198
181	0xbe5d2721	-0.21596958
182	0x3dbf9cdf	0.09356093
183	0xbdf0b18b	-0.11752614
184	0x3dd32b81	0.10311032
185	0xbddf779e	-0.10911487
186	0x3e73c2e6	0.23804817
187	0x3dbd6076	0.09246914
188	0x3d95c1c4	0.073123485
189	0xbcd7c535	-0.026339153
190	0x3d03ce0b	0.03217892
191	0xbe06da00	-0.13169098
192	0xbd8b7693	-0.068097256
193	0xbe504454	-0.20338565
194	0xbe0e7a51	-0.13913848
195	0xbd0da0b6	-0.034577094
196	0xbe12c3c8	-0.14332497
197	0x3e2245fd	0.15847011
198	0xbda1de0e	-0.07903682
199	0x3e168914	0.14700729
200	0x3dad9c45	0.08477072
201	0x3d5f3bca	0.05450038
202	0xbe0b4296	-0.1359962
203	0x3e731b02	0.23740771
204	0x3d9a1b21	0.07524706
205	0x3b20959c	0.0024503237
206	0x3e535f82	0.20641902
207	0x3d8a0f98	0.067412555
208	0xbc412de4	-0.011790726
209	0x3dd7d498	0.10538596
210	0x3d979021	0.07400537
211	0x3cf6401e	0.03005987
212	0xbea319da	-0.3185566
213	0x3d17b77f	0.03704023
214	0xbd92cc57	-0.07167881
215	0xbe4a19f7	-0.19736467
216	0xbe49bca4	-0.19700867
217	0x3e114d2b	0.14189593
218	0x3e2947cb	0.16531293
219	0x3d648509	0.055790935
220	0xbeae6c9d	-0.3406724
221	0x3d9f2ef8	0.077726305
222	0x3e32b0cf	0.1745026
223	0x3d9760eb	0.073915325
224	0x3e90a917	0.28254005
225	0xbd320211	-0.043459002
226	0x3de33c7d	0.110955216
227	0xbc2711b2	-0.01019709
228	0xbd995d46	-0.074884936
229	0xbe874e4d	-0.26426926
230	0x3d2da349	0.04239205
231	0x3dd9ab4c	0.106283754
232	0x3bc18228	0.0059054084
233	0x3d337141	0.04380918
234	0xbe04c8a1	-0.12967159
235	0x3b8844fe	0.004158615
236	0x3e273f21	0.16332676
237	0xbda33a9a	-0.07970162
238	0x3e1b8aa8	0.15189612
239	0xbe0e4350	-0.13892865
240	0x3c30d382	0.010792615
241	0x3c648cb8	0.013949566
242	0xbeb070e7	-0.34461138
243	0xbdccfe8c	-0.100094885
244	0x3c3678a8	0.011137165
245	0x3d972ed9	0.07381982
246	0x3d396505	0.045262355
247	0xbcfca99b	-0.030842593
248	0x3d43ca89	0.047800574
249	0x3e8618eb	0.26190886
250	0xbd6b6bf2	-0.05747599
251	0xbdbb123c	-0.09134337
252	0x3d6e1878	0.058128804
253	0x3e059058	0.13043344
254	0xbea82473	-0.3284031
255	0xbdc1fca6	-0.09472017

conv3.bias f4 [35]
0	0x3cdfee93	0.02733544
1	0xbc007855	-0.007841189
2	0xbb6e1f06	-0.003633441
3	0xbd6d2251	-0.057894055
4	0xbbd54205	-0.0065081143
5	0x3d2037cb	0.03911571
6	0x3dcbd997	0.09953611
7	0xbce3b195	-0.027794639
8	0xbc2160af	-0.009849711
9	0xbbfcca6a	-0.0077145593
10	0x3caa8c68	0.020818904
11	0xbbbafd90	-0.0057064965
12	0xbc8ef067	-0.017448617
13	0xbcb47d05	-0.02203227
14	0x3d9f6678	0.07783216
15	0xbd54f4b1	-0.05199117
16	0x3da992c3	0.08279946
17	0xbc048f75	-0.008090843
18	0xbc839062	-0.016060058
19	0x3d64e336	0.055880748
20	0xbd3b446b	-0.045719545
21	0x3c000078	0.007812612
22	0xbd324205	-0.043519992
23	0x3db9907b	0.090607606
24	0x3d5e6961	0.054299716
25	0xbc8d6652	-0.017260704
26	0x3c82451e	0.015902098
27	0x3d47f10f	0.048813876
28	0x3d58b8f5	0.052910764
29	0x3d4541e1	0.04815853
30	0x3e167cfc	0.14696115
31	0x3cc1243c	0.023576848
32	0x3db3634c	0.08759174
33	0x3c4a35cb	0.012341927
34	0xbd066773	-0.0328135

conv4.weight f4 [35, 35, 2, 1, 1]
0	0xbe8c9315	-0.27455965
1	0xbe09b43f	-0.13447665
2	0xbe37ea28	-0.17960417
3	0x3c8dcfeb	0.017311057
4	0x3ba190ad	0.004930577
5	0xbe47e808	-0.19522107
6	0x3cd3dcbc	0.02586209
7	0xbcce94f5	-0.025217513
8	0xbd4376f6	-0.047720872
9	0xbe833a9e	-0.2563066
10	0x3debc0d2	0.11511387
11	0x3d2583cc	0.040408894
12	0xbcb72922	-0.02235848
13	0xbd9bcbd0	-0.076072335
14	0xbd97721d	-0.07394812
15	0x3e22ca6b	0.15897529
16	0xbd161bec	-0.036647722
17	0xbd5fb3ae	-0.054614715
18	0xbd9d51c4	-0.07681611
19	0x3dd6aac1	0.104817875
20	0xbdad4edb	-0.08462306
21	0x3e060d22	0.13090947
22	0xbd20606d	-0.03915446
23	0xbe1cdb0f	-0.15317939
24	0x3d6ef84b	0.05834226
25	0xbcadd3f1	-0.021219226
26	0xbe4fbc98	-0.20286787
27	0xbdf011d1	-0.11722148
28	0xbe647267	-0.22309266
29	0xbe15572a	-0.14584032
30	0xbd859359	-0.06522245
31	0xbd19ced8	-0.037550777
32	0xbeaa756c	-0.3329271
33	0xbc9fe71f	-0.019519387
34	0x3dff695b	0.12471267
35	0xb9810cfd	-0.00024614474
36	0x3b3e778f	0.0029062962
37	0xbd9d2915	-0.076738514
38	0xbe1c23c9	-0.15248026
39	0xbecbc346	-0.3979742
40	0xbe8aca2a	-0.27107364
41	0xbd7b29e6	-0.061319254
42	0xbbd25d54	-0.006419817
43	0xbc8e9b9d	-0.017408187
44	0xbe906a11	-0.28205922
45	0x3db8947b	0.090126954
46	0xbd9f775e	-0.07786439
47	0x3ab570af	0.0013842786
48	0x3d8d1571	0.06888855
49	0x3ed95ce1	0.42453673
50	0xbe9abd09	-0.30222347
51	0x3e96faae	0.29488128
52	0xbdef95be	-0.11698483
53	0xbe793fb0	-0.24340701
54	0x3d87bbf8	0.06627649
55	0xbdbe095b	-0.09279128
56	0x3e77e24d	0.2420742
57	0xbdd3e44c	-0.103462785
58	0x3e468c1d	0.19389386
59	0xbde5fb4c	-0.11229572
60	0xbdf214e0	-0.11820388
61	0x3e2ea2ff	0.17054366
62	0x3db56f3c	0.08859107
63	0x3e9318cf	0.28729865
64	0x3d63907c	0.055557713
65	0x3e41cc9d	0.1892571
66	0xbe13eb28	-0.14445174
67	0xbc062505	-0.008187537
68	0x3e5484f5	0.20753844
69	0x3dd50b7b	0.1040258
70	0x3e2065ab	0.15663783
71	0x3e793d38	0.2433976
72	0xbd0fe204	-0.035127655
73	0xbe367059	-0.17816295
74	0x3e1d6049	0.15368761
75	0x3e34d42c	0.17659062
76	0xbe2296ce	-0.1587784
77	0x3d4ae586	0.049535297
78	0x3e6d73df	0.23188733
79	0x3e05053b	0.12990277
80	0x3e26fa30	0.16306376
81	0x3d011358	0.03151259
82	0x3e26eff3	0.16302471
83	0xba679efe	-0.00088356424
84	0xbe0748d6	-0.13211378
85	0xbe6061df	-0.21912335
86	0x3ec2b3b5	0.3802773
87	0x3d39f615	0.045400698
88	0xbded27af	-0.11579835
89	0x3e3f3589	0.18672766
90	0x3e34198a	0.17587867
91	0x3e212354	0.15736133
92	0x3e6a00cd	0.22851868
93	0xbd821c71	-0.06353081
94	0x3df40a2c	0.11916003
95	0x3e4f50b9	0.20245637
96	0x3ce825df	0.02833837
97	0x3db941b8	0.09045738
98	0x3e148d2b	0.14506976
99	0xbe4bd1f3	-0.19904308
100	0x3daadae7	0.083425336
101	0xbd444b6c	-0.04792349
102	0x3e9fa02d	0.31176892
103	0xbe9c8bb5	-0.30575338
104	0x3e7976f5	0.24361785
105	0x3debbc98	0.11510581
106	0xbd96dc83	-0.07366278
107	0x3d330c46	0.043712877
108	0xbe15d676	-0.14632592
109	0xbed515d2	-0.4161821
110	0x3e74d579	0.23909558
111	0xbcbe088e	-0.023197439
112	0xbe58d16d	-0.2117364
113	0x3ebccad1	0.36873487
114	0xbd684868	-0.056709677
115	0xbecaf2e1	-0.39638427
116	0x3da66de2	0.08126427
117	0x3e816d69	0.25278786
118	0x3e10a074	0.14123708
119	0xbecdaa89	-0.4016917
120	0x3de7ae47	0.11312538
121	0x3e82aa86	0.25520724
122	0x3d787824	0.06066145
123	0xbdbc6fd3	-0.09201016
124	0x3e09ab46	0.13444242
125	0xbda3a720	-0.07990861
126	0x3e30a78d	0.17251416
127	0xbefcd25b	-0.49379238
128	0xbe4499df	-0.19199322
129	0x3dae572e	0.08512722
130	0x3da51689	0.08060939
131	0x3ec62c2c	0.38705575
132	0x3e31ec68	0.17375338
133	0xbd86274a	-0.065504625
134	0xbdb6f0be	-0.08932637
135	0xbeccb3dc	-0.39980972
136	0xbe10cfd1	-0.14141776
137	0xbe0e84fb	-0.13917916
138	0xbe237fad	-0.15966673
139	0x3d9630c8	0.07333523
140	0x3ea2b8cb	0.3178161
141	0x3e1b3755	0.15157826
142	0x3e78edcd	0.24309464
143	0xba8a7e66	-0.0010566234
144	0x3e10253f	0.14076708
145	0x3d2adc39	0.041713927
146	0xbd7a9d64	-0.061185256
147	0xbe761e2f	-0.24034952
148	0x3ecd8251	0.40138486
149	0xbcfb8f1e	-0.030707892
150	0x3dc28c75	0.09499446
151	0x3ea620f4	0.32447016
152	0x3c9f2a5d	0.01942938
153	0xbead73e2	-0.33877474
154	0xbd3aadda	-0.045575954
155	0xbe50b215	-0.20380433
156	0xbe450166	-0.19238815
157	0x3e4592b0	0.19294238
158	0xbe4f66f6	-0.2025412
159	0x3e559014	0.20855743
160	0xbd0caa5f	-0.034342166
161	0xbb9446d2	-0.004525044
162	0x3d1fa0ef	0.038971838
163	0x3b246062	0.0025081863
164	0xbdac37ed	-0.084091045
165	0xbe4fd5c7	-0.20296393
166	0x3ee880e3	0.45410833
167	0x3ea70670	0.326221
168	0x3e10491f	0.14090393
169	0xbddc4863	-0.10755994
170	0x3e1b95ee	0.15193912
171	0x3db7f1d4	0.08981672
172	0xbed123f5	-0.40847746
173	0x3e634b64	0.22196728
174	0x3e21ff1a	0.1581997
175	0xbe55f808	-0.20895398
176	0x3c0d9e39	0.00864368
177	0x3e58170e	0.21102545
178	0xbbf9a6a9	-0.0076187444
179	0xbe15b03d	-0.14618011
180	0x3db60fc8	0.08889729
181	0x3e0bbda6	0.13646564
182	0xbcbd36d3	-0.023097431
183	0x3db4d8be	0.08830403
184	0xbe25ead3	-0.1620286
185	0xbdfb0946	-0.12257628
186	0xbe823780	-0.25432968
187	0x3dfd6fdd	0.12374852
188	0xbe11f7ab	-0.14254634
189	0x3c2cd0eb	0.010547857
190	0xbe356799	-0.177153
191	0x3df31980	0.11870098
192	0x3d2bb7a5	0.041923184
193	0x3da586b8	0.08082336
194	0xbe94e435	-0.29080358
195	0x3da7d15f	0.08194231
196	0xbe1faa7d	-0.1559238
197	0x3e1d6596	0.15370783
198	0xbd5cd392	-0.053912707
199	0xbd1918a4	-0.037377015
200	0x3e8f20b8	0.2795465
201	0x3d84bae0	0.06480956
202	0xbd83cadb	-0.06435176
203	0xbe2ab331	-0.16669919
204	0x3e9523e9	0.2912896
205	0xbe4c3cf3	-0.19945125
206	0xbe929922	-0.28632456
207	0x3d632674	0.055456594
208	0xbda9138f	-0.08255684
209	0xbda308da	-0.07960673
210	0xbe161916	-0.14658007
211	0xbde38e55	-0.11111132
212	0xbe5300fc	-0.20605844
213	0xbe9bb03b	-0.3040789
214	0x3e0990c3	0.13434128
215	0x3bada5e7	0.005299318
216	0x3e1bb174	0.15204412
217	0xbc9e5f53	-0.019332564
218	0xbc70789a	-0.014677191
219	0xbd55830f	-0.05212694
220	0x3d2df934	0.042473987
221	0x3e4dc23a	0.20093623
222	0x3dc870ca	0.09787138
223	0xbd9b0fe5	-0.07571391
224	0x3e987a5d	0.29780856
225	0xbd67fd15	-0.056637842
226	0xbd8c7512	-0.06858267
227	0x3e26fe85	0.16308029
228	0xbda50288	-0.080571234
229	0x3b44314d	0.0029936612
230	0xbd9c78a0	-0.07640195
231	0xbe3864e5	-0.18007238
232	0xbe298fb8	-0.1655873
233	0x3dad7c93	0.08471026
234	0xbd8c4aad	-0.06850181
235	0xbecc845e	-0.39944738
236	0x3d6fcb6e	0.058543615
237	0x3e6fcc28	0.23417723
238	0x3e58084b	0.21096914
239	0x3e887305	0.26650253
240	0x3e80bd63	0.2514449
241	0x3db1120b	0.086460195
242	0xbd9ff5aa	-0.078105286
243	0xbe231363	-0.15925364
244	0x3e842b4c	0.25814283
245	0xbe98a182	-0.2981072
246	0xbe61cc58	-0.22050607
247	0x3e720fab	0.2363879
248	0xbded13b7	-0.11576026
249	0x3d9ee7a6	0.07759027
250	0xbe10bf47	-0.14135467
251	0x3e77fca8	0.24217474
252	0xbe42c899	-0.19021834
253	0xbc6497a7	-0.013952172
254	0xbe34cf79	-0.1765727
255	0xbe3b675d	-0.18301149

conv4.bias f4 [35]
0	0x3c4e5a59	0.012594783
1	0xbc8420b6	-0.016128879
2	0xbde2e906	-0.11079602
3	0xbcb416c7	-0.021983517
4	0x3d8cf993	0.0688354
5	0x3be339e1	0.00693439
6	0x3bbd7ca3	0.00578268
7	0xbcd8d17d	-0.02646708
8	0x3d9b9e3a	0.07598539
9	0x3c883424	0.016626425
10	0xbd236da1	-0.039899472
11	0x3cbebb93	0.023282802
12	0xbcbf7acb	-0.023373982
13	0x3ddb6fcb	0.10714682
14	0x3d464749	0.048407827
15	0x3cda0395	0.026613036
16	0x3d66c7b3	0.05634279
17	0xbd1ae11e	-0.037812345
18	0x3cbcca1b	0.02304559
19	0x3c87df33	0.016585922
20	0xbd317bf8	-0.043331116
21	0xbd55702c	-0.05210893
22	0xbb6eaebc	-0.0036420068
23	0xbbbecf32	-0.0058230394
24	0xbdc0d80f	-0.0941621
25	0xbd0db1bc	-0.03459333
26	0xbb079f3c	-0.0020694276
27	0xbd048a60	-0.032358527
28	0xbc2c3cb7	-0.010512522
29	0xbc3d53ca	-0.011555621
30	0x3b186aeb	0.0023257087
31	0x3d743008	0.05961612
32	0xbd8c3b2c	-0.06847224
33	0xbccefe6f	-0.025267808
34	0xbd0d7cce	-0.03454285
