checkpoints/hamida_et_al/no_class_balancing/IndianPines_PCA_8/epoch21_0.99.pth (torch, 170182 bytes, 14 tensors)

conv1.weight f4 [20, 1, 3, 3, 3]
0	0x3cbff934	0.023434259
1	0xbd9b17b2	-0.07572879
2	0xbe2c9875	-0.16855033
3	0x3d820568	0.063486874
4	0x3f0a6185	0.54055053
5	0x3ec6bb0c	0.3881458
6	0x3c966439	0.018358337
7	0x3edde9f0	0.43342543
8	0xbe1faaf1	-0.15592553
9	0xbdbe33d7	-0.092872314
10	0xbe26bd0b	-0.16283052
11	0x3df348be	0.11879109
12	0xbe6dacba	-0.23210421
13	0x3eac795d	0.33686343
14	0xbe8de0c7	-0.27710554
15	0xbe362b0f	-0.17789863
16	0xbf0a36ed	-0.5399006
17	0x3e48c1cf	0.19605182
18	0x3f1fd00d	0.62426835
19	0x3efd28d6	0.49445218
20	0x3e9390e7	0.2882149
21	0x3eada1e5	0.33912578
22	0x3d95109d	0.07278559
23	0x3e9ab861	0.30218795
24	0x3f3c6351	0.73589045
25	0x3e503f23	0.20336585
26	0xbdc9e05e	-0.09857248
27	0x3c2b2a63	0.0104471175
28	0x3e858ea9	0.26085404
29	0x3e100713	0.14065199
30	0x3eeffd71	0.46873048
31	0x3e94d7a8	0.29070783
32	0x3ddc1c17	0.10747545
33	0x3ee0b2b6	0.43886346
34	0xbcbfd1dd	-0.0234155
35	0xbdc3cc47	-0.09560447
36	0x3d228332	0.0396759
37	0xbe9b76a7	-0.30363962
38	0x3eae6eb1	0.34068826
39	0xbeea17a7	-0.4572117
40	0xbd4aba75	-0.049494226
41	0xbedf82e3	-0.43654546
42	0xbe4ad641	-0.19808294
43	0x3e9a1a0d	0.30098
44	0x3c7b3cd4	0.015334327
45	0x3ebfd9b4	0.37470782
46	0x3ea9aab5	0.33138052
47	0xbe744260	-0.23853445
48	0xbe1ac970	-0.15115905
49	0x3ed86df9	0.42271402
50	0xbe927880	-0.2860756
51	0xbde54b48	-0.111959994
52	0xbe1035b1	-0.14082982
53	0xbe8efa6d	-0.27925435
54	0xbd6da031	-0.0580141
55	0xbd906308	-0.07050139
56	0x3e46095f	0.19339512
57	0xbf00dabc	-0.5033376
58	0x3d34180b	0.04396824
59	0xbeae03c4	-0.33987248
60	0xbe891174	-0.26771128
61	0x3db3fbfb	0.08788296
62	0xbdfb88e6	-0.12281971
63	0xbd6f5805	-0.05843355
64	0x3b201236	0.0024424917
65	0x3e56ad81	0.20964624
66	0xbe639628	-0.22225249
67	0x3e7c5fbe	0.24645898
68	0x3c3250c5	0.010883515
69	0xbc357d30	-0.01107721
70	0x3e21f21e	0.15815017
71	0x3d120b64	0.035655394
72	0xbe84bd7d	-0.25925818
73	0x3eecebbd	0.46273604
74	0xbdcede1b	-0.10100957
75	0x3e314a2c	0.1731345
76	0xbef2e2cb	-0.47438654
77	0xbea77318	-0.32704997
78	0x3e594396	0.21217188
79	0xbef4f18b	-0.47840533
80	0x3e0012f6	0.12507233
81	0xbea3cc46	-0.31991786
82	0xbf2bdaed	-0.6713093
83	0xbeb7cd17	-0.3589866
84	0xbef2f848	-0.4745505
85	0xbe6041f2	-0.21900156
86	0xbe28b315	-0.16474564
87	0xbda16140	-0.07879877
88	0x3f2d2377	0.6763224
89	0x3de02ae6	0.10945682
90	0x3f181244	0.5940287
91	0xbe3dd220	-0.18537188
92	0xbc01e1b8	-0.007927351
93	0x3c188cc5	0.009310906
94	0x3ee38dd0	0.44444132
95	0xbe8c7d59	-0.27439383
96	0x3f7dd64c	0.99155116
97	0x3e6eeaf7	0.2333182
98	0x3f236c5b	0.6383721
99	0x3d1dfbc3	0.038570177
100	0x3f25492a	0.64564764
101	0x3e3ed21b	0.18634836
102	0x3e0f6384	0.14002806
103	0x3d64ba37	0.05584165
104	0xbe48c7c4	-0.19607455
105	0x3ce91f63	0.02845735
106	0xbe41db5b	-0.18931334
107	0xbe1c1698	-0.15242994
108	0x3d86399d	0.065539576
109	0xbbfef3d7	-0.007780533
110	0xbe0e0a8e	-0.13871214
111	0xbd92bbcb	-0.07164725
112	0x3e8b5af1	0.2721782
113	0x3ee7b2a6	0.45253485
114	0x3e41eaf9	0.18937291
115	0x3e2ca63b	0.16860287
116	0x3efdac2d	0.49545422
117	0xbe2452b8	-0.1604718
118	0xbe3b3c05	-0.18284614
119	0x3b8e3051	0.004339256
120	0xbeb35a11	-0.35029653
121	0xbdb5622a	-0.08856614
122	0xbecf3409	-0.40469387
123	0xbddae53c	-0.10688254
124	0xbf2211c2	-0.63308346
125	0xbe814b25	-0.25252643
126	0xbe084b6e	-0.13310024
127	0xbd91a232	-0.071110144
128	0xbe895a27	-0.26826593
129	0x3f0e1813	0.55505484
130	0x3eb693c7	0.3565962
131	0x3e9b6ba2	0.30355555
132	0x3e2ba1ac	0.16760892
133	0x3f068f8d	0.5256279
134	0xbe50ba1e	-0.20383498
135	0x3ec17e1b	0.37791523
136	0x3e0ba68a	0.13637748
137	0xbccacc78	-0.024755701
138	0x3dfad0a3	0.122468255
139	0xbeeb5112	-0.4596029
140	0x3e600f93	0.21880941
141	0xbe00121e	-0.12506911
142	0xbdb8cf9b	-0.090239726
143	0xbe8dce6d	-0.27696553
144	0x3d9fa243	0.07794621
145	0xbe485676	-0.19564232
146	0xbe8d26e8	-0.27568746
147	0x3e7a0470	0.24415755
148	0xbf26e5d7	-0.6519446
149	0x3ea03e58	0.31297565
150	0xbe687d97	-0.22704159
151	0xbea27278	-0.31727958
152	0x3d8ea6f9	0.06965441
153	0xbd841a75	-0.06450359
154	0xbeb2aa1f	-0.34895417
155	0xbd90429b	-0.07043954
156	0xbe791ca6	-0.24327335
157	0x3e3f573e	0.18685624
158	0xbe94660a	-0.289841
159	0x3dab2bed	0.083579876
160	0x3d045287	0.032305267
161	0x3ddff7a1	0.10935903
162	0xbd41a1c8	-0.047273427
163	0xbd96c102	-0.07361032
164	0xbe716f53	-0.23577623
165	0x3d023ae7	0.031794455
166	0xbdde10c1	-0.10843039
167	0xbe216454	-0.15760928
168	0x3e8219f0	0.25410414
169	0x3ec4f539	0.3846834
170	0x3e0f277e	0.13979909
171	0x3ddb2a11	0.10701383
172	0x3ce2d57e	0.027689692
173	0x3efaba21	0.4897013
174	0x3e3a6052	0.18200806
175	0xbdf7d710	-0.12101567
176	0x3e5de1f4	0.21668226
177	0xbc9873ff	-0.018609999
178	0xbe35e499	-0.17762984
179	0x3ebedd49	0.37278202
180	0x3e624dd4	0.22100002
181	0x3d7df572	0.062001653
182	0x3d325bcc	0.043544576
183	0x3ec0969e	0.37614912
184	0x3ca5c265	0.020234296
185	0x3df16c23	0.117882036
186	0x3e72f2e5	0.2372547
187	0x3dc0eb85	0.09419922
188	0xbe615737	-0.22005926
189	0xbede6233	-0.43434295
190	0x3e942eeb	0.28942046
191	0xbf1c50f5	-0.6106103
192	0x3e832c72	0.25619847
193	0xbe78779d	-0.24264379
194	0x3d02af23	0.031905305
195	0x3e84a50b	0.25907168
196	0xbd999084	-0.07498267
197	0xbd87ee74	-0.06637278
198	0xbc97d60c	-0.018534683
199	0x3ea3e977	0.32014057
200	0xbf2e5fc2	-0.68114865
201	0x3da7de13	0.08196654
202	0x3ed4025d	0.41408053
203	0xbed86053	-0.4226099
204	0x3d99b969	0.07506067
205	0x3cecdf37	0.02891503
206	0x3d6dda36	0.05806943
207	0x3f26494a	0.6495558
208	0x3f53ddd6	0.8276037
209	0x3e355e33	0.17711715
210	0x3ec40253	0.38283023
211	0x3ef72e65	0.48277584
212	0x3f0e570d	0.5560158
213	0x3e2691b4	0.16266519
214	0x3e9790a4	0.2960254
215	0x3f3c00f8	0.7343898
216	0x3e2a0c45	0.16606243
217	0xbd513f42	-0.051085718
218	0x3e8afe5f	0.27147195
219	0xbdbaf76a	-0.09129222
220	0x3e908932	0.28229672
221	0xbe89e623	-0.26933393
222	0xbeb25df7	-0.34837314
223	0xbe2d09b9	-0.1689824
224	0xbeabf5b6	-0.335859
225	0xbe7ca448	-0.24672043
226	0x3e84b84e	0.25921863
227	0xbab98461	-0.0014153832
228	0x3eb45d2f	0.35227343
229	0xbc2fd978	-0.010733001
230	0xbed99c4a	-0.42502052
231	0xbe139f5b	-0.14416258
232	0xbdd881ad	-0.10571609
233	0x3c5620f5	0.013069381
234	0x3ec6a7e9	0.3879998
235	0xbe8410a0	-0.25793934
236	0xbe96011a	-0.29297715
237	0x3d82be4b	0.06383952
238	0x3da6630d	0.08124361
239	0x3e6bcf20	0.2302823
240	0x3e2afebf	0.1669874
241	0xbe14884d	-0.1450512
242	0x3dad2a08	0.084552824
243	0xbe04ff20	-0.12987947
244	0x3e0c9d3f	0.1373186
245	0x3eeef0c6	0.4666807
246	0xbcf72b1f	-0.030171929
247	0xbe93f554	-0.28898108
248	0xbebac8ce	-0.36481327
249	0xbec574a3	-0.3856555
250	0xbe93e3c1	-0.288847
251	0x3e677d41	0.22606374
252	0xbaeff931	-0.0018308518
253	0xbdb770d7	-0.08957069
254	0x3ed509f0	0.41609144
255	0xbc35cf70	-0.01109682

conv1.bias f4 [20]
0	0xbeb75d30	-0.35813284
1	0xbd52aacc	-0.051432416
2	0x3c336314	0.010948915
3	0x3e8299c7	0.25507948
4	0x3be7bcc5	0.0070720636
5	0x00000000	0.0
6	0xbe3f9a19	-0.18711127
7	0xbe80f7c7	-0.2518904
8	0xbbc96b60	-0.0061468333
9	0x3dc3179a	0.09525986
10	0xbe7ac6d6	-0.24489912
11	0x3d988ed3	0.074491166
12	0x3cbb5260	0.022866428
13	0x3d052495	0.03250559
14	0xbcb729e0	-0.022358835
15	0x3b0bec75	0.0021350656
16	0x3e40f213	0.18842344
17	0xbebb5da9	-0.36594895
18	0xbcfe33bc	-0.031030528
19	0xbeba1ef8	-0.36351752

pool1.weight f4 [20, 20, 3, 1, 1]
0	0xbcbec14f	-0.023285536
1	0xbe8973fe	-0.26846308
2	0x3e39eb0d	0.18156071
3	0xbdacd080	-0.08438206
4	0xbdbe6d7e	-0.09298228
5	0x3e0a97e8	0.1353451
6	0xbe8a99dc	-0.2707051
7	0xbdcf3eaa	-0.10119374
8	0xbe84f695	-0.25969377
9	0xbba5d5f3	-0.005060905
10	0x3dc8818f	0.09790336
11	0x3e945519	0.28971174
12	0xbe8cd2d7	-0.27504608
13	0x3ed2f010	0.41198778
14	0xbc415ca8	-0.011801876
15	0xbe54b9ef	-0.20774053
16	0xbe1b84e3	-0.15187411
17	0xbdb12901	-0.08650399
18	0x3da9d42b	0.08292421
19	0xbd8fee7d	-0.0702791
20	0x3ec95f9d	0.3933076
21	0xbe0ca212	-0.137337
22	0x3eba4530	0.3638091
23	0xbd5c5630	-0.053793132
24	0x3e19c7da	0.15017644
25	0x3d0e47b3	0.034736346
26	0x3e10453b	0.1408891
27	0xbe1a0756	-0.15041861
28	0x3e10c111	0.14136149
29	0x3d5535f3	0.052053403
30	0xbe93da09	-0.28877285
31	0x3d99758b	0.07493123
32	0xbeb9bd04	-0.3627702
33	0x3e047efc	0.12939066
34	0x3d51d5a4	0.051229134
35	0xbe5430af	-0.20721696
36	0x3d83b181	0.064303406
37	0xbd782db3	-0.060590457
38	0xbe7b7c11	-0.24559046
39	0x3eadb053	0.33923587
40	0x3e8b161a	0.271653
41	0xbc8198f2	-0.01582
42	0xbd8e85e1	-0.06959129
43	0x3e36ce1b	0.1785206
44	0xbda2a306	-0.079412505
45	0x3e780186	0.24219331
46	0xbe8af136	-0.27137154
47	0xbd66178e	-0.056174807
48	0xbd2be8ca	-0.04197005
49	0xbd260a4c	-0.040537164
50	0xbd0462ef	-0.032320913
51	0xbdabd467	-0.08390122
52	0x3eb308a5	0.34967533
53	0xbe0ab8a9	-0.13547005
54	0x3dd0661e	0.10175727
55	0x3c6f965a	0.014623249
56	0xbe841faa	-0.25805408
57	0xbd84bd63	-0.06481435
58	0x3dbf08f3	0.09327879
59	0x3ddb1e63	0.10699155
60	0x3e88316a	0.266002
61	0x3e13ae0e	0.14421865
62	0xbdd1f2e3	-0.10251405
63	0x3c89673d	0.01677286
64	0xbe558f34	-0.20855409
65	0x3e243638	0.16036308
66	0xbe0cb74d	-0.13741799
67	0x3c026093	0.007957595
68	0xbca48137	-0.020081146
69	0xbe386323	-0.18006568
70	0x3dbe275a	0.092848495
71	0x3dd7cb97	0.105368786
72	0x3cb5afb1	0.022178503
73	0xbcc32603	-0.023821836
74	0x3e3161ba	0.17322436
75	0xbd544e64	-0.05183257
76	0xbe13b580	-0.14424706
77	0xbdc1b4cf	-0.094583146
78	0xbe839bbd	-0.25704756
79	0x3e7b168a	0.24520317
80	0xbd8a05c3	-0.0673938
81	0xbcf4b87c	-0.029873125
82	0x3ee01ad7	0.43770477
83	0xbca4056a	-0.020022113
84	0x3df0a31e	0.11749862
85	0xbd373b24	-0.044734135
86	0xbd07d280	-0.033159733
87	0xbda2e036	-0.07952921
88	0xbd84de90	-0.06487763
89	0xbcbdc2db	-0.023164203
90	0xbd0a2240	-0.03372407
91	0xbf042e5a	-0.51633227
92	0x3ec0ca8c	0.3765453
93	0xbe20be7a	-0.15697661
94	0x3dc9bb9c	0.09850237
95	0xbe06f5e1	-0.13179733
96	0xbdeae078	-0.11468595
97	0xbea826a7	-0.3284199
98	0xbe454359	-0.19263972
99	0xbe73cc93	-0.23808508
100	0x3d649024	0.055801526
101	0x3e92801f	0.28613374
102	0xbe3fcb7d	-0.18729968
103	0x3d1217bc	0.035667166
104	0x3d8d993a	0.06913991
105	0x3da45984	0.08024886
106	0xbde6722e	-0.11252247
107	0xbda9dd3b	-0.082941495
108	0xbd69a737	-0.057044234
109	0xbe4273b5	-0.18989451
110	0xbd6e3f3f	-0.058165785
111	0xbf01f14e	-0.50758827
112	0x3e66a2ac	0.22522992
113	0xbdead96b	-0.114672504
114	0xbe9ca770	-0.30596495
115	0x3e95157e	0.2911796
116	0x3cf7d1bd	0.030251378
117	0x3d2603f4	0.040531114
118	0x3d7dc90a	0.061959304
119	0x3e4dbafc	0.2009086
120	0x3db47b71	0.08812607
121	0x3eaaf189	0.33387402
122	0xbf18f6d2	-0.5975162
123	0x3d178e2a	0.037000813
124	0x3efc648d	0.49295464
125	0x3dfd214d	0.12359867
126	0xbe8515aa	-0.2599309
127	0x3ef158d3	0.4713808
128	0xbda41104	-0.08011058
129	0x3e8e8b56	0.2784068
130	0xbe9ada4d	-0.30244675
131	0x3e851972	0.25995976
132	0x3cacd1ac	0.021096073
133	0x3ee48974	0.44636118
134	0xbea859fc	-0.32881153
135	0xbdcc17f0	-0.09965503
136	0xbe29bc79	-0.16575803
137	0x3ba00c01	0.0048842435
138	0xbdd79e37	-0.10528224
139	0x3e1f9823	0.1558538
140	0xbecabc5c	-0.39596832
141	0x3d16580d	0.036705066
142	0x3ee4fae0	0.44722652
143	0xbf12f565	-0.5740569
144	0xbe096d5e	-0.13420627
145	0xbd595038	-0.05305502
146	0xbd73af95	-0.05949362
147	0xbe8a9fdf	-0.27075097
148	0x3ea1b757	0.3158519
149	0xbd9dd9b5	-0.0770754
150	0x3f074645	0.528416
151	0x3dab0a3a	0.0835156
152	0xbe5dc7b2	-0.21658209
153	0x3e8f49ce	0.27985996
154	0x3d864349	0.065558024
155	0xbdaa7c26	-0.08324461
156	0x3e90338b	0.28164324
157	0xbd8060fd	-0.06268499
158	0xbe024eb2	-0.12725332
159	0xbe74326c	-0.2384736
160	0xbe4cdc78	-0.20005977
161	0x3e1cbf85	0.15307434
162	0x3dc054cd	0.093911745
163	0x3df87423	0.12131526
164	0x3e4bb6fe	0.19894025
165	0x3ecb155c	0.39664733
166	0xbdbdbd76	-0.092646524
167	0xbd3788b6	-0.044808112
168	0xbd6a3e0f	-0.05718809
169	0xbd4cef38	-0.050032824
170	0x3e161cac	0.14659375
171	0x3e873534	0.26407778
172	0x3db4158b	0.087931715
173	0xbe4d2a20	-0.200356
174	0xbe51e892	-0.20498875
175	0xbc358c19	-0.011080765
176	0x3ec0be16	0.37645024
177	0xbe030ab4	-0.12797052
178	0xbe9333e9	-0.28750542
179	0xbdcef0ee	-0.101045474
180	0x3db44ceb	0.088037334
181	0xbc316901	-0.010828258
182	0xbd510e50	-0.05103904
183	0x3e070df5	0.13188918
184	0x3d49941f	0.049213525
185	0xbd2e31dd	-0.042528022
186	0xbd091f34	-0.033477023
187	0x3e5dd4d5	0.2166322
188	0x3b061262	0.0020457734
189	0xbe89527c	-0.26820743
190	0x3e363c1d	0.17796369
191	0x3d7014ab	0.05861346
192	0x3ea71016	0.3262946
193	0x3e271192	0.16315296
194	0xbce1686c	-0.027515613
195	0x3e0c7437	0.13716207
196	0xbdd4571b	-0.103681765
197	0xbe135b47	-0.14390288
198	0xbda24cc7	-0.079248
199	0x3d40bd35	0.047055442
200	0x3e0c9105	0.13727196
201	0xbe2a015c	-0.16602081
202	0xbd1be2a1	-0.038057927
203	0xbd143116	-0.036179624
204	0x3e3fd8b3	0.18735008
205	0x3d7fd589	0.062459502
206	0xbe5a8013	-0.21337919
207	0x3e479cda	0.19493428
208	0x3e75d88d	0.24008389
209	0x3d406d72	0.046979375
210	0xbd56de5e	-0.05245816
211	0xbef537b9	-0.47894076
212	0x3d501015	0.050796587
213	0x3e042c9d	0.12907644
214	0x3bca2ea0	0.006170109
215	0xbc04db79	-0.008108967
216	0x3e90f81a	0.28314286
217	0x3de88033	0.11352577
218	0x3dc2c1e8	0.09509641
219	0xbec746ac	-0.38921106
220	0xbe8c3f04	-0.27391827
221	0x3e03f43f	0.12886141
222	0x3e83394e	0.25629658
223	0xbd85c219	-0.06531162
224	0xbc8ac86b	-0.01694127
225	0xbe7d12d2	-0.2471421
226	0x3e455d74	0.19273931
227	0xbd6056df	-0.054770347
228	0x3dc40cbb	0.09572741
229	0xbdbe53c0	-0.09293318
230	0x3e540a12	0.20706967
231	0xbe76f034	-0.24115068
232	0x3ce61dea	0.028090436
233	0xbd54c13b	-0.05194209
234	0xbde439a3	-0.11143806
235	0xba5eec76	-0.00085038634
236	0x3def1486	0.116738364
237	0x3aea6b29	0.001788472
238	0xbcd7dbf2	-0.026349995
239	0x3e4a84ea	0.19777265
240	0x3e356921	0.17715885
241	0xbbad6b70	-0.0052923486
242	0xbcfff905	-0.031246671
243	0xbe80bf1e	-0.2514581
244	0xbe43702a	-0.19085756
245	0xbe3b753d	-0.18306442
246	0x3ec4179e	0.38299268
247	0xbdc4bbda	-0.09606142
248	0x3d4c7368	0.049914747
249	0xbcf3048d	-0.029665256
250	0xbe29b9d4	-0.16574794
251	0xbe9dae18	-0.30796885
252	0xbe3d09f9	-0.18460836
253	0x3d032f79	0.032027695
254	0x3e164c56	0.14677557
255	0xbe85d798	-0.26141047

pool1.bias f4 [20]
0	0xbd94e714	-0.07270637
1	0xbd94f45f	-0.072731726
2	0x3e01627f	0.1263523
3	0x3dc710bf	0.09719991
4	0xb98bdd6a	-0.00026677112
5	0xbe181ddc	-0.1485514
6	0xbb5fb2e1	-0.003413372
7	0xbe063a3a	-0.13108149
8	0x3deba5cf	0.11506235
9	0x3c98ce1b	0.018652966
10	0x3e046533	0.1292923
11	0xbdbb14e7	-0.09134846
12	0x3ba32615	0.004978905
13	0xbd744e26	-0.05964484
14	0xbdddba50	-0.10826552
15	0xbd86467f	-0.06556415
16	0xbcc4dcd0	-0.024031073
17	0xbe6c15b1	-0.2305515
18	0x3d19e73d	0.03757404
19	0xbc48bf49	-0.012252637

conv2.weight f4 [35, 20, 3, 3, 3]
0	0x3ceda08f	0.029007224
1	0x3e02b7f0	0.12765479
2	0x3dab1cc7	0.08355098
3	0x3d046a66	0.032328032
4	0xbc9a58e9	-0.018841224
5	0x3d9d5591	0.07682336
6	0x3befba78	0.00731593
7	0xbd22f050	-0.03977996
8	0xbc5e2610	-0.0135588795
9	0xbc6bf388	-0.014401324
10	0x3bf05c4c	0.0073352214
11	0x3dbbcb57	0.09169643
12	0xbc9c698d	-0.0190933
13	0x3c8d3a19	0.017239617
14	0x3e0f02ee	0.13965961
15	0x3d9d9ecd	0.076963045
16	0x3d68bbd6	0.05681976
17	0xbb27146e	-0.0025494355
18	0x3d5ae5a7	0.05344167
19	0x3dd7b4e8	0.10532552
20	0xbd0a899c	-0.03382264
21	0xbca7bc75	-0.020475606
22	0xbd291096	-0.041275583
23	0x3d8452b9	0.064610906
24	0x3e3539d9	0.17697848
25	0x3cf6114c	0.030037545
26	0x3c2241d2	0.009903388
27	0x3d7848c1	0.06061626
28	0xbd62d304	-0.05537702
29	0xbd2bd933	-0.041955184
30	0xbd4af269	-0.049547587
31	0xbd44d878	-0.048058003
32	0xbd7c48e0	-0.061592937
33	0xbcfcf3b5	-0.030877927
34	0x3d983410	0.07431805
35	0xbd23cf3d	-0.03999256
36	0x3cc5a214	0.024125136
37	0xbd2d32cf	-0.042284783
38	0x3d936a6e	0.07198034
39	0xbdcd19fc	-0.10014722
40	0x3d43a9aa	0.047769226
41	0xbd3fb3b4	-0.046802238
42	0x3d63ade6	0.055585764
43	0x3cd15234	0.025551893
44	0xbdf6cb3a	-0.12050481
45	0xbd4a86c1	-0.049444918
46	0x3ce3fb51	0.027829798
47	0xbdb80239	-0.08984799
48	0xbce65283	-0.028115517
49	0x3c70f8fc	0.0147078
50	0xbd0a9e24	-0.03384222
51	0xbb30a39e	-0.0026952992
52	0xbcbf8215	-0.023377458
53	0x3cb99f1a	0.022658873
54	0xbdc01c93	-0.0938045
55	0xbd2b4527	-0.041813996
56	0x3cdcdb60	0.026960075
57	0x3d2bbd81	0.041928772
58	0x3d1eddfc	0.03878592
59	0x3bd509e2	0.0065014223
60	0xbc77e086	-0.015129214
61	0xbd5518ff	-0.05202579
62	0x3c63cacc	0.013903331
63	0x3d9958dc	0.07487652
64	0x3deed19c	0.116610736
65	0x3d0b7177	0.034043755
66	0xbcead310	-0.028665096
67	0x3d2938d0	0.041313946
68	0xbdc9806a	-0.09838946
69	0x3a9e5184	0.0012078737
70	0x3d8e0701	0.0693493
71	0xb9e0f248	-0.00042905123
72	0xbce36a81	-0.027760746
73	0xbd7f9059	-0.06239352
74	0x3ce3be7e	0.027800795
75	0x3d0c82ce	0.034304433
76	0x3d0e606e	0.03475993
77	0x3cfdb125	0.030968258
78	0x3d3d83db	0.046268325
79	0x3d3d638b	0.04623751
80	0x3da360f5	0.079774775
81	0x3ca4b8a0	0.020107567
82	0x3d34c5bb	0.044133883
83	0x3dab5b08	0.08366972
84	0xbd0305fb	-0.031988125
85	0x3d8d2fcd	0.06893883
86	0xbc4b8ff0	-0.012424454
87	0x3d3f11bb	0.04664777
88	0x3c024aa5	0.007952367
89	0x3d813a36	0.06309931
90	0x3de0956c	0.10966
91	0xbd91cf06	-0.07119565
92	0xbd77b4f3	-0.0604753
93	0x3d294033	0.04132099
94	0xbd47a346	-0.048739694
95	0x3dd4e481	0.10395146
96	0x3d85fc69	0.06542284
97	0x3bee8d48	0.0072800256
98	0xbd84330b	-0.06455048
99	0x3d414ab0	0.04719037
100	0xbce7091c	-0.028202586
101	0xbd41b1c0	-0.047288656
102	0xbdb8ac5e	-0.090172514
103	0x3d8cbedf	0.06872343
104	0x3d92e924	0.07173374
105	0x3db3884a	0.087662295
106	0x3d58d52b	0.052937668
107	0x3cd8f87d	0.026485676
108	0x3d9f4924	0.07777622
109	0xbd95c3ca	-0.073127344
110	0x3c3ace33	0.011401701
111	0x3e32be65	0.17455442
112	0x3b147e55	0.0022658308
113	0xbd59d90d	-0.05318551
114	0x3de54b96	0.111960575
115	0x3dfb2235	0.12262384
116	0x3c86f604	0.016474731
117	0xbda7e732	-0.08198394
118	0x3cb35c91	0.021894725
119	0xbda37011	-0.07980359
120	0xbccc578d	-0.024944091
121	0xbd47a5de	-0.048742168
122	0xbd3e7021	-0.046493653
123	0xbd708956	-0.058724724
124	0x3d8a10a7	0.067414574
125	0xbcbf0522	-0.023317877
126	0x3d610ec4	0.054945722
127	0x3d102bb7	0.03519794
128	0xbc0f6a91	-0.008753435
129	0xbe06eeda	-0.13177052
130	0x3cf76c52	0.030203018
131	0x3c2d8ddc	0.010592904
132	0x3c7901c9	0.0151981795
133	0x3dad65f7	0.08466714
134	0x3dd1088f	0.102067105
135	0x3d0c0b30	0.034190357
136	0xbcbd5c81	-0.023115398
137	0xbde3dafb	-0.111257516
138	0xbc982de7	-0.018576575
139	0x3d847699	0.06467933
140	0x3d6901e4	0.05688657
141	0x3d10a624	0.035314694
142	0xbd10fac6	-0.035395406
143	0x3df34785	0.11878876
144	0x3d466ade	0.04844176
145	0x3dd91ea1	0.10601545
146	0x3c8b6206	0.017014515
147	0x3c0e7cfc	0.008696791
148	0xbb94c34f	-0.004539884
149	0xbd386d99	-0.045026395
150	0xbd141c08	-0.036159545
151	0x3d389589	0.045064483
152	0xbd9632f0	-0.07333934
153	0x3c06d0a5	0.008228456
154	0x3a2346ec	0.0006228525
155	0x3d81601b	0.06317159
156	0x3d947ef9	0.072507806
157	0x3b50f699	0.0031885265
158	0x3df6a66f	0.120434634
159	0xbd6fb844	-0.05852534
160	0xbd400042	-0.046875246
161	0x3c03528c	0.008015286
162	0xbdc413f0	-0.09574115
163	0xbbd5dad5	-0.006526331
164	0xbbf9e594	-0.007626245
165	0x3cfdb0d2	0.030968104
166	0x3c2c59ec	0.010519486
167	0xbd756a42	-0.05991579
168	0x3c12c54f	0.008958175
169	0x3d129cea	0.035794176
170	0xbc8819ea	-0.01661392
171	0x3c940c46	0.018072259
172	0x3c47f8c9	0.012205311
173	0xbd7c7f67	-0.061644938
174	0x3c4d3ee8	0.012527205
175	0x3d60c83a	0.05487845
176	0xbcdee322	-0.027207915
177	0x3d5d92a5	0.05409493
178	0xbcf75d37	-0.030195815
179	0x3d9e8020	0.07739282
180	0x3d2fee8e	0.042952113
181	0xbd36fd89	-0.044675384
182	0x3d7362d3	0.059420418
183	0xba25b906	-0.0006321821
184	0xbd8bbf29	-0.0682357
185	0xbbf00d32	-0.0073257918
186	0xbc3cfb9d	-0.011534599
187	0xbd62c3db	-0.055362564
188	0xba8c9518	-0.0010725586
189	0xbda275f3	-0.07932653
190	0xbbcc51bf	-0.006235331
191	0x3d3bd033	0.04585285
192	0xbd564e65	-0.052320857
193	0xbd11947b	-0.035541993
194	0xbddc0dc4	-0.10744813
195	0x3d2d87da	0.042365886
196	0x3dd61c24	0.10454586
197	0xbd8b1a7d	-0.067921616
198	0xbb8750db	-0.004129512
199	0x3d07fbcb	0.033199113
200	0x3a7c3f28	0.0009622448
201	0x3e1f32fd	0.15546794
202	0x3e1b61d1	0.15174033
203	0xbc6acf6f	-0.014331683
204	0x3d230d3f	0.039807554
205	0x3d0ef001	0.034896854
206	0x3d3a736b	0.045520227
207	0x3d2fed1e	0.042950742
208	0xbd5bd517	-0.053670015
209	0x3d515e02	0.051115043
210	0x3b1d8735	0.0024036888
211	0x3d291f26	0.04128947
212	0x3d0f8d33	0.035046767
213	0x3df4c65f	0.11951899
214	0x3dae7c98	0.08519858
215	0xbd26aa90	-0.040690005
216	0xbd8638f3	-0.06553831
217	0x3da7cb99	0.0819313
218	0xbd803ea1	-0.062619455
219	0x3d37414b	0.044740003
220	0x3c4b255d	0.012399045
221	0x3c90fda4	0.01769907
222	0xbc976124	-0.018478937
223	0x3dda07a4	0.106459886
224	0x3d864f04	0.0655804
225	0x3a7cdfea	0.0009646403
226	0x3c3c2beb	0.01148508
227	0xbc2f84a0	-0.010712773
228	0x3d4c45bd	0.049871195
229	0x3d0298d5	0.031884033
230	0xbd8bd455	-0.068276085
231	0x3d1bfb33	0.03808136
232	0xbdc38cb9	-0.09548325
233	0xbc537135	-0.012905409
234	0x3cc490ae	0.02399477
235	0xbc1a5c9e	-0.009421496
236	0x3db38d34	0.08767167
237	0x3b4a8157	0.0030899846
238	0x3d81bfa7	0.06335383
239	0xbd8bdb83	-0.06828978
240	0x3bb86304	0.005627038
241	0xbd85c7e2	-0.06532265
242	0xbcb3bfa8	-0.021941975
243	0xbc603149	-0.0136836255
244	0xbd205c92	-0.039150782
245	0x3cfb0eeb	0.030646762
246	0xbd24b89a	-0.040215112
247	0x3d28232c	0.041049168
248	0xbd919b90	-0.07109749
249	0x3b0d5051	0.0021562765
250	0xbbf4eb22	-0.007474319
251	0x3c914a3a	0.01773559
252	0x3c2e0676	0.010621658
253	0x3e0ff8f3	0.1405981
254	0x3d3f9424	0.046772137
255	0x3d370739	0.044684622

conv2.bias f4 [35]
0	0x3c194b2d	0.009356302
1	0xbc259e53	-0.010108548
2	0xbc994def	-0.01871392
3	0x3d1cf39e	0.03831827
4	0xbd2079f4	-0.039178804
5	0xbc9f427c	-0.019440882
6	0xbcbd5935	-0.023113826
7	0xbca1fb85	-0.019773254
8	0xbca561e6	-0.020188283
9	0xbc7ed5d5	-0.015553911
10	0x3cc67527	0.024225784
11	0xbcb8586c	-0.0225031
12	0xbb86296b	-0.004094293
13	0x3c33b029	0.010967293
14	0xbc17e156	-0.009270033
15	0x3bdf7094	0.0068188403
16	0xbc9d0061	-0.01916522
17	0x3c6b6cce	0.014369203
18	0x3c8c7a00	0.017148018
19	0xbc73dd40	-0.014884293
20	0xbcbde39e	-0.023179825
21	0x3bf0f4f3	0.007353419
22	0xbb4ec80d	-0.0031552345
23	0x3c74403d	0.014907894
24	0xbcce52c6	-0.025185954
25	0x3c8c70f5	0.017143706
26	0x3d3f1922	0.046654828
27	0xbb1c9849	-0.002389448
28	0x398a853b	0.00026420676
29	0x3a02568d	0.00049720035
30	0xbc6621d5	-0.014046152
31	0xbcfa6479	-0.030565487
32	0x3c824899	0.015903758
33	0x3d84258c	0.06452474
34	0x3cbebb16	0.023282569

pool2.weight f4 [35, 35, 3, 1, 1]
0	0xbd89d151	-0.06729377
1	0xbe9ab62d	-0.30217114
2	0xbd85f8c6	-0.065415904
3	0x3dc71364	0.09720495
4	0xbd6ef29f	-0.05833685
5	0xbc3ca0f9	-0.011512988
6	0x3d99a049	0.07501275
7	0xbe291cb7	-0.1651486
8	0x3e90300f	0.28161666
9	0x3e31baa9	0.17356361
10	0x3e078185	0.13233002
11	0x3b9acb5b	0.004723949
12	0xbcc65dd2	-0.024214659
13	0x3e2c88ca	0.16849056
14	0x3e6b1d5f	0.22960423
15	0x3e26a09f	0.1627221
16	0x3e231c90	0.15928864
17	0xbc5284a1	-0.012849004
18	0xba8641ae	-0.0010242963
19	0xbe1375f8	-0.1440047
20	0xbda12bdf	-0.07869696
21	0xbd4ee950	-0.050515473
22	0xbd047b79	-0.032344315
23	0x3d830b5e	0.063986525
24	0x3e196bf7	0.14982592
25	0xbe806dfa	-0.25083905
26	0x3d647c0f	0.055782374
27	0xbd8e4e27	-0.069485
28	0x3e4651d8	0.19367158
29	0x3da69b07	0.08135038
30	0x3ddba8f5	0.10725585
31	0xbda9e4a6	-0.08295564
32	0x3c771824	0.015081439
33	0x3e149e7b	0.1451358
34	0x3de4797d	0.111559846
35	0x3cdb5d68	0.026777938
36	0xbd39220d	-0.04519849
37	0xbcfae137	-0.030624969
38	0xbcb7574f	-0.0223805
39	0x3d779013	0.060440134
40	0x3e8a44f1	0.27005723
41	0x3e0c08d2	0.1367524
42	0x3dacd8d2	0.08439793
43	0x3c52106a	0.012821296
44	0xbd59cef4	-0.05317588
45	0x3e68fd77	0.22752939
46	0x3e8579eb	0.2606958
47	0xbde9d6f0	-0.11417949
48	0xbd23c762	-0.03998507
49	0xbe210002	-0.15722659
50	0x3e85e00e	0.26147503
51	0xbdab307f	-0.08358859
52	0xbd53eca1	-0.05173934
53	0x3d67e97d	0.056619156
54	0xbd12d119	-0.035843942
55	0xbe42dffa	-0.19030753
56	0x3ddb5f57	0.10711544
57	0x3d870360	0.065924406
58	0x3c1b3d3a	0.009475047
59	0x3d86cadf	0.06581663
60	0x3b0bfef9	0.0021361692
61	0xbe4bc5be	-0.19899651
62	0xbd6e9d39	-0.058255408
63	0x3e01653b	0.12636273
64	0xbe3c600c	-0.18396014
65	0x3dffe9db	0.12495776
66	0xbe124ebf	-0.14287852
67	0xbc6c856f	-0.01443611
68	0x3c9d0676	0.01916812
69	0x3e10dd7a	0.14146987
70	0x3d0a1439	0.033710692
71	0x3c5902ef	0.013245328
72	0xbdc2b00e	-0.09506236
73	0xbd847627	-0.06467848
74	0x3e6835e4	0.22676808
75	0xbd963494	-0.07334247
76	0x3d1f23aa	0.03885237
77	0x3e27e82a	0.16397157
78	0xbe9219f1	-0.28535417
79	0xbddbbd28	-0.10729438
80	0x3d6f9bc2	0.05849815
81	0x3db4af99	0.08822555
82	0x3dba8953	0.09108224
83	0xbe54605d	-0.20739885
84	0xbe726937	-0.23672949
85	0x3e1143d2	0.14186028
86	0x3e84cdfa	0.25938398
87	0xbe0c69e1	-0.13712265
88	0xbe3dd97e	-0.18539998
89	0xbd4b211d	-0.049592126
90	0x3cd5cc4b	0.026098391
91	0xbe59e09d	-0.2127709
92	0x3ce3aa47	0.027791156
93	0x3dcf1ffd	0.10113523
94	0xbe05c60b	-0.13063829
95	0x3c937229	0.017998772
96	0xbe886f51	-0.26647428
97	0xbeeb879d	-0.46001902
98	0x3df7d07c	0.12100312
99	0x3c2b74b3	0.010464835
100	0xbe3a6494	-0.1820243
101	0xbe4b7649	-0.19869341
102	0xbdb98276	-0.090580866
103	0x3cca42ca	0.02469005
104	0xbce37fec	-0.027770959
105	0xbe43305c	-0.19061416
106	0x3c5f60ff	0.0136339655
107	0x3e95a844	0.2922994
108	0x3d0a3e27	0.03375068
109	0x3d0c3d1c	0.034237966
110	0xbe3247f3	-0.17410259
111	0xbd3fdf9d	-0.046844114
112	0xbc829687	-0.015940918
113	0xbe070662	-0.13186029
114	0x3de1cdaa	0.110255554
115	0x3e2a7008	0.16644299
116	0xbe71105e	-0.235414
117	0xbe6573d1	-0.22407462
118	0x3daa577d	0.08317468
119	0x3e03ef03	0.12884144
120	0xbdf6c006	-0.12048344
121	0xbd8c92e0	-0.06863952
122	0x3b956e33	0.004560256
123	0xbe3bd2a0	-0.18342066
124	0xbde6d570	-0.11271179
125	0x3d70d511	0.058796946
126	0xbde155f0	-0.110027194
127	0xbddcb960	-0.10777545
128	0x3debaecf	0.115079515
129	0xbd28fe0a	-0.041257896
130	0xbcdcbced	-0.026945556
131	0x3cf81faa	0.030288536
132	0x3c6b8b58	0.014376484
133	0x3c209a6e	0.009802444
134	0x3e11628d	0.1419775
135	0xbd6d1330	-0.057879627
136	0x3e1f308d	0.15545864
137	0x3db36e47	0.08761268
138	0xbd423685	-0.047415275
139	0x3db9e014	0.09075943
140	0xbdbdf6dd	-0.09275601
141	0xbdec38c7	-0.11534267
142	0x3ec4605e	0.38354772
143	0xbdc25baf	-0.094901435
144	0xbc8a4891	-0.016880305
145	0xbda58b98	-0.08083266
146	0xbcc9387d	-0.024563069
147	0xbe77ea11	-0.24210383
148	0x3ca6e66a	0.020373542
149	0x3e3fb4d0	0.18721318
150	0xbda4e240	-0.08050966
151	0x3d8513d5	0.06497923
152	0xbe01357f	-0.12618063
153	0xbdf37a2d	-0.118885376
154	0xbe99d52c	-0.3004545
155	0xbdbe0391	-0.09278024
156	0x3dd39cf5	0.103326716
157	0xbe620262	-0.22071221
158	0xbe13c430	-0.14430308
159	0x3de82a59	0.11336202
160	0xbdb95edb	-0.09051295
161	0xbe84ebf9	-0.25961283
162	0xbe3ee17e	-0.18640706
163	0x3d6e2037	0.05813619
164	0xbdbdaf5d	-0.092619635
165	0x3d1e7b8b	0.03869204
166	0xbe3a1dac	-0.18175381
167	0x3c14072a	0.009034911
168	0x3d9572f4	0.07297316
169	0x3e084d84	0.1331082
170	0x3b784887	0.0037885027
171	0xbd3623ae	-0.04446762
172	0xbddade4f	-0.10686933
173	0xbe752625	-0.23940332
174	0x3da29e59	0.07940359
175	0x3e4b515a	0.19855252
176	0x3e29830a	0.16553894
177	0xbdd91add	-0.10600827
178	0x3e896f0d	0.26842538
179	0x3c1f71ff	0.009731769
180	0x3cf76269	0.030198293
181	0x3dae9af7	0.08525651
182	0x3d1e80a2	0.038696893
183	0x3e486996	0.19571528
184	0xbe7b524c	-0.24543113
185	0xbe5a0e8f	-0.21294616
186	0x3dc2ff43	0.095213436
187	0x3e025293	0.12726812
188	0x3e4d8462	0.20070031
189	0x3d805511	0.06266225
190	0x3e01e979	0.12686719
191	0xbe5c991f	-0.21542786
192	0x3c84e09f	0.016220389
193	0xbdf9e2e1	-0.12201477
194	0x3dc56872	0.09639062
195	0xbab361f2	-0.0013685806
196	0xbdd7e34e	-0.10541402
197	0xbd89093a	-0.06691213
198	0x3b73947d	0.0037167363
199	0xbe56fe4d	-0.20995446
200	0xbdec62e6	-0.11542301
201	0x3e1d7159	0.1537527
202	0x3cf400aa	0.029785473
203	0xbe1e2e0a	-0.1544725
204	0x3dab07ee	0.08351122
205	0xbd8c414c	-0.06848392
206	0x3dc71666	0.09721069
207	0x3da16fa3	0.07882621
208	0xbb9509a1	-0.004548267
209	0x3e3eef8d	0.18646069
210	0xbe92ba41	-0.28657725
211	0xbe01cd91	-0.12676074
212	0x3df62081	0.120179184
213	0x3de98b21	0.1140349
214	0x3e06b631	0.13155438
215	0xbe38f291	-0.18061282
216	0xbd37bb2c	-0.044856235
217	0x3eb7284c	0.35772932
218	0x3ca63883	0.020290619
219	0x3c9dd77e	0.019267794
220	0xbd56b1b9	-0.052415583
221	0xbdfb7d43	-0.12279751
222	0x3b237392	0.0024940711
223	0x3dbb29c4	0.091388255
224	0x3e3f7a70	0.1869905
225	0xbe37fb46	-0.17966947
226	0x3e106cc1	0.14103986
227	0x3d6832c7	0.05668905
228	0x3e0f249d	0.1397881
229	0xbbeb0cc8	-0.0071731545
230	0xbe8443e7	-0.25833055
231	0x3d298d92	0.041394778
232	0xbdf615a5	-0.12015847
233	0x3dea7676	0.11448376
234	0x3cb082bf	0.02154672
235	0x3e06934b	0.13142125
236	0xbb217d47	-0.0024641322
237	0x3e043603	0.12911229
238	0x3e373d2a	0.17894426
239	0xbe3a1d54	-0.1817525
240	0x3d93e0c7	0.07220607
241	0xbf016cb8	-0.50556517
242	0xbe2fc20f	-0.17163871
243	0xbdf6e806	-0.12055974
244	0xbc66bed4	-0.014083583
245	0xbd3e38e7	-0.046440985
246	0xbd5cab00	-0.053874016
247	0xbe02e689	-0.12783255
248	0x3c95cbb6	0.018285614
249	0x3e5c2d97	0.21501766
250	0xbdb9f904	-0.09080699
251	0x3de1f61c	0.1103327
252	0x3c8347a1	0.016025366
253	0x3e0fc0f5	0.14038451
254	0xbd8485da	-0.06470843
255	0x3e137dbb	0.14403431

pool2.bias f4 [35]
0	0x3d1f5d8c	0.038907573
1	0x3c7feacf	0.015619948
2	0xbd8a31e8	-0.067478
3	0x3d71d4ad	0.059040714
4	0xbce06149	-0.02739014
5	0xbc695b70	-0.014242992
6	0xbd5e374d	-0.054251958
7	0x3c21a344	0.009865586
8	0x3d3b389a	0.045708276
9	0x3cd16da5	0.025564978
10	0x3c05fa41	0.008177341
11	0x3c5accdb	0.013354505
12	0x3c02245a	0.007943237
13	0xbd183c45	-0.037166853
14	0x3c8e78b0	0.017391533
15	0xbc1235a7	-0.0089239245
16	0xbcf298db	-0.029613903
17	0x3ccca11d	0.024979169
18	0x3c0d02e1	0.008606643
19	0x3c0d47df	0.008623092
20	0x3aea9d84	0.0017899727
21	0x3d1ab4d6	0.037770115
22	0x3c478f52	0.012180166
23	0x3cc55a9b	0.024091056
24	0xbc16229c	-0.009163525
25	0x3d06d4bb	0.03291772
26	0x3ccbc3db	0.024873665
27	0xbc917297	-0.017754836
28	0xbc67d485	-0.01414979
29	0x3c5114ee	0.012761338
30	0x3d87a944	0.06624082
31	0x3afc66e2	0.0019256736
32	0xbd22ab4a	-0.039714135
33	0xbd000da9	-0.031263027
34	0x3d516ac9	0.05112723

conv3.weight f4 [35, 35, 3, 1, 1]
0	0xbd382a30	-0.044962108
1	0xbc574ec2	-0.013141336
2	0x3d1693a1	0.036761884
3	0xbdaa2615	-0.08308045
4	0xba3a3964	-0.0007103889
5	0xbe25bbf0	-0.16184974
6	0xbe284605	-0.1643296
7	0xbc611d1d	-0.013739851
8	0x3e13dfd9	0.1444086
9	0xbdc88075	-0.09790126
10	0xbd9e5892	-0.07731737
11	0xbe4cce65	-0.20000608
12	0x3d735234	0.059404567
13	0xbd20104d	-0.039078046
14	0x3d4f69db	0.05063806
15	0x3ca54080	0.020172358
16	0xbc483648	-0.012219973
17	0x3ead4061	0.3383818
18	0xbcdf4dd5	-0.027258793
19	0x3ea24308	0.31691766
20	0xbc8e32df	-0.017358242
21	0x3e497dad	0.19676848
22	0x3e30ce8e	0.17266294
23	0xbd83606a	-0.06414874
24	0xbe105195	-0.14093621
25	0x3d53f88f	0.051750716
26	0xbe06e3bf	-0.13172816
27	0x3df6ce4f	0.12051069
28	0x3eba480f	0.363831
29	0x3d2f083b	0.04273246
30	0x3e50326f	0.20331739
31	0xbdd6e8f4	-0.10493651
32	0x3d70f3e9	0.05882636
33	0x3cccd91f	0.025005875
34	0x3dfac50e	0.122446164
35	0xbd19df90	-0.03756672
36	0x3e02b377	0.12763773
37	0x3e2cfdbc	0.16893667
38	0x3d5f53be	0.054523222
39	0xbd5bcc82	-0.05366183
40	0xbcfb8911	-0.030705007
41	0xbc20a3eb	-0.009804706
42	0x3dcd64ee	0.100290164
43	0xbc9bdf87	-0.019027485
44	0x3eb537a8	0.35394025
45	0x3e916fde	0.2840566
46	0x3ec36f4a	0.38170844
47	0xbc87d38b	-0.016580364
48	0xbe0a8fcf	-0.13531421
49	0x3d9158a6	0.070969865
50	0x3e2b2be9	0.16715969
51	0xbd79829c	-0.060915574
52	0xbd81218b	-0.06305226
53	0x3db3218d	0.08746634
54	0x3cb80aff	0.02246618
55	0xbcb5ba93	-0.022183692
56	0x3e2c9512	0.16853741
57	0xbe00f7af	-0.12594484
58	0xbd02c049	-0.03192166
59	0xbd6a1168	-0.057145506
60	0xbdc02f4b	-0.093840204
61	0x3d3417d2	0.04396803
62	0x3e47aa2d	0.1949851
63	0x3d6af41c	0.057361707
64	0x3e60186e	0.21884319
65	0x3d302de3	0.04301251
66	0x3e81bcf7	0.2533948
67	0xbc83de11	-0.0160971
68	0xbd960bf2	-0.07326497
69	0x3d7e8157	0.062135067
70	0x3c427d22	0.011870654
71	0x3e974239	0.2954271
72	0x3d390495	0.045170385
73	0x3e14591c	0.14487118
74	0xbe9ec23d	-0.31007567
75	0x3c08c23e	0.008347092
76	0xbd4667fa	-0.048439004
77	0x3d070c28	0.032970577
78	0xbdcff3a3	-0.10153892
79	0x3de433d4	0.11142698
80	0x3dc73df9	0.09728617
81	0xbb2e0065	-0.0026550528
82	0x3e121aec	0.14268082
83	0xbc55e7d7	-0.013055763
84	0xbc6251b7	-0.013813428
85	0x3d0fa92d	0.035073448
86	0xbe161275	-0.14655478
87	0xbe7c3f03	-0.24633412
88	0xbb1d5af5	-0.0024010513
89	0x3d35678d	0.044288207
90	0xbdc76176	-0.09735386
91	0xbe07ffd1	-0.1328118
92	0x3d589986	0.052880786
93	0x3e02af16	0.12762102
94	0xbe6420b5	-0.22278102
95	0xbd29f03e	-0.04148888
96	0xbe1ad558	-0.15120447
97	0x3c92241b	0.017839482
98	0x3e20f834	0.15719682
99	0xbdb97f3b	-0.090574704
100	0xbd96acd9	-0.07357187
101	0xbe2c362f	-0.16817544
102	0xbe3af47b	-0.18257324
103	0x3ef43149	0.47693852
104	0xbecd5bdb	-0.40109143
105	0xbde6dd21	-0.11272646
106	0x3e9cdfa5	0.30639377
107	0xbdb6834f	-0.08911764
108	0x3e0c8d05	0.1372567
109	0xbc0b774e	-0.008512331
110	0x3d9c5c44	0.07634786
111	0x3e2a5e9e	0.16637656
112	0xbe118c80	-0.14213753
113	0x3e18b09d	0.14911123
114	0xbd89fdbb	-0.06737848
115	0x3e6b275e	0.22964236
116	0x3cae767d	0.021296734
117	0xbc0c27b0	-0.008554384
118	0xbe99d5d7	-0.3004596
119	0x3e4f673b	0.20254223
120	0x3d420c75	0.04737516
121	0x3e87a2f3	0.26491508
122	0xbd4288f3	-0.047493886
123	0xbe03e12e	-0.12878868
124	0x3da7654c	0.08173618
125	0xbde5c142	-0.112185016
126	0xbca81a75	-0.020520428
127	0x3d000c7e	0.031261913
128	0xbe9218e8	-0.28534627
129	0x3c9b8916	0.018986266
130	0x3e0c6e8e	0.13714048
131	0xbe00d79c	-0.12582248
132	0x3dea42e8	0.114385426
133	0xbbd98d9a	-0.0066391947
134	0xbd9014cc	-0.07035217
135	0x3e8aa1cb	0.27076563
136	0x3d8d495e	0.06898759
137	0xbe277460	-0.16352987
138	0x3d264a93	0.040598463
139	0xbe655a62	-0.2239776
140	0xbdf6c843	-0.12049916
141	0xbcd37b50	-0.025815636
142	0x3e1a040a	0.15040603
143	0xbe085a05	-0.1331559
144	0xbe2a7180	-0.1664486
145	0xbe3512ed	-0.17683001
146	0x3dfbdeed	0.12298379
147	0xbd2c1818	-0.042015165
148	0xbc388db1	-0.011264251
149	0x3d24e76a	0.040259756
150	0xbe2fb803	-0.17160039
151	0x3c8cb355	0.017175356
152	0x3d9ea867	0.07746964
153	0xbe7ddb87	-0.24790774
154	0xbd71d5d9	-0.05904183
155	0x3d878253	0.06616654
156	0xbdd658b0	-0.104661345
157	0xbe8140b4	-0.25244677
158	0xbdba347c	-0.09092042
159	0xbd667466	-0.05626335
160	0xbd9fd6bf	-0.078046314
161	0x3e1ca510	0.15297341
162	0xbe46c0a5	-0.19409426
163	0x3c353246	0.011059349
164	0xbcfeee5e	-0.031119522
165	0x3dc11f66	0.09429817
166	0xbe240042	-0.16015723
167	0x3dbb1dc5	0.091365375
168	0xbe29e3c0	-0.16590786
169	0xbe2b3a37	-0.16721426
170	0xbdd05af7	-0.101736
171	0x3c69d119	0.014271044
172	0x3ea53fc1	0.32275203
173	0x3d2e539f	0.042560216
174	0x3ddacbad	0.10683379
175	0xbc9ee15d	-0.019394571
176	0xbe4fdad1	-0.20298316
177	0x3e4f5828	0.20248473
178	0x3df591f5	0.1199073
179	0x3e25df98	0.16198575
180	0xbc20ad76	-0.009806981
181	0xbeae59c0	-0.3405285
182	0xbd4ad3ad	-0.049518276
183	0x3db40642	0.08790256
184	0xbe33b033	-0.17547683
185	0x3ddea2f7	0.10870927
186	0x3d19d61c	0.037557706
187	0xbdba6295	-0.09100834
188	0x3e4ede26	0.2020193
189	0xbd5997b8	-0.053123206
190	0xbd62bc2a	-0.05535523
191	0xbe3297b7	-0.17440687
192	0x3d2df0c0	0.042465925
193	0xbe72688f	-0.23672698
194	0x3d09fd02	0.033688553
195	0x3dc4c3f8	0.096076906
196	0x3e0c06a4	0.13674408
197	0xbd0bf360	-0.034167647
198	0x3d1754a1	0.036945943
199	0x3dbabab1	0.0911764
200	0x3e9c9c6c	0.3058809
201	0x3e1c8c2a	0.15287843
202	0xbe41d954	-0.1893056
203	0xbdba9554	-0.09110513
204	0x3ea5f677	0.324146
205	0xbe830ee8	-0.2559731
206	0x3e8787b2	0.26470715
207	0xbe887b21	-0.2665644
208	0x3ec6addc	0.3880452
209	0xbe982051	-0.29712155
210	0x3d239e90	0.03994614
211	0x3e033856	0.12814459
212	0x3e060e83	0.13091473
213	0xbe147c14	-0.14500457
214	0x3e4ad6c7	0.19808494
215	0xbe4cbb69	-0.19993366
216	0xbd1a745d	-0.03770863
217	0xbdafcecd	-0.08584366
218	0xbe62b10f	-0.22137855
219	0x3dc989b1	0.09840716
220	0xbde6b299	-0.112645335
221	0xbdbe06fa	-0.092786744
222	0xbeb1aa5b	-0.34700283
223	0xbb9b24ac	-0.0047345962
224	0xbde348e7	-0.110978894
225	0xbe40f48e	-0.1884329
226	0xbe30e1a5	-0.17273577
227	0xbd49ea4a	-0.0492957
228	0xbda911d7	-0.08255356
229	0x3d013c77	0.031551804
230	0x3b8109f0	0.003937952
231	0x3d5520d5	0.052033264
232	0x3e9438be	0.2894954
233	0x3dffaa43	0.12483647
234	0xbdc45a37	-0.095875196
235	0xbdf766fd	-0.1208019
236	0x3c6476f2	0.013944374
237	0xbd0ceb3e	-0.034404032
238	0xbbf2ef8c	-0.00741381
239	0x3e0585c2	0.13039306
240	0xbe107dd8	-0.14110506
241	0xbd800ff0	-0.0625304
242	0x3e45f9af	0.19333528
243	0x3e0d3ca0	0.13792658
244	0xbdb9bd1b	-0.09069272
245	0x3e8503a4	0.2597934
246	0xbbf172f1	-0.0073684384
247	0xbdee27bf	-0.11628675
248	0xbcd782c1	-0.026307466
249	0xbdcab6ef	-0.09898173
250	0x3dbc41cf	0.091922395
251	0x3e444243	0.19165902
252	0x3da3f41e	0.08005546
253	0x3e042cd9	0.12907733
254	0x3c7c1f8b	0.01538838
255	0xbd75d773	-0.06001992

conv3.bias f4 [35]
0	0xbc8170de	-0.01580089
1	0xbb53abf5	-0.003229854
2	0xbd058279	-0.03259513
3	0x3ad204bb	0.0016023138
4	0xbca8debd	-0.020614022
5	0x3bda6d2e	0.0066658473
6	0xbc9de7ad	-0.01927551
7	0xbc6f21ae	-0.014595432
8	0x3d845347	0.064611964
9	0xba2ff43c	-0.0006712114
10	0xbc700712	-0.014650123
11	0xbcb5ee1e	-0.02220827
12	0xbb9546de	-0.004555567
13	0x3d460a0b	0.04834942
14	0x3d0144d8	0.031559795
15	0x3d454b3f	0.048167463
16	0xbce0d680	-0.027446032
17	0x3c654fc8	0.013996072
18	0x3d3becb3	0.04588003
19	0x3d14e42d	0.036350418
20	0xbd160f6a	-0.036635794
21	0xbcef14e1	-0.02918476
22	0xbcac3319	-0.021020459
23	0x3cb79c04	0.022413261
24	0xbd0a7618	-0.03380403
25	0xb9247a1f	-0.00015685752
26	0xbc9c1a72	-0.019055579
27	0xbc94f4a8	-0.018183067
28	0xbd3b7805	-0.045768756
29	0xbcbbd37e	-0.022927996
30	0xbcadb5b3	-0.021204805
31	0xbca64e25	-0.020300934
32	0x3d226587	0.039647605
33	0xbcd5b8d4	-0.02608911
34	0xbd359945	-0.044335622

conv4.weight f4 [35, 35, 2, 1, 1]
0	0xbe007ca4	-0.12547547
1	0x3db6fbaf	0.089347236
2	0x3d4eed1e	0.0505191
3	0xbc9e8e4e	-0.019354966
4	0xbe7a6c2d	-0.24455328
5	0xbe484f6c	-0.19561547
6	0xbdaa0fc9	-0.08303792
7	0x3e09a244	0.13440806
8	0xbe595232	-0.21222761
9	0xbe5b7ab7	-0.21433531
10	0xbe3227c7	-0.17397986
11	0xbe94d5df	-0.2906942
12	0xbe0880ec	-0.1333043
13	0xbe454d74	-0.19267827
14	0xbe10da72	-0.1414583
15	0xbd4d232a	-0.050082363
16	0xbdbe93a2	-0.093055025
17	0x3d6703e4	0.056400195
18	0x3e4b79d7	0.19870697
19	0x3d1a0a1c	0.037607297
20	0xbdb840bd	-0.08996723
21	0x3e56fbcb	0.20994489
22	0x3dbf2466	0.09333114
23	0x3d5251ac	0.05134742
24	0xbd66ca38	-0.056345195
25	0x3d138dad	0.036023784
26	0x3e754672	0.23952654
27	0x3c9be854	0.019031681
28	0x3e4d6d75	0.20061286
29	0x3b665749	0.003514724
30	0x3e9e0df7	0.3087003
31	0xbe3d3fea	-0.18481413
32	0xbd88c05f	-0.06677317
33	0x3ebc7bb9	0.36813143
34	0xbdf886f2	-0.12135114
35	0xbe01fcd1	-0.12694098
36	0x3da0cbea	0.078513935
37	0xbe909643	-0.2823964
38	0xbde520cc	-0.11187896
39	0xbef4c750	-0.47808313
40	0xbe97e29c	-0.29665077
41	0xbe43e714	-0.19131118
42	0x3e11b319	0.14228477
43	0x3ce3db77	0.02781461
44	0x3e5bb275	0.21454795
45	0x3dbb0071	0.091309436
46	0x3d33e0b9	0.043915484
47	0x3dae9ff5	0.08526603
48	0x3dc0000a	0.093750075
49	0x3ce6348e	0.028101232
50	0xbea9de56	-0.3317744
51	0x3ce51451	0.02796379
52	0x3e497174	0.19672185
53	0x3dea8306	0.11450772
54	0xbddaa641	-0.10676242
55	0xbd9793fa	-0.07401271
56	0x3e92267c	0.28544986
57	0xbe484382	-0.19557002
58	0xbcf070a4	-0.029350586
59	0x3e9d59d4	0.30732596
60	0xbd91ef85	-0.07125763
61	0xbd4e94e8	-0.050434977
62	0xbe15cb82	-0.14628413
63	0xbc9d2e30	-0.019187063
64	0x3e92a176	0.2863881
65	0xbea44004	-0.3208009
66	0xbc313cee	-0.010817749
67	0xbdb00e7e	-0.08596514
68	0xbcdf40e6	-0.027252626
69	0x3e9efaca	0.31050712
70	0x3e66b9af	0.2253177
71	0xbc1301f1	-0.008972631
72	0xbdf9e30c	-0.12201509
73	0x3e648dfd	0.22319789
74	0x3b8b7b47	0.004256639
75	0xbdb221b1	-0.086978324
76	0x3e211f0b	0.15734498
77	0xbe8c8a1e	-0.27449125
78	0x3e30e354	0.17274219
79	0xbe5ef6f0	-0.21773887
80	0x3e54c1c8	0.20777047
81	0x3e5ca8c9	0.21548761
82	0xbd22aa7d	-0.03971337
83	0xbe60e776	-0.21963295
84	0x3d91af75	0.07113544
85	0xbeab27dd	-0.3342885
86	0xbf043c1e	-0.5165423
87	0xbd173ec9	-0.03692511
88	0x3d496151	0.049165074
89	0xbe382aff	-0.17985152
90	0xbd9be1b0	-0.07611406
91	0x3ddfebc5	0.10933641
92	0xbcad4b89	-0.021154182
93	0x3deb2f77	0.114836626
94	0xbe347bfa	-0.17625418
95	0xbeb636a7	-0.3558857
96	0xbd41f998	-0.04735717
97	0x3d212dc1	0.039350275
98	0x3d9a80e5	0.07544116
99	0xbbd644cb	-0.0065389625
100	0x3d47635c	0.04867874
101	0x3e5ef184	0.21771818
102	0x3dad8dcb	0.084743105
103	0xbe969044	-0.2940694
104	0x3d383aa2	0.04497779
105	0xbe8f02d7	-0.27931854
106	0xbd313c2b	-0.04327027
107	0x3d510795	0.05103262
108	0xbe1dd1ff	-0.15412138
109	0x3dbcc2f1	0.092168696
110	0x3f03bd8e	0.5146111
111	0xbd3cbf54	-0.046080902
112	0x3dc153fb	0.09439846
113	0xbd8bf8d1	-0.06834567
114	0xbe6a2501	-0.22865678
115	0x3c70a13b	0.014686878
116	0x3e804685	0.25053802
117	0x3ea907fd	0.33013907
118	0x3e253009	0.16131605
119	0xbd1d0c00	-0.038341522
120	0xbd8675a1	-0.06565405
121	0x3e41f66b	0.18941657
122	0xbe034f45	-0.12823208
123	0x3dd05f00	0.1017437
124	0xbe248582	-0.16066554
125	0xbe263dc0	-0.16234493
126	0x3e8c730b	0.2743152
127	0x3e23ed61	0.16008522
128	0x3d805394	0.06265941
129	0xbe2dc2ac	-0.16968793
130	0x3e41e7d1	0.18936087
131	0x3c44d905	0.012014632
132	0xbe423ecf	-0.18969272
133	0xbe772470	-0.24134994
134	0xbe070bd1	-0.13188101
135	0x3e5b3ab5	0.21409114
136	0xbe1fb018	-0.15594518
137	0xbe168022	-0.14697316
138	0xbe47c685	-0.19509323
139	0xbd666766	-0.056250952
140	0x3e1317b8	0.14364517
141	0xbd79c1f8	-0.060976
142	0xbe82db05	-0.25557724
143	0xbd02e2d7	-0.031954613
144	0x3ded40b4	0.11584607
145	0x3db6f21e	0.08932899
146	0x3dc1c635	0.09461633
147	0xbdd7c893	-0.10536303
148	0x3e2f67d0	0.17129445
149	0xbb414d7a	-0.0029495643
150	0x3dd09850	0.10185301
151	0xbe7a18b2	-0.24423483
152	0xbe99fd8c	-0.30076253
153	0x3e6f44c9	0.23366083
154	0xbe1c0137	-0.15234838
155	0xbe0f4bf2	-0.13993815
156	0xbdd54232	-0.104130164
157	0x3d98490d	0.07435808
158	0xbc778a5f	-0.015108674
159	0x3e3db84d	0.18527336
160	0xbc972508	-0.018450275
161	0x3e2a4bfe	0.16630551
162	0x3d6e8313	0.05823047
163	0x3c338190	0.010956183
164	0x3db901df	0.0903356
165	0x3cb08be7	0.021551086
166	0x3e923b86	0.28561038
167	0xbd2e267b	-0.042517167
168	0x3e4efde8	0.20214045
169	0x3e35c42e	0.17750618
170	0x3e58a0dd	0.21155114
171	0xbe8c6e8d	-0.27428094
172	0x3e1b9eba	0.15197268
173	0x3df6a962	0.12044026
174	0xbd4b45e9	-0.04962722
175	0xbe0c3834	-0.13693315
176	0x3ea15b88	0.31515145
177	0xbc1f521c	-0.009724166
178	0xbdb4d0ba	-0.08828874
179	0xbc923493	-0.017847335
180	0xbdf422c4	-0.119206935
181	0x3df584b3	0.11988201
182	0xbe40fd1f	-0.18846558
183	0xbe42ade9	-0.19011654
184	0x3e14a02b	0.14514224
185	0x3d8fcb66	0.07021217
186	0xbda2e01c	-0.07952902
187	0x3b7db00b	0.0038709666
188	0xbeaeaf55	-0.34118143
189	0x3d89cbfe	0.067283615
190	0x3e27a5cf	0.16371845
191	0x3d040c93	0.032238554
192	0xbe40f554	-0.18843585
193	0x3eb3858c	0.35062826
194	0x3b4f8ef0	0.003167089
195	0xbdcb1c94	-0.0991756
196	0xbe62234c	-0.22083777
197	0x3e604e90	0.21904969
198	0x3dcd13a2	0.1001351
199	0x3e02b529	0.1276442
200	0x3dd46cfe	0.10372351
201	0xbea80708	-0.32817864
202	0x3ee34551	0.44388822
203	0xbe86c2fa	-0.2632063
204	0x3ea844a2	0.32864863
205	0x3d779b6d	0.06045096
206	0xbd08de5e	-0.03341519
207	0xbd80239a	-0.062567905
208	0xbead2b3b	-0.33822045
209	0x3e08a391	0.13343646
210	0xbe587176	-0.21137032
211	0xbe2e6911	-0.17032267
212	0xbe58b0d6	-0.21161208
213	0xbdef3cb6	-0.116815016
214	0x3df79a68	0.120899975
215	0x3e294b8d	0.16532727
216	0x3d320fc9	0.043472085
217	0xbd51530a	-0.051104583
218	0xbd8407e6	-0.06446819
219	0xbd171b36	-0.036891185
220	0x3da0f4c1	0.07859183
221	0xbe55bbc0	-0.20872402
222	0xbdfeb9ec	-0.124378055
223	0xbe753201	-0.23944856
224	0xbdfe01f2	-0.12402715
225	0xbe0f77ec	-0.1401059
226	0x3e5c9b28	0.21543562
227	0xbd77a621	-0.060461167
228	0x3e854a9e	0.2603349
229	0xbe4ed120	-0.20196962
230	0xbdc4858e	-0.09595786
231	0xbc8a8576	-0.016909342
232	0xbcfce5f4	-0.030871369
233	0x3e5c85d2	0.21535423
234	0xbdcef22f	-0.101047866
235	0x3d0cc792	0.034370013
236	0x3db9e715	0.090772785
237	0xbe53e232	-0.20691755
238	0xbe5bb9ad	-0.21457548
239	0xbe2bfe43	-0.16796212
240	0xbe6cbbb7	-0.23118483
241	0xbe297553	-0.16548662
242	0xbd7ff9cd	-0.062494088
243	0x3e2a2e2e	0.16619179
244	0x3e294383	0.1652966
245	0x3ee94314	0.4555899
246	0xbdd65858	-0.10466069
247	0xbe180e57	-0.1484922
248	0x3c84f0c7	0.016228093
249	0xbe0d747e	-0.1381397
250	0xbb184e1b	-0.0023239914
251	0x3e73b34f	0.2379887
252	0x3d0fa9d1	0.03507406
253	0xbdd60143	-0.104494594
254	0xbe75ea20	-0.24015093
255	0x3dd4ce3d	0.10390899

conv4.bias f4 [35]
0	0x3c9054e2	0.0176186
1	0xbc2c6713	-0.010522622
2	0x3d441563	0.04787196
3	0x3a2d78ec	0.0006617445
4	0xbc9fffe7	-0.019531203
5	0xbc449815	-0.01199915
6	0x3c05f16d	0.008175236
7	0x3d1c66e4	0.03818406
8	0xbd89fbaf	-0.06737458
9	0xbbc4d754	-0.0060071144
10	0xbc7c5e94	-0.015403409
11	0x3c657d59	0.014006936
12	0x3d3d8fde	0.04627978
13	0x3be0776a	0.0068501728
14	0xbaff00a7	-0.001945515
15	0xbcd35c67	-0.025800897
16	0xbaa4423f	-0.001253195
17	0xbc97bad5	-0.018521706
18	0xbd116b80	-0.03550291
19	0xbafd639d	-0.0019332055
20	0xbd0d3bdb	-0.03448091
21	0x3c8dd052	0.017311249
22	0x3d19e573	0.037572335
23	0xbc06c483	-0.008225563
24	0xbcb94557	-0.022616072
25	0xbdbe725c	-0.09299156
26	0xbdd165fc	-0.1022453
27	0xbc2f6812	-0.010705965
28	0xbe053301	-0.13007738
29	0xbd657b90	-0.05602604
30	0xbb847a71	-0.0040429165
31	0x3d276798	0.04087028
32	0xbc8e36a1	-0.017360033
33	0x3c9a15d5	0.018809238
34	0x3ce40465	0.027834127
