checkpoints/hamida_et_al/no_class_balancing/IndianPines_AE1_15/epoch20_0.94.pth (torch, 191622 bytes, 14 tensors)

conv1.weight f4 [20, 1, 3, 3, 3]
00000000: f789 17bd 3e59 72be 59d0 cebe 412b 953e
00000010: d3da 893e 4745 38be b21a bb3e 0409 d6bd
00000020: 9a1b 02bf 09a6 053d c605 d8bc 21f1 2d3f
00000030: b1e9 253c dfa5 913e 54e9 ebbe 062d 823d
00000040: e208 84be 3075 093e 9664 6d3e e86c bfbe
00000050: 8e7b 89be 00e8 3cbe 2ffd 13bf 4239 5abe
00000060: d5ef cdbe 1df0 0ebf 7891 cabe a75a eb3e
00000070: 3419 a53d a9b4 3f3f b75d 0a3e 166c 78be
00000080: ce7f 90be 5b1d a83d 8f12 77be 2ef6 2d3d
00000090: 7660 343f ec0a 93be c57f 023e 2012 bfbd
000000a0: 1e2c 86be 194d 0b3e bd5a 093e 88b4 703e
000000b0: 0c79 07be 8eb3 ed3e 6e6b 66be d0c2 49be
000000c0: cc4f 53be b56d 5f3d 7bfb 43be e8f7 133f
000000d0: e40c de3e 7bf1 833e 340f a8be 4796 56be
000000e0: 6799 0dbe 6b69 473e fba5 a13e 044c acbd
000000f0: d42f 12be 69b0 44bd 5ea7 abbd ed53 073d
00000100: a13f 48be e171 76be 9008 71be b172 3c3d
00000110: 0256 febe bbc0 1bbf 1a49 acbe db75 2a3e
00000120: c13f 5a3e 4281 a1be 9b74 b9bc 2492 a7be
00000130: f6bd e5bd e48a a7bd 8352 84be 9b87 103f
00000140: 71d2 3e3e 2af7 2a3e 8850 023e 98ac 583e
00000150: a28e 4b3e 32f7 c23e 38ac 4ebe e61b 203e
00000160: 8a0e ba3e 98ea 2f3e fba6 173e a84e c53e
00000170: b6d5 503e 5dfe 853d 3344 1d3e d482 a93e
00000180: 8aed 6a3e 0618 d6be b28d c63e 0b44 dc3e
00000190: 6c45 5c3c ab85 3d3d ac3c bebd 537d 813e
000001a0: b5f8 8dbd ec37 15bd 9fe3 953e 8269 f0be
000001b0: 92be 46be f35f 91bd 42ec dd3e 7904 e03e
000001c0: e058 ef3c ffae 8c3d a41d b7be 61a9 b0bd
000001d0: b2f2 c0be ac76 61be 64d6 f5bd 2285 9c3d
000001e0: 6e9c 1cbd ffec 96be 5a36 2dbe f928 89be
000001f0: 26a6 0d3f 7d9c 77be 735f dd3d 1774 9dbe
00000200: 295d 2d3d 4726 f23d 93d4 1a3d 8e1f efbd
00000210: a4db e2bd 4914 ccbe 25f2 783e 0848 953e
00000220: 8191 973e f24b 543f 6a76 053e cc99 7bbc
00000230: 3397 0f3f ad45 fb3e 6a19 5b3f 4663 bc3e
00000240: e323 59bf 6159 32bf ab7b cdbe a565 7abf
00000250: 4a43 c7be ac8a 19bf adb4 2e3d ffab 43bf
00000260: d881 8cbe c9aa d6be 6ea9 55be ae92 5dbe
00000270: 65a3 1abe 7b5b 10bf 1589 1c3e 548c 74bc
00000280: f15d 5abc f34f 9d3e 94f1 5b3e c0b5 213f
00000290: 6454 c23e 0d56 053f 20d2 143f 081b 0d3e
000002a0: 0d66 923e aadb 7e3d 451c 6c3e bff7 bcbe
000002b0: ca1f 0cbf 9b6e 33bf 834b 27be cfe4 41bf
000002c0: f36c 8dbe 5089 87bd 0e61 4b3d 5cb9 6f3e
000002d0: 56d9 0abe cc00 b4bd 8e84 20bf 935e 7bbe
000002e0: 5040 9fbd cb1b 6b3e 9d2a 0ebe 67ba 06be
000002f0: 8c5c 2e3e ae71 8d3e 0154 183e 2d01 0cbf
00000300: 3119 ae3e ef09 8cbe 71d1 203e 0125 6ebd
00000310: ffd7 52be e320 f6bd 197c 983d 6318 73bc
00000320: 5d84 d1bb 5c15 87be 7270 183c 67b7 393e
00000330: 903c a0bd f2bc 19bc eb06 97bd e6d0 54be
00000340: 389f 0c3f 9c70 adbe 2b01 c33e c2da db3d
00000350: 90c1 bcbd c4e3 45be 7884 9b3e 1637 393e
00000360: 0a0c 78be 7ee0 9dbd f77f 34bf 1f7a d3bc
00000370: 789f c1bd fb44 07bf e8a2 b43d 20aa ce3e
00000380: b964 79be 4f1a 483e 535b 81bc cd4e 9cbe
00000390: fb3f 18be f3fb 053f 4938 773d 4db1 8ebe
000003a0: b77f 04be 9c3b 57be 028d 933e 94d1 ad3e
000003b0: 02d8 a8bc e767 f4be b598 c93e 5977 a23d
000003c0: aebf 0a3d b4cd a3be f8c8 7dbe f498 1f3e
000003d0: f215 133e 3503 0f3e 2c25 efbe ab15 c9be
000003e0: 7de6 a0be ff48 30be c538 023e 603b f9bd
000003f0: 945f 88be 0d43 70be 8848 9abe d5c4 9fbe
-0.036996808 -0.23666856 -0.40393332 0.29134563 0.26924762 -0.17995177 0.36543804 -0.10450938
-0.50823367 0.032629047 -0.02636994 0.6794606 0.010126517 0.28446862 -0.46076453 0.06356244
-0.25788027 0.1342361 0.23182902 -0.37387776 -0.26852077 -0.18447876 -0.578082 -0.21310905
-0.4022204 -0.55835134 -0.3956411 0.459676 0.08061448 0.7488504 0.13512312 -0.24259982
-0.28222507 0.08208724 -0.24128173 0.042471103 0.7045969 -0.2871927 0.12744053 -0.09329629
-0.26205534 0.13603629 0.1341352 0.23506367 -0.1322977 0.46426052 -0.22501919 -0.19703221
-0.20635909 0.054547984 -0.19138901 0.5780015 0.4336921 0.25770172 -0.328241 -0.20955764
-0.1382805 0.19473808 0.31571946 -0.08412936 -0.14276057 -0.0480198 -0.08381532 0.033039022
-0.19555523 -0.24066879 -0.23538423 0.046007816 -0.49674994 -0.6084096 -0.33649522 0.16646521
0.21313383 -0.31543928 -0.02263861 -0.32728684 -0.11217873 -0.08180788 -0.258442 0.5645692
0.18634965 0.16695848 0.12726033 0.2115959 0.19878629 0.3807922 -0.20182884 0.15635642
0.36339217 0.17179334 0.14809792 0.38536572 0.20394024 0.065426566 0.15358047 0.33107626
0.22942176 -0.41815203 0.3877998 0.43020663 0.013444286 0.046270054 -0.09288916 0.25290927
-0.06932203 -0.036430284 0.29275224 -0.46955496 -0.19408634 -0.07098379 0.43344313 0.43753412
0.029217184 0.06869315 -0.35764802 -0.086260565 -0.37685162 -0.22017926 -0.120037824 0.076425806
-0.03823512 -0.2947769 -0.16915265 -0.26789072 0.5533165 -0.2418079 0.10809221 -0.30752632
0.042325173 0.11823707 0.037800383 -0.116759405 -0.110770494 -0.39859226 0.24311121 0.29156518
0.29603198 0.82928383 0.13033453 -0.015356492 0.56090087 0.49076596 0.85585654 0.3679449
-0.84820384 -0.6966763 -0.40133414 -0.9781135 -0.38918525 -0.5997722 0.042652775 -0.7643432
-0.27442813 -0.41927174 -0.20865414 -0.21637985 -0.15101393 -0.5638959 0.15286668 -0.014926035
-0.013328061 0.3072506 0.21478873 0.63167953 0.3795501 0.5208443 0.58133125 0.13779843
0.28593484 0.062221207 0.23057659 -0.36907765 -0.54736006 -0.70090646 -0.16337399 -0.7573976
-0.27622184 -0.06617987 0.049653105 0.23410553 -0.1355947 -0.087892145 -0.6270226 -0.24547796
-0.077759385 0.22959821 -0.13883443 -0.13157044 0.17027491 0.27625793 0.14875795 -0.54689294
0.34003595 -0.2735133 0.15704896 -0.05814076 -0.20590208 -0.120179914 0.07445545 -0.014837357
-0.0063939528 -0.26383483 0.009304153 0.18136369 -0.078240514 -0.009383427 -0.073743664 -0.20782813
0.5493045 -0.33874977 0.3808683 0.10735084 -0.092166066 -0.19325167 0.30374503 0.1808742
-0.24223343 -0.07708834 -0.7050776 -0.025815068 -0.094542444 -0.5283963 0.088201344 0.4036417
-0.24354829 0.19541286 -0.015790617 -0.3052887 -0.14868157 0.5233757 0.060356412 -0.27869645
-0.12939344 -0.21018833 0.28818518 0.33948958 -0.020610813 -0.4773552 0.3937432 0.0793292
0.033874206 -0.31992877 -0.24783695 0.1558569 0.1436384 0.13966067 -0.46708047 -0.39274344
-0.3142585 -0.17215346 0.12716968 -0.12169528 -0.2663542 -0.23463078 -0.30133462 -0.31204858

conv1.bias f4 [20]
00000000: 271f 093e fc42 a13d 2f95 55bb ba2b c8bd
00000010: 63f3 b13c ee38 0d3d 2dde e7bd 12de 77bd
00000020: 7a2f 203e 1a34 083e 6738 91bd ac24 123e
00000030: df70 1bbe 5a72 95be 985a d7bc 3d6d 253c
00000040: 10d5 2bbd 3ef4 9d3d 8e2e 7abe 775b 343e
0.1339079 0.078741044 -0.003259014 -0.09773965 0.021722501 0.03447812 -0.113216735 -0.060514517
0.15643111 0.13301125 -0.07090836 0.14271802 -0.15179776 -0.29188806 -0.026288316 0.010096845
-0.04195124 0.07712601 -0.24431822 0.17613016

pool1.weight f4 [20, 20, 3, 1, 1]
00000000: 80de b1bd aeb9 c13d 50d8 89bd ad06 4d3e
00000010: 94fd 6b3e 4c36 e93c 4dc6 8f3c e4e3 cb3c
00000020: 3911 323e bc80 bcbd 70e6 773e 2d0d 353e
00000030: aa6a 733e 7939 b2bc 30e0 0dbe 7d4d 6fbe
00000040: 3009 cd3c 008a c9be 0d53 273d b39e 863e
00000050: 86a1 52be 949e f43d 5224 a7bc 651f e93d
00000060: 1057 393d 2a38 4bbd 85e7 9fbe 258e afbe
00000070: af67 ea3e 34ff 763d cae8 2bbe a1e5 893e
00000080: eb08 ed3d e84e 253e c7c9 c5bd 4131 843e
00000090: af19 73be 5094 dc3d a756 8a3e 812f a0bd
000000a0: e39b efbe e7e3 68bb 88ec 373e 47bc 8f3c
000000b0: 69b3 2abc 0fbf 9dbe 8a95 3bbe bf2a e43d
000000c0: df26 843c d900 473d 2087 80bd dd97 1cbe
000000d0: 5935 293c 4768 dbbe e313 86be 2d0c 393c
000000e0: 4244 c3bd e383 443e c296 28be d93b 463e
000000f0: 7d10 22be 05c3 df3d 3745 88be 4365 423d
00000100: 7687 a1be f000 f4bd c55e 663e e5dd 903c
00000110: c2b2 1d3e 261b d03e c6f4 c43e bbda 6cbc
00000120: 8e9a d93b ab31 8bbd d854 e83d 8e7d c4be
00000130: 0279 063d e4eb fa3d 5f92 82bd e91b 163e
00000140: 7114 413e af09 613d b74f a1be 992e 34bc
00000150: e0d7 35be 72aa 793e ea84 f73c 478c 4abe
00000160: ee79 84be efd4 f9bd e0d9 123e eef5 d9bd
00000170: 47b5 94be 098a 073d bf00 64be ad84 743d
00000180: 526d 583d c9f9 0f3e b409 05be 191b fd3e
00000190: 625f 82be c863 6bbe 667c 023e 4898 50be
000001a0: 9ccb 603e ae3d 4b3d d889 1cbe 30eb c1bd
000001b0: d8cd 883c 95d1 76bd 27cc 8a3d da0c 013e
000001c0: 8f76 3c3e 1f65 3dbe 6beb cabe 24fe 3c3e
000001d0: af4a 9a3e c906 3fbb 56f7 993e 4134 c03e
000001e0: 1a3f 1abd 3b38 40be 4751 0c3e 2bbe b23e
000001f0: 1992 583e 7a72 5ebe a700 703e 3fff 41bd
00000200: b4f4 97be 30bc c93d 527e 643e 56ea 0a3e
00000210: 3c12 c13d cbf1 cb3c d215 dabe b2b5 9f3d
00000220: a206 5c3e 1f14 ea3c f626 c5bd e7b2 2d3e
00000230: d175 dc3d 3f18 bb3e 3d47 06be 3f02 103e
00000240: 32e8 97be d395 efbc eb33 c4bc 905f 563e
00000250: aadf 89be 8b32 9bbd 1ad7 4e3d 4d23 9c3e
00000260: 279a 06be a910 9c3d 7901 bcbd 49ef ce3c
00000270: 92be 24bd e628 27bd 06a4 f93d 76cb 613e
00000280: 856d d6be 83c0 673c 6639 79bd c9ad 7bbd
00000290: 855e 2ebc f4b6 853d c690 80be 9c41 a43d
000002a0: 6e2e 4f3e 6fb9 133e 0a37 bebe 8707 86bd
000002b0: 36a5 2b3f 6abe 313d 9eb0 473e d6b3 383e
000002c0: 3be8 60bd 4a1f f53b a4cc 1ebf 1ccd 01bd
000002d0: c34c 5ebd e466 07be fddf 613d d431 95be
000002e0: 84eb 45be d76c 253e 3702 c1be 542c b23d
000002f0: 14ab 4c3e f1b7 4abe 5a5d 6ebe e9ce a2bd
00000300: 9171 333e 1bdf 68be 63ba d2bb a02e 29bf
00000310: 0a90 af3d d630 e63c 9fdd 19be 9c8d 20be
00000320: 649a 443e 0e05 0bbe 4d47 e73d 770d 9ebc
00000330: 3744 fbbd b0b5 96be 3145 c5be f0f3 65be
00000340: c8f7 843d e485 5dbd 29bb 3cbd ecfd 623e
00000350: abd7 103d aa8f 6ebc 9579 223e 5db1 8a3d
00000360: 85c4 21be 4c5c 6ebe 2ce6 ba3d 6466 7c3c
00000370: ff0d ec3e 9043 623d 9039 cb3d 7235 a5bd
00000380: 57db fabd 2416 3bbd f605 87be c4fe 223e
00000390: b794 e0bc 023d a4be 8c35 833d ebd6 533e
000003a0: 114b 53be 66b1 67be 7290 afbe 289e 95bd
000003b0: a1d7 b83d cc0e 763c d15b 473e b263 ac3c
000003c0: bb37 80be f9fc c93c bfd9 c13e 8ab5 df3d
000003d0: 56a6 1fbe 5619 dbbd 9d5b 41be cfc9 c7be
000003e0: 32bf 60bb 72c6 84bd 7ede ac3e 941b 3e3c
000003f0: 452d 73bd 1001 a3bd c3b7 f7bd 72fb b9be
-0.08685017 0.09459244 -0.067307115 0.20022078 0.23045951 0.028468274 0.017550612 0.02488894
0.17389382 -0.09204242 0.24208999 0.17680807 0.23771158 -0.02175592 -0.13855052 -0.23369403
0.025028795 -0.39363098 0.040850688 0.26292953 -0.20569429 0.11944309 -0.020403061 0.11382941
0.045249045 -0.04961411 -0.31231323 -0.34288135 0.4578223 0.060301974 -0.1678802 0.26933005
0.115739666 0.16143382 -0.096576266 0.25818828 -0.23740266 0.10770476 0.27019235 -0.07821561
-0.4679862 -0.003553623 0.17961323 0.017545832 -0.010418751 -0.3080983 -0.18318763 0.11140966
0.016131816 0.048584793 -0.06275773 -0.15292306 0.0103276605 -0.42852995 -0.26187047 0.011294407
-0.095345035 0.19190936 -0.1646376 0.19358768 -0.15826602 0.10925869 -0.26615307 0.047459852
-0.3154866 -0.11914241 0.22497089 0.017683933 0.15400222 0.40645713 0.38467997 -0.014456446
0.006640739 -0.06796583 0.11344308 -0.3837704 0.032830246 0.12252024 -0.06375574 0.14659084
0.18855454 0.054940876 -0.3150613 -0.010997438 -0.17758131 0.24381426 0.030214746 -0.19780074
-0.25874275 -0.12198817 0.14340925 -0.106426105 -0.29044554 0.033090625 -0.2226591 0.059696842
0.05283863 0.14060129 -0.12991983 0.49434736 -0.25463396 -0.22987282 0.12742767 -0.2037059
0.21952671 0.04961937 -0.15286958 -0.094686866 0.016699716 -0.060258467 0.0677722 0.12602559
0.18404602 -0.18495606 -0.39632735 0.18456322 0.30135104 -0.0029148331 0.30071515 0.37539867
-0.037657835 -0.1877145 0.1370288 0.34910712 0.21149482 -0.21723357 0.23437749 -0.047362562
-0.2967888 0.09850347 0.22313812 0.13565955 0.09427306 0.02489557 -0.42594773 0.077983275
0.21486905 0.028574048 -0.09626572 0.16962777 0.10764659 0.36541936 -0.13113113 0.14063357
-0.29669338 -0.029246246 -0.023950538 0.20934892 -0.26928455 -0.07578 0.050498106 0.30495682
-0.13144742 0.07620365 -0.091799684 0.025260584 -0.040220805 -0.04081049 0.12189488 0.2205027
-0.41880432 0.014145019 -0.060845755 -0.06144503 -0.010642652 0.06529036 -0.25110453 0.080203265
0.20232555 0.14426206 -0.37151366 -0.065444045 0.67048967 0.043394484 0.19500968 0.18037352
-0.054908972 0.0074805366 -0.62031007 -0.03168975 -0.054272424 -0.13222843 0.055145252 -0.29139578
-0.19328123 0.161548 -0.37697002 0.08699861 0.19987136 -0.1979673 -0.23277798 -0.07949621
0.17523791 -0.22741358 -0.0064309104 -0.6608677 0.08572395 0.028099459 -0.15025948 -0.1567902
0.1919952 -0.13576147 0.112928964 -0.01929353 -0.1226887 -0.29435492 -0.3852935 -0.22456336
0.06492573 -0.054082766 -0.046076927 0.22167176 0.035361927 -0.014560619 0.15866692 0.067721106
-0.15797623 -0.23277396 0.09125933 0.015405271 0.46104428 0.055240214 0.099230886 -0.080668345
-0.12248867 -0.04567541 -0.26371735 0.15917498 -0.027414663 -0.32077795 0.06406698 0.20687453
-0.20634104 -0.22626266 -0.3428989 -0.073055565 0.09025503 0.015018176 0.19468619 0.021043632
-0.2504252 0.02465676 0.3786144 0.10923298 -0.15590796 -0.10698192 -0.18882604 -0.39021155
-0.0034293649 -0.06483163 0.33763498 0.011603255 -0.059369344 -0.07959187 -0.12095597 -0.3632465

pool1.bias f4 [20]
00000000: 2ff3 9e3b de96 b3bd 60bf efbd ed4f b4bd
00000010: 8808 193e 44a2 573e e130 673d f845 983d
00000020: ef5d 89bd 7d09 18be 6d7a 17be 43ab 26be
00000030: c7e1 12be db01 11be 95b2 e23d 6788 eebc
00000040: a2c6 2d3e 260c ffbd 7a1f a2be a0f1 8cbd
0.004850767 -0.0876901 -0.11706424 -0.08804307 0.1494466 0.21057993 0.0564431 0.074352205
-0.067073695 -0.1484737 -0.14792795 -0.16276269 -0.1434394 -0.14160864 0.11069218 -0.029117776
0.16970304 -0.12453489 -0.3166464 -0.06882024

conv2.weight f4 [35, 20, 3, 3, 3]
00000000: 9e95 b93d 8cc2 2cbb 012c e7bc 99ea 953d
00000010: cc7f 85bd 34e8 c8bd d751 00bd 4537 e3bb
00000020: 51a9 91bd b970 663d 741d ac3d b777 47bd
00000030: f2d5 193c 9245 07be 1d58 35bd 26e1 503d
00000040: 4531 12bd e0c2 6fbd dd10 a73d 0aae 0b3e
00000050: ca83 4cbc 3369 9a3d 3f65 ab3d 5c45 363e
00000060: f999 c5bc 727c 993d 704b ecbc e56a 2cbc
00000070: c619 083d 6367 073e 1030 66bd f50c 7dbb
00000080: 8c98 3f3b 2a93 5bbe 83ca 54bd 5f13 7d3d
00000090: 2352 ebbc f4d1 53bd 980d e5bd 0716 103d
000000a0: 98f7 acbd 72f3 bb3d 9081 d53d 5071 95bc
000000b0: b0ef 2c3c 97cc b93d 50bb 593d ffec e83d
000000c0: 05a7 b83d 3bce 003e 17c7 ce3c 2bdc 10bd
000000d0: 57b5 313d 01bc c03d 6ba1 4c3d f14e fb3d
000000e0: 9c66 393d 0a69 1ebd 6734 413d 0f2f 0bbc
000000f0: b0b8 003c f3fc 693b 5cb0 3bbd 167b b7ba
00000100: 5ccf 9cbd 6edc cebd a5fc 8f3d 9c71 05bd
00000110: 7b29 8dbd b5ad 533d 13db cd3b bdd3 163c
00000120: 7c6c bc3c dec3 05bd 01c1 d23d 5dc3 3a3c
00000130: 4d7c 8dbd c51b 673d 5d5c 08bd d217 ce3c
00000140: 8f2f 1abd 8bdb e2bd c42c c43c 57b5 f6bd
00000150: 5f7e 8d3b 5b6d 28bd 43f4 61bc 3168 8a3d
00000160: 1da7 b3bc 215a 21bd 8bef a83d af6a d83b
00000170: a42a 213d 48fb 8bbd 27ee 89bd ac4a 873d
00000180: 5d3f 143c 838d 68bb f2ef 213c c6b9 043c
00000190: 953c 47bd 8cde 8d3b 70a6 613d b24f 913c
000001a0: e5b3 ae3d 568d 7d3d 9067 a23c aa99 ff3c
000001b0: 506b abbd b637 73bd 68a5 2e3c 16d2 04bd
000001c0: 9c98 e53c 50e4 673b ad28 4fbd 7aed 83bd
000001d0: 2ba1 15bd 4647 4cbd 91c5 e6bc 52f3 0fbc
000001e0: 459e 39bd 55df 163e 9b18 d4bd dae8 16bd
000001f0: 3e24 92bd fe61 0b3e ad8e 27bd d6be 9f3d
00000200: 5a57 f33b 1e5f cdbc 3558 853d 3c2b 523e
00000210: 3728 373e 3019 b33d cf21 db3d cd47 76bd
00000220: d1d4 d0bd b2c5 173d ef04 a03c c3ec 33bd
00000230: 36d1 68bd 1321 013d 7d14 3fbd b4ad 243c
00000240: a1d9 db3d 79c3 573d 577a 0fbd c9e2 2bbc
00000250: 689f 633d ed4d 34bd da3f 6d3c 9775 b1bd
00000260: 107b b33c 45ec b73d 0a2b 5fbd ecbd 81bd
00000270: af44 6c3d 6f25 a9bc 4a87 de3d a014 083d
00000280: 588c d43c 52cf 76bc 22ab 53bd 728c b93d
00000290: 4db6 413d d03c acbd f7cd 203d ebc5 a0bc
000002a0: 764f 94bd b1c5 1ebd 9cbf 00bd 3514 9abd
000002b0: ad23 ce3b 38ae 7abd c236 51bd 141f bebd
000002c0: c01f c53b 021f 7639 486a 43bd cc8b 49bd
000002d0: 03ed 87bd 9ee6 4ebd 063c 133d 4bce 5c3d
000002e0: fa66 843d e5d2 cbbd 5520 1b3d cf07 33bd
000002f0: 87b9 0f3b bdac 8a3d be08 abbd 0208 bcbd
00000300: 2b11 b23c fe0f 9e3d 8ccf 853d 78ec 323c
00000310: b2d8 0cbc 2836 ceba f4a6 433d 1ce3 0fbd
00000320: 4eb0 2ebc c84e b3bd 1275 36bd e1e9 ba3d
00000330: 3deb 2d3d 628a 2bbd 7fc3 fdbd 3e94 12be
00000340: 71e0 0b3d b3b5 2cbd 1c8e 9fbc 59ed f9bc
00000350: 2c34 983c fc24 193b b2f1 a83d 7c81 c53d
00000360: 43f4 16be c900 80bd 9793 c7bc 6472 a1bc
00000370: 5a1f db3b bac7 2ebe c211 03be 4e14 54bd
00000380: b331 e0bd fb20 3cbd 164e d23d e5cd 023d
00000390: 53c0 193d 936e 473c 658b 413d a252 d7bc
000003a0: 18c1 4b3d 7812 f7bb aab3 36bd e4b4 643c
000003b0: 9860 96bd 5f10 54bd 2aee 4d3d a2e9 513c
000003c0: 290a fbba 45c2 53bc 917d 17be fa1e 823d
000003d0: bdcb 363c 61b6 68bc 33af 45bc 7b5e b23c
000003e0: d6b2 f0bc bf40 84bc afcb 783d 2b14 893d
000003f0: 431e 183d b0a4 a6bc e038 66bd d955 af3d
0.0906174 -0.0026361076 -0.028219225 0.073201366 -0.06518516 -0.09809914 -0.03132805 -0.006934079
-0.07112373 0.056259844 0.08404055 -0.048698153 0.009389387 -0.13210133 -0.044273484 0.05099597
-0.03569152 -0.058535457 0.08157513 0.1364061 -0.012482593 0.075395964 0.083689205 0.17799896
-0.024121271 0.07494439 -0.028844565 -0.0105235325 0.033227704 0.13223033 -0.05619818 -0.003861246
0.0029235212 -0.21442857 -0.051950943 0.06178605 -0.02872569 -0.0517139 -0.111842334 0.035177257
-0.08445662 0.09177293 0.10425103 -0.018242508 0.010555193 0.090722255 0.05315715 0.113733284
0.090162314 0.1257867 0.025241418 -0.03536622 0.04338583 0.09410859 0.049958628 0.12270916
0.04526387 -0.03867439 0.047169115 -0.008495106 0.007856533 0.0035703748 -0.045822486 -0.0013998474
-0.07656738 -0.101006374 0.0703061 -0.03257905 -0.068926774 0.05167933 0.006282219 0.009205756
0.023000948 -0.032657497 0.10290719 0.011399117 -0.06908474 0.056422967 -0.03329121 0.025157843
-0.03764301 -0.11077031 0.023947127 -0.120463066 0.004318043 -0.041119915 -0.013791147 0.06758154
-0.021930272 -0.039392594 0.08248814 0.0066045146 0.039347306 -0.068350375 -0.06734877 0.066060394
0.00904831 -0.0035484738 0.009883868 0.008100932 -0.04864176 0.004329508 0.055090368 0.017738197
0.08530406 0.061902367 0.019824773 0.031201202 -0.083700776 -0.059379302 0.010659553 -0.032426916
0.028026871 0.0035383888 -0.0505759 -0.064417794 -0.036530655 -0.04987266 -0.028170379 -0.008786039
-0.045316953 0.14733632 -0.103562556 -0.03684316 -0.07135819 0.136116 -0.04090755 0.07800071
0.0074261846 -0.02506977 0.06510965 0.20524305 0.17886434 0.087450385 0.10699808 -0.06012707
-0.101968415 0.03705377 0.019533603 -0.043926965 -0.056840144 0.031525683 -0.0466504 0.01005118
0.10734869 0.05267665 -0.03502878 -0.0104910815 0.055571944 -0.04401963 0.014480555 -0.086650066
0.021909267 0.08980612 -0.054484405 -0.06335053 0.05768269 -0.020647733 0.10865648 0.033222795
0.025945827 -0.015064077 -0.051676877 0.09059991 0.047292996 -0.084100366 0.039258923 -0.019625625
-0.072417185 -0.038762752 -0.031432733 -0.075233854 0.006290874 -0.061201304 -0.05107761 -0.092832714
0.006015748 0.0002347194 -0.04770878 -0.049205586 -0.06637003 -0.050512902 0.035945915 0.053907674
0.06464954 -0.09952334 0.03787263 -0.04370862 0.0021930651 0.067712285 -0.08351277 -0.09181215
0.021736702 0.07717894 0.06533727 0.010920636 -0.008596586 -0.0015732693 0.04776664 -0.035128698
-0.0106621515 -0.08755261 -0.04454524 0.0912664 0.04246067 -0.04188002 -0.123908035 -0.14314362
0.03414959 -0.04216547 -0.019476943 -0.030508684 0.018579565 0.0023367992 0.08249225 0.09643838
-0.14741616 -0.0625015 -0.024362369 -0.019707866 0.006687087 -0.17068377 -0.12799743 -0.051777177
-0.109469794 -0.04592989 0.102688 0.031934638 0.03753693 0.012172359 0.047252078 -0.02628452
0.049744695 -0.0075400434 -0.044604935 0.013959143 -0.073426425 -0.051773425 0.05027596 0.01281205
-0.0019152808 -0.012924735 -0.14793994 0.063535646 0.011156973 -0.014203639 -0.0120656965 0.021773567
-0.02938215 -0.016144155 0.060741123 0.066933 0.037138235 -0.020342201 -0.056206584 0.08561296

conv2.bias f4 [35]
00000000: fd42 0a3d b751 373d 10f0 ebbb 4fe0 5d3d
00000010: 0344 d73c 5da4 c4bc 7402 4a3c b648 783c
00000020: 765c f9bc 4921 cfbd ffd9 10bd d275 6c3c
00000030: febb 753e 498d 9fbc dbc2 63bc 6b82 a53c
00000040: 7065 05be 478a 9f3d f052 e4bd b7c8 023e
00000050: 0a72 ffbc 3e15 34bc 5a85 0c3e 47c3 4e3d
00000060: 8899 523d f65d b0bb c8b5 a7bc eb90 8b3c
00000070: 5dd5 673c 71fb 59be 3b8e 463d 1ddb 0f3d
00000080: d324 35bc 053a 63bb 92a9 89bc
0.03375529 0.044755664 -0.0072002485 0.054168995 0.026277548 -0.024004156 0.012329686 0.015154054
-0.030439597 -0.101137705 -0.035364147 0.014432387 0.23997495 -0.01947655 -0.013901438 0.02020379
-0.13026977 0.07790046 -0.111486316 0.12771879 -0.031182308 -0.010991393 0.13722745 0.0504792
0.05141595 -0.0053822948 -0.020472422 0.017036876 0.014149991 -0.21287324 0.048475485 0.035121072
-0.011056143 -0.0034672034 -0.01680449

pool2.weight f4 [35, 35, 3, 1, 1]
00000000: 5757 c0bd f8ef 85bd 0c37 adbd a892 d5bb
00000010: 6ba8 4d3d 12d9 543b 59f0 123e 2516 043e
00000020: fc89 97bd 4c07 403e d866 273e 0061 693d
00000030: 7d64 483e 6080 1bbe 4c4f fd3d b7cf ba3d
00000040: c142 bf3d 4acc 66be 2ae9 9f3d 43db e43d
00000050: d982 d7bc 5765 02bd 1849 8dbe 953a 5dbe
00000060: afb0 f93d 81b5 cbbd 3685 b73d 56cc fbbd
00000070: 18c8 1f3b 75cb 9b3e ef68 913d a18e 713e
00000080: 422a 31bd 156e b6bc 6391 683d 4fd6 eb3d
00000090: 3bab 13be 59b3 d3ba 9611 09bd 086b 483d
000000a0: 14d3 8f3d 6b99 993c 8e4f 4e3e 069a 89bd
000000b0: 337c 5e3d 8827 7dbc 83cf b6bd bce5 413e
000000c0: 39b0 e23d ce66 1abe 6681 7abc a30d 95bd
000000d0: 2f32 3f3e d408 1f3d 2e35 363d 640b 043e
000000e0: 4b61 1fbe d36b c0be 4cae 86be 0a25 16be
000000f0: d9c6 7b3c d6ae 863e 933a 9bbd 7ff1 f5bd
00000100: faff 8b3d abab 42be 697d fe3e 0491 e3bd
00000110: b939 2ebe 0829 c73c b00b ea3d 0f4a 0abe
00000120: f705 81bd 2878 51be 1d5b ee3d d121 a7be
00000130: 24da 1a3e 2b7f e5bd 1af0 27be 49a5 5b3e
00000140: 21ad e2bc ccbb 12be 40ec 343d bc3d 563d
00000150: 8e49 9fbd 20d9 0ebd 18db b73d 306a 003d
00000160: 52e5 18bc 51f2 033e abce 923e ce06 8dbe
00000170: ad43 66bd cc43 bebd 791b 093e 7012 b33e
00000180: 42be fe3d 78e8 28be b615 1e3e dbc2 563d
00000190: 1531 d6bd 15a0 593d 19e1 2bbe af96 103d
000001a0: 0817 04b9 624d d23d 6db8 e8bd db55 acbd
000001b0: 0e03 dc3d 85d5 fabd 0638 073e 68ae bd3d
000001c0: b14f 1e3c 7405 a33d 482d 5b3e f795 983d
000001d0: cfc8 aa3d a6b3 4fbd ef8a 8ebe 363d 0bbe
000001e0: 5911 e93d beb3 97bd e574 80bd c773 a0bd
000001f0: f490 2dbe 4361 433e e45c d1bd 81f1 1d3e
00000200: d80d a8bd 017f 3b3e 3dd3 f6bd 24f9 54be
00000210: b330 3cbe ffe0 003e 115f 833e 8f38 983d
00000220: aeac 97bd 0393 93bd 031f 163e 43db 88bd
00000230: 094e c3bd 74b1 2a3e af03 84be a717 9bbe
00000240: 5a7e 37be 0739 563d 13bb d0bc fd70 933d
00000250: 267b 36bd 0696 7b3d 6bb9 cf3d 2d96 6e3d
00000260: 43cd 393e 4c12 42be bcbf ba3d 3098 ff3d
00000270: f060 a23c 0fed bf3e 6637 0cbe 0656 ad3e
00000280: 45c5 cfbd 8794 f43c a2c6 303e 4a34 c6be
00000290: 1e49 5abd 2dc3 aabd 85d4 163d 3c39 453e
000002a0: 5f90 db3c 9375 4bbe ca7b d83d 6119 063e
000002b0: 7e5d 503d ab6a 3f3d 2899 243e 2f6b afbd
000002c0: 43b2 ab3d 49e8 e5bd 1a79 2d3d ba9a 69bd
000002d0: 070d 5fbd 110f 4d3e 44df 983d 1fc8 1abe
000002e0: 7689 63be 58b4 7b3e 8aaa 1ebe cbad 8bbd
000002f0: 6c7f df3d 4082 9cbd 1b22 82bc d394 c3bd
00000300: d809 4dbd 54ad 63bd 6bae ba3e 5526 a7bd
00000310: b177 2b3e 44b2 72be 66a3 4ebe 353b f33e
00000320: f72b 43bd 4eeb 88bd 08e0 383e a87f 693e
00000330: 961a 273e b361 15be 1e9d 9cbe 193c b73c
00000340: 240d 5c3e e6c5 b3bc bc8c 74be a15e e0bd
00000350: ac5f d43d f256 463e b53d 033e 44a4 ce3d
00000360: 5b6c 403e a0a7 f7bd 7fb5 4ebe 1931 a5bc
00000370: 0c4f f43c 23a4 193c c53a 45bc 982e 71be
00000380: 45dd 163e 2dc3 45be 462b 17bb d820 153e
00000390: ee30 16bd e317 963c 99b6 223e 0e3b cebd
000003a0: 4823 9bbd 8d71 1bbe 6e4c 99bd ef95 00be
000003b0: 8663 6fbd 4049 0b3e dd1c 833d cf82 a1bc
000003c0: 5d27 103e 8591 ab3e f050 f9bc 7d89 d53d
000003d0: 3696 113e cd21 49bc 7401 12be 30ed 4ebe
000003e0: e5e6 ddbd 55a6 a1bd 1041 6c3e 4521 523e
000003f0: db51 2b3e c0e5 873e 6773 30be d983 1d3d
-0.09391659 -0.06539911 -0.08457765 -0.006517727 0.050209444 0.0032478017 0.14349498 0.12899072
-0.07399365 0.18752784 0.16347826 0.056977272 0.19569583 -0.1518569 0.1236864 0.0912165
0.09338904 -0.22538868 0.078081444 0.11174633 -0.02630751 -0.031834926 -0.2759483 -0.21604379
0.12191903 -0.099467285 0.08960955 -0.12294833 0.002438074 0.30428663 0.071000926 0.23589565
-0.04325319 -0.022269288 0.056779277 0.115154855 -0.14420788 -0.0016151472 -0.033464037 0.048930198
0.07022682 0.018749913 0.20147535 -0.06718831 0.054317664 -0.0154513195 -0.089262985 0.18935293
0.11068768 -0.1507828 -0.01528964 -0.072779916 0.18671487 0.03882678 0.04448431 0.1289497
-0.15564458 -0.37582263 -0.26304853 -0.14662567 0.015367233 0.26305264 -0.075795315 -0.12008952
0.06835933 -0.19010799 0.49705055 -0.11111644 -0.17014207 0.024311557 0.114280105 -0.13504814
-0.06299966 -0.20455992 0.11638472 -0.32642987 0.15122277 -0.11205896 -0.16400185 0.2144977
-0.027670445 -0.14329451 0.044170618 0.05230497 -0.07777701 -0.034875035 0.08977336 0.03135127
-0.009332018 0.12885405 0.286733 -0.27544254 -0.056216884 -0.09290275 0.13389386 0.34975004
0.124386325 -0.1649493 0.1543797 0.052431922 -0.104585804 0.05313118 -0.16785087 0.035299953
-0.00012597081 0.10268666 -0.113633014 -0.08414813 0.1074277 -0.12247757 0.13204965 0.09261781
0.009662555 0.079600245 0.21403992 0.074504785 0.083390824 -0.050708435 -0.27840373 -0.13597569
0.11380262 -0.0740733 -0.06272296 -0.07834583 -0.16949826 0.19080071 -0.102227956 0.15424158
-0.082057655 0.18310167 -0.12052009 -0.20798165 -0.18377952 0.12585829 0.25658467 0.07432663
-0.07405983 -0.07205775 0.14660268 -0.06682446 -0.095363684 0.16669255 -0.2578406 -0.30291483
-0.17919293 0.05230048 -0.025479829 0.07199285 -0.044551037 0.06142237 0.101427875 0.058248688
0.18144707 -0.18952292 0.09118602 0.12480199 0.019821614 0.3748555 -0.13693008 0.33854693
-0.10145048 0.02985598 0.17263272 -0.38711768 -0.053292386 -0.08338008 0.03682377 0.19260114
0.02680224 -0.1986907 0.10570486 0.13095619 0.05087041 0.046732586 0.1607405 -0.085653655
0.0838361 -0.112259455 0.04235182 -0.057032324 -0.054455783 0.20025279 0.074644595 -0.15115403
-0.22220406 0.24580514 -0.15494743 -0.06820258 0.10912976 -0.07642031 -0.015885403 -0.0954987
-0.050058216 -0.05558522 0.36461195 -0.08161608 0.16744877 -0.23700815 -0.20179519 0.4750611
-0.04764935 -0.06685506 0.18054211 0.22802603 0.16318735 -0.1458805 -0.3058862 0.022367524
0.21489388 -0.021944951 -0.23881811 -0.10955549 0.103698105 0.19369105 0.12816508 0.10089925
0.18791334 -0.12092519 -0.20186423 -0.020165013 0.029822849 0.009377512 -0.0120379375 -0.2355293
0.14732845 -0.19312735 -0.0023066564 0.1456331 -0.036667757 0.018321937 0.15889968 -0.100698575
-0.07575089 -0.15180035 -0.07485281 -0.12557195 -0.058444522 0.13602161 0.064019896 -0.019715695
0.14077516 0.3350946 -0.030434102 0.104266144 0.14217457 -0.012276125 -0.14258367 -0.20207667
-0.10835055 -0.078930534 0.23071694 0.20520504 0.16730444 0.26542473 -0.17231523 0.038455818

pool2.bias f4 [35]
00000000: 787c 28bd 7b62 d7bc 0d7b d7bd df67 403d
00000010: 17fd d1bd b706 d83c 202a 2e3d f7d6 b9bd
00000020: 084b ec3d 8574 85bd f7f5 1cbd ead3 4bbd
00000030: 7822 70bd e379 43bd 3631 2c3d ccce 6cbd
00000040: d590 d2bd 33d1 23bd 560f 28bc 5e5d 693c
00000050: dea8 acbc e8f3 fe3c 90b3 7a3d 82ad 1a3d
00000060: 7e3e 543d 1785 7dbc 3684 80bc a62f b5bc
00000070: 2901 c63d 1fd9 143d 565c 053d 0e02 fb3b
00000080: 4eef 133c efdc 103a db45 663d
-0.041134328 -0.026292076 -0.10521517 0.04697406 -0.10253351 0.02637039 0.042520642 -0.090742044
0.115377486 -0.06516365 -0.038320508 -0.049762644 -0.058626622 -0.047723662 0.04203912 -0.057814404
-0.10281531 -0.03999443 -0.010257563 0.014243452 -0.021076616 0.031122163 0.0612064 0.037763126
0.05181741 -0.015473626 -0.015688043 -0.022117447 0.0966819 0.036339875 0.03255876 0.007660157
0.009029223 0.0005526086 0.056218963

conv3.weight f4 [35, 35, 3, 1, 1]
00000000: 6853 d0bd 347a 5b3e 78d0 cf3d 5f95 efbd
00000010: 9bef 2bbe cd21 18be c513 bcbe f083 713e
00000020: b46e 15be ef97 23be 86e4 b03a 8c47 83be
00000030: be33 9ebd 7c53 bb3c 3a54 d1be b6d8 c3bd
00000040: 8cc7 ae3b 3303 e83d 5fa5 84bc 43dd 25bd
00000050: 377b efbd aa06 80bd e626 76bd ee56 f8bd
00000060: 0449 183e 761e 4d3e b5f5 133e f364 fbbd
00000070: c2fe 393d 2eee 91bd 21c6 73be c548 393e
00000080: 6238 37be 5b4b 123d bff2 563d 65dc ca3c
00000090: 6ea2 a33d ca18 8abd fc6f 59bb cbe7 24be
000000a0: f8ba 1ebe 8952 15be d8aa db3c 8843 92be
000000b0: 8780 703e 9997 293e bc5d 8cbd ef46 883d
000000c0: 1a8d 8dbd 53b5 db3d 9e77 63be c291 a73c
000000d0: 568d 3cbe 5a1a 92bc def3 43be de96 3dbe
000000e0: 4143 d63c 2432 cc3c 2f7c a63d 5ddd a8be
000000f0: a9f1 d83d 72d2 02bc ba0f 29be 3821 013e
00000100: df2b e6bc 77a0 303e 24b0 1ebc 2946 743e
00000110: ac64 063e d509 993e 5518 453e 28b7 593d
00000120: bb50 cabd 8f83 8abe 4fbc 073e 750a fabd
00000130: d722 a33d eacb d4bd dc6a ba3e 612a 70bd
00000140: b8bb abbc cdaa 503e c675 09be 60b8 783d
00000150: e4ec 2d3e be5b 28be 5ad6 ec3d 8a31 50be
00000160: 3547 3d3d cc94 d43d 6f28 18be 9a02 db3c
00000170: f91a 4c3e 2f74 42bc 8e8e 51be 3de2 8dbe
00000180: ad0c 8cbc cd32 4d3e cc69 693e 316e b9bc
00000190: dbdd aabc 3a4f 22bd 54f0 fb3d 9dd0 183c
000001a0: 67af 83be 5917 45be 8ef9 95bd 8fb3 62bd
000001b0: 87a4 923e 8ce1 07be cfe8 a03e eb20 cbbd
000001c0: 695b a2bd 139e 23be 4b93 d83c 90e1 d1bc
000001d0: fc49 053e 969a a53e e414 14be 13ab cc3d
000001e0: 5768 073d a1e6 36be cb10 b6bd 8c9e 54be
000001f0: 8887 25be 1e86 69be 7c23 95be 4259 c6bd
00000200: 20fa cdbe b9eb f5bb a152 663d 9d7f 3fbe
00000210: c6b7 94be ccd5 113e 8849 513d aa32 8dbc
00000220: e392 4fbe 705e 923e 46ae 133e 387d f73c
00000230: 7ad3 2e3e d01d 1bbe f33d 923e ba96 4fbe
00000240: 8051 183e 8f9b 0f3c bce4 f2bd a78c b6be
00000250: 7145 073c 55a0 8d3e 7727 183d b9ac 4abd
00000260: ba3e f2bc b4b1 933b e882 85be 5077 1abe
00000270: 4b84 6abe 598f 72be 01b2 8abd 8477 f1bc
00000280: 943f bfbe 1e7f 193e 7e1f 393d dca7 683b
00000290: 2068 7cbc 6a49 313e 82b2 4bbd c086 393e
000002a0: 34b1 e63d 5921 a8bd f300 fb3c 63ec 703e
000002b0: 2a0f 4e3e 6945 66bd 3757 053e 126a 05bd
000002c0: 1832 e4bd 9921 143e 1bbd e9bd 019d bebd
000002d0: ddf9 1dbe dafa 1fbe 0dde 8dbc bd8b 8d3e
000002e0: 0173 b1bd 73a8 413e 4ad8 5d3e 66ad 283c
000002f0: ca3e 3b3e 2730 c83d 5077 09bd e94e bf3d
00000300: f767 35be 13e0 80bd 494b b93c d520 113e
00000310: 6411 cc3d 637c d3bd dd8c 27be 9a88 113e
00000320: fa01 853e d5f4 b73c 884f 65be 13a4 5bbe
00000330: 3ed0 a53e ad6c b73c 4689 73be 7e30 c73c
00000340: 646a 563e d5fb 9cbe 5462 bdbd 9472 82bd
00000350: 90c2 39bd be5d 87bd 74f4 3a3e 5d69 bb3e
00000360: 6be9 6cbe f099 a83d 0256 643e ef65 8bbe
00000370: 7250 e4bd 9220 1f3e 4f11 8dbd e5ed 533e
00000380: fd6a 153e f39b bdbd 4ffe 15be 962d 88bd
00000390: ee8a 41be 6771 04be 2b33 4b3e 44b2 3d3e
000003a0: 32c3 463e abe1 3a3e eb15 82be 9629 313e
000003b0: 2753 60bd 1cbe 343c e0ec 0abe 562a 513e
000003c0: 4111 71be 9cf7 ecbc 00ad 203e b8c9 9e3d
000003d0: 0e2e 81bd 06c1 183e 5e40 05be 8e58 b63d
000003e0: 573a ed3d 68f4 18bd 10a7 39bc 7e7d 1b3d
000003f0: 5e9c 64bd bb4a 87bc 89b6 b0bb 5f2a 363e
-0.101721585 0.21433336 0.10147184 -0.11698412 -0.16790621 -0.14856644 -0.36733833 0.23585486
-0.14593011 -0.15975927 0.001349584 -0.25640523 -0.07724713 0.022866957 -0.40884572 -0.09562819
0.0053338464 0.11328735 -0.016192136 -0.040494215 -0.11693423 -0.06251271 -0.06009569 -0.121259555
0.14871603 0.20031151 0.14449199 -0.12275114 0.04540897 -0.07125507 -0.23806049 0.18094166
-0.17892602 0.035716396 0.052477594 0.024763295 0.079899654 -0.067430094 -0.003317832 -0.16104047
-0.1550101 -0.14582266 0.026814863 -0.28567147 0.2348653 0.16561736 -0.06853816 0.066541545
-0.069116786 0.10727944 -0.22213599 0.020455245 -0.1841329 -0.017834831 -0.19135997 -0.18514583
0.026155116 0.024926253 0.08129155 -0.32981387 0.10592968 -0.007984744 -0.16509905 0.12610328
-0.028097091 0.17248712 -0.00968555 0.23854889 0.13124341 0.29890314 0.19247563 0.053153187
-0.09878679 -0.27053496 0.13255428 -0.12209026 0.079656295 -0.10390456 0.36409652 -0.058634166
-0.020963535 0.20377655 -0.13423833 0.06072271 0.16984898 -0.16441247 0.11564322 -0.20331398
0.046210486 0.10379943 -0.14859174 0.026734639 0.19932164 -0.011868521 -0.20464537 -0.2771167
-0.017095888 0.2003891 0.22794265 -0.022635551 -0.020857742 -0.039626338 0.12301698 0.009327081
-0.2571976 -0.19247188 -0.073229894 -0.05534702 0.2864115 -0.13269633 0.3142762 -0.09918388
-0.07927591 -0.1597827 0.026437422 -0.025620252 0.13016504 0.32344502 -0.14461094 0.09993567
0.03305849 -0.17861415 -0.08889922 -0.20763606 -0.16164982 -0.22805068 -0.29128635 -0.09684993
-0.40229893 -0.007504907 0.056231145 -0.18701024 -0.29046458 0.14241713 0.051095515 -0.017236073
-0.20270877 0.28587675 0.14421949 0.030211076 0.1707286 -0.15148091 0.28562889 -0.20272341
0.1487484 0.008765115 -0.11860034 -0.35654184 0.008256302 0.27661386 0.03714701 -0.049481127
-0.029570926 0.004507268 -0.26076436 -0.15084577 -0.22902028 -0.23687495 -0.06772233 -0.029475935
-0.37353194 0.14989898 0.04519605 0.0035500443 -0.015405685 0.17313161 -0.049730785 0.1811781
0.112642676 -0.082094856 0.030640101 0.23527674 0.20122972 -0.05621854 0.13021551 -0.03257186
-0.11142367 0.14465941 -0.11413022 -0.0930729 -0.15427347 -0.15623036 -0.017317796 0.27645674
-0.086645134 0.18911915 0.21664539 0.010295248 0.18285671 0.09774809 -0.03356105 0.09341223
-0.1771544 -0.06292739 0.022618907 0.1417268 0.099642545 -0.10326459 -0.16362329 0.14212266
0.2597807 0.022455612 -0.2239362 -0.21449308 0.3238544 0.022390688 -0.23782834 0.024315115
0.20939022 -0.30660883 -0.0924727 -0.0636951 -0.045351565 -0.06609677 0.18257314 0.36603823
-0.23135917 0.08232486 0.22298434 -0.27226207 -0.11148156 0.15539768 -0.06888067 0.20696218
0.14591594 -0.092582606 -0.14647792 -0.0664932 -0.18900654 -0.12933885 0.19843738 0.18525034
0.19410399 0.18250148 -0.25407347 0.1730102 -0.0547668 0.011031654 -0.13566923 0.20426306
-0.23541738 -0.028926663 0.15690994 0.077533185 -0.06307612 0.14917383 -0.13012835 0.08903609
0.11583393 -0.03734246 -0.011331335 0.037961476 -0.055813186 -0.016515126 -0.0053928536 0.17789601

conv3.bias f4 [35]
00000000: 9d74 6d3b 5c6a 3dbd 81ef 6fbd fd0f 2dbd
00000010: f1ce 5f3d 31d0 223b 6ede 873b 4f67 1bbd
00000020: 7175 e1bc f71a 0a3d 5bc1 843d 4286 f537
00000030: 4a18 abbd da75 cfba f8c0 1f3d 9863 663d
00000040: f24d 71bd a284 9f3c 242e cabc 6a87 dfbc
00000050: cb63 3a3d 1933 9c3d 350a 583c 2685 f6bc
00000060: fe80 afbc 7dcb 22bd 6317 01bd 85d8 713d
00000070: 0192 543b 5548 5dbc 56eb a0bc ef5d e4bc
00000080: 3811 40bc c457 8ebc 903c c2bc
0.0036232837 -0.04624401 -0.058578018 -0.042251576 0.054640714 0.002484333 0.0041463887 -0.03794032
-0.02752182 0.033717122 0.06482192 2.9268795e-05 -0.08354242 -0.0015827969 0.03900239 0.056247324
-0.058912225 0.019472424 -0.024680205 -0.02728625 0.045505326 0.076269336 0.013186027 -0.030092787
-0.021423813 -0.039744843 -0.031516444 0.05904438 0.0032435658 -0.013506015 -0.019643467 -0.027876822
-0.011722855 -0.017375834 -0.02371052

conv4.weight f4 [35, 35, 2, 1, 1]
00000000: f4a4 073e 8168 c0bd a378 553e 3d3e 3fbe
00000010: b66b a43d f1b5 eebd c544 5cbc 041d 54bc
00000020: b218 033e 58ad 37bd 0857 88bd 020b dabc
00000030: 7881 5c3c c0aa 143e 12b1 423e d657 84bc
00000040: bc22 a5bd ee40 c0bc ddc0 c9bc 1710 e03d
00000050: 1084 0d3e 5bd0 c73d 5d70 a4be aced 203d
00000060: f940 0dbe a855 193e 89f4 e9bd 2997 893c
00000070: 7098 08bd 2bd8 e13d 211e 5bbd 38dc 073e
00000080: 472f 93bd 149c 4e3d fe48 62be 5d31 b5bd
00000090: 42a5 433e 9b62 b63d 089f 99be d7cd 8ebb
000000a0: 103f e13c 137b 8b3c 359d a33d 1f0a 5b3d
000000b0: fa8a 883e 8589 233d 0f5f 41be 8fcd 97be
000000c0: 1d1c 013e bec0 3a3d 2bcb 04bd 71b2 d5bd
000000d0: 1d26 abbe 4114 bfbd 862c 943c c70d 5fbe
000000e0: 6235 a2bd 17bb 3fbe 7583 6ebd c8bf cdbd
000000f0: 8c9b 943c f052 5a3e 69d0 a0be 0ef3 453c
00000100: a136 fdbc b08f 563d 1367 4b3e 34cc f7bd
00000110: ab3b c53e b53c 033e 6a9b b6be 8e0d 623d
00000120: ed76 193e 5508 493e 2b20 e03c 93ef cabd
00000130: 0766 2f3e b778 84bd 5c95 63be 5a35 1f3f
00000140: 64f8 ccbb 54e9 54be 0708 043e e2fc c03d
00000150: 9005 48bb be67 f93d e047 1dbe e859 d6be
00000160: 1312 39be 708f f4bd 4206 d43d 2926 153e
00000170: 1bf8 96bd e806 6dbc 4709 c13d 81b7 83be
00000180: a966 a4bc 7678 22bd dde2 2ebe b0e9 39bd
00000190: 6799 ebbd 19c7 be3d a667 8a3e 5388 2cbe
000001a0: a3b3 013e f996 9bbd f070 47be 48d3 7bbd
000001b0: 2abf a23d 80f6 5cbd 1c89 513a 91b5 103e
000001c0: 627c 4bbe a087 063e 1a69 74be d1ec aabe
000001d0: 6902 c0be 38bb 84be 4f04 863d 647b 1c3e
000001e0: c1b6 57bd 4454 14bd 4514 e4bc 4795 763e
000001f0: 9ee8 a03e f189 103e bf25 d6bd 0a00 e83e
00000200: 1318 743c 789f b2bd 77d7 48be 7c18 42be
00000210: 4a23 27bd b1e3 053e 13a8 59be 9a63 5cbc
00000220: 8593 aabe 4646 01ba 1353 803d e6a6 093e
00000230: 2db8 67be d047 993e 2ff4 943e b3b3 1a3e
00000240: ccf7 333e 586f 653e 39dc f4bd b514 a53e
00000250: aa43 d1bd 4657 64be 9a39 4bbc 72d9 1cbe
00000260: 0207 64be 6822 f0bd 8f99 2d3e 064a 783d
00000270: 0742 9e3d 8be4 013e 03b8 86be 2a19 f93c
00000280: cc95 31be da4c 36be 1d48 a53d 6101 8e3e
00000290: 43d0 97bd 6a40 293d 8d88 5abe c2ce 66be
000002a0: 3b17 fe3d b028 fc3d 78c8 813e 683f ddbe
000002b0: e0a8 06be 84c2 483e de53 8abe b048 4bbe
000002c0: dc53 9f3d 6f3e ddbd e346 50be 2423 9e3d
000002d0: ecde bbbd 53f0 c8bd ebfa dfbc b5c4 c93b
000002e0: 7a4f c13d fcae 71bd f578 6a3e ff94 45be
000002f0: e8d2 85bd 2502 63be 7c15 3dbe 92fe a6bc
00000300: f995 7d3e 1250 6cbc 00d7 83bc cd8d 9d3d
00000310: 2596 4bbe 1c09 ae3d ed9e 553d d01c 87bc
00000320: f9a6 05bd 9870 22be ca5c 803c d7ca 80bd
00000330: 9903 2fbd 6849 38be 0d1e 3ebe 40b6 2ebe
00000340: 454b b5bc 77f3 49be 404e e53d 6fb1 55be
00000350: 2eba 21bd bc72 d2bd b5fe febc 6f13 fbbd
00000360: 0f58 d9be 4661 933d 135a bdbe a893 2dbe
00000370: 0faa ebbe 8dab 953e 740c ef3d a8c4 7b3e
00000380: 736d 5c3e 204d 5ebd 2f86 d93d 9b7e 9c3d
00000390: a982 5f3e a12b 8a3d f9b2 4cbd 0ce1 833e
000003a0: 6a28 26bd 2e6e 8cbd 64f1 94bd f497 3ebe
000003b0: ebe1 243e f448 093c cec0 463d 5ead 003e
000003c0: f8ab 253e caf2 83bc 09a4 febd 7996 37be
000003d0: 321a f6bd 7e1d 83be 97aa 543e 2309 0f3d
000003e0: dad0 cf3d 0f41 843e 715b 1b3d 4e81 7a3d
000003f0: 899e febd 3aa2 bd3c e297 51be f90d e7bd
0.13246518 -0.093949325 0.208468 -0.18676086 0.08028357 -0.11655796 -0.01344413 -0.012946371
0.1280239 -0.044843048 -0.06657225 -0.026616577 0.013458602 0.14518261 0.1901286 -0.016155165
-0.08063266 -0.02346846 -0.024628097 0.10940569 0.13819909 0.097565375 -0.32116976 0.03928916
-0.13794316 0.14974082 -0.114235945 0.016795712 -0.0333485 0.11027559 -0.05349553 0.132676
-0.07186752 0.050441816 -0.22098157 -0.08847306 0.1910601 0.08905526 -0.30004144 -0.004358034
0.02749589 0.01702646 0.07988969 0.05347645 0.2666853 0.03992607 -0.18883918 -0.29649016
0.1260838 0.04559397 -0.03242032 -0.104344256 -0.33427516 -0.09330035 0.018087637 -0.217826
-0.07920338 -0.18723713 -0.058230836 -0.10046345 0.018140577 0.213207 -0.31409004 0.012081875
-0.030909838 0.052383125 0.19863538 -0.120994955 0.38522086 0.12816127 -0.35665447 0.055188708
0.14986773 0.19632085 0.027359089 -0.099089764 0.17128764 -0.06468337 -0.22224945 0.62190783
-0.0062551964 -0.20792133 0.12893687 0.094232336 -0.0030520894 0.121779904 -0.1535945 -0.41865468
-0.18073301 -0.11941421 0.10352756 0.14565338 -0.07371541 -0.014466979 0.09425598 -0.2572594
-0.020068483 -0.03966566 -0.17078729 -0.045388877 -0.115038686 0.093153186 0.27032202 -0.16848879
0.12666182 -0.07597155 -0.19476676 -0.06148079 0.07946618 -0.05394602 0.0007993148 0.14131762
-0.19871667 0.13137674 -0.23868218 -0.33383802 -0.3750184 -0.25924087 0.065437905 0.15281445
-0.052664522 -0.036213174 -0.027841697 0.24080382 0.31427473 0.1411512 -0.10456418 0.4531253
0.014898318 -0.087218225 -0.19613443 -0.18954653 -0.04080514 0.13075139 -0.21255521 -0.013451481
-0.33315673 -0.0004931431 0.06265845 0.13442573 -0.22628851 0.299376 0.29092547 0.15107612
0.17574996 0.22405756 -0.11956067 0.3224236 -0.10217984 -0.22298917 -0.01240387 -0.15317324
-0.22268298 -0.117253125 0.16953109 0.06061747 0.077274375 0.12684838 -0.26312265 0.030407507
-0.17342299 -0.17802754 0.08070395 0.27735427 -0.0741277 0.041321196 -0.21341152 -0.2253981
0.124067746 0.12312448 0.25348258 -0.43212438 -0.13150358 0.19605452 -0.2701711 -0.19851947
0.07779667 -0.10802924 -0.20339541 0.07721546 -0.09173378 -0.09811463 -0.027341327 0.0061574825
0.09438987 -0.05900477 0.22897704 -0.19295119 -0.06534368 -0.22168787 -0.18465227 -0.02038506
0.24764241 -0.014423387 -0.01609373 0.07693062 -0.19881494 0.08497831 0.052153517 -0.016493231
-0.03262994 -0.15863264 0.015669245 -0.06288689 -0.04272804 -0.17996752 -0.18566151 -0.1706171
-0.022130618 -0.1972178 0.11196566 -0.20868467 -0.039484195 -0.1027579 -0.031127313 -0.12259566
-0.42449996 0.07196288 -0.36982784 -0.16950858 -0.46028182 0.29232445 0.11672297 0.24586737
0.21526127 -0.05427277 0.106212966 0.076413356 0.21827187 0.06746603 -0.04997537 0.25757635
-0.040565886 -0.068569526 -0.07272604 -0.18612653 0.16101806 0.00837921 0.048523717 0.12566134
0.16178882 -0.016106982 -0.12433631 -0.17928495 -0.12016715 -0.25608438 0.207682 0.034920823
0.10147257 0.25830886 0.037929002 0.06115847 -0.12432582 0.023148645 -0.20468095 -0.11281962

conv4.bias f4 [35]
00000000: 0d62 8b3d 5ed0 393d 55a6 b5bd 0a06 cfbc
00000010: 40a4 afbc 6cdb d7bc dbd9 703a a072 6d3b
00000020: aac7 a2bc 44ba 7c3c c833 4fbd 32f7 c8bd
00000030: ad04 be3c 5fde 33bd 39b3 9cbb 54f4 aabd
00000040: e603 4ebd 4252 a6bd 0787 443d d3c5 60bd
00000050: 9e65 d7bd 913f 3b3c 1a39 18bc fd35 513d
00000060: b273 dabb 4441 ecbc d595 a83d 2d3f 63bb
00000070: fcc2 1e3c 217a ed3a 2e20 52bd 72f3 dfbb
00000080: 5c4b 42bc 152e 2f3c 6c4e 063c
0.06805811 0.04536473 -0.08869616 -0.025271434 -0.021440625 -0.026349746 0.00091877364 0.0036231652
-0.019870598 0.015425269 -0.05058649 -0.09812774 0.023195589 -0.04391324 -0.004782107 -0.08347383
-0.050296687 -0.08121158 0.047980335 -0.05487616 -0.10517429 0.01142873 -0.009290958 0.051076878
-0.006666624 -0.028839715 0.08231703 -0.0034675107 0.009690043 0.0018118062 -0.05130022 -0.006834441
-0.011858787 0.010692139 0.008197408

fc.weight f4 [17, 945]
00000000: defe b63d 09e8 66bd 3e01 4a3d 6232 d4bd
00000010: f5a3 73bd 393c 583b 5758 5abc 8e85 703d
00000020: 1ec6 50bb 88cd 663c cd8e f738 e1eb 503d
00000030: 0178 733b 7446 d9bc 5d8d ea3c dee0 ab3b
00000040: ba76 6d3c f455 cbbb 1ac6 9c3d 58ec 21bd
00000050: b363 1dbd 6264 a1bd 331d 3ebd 8a75 cdbc
00000060: f24f 23bd eb2e 34bd 800a c3bd b3f4 723d
00000070: f1f0 c4bc 9c63 413c f855 1dbd 4b48 abbc
00000080: d333 dcbc 254a 2fbd 95e5 0fbc f306 5dbd
00000090: c297 d2bc f17b d9bc b23f af3c 33b6 353d
000000a0: ad13 213c bc20 8e3d 2cc6 bb3b 1c37 933d
000000b0: 947d e03c a169 8a39 9fbf 32bc 94bd 97bc
000000c0: 293d 0f3d 60e4 85bb f702 d53c f27e 88bc
000000d0: 5d5d e7ba 48fd 523c c742 0e3d 9485 2cbd
000000e0: 285c 873c 8f4c 7dba aac1 1cbd 437e 40bd
000000f0: b330 1fbd 0ca3 d03d f76b 24bc 1e04 973c
00000100: a123 f33c 3e22 b6bd 2884 5d3d a4a7 b43c
00000110: 3b32 4fbd 1cc8 01bd e776 c03a 1062 56bd
00000120: e6fc a7ba 3957 e4bd 6ad7 5d3b 4166 d1bc
00000130: 9ccf 30bd ac3b 683d 4912 4abd cc32 933d
00000140: 9d8c c23c efe4 02bc d6b0 4c3d b29b 2dba
00000150: e095 a33c e655 e63d cc42 3dbd 68e8 013d
00000160: 6b3d 693d 246e c33d 8092 283d 01f9 55bd
00000170: 7208 673d 429d acbc b2d3 e9bc d9c2 90bd
00000180: 0ddf 68bc 01dd 1e3c e461 a33c a306 ca3d
00000190: 1186 1dbd cfc6 9f3c 8225 62bd 75e1 293d
000001a0: 693a fdbc 563c 223b 6a66 b63d ec9f 103d
000001b0: 6cd4 b7bd be61 e63b 6520 5ebd 874f 8dbd
000001c0: 891f 13bc e41e 2cbd 024d 8cbd 7b44 a63b
000001d0: 5aed 163d 50ff 1d3d ac4b 3abd 6156 a5bc
000001e0: 8d5e 733d 7ac3 9cbb 8ecb ec3d 1258 38bd
000001f0: 5aba 3bbd a87f 593c da21 32bc b469 af3b
00000200: 7a2e 143c 6a8d 13bd ad1d 8bbd 930b 98bc
00000210: a61a c6bc dcb3 bebd 49e0 843b a156 8abd
00000220: 45b9 93bd d4d1 11bd a0b3 89bc e3eb 81bd
00000230: a584 923a e27a 303d 06d1 9dbc 0ae0 2abd
00000240: f7b2 123d 5910 f7bb 3c9e cdbd aa0f b6bd
00000250: 6d40 98bc 8b9e bc3c 5440 a3bd de5d 043d
00000260: f33e ad3b 1b8c 0dbc c775 693c 9679 2f3d
00000270: 959b dbbd 0b0a 473d f8b6 44bd 219c 03bc
00000280: dd55 61bd 729f da3b 48f0 06bd 10ef 953d
00000290: 72bd f33c f14c 9439 0952 8b3c 41d7 333d
000002a0: 89ec 39bc e83e d93d c98d 94bc 85f6 1ebd
000002b0: 93f1 f73c 9144 47bd 3baf 7e3c 3f6d 1d3c
000002c0: aaa9 1ebd 1db7 113c bcc3 353c e680 e8bc
000002d0: 70e0 3abc 7bd5 aa3b 4a37 7d3d a676 ba3b
000002e0: fb4b bd39 7744 a7bc d7a0 873c 9126 92bc
000002f0: 52f8 713d 2855 3b3d 62c0 20bd ef42 063d
00000300: 6e66 a9bc 7b9d 15ba 1122 073d 586a 84bc
00000310: 4ec1 21bd 2db2 17bd c35d 7f3d 2229 fbbd
00000320: bc8d 2ebd c945 0dbd 4183 2abd 019c 3dbd
00000330: d126 0ebd 387a 393d 1f2b a23c a91d 00bb
00000340: 136b 86bc a6e4 39bd cfa2 b939 7fbc 4dbc
00000350: 774b 293d 124d bcbc c197 14bd 0c90 da3c
00000360: 9f41 23bd 94fc ebbb 4b45 1f3d 57be 4dbd
00000370: 9e11 8a3d 54c6 82bc 4071 fbbc bff0 863c
00000380: 6e72 7cbd 1336 8f3d a95a c0bc 92af 163d
00000390: 155f 39bd 20ff 92bd 4a0c d73c 8256 69bc
000003a0: 85e1 f63c 186c 39bd 5154 d33c fe74 f53b
000003b0: a0f5 8dbc d239 143c 7e5d 47bd 5884 c83b
000003c0: 12c4 97bb ffb4 06bd 262f c3bc dc1b 083d
000003d0: 5a17 25bc d62a 24bd 33f9 803d 0e35 a43c
000003e0: 1f01 1b3d f716 6f3c e8fc 8a3d a33b b6bb
000003f0: 94c2 53bd 52b4 83bd 476e 63bd e184 c3bc
0.08935331 -0.05637363 0.04931759 -0.10361172 -0.059482533 0.003299488 -0.013326726 0.058721118
-0.0031856368 0.014087088 0.000118044765 0.0510062 0.0037150385 -0.026522852 0.02863186 0.005245312
0.014493639 -0.006205315 0.076549724 -0.039532036 -0.03842516 -0.078804746 -0.046414565 -0.025080461
-0.039871164 -0.043990057 -0.09523487 0.059315395 -0.024040671 0.011803534 -0.038412064 -0.020908495
-0.02688018 -0.04279532 -0.008782764 -0.053961705 -0.02570713 -0.026548358 0.021392677 0.04436321
0.009831351 0.06939837 0.005730411 0.07188246 0.02740363 0.0002640011 -0.010909944 -0.018523015
0.034970436 -0.0040860623 0.02600239 -0.016662095 -0.0017651726 0.01287777 0.034731653 -0.042119578
0.016523436 -0.0009662592 -0.03827063 -0.046995413 -0.038864803 0.10187349 -0.010035506 0.01843458
0.029680075 -0.0889325 0.054081112 0.022052594 -0.050585013 -0.03168498 0.0014683873 -0.052339613
-0.0012816458 -0.11149449 0.003385032 -0.025561454 -0.04316674 0.056697533 -0.049333844 0.07187423
0.02374869 -0.007989152 0.04997333 -0.00066226267 0.019968927 0.112468526 -0.04620628 0.03171578
0.05694334 0.09542492 0.04115534 -0.05223942 0.05640454 -0.02107108 -0.028543327 -0.07068414
-0.014213336 0.009696246 0.019944139 0.09864547 -0.038457934 0.019503979 -0.05521155 0.04147478
-0.030911641 0.0024755201 0.08906253 0.035308763 -0.08976063 0.0070306947 -0.054230113 -0.06899934
-0.008979687 -0.042021647 -0.068506256 0.0050740815 0.03684745 0.038573563 -0.045482323 -0.02018279
0.059416343 -0.004784045 0.115622625 -0.045005865 -0.045832016 0.0132750645 -0.010872329 0.005353177
0.009044284 -0.036023535 -0.067927696 -0.018560207 -0.024182629 -0.09311649 0.004055057 -0.067548044
-0.07213072 -0.0356005 -0.016809285 -0.0634382 0.0011178447 0.04308594 -0.01926471 -0.041717567
0.035815205 -0.0075397906 -0.100399464 -0.088897064 -0.018585408 0.023024818 -0.07971254 0.03231608
0.005287045 -0.008639361 0.014249272 0.042840563 -0.10723034 0.048593562 -0.048026055 -0.0080328295
-0.055013526 0.0066718394 -0.032943994 0.07320988 0.02975342 0.00028286086 0.01700689 0.043906454
-0.011347898 0.106077015 -0.018134015 -0.038809318 0.030266559 -0.048649374 0.015544708 0.009608566
-0.038736023 0.008893755 0.01109403 -0.028381776 -0.011406049 0.005213437 0.061820306 0.0056904135
0.000361055 -0.020418389 0.016556187 -0.017840656 0.059074707 0.04573551 -0.03924597 0.032778677
-0.020678725 -0.00057073653 0.032991473 -0.01616399 -0.03949099 -0.037035156 0.062345278 -0.12263705
-0.042615637 -0.03449038 -0.04162908 -0.046291355 -0.034704987 0.045282573 0.019795952 -0.0019548929
-0.016408479 -0.04538407 0.00035407252 -0.012557148 0.041331735 -0.022985969 -0.036277536 0.026680015
-0.039857503 -0.0072017405 0.038884442 -0.05023035 0.067416415 -0.01596371 -0.03069365 0.016472219
-0.061632566 0.06992736 -0.02348073 0.03678853 -0.045256693 -0.071775675 0.026250977 -0.0142418165
0.030136833 -0.0452691 0.025797041 0.007490753 -0.017329037 0.009046989 -0.048673145 0.006119292
-0.0046315277 -0.032887455 -0.023826193 0.033229694 -0.010076368 -0.040079914 0.06297531 0.02004483
0.037842866 0.014592878 0.06786519 -0.0055613085 -0.051699236 -0.06430878 -0.05552509 -0.023867073

fc.bias f4 [17]
00000000: 7311 b6bc 0545 12bd ec05 9cbd 724a be3d
00000010: 8cae 36bc 5d9c b2bb f5c0 073d 4904 84bc
00000020: eeca 71bd 10d2 c1bb 4e98 143d 6693 4d3d
00000030: 401c 983d 30e9 ed3c 6c07 95bd 54b7 88bb
00000040: 644f e9bb
-0.022225117 -0.035710353 -0.07618317 0.09291543 -0.011150014 -0.005450769 0.033143003 -0.016115325
-0.05903142 -0.005914934 0.03627806 0.0501894 0.07427263 0.029041857 -0.07276806 -0.004172245
-0.00712006
