checkpoints/li_et_al/no_class_balancing/Salinas_DiffMaps_30/epoch1_0.21.pth (torch, 571504 bytes, 6 tensors)

conv1.weight f4 [16, 1, 7, 3, 3]
000000 85 ae af bb a6 1d b3 bd 30 ca 95 bc 25 dc 1c bd
       -0.0053613805 -0.08745889 -0.018284887 -0.038295884
000010 e3 f3 a7 3b 48 66 6a bd 3c 6d 60 3b df 19 2e bd
       0.005125509 -0.05722645 0.0034244796 -0.04250514
000020 1a 46 6d bc 8f 1f 08 bd 67 36 44 3c 68 30 d7 bb
       -0.014482046 -0.03323322 0.011975861 -0.00656705
000030 dc f6 12 3d 42 a3 1a bd 9b 7d 21 3c 8a ea b0 3c
       0.035879955 -0.03775335 0.009856607 0.021596212
000040 77 15 d5 3a b1 d1 28 bd 92 79 58 3c 26 19 46 3c
       0.0016257007 -0.041215602 0.013212578 0.012090957
000050 5e 8a d9 ba fe ed 17 3d c5 f8 ed bc e9 ce 25 bc
       -0.0016597023 0.0370922 -0.029049287 -0.010120132
000060 d8 b3 e0 bc ca 60 99 bd e2 90 40 3d fb 9b 99 bd
       -0.027429506 -0.07489164 0.04701317 -0.07500454
000070 20 62 b4 bc fb 53 a7 bd 64 3d 6a bd 1f 18 35 3d
       -0.022019446 -0.08170315 -0.057187453 0.044212457
000080 db ad e5 bc 7a 28 aa bb 97 79 ab bd 26 49 86 bb
       -0.028037002 -0.0051928135 -0.08372801 -0.0040980754
000090 2b 82 01 bc bb 1b a3 bd 91 be 8b 3c 28 aa 8f bd
       -0.00790457 -0.079642735 0.017058643 -0.070148766
0000a0 ca 55 8a bc 39 ae 84 3b 21 7d e4 bc 03 3a 52 bd
       -0.01688661 0.0040490893 -0.027891697 -0.051324856
0000b0 e3 a9 01 bc 84 64 8c bc b2 96 50 bd ce e2 35 bd
       -0.007914039 -0.017137773 -0.050924964 -0.04440575
0000c0 c8 4a 8f 3c 41 43 88 3c 39 68 41 bd c9 a9 0b bd
       0.017491713 0.016633632 -0.047218535 -0.034097467
0000d0 ae 39 cd bc 16 31 27 bd 86 cb 40 3d 28 b6 fb 3c
       -0.025051918 -0.040818296 0.047069095 0.030726507
0000e0 f9 86 f6 bc bb c9 cc 3c dd 97 ac bd b3 9d 47 3d
       -0.030093657 0.024998536 -0.08427403 0.048734378
0000f0 20 a0 83 bd f8 3b c0 ba d6 3f 20 bd fc 11 82 bd
       -0.06427026 -0.001466631 -0.03912338 -0.063510865
000100 61 ff b5 bb a4 6d 75 3c 11 b4 82 bd 82 2f da bc
       -0.005554125 0.014979754 -0.06382001 -0.026633982
000110 1d 5a 8f 3d 71 6e 72 bd 48 14 70 3c 5e 07 f6 bc
       0.069996096 -0.059187356 0.014653273 -0.03003281
000120 5a a9 b9 bc 13 68 a4 3c 2c 8d 61 bd 80 6e 5d bb
       -0.02266376 0.020069158 -0.055066273 -0.0033787787
000130 2c 7a 28 bc f9 18 6c 3d 85 c3 92 bd a8 9c ae bc
       -0.010283034 0.057641003 -0.07166199 -0.021314934
000140 18 58 ef 3c 69 38 fa bc d8 1b 46 3d c9 77 bc 3c
       0.029216811 -0.030544477 0.048366398 0.023006337
000150 a8 4c d5 bb 8f d8 0a bd 1b 7f ac 3c ae 45 6c bc
       -0.0065093823 -0.033897933 0.021056702 -0.01442091
000160 18 64 28 3c 97 36 29 bd 7a 10 e0 bc 80 9a 05 bc
       0.01027777 -0.041311827 -0.027351607 -0.008154511
000170 bd fc 82 bd b2 c4 86 3d a2 54 83 3d b9 0e 86 3d
       -0.06395862 0.065804854 0.06412627 0.06545777
000180 a9 54 6f 3c 90 c3 48 bd 52 f6 80 bd 5a 84 54 bd
       0.014607587 -0.049014628 -0.06296982 -0.051884033
000190 c2 50 43 bd 98 a3 13 bd 99 67 77 3d c2 6d 6e 3d
       -0.04768444 -0.036044687 0.060401533 0.058210142
0001a0 f0 09 0e bd f1 ec 4d bd dd 29 f0 bc 63 6c a2 3c
       -0.034677446 -0.050274793 -0.029316837 0.019827073
0001b0 97 e7 8b bc 0a 30 6d 3d 1f 5f 0f bc d1 5e 40 3c
       -0.017078204 0.05790714 -0.008750706 0.011741356
0001c0 3e e9 3b bd a1 60 64 3d 3e 08 78 3d b6 0f 88 bc
       -0.045876734 0.055756215 0.060554735 -0.016609054
0001d0 65 27 42 3c e2 93 8c bc 26 04 0a bd 36 19 e9 bc
       0.011850213 -0.01716036 -0.033695363 -0.028454404
0001e0 19 de 1c bd 57 3c b7 bc 05 6b 48 bd 9e ae 79 3b
       -0.038297746 -0.02236764 -0.048930187 0.0038098465
0001f0 d9 b2 8f bd 88 b4 c8 bc c4 62 33 bd f2 09 15 bd
       -0.07016534 -0.024500147 -0.043795362 -0.036386438
000200 35 b8 5f bd 10 b6 08 bd 60 cc cc 3b 27 04 62 bd
       -0.054619033 -0.033376753 0.0062499493 -0.05517974
000210 6f 01 87 bd 43 85 21 bc 3c ad cd 3b 5a 80 4f bc
       -0.0659207 -0.009858432 0.0062767547 -0.012664879
000220 24 65 2c 3d 42 c9 8c bd 58 48 10 bd 88 26 12 3d
       0.042088643 -0.068743244 -0.035225242 0.035681278
000230 b1 b4 83 3d 3c 9f 93 bd c6 e9 91 bd 4b e7 1b bd
       0.064309485 -0.07208106 -0.07124667 -0.038062375
000240 96 ca 87 bd 5a 6f 02 3d 46 a7 84 3a 46 b9 5a bd
       -0.06630437 0.031844474 0.0010120652 -0.053399347
000250 67 b7 51 ba 2a f0 ab bc c2 b9 8c 3b 73 f7 2d bd
       -0.00080000464 -0.020988543 0.004294605 -0.042472314
000260 ea 57 82 bd 24 51 7d 3d 6c 1c 87 3d ea fa 2d 3d
       -0.063644245 0.06184496 0.06597218 0.04247562
000270 d6 65 87 bc 24 54 75 bd 96 75 e9 3c c7 37 81 bd
       -0.016528051 -0.059894696 0.028498452 -0.06309467
000280 ad 81 d6 bb a1 ea 5e bd d8 f8 6f 3d ef 63 59 bd
       -0.0065462203 -0.05442298 0.058586925 -0.05307382
000290 a4 57 49 bd b6 1a 41 3d 8f 57 95 bd f0 04 8a bd
       -0.049155846 0.047144614 -0.07292091 -0.06739223
0002a0 0c 2d 8a bd df 7e 84 3d c7 21 a3 3c bd 1a e6 3c
       -0.06746873 0.06469511 0.019913567 0.028088922
0002b0 ab ad 75 3d 77 05 91 3d 8c 0d ab bc 14 e8 50 3c
       0.059980076 0.070811205 -0.020880483 0.012750644
0002c0 16 2a 86 3d 07 f4 61 bd 04 33 58 bd 3e dd 7a bd
       0.06550996 -0.055164363 -0.052783027 -0.06124615
0002d0 0e 2b 83 3d 09 51 a7 bc 04 3b 71 3c e7 67 ce 3c
       0.064046964 -0.020424383 0.014723543 0.025196029
0002e0 94 7f 0e 3d 98 35 30 3d 1d 1f ec bc 7f eb 93 3b
       0.034789637 0.04301986 -0.02882343 0.0045141573
0002f0 c3 f2 38 3d 33 a0 4d bd 88 b6 30 bd 2c 4c 4c 3d
       0.04515339 -0.050201606 -0.043142825 0.04987733
000300 79 bf 2d 3d 09 06 04 3c b4 b6 37 3c 05 14 2c 3d
       0.04241893 0.0080580795 0.011212993 0.04201128
000310 cd a4 45 bd 7b 93 35 3d 2c d7 17 3d b2 7a f8 bc
       -0.04825287 0.0443301 0.03707044 -0.030331943
000320 04 a7 f7 bb 83 9d 75 bd e3 ec 6d 3c cb 83 6a bd
       -0.0075577516 -0.059964668 0.01452181 -0.057254594
000330 93 7a 78 3c 88 da 52 bd 55 4b 0a 3d aa 48 f8 3b
       0.015165943 -0.05147794 0.03376325 0.0075770216
000340 dc 01 43 bc a6 2e 1c bb 86 b9 b4 bd de c7 44 bd
       -0.011902299 -0.0023831516 -0.08824448 -0.04804217
000350 23 35 24 bd f9 ee 59 bd 7f f1 52 bd b8 bd f4 3c
       -0.040089738 -0.053206418 -0.05149984 0.029875621
000360 11 b2 0e 3d 83 d0 d9 bc 05 94 d6 3c 85 61 7d bd
       0.034837786 -0.026588684 0.026193628 -0.06186058
000370 89 6f 27 3c 4d 1a 1b bb 7c 25 91 bd 50 9b 74 bd
       0.010219463 -0.00236668 -0.07087228 -0.05971843
000380 87 09 ec bc f4 5a 9c bd dc 8b 4c 3d 0a f8 07 bc
       -0.028813137 -0.076345354 0.049938068 -0.008298883
000390 b5 6a 10 bd 40 c5 b7 bd e2 fb ed bc 5e 2c c5 bc
       -0.035258014 -0.08973169 -0.029050771 -0.024069007
0003a0 85 03 ad bd 71 e2 3a 3d 46 75 f6 3b 97 47 32 bb
       -0.08447937 0.045626108 0.0075213043 -0.0027203315
0003b0 4c a3 31 bd d4 d3 83 bd 5d 57 a1 3b 29 86 54 3d
       -0.043368623 -0.064368874 0.0049237446 0.051885758
0003c0 6e d5 fd bc 50 78 99 bd 37 e0 95 bc dd c4 8d 3c
       -0.03098556 -0.07493651 -0.01829539 0.017305786
0003d0 9c 35 96 3c b7 76 91 bd 22 3e 3b bc 80 f6 24 3b
       0.01833611 -0.07102721 -0.011428388 0.002517134
0003e0 78 15 7f 3c 2f 12 07 39 34 28 34 3d 83 52 b2 bd
       0.015569083 0.00012881377 0.043983653 -0.08707144
0003f0 9b cb 45 bc 50 2f 84 bd f2 5f 6b 3c 6c 7a de 3c
       -0.012072469 -0.06454337 0.014366137 0.027157985

conv1.bias f4 [16]
000000 c6 35 e0 bc 00 00 00 00 00 00 00 00 99 51 b8 bc
       -0.027369391 0.0 0.0 -0.022499846
000010 f1 32 86 bc 00 00 00 00 0f 1c 0b b7 00 00 00 00
       -0.016381713 0.0 -8.2915785e-06 0.0
000020 ce 6e 1d bc 28 4b 01 bd 00 00 00 00 00 00 00 00
       -0.009608937 -0.031565815 0.0 0.0
000030 4c f8 6d bc 00 00 00 00 fa a0 a0 bc 00 00 00 00
       -0.014524531 0.0 -0.01960801 0.0

conv2.weight f4 [32, 16, 3, 3, 3]
000000 af 74 41 3d 68 3d 2f 3b 78 a1 cd bc 47 0a df 3c
       0.04723042 0.0026739482 -0.025101408 0.02722658
000010 04 f3 6f bd fd cb 97 bb 62 fb 95 bc cf 97 28 3d
       -0.058581367 -0.0046324716 -0.018308345 0.0411604
000020 58 7a 62 bd 98 5c 6e 3d 00 8e 46 3d 54 31 6c bd
       -0.055292457 0.058193773 0.048475266 -0.05766423
000030 52 5a 5e bd 5c be dc 3c 66 42 2a 3d 14 fd 06 bd
       -0.054285355 0.02694624 0.04156723 -0.032956198
000040 7e d4 4f bc 1d 89 46 bc c1 be e4 bc f0 b3 91 bc
       -0.012684939 -0.012117651 -0.02792299 -0.017785996
000050 55 4b 13 3d 36 52 65 3d b6 07 38 bd ee ad 16 bd
       0.035960514 0.055986606 -0.04492923 -0.036786966
000060 e8 f1 81 bd 31 79 1e 3d 0f bf 41 bd 09 e0 2c 3d
       -0.06344968 0.038689796 -0.04730135 0.042205844
000070 f4 ab 12 bd 4e da 46 38 40 30 66 3d 2b 75 58 bd
       -0.03580852 4.741019e-05 0.05619836 -0.052846115
000080 12 a9 85 bc 26 54 da bb ee b8 46 bd a6 98 87 bd
       -0.01631597 -0.0066628633 -0.048516206 -0.06620912
000090 8d d7 7e bd 5e 25 7f bc bd 34 2b 3d 38 11 3d 3d
       -0.062217284 -0.015572874 0.041798342 0.046159
0000a0 88 dc 71 3c dd 51 d6 3c 8f 26 41 3d 3e f8 5f 3d
       0.014762051 0.026162082 0.047155913 0.0546801
0000b0 23 12 58 bd e4 54 99 bc c2 81 3a bd 98 17 67 bd
       -0.05275167 -0.018717237 -0.045533903 -0.056418985
0000c0 b2 19 20 bd e3 da d3 bb eb 19 54 3c 83 24 65 3d
       -0.039087005 -0.0064653023 0.012945632 0.055943023
0000d0 f1 93 16 3d d9 07 40 bc 29 55 cb 3c 4e 52 0b 3d
       0.03676218 -0.011720621 0.024820881 0.03401404
0000e0 b4 50 2a 3d 9a 6d 87 3c da 91 82 3d c4 db f2 3c
       0.04158087 0.016531754 0.06375475 0.029645808
0000f0 c5 82 c6 3c 25 14 54 3d 66 6f d2 bc 2a 08 61 3c
       0.024232278 0.051777024 -0.025687885 0.013734857
000100 e1 ed 5a 3b a3 67 ad bc b5 7d 0c 3b bf 79 7d bc
       0.0033405947 -0.021167582 0.0021437232 -0.015470921
000110 a6 c6 63 bd f4 85 3b 3d 91 62 e4 3c c1 71 3c 3d
       -0.055609368 0.045782045 0.027879031 0.04600692
000120 95 cd f0 bb 18 67 3f bd 8f c6 31 3d 5e f5 73 3d
       -0.007348726 -0.046729177 0.04340225 0.059560172
000130 0e ea 29 3d d2 74 5f 3c e2 11 2c bd 85 dc 84 bd
       0.041482978 0.013638692 -0.042009242 -0.06487373
000140 0d 55 7c 3d 47 61 0d 3d cc 05 1b bc 0d 3a 74 3c
       0.06160455 0.0345166 -0.009461831 0.0149064185
000150 65 ff 1d 3d 6c c3 e9 bc 80 d9 52 3c 54 fb 66 bc
       0.03857364 -0.028535567 0.012869239 -0.014098007
000160 1c 99 6c 3b 45 44 14 3d 43 14 63 bc da 2f c5 bb
       0.0036102002 0.03619792 -0.013859811 -0.0060176672
000170 fb 14 a8 3c 87 d9 e1 3c b5 ec 59 3d f4 25 64 bc
       0.020517817 0.027569545 0.053204257 -0.013925064
000180 8f e4 15 bc 26 df d9 3c c0 11 1d 3d 58 0a 01 bd
       -0.009148731 0.026595663 0.038347006 -0.031504005
000190 e7 54 44 3d 87 98 01 bc 36 a2 c3 3c 4c 2f a3 bc
       0.04793253 -0.0079099005 0.02388106 -0.019920014
0001a0 9d 17 37 3c 0b be 53 3d 0a 72 40 bc ce 9a 78 bd
       0.011175063 0.05169491 -0.011745939 -0.06069451
0001b0 69 b3 70 bd a8 01 3f bd f9 7d 1d 3d 83 22 71 bd
       -0.05876485 -0.04663244 0.038450215 -0.058870804
0001c0 47 5c 7a 3d c3 36 a1 bc 3c 6c 30 bd 6d 0b 1a 3c
       0.06112316 -0.019679433 -0.04307197 0.009402138
0001d0 11 7a 7d 3d 25 6c 03 3c be 7e 35 3c 69 80 26 3b
       0.06188399 0.008021389 0.011077581 0.0025406128
0001e0 94 0c c1 3c a2 2c 25 3d 10 cb 94 bc 68 88 c1 3c
       0.023565568 0.04032577 -0.018163234 0.023624614
0001f0 43 09 2d bd 21 d0 ab 3c 6b d6 5d 3c 90 ef 89 bc
       -0.04224516 0.020973267 0.013539891 -0.016837865
000200 d6 6e 18 bd 24 f0 b9 3c ec d9 4c 3d ee 88 77 bc
       -0.037215076 0.022697516 0.050012514 -0.01510833
000210 54 0a 89 3d 98 9d 1f ba e9 d2 86 3d 48 c3 05 bd
       0.06691423 -0.0006088852 0.06583197 -0.032656938
000220 18 01 52 bc 8c c5 cc bb b9 95 7c bd a3 7b 8e 3c
       -0.012817644 -0.0062491354 -0.061666224 0.017392939
000230 87 91 65 3d 6d e1 a2 bc 49 3b 35 bc 13 0e e2 3c
       0.05604699 -0.019882882 -0.011061498 0.027594602
000240 fb b9 76 3d a1 1a 62 bd 88 47 79 bc 9a 3f 9d bc
       0.06023596 -0.055201177 -0.015214808 -0.019195367
000250 f6 b9 ca bc 1e e1 49 3d c3 d8 66 bd 00 ea 22 3d
       -0.024746876 0.049286954 -0.056359064 0.03977394
000260 7d 19 55 bd 13 40 96 bc e8 d9 41 bd 75 88 97 bc
       -0.05202626 -0.0183411 -0.047326952 -0.018497685
000270 16 8e 14 3d 28 2c 80 bd 57 36 40 ba 3d f0 ab 3b
       0.036268316 -0.06258422 -0.0007332316 0.0052471445
000280 c5 7a bc 3c a0 6d 29 3d 36 53 3f 3d 56 15 05 bc
       0.02300776 0.041364312 0.046710216 -0.008122763
000290 81 3b 01 bd 8f 4a f9 3c 39 c9 72 bd 90 0b ec 3a
       -0.031550888 0.03043106 -0.059273932 0.0018008817
0002a0 ce df 76 bd ef d3 04 3d e6 b9 19 bd 33 8c 86 3b
       -0.06027203 0.032428678 -0.037530802 0.0041060685
0002b0 92 0f 32 bd 8f 13 6a bd 8f 00 3e bd 6b 11 43 b9
       -0.04347188 -0.05714756 -0.04638725 -0.00018603138
0002c0 aa 99 b3 bc 64 27 5a bd 1f 78 a0 3c ba e0 fa 3c
       -0.021923859 -0.053260222 0.019588528 0.030624736
0002d0 82 70 58 bd 96 84 34 bd cc c5 4e bd 0a 00 09 3d
       -0.05284167 -0.044071756 -0.050481603 0.033447303
0002e0 5e dd 5b bd b2 91 08 3d 78 e7 55 bd ff 99 a2 3c
       -0.05367791 0.03334207 -0.0522227 0.019848822
0002f0 82 f5 4e 3d d5 f3 85 bd e3 13 2e bd 22 68 08 3d
       0.050527103 -0.06540648 -0.042499434 0.033302434
000300 2a fe 99 3c a1 49 45 3d d6 03 20 3d 26 74 f2 bc
       0.018797953 0.04816592 0.03906616 -0.0295964
000310 41 cc e5 3c ab 8a 68 3d 63 55 72 3d 65 cd 33 3d
       0.028051497 0.05677287 0.059163462 0.04389705
000320 58 5e b0 ba 15 b9 72 3d fa 98 1b bd a7 34 53 bd
       -0.0013455851 0.05925854 -0.037987687 -0.051563885
000330 0f 9b 4f bd bb bc ec 3c e4 31 0e 3d da fc 15 3d
       -0.050684985 0.028898587 0.03471555 0.03661809
000340 51 1e 2f 3d d4 79 60 3d 22 88 f2 bc 01 4c 4a 3c
       0.04275352 0.054803684 -0.029605929 0.012347222
000350 a6 85 1d 3d 1d b2 3e 3d fe 72 4c bd bf 77 c4 bc
       0.038457535 0.04655658 -0.049914353 -0.02398288
000360 6b 21 75 3c f9 45 40 3d 5e 5a 70 3d 49 39 52 3d
       0.014961581 0.04694173 0.05867993 0.051324163
000370 5c 9b 24 bd 33 e5 18 3b a2 ea cc 3b db ff 0c bd
       -0.040187225 0.0023329973 0.0062535563 -0.03442369
000380 32 57 87 bc c6 ea 13 bc a3 fe 39 3c 56 f7 0b bc
       -0.01652107 -0.009028142 0.011352214 -0.008542856
000390 70 42 79 bd ed 60 34 bd 67 5a 8d bc d4 ef c5 3c
       -0.060854375 -0.044037748 -0.017255021 0.02416221
0003a0 6e 4d 7a 3d fc 57 80 bd 3b 69 50 3d 32 a6 32 bc
       0.061109 -0.06266782 0.050881606 -0.010903882
0003b0 73 35 85 bd 6e 87 65 bd 46 3b d4 3c b8 6f 84 bd
       -0.06504335 -0.05603736 0.02590717 -0.06466621
0003c0 d9 5a 2f bd ad 1f 09 bd ad 60 1b 3d 7c 41 30 3d
       -0.04281125 -0.033477474 0.037933994 0.0430312
0003d0 33 3b a5 bd 6c a0 78 3c 82 5a aa bc a8 bd 07 3c
       -0.08067932 0.015174966 -0.02079511 0.008284964
0003e0 71 b4 9f bd 83 f9 38 bd 5f c7 80 bd aa 3b 15 39
       -0.07798088 -0.045159828 -0.06288027 0.00014231974
0003f0 86 4e 91 bc 76 9a f3 3c 3e c7 34 3d 5a 97 a9 bd
       -0.017737638 0.029736739 0.044135325 -0.08280821

conv2.bias f4 [32]
000000 5c e3 db 3d 95 42 a4 bc 06 32 81 bc f8 da 25 3d
       0.10736725 -0.02005128 -0.015770923 0.040492028
000010 b3 d4 ac bc 1e 8b 4d 3c 0d a8 13 bb 0b 1e 89 3d
       -0.021097517 0.012545375 -0.0022530586 0.06695183
000020 1b bd 37 bc 0a 26 52 3d 18 0a a9 3d 41 b9 f2 bb
       -0.01121452 0.051305808 0.08253878 -0.007407338
000030 7c 47 26 bc a7 07 00 bc e1 f5 c6 3d f3 4e fe bb
       -0.010148879 -0.007814324 0.097148664 -0.0077608763
000040 15 85 cd bc 1e 76 3b bc 58 9b c1 bb 7d ea 21 bc
       -0.025087873 -0.011441736 -0.005908411 -0.0098825665
000050 92 0f e5 3d 21 8b cc 3d 32 ea ce bb c3 df 96 bb
       0.111846104 0.09987474 -0.0063145394 -0.004604311
000060 37 4d 91 3d db 5c fe bb af cd d1 bc 18 1d 1d bc
       0.07094806 -0.007762534 -0.025610773 -0.009589456
000070 b6 16 fa 3b 88 44 5b bc 50 62 4e bb 95 d0 c6 bc
       0.007632102 -0.013383038 -0.0031491704 -0.024269382

fc.weight f4 [17, 7488]
000000 0c 8d 25 bd 0d 4f 91 ba e4 bf 52 bb c8 fd 16 39
       -0.040417716 -0.0011086181 -0.0032157833 0.00014399656
000010 12 f6 4d bd 47 ea 36 bc a8 d7 06 bc 89 61 93 bb
       -0.0502835 -0.0111642545 -0.008230127 -0.004497711
000020 68 0a a5 bc 5d b5 fa ba fc 95 1a bd 69 15 1e bd
       -0.020146564 -0.0019127537 -0.037740692 -0.038594637
000030 e0 e9 8a bc c3 04 2c bb d7 24 40 bd 1b 8c 91 bb
       -0.016957223 -0.0026247955 -0.046910133 -0.0044417507
000040 d5 64 1c bd de a4 7e bb 7e 1c 13 bc 03 7e 39 bd
       -0.0381821 -0.0038855593 -0.008978961 -0.04528619
000050 f1 b3 44 bc 87 ea 3d bd d9 be 65 3b 79 4a 1c bd
       -0.012005792 -0.04636624 0.003505638 -0.03815696
000060 9d f1 99 bc 4f fc 40 bb 14 c7 38 bd a4 eb f9 bc
       -0.018791968 -0.0029447263 -0.04511173 -0.03050787
000070 af ea cf 39 5f 80 b2 bb 09 fe 7d bc db 0b df bc
       0.0003965697 -0.005447432 -0.015502461 -0.027227333
000080 eb dc e9 bc cd 99 4e 3a ca 37 18 bd e0 af 94 bc
       -0.028547725 0.00078811945 -0.03716258 -0.01815027
000090 ed e0 fc bc a5 00 e8 bc 82 b2 d1 bc 71 b3 99 bc
       -0.030868972 -0.02832062 -0.025597814 -0.018762322
0000a0 a6 2f 12 bd c4 bd 1d bd 11 cf 5c ba ca 80 1d bd
       -0.035689972 -0.038511053 -0.0008423189 -0.0384529
0000b0 35 5a 11 bd e9 01 16 bb 12 e1 d8 bc f0 2d 3d bd
       -0.03548642 -0.0022889322 -0.02647451 -0.046186388
0000c0 51 d6 28 bc 26 d8 b4 bc a1 0f f9 bc 23 7d 36 bc
       -0.010305003 -0.022075724 -0.03040296 -0.011138233
0000d0 35 df a3 bc 9c 78 b1 ba d0 69 40 ba 05 f8 f8 bc
       -0.020003894 -0.0013539973 -0.0007339986 -0.030391702
0000e0 a2 90 45 bc 5c 56 52 bc 1c 02 71 bc 4c 41 23 bd
       -0.012058409 -0.0128379725 -0.014709976 -0.039857194
0000f0 ac a6 84 bc ec c4 3a bd a8 4c 19 bd a1 93 1b bd
       -0.016192757 -0.045597956 -0.03742662 -0.037982587
000100 a5 68 20 bd 0f 84 4b bd 59 45 f2 bc 21 a3 09 bd
       -0.039162297 -0.049686488 -0.029574083 -0.033602837
000110 71 56 bf bb cb 21 12 bd 6f 8c 0e bd ad 32 e1 bc
       -0.005839162 -0.03567676 -0.034801897 -0.027489984
000120 1b 24 ba bc 31 09 22 3a 4b 09 b6 bb b3 4d bf bc
       -0.022722295 0.0006181179 -0.005555307 -0.02335248
000130 f1 94 c2 bb 6f 55 39 bc 88 cd e0 bc d5 f9 aa bc
       -0.0059381654 -0.011311873 -0.027441755 -0.020871082
000140 16 0d 10 bd 5f 51 f6 bc 60 bd 48 bd 83 b2 45 bd
       -0.03516873 -0.030068098 -0.049008727 -0.048265945
000150 67 a5 4c bd 87 03 9a bb 60 fc 19 bd 6b e4 ab bc
       -0.049962427 -0.0047001275 -0.0375942 -0.020982942
000160 b9 17 29 3b c5 6c 2a bd 9f 14 37 bb 1c 64 1d bd
       0.0025801493 -0.041607637 -0.0027935875 -0.03842555
000170 06 0e 49 bc 05 7e 3f bd af 91 0e bd b3 0e 7a b9
       -0.01227141 -0.04675104 -0.034806903 -0.00023847334
000180 08 7c fe bc ea 96 db bb f4 4f 4b bc b5 bb 8e bc
       -0.031065002 -0.00670134 -0.012409199 -0.01742349
000190 8a 88 40 3b d2 f6 26 3a b3 83 4e bd b2 5d 83 bc
       0.0029378259 0.00063691766 -0.050418567 -0.016035888
0001a0 94 a3 f2 3a 00 b7 22 bd b4 fe 31 bc 7d 23 3a bd
       0.0018511885 -0.039725304 -0.010863949 -0.045444
0001b0 29 61 3c bd f2 45 ce bc e5 d4 4c bc 00 57 1d bd
       -0.045991097 -0.025179837 -0.01250193 -0.038413048
0001c0 5c c7 9f bc 6e 3f 0f bd 87 10 29 3b f1 93 0e bd
       -0.019504242 -0.0349726 0.0025797205 -0.034809057
0001d0 38 2b 2c bd 1d 57 a2 b8 f5 48 c6 ba 3d 2f 85 bc
       -0.042033404 -7.740988e-05 -0.0015127944 -0.016257877
0001e0 c6 34 1b bd 9e 18 16 bd ce fa 07 bd f8 fa 25 bd
       -0.037892126 -0.03664457 -0.03319817 -0.040522546
0001f0 f6 95 6f bb 99 b8 97 bc e0 51 79 bb 47 86 22 bd
       -0.003655789 -0.01852064 -0.0038043186 -0.039678838
000200 e4 23 3e bb 98 09 86 3b 04 41 e2 bb f7 61 90 bc
       -0.0029013092 0.004090499 -0.006904723 -0.017624838
000210 f6 e1 9e 3a 64 61 30 bd eb 17 3e bd 7d fd 92 bb
       0.0012121785 -0.04306163 -0.04640953 -0.0044857846
000220 4f a8 8e bc 63 03 f5 bc 39 ef a5 3a 4f 0a 3a bd
       -0.01741424 -0.029908841 0.0012659795 -0.045419987
000230 3a 7d 01 bd 76 60 c9 bc 32 6a c2 bb 8e 05 2f bd
       -0.031613566 -0.024582129 -0.0059330696 -0.042729907
000240 27 88 29 bd bb 89 a8 bc e0 70 e9 ba e0 ec 3d bd
       -0.04138961 -0.020573488 -0.0017810129 -0.04636848
000250 f5 d0 81 bc 65 83 0a bd 75 97 3f bc b7 71 01 bd
       -0.015846709 -0.033816714 -0.011693825 -0.031602588
000260 d7 c6 c1 bc 7d 9e 13 bd 06 5b 62 3b 31 66 e4 bb
       -0.023654385 -0.036039818 0.0034539117 -0.00697019
000270 c3 10 d4 bc d4 2d 85 3b 16 5b e8 bc 39 17 32 bc
       -0.025886899 0.004064301 -0.028363746 -0.0108697945
000280 32 57 2f bd 53 88 2c 3a a7 6c 21 bc ab f4 b9 bc
       -0.042807765 0.0006581593 -0.009852565 -0.022699675
000290 62 57 25 bc 4e 46 fe bc 62 e4 84 bc 2b e2 44 bd
       -0.0100916345 -0.031039383 -0.016222183 -0.048067253
0002a0 db 48 40 bc 8b d7 ea 3a 7c 2d 25 ba 11 bb 58 bc
       -0.01173612 0.001791702 -0.0006301028 -0.013228194
0002b0 d4 f8 32 bd 97 a7 36 bd 90 73 28 bd 98 c4 c4 bb
       -0.043694332 -0.04459342 -0.041125834 -0.006004881
0002c0 31 09 ec bc 44 37 d2 bb f3 50 19 bd 34 42 e1 bb
       -0.028812977 -0.0064152796 -0.037430715 -0.006874347
0002d0 02 08 cc bc 40 b5 a4 bc b5 f5 e9 bb fb 37 2e 3a
       -0.024906162 -0.020105958 -0.0071398863 0.0006645915
0002e0 52 b7 e8 bc d8 95 9b 3a 58 ec 10 bc 1e 4a db bc
       -0.028407726 0.0011870218 -0.008845411 -0.02676874
0002f0 a2 27 ba bc ef cc 32 bc 89 d8 f4 bc 58 07 04 bd
       -0.022723977 -0.010913118 -0.029888408 -0.032233566
000300 eb 39 81 bb 14 2a 44 bd 1d 5e 17 bc 24 e5 0d bd
       -0.003943672 -0.04789169 -0.009238747 -0.034642354
000310 59 06 fa bc 81 95 3f bd 97 6f 1d bd 48 0c 24 bd
       -0.030520605 -0.046773437 -0.0384365 -0.040050775
000320 67 0b 3d bd e2 e2 3a bd 51 50 8e bc 04 b1 3d bd
       -0.046153452 -0.04562653 -0.017372282 -0.046311393
000330 d2 55 23 bd b4 8f e6 bc 4d 1e 16 bd 18 68 b9 bc
       -0.039876767 -0.028144695 -0.03664999 -0.022632644
000340 3a 99 31 bd cf 16 29 bd 05 1d d3 bc 80 93 8c bc
       -0.04335902 -0.041281518 -0.025770674 -0.017160177
000350 fa d5 27 bd 06 07 d0 bc f1 b3 1f bd 79 a4 05 bd
       -0.04097555 -0.025393974 -0.038989965 -0.032627556
000360 62 95 20 bd 81 c5 a0 bc 41 3d 97 bc 74 ce 04 bb
       -0.039204963 -0.019625427 -0.018461825 -0.0020264657
000370 76 0a 39 bd e9 c3 cf bc 5f e9 d1 bc 67 a1 d0 3b
       -0.045175992 -0.025361972 -0.025623975 0.006366897
000380 67 bd 01 bd d1 44 21 3c 6c eb d2 3b 63 d4 06 bd
       -0.03167477 0.009843067 0.006436756 -0.03291739
000390 75 2e 30 ba ba 32 e9 bb ac 16 56 bb 58 1e 97 bb
       -0.000672079 -0.007116643 -0.0032667322 -0.0046117716
0003a0 a1 04 73 bc bd f1 56 3c 21 16 c2 3a 32 b2 09 bc
       -0.014832647 0.013119158 0.001480762 -0.0084043015
0003b0 6c 7e ec 3b 99 42 a5 bc 1a a7 56 3c aa 09 8e bc
       0.007217219 -0.020173358 0.013101364 -0.017338593
0003c0 7a 28 cc 3c f3 0e a0 bb 9e 43 fb ba 27 a5 7b 3c
       0.024921644 -0.0048845946 -0.0019169932 0.0153592
0003d0 8d 56 85 3b 40 b3 09 bc 29 6f a2 bc 12 aa 2c 3c
       0.0040691555 -0.008404553 -0.019828396 0.010538595
0003e0 ae 61 4d 3c 73 25 80 bc ff 4d d0 3c 46 ab de bb
       0.012535496 -0.015642857 0.025427816 -0.0067953197
0003f0 28 8b d6 bc ac 23 2f 3c be 2a bb bc 27 c7 c8 bc
       -0.026189402 0.010689657 -0.02284753 -0.024509026

fc.bias f4 [17]
000000 c2 89 23 be 88 53 cc bc f4 94 8c 3c 64 2c 92 bc
       -0.15970519 -0.024942175 0.01716087 -0.017843433
000010 60 61 21 bd 73 bd 34 ba 26 69 8f 3c df 95 55 3c
       -0.039399505 -0.0006894685 0.017506193 0.01303622
000020 ac 94 35 3e 9b 0e 96 3d 9e d2 aa 3c 64 6a 1a bd
       0.17732495 0.073270045 0.020852383 -0.03769912
000030 4c 31 51 bc 79 d2 33 bd ee 3d 61 bd 5b 87 de 3d
       -0.012768101 -0.043901894 -0.0549907 0.10865661
000040 c1 e9 12 bd
       -0.035867456
