checkpoints/li_et_al/Salinas_PCA_30/2024_04_21_04_23_11_epoch1_0.88.pth (torch, 571768 bytes, 6 tensors)

conv1.weight f4 [16, 1, 7, 3, 3]
00000000: 10eb 12bd 556e 813b 8e8c db3b 61b3 ac3c
00000010: 43dd 9f3d 937b 503c a8ab 11bd 5ade 5bbd
00000020: 5cbb 163d 3ecc 953e 1fc2 603e b892 653e
00000030: c4b7 963e 332c a03e 8068 6b3e 92ef 9c3e
00000040: df10 953e d35c 8d3e b8dc 2abe 4f30 4abe
00000050: 10cf 04be d7c9 3cbe 5c58 36be aea4 d2bd
00000060: 84a7 0fbe d24c 09be 5920 34be 308b 00bd
00000070: 73f7 32bc 0520 733c c08f 873c 261e 4b3d
00000080: 3a62 babc 4652 51bd ec30 f93c 2a6b 243d
00000090: b93f 973d 07a7 833c ad9e c73c b65f 323c
000000a0: 2147 83bc 54b9 edbc 4ca3 013d 8cea 47bc
000000b0: 545d 7ebd 5967 013d 5e16 aabc 3d09 583d
000000c0: f89d bb3c 8a0a 12bc 36bd 843d e6b3 28bd
000000d0: 199a 2c3c 05ea 6cbd c2e4 183d c391 b73c
000000e0: 00c0 633c 1736 11bd 3dbe cfbc 667c 223c
000000f0: 03d2 8dbd 52fa a6bc 4b39 b5bc 22bc 313f
00000100: fcef 283f 4a20 0e3f 74f9 223f 2a17 253f
00000110: 479a 223f 591c 183f 5fa5 293f e4e8 203f
00000120: 3012 44be ce4f 51be 9137 b9bd a571 e8bd
00000130: 20ea c3bd 1c78 40be 31f5 08be 6296 2fbe
00000140: 777b 17be 4262 f5bd f57e 2bbe 5ebd 08be
00000150: cbbb 0dbd fa0b d2bd aa4b fabd 9685 1cbe
00000160: dfab 02bd 3b07 22be c3c8 6fbd 2ca4 033c
00000170: 22a2 28bd 3400 943d 6410 573d 8ba4 9b3d
00000180: 6b9b e4bb f47e 50bd e38c 4dbd c8e0 5fbd
00000190: 75d2 4f3d 539b 4abd 9101 233a 07fb d03c
000001a0: 7c99 46bd ef95 e8bc c2d0 17bd 23db 67bb
000001b0: a4ca e4bd 2d0a c0bd 6885 99bc f8d1 78bd
000001c0: b8ad f0bc 5c06 afbc 8cc7 31bd 0e0b babb
000001d0: 1d97 f6bd 4f81 783d fa15 edbc 5625 8cbd
000001e0: bc1a 92bd 4391 74bd a1ab 983c 2865 623d
000001f0: 3df9 d23c 9e04 99bd 904b f43d 3813 183e
00000200: 68f2 093e e90e 9f3d da03 a83d e49e 363c
00000210: 990c ef3d df20 093e 3078 963c 778c a43d
00000220: 0b89 4f3c cfb6 8abb 2963 833c 55d4 543d
00000230: 1b90 6ebb 8e6f 13bd 1593 c5bc 58e7 d0bb
00000240: cdb2 c5bd 0d77 a9bd c692 b3bd 0731 9bbd
00000250: 02c6 f5bd b2d0 f9bd 92ff 79bd bc45 dcbd
00000260: 0f7c e2bd f3ac 643c e43d 613d d3cc 12bd
00000270: c22e 75bc 34eb 50bb 8f1a 8ebc 51ef 66bc
00000280: 2578 973c 9788 a83c 4eab e93c e38d 473d
00000290: 74b0 1d3d 7326 dbbb 0cc5 a6bc ae42 4b3c
000002a0: 951c f7bb 1df2 603d b3a8 843d d1ac 3c3b
000002b0: 45c7 383b 3cb5 213d eaca 603c 4893 763c
000002c0: 9ad8 4bbd f7d8 d73c 306b 84bd ec50 39bc
000002d0: 2ef9 163b 144c f5bc 17e4 2d3c f8b3 023d
000002e0: 7218 24bc 6811 d53c cc35 5bbd 6479 f5bb
000002f0: f07d b6bc ec51 ba3e c3f8 af3e 8f02 ab3e
00000300: eedf 993e 8949 b13e 5072 443e 0bc2 973e
00000310: 4482 5e3e 1462 8a3e 6a48 9dbc fad5 9b3c
00000320: fbdc a7bd cc84 fdbd 5c0e 02bd d7a5 08bd
00000330: d92f 35bd d03c a9bc a111 01be 23a4 94bd
00000340: 2974 04be 0238 e5bd 490e 50be 4382 0dbe
00000350: 8007 1bbe 987d f5bd b7ec 90bd 3c8f 16be
00000360: 9285 7dbd 408f ecbd 718d e3bd f6ea 2fbc
00000370: a7f5 9bbd 28db 88bd b20e 8abd 07d9 06bd
00000380: 19a2 83bc e7e9 44bd aa5a 2ebc 19e5 98bd
00000390: 1dbf 0abe 3dcd f0bd f7e7 4cbd b04a abbc
000003a0: a50b 54bd e54d 74bd 3eeb 0abe 8cf9 dcbd
000003b0: 3bf8 f8bd 99a9 dcbd cee4 e4bd a50f 28be
000003c0: 7c30 9cbd 1f3d 17bd 3bb1 25be 6090 a7bd
000003d0: 5f47 e8bb 4c5b 0fbd eba0 9dbd 7585 02bd
000003e0: 78e0 91bd e147 9fbc 2ac6 0abe 28ab 03be
000003f0: 9216 82bd fda5 113d aa84 703d 317e b53b
-0.035868704 0.00394992 0.006700105 0.021081628 0.07805874 0.012724775 -0.035564095 -0.053678848
0.036799774 0.29257387 0.21949051 0.2241925 0.29437077 0.3128372 0.22989082 0.30651528
0.29114434 0.27609882 -0.1668576 -0.19744991 -0.12969613 -0.18436371 -0.17807144 -0.102853164
-0.14028746 -0.13408211 -0.17590465 -0.03138274 -0.010923254 0.014839177 0.016548038 0.0495893
-0.022751916 -0.051103853 0.030418836 0.040141262 0.07385201 0.016070856 0.024367655 0.010887077
-0.016025128 -0.029019035 0.031649873 -0.012201916 -0.062100723 0.0315927 -0.020762619 0.052743185
0.022902474 -0.0089136455 0.064814016 -0.04118719 0.010534787 -0.057840366 0.037327535 0.022408372
0.013900757 -0.035451975 -0.025359267 0.009917354 -0.06924822 -0.020383034 -0.022122046 0.6942769
0.6599119 0.5551802 0.63661885 0.6448847 0.6351666 0.59418255 0.6626796 0.6285536
-0.19147563 -0.204406 -0.090438016 -0.11349801 -0.0956614 -0.18795818 -0.13374783 -0.1714721
-0.14793192 -0.11981632 -0.16747649 -0.13353488 -0.03460292 -0.102561906 -0.12221463 -0.15285334
-0.03190219 -0.1582307 -0.05854107 0.008034747 -0.041170247 0.07226601 0.052505866 0.075997435
-0.006976535 -0.050902322 -0.05018319 -0.054657727 0.050737817 -0.049464535 0.000621819 0.025510324
-0.048486218 -0.028391806 -0.03706432 -0.0035378418 -0.11171463 -0.09376941 -0.01874037 -0.060747117
-0.02937971 -0.021365337 -0.043403193 -0.0056775874 -0.12040541 0.060670193 -0.028941143 -0.06843059
-0.071340054 -0.059708845 0.018636527 0.05527225 0.025753612 -0.07471584 0.11928475 0.14851081
0.13471377 0.07766516 0.082038596 0.011146281 0.11672325 0.13391446 0.018367857 0.08034604
0.012666951 -0.0042332183 0.016038494 0.051960308 -0.0036401812 -0.03599506 -0.024117986 -0.0063752346
-0.09653244 -0.0827466 -0.08768229 -0.075777106 -0.120006576 -0.121980086 -0.061034746 -0.10755488
-0.110588185 0.01395725 0.054990664 -0.035839867 -0.014964761 -0.0031878473 -0.017346648 -0.014095143
0.018489907 0.020572944 0.028524067 0.048719298 0.038498357 -0.006687933 -0.020357631 0.012406034
-0.007541249 0.054918397 0.06477489 0.002878953 0.0028194946 0.03947948 0.0137202535 0.015049763
-0.049767114 0.026348574 -0.06465757 -0.011310797 0.0023036706 -0.029943503 0.010613463 0.031909913
-0.010015594 0.026009277 -0.0535181 -0.0074912775 -0.022276849 0.36390626 0.34369478 0.3340039
0.30053657 0.34626415 0.19184232 0.2964023 0.2172938 0.27027953 -0.019199569 0.01902293
-0.081964456 -0.123788446 -0.031751975 -0.033361282 -0.044235084 -0.02065888 -0.12604381 -0.07257869
-0.12934937 -0.11192323 -0.2031795 -0.13819222 -0.1513958 -0.11986846 -0.070764 -0.14703077
-0.06189496 -0.1155076 -0.11110962 -0.010737171 -0.07615214 -0.06682426 -0.06741084 -0.032921817
-0.016068505 -0.04807463 -0.010641733 -0.07465572 -0.13549466 -0.11757896 -0.050025906 -0.020909637
-0.051768918 -0.0596446 -0.135663 -0.10789785 -0.12156721 -0.10774536 -0.111764535 -0.16412218
-0.07626435 -0.036923524 -0.1618089 -0.08181834 -0.007088586 -0.034999177 -0.07696708 -0.031865556
-0.07122892 -0.019443454 -0.13552156 -0.1285826 -0.06351961 0.03555869 0.05872027 0.005538725

conv1.bias f4 [16]
00000000: 66e1 32bd dcc7 18be b3bc 0ebc 55f7 aabe
00000010: 0000 0000 7dd2 f6bb 83d6 a2be 1120 2ebd
00000020: 5cdc 1a3e eee5 6e3e d1b6 b5bd 0000 0000
00000030: 6937 e3bc 6996 1bbe faee a6be 0000 0000
-0.043671988 -0.1491999 -0.008711982 -0.33391824 0.0 -0.0075324164 -0.31804284 -0.04251105
0.15123123 0.23329899 -0.0887276 0.0 -0.027736383 -0.15194096 -0.326042 0.0

conv2.weight f4 [32, 16, 3, 3, 3]
00000000: 07a3 e83c 0598 25bd 665d 7bbd cb72 5c3d
00000010: c9d3 53bc d434 753d b743 a1bc 2f33 ddba
00000020: bf74 b93c b4ac 59bc 09e2 88bd 054e 293d
00000030: dba4 c2bc 781d 613b b553 b63c 1aa7 5dbd
00000040: 3b0d 223d a735 9dbc 332f 7bbd 06a5 ffbb
00000050: 17b6 6f3d 10cb 6c3d 7230 373c 6bf0 ee3b
00000060: 30e6 36bd b2f7 44ba c5f0 243d 9178 36bd
00000070: 740a 083d 511b 01bd 80d8 c33a f995 a43c
00000080: 889c d13c c3ea 1fbd 44f1 5d3d 2c96 533c
00000090: d5da 84bd f994 76bd 906a 63bd 47a0 813d
000000a0: e65b febc 9604 fa3c 24c9 563d 9f4f 2fbd
000000b0: 0ecc 103d 95f7 98bc f93e d2bc 558b 75bd
000000c0: fd0b 8cbc fba0 633d 3366 3ebc 9041 cabc
000000d0: 3b43 273d 60ec 69bd 2055 4f3d 36d0 87bc
000000e0: a599 2a3d 3fbf 0abc 3c31 1f3d c913 0cbd
000000f0: 4864 5ebc a74c 07bd 3c28 e1bc bf31 dcbc
00000100: d0ec 583c 1bbe 633c 0ed3 f5bc 0809 603c
00000110: 46c7 3bbd d792 6abc 6ee5 37bd b832 39bd
00000120: c417 1b3d 90d9 223c 93c9 6a3d 5e02 dc3b
00000130: d0ce 533b 880f 72bc 1a49 55bd c2ea a8bc
00000140: 9965 fe3c 080e 9f3c ac39 4dbc 45f4 8abd
00000150: 5dc7 fc3c e4a4 6ebd 7550 14bd 5d70 04bc
00000160: a94a 2a3c b6cc b63c 5e62 663d 96cc 133c
00000170: 8989 f83a f123 39bd 2285 16bd eec3 42bd
00000180: a588 7f3d 561e 023d 73bb 793c 85a5 043d
00000190: cd6a debc fcd5 333d 2c72 51bc 4faf e13b
000001a0: 1c86 833d 71c0 763c 511a 10bd 6631 42bd
000001b0: 6086 5d3d ebf9 35bd fb3d b73c 1c31 f6bc
000001c0: 07a3 003d 3bde aaba 2d26 c13c bd59 7bbd
000001d0: 6353 583d 8790 96bc 2268 0abc a198 58bd
000001e0: 9df3 0ebd d297 9a3c e150 f2bc efab 85bd
000001f0: 17d0 c1ba 2bf7 ff39 54cb fcbc 6410 e3bc
00000200: 0b35 0abd c6d4 a9bc 6626 6f3d 7baf f53c
00000210: 66c5 1dbd 5f57 663b 233b e7ba f092 56bd
00000220: dbc3 85b9 b1db 01bd 034f 87bd 10eb 5dbd
00000230: 8077 19bc 84bf 6d3d fd28 bfbc cfea 3fb9
00000240: 6acc 26bd 96fe c13b ba47 83ba 589d 9b3b
00000250: 6896 6ebd e475 733d 07d9 113d 9213 173c
00000260: 65fc f7bc 0371 4d3d 784a 2b3d 8a34 243d
00000270: 19e5 2b3d 95db ac3c ea5a 04bc 6d52 8dbc
00000280: ad77 1abd c1da ddbb 36d8 2c3c 098c 68bd
00000290: c99a d1bc fbf3 a53c 2c44 b7bc 35ce c93c
000002a0: e2f4 afbc 9434 703d 8d10 663d d9b2 d7bc
000002b0: 1cee 05bc 7713 4dbd 0ca3 773d aff4 1bbd
000002c0: a729 12bc f13c 143d 1aed 783d ed01 85bd
000002d0: e6f4 2d3d 7f0f 063d 8172 1c3c 4543 61bd
000002e0: ef9e 5d3d 61ed 1d3d ec7c 253d 978a c3bc
000002f0: cffb 1a3d 6ea6 83bd 0afb fa3b fd82 32bd
00000300: 46e9 ff3b 2006 083c 7759 863c c8c1 923c
00000310: e423 3a3d 66dc 65bc 9816 733d 139f 1d3d
00000320: 19ca 953b 4e75 84bd bda0 0a3d 3fc7 6b3c
00000330: 76d2 78bd a87b 1bbc 816a d8bc a271 26bd
00000340: 89b1 f73c 5723 673d c2ab 49bd cedf 26bd
00000350: 1e54 afbc f708 803d dfc8 3d3d 9938 80bd
00000360: 5c57 813d 1447 b13c 48cd c8bc 10d8 463d
00000370: 5927 1fbd 07c6 77bd e78d 68bd b6e8 5fbd
00000380: eabf 09bd 20a0 2cbd 0306 82bd 6a60 313c
00000390: d12c 503d 0bcc 1eba 8a69 9fbc 77b4 a33b
000003a0: a381 c1bc 20f0 973c 8ddd 61bc a1a9 833d
000003b0: 70e7 793b a21e 45bd 664c 793d ded1 7fbd
000003c0: f6c9 47bd a8bd efbc edd3 693d 4dcb 07bc
000003d0: 9fa1 2abd d83e 823d d504 fa3b 268c 96bb
000003e0: fead 183d 9b2a 87bd 1880 c73c 5db9 bbbc
000003f0: 2c72 253c 3ea6 3bbc ef7e b8bc 4c12 f63c
0.02839805 -0.04042818 -0.06136837 0.053820413 -0.0129289115 0.059864834 -0.01968561 -0.0016876216
0.022638677 -0.013285805 -0.06683738 0.04133417 -0.02376025 0.003434984 0.022256711 -0.05411444
0.0395634 -0.019190622 -0.06132431 -0.0078016547 0.058523264 0.057810843 0.011180984 0.0072918436
-0.044653118 -0.0007513716 0.04026868 -0.044548575 0.033213094 -0.03152019 0.0014941841 0.020091044
0.025587335 -0.039042246 0.054185167 0.012914222 -0.064870514 -0.060200665 -0.055521548 0.063293986
-0.03104968 0.030519765 0.052437916 -0.042800542 0.03535085 -0.018672744 -0.025664793 -0.05994733
-0.01709556 0.055573445 -0.011621046 -0.024689466 0.0408356 -0.05711019 0.05061829 -0.016578775
0.041650433 -0.008468448 0.038865313 -0.034198556 -0.013573714 -0.033032086 -0.027485006 -0.02687919
0.013240054 0.013900305 -0.030007865 0.013674028 -0.04584434 -0.014317236 -0.044896536 -0.045214385
0.03786446 0.009939566 0.057321142 0.0067141494 0.0032319315 -0.014774211 -0.05207167 -0.020619754
0.031054305 0.01941587 -0.012525957 -0.06784872 0.030856783 -0.05826272 -0.036209542 -0.00808343
0.010393777 0.02231441 0.056246154 0.009020945 0.0018961887 -0.045200292 -0.03674806 -0.047550134
0.062386174 0.03176721 0.015242445 0.032384414 -0.027150536 0.043905243 -0.012783568 0.0068873535
0.06422064 0.01506053 -0.035181347 -0.04741039 0.054083228 -0.044427793 0.022368422 -0.030052714
0.031405475 -0.00130362 0.023577774 -0.061364878 0.0528139 -0.018379463 -0.008447679 -0.052879933
-0.034900296 0.018871222 -0.029579582 -0.06526934 -0.0014786747 0.00048821545 -0.030858673 -0.027717777
-0.033741992 -0.020731341 0.05838623 0.029990902 -0.038518332 0.0035147292 -0.0017641525 -0.052386224
-0.0002551366 -0.031703655 -0.06606867 -0.05417925 -0.00936687 0.05804397 -0.023334974 -0.00018302652
-0.04072229 0.0059202416 -0.0010015883 0.0047489814 -0.058248907 0.0594386 0.035607364 0.0092209745
-0.030271718 0.050156604 0.041819066 0.040089168 0.04196653 0.021100799 -0.008078316 -0.017251218
-0.037711788 -0.0067704623 0.010549596 -0.056774173 -0.025586503 0.02025794 -0.022371374 0.02463446
-0.021479074 0.058643892 0.056168128 -0.026330398 -0.0081744455 -0.05006739 0.060458228 -0.038075145
-0.0089210635 0.03619093 0.060772993 -0.06494508 0.04246988 0.032729622 0.009548784 -0.054995794
0.05410665 0.03855646 0.040402338 -0.023869796 0.0378378 -0.06428228 0.0076593207 -0.04358195
0.007809791 0.008302242 0.016400082 0.017914668 0.045444384 -0.014029598 0.05934772 0.038481783
0.004571211 -0.064676866 0.0338447 0.014390766 -0.060747586 -0.009489931 -0.026417973 -0.040635712
0.030236023 0.056430187 -0.049236067 -0.04074078 -0.021402415 0.0625171 0.046334144 -0.06260795
0.063154906 0.021640338 -0.024511948 0.048545897 -0.038855884 -0.060491588 -0.056775954 -0.05466529
-0.03363029 -0.042144895 -0.06348803 0.01082621 0.05082399 -0.00060576265 -0.019459505 0.0049958783
-0.023621386 0.018547118 -0.013785732 0.064288385 0.0038132332 -0.048124917 0.060863875 -0.062456004
-0.04877659 -0.02926524 0.057086874 -0.008288217 -0.04165804 0.06359643 0.0076299706 -0.0045943437
0.037275307 -0.06599923 0.024353072 -0.022915537 0.0100980215 -0.011453209 -0.022521464 0.030038022

conv2.bias f4 [32]
00000000: bd0c 3ebc a19e 843c bc89 bdbc 9d91 1f3c
00000010: bd76 21bc 2887 143e 05e7 90be 42f5 bbbb
00000020: 0547 ca3a 1e76 08bd e991 443b a05a c33a
00000030: a637 3cbd fce6 9bbd 2d05 fa3d d85a 9f3c
00000040: f946 a0bc 9641 453d 78c6 4fbe 3a2b 8cbb
00000050: e01b 26bc 430a 1a3e f9e7 5b3b f336 ee3c
00000060: dba2 603e d2ba 443d 0000 0000 02cf 23bc
00000070: 42ab e13c 45a6 61bd 10fd d6bc 8453 12be
-0.011599717 0.016188921 -0.023136966 0.009739307 -0.00985497 0.14504683 -0.28301254 -0.005736024
0.0015432542 -0.03331577 0.0029994196 0.0014904328 -0.045951508 -0.07612416 0.122080185 0.019452497
-0.019565092 0.04815825 -0.20290554 -0.004277614 -0.010138482 0.15042977 0.0033555015 0.029078936
0.21937124 0.04802973 0.0 -0.009998085 0.027547482 -0.055090208 -0.026243716 -0.14289671

fc.weight f4 [17, 7488]
00000000: 4694 36bc 812c 393c ce5c b8bc c502 843c
00000010: c6fe c93c 991d ce3c 1101 95bc 8e5f 793c
00000020: 5d1d d0bc 67a9 d0bc f9cf b7bc 6c58 3e3c
00000030: e2ac 52bc 7a57 c4bc 7a35 d5bc dac1 a9bc
00000040: 5e96 a43c e7c7 c9bc 5d63 c93b 3c6f 893c
00000050: ad55 3fbb 5432 05bc a7dd acba bde1 85bb
00000060: 1098 bfbc df68 9ebc 09f4 923c eb6f 4c3c
00000070: 5e38 9ebc 1130 49bc caea a6bc edba 8abc
00000080: 0fbe a1bc e5d1 1dbc 35af 963c 3601 7f3c
00000090: 7de2 f93b 7741 68bc 19b2 cbbc 7480 b3bc
000000a0: 4768 903c 7f02 ea3b 9e75 1fbb 678f b63c
000000b0: 57c4 debc 8283 85bc bfdf 3ebc e974 563c
000000c0: e2d7 b83c 488a 42bc f6da c53c 9370 323a
000000d0: 34b9 743c e736 76bc dad5 65bc d5ec 013b
000000e0: 0ffa 7b3b ea17 383c 1f08 283c abdc 373c
000000f0: 8b7a 8fbc 14e3 9f3c ad66 dbbc b6e6 963c
00000100: 56a3 c13c 2d10 87bb 62f3 b83c c96e 9e3c
00000110: 033c a43c 49f7 96bc 9aaa b4bc 1b92 a3bb
00000120: cfc5 a33a 20de 643c 847a 4fbc 70a8 d03c
00000130: e442 0dbc 19eb 8c3b 82c1 eb3b f725 bcbc
00000140: 7f46 293c befd 67bc 2f7c dabc d718 9ebc
00000150: b306 653c b7a8 d73c a9fd f2bb 8e2d ad3b
00000160: 29ea 153c 5daf 493c 4297 293c a728 883c
00000170: a7ae 0b3c de19 00bb ed65 c43c 398a a63c
00000180: 32fd ab3b a671 c9bc ca0d 303c f61e a13c
00000190: f3c9 383c 4437 07bc 509f 5ebc d2bc bebc
000001a0: 066c 663c e827 973c 6135 883c 5781 d13b
000001b0: ec63 00b9 4cfd 7dbb 9794 75bc aea9 47bc
000001c0: d2b5 debc 7641 b8bc 0c0f cd3c 6ba4 16bb
000001d0: 9c8d 9f3c 2054 8bbc d117 713b 7f11 f93b
000001e0: 32e0 3e3c 3663 453c 8d31 debc e20f 833c
000001f0: d2ad 7e39 4f7e 9abc 7a8d eb3b b500 863c
00000200: b94e 2338 3bb1 6b3b 61ff 2ebb c1d0 713c
00000210: 8742 cdbc 1be5 6e3c bc78 dd3c a7d8 8fbc
00000220: 7861 253c 3445 be3c ada0 7a3c 1484 c1bc
00000230: 6018 1cbc 8d31 4e3c 8f20 dd3c 7cd0 4b3c
00000240: 867e 4a3c f50d 4abc d7a5 64bc 1bf1 e3bb
00000250: 92fb 9e3c 1e7e 36bc e2cc f73b afb1 b63c
00000260: 512e e13c e31d c7bc c82e 05ba 37b1 b5bb
00000270: 174c 20bc d1de 47bc 7e63 93bc 3ad9 b0bc
00000280: 1ad3 3d3b d0be c0bc cb4a e5bb 20d3 88bc
00000290: c4e8 9c3c e47c 193c 8bf0 c8bc 0d7e b93b
000002a0: f595 933b 99e3 a03a 4acd 3fbc bc85 5e3c
000002b0: 76e8 86bc 5e0d dbbc ea65 b03c 3c1f 623c
000002c0: 0e51 c03c 4769 dabc 4edd f93b 72c3 4ebc
000002d0: 5fc9 9bbb 7079 b73b 96f8 a5bc 80b3 5ebb
000002e0: 5616 a83c 23a4 c13c d3bc 273c 5531 f53b
000002f0: 0d4b a03c c26d 9f3c cecd de3b ff4f 7b3c
00000300: 13c7 2dbc 57d3 8dbc 16cd 59bb 1be8 c3bc
00000310: 5488 f2ba f60c b8bc d2d6 96bb 948e c83c
00000320: 1ad7 b93b 9188 3ebc 90c3 7b3c 9123 1bbc
00000330: 2471 cb3b acbd a73c bf09 9f3c cf26 843c
00000340: 18de a53c 9cdc 31bb d252 35bc c821 c7bc
00000350: 841d 84bc bd8a bebc 9fca cdbc 6893 26bc
00000360: 5328 7bba 9400 b73c 1add 3e3c 20c6 dbbc
00000370: d5d1 d23c f6cf 183c ff3e 653b 2c53 bdbb
00000380: 1f88 3abc a8fa 643b 7381 93bc c72c 01bc
00000390: d328 963c b644 3cbc 0e94 dbbc 1e0d 2d3c
000003a0: 1ba7 ad3c bcc1 81bc 1270 8c3c 333b 583b
000003b0: ad48 07bb 9f76 1dbc 2906 493c 6908 c73c
000003c0: 393d c03c e168 413b 8abc ddbc d9b1 4cbb
000003d0: 2e47 0abc 8452 c83c aa3a b2bc 4498 723b
000003e0: 2b37 a9bb c058 8bbc de88 a73c f6f2 a73b
000003f0: 511c 89bb 32f4 babb 3fe7 d8bc 2c89 b03c
-0.01114375 0.011302114 -0.02250519 0.016114602 0.024657618 0.025160598 -0.018188985 0.015220536
-0.025404627 -0.025471402 -0.022438036 0.011617761 -0.012858601 -0.023967493 -0.026026476 -0.020722318
0.020091232 -0.024631454 0.006145878 0.016776673 -0.0029195354 -0.008129675 -0.0013188616 -0.004085748
-0.023387939 -0.019337116 0.01793863 0.012477855 -0.019313987 -0.012279526 -0.020375628 -0.016934836
-0.019743947 -0.009632562 0.018394092 0.015564254 0.0076258765 -0.014175764 -0.024865197 -0.021911837
0.017627848 0.007141411 -0.002433158 0.022285176 -0.027193232 -0.01629806 -0.011650025 0.013089397
0.022563878 -0.011873789 0.02415226 0.0006806936 0.014936734 -0.015027738 -0.014028037 0.0019825
0.0038448607 0.01123617 0.0102558425 0.011222045 -0.017514488 0.019517459 -0.026782358 0.018420558
0.023637455 -0.0041218014 0.022576991 0.019339936 0.020048147 -0.018428462 -0.022054005 -0.0049917824
0.0012494865 0.013968974 -0.012663487 0.025470942 -0.008621905 0.0043004868 0.007194699 -0.022967322
0.010331749 -0.014159618 -0.026670543 -0.019298954 0.013978648 0.026325567 -0.0074154926 0.0052849716
0.009150066 0.012309876 0.010351004 0.016620947 0.008525527 -0.0019546668 0.023974383 0.020329582
0.005248689 -0.024590325 0.010745475 0.019668084 0.011278617 -0.008252922 -0.013587788 -0.023283396
0.014063841 0.018451646 0.016627016 0.0063935923 -0.00012244255 -0.0038755713 -0.01498904 -0.012186451
-0.027186308 -0.022492152 0.025031589 -0.0022986184 0.019476704 -0.017007887 0.0036787877 0.0076009627
0.011650132 0.0120475795 -0.027123237 0.015998784 0.00024288081 -0.018859057 0.007188496 0.016357759
3.8935545e-05 0.0035963792 -0.002670251 0.0147592435 -0.025056137 0.01458099 0.02703511 -0.017559363
0.010094039 0.023226358 0.015297097 -0.02362255 -0.009527296 0.012585056 0.026993064 0.012439843
0.012359267 -0.012332429 -0.013955555 -0.0069562322 0.019407067 -0.011138467 0.0075622657 0.022301523
0.027487906 -0.024306243 -0.00050805183 -0.0055448073 -0.009783766 -0.01219912 -0.017991778 -0.021587957
0.0028964938 -0.023528486 -0.0069974414 -0.016702235 0.01915396 0.009368155 -0.024528762 0.0056607784
0.0045039603 0.0012274861 -0.01170666 0.013581689 -0.016468268 -0.026739772 0.021532971 0.013801392
0.02347615 -0.026661528 0.0076252585 -0.01261984 -0.00475423 0.0055991933 -0.020260137 -0.0033981502
0.020518463 0.023637837 0.01023789 0.0074826875 0.019567037 0.019461516 0.006799436 0.015338897
-0.010606545 -0.017312689 -0.0033233813 -0.023914387 -0.0018503764 -0.022467118 -0.0046032453 0.024482049
0.005671394 -0.01162924 0.01536645 -0.009468929 0.006208556 0.020476185 0.019413827 0.016131787
0.020247504 -0.002713955 -0.011067109 -0.0243081 -0.016127355 -0.023259515 -0.025121031 -0.01016698
-0.0009580899 0.022339143 0.011649394 -0.026827872 0.025734821 0.0093269255 0.0034980176 -0.005777737
-0.011384993 0.0034939442 -0.018006062 -0.007884211 0.018330013 -0.011490991 -0.026803996 0.010562209
0.021197846 -0.01583945 0.017143283 0.003299427 -0.0020642683 -0.009610801 0.012269535 0.024296002
0.023466693 0.0029511976 -0.027067441 -0.0031233935 -0.008439822 0.024453409 -0.021756489 0.0037017027
-0.0051640472 -0.017010093 0.020451006 0.0051253987 -0.004184284 -0.00570538 -0.026477454 0.021549784

fc.bias f4 [17]
00000000: 1154 fbbd 159f cfbd 69d3 14bd 242f b33c
00000010: 0fc2 4a3d a11d a73c 5ce5 52bc 8c91 f3bc
00000020: e7e3 113d deb1 90bc c753 153d 614a f6bb
00000030: ddca 763d 3532 433d 53ab 85bc 9968 853d
00000040: 662b fa3b
-0.12271894 -0.10137764 -0.03633443 0.021873064 0.049501475 0.02039987 -0.012872066 -0.029732488
0.035617735 -0.017662939 0.03645685 -0.007516191 0.06025206 0.047655303 -0.016317045 0.06514091
0.007634568
