checkpoints/li_et_al/Salinas_PCA_30/2024_04_10_21_35_30_epoch29_0.97.pth (torch, 571778 bytes, 6 tensors)

conv1.weight f4 [16, 1, 7, 3, 3]
0	0x3e804e68	0.2505982
1	0x3e85fa24	0.26167405
2	0x3e816706	0.25273913
3	0x3e874807	0.2642214
4	0x3e41b64a	0.18917194
5	0x3e68a998	0.22720945
6	0x3e85bb86	0.26119632
7	0x3e48377c	0.19552416
8	0x3e58940a	0.21150222
9	0x3bc4b7fe	0.006003379
10	0x3d39b4af	0.04533833
11	0x3c8bb7b1	0.017055364
12	0xbcc74cc7	-0.024328602
13	0xbc603441	-0.013684333
14	0x3cc2f94f	0.02380052
15	0xbc0e691e	-0.008692054
16	0x3c2af633	0.010434675
17	0x3cb33e2f	0.021880237
18	0xbe14389a	-0.14474717
19	0xbe167d5e	-0.14696261
20	0xbe0b6c98	-0.13615644
21	0xbe03131d	-0.1280026
22	0xbddcccfb	-0.107812844
23	0xbe0ec37e	-0.13941762
24	0xbe257fab	-0.16161983
25	0xbde4631c	-0.11151716
26	0xbdd6e5e2	-0.104930654
27	0xbdaab9ce	-0.08336221
28	0xbd951625	-0.07279614
29	0xbdb3941c	-0.08768484
30	0xbd8bc81c	-0.06825277
31	0xbd42378c	-0.047416255
32	0xbdbd0771	-0.09229935
33	0xbd7dad66	-0.061932944
34	0xbd95ba92	-0.07310976
35	0xbd3c7e17	-0.046018686
36	0xbcd709c5	-0.026249776
37	0xbd952578	-0.07282537
38	0xbd3d33e6	-0.046192072
39	0xbd373d23	-0.04473604
40	0xbd05e336	-0.03268739
41	0xbd827c5c	-0.06371376
42	0xbdab0cac	-0.08352026
43	0xbd53852d	-0.05164068
44	0xbdafd045	-0.08584646
45	0xbd97b050	-0.07406676
46	0xbdc48144	-0.09594968
47	0xbd9b8895	-0.0759441
48	0xbddf8684	-0.10914329
49	0xbda444fe	-0.08020972
50	0xbd9f9b0e	-0.07793246
51	0xbdfefd53	-0.124506615
52	0xbd9938d6	-0.07481544
53	0xbdd852b2	-0.10562648
54	0xbd4afd1e	-0.049557798
55	0xbdc1c615	-0.09461609
56	0xbd3a8888	-0.045540363
57	0xbd80cfe1	-0.0628965
58	0xbd99a131	-0.07501448
59	0xbda9b4ab	-0.08286413
60	0xbdd3a758	-0.10334653
61	0xbd291a12	-0.04128463
62	0xbd346a1a	-0.0440465
63	0xbcd5437e	-0.02603316
64	0xbc8539bb	-0.01626288
65	0xbcfd19c6	-0.030896079
66	0xbcb8ee2f	-0.022574512
67	0x3cfd5cc2	0.03092802
68	0xbcd951cf	-0.026528267
69	0x3bb8dfc0	0.0056419075
70	0xbba82d4e	-0.005132354
71	0xbc94e443	-0.01817525
72	0x3cdf6aa4	0.02727253
73	0xbca81c9f	-0.02052146
74	0x3bff8e2a	0.0077989297
75	0x3cf0d515	0.02939848
76	0xbd041f41	-0.03225637
77	0xbbc34155	-0.005958716
78	0xbcc4c06e	-0.024017539
79	0xbce94b65	-0.028478334
80	0xbc86bb97	-0.016446872
81	0x3c34ed50	0.011042908
82	0x3abc69f4	0.0014374838
83	0xbced36c3	-0.028956776
84	0x3ce918c2	0.028454188
85	0xbd09974c	-0.033591554
86	0xbc8321b2	-0.016007278
87	0xb9f9c47e	-0.0004763938
88	0xbb043423	-0.0020172677
89	0x3c8d89ba	0.017277587
90	0x3c9b550c	0.018961452
91	0x3cbdaab9	0.023152696
92	0x3c352a17	0.011057398
93	0x3ceaed9c	0.028677754
94	0x3b698fd5	0.003563871
95	0x3b9b879f	0.004746392
96	0xbc9233a3	-0.017846888
97	0xbc52d64f	-0.012868478
98	0x3c520d39	0.012820535
99	0xbc9e2002	-0.019302372
100	0x3cdfaf65	0.027305314
101	0x3cef623a	0.029221643
102	0x3c69aff1	0.014263139
103	0xbccf7968	-0.025326446
104	0x3ad38738	0.0016138321
105	0xbb20f9d6	-0.0024562976
106	0xbcb9d8f8	-0.022686467
107	0x3ce92f7b	0.028465023
108	0xbbdf986d	-0.0068235905
109	0x3ceba777	0.028766377
110	0xbc73ad9a	-0.014872933
111	0xbc29aaef	-0.010355695
112	0xbced4a48	-0.028966084
113	0xbcfc17b1	-0.030773016
114	0xbcd72601	-0.026263239
115	0xbcdae73f	-0.026721595
116	0xbc6216e4	-0.013799403
117	0x3cafe38b	0.021470806
118	0x3c780767	0.015138484
119	0xbc1b912f	-0.009495064
120	0x3c2fe1a1	0.0107349465
121	0xbb98cd30	-0.004663132
122	0xbd0c652b	-0.03427617
123	0x3c74f53f	0.014951049
124	0xbcca29b1	-0.024678083
125	0x3c94fa2f	0.018185703
126	0xbf68c7de	-0.90929973
127	0xbf697aee	-0.912032
128	0xbf657592	-0.89632523
129	0xbf480d5d	-0.7814539
130	0xbf47dc11	-0.7807017
131	0xbf48221c	-0.78177047
132	0xbf406657	-0.7515616
133	0xbf45d78f	-0.7728204
134	0xbf4dcbac	-0.80388904
135	0xbd70daf0	-0.058802545
136	0xbd3fdf6e	-0.04684394
137	0xbd966c9c	-0.07344934
138	0x3b0208fa	0.0019841776
139	0xbbeae389	-0.0071682376
140	0xbe00d5b3	-0.1258152
141	0x3c1cc907	0.009569413
142	0xbc10449a	-0.008805418
143	0xbdec560a	-0.11539848
144	0x3e962c14	0.29330504
145	0x3e98cf36	0.2984559
146	0x3e8da0ec	0.27661836
147	0x3e9b63d2	0.30349594
148	0x3e5fba35	0.21848376
149	0x3e5af5e4	0.21382862
150	0x3eaba3c8	0.33523393
151	0x3e73d4c9	0.2381164
152	0x3e854f16	0.260369
153	0x3d9902b5	0.074712195
154	0x3cc17aef	0.02361819
155	0x3d505bed	0.050868917
156	0x3d8e8a66	0.06959991
157	0x3dda4229	0.1065715
158	0x3d8dd9b6	0.06926291
159	0x3d4562dd	0.048189986
160	0x3d89bc3f	0.06725358
161	0x3d1da096	0.038483225
162	0x3db675a3	0.08909156
163	0x3db0abe6	0.08626537
164	0x3d3cee73	0.04612584
165	0x3d957a4e	0.072987184
166	0x3d53360e	0.051565222
167	0x3dbbbc59	0.09166784
168	0x3dd7c842	0.10536243
169	0x3def3c93	0.116814755
170	0x3dc978a6	0.09837465
171	0x3e2b75d1	0.16744162
172	0x3e0a277c	0.13491625
173	0x3e0747f3	0.1321104
174	0x3e11df8e	0.14245436
175	0x3e1aff7c	0.15136522
176	0x3e212731	0.15737607
177	0x3e036de8	0.12834895
178	0x3e1d054c	0.15334052
179	0x3e207956	0.15671286
180	0xbb08d8dd	-0.0020881214
181	0x3d73470d	0.05939393
182	0x3d0a5bff	0.03377914
183	0x3d024900	0.0318079
184	0x3ce1a4ce	0.027544405
185	0x3cc87263	0.024468606
186	0x3bfba1b8	0.0076791905
187	0x3d221f93	0.039580893
188	0xbc126bac	-0.008936804
189	0xbcab1b5e	-0.020887073
190	0x3ca188e5	0.019718597
191	0xbc51b16c	-0.012798648
192	0x3b934851	0.004494705
193	0x3c0b2783	0.008493307
194	0x3cc15a96	0.023602765
195	0xbc2fc31a	-0.010727668
196	0xbd05a2eb	-0.032626074
197	0xbcd5f089	-0.026115673
198	0xbd0234b9	-0.03178856
199	0xbce01088	-0.027351633
200	0x3cea880c	0.028629325
201	0xbca6410d	-0.02029469
202	0xbb414c45	-0.0029494923
203	0xbb26f996	-0.0025478355
204	0xbb1ac934	-0.0023618462
205	0xbcb58307	-0.022157205
206	0x3c4c816c	0.012482028
207	0xbc782b63	-0.015147063
208	0xbcc9d435	-0.024637321
209	0x3c27eccb	0.010249327
210	0xbc894989	-0.016758697
211	0xbc19d0e7	-0.009388185
212	0x3c19a895	0.009378572
213	0xbd0c2f37	-0.034224715
214	0xbd07f5c0	-0.03319335
215	0x3c50d2ad	0.0127455415
216	0x3ca4bac2	0.020108584
217	0x3cb41631	0.021983238
218	0xbca4ca88	-0.020116106
219	0xbc462c5b	-0.012095536
220	0xbc925581	-0.017863037
221	0xba975e87	-0.0011548557
222	0xbcc1a3a1	-0.023637595
223	0xbbaf40ff	-0.0053483243
224	0xbc87b150	-0.016564041
225	0xbcc4e38d	-0.024034286
226	0x3d097048	0.033554345
227	0xbbe62328	-0.007023234
228	0xbc521cf9	-0.01282429
229	0x3c4b756e	0.012418134
230	0xbbded967	-0.0068008187
231	0x3cfd3340	0.030908227
232	0x3b8f238c	0.004368251
233	0xbb29e456	-0.0025923452
234	0x3cd19ca7	0.025587393
235	0x3c849e25	0.01618869
236	0x3c52a74d	0.01285727
237	0x3cb70534	0.022341348
238	0x3c57a407	0.013161666
239	0xbc8dcc99	-0.017309474
240	0xbc6fc9f1	-0.014635549
241	0x3aa8349a	0.0012833059
242	0x3c35fd91	0.011107818
243	0x3d0708f5	0.032967526
244	0x3d001939	0.031274054
245	0xbca714a3	-0.020395583
246	0xbc8becbf	-0.017080663
247	0xbd09220a	-0.033479728
248	0xbce676ff	-0.028132914
249	0xba8719bb	-0.0010307351
250	0xba1793df	-0.00057822274
251	0xbcccf7f2	-0.025020573
252	0x3d05c245	0.032655973
253	0xbc241428	-0.010014571
254	0x3c7890af	0.015171214
255	0x3ccf9bfa	0.02534293

conv1.bias f4 [16]
0	0xbeb34f6a	-0.35021526
1	0x00000000	0.0
2	0x3ed4fcd6	0.4159915
3	0x00000000	0.0
4	0x00000000	0.0
5	0xbc9b33f5	-0.018945673
6	0x00000000	0.0
7	0xbf6e53c5	-0.9309657
8	0x3a8ca745	0.0010731003
9	0xbc32a4cb	-0.0109035475
10	0xbc30d21a	-0.01079228
11	0xbe310fcc	-0.17291182
12	0xbbc85ebb	-0.0061148084
13	0xbf55eceb	-0.83564633
14	0x3eba1b21	0.36348823
15	0x00000000	0.0

conv2.weight f4 [32, 16, 3, 3, 3]
0	0x3c6979f2	0.014250265
1	0x3cee1bc9	0.029065983
2	0xbcbe7e9f	-0.023253737
3	0x3ad01eb6	0.0015878293
4	0xbc1cc627	-0.009568728
5	0xbcae0651	-0.021243246
6	0x3cb26539	0.021776782
7	0x3d03f7ba	0.032218672
8	0x3d09e0f1	0.033661786
9	0x3cffa172	0.031204913
10	0x3ca22822	0.019794527
11	0x3d248893	0.04016931
12	0x3cd56b46	0.026052129
13	0x3b90edb5	0.004422868
14	0x3cd0e6d8	0.0255007
15	0x3c936d07	0.017996324
16	0x3c7e64d0	0.015526965
17	0x3d23f308	0.040026695
18	0x3c84658e	0.016161706
19	0x3c1e0117	0.0096438145
20	0xb9fa283e	-0.000477137
21	0xbcd4c1b4	-0.025971271
22	0x3bef7151	0.0073072095
23	0x3c8846c8	0.016635314
24	0xbc2a1b8c	-0.010382544
25	0xbd0a90e2	-0.033829577
26	0x3cd27e79	0.025695072
27	0x3a30c35d	0.00067429786
28	0xbc2887fe	-0.010286329
29	0xbab5a920	-0.0013859607
30	0xbcacc2c7	-0.02108897
31	0x3c048810	0.00808908
32	0x3b6ac855	0.0035824974
33	0x3c207066	0.009792423
34	0x3bfeef1c	0.007779969
35	0xbc7414b0	-0.01489751
36	0x3cbd64a6	0.023119282
37	0xbbe1c7f1	-0.00689029
38	0x3caa15ba	0.020762313
39	0xbc8965b8	-0.016772136
40	0xbb800544	-0.0039068777
41	0x3beaa0ef	0.007160298
42	0x3ca16b68	0.019704536
43	0x3cf2562e	0.02958211
44	0xbbccef96	-0.006254147
45	0xbcf2dd77	-0.029646618
46	0x3b461c7d	0.0030229383
47	0xbc16a4e8	-0.00919459
48	0xbcecab6b	-0.028890332
49	0x3cf6b4d4	0.030115522
50	0x3c9ecf30	0.019385904
51	0x3c3a6377	0.011376253
52	0xbc7a771d	-0.015287188
53	0x3ce79973	0.028271412
54	0xbd44436d	-0.047915865
55	0x3c71892e	0.014742179
56	0xbcfd2b27	-0.030904366
57	0xbccc35b1	-0.024927946
58	0x3c40f783	0.011777761
59	0x399a4c23	0.00029429895
60	0xbd2ee7be	-0.042701475
61	0xbbf02dca	-0.007329677
62	0xbcffed66	-0.03124113
63	0xbbb5a6cc	-0.0055435654
64	0xbcde6419	-0.02714734
65	0xbd33d275	-0.04390188
66	0x3b82e0f0	0.0039941
67	0xbccf59fc	-0.025311463
68	0xbc8ce16c	-0.017197333
69	0xbce85f03	-0.028365618
70	0xbd0e78bd	-0.034783114
71	0x3c844b08	0.016149059
72	0x3c35805f	0.011077969
73	0xbd054558	-0.032536834
74	0x3bfb8b4e	0.0076765185
75	0xbc348cbe	-0.011019884
76	0xbce9c4be	-0.028536197
77	0xbccba3c2	-0.02485836
78	0xbd02fedf	-0.031981345
79	0xbbee38a8	-0.0072699375
80	0xbc4ca5c3	-0.012490693
81	0xbca34f97	-0.019935412
82	0xbc2d6e48	-0.010585375
83	0xb9c6e4d7	-0.00037936002
84	0xbcabc966	-0.020970058
85	0x3c065d14	0.0082009025
86	0x3c7d7315	0.015469332
87	0xbcd6feb7	-0.026244504
88	0x3cab35fe	0.020899769
89	0x3c5581ea	0.013031462
90	0xbc93e406	-0.018053066
91	0x3cf9ba80	0.030484438
92	0xbc81b998	-0.015835568
93	0xbc004d29	-0.007830896
94	0x3b9da70c	0.0048111733
95	0x3bfda576	0.0077406717
96	0x3cfdd4f1	0.030985327
97	0xbc8ec112	-0.017426047
98	0xbca8087e	-0.020511862
99	0x3cb93c87	0.02261187
100	0xbc9f0ea0	-0.019416153
101	0x3ccfdd90	0.025374204
102	0x3cdb1ea6	0.026748013
103	0x3989433e	0.00026180776
104	0x3c9fe8ee	0.01952025
105	0xbbb40f81	-0.0054950123
106	0x3a4bb721	0.0007771124
107	0xbc285fcb	-0.010276745
108	0xbc5d9266	-0.013523674
109	0x3cb62b03	0.022237306
110	0xbcb7f8fd	-0.022457594
111	0xbc1b3eef	-0.009475454
112	0x3b784ad0	0.0037886389
113	0xbbdb9081	-0.006700576
114	0x3c80ac99	0.015707301
115	0xbced7c52	-0.028989945
116	0x3cc7a6c2	0.024371509
117	0xbca294ad	-0.019846285
118	0xbcaa0532	-0.02075443
119	0xbcab6685	-0.020922909
120	0xbbcff4e7	-0.0063463333
121	0xbcf83734	-0.03029976
122	0xbc8d2244	-0.017228253
123	0xbbda0fe7	-0.0066547277
124	0xbce177bf	-0.02752292
125	0xbb8872df	-0.0041640843
126	0xbb36c6fd	-0.0027889602
127	0x3bb2f129	0.0054608774
128	0x3cf6be14	0.030119933
129	0xbc55e240	-0.0130544305
130	0x3c8d749d	0.01726752
131	0x3c00311f	0.007824211
132	0xbc838e57	-0.016059084
133	0xbccde0bb	-0.025131574
134	0x3caaa7e2	0.020832006
135	0xbcaf3e15	-0.021391908
136	0x3c06f518	0.008237146
137	0xbc220ac6	-0.009890264
138	0xbc8046c2	-0.01565874
139	0xbccf87d6	-0.025333326
140	0xbc905c15	-0.017622033
141	0x3c9d0077	0.01916526
142	0xbca20dce	-0.019781973
143	0xbca7dc08	-0.020490661
144	0x3c284982	0.010271432
145	0x3c4eff2a	0.012634078
146	0xbcf250ec	-0.029579602
147	0xbc275f37	-0.010215572
148	0x3c01ca2f	0.0079217395
149	0x3c011f72	0.007881032
150	0x3cd27b25	0.025693486
151	0x3c94defb	0.018172732
152	0xbc9d6548	-0.019213334
153	0xbbd33b00	-0.0064462423
154	0xbcecd8dd	-0.028912002
155	0xbcb8cf46	-0.022559773
156	0x3c9674c2	0.018366221
157	0xbc6be011	-0.014396683
158	0xbc89c050	-0.016815335
159	0xbb37a782	-0.0028023426
160	0x3cd192da	0.02558272
161	0xbbe867e3	-0.0070924624
162	0x3cbee78e	0.023303773
163	0x3cb3c9bb	0.021946779
164	0x3c77e05f	0.015129178
165	0x3c4e7543	0.0126012
166	0xbc62fbbe	-0.013853965
167	0x3c3e126a	0.01160107
168	0xbb930b9c	-0.004487468
169	0xbcdb4eb2	-0.026770923
170	0x3cafe691	0.021472247
171	0x3ccf5fcf	0.02531424
172	0x3c98d4f0	0.018656224
173	0x3c930def	0.01795098
174	0xbcdab453	-0.026697313
175	0xbc45bb22	-0.012068542
176	0x3c25c44a	0.0101176
177	0x3c13f3fa	0.0090303365
178	0x3c53e35a	0.012932623
179	0xbaf07d47	-0.0018347882
180	0xbbbb1016	-0.0057087047
181	0xbb739ba0	-0.0037171617
182	0x3cd392ab	0.025826773
183	0x3bb47e6e	0.0055082357
184	0x3b5d2735	0.0033745293
185	0xbba27ecf	-0.0049589644
186	0xbc0a71ec	-0.008450013
187	0xbced1cc4	-0.02894438
188	0xbca2283c	-0.019794576
189	0xbcd69289	-0.02619292
190	0x3be7a160	0.007068798
191	0x38be9156	9.086977e-05
192	0x3cd5020e	0.026001956
193	0x3cdc644f	0.0269033
194	0x3ce8a556	0.02839915
195	0x3c91a5ff	0.017779348
196	0x3bfd8f57	0.0077380347
197	0xbc406f35	-0.011745264
198	0xbd390912	-0.045174666
199	0xbc83d6e4	-0.016093679
200	0xbc62f83f	-0.013853132
201	0xbd033a8d	-0.03203826
202	0xbc226640	-0.009912074
203	0xbaaabd56	-0.0013026397
204	0xbce41f53	-0.027846968
205	0xbc1e5be8	-0.009665467
206	0x3c5556d4	0.01302119
207	0xbb0af0c3	-0.0021200634
208	0xbc7ac77e	-0.015306352
209	0xbce76d22	-0.02825028
210	0x3c0ae2dd	0.00847694
211	0xbc133496	-0.008984705
212	0xbcde1c27	-0.027113033
213	0xbd2b71fa	-0.041856743
214	0xbcfc0026	-0.03076179
215	0xbd120078	-0.03564498
216	0x3d014bd1	0.031566445
217	0xbba43ba5	-0.005011993
218	0x3ccdbb8d	0.025113845
219	0x3c35cbf4	0.0110959895
220	0x3c8b88a9	0.017032938
221	0xbc6073d1	-0.013699488
222	0x3c6cd92e	0.014456077
223	0x3c274a31	0.01021056
224	0xbbb42c10	-0.0054984167
225	0x3c4f4dcc	0.012652826
226	0xbca752ac	-0.020425163
227	0x3ca80cc8	0.020513907
228	0x3c6d5425	0.014485394
229	0x3cd74479	0.026277767
230	0x3cb1d33a	0.021707166
231	0xbc81e0a3	-0.015854185
232	0x3b9777d9	0.0046224413
233	0xbc612a03	-0.0137429265
234	0x3c54cd7c	0.012988444
235	0x3ce6e44b	0.02818503
236	0x3c495b19	0.012289786
237	0x3c1cb328	0.009564199
238	0xbcc55f21	-0.024093213
239	0xbbaddb3e	-0.0053056767
240	0x3c194718	0.009355329
241	0xbcd9fadc	-0.026608877
242	0x3b5bc5c2	0.003353462
243	0xbce482ad	-0.027894342
244	0xbc790aa6	-0.015200293
245	0x3c63e23f	0.013908922
246	0x3c82b6e8	0.015956357
247	0x3ace0093	0.0015716724
248	0x3b85bfe0	0.004081711
249	0x3b1d3f7a	0.0023994134
250	0xbc96c7eb	-0.018405875
251	0xbc0ba4ab	-0.008523147
252	0x39407826	0.00018355306
253	0x3ca481f4	0.020081498
254	0xbba908e5	-0.005158531
255	0x3cd60ebf	0.026130078

conv2.bias f4 [32]
0	0xbd39659d	-0.04526292
1	0x3ddacf70	0.10684097
2	0xbc8fc17b	-0.017548313
3	0xbbcbc7aa	-0.00621887
4	0xbe62010b	-0.2207071
5	0xbdef8a56	-0.11696307
6	0xbe2dc5a1	-0.1696992
7	0x3cbda398	0.023149297
8	0x3efb3b8e	0.49068874
9	0xbdbdb6eb	-0.092634045
10	0x3bf6e65a	0.0075347843
11	0xbc9b403b	-0.018951526
12	0xbee1a9ad	-0.44074765
13	0x3e9e060f	0.30863997
14	0xbe420013	-0.18945341
15	0x3d31116b	0.0432295
16	0xbb934c2f	-0.004495166
17	0xbf162272	-0.5864631
18	0x3eb9bf08	0.36278558
19	0x3d71c9b9	0.05903027
20	0xbe411317	-0.18854938
21	0xbd6a5316	-0.057208143
22	0x3e91d27f	0.28480908
23	0x3dc6d016	0.09707658
24	0x3d9b75fe	0.075908646
25	0xbcd035aa	-0.025416214
26	0xbd1d0d30	-0.038342655
27	0xbc887d8f	-0.016661434
28	0x3dc22ac2	0.09480812
29	0xbebe9dd4	-0.37229788
30	0xbc957ad5	-0.018247047
31	0xbd1209ee	-0.035654

fc.weight f4 [17, 7488]
0	0xbbe43184	-0.0069639105
1	0xbbaf589a	-0.0053511383
2	0xbc2b651b	-0.010461117
3	0xbc215308	-0.009846456
4	0x3bafe4ee	0.0053678667
5	0x3b93a834	0.0045061354
6	0x3bbe33cc	0.0058045145
7	0x3b414bf3	0.0029494732
8	0xbb0e2399	-0.0021688698
9	0x3be40091	0.0069580753
10	0xbb6c7b8e	-0.0036084387
11	0x3c0139c2	0.007887306
12	0xbb75ea83	-0.0037523813
13	0x3c0d6454	0.008629877
14	0xbad9fefb	-0.0016631776
15	0x3add86e4	0.0016901162
16	0x3b878be7	0.0041365507
17	0xbb0a2d17	-0.0021084005
18	0x3c24b515	0.010052939
19	0xbc2da7de	-0.010599105
20	0xbc131241	-0.00897652
21	0xbc0d3db3	-0.008620667
22	0x3b93474d	0.0044945837
23	0xbb7a9f47	-0.003824191
24	0xbc06ccd9	-0.00822755
25	0xbaf3ac89	-0.0018590848
26	0x3bf7dacf	0.007563926
27	0x3c047804	0.008085255
28	0x3c1725d8	0.009225331
29	0x3c53940f	0.012913718
30	0xbb34f533	-0.002761197
31	0x390e76e3	0.00013586464
32	0x3c162cff	0.009166001
33	0xbc1490bf	-0.009067713
34	0xbc0ea9ff	-0.008707522
35	0xbc24102d	-0.010013622
36	0x3b4d95b9	0.003136976
37	0x3ae34f78	0.0017342409
38	0xbaabc92d	-0.001310622
39	0x3b4b3b5e	0.0031010727
40	0x3bcb1aa9	0.0061982465
41	0xbbde1e2f	-0.0067785005
42	0xbb6c4a3d	-0.0036054992
43	0x3be1e698	0.006893944
44	0xbbd6dc77	-0.006557043
45	0x3b9e7005	0.004835131
46	0x3c162851	0.009164886
47	0x3c3913e5	0.011296247
48	0xbbedf7ff	-0.0072622295
49	0x3b942271	0.0045207073
50	0x3c4630f5	0.012096633
51	0x3b4be1f5	0.0031110023
52	0xbc4a87da	-0.012361491
53	0x3bb35de0	0.0054738373
54	0x3bfa7502	0.007643343
55	0xba948225	-0.001133029
56	0x3c35cf81	0.011096836
57	0xbba7d769	-0.0051221144
58	0x3c27cde6	0.010241961
59	0xbc41aafe	-0.011820553
60	0xbb91f2aa	-0.0044539766
61	0xbc14de9a	-0.0090862755
62	0xbc07309e	-0.008251337
63	0xbb66cc16	-0.003521686
64	0x3ba19946	0.0049316017
65	0x3c42370e	0.011853946
66	0x3c49e545	0.0123227285
67	0x3bc521e0	0.006016001
68	0x3add73be	0.0016895456
69	0x3b70954f	0.0036710089
70	0x3c214b88	0.009844668
71	0xbbdfcb3f	-0.0068296487
72	0xbc351a56	-0.011053642
73	0xbb07ef65	-0.0020742055
74	0xbc0845f6	-0.008317461
75	0x3bd0b8af	0.0063696723
76	0x3b3d9de0	0.0028933212
77	0x3c4337ba	0.011915142
78	0x3c28b4cc	0.010297012
79	0x3c10b2b3	0.008831668
80	0xbbff5bcf	-0.007792927
81	0xbb26e0aa	-0.00254635
82	0x3b6eb2aa	0.003642241
83	0xbaa907df	-0.0012896023
84	0xbc0264da	-0.007958615
85	0xbc16499c	-0.009172823
86	0xbb13767a	-0.0022501037
87	0x3c4705e3	0.0121474
88	0x3bca60a9	0.0061760736
89	0x3b9979f2	0.0046837265
90	0xbb14115c	-0.0022593355
91	0xbbd0a4f4	-0.00636732
92	0x3c3d8e72	0.011569606
93	0x3af49c28	0.0018662261
94	0x3b133799	0.0022463559
95	0x3a853ca1	0.0010165164
96	0x3c2632dd	0.010143963
97	0xbbdf1034	-0.0068073515
98	0xbac230f8	-0.0014815619
99	0x3c4652ee	0.012104733
100	0x3ba3c4de	0.0049978336
101	0x3c4d1895	0.012518068
102	0xbb57bbdc	-0.003291837
103	0x3c389a9d	0.011267331
104	0x3c1edd6a	0.009696344
105	0x3ab02bea	0.0013440822
106	0xbbd1d428	-0.006403465
107	0x3b2c9d22	0.0026338776
108	0x3b9b4199	0.0047380445
109	0xbc30f748	-0.010801144
110	0x3c189bac	0.009314459
111	0x3ba78b02	0.0051130066
112	0x398a9bb4	0.0002643742
113	0xbc4a47a1	-0.012346179
114	0xbb0e0f23	-0.0021676503
115	0x3b8dc8f4	0.004326934
116	0xbb8c101a	-0.0042743804
117	0x390787c8	0.00012925186
118	0xbb2df9d1	-0.0026546607
119	0x3bceaea8	0.0063074417
120	0xbc350b9d	-0.011050132
121	0xbb839e31	-0.0040166606
122	0x3bf77064	0.00755124
123	0x3b663c8f	0.003513131
124	0xbc05d1b1	-0.00816767
125	0x3a219a3f	0.0006164647
126	0x3c1e62a1	0.00966707
127	0x3adb66cf	0.0016739013
128	0xbbd0aad7	-0.006368022
129	0x3a6517f5	0.00087392266
130	0xbc3915c6	-0.011296695
131	0x3bc1fc70	0.0059199855
132	0xbc2fecd7	-0.010737619
133	0xbc57724b	-0.013149808
134	0x3b839218	0.0040152185
135	0xbb819de4	-0.0039555896
136	0xbc2e2a0c	-0.010630142
137	0xbc4ce88f	-0.012506618
138	0xbb3f1c98	-0.002916133
139	0x3c3f67c8	0.011682458
140	0xbc577b5b	-0.013151969
141	0x3bbe4cf9	0.0058075157
142	0xbbfc831f	-0.0077060605
143	0x3bb214ea	0.005434622
144	0xbc1dd755	-0.009633859
145	0x3b94ac6a	0.004537155
146	0x3c141c47	0.009039945
147	0x3bc90b8d	0.00613541
148	0xbbeb8528	-0.0071875043
149	0x3b1f5933	0.0024314641
150	0x3b66e06f	0.0035228988
151	0xbb975060	-0.0046177357
152	0x3c2960c0	0.010338008
153	0x3bd5f699	0.006529641
154	0xbba97faf	-0.005172692
155	0x3b404314	0.0029336857
156	0xbb3daec8	-0.002894329
157	0x3a80137c	0.0009771432
158	0xbc51ce88	-0.012805589
159	0x3ac7b988	0.0015237788
160	0x3b5fa276	0.0034123934
161	0xbbafed5c	-0.0053688716
162	0x3c4a07d4	0.012330968
163	0x3b029529	0.0019925332
164	0x3aeaccad	0.0017913781
165	0x3c39d3fe	0.011342047
166	0x3bf583a7	0.007492501
167	0x3bf17048	0.0073681213
168	0x3b4a27dd	0.0030846514
169	0x39d42cab	0.0004046907
170	0xbb8c8965	-0.0042888396
171	0xba120042	-0.00055694964
172	0x3c394a37	0.011309198
173	0xbc079dbb	-0.008277352
174	0x3c5408b9	0.012941533
175	0xbc052ac9	-0.008127877
176	0x3c1f0913	0.009706753
177	0x3bd48049	0.0064850193
178	0x3c5500dc	0.013000693
179	0xbc3286b7	-0.010896376
180	0xbc0a2d8e	-0.008433713
181	0xbc57eb56	-0.013178667
182	0xbc56e26f	-0.013115509
183	0x3b55c503	0.003261865
184	0xbbaf8908	-0.0053569116
185	0x3bc7b88d	0.006094998
186	0xbba1708a	-0.004926746
187	0x3c2f764e	0.010709358
188	0x3bbf8e34	0.0058458094
189	0xba2065d4	-0.0006118689
190	0xbc3584f9	-0.011079066
191	0xb98e716d	-0.0002716886
192	0xbc494888	-0.012285359
193	0x3b33f0b8	0.0027456712
194	0x3b4f934b	0.0031673487
195	0x3bd2ed76	0.006436999
196	0xbc0d1fb1	-0.008613513
197	0x3b8a95bb	0.004229275
198	0x3c083dfc	0.0083155595
199	0x3c288366	0.010285234
200	0x3a8908cc	0.0010454892
201	0x3b4e0d22	0.0031440933
202	0xbc575dd6	-0.013144931
203	0x39cdf1fb	0.00039280936
204	0x3aa3109a	0.0012440861
205	0x3b9ab37b	0.004721103
206	0x3c4d9076	0.012546649
207	0x3c35a841	0.011087478
208	0xbc19cd0b	-0.009387265
209	0xbc152015	-0.009101887
210	0xbb83f4bc	-0.0040269773
211	0x3c00f303	0.0078704385
212	0xbacf0db0	-0.0015796926
213	0xbb21f63f	-0.0024713425
214	0x3bd0b5da	0.0063693346
215	0x3c26da8d	0.0101839425
216	0xbb42aa17	-0.0029703432
217	0x3c0204c4	0.0079357065
218	0xbb484e41	-0.003056422
219	0xbbfd46f4	-0.0077294055
220	0xbc29e458	-0.010369383
221	0xbc2f25c5	-0.010690157
222	0xbbf4dc20	-0.00747253
223	0x3ba446c0	0.005013317
224	0x3c4286bf	0.011872946
225	0xbc06c666	-0.008226013
226	0x3c2be767	0.010492182
227	0x3c31f180	0.010860801
228	0x3c4d55c7	0.012532658
229	0xbc243cb5	-0.010024239
230	0xbc34572e	-0.011007113
231	0xbc063e55	-0.008193572
232	0xbc50dba4	-0.012747679
233	0xbc005116	-0.007831832
234	0x3b0e4389	0.0021707735
235	0xbb2cc918	-0.0026364978
236	0x3c0d7021	0.008632691
237	0x3ba72fb8	0.005102124
238	0xbb586ad3	-0.0033022657
239	0xbbb5a5f2	-0.005543464
240	0xbb970461	-0.0046086763
241	0x3c11cf7d	0.008899567
242	0xbbdd3701	-0.0067509417
243	0xb78d8df4	-1.6874612e-05
244	0x3a047f5d	0.0005054379
245	0xbb3ce6ac	-0.0028824015
246	0x3b5ed2ab	0.003400008
247	0x3c469c3b	0.012122209
248	0x3c028505	0.007966285
249	0xbbee5186	-0.007272902
250	0xba5cfe17	-0.00084301963
251	0xbc232fb3	-0.009960103
252	0xbb96e412	-0.004604825
253	0x3c35147f	0.01105225
254	0xbb8b18d2	-0.004244902
255	0x3ae0191f	0.001709733

fc.bias f4 [17]
0	0xbd428bc9	-0.04749659
1	0xbdc7e276	-0.09759991
2	0x3af874b0	0.0018955674
3	0xbafaa79e	-0.001912344
4	0xbc8867cb	-0.016651055
5	0xbd35a0f4	-0.04434295
6	0xbcc5d3e3	-0.024148887
7	0xbbfa0306	-0.007629755
8	0x3d98a3c9	0.074531145
9	0xbcfd8661	-0.030947866
10	0x3d3328aa	0.043739952
11	0xbd1535dc	-0.036428317
12	0x3ca4ce03	0.020117765
13	0x3c832630	0.01600942
14	0x3b5fa135	0.0034123186
15	0x3e128308	0.14307797
16	0x3b8ee16c	0.0043603685
