checkpoints/paoletti_et_al/no_class_balancing/IndianPines_AE1_15/epoch19_0.84.pth (torch, 169208 bytes, 10 tensors)

gru1.weight_ih_l0 f4 [192, 15]
000000 e0 16 b9 bd 6b d8 13 be 24 08 77 be c3 8a 80 be
       -0.09037566 -0.14438026 -0.24124199 -0.25105867
000010 75 5d 54 be ec e7 b9 be 93 85 81 be d4 73 2b be
       -0.20738776 -0.36309755 -0.25297222 -0.16743404
000020 6e 9e 3b be f9 06 01 be f0 d3 7d be 4d a8 b6 be
       -0.18322155 -0.12600316 -0.24787879 -0.35675278
000030 90 34 ba be fd e4 2a be d3 53 3a be c9 f9 37 bd
       -0.36368227 -0.16688915 -0.18196039 -0.044915948
000040 b7 35 15 3e 8b 94 c9 bc d8 1d 9e bc 4d 7e 82 bd
       0.14571272 -0.024606964 -0.01930134 -0.06371746
000050 03 83 d6 bc c7 f7 f1 bd d8 c9 0c be e7 9b cc bc
       -0.026185518 -0.11814838 -0.13748872 -0.024976684
000060 fc 68 7f bd 43 75 01 3d ca 75 53 bd 2f d5 84 3d
       -0.06235598 0.03160597 -0.051626004 0.06485974
000070 8e fb f6 bd da 10 aa bc 28 89 31 be 35 53 fa bd
       -0.12059699 -0.020759989 -0.17337477 -0.12222902
000080 cd 52 2f be a9 7a 94 be d1 e2 fa bd 50 cc 71 be
       -0.1712143 -0.28999832 -0.12250293 -0.23613095
000090 bc 5d 2f be 05 b5 77 be e5 4e 65 bd 8b 23 1d be
       -0.171256 -0.24190147 -0.055983443 -0.1534559
0000a0 0c b6 a2 bd c6 26 60 be 8d 43 4d be e5 12 34 be
       -0.07944879 -0.21889791 -0.200453 -0.17585333
0000b0 b7 48 4f be 12 b0 98 3e 63 dc 60 3e 66 d9 b3 3e
       -0.20242582 0.2982183 0.21959071 0.351268
0000c0 2d 17 84 3e da 14 bb 3e bb 12 63 3e 3a 51 90 3d
       0.25798932 0.36539346 0.22175114 0.07046743
0000d0 3c 77 83 3e a6 f4 90 3e f7 cf 7b 3e 11 d1 5d 3e
       0.25676906 0.28311652 0.24591051 0.21661784
0000e0 f7 69 e9 3e 70 70 30 3e 9d 07 69 3e 80 66 b9 3e
       0.45588657 0.17230392 0.2275681 0.36211014
0000f0 9d 88 80 3e 7b 91 83 3e 37 d7 a8 3d 93 af d4 3d
       0.25104228 0.2569693 0.08244174 0.103850506
000100 38 e2 56 3e 4f 69 7b 3e 4c 46 21 3e be b1 1f 3e
       0.20984733 0.24551891 0.15749472 0.15595147
000110 17 75 6c 3e 75 2b 9a 3e fd 5c 75 3e 9b a2 a7 3c
       0.23091541 0.3011128 0.23961253 0.020463279
000120 ef 06 1c 3e e7 ca 5b 3e 3a 78 05 3d 6b 70 70 be
       0.1523702 0.2146412 0.03258536 -0.23480384
000130 26 da 6e be 49 7b 37 be e5 5f 3e be f4 72 75 bd
       -0.23325405 -0.17918123 -0.18591268 -0.05992408
000140 01 6d cc bd cd 7e a9 bd b0 47 04 be 7f f6 f1 bd
       -0.09981728 -0.082761385 -0.12917972 -0.118145935
000150 6e d6 46 be 09 a3 58 bd a3 94 a2 3c 13 ad f2 3b
       -0.19417736 -0.052889857 0.019846266 0.007405886
000160 77 44 87 3d 84 84 1a 3c b0 0e 18 3d 14 75 05 3e
       0.066048555 0.009431008 0.037123382 0.13032943
000170 d0 b6 3f bd b8 50 87 bd 97 d6 c4 bc 04 2d 3b bc
       -0.046805203 -0.06607193 -0.024028106 -0.011424307
000180 be 2f bb 3c 76 f3 49 bb 0f 3e 5f 3d 3f 4a 1e 3b
       0.022849914 -0.003081528 0.054502543 0.002415314
000190 f2 a1 58 bd 3e 4f 06 bd fa 68 86 bd 75 f0 bf 3c
       -0.052888818 -0.032790415 -0.065629914 0.023430089
0001a0 08 d4 34 be cd 1f 65 be f0 29 9d be 21 22 c0 be
       -0.17659009 -0.22375412 -0.30696058 -0.37526038
0001b0 a0 17 ce be 82 4e 51 be 4d 1a a4 be 9c 37 63 bd
       -0.402524 -0.20440105 -0.32051316 -0.055472955
0001c0 9d 5b 9a bd bf 83 ab be 88 87 4e be af 1f d5 be
       -0.07537005 -0.33498952 -0.20168889 -0.41625735
0001d0 7f d0 3d be 2c 62 b7 be 63 2b 37 bc 71 b8 a9 3c
       -0.18536566 -0.35817087 -0.011179778 0.020717831
0001e0 1e be 9c bd 81 82 a0 3c 32 21 00 3e aa 2f cb 3e
       -0.076534495 0.01959348 0.12512663 0.39684802
0001f0 9b 6b bf 3e b3 aa 82 3e a9 51 52 3e 7e 75 67 bc
       0.37386784 0.25520858 0.20538963 -0.014127133
000200 92 a2 dc 3d 7d e4 9b 3d 91 f3 b0 3d 1a 54 93 bc
       0.10773195 0.0761194 0.086402066 -0.017984439
000210 ff 92 a1 3d 6b 2c bb 3d dc 71 03 bd ad 6a cc 3d
       0.078893654 0.091393314 -0.032091007 0.09981284
000220 eb 5c 08 3e 24 d2 d4 3e 18 0f 08 3f e3 ab 78 3e
       0.13316695 0.41566575 0.5314803 0.2428432
000230 f7 d2 74 3c 71 6a 14 3e f1 b0 26 bd 1d ca cb bd
       0.014942876 0.14493729 -0.04069609 -0.099506594
000240 fe e6 3f 3e 6b 44 6b 3e 0d c7 dd bc 34 6c 2f bd
       0.1874046 0.22975318 -0.027072454 -0.0428278
000250 a2 5b 8d bd a9 88 be 3c 74 8c 42 be 3b 94 53 be
       -0.06902243 0.023258524 -0.18998891 -0.20662014
000260 ab ac f9 bd af 8b 0d bd 3d 99 f3 bd 40 75 64 be
       -0.12191137 -0.03455704 -0.11894462 -0.22310352
000270 3e 29 00 bd 27 8b 6c be 97 02 69 be 90 67 95 bd
       -0.03128933 -0.23099957 -0.22754894 -0.072951436
000280 20 26 14 be 52 ad da 3c ed ff d2 bd 4e 04 5a be
       -0.14467669 0.026693974 -0.1030272 -0.21290705
000290 ef 86 d6 bd 1e ee 60 3b 80 0d 32 be c9 34 a8 3b
       -0.10474955 0.0034321616 -0.17387962 0.0051332456
0002a0 50 61 92 3b 35 59 50 3d 59 f8 20 3e 6c ed b4 3c
       0.004467167 0.050866324 0.15719737 0.022085868
0002b0 95 b8 03 3a a5 2f 69 be ea 4a 27 be 41 2c 32 3d
       0.0005024758 -0.22772081 -0.16337171 0.043499235
0002c0 e3 78 23 3d 23 0d ef 3b 79 bc f7 bb d3 42 c6 3c
       0.03991021 0.007295267 -0.0075603095 0.024201786
0002d0 c6 23 1a be fe 6c 2d be a2 97 90 3a 52 ed 7b bd
       -0.15052709 -0.16936108 0.0011031518 -0.061505623
0002e0 3a fc 8c be 1d b0 93 bd a2 cc 95 be 1e c1 27 be
       -0.27536184 -0.07211325 -0.29257685 -0.16382262
0002f0 8a 64 a8 bd af 39 c5 3c ce 17 12 be f0 52 6e be
       -0.08222301 0.024075357 -0.14266893 -0.23273826
000300 de 1a 46 be bf d4 4b be 01 3d 8a be af 1c bf 3c
       -0.19346187 -0.19905375 -0.26999667 0.023329107
000310 53 71 1c 3e a7 8d 09 3e 95 01 9f bd 23 24 ca be
       0.15277605 0.13432942 -0.077639736 -0.39480695
000320 9f 0f 7d be f2 3e c1 bd 59 2b 97 3d 8b f1 9d bd
       -0.2471299 -0.09435834 0.07381315 -0.07712086
000330 98 7c 80 be 8a 32 86 be 78 34 ae be 26 27 99 be
       -0.25095057 -0.26210433 -0.34024405 -0.2991268
000340 3d 05 94 be 2e b5 59 bd 76 e4 33 be f4 71 66 bd
       -0.28910246 -0.053151302 -0.1756762 -0.056261018
000350 f0 32 33 3e 7b 43 b8 3e f4 27 d9 3e 6d 9d bb 3e
       0.174999 0.35988984 0.42413294 0.36643544
000360 5a 2b a3 3e 31 9f 57 3e 8b b9 50 3e c9 bb a3 3e
       0.31869012 0.2105682 0.20383279 0.31979206
000370 e4 b8 24 3e 44 6c 98 3e a0 e7 8f 3e 97 cd e3 3d
       0.16086155 0.297701 0.28106403 0.111231975
000380 d1 75 6e 3e 6a bc 65 be 6d ae 65 be 27 0c 6e be
       0.23287131 -0.22435156 -0.2242982 -0.23246823
000390 6f bb 85 bd 48 c3 62 bd 3d ba be bc a7 0e b0 bd
       -0.06529891 -0.055362016 -0.023282165 -0.08596545
0003a0 9c 1d c2 bd 3a 82 db bd d2 6f cf bd 2f 00 5f be
       -0.09478304 -0.10718198 -0.1012875 -0.21777414
0003b0 e6 60 81 bd 03 00 ca bd 6e 64 34 be 8d b5 62 be
       -0.0631731 -0.098632835 -0.17616436 -0.22139569
0003c0 8b ed 90 3e 75 9e 60 3e de 2f f5 3d 24 2c dd bc
       0.2830623 0.21935447 0.119720206 -0.026998587
0003d0 95 c7 d5 3d 91 52 11 3e d0 7d d7 3d f6 b2 2e bc
       0.10438458 0.14191653 0.10522044 -0.010662785
0003e0 fe 9d 1c 3e 41 e5 a2 3d 8a d8 9f 3d 20 6f 42 3e
       0.15294644 0.07953883 0.078049734 0.18987703
0003f0 08 2e be 3e 25 4c bb 3e 9f e9 12 3e a5 c7 21 be
       0.37144494 0.3658153 0.14346932 -0.15798815

gru1.weight_hh_l0 f4 [192, 64]
000000 84 26 82 bc 58 67 98 3e fb 99 d1 3d ab 11 28 3e
       -0.015887506 0.29766345 0.102344476 0.1641299
000010 ac df 8b bd a9 e4 71 3d 56 c4 e6 3d 72 86 a9 3d
       -0.068297714 0.059055958 0.11267917 0.082775965
000020 e6 ec e7 3d 59 3b 2a be 59 67 dc bd cd 24 ab 3d
       0.11324482 -0.16624202 -0.107618995 0.083566286
000030 63 9b 47 be d5 99 2f be 19 18 92 bc 81 2d 86 3d
       -0.19492869 -0.17148526 -0.017833756 0.06551648
000040 ac 21 e4 bd 67 9d 88 3d 22 8b b6 3d cd 91 08 be
       -0.11139235 0.06670647 0.08913256 -0.13336869
000050 6a 1a ca 3d 39 f8 4c bc 5b b8 39 3e 2b fb ce 3d
       0.09868319 -0.012510353 0.18136732 0.101065
000060 51 f0 f4 be 05 41 96 3d b2 e4 41 3e 27 3b 9f 3d
       -0.47839597 0.0733662 0.18934897 0.07774954
000070 fa 1a 72 be 8b 06 b0 3d b0 71 b8 bc 1b f8 09 be
       -0.23643103 0.08594998 -0.022515148 -0.13473551
000080 7a d9 73 3d c3 f6 91 bd 7e 1e 36 bc b4 e5 4a be
       0.059533574 -0.07127144 -0.011115668 -0.19814187
000090 49 9f 61 3e 69 99 db 3d ec 07 00 be 30 7a e9 bd
       0.22033419 0.1072262 -0.12503022 -0.114002585
0000a0 fd 47 23 3e 4c 53 64 be 6d bf c8 3d d8 8f 03 be
       0.1594543 -0.222974 0.098021366 -0.12847841
0000b0 8f 6c 02 be 79 ab f9 bd f1 f5 c5 3c 03 cd 43 3e
       -0.12736724 -0.12190909 0.024165126 0.19121175
0000c0 f5 03 64 bb 52 ab 0e 3b d4 39 da bd 3f 3b 61 bd
       -0.0034792398 0.0021769595 -0.10655561 -0.054988142
0000d0 8a 26 00 3e 89 06 06 3e a3 57 66 be 2a 28 64 bd
       0.12514701 0.1308843 -0.22494368 -0.055702366
0000e0 80 d5 8f bd 30 fe 1d bc ab 7c 0f bd b5 94 9b 3d
       -0.07023144 -0.009643123 -0.035031002 0.07596723
0000f0 3b c2 08 3e 41 08 43 be 93 17 bb bd 44 f8 38 bd
       0.13355343 -0.19046117 -0.09135356 -0.04515864
000100 0e 42 38 bd d4 dc 12 be a6 3c 00 3d 7e bf 59 be
       -0.04498487 -0.14342052 0.03130784 -0.21264455
000110 81 1a 66 bd 04 d7 18 be 1c d4 67 3c 9d 29 1f 3e
       -0.05617762 -0.14925772 0.014149692 0.15543218
000120 0e 1f 38 3e d0 b6 b2 bd ee 29 5f be b2 b2 d3 bd
       0.17980596 -0.08726275 -0.21793339 -0.10336818
000130 b3 a1 48 be 7f f6 6b bd 92 78 f4 bd 41 d8 42 3e
       -0.19592933 -0.057608124 -0.119370595 0.19027807
000140 df 0e e4 3b 1f 4d 4f be dd c6 33 be ad bb 93 3d
       0.0069597806 -0.20244263 -0.17556329 0.07213531
000150 e0 d7 f4 ba a2 71 33 be fe a5 9d 3d 87 4d 0f be
       -0.0018680058 -0.17523816 0.07697676 -0.13994418
000160 4b 0f 4f 3e 16 05 d3 bc 01 2c 3a 3e 6e f9 d2 bd
       0.20220678 -0.025759261 0.18180849 -0.10301481
000170 7a a1 a7 bd 1f a3 d5 bd 90 49 c3 3b 6b 24 85 bc
       -0.08185096 -0.104315035 0.005959697 -0.016252717
000180 dc a0 54 3e d5 f9 eb 3c 5c 0e 3b 3d e9 32 9d bb
       0.20764488 0.028805653 0.04566799 -0.0047973287
000190 7e 3d fe bd a2 18 ec 3c 97 c6 ff bd 7e 2d fb 3c
       -0.124140725 0.02882034 -0.1248905 0.03066134
0001a0 46 85 1a be 64 4f 85 3d af b8 62 bc 2f f2 2e be
       -0.15089902 0.06509283 -0.013837977 -0.17084573
0001b0 fc 10 0c bd a4 70 22 be c6 ee fc bd dd 0d b5 bd
       -0.034195885 -0.15863281 -0.1235023 -0.08840535
0001c0 59 02 c0 3d 42 f8 e3 bd 26 0e cc bd 40 68 77 bd
       0.09375448 -0.11131336 -0.09963636 -0.060402155
0001d0 0a ab fa bc 12 a5 73 be 47 e3 b0 3d 92 92 c4 bd
       -0.030599136 -0.23793438 0.086371 -0.095982686
0001e0 53 4c 63 be 78 c2 26 3e 24 91 65 be 1d 39 19 be
       -0.22197084 0.16285121 -0.22418648 -0.14963193
0001f0 c5 b7 49 be 78 94 2d 3d eb cd 24 bd 38 20 f8 bb
       -0.19699009 0.04237792 -0.04023544 -0.0075722
000200 3b 7a 14 3e ea c9 6c 3d 46 db 32 3d 6b 6e 5c 3d
       0.14499752 0.057809748 0.043666147 0.05381624
000210 51 e1 46 3d 65 ad 8a bd 80 62 5a 3d 0a ae 85 3c
       0.048554722 -0.06771354 0.053316593 0.01631834
000220 d2 06 f5 bd 2b 67 c9 bd 7b ad 96 bd 47 ec a4 3d
       -0.119641915 -0.09834131 -0.073573075 0.08052879
000230 0b 64 2b 3d 01 d7 30 be 0c 05 75 bd 71 ac 24 3d
       0.041843455 -0.17269517 -0.059819266 0.040203515
000240 8c 49 17 be 9a ba 73 3c ff b2 a2 3d 1c ac 18 3d
       -0.1477415 0.014876032 0.07944297 0.03727351
000250 2a be fa 3c 37 e9 19 3e d2 e3 84 bc 17 67 73 bd
       0.030608255 0.1503037 -0.016221914 -0.059424486
000260 1f ae 53 be 85 8e 22 3c 8a ce 97 3c 3f 0c 64 3d
       -0.2067189 0.009921675 0.018531103 0.05567574
000270 aa d3 9b 3d 1e 22 07 3c 2d 0f 94 bd fc 61 f3 3b
       0.07608731 0.00824788 -0.07229457 0.007427452
000280 fc da 95 3c 02 47 66 bd 59 b0 16 be e4 87 00 3d
       0.018292896 -0.056220062 -0.14715709 0.031379595
000290 78 fe 18 3c e2 10 3e 3d da 8a 36 bc 04 f4 eb bd
       0.009338014 0.04640282 -0.011141503 -0.11521152
0002a0 2c 0a 1c 3e 24 58 fa bc 72 1c 07 3e a6 06 ac 3d
       0.15238255 -0.030559607 0.13194445 0.083997056
0002b0 a4 70 0c be 41 ab 29 3c b1 fb 42 3d d3 67 ba 3d
       -0.13714844 0.0103557715 0.047603313 0.09101834
0002c0 65 f6 b2 bd 59 e7 4b bc 68 8d 7c 3d 6b 75 09 bd
       -0.08738402 -0.012445294 0.061658293 -0.033559244
0002d0 fc 04 56 bb de 86 33 3d 69 81 95 bd 5a a7 7e 3d
       -0.003265678 0.04382979 -0.07300074 0.062171318
0002e0 2d b4 44 3c e3 54 24 3c 47 bd 70 3e 13 5d a6 bc
       0.012005848 0.010030004 0.23509704 -0.020308053
0002f0 ac 5a ad 3d 6a 24 b1 3d d8 73 9f 3d 8e 8f 40 3c
       0.0846456 0.086495236 0.07785767 0.011752976
000300 85 b2 db ba e0 1a 74 bd 9f 7c af be c6 7d 3b 3e
       -0.0016761577 -0.059595942 -0.34274766 0.18309698
000310 73 2f 2c 3e 29 70 7e 3e bb fe 2c be d3 b4 28 be
       0.16814975 0.24847473 -0.16894047 -0.16475229
000320 b2 b3 7d 3d 1c 3d 66 be 47 2a bb 3e a8 61 c7 bd
       0.06193895 -0.22484249 0.36555693 -0.09735423
000330 4c 31 99 3e 81 92 aa be 2d cf b5 3e 15 25 73 be
       0.29920423 -0.333149 0.35509625 -0.23744614
000340 a6 f0 c3 3d 0f c9 11 3e 22 76 f8 bb 05 46 1a 3d
       0.095673844 0.14236854 -0.007582442 0.037664432
000350 bc 1d 1e be 5a 78 a0 bb e3 d7 ee bd 28 f4 3d 3c
       -0.1544103 -0.0048971595 -0.11662271 0.011593856
000360 3b 58 c8 bd 99 de cb 3e c0 a8 77 be 91 7e 33 bd
       -0.097824536 0.39818266 -0.24185467 -0.043821875
000370 9b 40 14 3e a0 c5 b6 3b 15 af a1 be 3c 5f 58 3c
       0.1447777 0.005577758 -0.3157889 0.013206299
000380 68 69 fc bd 46 09 31 be a1 f8 ec 3a 3a c9 1c 3d
       -0.12324792 -0.17288694 0.0018079468 0.038277842
000390 e7 44 ce 3b 66 14 85 bd 06 75 91 3e 00 1e 99 be
       0.006294835 -0.06498031 0.28409594 -0.299057
0003a0 71 c9 e6 3d 1c e7 a8 3e 11 85 6d 3e 56 1e 23 3c
       0.11268891 0.32988822 0.23195292 0.009955963
0003b0 5e 5b 11 be 04 00 ae 3e da 41 4f 3e 00 18 1c 3d
       -0.1419501 0.33984387 0.20239964 0.038108826
0003c0 c6 2e a0 be 88 b4 0e 3e 68 db bc 3e 60 db 0e 3e
       -0.31285685 0.13936055 0.36886144 0.13950872
0003d0 dc 5c 4f 3d 1b 03 39 bd 75 37 97 3d b1 dd 15 3e
       0.050625667 -0.045168977 0.073836245 0.1463535
0003e0 60 36 9b 3d 32 bd 3a 3e db 23 4e bd 27 3b 5a 3e
       0.075787306 0.18236235 -0.050327163 0.21311627
0003f0 96 27 2f 3d 40 cf 16 3e 03 f4 81 bd fa c1 43 be
       0.04276236 0.14727497 -0.0634537 -0.19116965

gru1.bias_ih_l0 f4 [192]
000000 b9 34 1d be ee db c3 bc 2c 94 43 bc a3 c3 4e 3e
       -0.15352143 -0.023908582 -0.011937182 0.20191817
000010 53 2c db 3d 87 39 de bd 9b f4 8c bc 40 79 5c bc
       0.107018135 -0.10850816 -0.01720648 -0.013456643
000020 51 35 e8 bd 82 53 3a be c6 b2 dc 3d 2e f7 94 bd
       -0.11338294 -0.18195918 0.10776286 -0.07273708
000030 85 07 98 bd 04 f5 cf bc 31 64 46 bd 88 01 e9 3d
       -0.07423309 -0.025385387 -0.048435394 0.11377245
000040 85 a1 bd 3c 04 d8 f5 3d cc a7 f4 bd 71 19 01 3c
       0.023148308 0.12004092 -0.11946067 0.007879601
000050 49 c4 d1 3d 4a cb cd 3d bd a0 c4 3d 68 e8 c6 3d
       0.102425165 0.1004854 0.09600971 0.09712297
000060 0e 48 d5 bd 7f 90 d4 3d 5f bd 37 3d 06 d2 1a 3e
       -0.10414134 0.10379123 0.044858333 0.1511918
000070 cf 28 a2 3d d6 f1 b9 3b b7 a3 31 bc 39 aa e6 3d
       0.0791794 0.005674581 -0.010842255 0.11262936
000080 ab 3f 52 be 94 89 d1 bd 8a a0 50 be 51 b9 3f 3e
       -0.205321 -0.10231319 -0.20373741 0.18723036
000090 5a 5f 95 3b d7 1e dc 3d b4 0d df bc e2 fd b7 3d
       0.004558486 0.1074807 -0.027228214 0.08983971
0000a0 a8 7f a8 bd 3b e8 19 be 6a f2 ce 3d 5b 43 bd 3d
       -0.082274735 -0.15029995 0.101048306 0.09241363
0000b0 9b 90 b9 bc e9 4e e5 3c 73 96 1d 3d 2b 2a 96 be
       -0.022651961 0.027991729 0.038473558 -0.29329047
0000c0 4f ed a5 3d bb 31 04 3e b7 bb c2 bd 41 8c 88 3d
       0.08101904 0.12909596 -0.0950846 0.06667376
0000d0 cf c8 ce 3d b4 5b 03 be 8e 8f 73 be 43 ca a7 bc
       0.10096895 -0.1282795 -0.2378523 -0.020482188
0000e0 b3 46 6a 3d 5a c7 3f 3e eb eb 7c 3b 4a 5d c0 bd
       0.05719633 0.1872839 0.0038592767 -0.093927935
0000f0 14 9b 71 be 3d dc 7b bd f2 b1 67 3e 42 89 20 be
       -0.23594314 -0.061489332 0.22626474 -0.1567736
000100 b7 e9 8a be b0 82 2c bb 35 b5 65 bc 6f a5 2c be
       -0.27131435 -0.0026323013 -0.014020254 -0.16859983
000110 e1 ba 7c 3e 39 62 95 3d 57 22 07 3e b3 63 9d be
       0.24680664 0.07294125 0.13196693 -0.30740127
000120 b9 5c 8d be 93 c3 83 3d 0a b6 60 3e 03 d1 39 be
       -0.27609804 0.06433787 0.21944442 -0.18146138
000130 23 25 3f bc b6 d3 92 3e f8 33 d8 3c 71 22 a9 3d
       -0.011666569 0.28677148 0.026391968 0.08258522
000140 f9 6a 35 bd 4f 38 55 3c 78 2b 1e be 59 fe 1d be
       -0.04429147 0.013013913 -0.1544627 -0.15429057
000150 c7 9c 70 3e c0 15 1b be ac c8 bf 3c 57 61 b0 bc
       0.23497306 -0.15145016 0.023411117 -0.02153079
000160 5e ea 74 3d 27 46 d4 3c d4 a6 8d be 85 34 8f 3d
       0.059793822 0.025912357 -0.27666342 0.06992439
000170 87 43 6c 3c b0 2d f2 bd 2d 9a 30 bb ed 84 d7 bd
       0.014420397 -0.118251204 -0.0026947365 -0.105234005
000180 1a 32 b5 bd f3 8a a3 be 5f 24 a6 be a1 f4 70 bd
       -0.08847447 -0.31941947 -0.32449624 -0.058827046
000190 54 89 02 3d 77 11 7a be 11 9d bc 3d b7 a3 e3 b9
       0.031869248 -0.24420725 0.092096455 -0.0004341879
0001a0 59 ff 16 be 24 d8 0c 3e 1b 40 dd be e7 c9 32 3d
       -0.14745845 0.13754326 -0.4321297 0.04364958
0001b0 ca cd 5e bd 4e 08 f4 3d d4 20 c9 3d ca 35 aa bd
       -0.054395474 0.119156465 0.098207146 -0.08311041
0001c0 45 05 f3 3b 1b 88 06 bd ec 21 7d 3e 3d 68 fd 3d
       0.0074163997 -0.032844644 0.24719971 0.123733975
0001d0 84 9b 5a 3b 7b 6b 90 be 5c 4e f8 be 5f 30 5b 3e
       0.0033356855 -0.28207 -0.48497283 0.21405171
0001e0 76 bb 1c be aa 42 de 3e c1 c2 cd be da d0 95 be
       -0.15305886 0.43410236 -0.40187648 -0.29260904
0001f0 4d f6 42 bd c2 f3 92 be 7c af f8 bd 22 16 ae be
       -0.047598172 -0.28701597 -0.12142846 -0.3400126
000200 b1 15 60 3e 47 42 1e be 54 cc 29 be a9 35 66 3d
       0.21883275 -0.1545497 -0.16581851 0.056203518
000210 7a 78 3d 3e 40 12 9d 3d bd 5c 53 be 9e 5e e5 bd
       0.1850299 0.076694965 -0.20640846 -0.111996874
000220 62 e9 5c be 52 2c ac bd 0f 44 12 3e e1 2a 1d 3d
       -0.21573403 -0.08406891 0.14283775 0.03837097
000230 16 7d 04 3e e4 ae 03 be 80 d9 21 3e e2 0a 42 be
       0.12938341 -0.12859684 0.15805626 -0.18949464
000240 fc 1e 2b be f8 b0 33 3e 96 97 38 3e cd 32 73 bd
       -0.16711038 0.17547977 0.18026575 -0.05937462
000250 98 af 5b bd b3 58 fa 3d c7 a9 8c bd 35 72 d0 ba
       -0.053634256 0.12223949 -0.0686832 -0.0015903177
000260 a4 d2 1c be ce 75 08 3e f0 74 8f bd 07 75 ff bc
       -0.15314728 0.13326189 -0.07004726 -0.031183733
000270 f4 64 2d 3e 50 34 57 3d eb 27 c7 bd 29 c3 d2 3d
       0.16933042 0.052540123 -0.097244106 0.1029113
000280 fd d8 a5 bd 16 b1 33 be 5a fb 59 be 3b 83 d7 bd
       -0.08098028 -0.17548022 -0.2128729 -0.10523077
000290 d1 ef d6 bd 82 a1 81 3d 01 2a bb 3d 6f 1d 30 be
       -0.1049496 0.06329633 0.09138871 -0.17198728
0002a0 92 08 20 3e 9a ec 1b 3e a4 90 06 3e 92 4c 23 3e
       0.1562827 0.15226975 0.13141114 0.15947178
0002b0 d7 18 17 bd d2 6c 9d 3d e3 ad 1c 3e 28 e9 29 3e
       -0.036888923 0.076867715 0.15300708 0.16592848
0002c0 2e 01 2a be 53 45 d8 3d 63 bb 0b 3e 79 56 46 3e
       -0.16602013 0.105600975 0.13645701 0.19368924
0002d0 53 65 d8 bd d9 d8 38 3e 86 06 07 be 26 96 de 3d
       -0.10566201 0.18051471 -0.13186082 0.10868482
0002e0 d4 c9 55 3e f5 49 26 3e e6 f6 fa 3d 82 02 8a 3d
       0.20877773 0.1623915 0.122541234 0.067387596
0002f0 d1 65 bd 3d dd 98 8f be f1 26 3f 3d d4 01 ea 3d
       0.092479356 -0.28046313 0.046667997 0.1142613

gru1.bias_hh_l0 f4 [192]
000000 d5 88 f2 bd 77 7f 01 3e 9e 4f 82 3d 95 57 2f 3e
       -0.11842505 0.1264628 0.06362842 0.17123254
000010 a6 74 d6 3d 37 ec 4a 3d c4 71 a8 3c f7 17 4c be
       0.10471468 0.04954168 0.02056206 -0.19931017
000020 51 a3 16 be 96 a7 b9 bd 6e 20 8f 3d ee 5e 16 be
       -0.14710738 -0.090651676 0.06988607 -0.1468465
000030 94 54 bc bd 44 d7 60 bc 5f 92 86 3b 42 50 e9 bd
       -0.091958195 -0.013723198 0.0041068043 -0.11392261
000040 f4 db 50 3e 6c 29 13 3e 1b a6 7a bd a2 a6 7b bd
       0.20396405 0.1437127 -0.061193567 -0.06143821
000050 e8 93 c3 3d 2c 6b ab bc 68 59 94 3d fb d9 ce 3d
       0.09549695 -0.020925127 0.072436154 0.1010017
000060 36 5a f8 bd 88 be 50 bd 01 32 2f 3e c1 76 70 3e
       -0.12126581 -0.050962955 0.17108919 0.23482801
000070 40 7a 82 3e 0e 32 20 3d 85 4f fc bc 34 de f9 3d
       0.25483894 0.039110236 -0.030799637 0.12200585
000080 a5 26 88 be 79 78 ff bc 80 d1 55 be 1b 33 74 3e
       -0.26591983 -0.031185376 -0.20880699 0.2384762
000090 18 5b 1a 3d 2e c1 a0 bd 5f 5e d2 3d b6 b2 d8 3d
       0.03768453 -0.07849346 0.10271906 0.105809614
0000a0 39 f0 24 bd 1f cb 8a bd 6c 5c c4 bd e9 c9 03 be
       -0.040268157 -0.067770235 -0.095879406 -0.12869991
0000b0 d9 01 e2 bc dd 31 ef bb 0e 62 c0 bd 76 70 4b be
       -0.027588772 -0.0072996453 -0.093937024 -0.19867119
0000c0 e1 7a a0 3b bd 26 1c 3e db 63 19 bd ea de 1c 3c
       0.004897461 0.15249152 -0.037448745 0.009574631
0000d0 91 28 94 3e 8f 6e 71 be 14 e2 80 be 6b 0f cb bc
       0.289372 -0.23577331 -0.25172484 -0.024787625
0000e0 8b 07 dc bd 73 9f 14 3e 71 75 db 3d c5 76 c4 3d
       -0.10743626 0.1451395 0.107157595 0.09592966
0000f0 c8 bd d8 bd ff 70 2e be 7e 9a 9c 3d 85 33 37 be
       -0.10583073 -0.17035292 0.076466545 -0.17890747
000100 8c 36 5b be be 4b 31 3e 9e 71 25 bb 81 43 9a bd
       -0.21407527 0.1731405 -0.0025244723 -0.075324066
000110 16 4d 6e 3e b4 16 83 bd 36 16 0b 3e 9f 3b 82 be
       0.23271593 -0.06400815 0.13582692 -0.25436112
000120 dd 63 26 be 81 c0 0e be c3 f4 1d 3e e3 b9 51 bd
       -0.16249032 -0.13940622 0.154254 -0.051202666
000130 74 74 ad bd d2 1a a8 3e 20 17 d7 3d 6c 68 30 3c
       -0.08469477 0.32832962 0.105024576 0.010767084
000140 1a 17 0f bd d0 b3 8b 3d 9e a0 05 be 4d 85 50 bd
       -0.03493414 0.06821406 -0.13049552 -0.050908376
000150 9b d9 c4 3d 04 e1 89 be 45 aa ee 3c 21 c4 0b be
       0.096118174 -0.26929486 0.029133925 -0.13649036
000160 4e 71 d3 3c e8 94 a7 3d 20 75 8c be e3 05 a9 3a
       0.025810864 0.081826985 -0.2743311 0.0012895431
000170 4f 6b 76 3d 83 78 d2 bd a8 83 f9 3c 86 09 06 be
       0.06016093 -0.10276892 0.030458286 -0.1308957
000180 92 29 18 3d 57 fe 75 be 5e 06 a6 be ec 79 f0 bd
       0.03714902 -0.24022804 -0.32426733 -0.11742005
000190 b7 5b bb bd f4 00 64 be ba a4 07 3e 9c 8a e9 3b
       -0.091483526 -0.22265989 0.13246432 0.007127119
0001a0 4f e8 8f be 38 40 0e 3e db a6 a6 be f7 5b 3b bd
       -0.28106925 0.13891685 -0.32549176 -0.045742
0001b0 3d 75 7a bc 06 d1 3c 3e 01 26 f1 bc 0d 73 16 3d
       -0.015286741 0.18439111 -0.029437067 0.036730815
0001c0 5a ac cc 3d 2d 50 50 be 85 83 88 3e 12 19 35 3e
       0.09993811 -0.20343085 0.2666284 0.17685345
0001d0 fa 33 fa 3d 83 1b ac be 14 a2 c4 be 79 22 45 3e
       0.12216945 -0.3361474 -0.38404906 0.19251432
0001e0 fd 23 a2 bd b8 c1 48 3e ec d0 ae be cc 1f 9a be
       -0.079170205 0.19605148 -0.3414377 -0.30102384
0001f0 f8 99 a2 bc 97 a9 9f be 49 12 a0 be fb ca bc be
       -0.019848809 -0.31184074 -0.3126395 -0.36873612
000200 8a eb d6 bc b7 e3 35 be c2 9d c7 bd 10 db 80 bd
       -0.02623536 -0.17762648 -0.09746887 -0.06291783
000210 02 e2 47 3e 14 8b 28 3e d6 02 f0 bd 82 e2 51 be
       0.19519809 0.16459304 -0.11719291 -0.20496562
000220 b8 f2 b1 b9 90 3d cf 3c 11 c9 40 3e 9f e8 69 bd
       -0.0003394091 0.02529791 0.18826701 -0.05710661
000230 c8 94 44 3d b5 13 eb bd f0 bd 19 3e 1f b6 c8 bd
       0.04799345 -0.11478368 0.15013862 -0.09800362
000240 e3 99 f7 bd 46 bb af 3c df e1 9e 3d cf a1 b7 3d
       -0.120898984 0.021451604 0.07757925 0.089664094
000250 04 75 d5 bd 70 aa bb 3d 3d 0a f3 bd 98 e7 c3 3d
       -0.104227096 0.09163368 -0.11867187 0.095656574
000260 f8 a8 02 bd 49 04 eb 3d 15 10 54 be 5e be a4 bd
       -0.031899422 0.11475427 -0.2070926 -0.08044122
000270 20 3e 31 bc d3 88 24 3d 34 ab 1e be 22 63 2e bd
       -0.010818034 0.04016955 -0.15494996 -0.04257501
000280 34 7b 0f be dd 70 8b bc f1 c1 7a bd 67 3b eb 3d
       -0.14011842 -0.01702159 -0.061220113 0.114859395
000290 22 e9 f1 bd 46 42 92 3d f8 78 f4 3d bb d9 bc bd
       -0.11812045 0.07141547 0.119371355 -0.09221216
0002a0 87 1b 8e 3d 38 49 60 bd b9 59 2f 3e 1a a7 0c 3e
       0.06938844 -0.054757327 0.1712407 0.13735619
0002b0 a1 b4 2c bd 11 15 2a 3d 8a 22 1c 3e 8c 9c 2b 3d
       -0.04216445 0.041523997 0.1524755 0.04189734
0002c0 f8 94 23 be 06 a2 2c 3e 84 e0 31 3e 57 f3 56 3e
       -0.15974796 0.16858682 0.17370802 0.20991264
0002d0 93 76 3d be f5 c8 3f 3c fe 23 26 be 31 51 0e 3e
       -0.18502264 0.011705627 -0.16224667 0.1389816
0002e0 64 2f f2 3d ae 32 38 3e d0 9b a7 3d 35 b6 15 3d
       0.11825445 0.17988083 0.08184016 0.03655072
0002f0 c2 90 90 3d f7 1d 1a 3b 50 1d 00 3d 1a 68 43 3d
       0.0705886 0.0023516396 0.031277955 0.0477067

gru2.weight_ih_l0 f4 [192, 64]
000000 a3 15 ce 3e af 50 2a 3d 74 0e 90 be 83 95 69 3d
       0.40250883 0.041580852 -0.28136027 0.05702735
000010 0b cf 79 bd be 0d 84 bd 92 fb 54 bd f6 49 87 be
       -0.060988467 -0.064479336 -0.05199773 -0.26423615
000020 72 5a 2c be 50 c7 d9 3e 80 86 03 3d da 6d eb bc
       -0.16831377 0.42534876 0.03211069 -0.028738905
000030 be 44 04 3f a6 3c 0c be de a9 93 3b c0 12 c7 be
       0.5166739 -0.1369501 0.0045063337 -0.38881493
000040 7f 00 87 3d 61 dc 24 3e 9e 8b 9d 3e eb 17 a4 bd
       0.065918915 0.16099693 0.30770582 -0.080123745
000050 79 27 2f 3d 01 c9 a0 3e 38 bf ae 3d fe 24 6e 3d
       0.042762253 0.31403354 0.08532566 0.058140747
000060 cf 3a fb be 2a 30 04 3e e5 24 13 be df 2e 09 bd
       -0.49068305 0.12908998 -0.14369543 -0.033491965
000070 d3 46 62 bd 26 40 7d 3e e8 0b 54 be dc f8 10 3e
       -0.055243324 0.24731502 -0.20707667 0.14157432
000080 c1 80 69 be d0 8a 32 be 3c f8 27 be 15 db 04 be
       -0.22803022 -0.17435765 -0.16403288 -0.12974198
000090 47 dc a0 bd 18 11 51 be 49 3d 19 3f 2c f1 a2 bd
       -0.078545146 -0.20416677 0.5985914 -0.07956156
0000a0 81 f6 e2 3d 9d e3 95 bd a8 01 db 3e 24 6d 8e 3d
       0.11082173 -0.073188044 0.427747 0.06954411
0000b0 4d f6 be bd a2 b4 95 3d 16 01 37 3e 00 09 f7 3e
       -0.09324322 0.073098436 0.17871508 0.48249054
0000c0 ff 10 31 be da 6f 34 3e 15 2e a7 3d 8f 83 83 3e
       -0.1729164 0.17620793 0.08163086 0.2568631
0000d0 16 23 51 3e 24 8a 35 3e 92 8c 8b be f9 a0 e5 3d
       0.2042354 0.17728478 -0.27255684 0.11212344
0000e0 67 c8 89 3e 6c 0e c0 3b c7 fb e2 3d 1e 7b 28 3e
       0.26910707 0.005861094 0.11083179 0.16453215
0000f0 e6 cb 30 3e 69 7f bc bd fe bb 71 3e d9 34 3e 3c
       0.17265281 -0.09203989 0.2360687 0.01160928
000100 14 41 d4 be 81 1d 3f bd 0d 8c 85 3c f7 80 44 3e
       -0.414559 -0.046658996 0.016302133 0.19189821
000110 a3 9b 93 bc 48 45 46 bd be 87 b5 3d 0d 13 49 3d
       -0.01801855 -0.048405915 0.088637814 0.049090434
000120 be d5 8b be 52 0a 7c bf fe 10 81 bd 45 b9 6d 3d
       -0.2731151 -0.9845325 -0.06302069 0.058038015
000130 51 59 f8 be 56 ce aa 3e 84 5f 35 3d 33 aa 74 3d
       -0.48505643 0.33360547 0.044280544 0.059732627
000140 65 c8 cb 3d db 3b 12 bd 1a ed aa 3a 73 0a 3b be
       0.099503316 -0.035701614 0.0013040632 -0.18265705
000150 ae 07 ba 3d bb a7 1f bd 92 68 b9 bd 38 79 34 3f
       0.09083496 -0.03897832 -0.09053148 0.70497465
000160 57 7b 4f 3f 94 05 8f bd 2e 13 1c be 73 3c 9f bd
       0.81047577 -0.06983486 -0.15241691 -0.07775202
000170 91 fe c0 bd 85 81 e4 bb c6 5e fd bd 91 75 a0 bd
       -0.09423555 -0.0069734477 -0.12371592 -0.07834924
000180 99 97 6f 3e bd 3d 71 3e 4f b1 c5 3e 3b d4 f1 bd
       0.23397674 0.23558708 0.38611838 -0.11808058
000190 84 f3 56 3e e0 aa b2 be 3b 75 78 be cf 43 77 3e
       0.20991331 -0.34895992 -0.2426347 0.2414696
0001a0 2b 7f e5 be 31 55 e5 bd f2 c0 07 bf 37 8a d9 bc
       -0.44823584 -0.111978896 -0.53028786 -0.026555164
0001b0 0d b4 3e 3d f7 60 75 bd 53 31 86 3e 59 cb 94 be
       0.04655843 -0.059906926 0.26209506 -0.29061392
0001c0 c7 5a 96 3d 06 ef ed 3e 88 8f e4 bd 93 71 86 bc
       0.07341533 0.46471423 -0.11160189 -0.016411578
0001d0 de cf 91 bd f6 14 de be 37 0e 11 3f d1 34 87 bd
       -0.07119726 -0.43375367 0.56662315 -0.06601871
0001e0 c7 b6 01 bf bd 7b c4 3d 5b a7 cd be 5d 81 20 be
       -0.5066952 0.09593914 -0.40166745 -0.15674348
0001f0 4e 31 ef bd 04 84 87 3e 6e bc 68 3e a3 74 96 be
       -0.11679326 0.26467907 0.2272813 -0.29385862
000200 8a b9 f2 bd f1 81 05 3e 16 c0 12 3e cb 7b 54 3d
       -0.11851795 0.1303785 0.14331087 0.05187587
000210 77 0e 28 3c ef d6 66 bb ae 0e 87 3d 96 eb 4e bc
       0.010257355 -0.0035223325 0.06594597 -0.01262941
000220 b1 97 b2 bc b1 d7 22 3f 82 a9 83 be 7c 8c 06 be
       -0.021800848 0.6361037 -0.25715262 -0.13139528
000230 ac 0d 2e bb c5 82 4b 3e 2c 25 63 be de 43 5f 3d
       -0.0026558442 0.19874103 -0.22182149 0.054508083
000240 9a 41 3a 3e 61 f2 02 be b8 cb d0 bd d8 4a 1d bd
       0.18189088 -0.12787773 -0.10195106 -0.038401455
000250 03 f3 4d 3e ab 2a 19 be 59 64 95 3d d8 3b 1c 3e
       0.20112233 -0.14957683 0.072945304 0.15257204
000260 e9 46 0a bf b2 5a d4 3c 9a da 29 3e 2c a9 2d 3d
       -0.5401445 0.025922153 0.16587296 0.042397663
000270 b8 10 0a be 6d 62 83 bd 3a 3f 84 bd 44 79 0e bd
       -0.1348294 -0.064152576 -0.06457372 -0.034783617
000280 64 90 04 3e e4 65 57 3d 96 f1 74 3e de 86 03 be
       0.12945706 0.052587405 0.23920283 -0.12844416
000290 b8 9c 8f bc ad 95 1f 3e 40 16 9f 3c 10 df c8 3d
       -0.017530784 0.1558444 0.01941979 0.09808171
0002a0 d4 4a 2d be fc 46 6d be 87 6e 9c be 6e 31 c7 be
       -0.16923076 -0.2317161 -0.30553076 -0.389049
0002b0 e5 c3 bb bd b3 a2 d6 3c 10 ac 1a be ad 29 04 be
       -0.09168223 0.026200628 -0.15104699 -0.12906523
0002c0 df 19 f3 3c 78 6b 27 be f4 a3 54 bb a9 50 9e be
       0.029675422 -0.1634959 -0.0032446356 -0.30920914
0002d0 12 0c b1 3e 9f 67 b1 bc 8c bd 33 3e ec 59 13 be
       0.3457952 -0.021655856 0.17552775 -0.14389771
0002e0 a1 ed e4 be 7c 0c a7 bd ae 97 52 be 2d 32 0a be
       -0.44712546 -0.08156678 -0.20565674 -0.13495703
0002f0 83 16 28 be 3d bf 0a 3e f6 3a dd bd a0 75 1d bd
       -0.16414838 0.13549514 -0.108022615 -0.038442254
000300 b9 e1 d6 3d 5f 62 0f be c7 29 57 bc 3f 30 3a 3c
       0.10492272 -0.1400237 -0.013132519 0.011364042
000310 c6 cf a3 3d e1 8b 08 3e e7 94 13 be 39 a1 69 3c
       0.07998614 0.1333461 -0.1441227 0.01425963
000320 18 26 d8 bc d0 97 6f bd f1 37 e9 3d be 90 97 bb
       -0.026385352 -0.05849439 0.11387623 -0.004625409
000330 03 e4 13 3d 34 8b 32 be c5 90 1c 3e 38 5c 08 bd
       0.03610612 -0.17435914 0.152896 -0.03329107
000340 2b d2 95 3e 42 61 a6 3e 17 4e e0 3d 23 47 6c 3d
       0.29261908 0.32496077 0.109523945 0.05768503
000350 1e ca 41 bc 16 79 67 3d 84 4d 26 be 82 c1 e9 bd
       -0.011827974 0.05651196 -0.16240507 -0.11413862
000360 62 1e 10 be 51 60 47 3e 18 18 14 bd bd b6 22 bd
       -0.1407409 0.19470336 -0.03615579 -0.039725054
000370 f7 02 7a bd 75 2b 86 3d 25 1b 19 3d dd 74 0f 3e
       -0.061037984 0.065512575 0.037379403 0.14009424
000380 25 1e b6 bd 9a 90 8d 3d 31 fd e0 bd ee 21 e3 bc
       -0.08892468 0.06912346 -0.109857924 -0.02772614
000390 c7 b5 dd bc e8 3c ad bd d2 a3 8d 3e b5 88 86 be
       -0.027064217 -0.084588826 0.27664047 -0.26276174
0003a0 9e be 72 3c fb 8e 93 3d 93 28 b1 3c 42 10 cb 3c
       0.0148159545 0.07205006 0.021625793 0.024788026
0003b0 07 5e 88 bc 74 a2 78 3e 76 b3 54 be 2f c8 34 be
       -0.016646398 0.24280721 -0.20771584 -0.17654489
0003c0 0f 9b 87 be 88 b4 1b be 4b ce 5b 3e 18 4a 49 3e
       -0.26485488 -0.15205586 0.21465413 0.19657171
0003d0 44 6b 80 3e e3 3b a0 bd d8 51 67 bd 8a 2f 3a 3d
       0.25081837 -0.078239225 -0.056474537 0.045455493
0003e0 58 a5 cd 3d b9 1f 6a 3e 51 d3 dc 3c 0f 40 64 3b
       0.100413024 0.22863664 0.026956232 0.003482822
0003f0 8c 93 f3 bd 8b 13 8a bd 91 fc c7 3b 2b ee c1 3d
       -0.11893377 -0.06742009 0.0061031063 0.09469255

gru2.weight_hh_l0 f4 [192, 64]
000000 a8 34 43 be d7 e8 58 3e d3 6c 21 3d e9 b4 ea 3d
       -0.19063056 0.21182571 0.039410423 0.11460287
000010 40 6b 47 be 9a 12 0c be e1 a6 e3 bd ed e9 1c 3e
       -0.19474506 -0.13678971 -0.11115814 0.1532361
000020 78 cd 7f 3c 24 0c 86 3e 82 cb 19 be 7e 49 5b 3e
       0.015612952 0.26181138 -0.15019038 0.21414754
000030 18 46 b1 3d a6 08 fb 3d a1 ee e9 bc cd 5f 7f bd
       0.086559474 0.12257509 -0.02855617 -0.062347222
000040 02 a7 e4 3c fc af 14 be a7 7d a6 3d 5d 4d 33 be
       0.027911667 -0.14520258 0.08129435 -0.1750998
000050 e1 e6 c6 3d 56 88 5e be d1 e3 64 bd cb 98 09 be
       0.097120054 -0.21731696 -0.055881325 -0.13437192
000060 4a 72 4c 3c 24 42 74 be 7f a6 1c be bb d0 5f be
       0.0124784205 -0.23853356 -0.15297888 -0.21856968
000070 f9 78 a9 bd 26 a7 43 3e 2b 88 03 3e b2 b9 ca bd
       -0.08275027 0.19106731 0.12844913 -0.098987
000080 a3 da 35 be b6 b3 ae 3d f7 ed 1a 3e f9 82 45 be
       -0.17759185 0.08530371 0.15129839 -0.19288243
000090 f4 db c1 3c 9d 05 72 be 4c 2a 77 bc 7e 34 47 3d
       0.023664452 -0.23634954 -0.015085768 0.048634045
0000a0 69 e0 18 3e 7a 26 fb 3d 47 af 53 3d 9e a9 31 be
       0.14929356 0.12263198 0.05168083 -0.1734986
0000b0 15 1f 8f bd ca ae 90 3e 21 59 dd bd 79 b8 8f be
       -0.0698835 0.28258353 -0.108080156 -0.2807043
0000c0 be b6 f2 bc 5a 7f 2f 3d 98 ae 04 3d da b8 1f 3d
       -0.029628154 0.04284606 0.032393068 0.038994648
0000d0 ba 6f 04 be 83 e2 1c 3e 46 61 db 3c 1c ee f5 bc
       -0.12933245 0.15320782 0.026779782 -0.030020766
0000e0 17 de e6 bd f5 06 21 3d da 94 a2 3e ff a3 a5 3d
       -0.11272829 0.039313275 0.3175419 0.080879204
0000f0 fd 63 a1 ba 5f f7 02 be 53 cb f1 3c 8b 85 8f bd
       -0.0012313124 -0.12789677 0.029515898 -0.07007893
000100 2c c2 02 be fd c9 e0 be dd 77 bf 3c b4 e8 b9 3e
       -0.12769383 -0.43904105 0.023372585 0.3631035
000110 6a d1 b7 3e e1 f8 a3 bd ac dc 00 bd 4e 53 55 3d
       0.35901958 -0.08006454 -0.03146045 0.0520814
000120 ae 0d a5 3d a2 72 68 3d 63 04 a9 3e 4c 5d 91 be
       0.0805925 0.056749947 0.3301116 -0.28391492
000130 b1 c1 1d 3f ff c5 31 bd cf dc a1 3c d4 14 ae bd
       0.61623675 -0.043401714 0.01975861 -0.085000664
000140 18 86 bb 3d 38 ea 9d 3e 0e a8 61 3d 19 37 82 be
       0.09156436 0.30842757 0.05509191 -0.2543266
000150 66 d8 9e bd 08 8e c7 3e be 9b 4f 3d 4f 7c 9a bc
       -0.077561185 0.3897555 0.050685637 -0.018858103
000160 e9 fa 85 3c af 9e 8e bc d4 fe 19 bd ce 53 b4 3e
       0.016354995 -0.01740965 -0.03759654 0.35220188
000170 d1 a7 dc bd 4e d0 41 be ee fb 57 bd b7 bf 9a bd
       -0.10774196 -0.18927118 -0.052730493 -0.07556098
000180 0f a9 2c 3e d8 32 0d bc ec 62 54 bd e5 e6 86 3c
       0.16861366 -0.008618079 -0.05185215 0.016467521
000190 e5 68 be be 3c 97 92 bd 03 56 6b bd 9e a6 18 bd
       -0.37189403 -0.07157752 -0.057455074 -0.037268274
0001a0 61 4e 58 bd fc c3 04 3d c1 83 23 3e 41 7c 2f 3c
       -0.052809123 0.032413468 0.15968229 0.010710777
0001b0 52 1a 3b 3c 63 73 99 be 78 c7 10 bd 36 38 e1 bb
       0.0114198495 -0.29970846 -0.03534648 -0.006873156
0001c0 74 bd 64 bc aa d1 9c bd 19 4f 0f be 4f 37 63 3e
       -0.013961185 -0.07657178 -0.13995017 0.22189067
0001d0 0b 02 a9 3d b9 d7 6f bd 9b 1d 4c be c1 5a 4e bd
       0.08252343 -0.05855534 -0.19933169 -0.05037952
0001e0 ee 9d 7f 3e a0 64 11 be 08 db 8e 3c dc ac 36 be
       0.24962589 -0.14198542 0.017438427 -0.17839378
0001f0 89 d6 9e be 7e 9c c5 3d c8 06 0b 3b 5f 40 88 3e
       -0.31023052 0.09648989 0.0021213759 0.2661161
000200 9f a1 00 be e9 39 72 3e 6e 4e f9 bd b9 4c f2 3d
       -0.12561654 0.23654903 -0.121731624 0.1183104
000210 ab 77 1d 3e cb 01 79 3b 46 68 0c be 2a f7 f1 3d
       0.15377681 0.0037995453 -0.13711652 0.11814721
000220 1e 64 63 ba 0d a2 c1 3d dc 96 23 3e 32 2e ae 3e
       -0.00086742814 0.09454737 0.15975517 0.3401962
000230 2c a0 e9 3c eb cb 98 3d 70 31 27 3e 9a 9d a3 bd
       0.028518759 0.07460769 0.16327453 -0.079890445
000240 b2 08 f5 3c 41 61 0c bd 22 69 64 bd db 05 53 bd
       0.029911373 -0.034272436 -0.055764325 -0.051519256
000250 76 c1 9e 3d 0c 26 af bd bc e8 88 3d 72 b7 27 3e
       0.077517435 -0.08552179 0.066850156 0.16378573
000260 b4 6a 73 3c 25 0c 69 3e f3 ac 11 3d 02 ad 89 be
       0.014856983 0.22758539 0.035565328 -0.26889807
000270 c9 8d 29 be 71 2a 50 3e 8f fd f4 3d 68 84 6f be
       -0.16557993 0.2032869 0.11962425 -0.23390353
000280 78 a9 0e bd 21 b2 de 3d 08 54 6c bd 61 3c a4 bc
       -0.034829587 0.10873819 -0.057697326 -0.020048322
000290 42 5a 6e 3c 14 1d 5c bd 3d c9 8f 3d 2f bf 2b be
       0.014547886 -0.05373867 0.07020805 -0.1677215
0002a0 79 41 28 3e 40 51 80 3e d1 80 16 3e 7e 76 aa be
       0.16431226 0.2506199 0.14697577 -0.33293527
0002b0 bd 69 36 3d 48 ce 61 bd d4 1f 13 3e b3 96 2a be
       0.044534434 -0.055128366 0.1436761 -0.1665905
0002c0 80 33 69 be 01 f7 43 3e c3 fb 97 3c 91 c2 85 3c
       -0.22773552 0.19137193 0.018552667 0.016328128
0002d0 bb bd 6c be 5e 52 40 3e 24 67 08 bd 05 93 0d be
       -0.23119251 0.1878142 -0.033301488 -0.13825615
0002e0 b4 87 b3 be 47 79 3d be 73 03 28 be 6b 87 7d 3e
       -0.3506447 -0.18503295 -0.16407566 0.24758689
0002f0 28 63 50 3d 49 ef e4 bc f8 5a d8 bc 1f 4a 94 bd
       0.050875813 -0.027946131 -0.026410565 -0.072407
000300 cd c9 1f be ff 3a 9d bc e8 2f 27 3e b5 3e 79 3e
       -0.15604325 -0.01919317 0.16326869 0.24340327
000310 17 9a d8 3d f4 52 df 3d 1c f2 53 be a7 ad 7b 3d
       0.10576265 0.10904494 -0.20697826 0.061444905
000320 d5 ac 30 3d 57 6f 7d bc dc 7e d5 3d f6 df 36 3d
       0.043133575 -0.01546844 0.10424587 0.04464718
000330 ea e2 a0 bd 17 b9 21 3a f5 26 2b 3d 3b 69 97 bd
       -0.078557804 0.0006169243 0.0417852 -0.07393118
000340 3a a1 02 3e cd 5f 8b be 0b 0b 6f be 95 12 4d 3e
       0.12756816 -0.27221528 -0.23344056 0.2002662
000350 b1 bb ed bd 59 51 61 be ba 4e 25 3e 49 4f db bd
       -0.11608065 -0.22003688 0.16143313 -0.10708482
000360 c0 36 25 3e 1f fd 17 bd 9c 36 86 3d 80 fb 95 3e
       0.16134167 -0.03710663 0.06553385 0.29293442
000370 77 05 90 bd 59 66 c0 bd 34 5f 91 3d c3 c0 f9 be
       -0.07032292 -0.09394521 0.07098237 -0.48779878
000380 0c fc 54 be 21 87 21 bd bf 13 5d bd 5b bc f5 be
       -0.20799273 -0.03943551 -0.05397391 -0.47995266
000390 54 18 f8 3c c1 45 7a 3d e2 5d d3 bd 39 2d f4 bd
       0.030285038 0.06110168 -0.10320641 -0.11922688
0003a0 48 54 3d 3e 8f 4d 05 be 95 e7 0e 3d 88 f8 fb 3d
       0.18489182 -0.13017868 0.034888823 0.12303263
0003b0 56 dd 03 be 5a 25 8a bc 33 94 52 bd 4c d0 ac bc
       -0.12877402 -0.016863514 -0.051410865 -0.021095417
0003c0 05 c8 45 be 4c ca fd bd d1 48 ef bd f3 4a fb 3d
       -0.19314583 -0.12392101 -0.116838105 0.12270155
0003d0 c7 e9 94 3e 42 43 86 3e 2c be c7 3d fd 9b 18 be
       0.29084608 0.2622319 0.09753069 -0.14903255
0003e0 38 25 01 3e 1f 89 44 be 52 f0 00 3e d5 1a bf 3d
       0.12611854 -0.19192933 0.12591675 0.0933129
0003f0 19 69 47 bb e7 3b c9 3c 60 24 0f 3d 7e bb c9 be
       -0.0030427633 0.024564696 0.0349468 -0.39400858

gru2.bias_ih_l0 f4 [192]
000000 96 5c ad bd 51 39 1e 3e 3f 31 2e 3d 45 dd bc 3d
       -0.08464925 0.15451552 0.042527433 0.09221891
000010 0e b5 e5 bc 58 0b 39 3d 51 f1 6e bb 44 95 91 3e
       -0.028040435 0.045176834 -0.0036459754 0.28434193
000020 58 a8 eb bc bf e1 61 bc 51 0a 18 3d 5f b2 4d 3e
       -0.028766796 -0.013786732 0.037119213 0.20087574
000030 29 ec 01 bd 03 5a 0d 3e 01 25 21 3e 38 04 a3 3d
       -0.03171936 0.13803868 0.15736772 0.07959789
000040 b9 0a 6a 3b d6 b6 fb 3d a8 74 7a 3e 37 fb 07 3e
       0.0035711958 0.122907326 0.24458563 0.13279425
000050 41 14 d3 bd 59 a4 b4 3e cb 3f 91 bc 08 e7 8f 3d
       -0.103065975 0.35281637 -0.017730614 0.070264876
000060 43 03 95 3c bb e3 15 3e 09 d5 7b 3e 85 9d 67 3e
       0.018190032 0.14637654 0.24592985 0.22618683
000070 bf 4d e3 3d ba ff 91 3e 4e 78 a3 bb a6 06 0f 3e
       0.11098813 0.28515416 -0.0049887067 0.1396738
000080 04 86 2f 3e e8 c1 96 bc 56 eb 47 bd 7b 5b 28 3e
       0.17140967 -0.018403009 -0.04880842 0.16441147
000090 9b 80 c9 3d a7 27 93 3e 17 84 12 3e f9 13 bc bc
       0.09838983 0.2874119 0.14308201 -0.022958742
0000a0 72 6e f3 3e 90 71 88 3e ea b4 23 3d a1 09 6b 3e
       0.475452 0.2664914 0.039967455 0.22952892
0000b0 8b 7a 26 3e 33 3f ce 3c 94 21 ae 3d 0e d7 87 bd
       0.16257684 0.02517662 0.08502498 -0.06632815
0000c0 04 9f e8 3d ea f6 15 3e 2a 35 dc 3d 15 88 21 bd
       0.11358455 0.14644971 0.10752328 -0.03943642
0000d0 c3 2e 78 3e 2b a7 e7 3c 0d f9 b6 3d e1 35 e5 3d
       0.24236588 0.028277954 0.089342214 0.11191917
0000e0 75 be 85 3e 03 64 80 3e 6d 7b b4 bd 74 81 2f 3d
       0.2612187 0.25076303 -0.08812604 0.042848065
0000f0 f9 52 00 3d b8 c5 f5 3c af 86 10 bd f0 9f 86 3e
       0.03132913 0.030001506 -0.035284694 0.26293898
000100 ce da a4 bd ed 74 83 be 38 3d 85 3d 06 dd 24 be
       -0.08049546 -0.25675145 0.06505817 -0.16099939
000110 09 c0 8d bd 56 19 9b bd d7 21 89 3e 44 9b 27 3d
       -0.069213934 -0.07573192 0.2678363 0.040919557
000120 27 d0 4e bc 2a 8b 10 be bd d3 e4 bd 5c dd 20 bc
       -0.01262287 -0.14115587 -0.11173198 -0.009818401
000130 80 9c 3b be de aa 13 3e a1 e9 6a bd 2b 54 b9 bc
       -0.18321419 0.1442065 -0.057351712 -0.022623142
000140 c3 79 61 bb 94 18 0e 3e 2a d9 da 39 6f 9f 2b 3e
       -0.003440485 0.13876563 0.00041742 0.16760038
000150 22 a9 84 bd ac 1a c2 3d a1 9d 12 3b a7 25 34 3e
       -0.06477572 0.094777435 0.0022371786 0.17592488
000160 40 76 01 be 71 68 76 3d 3c 8c dc 3d 2a e2 37 3d
       -0.12642765 0.060158197 0.10768935 0.04489342
000170 f9 1e 1d 3d 90 bf 14 3e ef 38 6c bb ad 7a c2 3c
       0.038359616 0.145262 -0.0036044677 0.023740137
000180 d8 2a 9f bb 8e b0 03 be cc b6 aa bd 38 eb 3a 3b
       -0.0048574023 -0.12860319 -0.08335647 0.002852155
000190 c4 1a 40 3e c3 b3 81 3e be 11 a7 3d 87 7c 66 bc
       0.1876021 0.2533246 0.08157681 -0.014067776
0001a0 35 24 13 bd de c2 19 be 2b 96 4e 3e 38 e7 86 bd
       -0.0359232 -0.15015742 0.20174472 -0.0658707
0001b0 d0 72 6a 3e 18 b3 ac 3d 88 79 d5 3c c7 a9 79 bd
       0.2289536 0.08432597 0.026058927 -0.060952928
0001c0 69 e6 60 be 7e 5c b0 3d bf be a3 bd 96 1f e4 3c
       -0.21962894 0.086113915 -0.07995366 0.027847093
0001d0 99 eb 9e 3d c9 3e 52 be ad e9 b6 bd 43 59 ec bc
       0.077597804 -0.20531763 -0.08931289 -0.028851157
0001e0 fc bd fa 3d 92 86 e3 bc 76 b0 7d be a6 b9 0d be
       0.12243268 -0.027774129 -0.24774346 -0.1384035
0001f0 92 03 a5 3d b9 be 11 3d b7 86 e7 3c ad 17 83 3e
       0.080573216 0.035582278 0.02826248 0.25604
000200 53 4d 25 3c 95 a0 0a be d2 c6 d9 3d 82 b5 6f 3c
       0.010089236 -0.1353782 0.10633625 0.014630677
000210 32 16 69 bd 3e d8 08 bd 75 a3 38 be 1a bb b8 3d
       -0.056905933 -0.03340935 -0.18031104 0.09020062
000220 ae ec 62 3d 63 b0 a8 3d e8 54 fa bc 9c 53 28 3c
       0.055401497 0.08236768 -0.030558065 0.01027384
000230 e9 22 19 be 13 ec 64 3e 34 38 08 3e d3 86 ba bb
       -0.14954723 0.2235568 0.1330269 -0.005692342
000240 09 0c de 3c 12 8e 47 be 20 15 3d bb 2a 73 d6 bd
       0.027105348 -0.1948779 -0.0028851703 -0.104711846
000250 ff 47 32 3d f4 52 26 3d d8 82 43 bd ed 1e 29 be
       0.043525692 0.040606454 -0.047732204 -0.16515703
000260 f3 cf 26 bd 00 62 b8 bd cc 09 44 3d 9a 95 9d bd
       -0.04072566 -0.09003067 0.047860906 -0.0769455
000270 db 64 ff 3c 2a df 0d 3d 6f a9 35 3d 1e 7a 7f bd
       0.031176021 0.034636654 0.044351038 -0.06237232
000280 f5 73 f7 bd 91 dd 9a bd 9c 5d a3 3d 8e 77 20 bd
       -0.12082664 -0.07561792 0.07976839 -0.039176516
000290 17 97 66 bb f4 e1 83 3d 7a c3 39 3c fd 09 4b 3c
       -0.0035185271 0.064395815 0.011338109 0.012392518
0002a0 a4 1c c3 3d 1e 39 83 bb 7f ea 1d 3d 0e aa 48 bd
       0.09526947 -0.0040046116 0.03855371 -0.0489903
0002b0 6b 11 c5 bd 9b ac 63 3b 80 21 b3 bd 7e 15 cc bd
       -0.09622463 0.0034740332 -0.08746624 -0.09965037
0002c0 4a 43 a5 3d 6e 09 bb bd 7f 6b 6f bd 15 fb 83 3d
       0.08069475 -0.09132658 -0.058452126 0.064443745
0002d0 c0 78 08 3e 69 b8 c8 3c ac 2e e8 bc 61 2d bf 3c
       0.13327312 0.024501996 -0.028342567 0.023337068
0002e0 7b 3e 3d bd 28 fd ab bd cf f3 97 3d 9b 26 e3 bd
       -0.046202164 -0.08397895 0.0741955 -0.11091348
0002f0 e0 1f f6 bc ac f3 a9 bd 52 41 97 3c 4c bb 2c be
       -0.030044496 -0.0829843 0.018463764 -0.16868323

gru2.bias_hh_l0 f4 [192]
000000 93 cc 87 3d 60 7a 6f 3d b3 02 94 bd 39 84 13 3e
       0.06630816 0.058466315 -0.07227077 0.14405908
000010 4c c6 be bc 46 d6 b4 bd bb 74 c5 3d 3c 05 84 3e
       -0.023287915 -0.08829932 0.09641405 0.25785244
000020 0e 4a 64 3d a6 08 bf 3d 2f f6 05 bd 4c 8a 07 3e
       0.055734687 0.093278214 -0.032705482 0.1323635
000030 6f 0b df 3d a4 c1 f6 bc 85 45 1c 3e 1f 6c 3d 3e
       0.10890853 -0.030121632 0.15260895 0.18498276
000040 f0 88 c6 bc 18 4b 8e 3e 36 ba 62 3e a3 af 06 3d
       -0.024235219 0.27791667 0.22141346 0.032882344
000050 cd db 5d bd 13 e3 41 3e ad a2 80 3d 37 47 de bd
       -0.054164696 0.18934278 0.06281028 -0.10853427
000060 50 8c fd 3c d6 8b 3c 3e fa 4b 27 3e 00 f9 8a 3e
       0.030950695 0.18412718 0.16337577 0.27143097
000070 b3 8a b0 3d b6 51 82 3e a9 89 85 bd a6 ba e8 3d
       0.08620205 0.25452965 -0.06520397 0.11363725
000080 3e 7c 2b 3e 6d 81 95 3d 92 85 3c bd db 12 3e 3e
       0.16746613 0.07300077 -0.04602582 0.1856188
000090 55 d6 6a 3d a2 1a d8 3e 19 7e 68 3e be d1 4a bc
       0.05733331 0.4220782 0.22704352 -0.012379108
0000a0 d5 90 a7 3e 96 22 f9 3e ed ea db 3d 3f 56 b8 3e
       0.32727686 0.486592 0.10738168 0.360033
0000b0 5e 57 bc b8 c7 5a 19 be 40 42 71 bd 6b 38 bc 3d
       -8.980812e-05 -0.14976035 -0.05890107 0.091904484
0000c0 d3 fb 30 3e 44 da 00 3e 57 d7 31 bd ef 59 0c 3e
       0.17283563 0.12583262 -0.043418255 0.13706182
0000d0 da 3a be 3e 1a a2 03 3d 0c 11 dd 3d a7 b8 d4 3d
       0.37154275 0.032137014 0.10794267 0.10386782
0000e0 55 b7 12 3e b9 3c 42 3e 6a 58 11 3d 82 0b e4 3d
       0.14327748 0.18968476 0.03548471 0.111350074
0000f0 54 d1 f7 3c 0d 97 8f 3d 59 41 00 3e 71 6c 5c 3e
       0.030251183 0.070112325 0.12524928 0.21525742
000100 36 61 10 be 51 62 c2 bd 6e 7c 37 bd d4 5d bd bd
       -0.14099583 -0.094914086 -0.0447964 -0.09246412
000110 9d f1 ee bd e0 f4 34 bd 06 50 86 3e 83 e2 b3 bd
       -0.11667178 -0.044178843 0.26232928 -0.08783438
000120 5f a1 51 bd b7 c0 fb bd ab 71 6b 3d 7a 9b f5 3c
       -0.051179286 -0.12292617 0.05748145 0.029981364
000130 1d a5 70 3c 73 ac df 3d 78 e8 bc bc 13 c2 df bd
       0.014687804 0.10921564 -0.023060068 -0.109256886
000140 9c ff 26 3c 22 1d 8b 3d 54 77 97 bd e9 4c ea 3d
       0.010192778 0.06792666 -0.07395807 0.11440451
000150 af 8e 15 3d 40 6d 29 3d 89 96 29 3e 5c b2 00 3e
       0.036513027 0.041363955 0.16561331 0.12568039
000160 80 b5 0d be 91 fd a9 bd fa 96 d9 bb 57 e7 9e 3b
       -0.13838768 -0.08300317 -0.0066403123 0.004849355
000170 c0 cb 28 bd cc 88 ff 3d 4c ab ca 3d 8b f5 7d 3d
       -0.041209936 0.12477264 0.098959535 0.062001746
000180 85 b0 ad 3c 3e b7 dd bc 50 8f 24 bd d2 20 ee 3a
       0.021202335 -0.027064916 -0.040175736 0.001816774
000190 33 d1 cc 3d b0 08 29 3e c0 70 ad 3d 29 ad df bb
       0.10000839 0.1650722 0.08468771 -0.006826062
0001a0 13 97 a2 3d 48 1b 0d 3c 53 4c ed 3d 3e ce 73 bd
       0.07938971 0.008612461 0.11586823 -0.05952286
0001b0 1e 45 77 3e 72 8e 66 3e ea f5 d2 3d 4f d1 f6 bd
       0.2414746 0.22515276 0.10300811 -0.12051641
0001c0 ad ea be bd d4 85 0e 3e 17 c7 17 3d 1b 6d 68 bd
       -0.093221046 0.13918239 0.0370551 -0.056744676
0001d0 a4 76 3d 3e d3 d1 8c be 22 42 9c bb 4c d9 35 3c
       0.18502289 -0.27503833 -0.004768626 0.011099171
0001e0 4c 01 0c 3e 24 cd a9 3c f4 cc 55 be a1 6e 1d bb
       0.1367237 0.020727701 -0.20878965 -0.0024022239
0001f0 9f 0c 2d 3e 1a 63 5b 3d 04 04 63 3d 21 bd 52 3e
       0.16899346 0.053561307 0.05542375 0.2057996
000200 51 7b c7 3c b4 39 0c 3e 84 33 76 3b 59 74 78 3d
       0.024350794 0.13693887 0.0037567327 0.060657833
000210 f9 bc ca 3c d6 dd 17 be 3e 3b 96 3d 4e 4f 14 3e
       0.024748312 -0.14830717 0.07335518 0.14483377
000220 30 5c 39 3e ee 2a b2 3d 27 e1 e1 3d 00 3d 50 3c
       0.18101573 0.086995944 0.110292725 0.012709856
000230 5f 7e 51 3e 01 68 8c 3c 36 59 1b bd 75 3a b9 bd
       0.20458363 0.017139437 -0.037926875 -0.09044353
000240 f1 58 cf bb 06 b6 f5 bd 83 5c 2d 3c c4 bf c4 bd
       -0.0063277413 -0.11997609 0.010581139 -0.09606889
000250 d6 ac fa 3c 3a ec 7c 3d 5b 2d 3f 3e c4 be c1 bc
       0.030599993 0.06174872 0.18669645 -0.023650534
000260 5e e5 b3 bc d5 28 68 3d 9e aa 31 be c1 b1 52 bd
       -0.021959957 0.056679565 -0.17350242 -0.05143905
000270 c7 e8 1e be 70 f0 16 3d e5 c7 0f 3e 0e 59 62 bc
       -0.15518485 0.036850393 0.14041097 -0.013815178
000280 79 c5 8e 3d 8b db 5f 3c 57 19 24 3e 53 d3 88 bd
       0.06971259 0.013663183 0.16025291 -0.06680932
000290 26 ac bf 3d ea 82 98 bc 38 fe a3 3c 4b c7 d9 b9
       0.093590066 -0.018617112 0.020018682 -0.0004153795
0002a0 b3 cd a5 bd dc f6 27 be 30 0a a3 3d f2 36 1e bd
       -0.08095875 -0.16402763 0.079609275 -0.03862662
0002b0 c3 52 1c 3d a9 ea 86 bd d0 4b 7d 3c d4 1b bd bc
       0.038164865 -0.065877266 0.01545997 -0.023084559
0002c0 9a 4d c2 3d db f0 c8 bd e2 cd be bd 3f 92 bf bb
       0.094874576 -0.098115645 -0.09316613 -0.0058462913
0002d0 3e e9 7a 39 13 38 67 3a 89 cf 84 3c f3 d1 41 be
       0.00023928747 0.00088203064 0.016212242 -0.18927746
0002e0 f8 c2 db 3d 65 75 fe bd 23 02 86 be 50 1b 1e 3d
       0.10730547 -0.12424735 -0.26173505 0.038600266
0002f0 ff bf 15 bc 31 63 2d 3e 1d 17 0d 3e 50 1c 1b bc
       -0.009140014 0.1693237 0.13778348 -0.009467199
