checkpoints/hamida_et_al/no_class_balancing/IndianPines_FastICA-Split_15/epoch15_0.95.pth (torch, 191622 bytes, 14 tensors)

conv1.weight f4 [20, 1, 3, 3, 3]
-0.0063134767 0.22133037 0.05736588 -0.26964897 -0.56989825 -0.15109295 -0.068857215 -0.41669607
-0.14684911 -0.008880434 0.25276 -0.2735139 -0.15789884 -0.5840201 -0.23301654 0.40898108
0.1150341 0.17093045 -0.32970455 0.10238065 -0.39616397 0.6738527 0.061465207 -0.038496085
0.0011172267 0.124513805 0.37728444 -0.27137274 0.12255863 0.28062758 0.27615643 0.5293033
0.13979895 0.0659638 0.36431664 0.5927668 0.23876995 0.20518686 0.00537251 0.22965102
0.15712097 0.17504875 0.30827844 0.396295 0.5577015 -0.10022248 -0.26785567 -0.21041322
-0.25074008 0.23475228 -0.47730085 0.5214962 -0.027954489 0.2800968 -0.10424237 0.09162026
0.09067241 -0.3478615 0.2814102 -0.29362988 -0.06905596 -0.20378605 -0.04601873 -0.24223512
-0.0834471 0.042166103 0.40935257 0.14563982 0.09566728 -0.05273705 0.24095325 -0.4155731
0.17434154 -0.03602584 -0.21856837 0.025517657 -0.0467174 0.10694498 -0.15493451 -0.13345212
-0.6074845 -0.20845826 0.18760005 -0.048254766 -0.09785161 0.24646379 -0.2000949 0.035470147
-0.40228394 0.2932524 0.27480334 -0.19131318 -0.29618236 -0.0537998 0.1795775 0.36007214
0.10480297 -0.07262838 0.15936492 -0.31210348 0.26552325 -0.050613906 0.12814146 -0.3023223
-0.118030496 -0.58950937 -0.22658384 0.39912924 -0.5657383 -0.056942023 0.047380306 0.031394083
0.18002956 0.0834346 -0.09778749 -0.08960605 -0.26899362 -0.012311373 0.18461186 0.0031261265
-0.007798391 -0.17668258 -0.06687167 -0.13647012 0.09309503 0.2117313 0.09920396 -0.1448911
-0.47386023 0.055020466 -0.0051964307 -0.0720151 0.16551831 0.23625797 -0.13166936 -0.14266032
0.248639 0.11199426 0.17484711 0.44264048 0.17415491 0.2612889 -0.2373032 0.11742732
0.25074098 0.4367134 -0.12071157 -0.5276985 0.4450957 0.18996505 -0.4506697 -0.20158474
-0.29167473 0.034747276 0.16099535 -0.15034857 0.6725201 0.14831841 -0.06154051 -0.48543566
-0.012823502 -0.20767584 0.05565187 -0.11227328 -0.34093717 -0.17115803 0.23192659 -0.15621354
0.17749009 0.05648965 -0.2184043 0.22658724 -0.08848899 0.23273648 -0.10089815 0.3041656
-0.4411647 -0.017535659 0.0034001304 -0.21012482 -0.043145075 0.3168864 -0.15383762 -0.2267344
-0.02174145 -0.025053198 0.1938385 -0.1766094 0.037141345 -0.1325601 -0.07748968 0.19395988
0.4031525 0.1643491 -0.056994587 -0.17659329 0.0063850824 0.014568828 -0.10908072 -0.20721585
-0.20754072 -0.101201974 -0.29909572 -0.23553418 -0.40643382 -0.6236652 -0.2867407 0.025987465
-0.057812948 0.053493287 -0.038171362 -0.1736473 -0.015654733 -0.3362867 0.1979892 -0.19351187
0.36291048 -0.13756871 0.05605355 -0.11963623 -0.50168335 0.23587856 -0.15493488 0.0776497
0.056557246 -0.4780116 0.31651664 -0.16022396 0.22308704 0.13005257 0.07482566 -0.049976338
0.29299513 0.18440036 0.6612544 0.7525439 -0.39626834 -0.2270641 -0.04360813 0.38013998
-0.19858946 0.17284222 0.106507055 -0.2511937 0.78107363 -0.17698182 -0.25677875 0.25651512
-0.29452044 -0.04348799 0.1126682 -0.34319678 0.20299688 0.30673748 -0.15352255 -0.004241888
00000000: 48e1 cebb 6ea4 623e 7cf8 6a3d 6e0f 8abe
00000010: dae4 11bf 1cb8 1abe 0305 8dbd 3059 d5be
00000020: 9d5f 16be 3d7f 11bc c269 813e 040a 8cbe
00000030: 3cb0 21be 5782 15bf e39b 6ebe f865 d13e
00000040: 0097 eb3d 6408 2f3e 09cf a8be f2ac d13d
00000050: 01d6 cabe 9c81 2c3f f1c2 7b3d 12ae 1dbd
00000060: e86f 923a 1801 ff3d 6d2b c13e 5ef1 8abe
00000070: 0500 fb3d 6bae 8f3e 6064 8d3e 6c80 073f
00000080: 7527 0f3e 0718 873d b687 ba3e 91bf 173f
00000090: 1c80 743e 811c 523e e10b b03b a329 6b3e
000000a0: 52e4 203e fb3f 333e acd6 9d3e 2ee7 ca3e
000000b0: 87c5 0e3f 7241 cdbd 6124 89be 9076 57be
000000c0: 0161 80be e762 703e c760 f4be c680 053f
000000d0: d000 e5bc d968 8f3e 067d d5bd 67a3 bb3d
000000e0: 75b2 b93d e71a b2be ff14 903e a856 96be
000000f0: 366d 8dbd 4aad 50be 237e 3cbd 7c0c 78be
00000100: 50e6 aabd 5db6 2c3d a996 d13e 9b22 153e
00000110: 35ed c33d ce02 58bd 73bc 763e ffc5 d4be
00000120: 9786 323e d58f 13bd 63d0 5fbe 680a d13c
00000130: bf5a 3fbd f805 db3d 27a7 1ebe aca7 08be
00000140: 1b84 1bbf 1576 55be 3a1a 403e caa6 45bd
00000150: 6d66 c8bd 0161 7c3e ade5 4cbe 2549 113d
00000160: 29f8 cdbe 2e25 963e 06b3 8c3e 9ae7 43be
00000170: 37a5 97be 2e5d 5cbd 2ae3 373e 605b b83e
00000180: f1a2 d63d 30be 94bd 8f30 233e 07cc 9fbe
00000190: aaf2 873e 8750 4fbd 8437 033e fdc9 9abe
000001a0: f9b9 f1bd 16ea 16bf 9805 68be ab5a cc3e
000001b0: 3ad4 10bf 0a3c 69bd da11 423d 1597 003d
000001c0: ab59 383e c2df aa3d cf44 c8bd 6083 b7bd
000001d0: 88b9 89be a4b5 49bc e40a 3d3e b3df 4c3b
000001e0: a589 ffbb 47ec 34be 04f4 88bd d3be 0bbe
000001f0: 9ba8 be3d 17d0 583e 722b cb3d 555e 14be
00000200: cf9d f2be 245d 613d d246 aabb a77c 93bd
00000210: a27d 293e 9ced 713e 55d4 06be 8c15 12be
00000220: 399b 7e3e 3f5d e53d 1f0b 333e c6a1 e23e
00000230: aa55 323e a9c7 853e 9cff 72be bc7d f03d
00000240: 1f61 803e e698 df3e a137 f7bd 4017 07bf
00000250: 95e3 e33e 3386 423e 2ebe e6be 3b6c 4ebe
00000260: 6456 95be 2953 0e3d f7db 243e faf4 19be
00000270: 472a 2c3f c8e0 173e e711 7cbd 068b f8be
00000280: aa19 52bc faa8 54be 37f3 633d 89ef e5bd
00000290: 518f aebe 0d44 2fbe 2a7e 6d3e 71f6 1fbe
000002a0: f6bf 353e b161 673d 60a5 5fbe 7c06 683e
000002b0: b739 b5bd 7952 6e3e b0a3 cebd 98bb 9b3e
000002c0: 57e0 e1be f1a6 8fbc b9d4 5e3b f62a 57be
000002d0: e4b8 30bd ef3e a23e 9c87 1dbe 102d 68be
000002e0: 201b b2bc 5d3c cdbc 9a7d 463e 18d9 34be
000002f0: 8621 183d d6bd 07be e9b2 9ebd 6b9d 463e
00000300: 016a ce3e 214b 283e 2873 69bd dfd4 34be
00000310: f439 d13b 18b2 6e3c b665 dfbd 6430 54be
00000320: 8e85 54be fb42 cfbd 1323 99be df2f 71be
00000330: 1818 d0be 86a8 1fbf adcf 92be aae3 d43c
00000340: 45cd 6cbd c71b 5b3d 9359 1cbd 99d0 31be
00000350: 5b3e 80bc c52d acbe aebd 4a3e fa27 46be
00000360: 67cf b93e d0de 0cbe 6898 653d d703 f5bd
00000370: 526e 00bf 268a 713e 40a7 1ebe ce06 9f3d
00000380: 92a8 673d f0bd f4be 780e a23e c011 24be
00000390: ee70 643e 802c 053e 323e 993d fdb3 4cbd
000003a0: 7503 963e 73d3 3c3e f847 293f b8a6 403f
000003b0: afe3 cabe 7e83 68be 709e 32bd b5a1 c23e
000003c0: 095b 4bbe 8dfd 303e 5f20 da3d 769c 80be
000003d0: 71f4 473f b93a 35be 8178 83be f355 833e
000003e0: 62cb 96be 7620 32bd 96be e63d 7db7 afbe
000003f0: 6ade 4f3e b20c 9d3e 0435 1dbe 89ff 8abb

conv1.bias f4 [20]
0.019483902 -0.38653767 0.0019563693 0.020979492 -0.03462334 -0.1778137 -0.005208077 -3.3895885e-06
-0.022743393 -0.16908772 0.02243955 0.0 0.28500503 -0.008799221 0.10489828 0.30497596
0.050566483 0.014730019 0.04794267 -0.0005941625
00000000: b49c 9f3c 44e8 c5be 6e36 003b 2fdd ab3c
00000010: 34d1 0dbd cb14 36be 84a8 aabb b078 63b6
00000020: 5a50 babc 5525 2dbe 26d3 b73c 0000 0000
00000030: 2eec 913e 9c2a 10bc e9d4 d63d cf25 9c3e
00000040: cd1e 4f3d 2d56 713c 885f 443d 92c1 1bba

pool1.weight f4 [20, 20, 3, 1, 1]
-0.17944889 -0.15251495 -0.11908648 0.14857775 0.46218702 0.30969062 -0.00032283104 -0.19416325
0.20203622 0.09770339 0.10480994 0.036747105 -0.0973266 0.05187804 0.36944196 -0.15469632
-0.09964886 -0.028220506 -0.1698629 -0.39231998 0.19123878 -0.04126684 0.09696675 0.0632396
-0.23155026 0.1522755 -0.43195075 -0.20166135 0.046333775 -0.4221741 -0.1272847 -0.14462873
-0.19301835 -0.19045095 0.22875018 0.09207882 -0.1328865 -0.23300953 -0.2172257 -0.14118934
0.14541532 -0.11065344 0.18616557 -0.20275187 0.44362202 -0.26204017 0.027072772 0.08356608
0.22736403 -0.26030412 0.055273876 -0.06488809 -0.21182701 0.17472781 0.014323973 0.34326658
-0.13485819 -0.29229972 -0.05479202 0.14656642 -0.034042135 -0.05457058 -0.12160789 0.39262354
-0.24200603 -0.3691042 -0.031178515 0.03719998 0.054351825 -0.1180201 0.06786039 0.29163608
0.105422184 0.08789119 0.2690269 0.2542858 0.005496034 0.12649137 0.11277897 0.1587078
-0.10689358 -0.12524216 0.18752815 0.14352743 -0.13276523 0.18661937 -0.10096295 -0.0718216
-0.27902263 -0.03184073 0.0943794 0.44845033 0.08365229 0.12986733 -0.05307652 -0.18783619
-0.050157137 -0.1627575 0.06577337 -0.059306215 -0.27822033 -0.15516795 -0.3136188 0.24475563
0.24196966 -0.08771002 0.43394044 0.27935588 0.03440206 -0.08892238 -0.21997103 0.061441224
-0.15919565 0.0019751796 -0.11757217 -0.25115803 0.371883 0.45124072 0.14203347 -0.23235512
0.052797906 0.13033667 0.086843394 -0.063943185 -0.19793823 0.19523306 0.24876207 0.09122079
0.03033442 0.23705512 0.07616254 -0.14783658 0.13934977 -0.021202356 0.21771999 0.22415054
-0.27015287 -0.023837997 -0.4961108 0.09079675 -0.124206126 0.066111505 -0.24502356 0.25284556
-0.094951905 -0.58559495 -0.006438793 0.022031983 -0.31705242 0.18679829 -0.484958 -0.045998912
0.09391531 0.004364739 -0.1212162 0.18217476 -0.13051732 -0.3815027 0.018401911 0.21847187
-0.18004526 0.071114704 0.07858837 0.22823045 0.14361836 0.18438782 0.5182939 -0.06426301
-0.22010686 -0.07027654 -0.051288072 -0.3368128 0.04839553 -0.066820726 0.35523152 0.089791484
0.023409836 0.08411827 0.27417684 0.14862378 0.12094815 0.18765947 0.13561344 -0.17583118
-0.018761141 0.27157417 -0.05995547 -0.041288596 0.06992063 0.26058275 0.058108512 -0.07148067
0.18425424 -0.021599276 0.07080482 0.13368393 -0.36635962 -0.13349636 -0.17866693 -0.4317052
-0.002610387 0.12284613 0.08703967 -0.24488308 0.13557531 -0.23951177 0.033745307 -0.20130292
0.44998047 0.06326858 -0.093433335 0.20052977 0.05389619 0.055115864 -0.089646995 -0.008766822
0.042274322 0.27480897 -0.002585134 0.08789043 -0.1776097 0.1792845 0.11759683 0.043690994
-0.42851153 -0.06398093 -0.50220513 -0.24529812 -0.018445026 -0.1880293 0.14422031 0.2545227
0.20965698 -0.31048164 -0.31137493 0.07676871 -0.07817145 -0.39104185 0.11055801 -0.14962609
-0.08155023 0.15727861 0.051849842 0.12686123 0.018089388 0.09410564 -0.059362613 0.074395105
-0.20389406 -0.022247832 -0.032707784 -0.07398074 -0.038292453 0.1252117 0.089370266 0.012885708
00000000: 73c1 37be e12c 1cbe 9de3 f3bd c424 183e
00000010: c7a3 ec3e c58f 9e3e a641 a9b9 bbd2 46be
00000020: 95e2 4e3e b718 c83d 98a6 d63d 2284 163d
00000030: 2b53 c7bd 117e 543d 7f27 bd3e b668 1ebe
00000040: b414 ccbd b12e e7bc 8af0 2dbe 2ade c8be
00000050: 19d4 433e 6b07 29bd 8196 c63d c383 813d
00000060: 831b 6dbe 1cee 1b3e a628 ddbe 5080 4ebe
00000070: 7cc8 3d3d 3427 d8be ec56 02be 8e19 14be
00000080: 9aa6 45be 9305 43be 7d3d 6a3e d293 bc3d
00000090: 6613 08be 0d9a 6ebe 6a70 5ebe f093 10be
000000a0: c1e7 143e 459e e2bd 30a2 3e3e 309e 4fbe
000000b0: 6d22 e33e 212a 86be b8c7 dd3c b124 ab3d
000000c0: 1ed2 683e 9546 85be dc66 623d 0ce4 84bd
000000d0: 2ee9 58be d9eb 323e 19af 6a3c a3c0 af3e
000000e0: 4418 0abe 4fa8 95be 996d 60bd 8215 163e
000000f0: c46f 0bbd 6785 5fbd 8f0d f9bd f405 c93e
00000100: 6ed0 77be 3afb bcbe 166a ffbc 025f 183d
00000110: 05a0 5e3d 86b4 f1bd 63fa 8a3d 5351 953e
00000120: 96e7 d73d 4c00 b43d e5bd 893e c031 823e
00000130: 1318 b43b f486 013e a9f8 e63d 4c84 223e
00000140: 05eb dabd 7b3f 00be 6107 403e dbf8 123e
00000150: 9cf3 07be 2619 3f3e aac5 cebd 3417 93bd
00000160: 0edc 8ebe 6d6b 02bd fd49 c13d 489b e53e
00000170: e451 ab3d f1fb 043e c466 59bd 2158 40be
00000180: 9271 4dbd e7a9 26be 30b4 863d 13eb 72bd
00000190: e572 8ebe 59e4 1ebe a592 a0be 38a1 7a3e
000001a0: e5c6 773e 50a1 b3bd 712d de3e bc07 8f3e
000001b0: 2de9 0c3d f01c b6bd 1640 61be cba9 7b3d
000001c0: 2f04 23be 0472 013b aec9 f0bd c997 80be
000001d0: 7367 be3e 0609 e73e 3971 113e 80ee 6dbe
000001e0: 9e42 583d fa76 053e f3da b13d a5f4 82bd
000001f0: 52b0 4abe 2deb 473e 7cbb 7e3e f7d1 ba3d
00000200: e47f f83c 94be 723e 1bfb 9b3d 7962 17be
00000210: b5b1 0e3e 90b0 adbc fdf1 5e3e b887 653e
00000220: 7a51 8abe e747 c3bc 3c02 febe a5f3 b93d
00000230: c85f febd 7865 873d 75e7 7abe f974 813e
00000240: 2576 c2bd 8de9 15bf 83fc d2bb 6b7c b43c
00000250: b254 a2be 0d48 3f3e 6a4c f8be 5b69 3cbd
00000260: ac56 c03d 1606 8f3b 3340 f8bd 058c 3a3e
00000270: 55a6 05be 5254 c3be 9bbf 963c 17b7 5f3e
00000280: c95d 38be 96a4 913d f0f2 a03d 3eb5 693e
00000290: b110 133e 29d0 3c3e e9ae 043f 539c 83bd
000002a0: b163 61be 26ed 8fbd 7113 52bd ba72 acbe
000002b0: 643a 463d 4ed9 88bd e8e0 b53e 99e4 b73d
000002c0: fcc5 bf3c 3346 ac3d e860 8c3e d530 183e
000002d0: aab3 f73d ce29 403e 40de 0a3e 170d 34be
000002e0: f7b0 99bc c50b 8b3e de93 75bd 3b1e 29bd
000002f0: 8c32 8f3d 1a6b 853e 3103 6e3d 7564 92bd
00000300: 25ad 3c3e f7f0 b0bc 1e02 913d 71e4 083e
00000310: 7d93 bbbe 45b3 08be 77f4 36be 7708 ddbe
00000320: 0713 2bbb c096 fb3d db41 b23d a1c2 7abe
00000330: 41d4 0a3e 9342 75be 8538 0a3d 5a22 4ebe
00000340: d763 e63e f592 813d fa59 bfbd ad57 4d3e
00000350: 40c2 5c3d 2cc1 613d d898 b7bd b7a2 0fbc
00000360: d727 2d3d c3b3 8c3e 5a6b 29bb e6ff b33d
00000370: 51df 35be 5b96 373e 9bd6 f03d 54f5 323d
00000380: dd65 dbbe 6f08 83bd 8490 00bf 6e2f 7bbe
00000390: 061a 97bc c18a 40be 7dae 133e cd50 823e
000003a0: 52b0 563e 73f7 9ebe 896c 9fbe ea38 9d3d
000003b0: 5a18 a0bd a336 c8be 3d6c e23d 9537 19be
000003c0: cf03 a7bd a50d 213e 8060 543d e9e7 013e
000003d0: 3230 943c 75ba c03d 3626 73bd 765c 983d
000003e0: 9bc9 50be 1641 b6bc 99f8 05bd 3783 97bd
000003f0: 8cd8 1cbd 7f37 003e c207 b73d 941e 533c

pool1.bias f4 [20]
-0.11416067 0.04346411 -0.03656689 0.08073469 -0.090623386 -0.17076932 -0.07189805 -0.023075834
-0.09005571 0.0076718344 0.10985451 -0.17513998 -0.053346284 0.09434247 -0.018178638 0.0059424876
-0.0066691916 0.14848801 -0.0024892204 -0.12874496
00000000: 12cd e9bd 6c07 323d 2ac7 15bd 3b58 a53d
00000010: c198 b9bd 27de 2ebe 493f 93bd 8809 bdbc
00000020: 216f b8bd 0364 fb3b 67fb e03d e557 33be
00000030: a281 5abd a036 c13d 5eeb 94bc 33b9 c23b
00000040: 3c89 dabb 3e0d 183e 3022 23bb b8d5 03be

conv2.weight f4 [35, 20, 3, 3, 3]
0.006195126 -0.002161645 -0.023934484 0.016387265 0.11522531 0.047405638 -0.0017667622 0.08801529
-0.054529868 0.034879327 0.01726956 -0.009547515 0.08122587 -0.06607661 0.017965358 -0.118374534
-0.08490191 0.025893763 0.018895233 -0.0644612 -0.087267466 -0.07126554 -0.02608397 0.11319292
-0.03350054 -0.050780475 -0.0393446 0.007562694 -0.08836604 -0.014596333 -0.1040468 0.031575568
0.09196863 -0.012933884 0.03797816 0.02818459 -0.023719065 0.050313313 -0.016227374 0.0007370763
0.06492952 0.004542525 -0.0032988386 -0.027022569 -0.02012061 -0.0011485453 -0.10525728 0.011534674
0.018006442 0.03153013 -0.04478525 -0.008369676 0.0139795495 -0.050128486 0.039038733 0.036289323
-0.1106225 -0.04276616 -0.061082277 0.021606224 0.12655368 -0.08698397 -0.07970935 -0.07875655
0.11641117 0.09440184 -0.10187048 -0.01625425 0.06457313 0.021653293 0.05654205 -0.0049886154
0.027475683 -0.017629182 -0.019249592 -0.035130437 0.077671796 -0.12205068 -0.016386928 0.0031968632
-0.0222198 -0.10458057 0.09426121 -0.037840694 0.0048380084 -0.0075647086 0.018465374 -0.05022314
0.084614284 -0.014952762 0.05582682 0.016379628 0.06531174 0.0072587435 -0.001197582 0.012064272
-0.028326795 0.068965726 -0.0054309643 0.010871049 0.047749817 -0.05663783 -0.082332484 -0.037741013
-0.17490308 0.027007436 0.04807153 -0.040496144 -0.009557858 -0.021072617 -0.07271447 -0.031172518
-0.014884239 -0.07805833 0.09893551 -0.013450796 0.11122338 0.052171428 -0.12889192 0.003762282
-0.022102444 0.003406696 -0.07205229 0.055805463 0.04514416 -0.093968496 0.047965612 -0.06789943
-0.089176096 0.1735235 0.011056655 -0.08440263 -0.007196893 -0.049707733 -0.0779864 0.020258123
0.1154788 0.029993143 -0.07385679 0.128462 0.011963894 0.043291617 0.005337421 0.11733966
0.012423152 0.08644498 -0.11945895 0.026242513 -0.042507384 -0.11172593 0.00029626893 -0.064807326
-0.0047856104 -0.047452897 -0.11187684 0.008624683 0.02849789 0.016066236 -0.105149865 0.039525565
-0.058282502 0.0275215 0.054608118 0.024827482 0.013270117 -0.030796168 -0.07557243 -0.01930366
0.028050989 0.023493001 -0.01579596 -0.012095282 0.042492256 0.0331738 -0.06568587 0.028918369
-0.13297506 0.037671696 -0.033471882 -0.03639301 0.030335747 -0.057921384 0.016124284 0.026668593
-0.04580462 -0.051183876 -0.024315756 -0.0053672954 -0.061478127 0.01678411 -0.023669701 0.09168073
0.063490756 -0.05988391 -0.019651297 0.012327106 0.10629844 -0.06541522 0.14236869 -0.021996975
0.06434796 -0.06505278 -0.15181999 -0.025381668 -0.00043170294 0.07748589 0.09402085 0.004859016
0.07538885 0.106188476 -0.0052039158 -0.0029565636 -0.05516951 -0.02064992 0.060438532 -0.095656954
-0.078382604 -0.020464849 0.05566031 0.032487623 0.010023709 -0.0676653 -0.0007888422 0.06487775
0.044310994 0.065521576 -0.06460553 -0.028294142 0.040263213 0.0458794 0.033185836 -0.08431682
0.07366193 -0.0010099021 0.12440206 0.0044652126 -0.07820778 -0.022782404 0.049959578 0.06711261
-0.03020347 -0.15432629 0.1389511 -0.052251015 0.05606793 0.014723104 -0.058756553 0.04400387
-0.028999694 0.061476376 0.072308674 -0.10977861 0.05066322 -0.09010907 0.013585304 0.0013074143
00000000: 7c00 cb3b 63aa 0dbb 4012 c4bc 963e 863c
00000010: 3ffb eb3d 6a2c 423d b492 e7ba 5c41 b43d
00000020: b65a 5fbd a0dd 0e3d e478 8d3c 2e6d 1cbc
00000030: c059 a63d 2c53 87bd 162c 933c 596e f2bd
00000040: 0de1 adbd 281f d43c 2dca 9a3c 3c04 84bd
00000050: 49b9 b2bd abf3 91bd 0dae d5bc b1d1 e73d
00000060: dd37 09bd 30ff 4fbd ce27 21bd 7ad0 f73b
00000070: 41f9 b4bd 7525 6fbc 7d16 d5bd 6255 013d
00000080: 0d5a bc3d a4e8 53bc fd8e 1b3d 5fe3 e63c
00000090: 7c4e c2bc 5515 4e3d 45ef 84bc 5a38 413a
000000a0: c5f9 843d 76d9 943b 5431 58bb 6f5e ddbc
000000b0: fad3 a4bc c98a 96ba 2191 d7bd eefb 3c3c
000000c0: 3f82 933c bd25 013d bd70 37bd f720 09bc
000000d0: 7b0a 653c 8753 4dbd 14e7 1f3d 1da4 143d
000000e0: 0d8e e2bd 922b 2fbd 6931 7abd 89ff b03c
000000f0: 4a97 013e a724 b2bd a83e a3bd 1d4b a1bd
00000100: fb68 ee3d c055 c13d 78a1 d0bd a227 85bc
00000110: eb3e 843d 3f62 b13c a398 673d 8a77 a3bb
00000120: af14 e13c 136b 90bc 52b1 9dbc efe4 0fbd
00000130: 6412 9f3d b5f5 f9bd e13d 86bc 7782 513b
00000140: 4c06 b6bc 562e d6bd 050c c13d d8fe 1abd
00000150: 2888 9e3b 60e1 f7bb b244 973c c7b6 4dbd
00000160: 414a ad3d 6efc 74bc aaaa 643d 922e 863c
00000170: 29c2 853d c1da ed3b 2ff8 9cba 39a9 453c
00000180: 980d e8bc e73d 8d3d 3bf6 b1bb 7c1c 323c
00000190: 5095 433d 12fd 67bd ef9d a8bd 5296 1abd
000001a0: cb19 33be b33e dd3c a7e6 443d 49df 25bd
000001b0: 9098 1cbc 7ba0 acbc 53eb 94bd 825d ffbc
000001c0: 06dd 73bc 0cdd 9fbd b39e ca3d ba60 5cbc
000001d0: 15c9 e33d b5b1 553d 3efc 03be 9e90 763b
000001e0: 2f10 b5bc e042 5f3b 2790 93bd 4594 643d
000001f0: 15e9 383d 8e72 c0bd 9777 443d db0e 8bbd
00000200: f5a1 b6bd 25b0 313e f926 353c 49db acbd
00000210: ead3 ebbb 569a 4bbd 55b7 9fbd 5df4 a53c
00000220: 2680 ec3d 2eb4 f53c 3b42 97bd 8b8b 033e
00000230: 3504 443c 8d52 313d 88e5 ae3b c74f f03d
00000240: 7a8a 4b3c 110a b13d e5a6 f4bd 8afa d63c
00000250: 391c 2ebd 90d0 e4bd 8b54 9b39 b4b9 84bd
00000260: 9cd0 9cbb f85d 42bd af1f e5bd 8b4e 0d3c
00000270: 6874 e93c 579d 833c d058 d7bd 8fe5 213d
00000280: a2b9 6ebd c574 e13c c3ac 5f3d 0163 cb3c
00000290: e86a 593c 3f48 fcbc b8c5 9abd b622 9ebc
000002a0: 30cb e53c 6574 c03c 8766 81bc 4a2b 46bc
000002b0: 5c0c 2e3d 40e1 073d 5086 86bd 37e6 ec3c
000002c0: 9d2a 08be a34d 1a3d d019 09bd d610 15bd
000002d0: ac82 f83c f93e 6dbd 1317 843c 1878 da3c
000002e0: a09d 3bbd 2fa6 51bd d631 c7bc 23e0 afbb
000002f0: 7dd0 7bbd d47e 893c f6e6 c1bc 1bc3 bb3d
00000300: 7107 823d d548 75bd c2fb a0bc a1f7 493c
00000310: ffb2 d93d 6af8 85bd 19c9 113e 0033 b4bc
00000320: ddc8 833d 643a 85bd b376 1bbe 37ed cfbc
00000330: 3056 e2b9 ecb0 9e3d 018e c03d 6138 9f3b
00000340: 7865 9a3d 5879 d93d 9c85 aabb e8c2 41bb
00000350: 6df9 61bd 052a a9bc 658e 773d cbe7 c3bd
00000360: 0f87 a0bd e6a5 a7bc 11fc 633d be11 053d
00000370: 7c3a 243c 1b94 8abd 4eca 4eba a0de 843d
00000380: 727f 353d 2d30 863d e74f 84bd 1ec9 e7bc
00000390: 0aeb 243d 0aec 3b3d dfed 073d 4cae acbd
000003a0: 11dc 963d b15e 84ba 82c6 fe3d eb50 923b
000003b0: 672b a0bd 2aa2 babc 6aa2 4c3d 5672 893d
000003c0: 446d f7bc b607 1ebe 3249 0e3e 2905 56bd
000003d0: 7ca7 653d 2d39 713c b6aa 70bd 673d 343d
000003e0: c490 edbc a7ce 7b3d 9216 943d 9cd3 e0bd
000003f0: 3d84 4f3d 1b8b b8bd e594 5e3c 8b5d ab3a

conv2.bias f4 [35]
-0.05779729 0.029424125 0.0051273666 -0.036054082 0.031960018 -0.019515024 0.039331533 -0.020564726
-0.028332194 -0.01148262 0.016215678 0.0330877 0.008700326 0.025445877 -0.0014835376 -0.008670348
0.01532221 0.04312264 0.0016375629 0.027977636 0.07728955 -0.0066745705 0.0043560024 -0.006624508
0.02595048 0.0980031 -0.0040974817 -0.010311398 0.0068924394 0.0074476902 0.03237484 0.011193273
-0.062345475 0.036472607 -0.0038912941
00000000: dabc 6cbd dd0a f13c 7803 a83b 72ad 13bd
00000010: 82e8 023d f9dd 9fbc 1a1a 213d 5b77 a8bc
00000020: eb18 e8bc 9921 3cbc bed6 843c f886 073d
00000030: d08b 0e3c df73 d03c 4373 c2ba 130e 0ebc
00000040: 020a 7b3c 5ea1 303d 7ea3 d63a 5b31 e53c
00000050: fc49 9e3d 5bb6 dabb ccbc 8e3b 6712 d9bb
00000060: 1a96 d43c d9b5 c83d 2b44 86bb 23f1 28bc
00000070: f9d9 e13b c10b f43b 7b9b 043d fd63 373c
00000080: f85d 7fbd 4d64 153d 1505 7fbb

pool2.weight f4 [35, 35, 3, 1, 1]
0.07737117 0.1350239 -0.17590508 -0.07652867 0.049985792 0.022992339 -0.33672774 0.22750597
0.04943947 -0.20173787 -0.038585067 0.10027691 -0.035193615 -0.13340203 0.093504146 -0.21458875
-0.17109424 0.06415563 -0.13637571 -0.28160205 0.39261958 0.07675466 0.18427238 -0.23888947
-0.14233848 -0.007886051 0.025666181 0.03042896 -0.21269238 0.23382163 -0.06545637 -0.18776192
-0.062838316 0.19317323 -0.2199342 0.05413092 0.08447628 0.07342416 -0.034105975 0.07504732
0.2898228 0.056473516 0.11436398 0.117798865 0.0009798309 -0.15907143 -0.08252192 -0.01456735
0.10243215 -0.05632552 0.05209201 -0.1040316 0.052843727 -0.006156009 0.09498657 0.09260101
-0.00012592191 -0.15883803 -0.09986834 -0.10785552 0.1909158 -0.09695702 0.13571236 -0.009863139
-0.1770663 0.17088297 0.020667206 -0.41328663 0.18671879 -0.18757969 -0.008523242 0.069773234
-0.2394095 -0.37281471 -0.28522238 -0.050323755 0.11993784 -0.22657922 0.037642997 -0.1506922
-0.021797104 -0.051460326 0.15237817 -0.0372303 -0.05141975 0.220366 -0.010058087 -0.15705863
-0.1814137 -0.1408973 0.06268559 -0.077752896 -0.16045813 0.075006075 -0.22068867 0.017657327
-0.13910073 0.029811053 -0.07275136 0.14921755 -0.04203557 -0.17085172 0.07424639 -0.033462606
-0.07149365 0.050394963 -0.1478151 -0.07880011 0.16940163 0.059447113 -0.008371059 -0.1516403
-0.009953554 0.23738661 -0.027616883 0.11224953 -0.19286025 -0.018963698 -0.06360943 0.036653586
-0.016857909 0.04052217 0.046383917 -0.021398753 -0.12433115 0.12036108 0.08427752 0.14167094
0.11922002 0.008860874 -0.13940364 0.13251154 -0.17459029 -0.14671761 0.061089132 0.13579363
0.04209679 0.100462034 -0.06786261 0.006427171 0.11149505 -0.026588723 0.038346495 -0.020434074
-0.11017607 -0.11077538 0.0810942 -0.0428606 -0.06807927 0.08275842 -0.0063825306 0.21647546
-0.011835837 -0.03970617 -0.24623293 0.07551202 0.04179148 0.23876674 0.28674257 0.11784414
0.21445492 0.16849871 -0.23844495 0.009706569 -0.05156426 0.07041899 -0.07855362 0.34283593
0.23582084 -0.06680695 -0.36444712 -0.17134768 0.09072512 0.051778965 -0.11519779 -0.13675022
-0.034625445 -0.029723369 -0.04982374 -0.07754513 0.055008348 0.16675179 -0.039221086 0.057435066
0.30497098 0.051462013 -0.07345141 -0.11748005 -0.101572685 -0.12238129 0.182514 -0.05267522
-0.24634072 -0.19847135 -0.051895056 -0.06366936 0.11863177 -0.169891 0.045349725 -0.02841708
-0.019842524 -0.22479066 -0.106496595 -0.087446705 0.02321792 -0.0015890242 0.061330102 -0.12801206
-0.030543841 0.10224777 0.019352635 -0.039196312 -0.008711334 0.12582871 -0.22904313 -0.016418586
-0.003489186 -0.03826124 -0.07660581 -0.10948442 0.1109671 -0.14776197 -0.016155247 -0.28558666
0.04867986 0.11851121 0.1935395 -0.014573881 -0.14252786 0.058769785 0.12908916 -0.13694265
0.09654681 0.07122431 0.04567608 -0.08921022 -0.07811163 -0.32989597 0.06402647 -0.046603817
0.20285997 -0.043553486 -0.10640308 0.3270034 0.25284925 -0.05176243 -0.027269274 -0.09462222
-0.09344255 0.021756627 0.03127987 0.12859423 -0.063257135 0.21146841 -0.016771795 0.19641237
00000000: c774 9e3d b543 0a3e 7620 34be 10bb 9cbd
00000010: e7bd 4c3d 6e5a bc3c 9467 acbe 53f7 683e
00000020: 0b81 4a3d 5f94 4ebe 600b 1ebd fb5d cd3d
00000030: 2e27 10bd 8b9a 08be 1a7f bf3d 27bd 5bbe
00000040: 5433 2fbe 0764 833d 13a6 0bbe 252e 90be
00000050: 6f05 c93e 8c31 9d3d e6b1 3c3e 719f 74be
00000060: 2ec1 11be 7f34 01bc e241 d23c 2846 f93c
00000070: 08cc 59be f06e 6f3e fd0d 86bd a944 40be
00000080: 60b1 80bd 34cf 453e 6e36 61be 62b8 5d3d
00000090: e601 ad3d 685f 963d b5b2 0bbd 69b2 993d
000000a0: a763 943e c650 673d aa37 ea3d 8840 f13d
000000b0: ab6d 803a 9fe3 22be 4101 a9bd e5ab 6ebc
000000c0: f2c7 d13d 97b5 66bd 6e5e 553d 850e d5bd
000000d0: aa72 583d 59b8 c9bb 5288 c23d 99a5 bd3d
000000e0: e809 04b9 70a6 22be c687 ccbd 5be3 dcbd
000000f0: 6e7f 433e 6791 c6bd 2ef8 0a3e 0199 21bc
00000100: de50 35be f2fb 2e3e 464e a93c 4e9a d3be
00000110: 3633 3f3e e414 40be 11a5 0bbc 45e5 8e3d
00000120: c427 75be 92e1 bebe ab08 92be 4820 4ebd
00000130: f8a1 f53d 6204 68be 8b2f 1a3d 0e4f 1abe
00000140: d78f b2bc 10c8 52bd 0609 1c3e cd7e 18bd
00000150: 849d 52bd a0a7 613e adca 24bc fad3 20be
00000160: 83c4 39be 6247 10be 4d61 803d e93c 9fbd
00000170: 234f 24be c99c 993d 36fc 61be 19a6 903c
00000180: 6c70 0ebe 4f36 f43c aafe 94bd 7ccc 183e
00000190: 7d2d 2cbd c1f3 2ebe 7e0e 983d 1610 09bd
000001a0: 436b 92bd f36a 4e3d d75c 17be f461 a1bd
000001b0: 9f77 2d3e d17e 733d c426 09bc 9847 1bbe
000001c0: 3b14 23bc 7a15 733e cd3c e2bc 15e3 e53d
000001d0: 287d 45be c259 9bbc a945 82bd 1222 163d
000001e0: 9919 8abc 93fa 253d 10fd 3d3d 704c afbc
000001f0: 54a1 febd df7f f63d b199 ac3d 3012 113e
00000200: a029 f43d 332d 113c d4bf 0ebe 1bb1 073e
00000210: ccc7 32be 243d 16be 9938 7a3d 7c0d 0b3e
00000220: af6d 2c3d 0abf cd3d 8dfb 8abd 059b d23b
00000230: 8457 e43d 98d0 d9bc 3711 1d3d 5c65 a7bc
00000240: fea3 e1bd 34de e2bd b714 a63d 998e 2fbd
00000250: 256d 8bbd 3f7d a93d 8c24 d1bb beab 5d3e
00000260: 19eb 41bc f0a2 22bd 7c24 7cbe 0ca6 9a3d
00000270: 8b2d 2b3d 457f 743e eccf 923e 4558 f13d
00000280: 129a 5b3e ed8a 2c3e ea2a 74be 4d08 1f3c
00000290: 0c35 53bd d537 903d b8e0 a0bd 3188 af3e
000002a0: 057b 713e 15d2 88bd d098 babe c475 2fbe
000002b0: 17ce b93d 2e16 543d d2ec ebbd 4008 0cbe
000002c0: 69d3 0dbd 6c7e f3bc fa13 4cbd fbcf 9ebd
000002d0: 6f50 613d fbc0 2a3e 4aa6 20bd 0841 6b3d
000002e0: 2825 9c3e d5c9 523d b16d 96bd 6199 f0bd
000002f0: 5705 d0bd 0ba3 fabd f3e4 3a3e f9c1 57bd
00000300: be40 7cbe 133c 4bbe e98f 54bd 1565 82bd
00000310: 37f5 f23d e8f7 2dbe a2c0 393d f0ca e8bc
00000320: ca8c a2bc 862f 66be e31a dabd 4217 b3bd
00000330: 8233 be3c ce46 d0ba 4635 7b3d 9815 03be
00000340: 1437 fabc 4767 d13d 6b89 9e3c 508c 20bd
00000350: fcb9 0ebc 3ed9 003e 488a 6abe 4580 86bc
00000360: d4aa 64bb d1b7 1cbd 82e3 9cbd 5e39 e0bd
00000370: b842 e33d ea4e 17be 0258 84bc 6a38 92be
00000380: 8864 473d 01b6 f23d 382f 463e 4ac7 6ebc
00000390: d3f2 11be 96b8 703d f32f 043e b23a 0cbe
000003a0: 55ba c53d 0dde 913d d716 3b3d d9b3 b6bd
000003b0: fef8 9fbd 20e8 a8be 4f20 833d a5e3 3ebd
000003c0: 86ba 4f3e 2465 32bd dce9 d9bd fd6c a73e
000003d0: 7575 813e d804 54bd d063 dfbc 4bc9 c1bd
000003e0: cf5e bfbd f43a b23c 521f 003d 35ae 033e
000003f0: f58c 81bd 2d8b 583e 0165 89bc 5320 493e

pool2.bias f4 [35]
0.013112334 0.014660018 0.0026244526 0.013201664 -0.014661375 0.012008192 0.012534255 -0.006949214
0.019501809 0.0051862714 0.012530836 0.00012515634 -0.011867743 -0.01279536 -0.0019218775 0.02540315
0.018173514 0.00479916 0.033100873 0.016047325 -0.04940534 0.012018828 0.007390994 -0.033120938
-0.0040540234 0.014398958 -0.009094155 0.0044663376 -0.004338784 0.031818468 0.021470496 -0.021450592
-0.015244274 0.03969374 0.01897222
00000000: 1dd5 563c 9230 703c 02ff 2b3b cb4b 583c
00000010: 4436 70bc 02be 443c 7a5c 4d3c 3bb6 e3bb
00000020: 42c2 9f3c 99f1 a93b 234e 4d3c 663c 0339
00000030: ec70 42bc a1a3 51bc 82e7 fbba 441a d03c
00000040: 9fe0 943c 4642 9d3b c894 073d ae75 833c
00000050: 415d 4abd 9eea 443c 2730 f23b d2a9 07bd
00000060: 9dd7 84bb 9be9 6b3c a7ff 14bc 5b5a 923b
00000070: 5c2c 8ebb 1554 023d e5e2 af3c 27b9 afbc
00000080: 1fc3 79bc e795 223d a16b 9b3c

conv3.weight f4 [35, 35, 3, 1, 1]
0.2567253 0.28431627 0.17476606 0.009319544 -0.25828177 -0.15023069 -0.09130081 0.25567207
-0.059960052 -0.07558625 0.10149641 -0.011005897 0.1569786 0.037987243 0.046330344 0.07079389
-0.107587054 0.07119175 -0.001529819 -0.21703541 -0.15324743 0.04391365 -0.07309374 0.10536525
-0.2414555 0.22121473 0.031322226 0.08637131 -0.075480945 -0.23227142 -0.27353886 -0.043652292
0.0097354995 0.1367449 0.030936766 0.14829782 -0.21861364 -0.08862938 -0.0484335 -0.04635737
0.10466152 -0.114722945 0.11093691 -0.02910725 -0.046314616 -0.015995983 0.221541 0.031117797
0.034000922 0.022589456 -0.14280175 0.042160433 -0.29540494 0.09346404 -0.07992886 0.036737364
0.1245211 -0.14868565 0.06640737 -0.3063535 -0.16267008 0.025498372 0.05453145 -0.08942457
0.11520768 0.046330057 -0.14710794 0.044184458 -0.049110144 -0.04374457 -0.08189228 0.04959308
0.107561186 0.15341422 0.22376004 0.28102982 0.24381757 -0.02375077 0.20687829 0.042326164
-0.13826394 -0.058301345 0.35651463 0.19440232 0.14541352 0.07689615 -0.12296976 -0.12056198
0.19336176 0.29766265 -0.1976085 0.048911713 -0.19645926 -0.07740504 0.056304224 -0.0052703237
0.036996555 0.036597062 0.08917135 0.24968989 -0.39875543 0.070596196 -0.0785399 -0.11497313
-0.2976041 -0.11265663 0.25730607 -0.060305122 0.14892933 0.096335545 -0.08980941 -0.37936825
-0.101264335 -0.15311272 -0.08231852 0.11372144 -0.5746405 -0.033570893 0.18439688 -0.014924663
-0.2317991 0.14474162 0.34581932 0.055846184 -0.080828436 0.06817383 0.22700472 0.0505543
0.19278128 0.09719022 -0.18002072 -0.223826 -0.16612257 0.2200453 0.17461483 -0.17573921
-0.048664268 -0.037638254 0.15431592 0.058080886 0.047427487 -0.010493341 0.056937244 -0.26462474
0.10619898 -0.02823656 -0.017434431 0.18750975 -0.111468844 0.3668709 -0.14038578 -0.13536893
-0.48663187 0.13556793 -0.22784023 0.15528606 0.086401485 0.013677529 0.03139195 0.03858604
-0.12782562 0.075477645 0.22466332 -0.06619242 -0.28212044 0.276942 0.17203891 0.043915536
-0.14655465 -0.17662874 0.13286832 -0.0316304 0.17779358 -0.3308916 -0.39196706 0.042319663
0.19550927 -0.12183005 0.026467541 0.14645739 0.028930858 -0.1664092 -0.35631338 0.14480805
0.022390164 0.22393566 0.09294166 0.06660047 0.22869343 0.06177581 -0.1934541 0.156585
0.07014492 0.046316043 0.25575614 -0.17693691 0.066111 0.06842766 0.022224065 0.030040234
-0.21782635 0.17567712 -0.19808315 0.22177961 0.103825316 -0.22875498 0.12981255 0.074808136
0.15694998 -0.19356717 0.26958725 0.062953904 0.12487221 0.09881088 -0.054837372 0.02776581
0.06655275 -0.1149576 0.06471549 0.023698192 -0.21432486 -0.12082804 0.1312171 0.1784391
-0.06146823 0.1355776 0.15995882 -0.06877781 -0.14836481 -0.06479326 0.086386204 0.12654565
-0.009321674 0.16662331 0.099353164 0.04822383 0.10392704 -0.060452007 -0.1593865 0.04525992
0.074083924 -0.07942353 -0.03329368 0.036287203 -0.0011820728 0.09262815 -0.035918243 -0.23759401
-0.08546484 0.20333149 0.0656479 -0.094505504 -0.0047634225 0.04608196 0.22463708 0.01890399
00000000: 8071 833e e791 913e e0f5 323e 00b1 183c
00000010: 823d 84be 13d6 19be ebfb babd 73e7 823e
00000020: ac98 75bd f7cc 9abd 5add cf3d 1452 34bc
00000030: 00bf 203e 8398 1b3d e3c4 3d3d 63fc 903d
00000040: 9a56 dcbd fbcc 913d 3584 c8ba 883e 5ebe
00000050: e5ec 1cbe cdde 333d 2cb2 95bd bcc9 d73d
00000060: 1c40 77be 1d86 623e bc4b 003d 71e3 b03d
00000070: c195 9abd 8fd8 6dbe 490d 8cbe bfcc 32bd
00000080: a581 1f3c db06 0c3e 1a6f fd3c 62db 173e
00000090: 41dc 5fbe 5283 b5bd 3562 46bd 3ae1 3dbd
000000a0: c758 d63d ddf3 eabd e432 e33d 5472 eebc
000000b0: 65b4 3dbd 020a 83bc a5db 623e c0ea fe3c
000000c0: 8d44 0b3d 860d b93c 9f3a 12be 6bb0 2c3d
000000d0: 513f 97be 136a bf3d beb1 a3bd eb79 163d
000000e0: eb04 ff3d 0d41 18be 9600 883d 5eda 9cbe
000000f0: fc92 26be f6e1 d03c 5f5c 5f3d 3b24 b7bd
00000100: 01f2 eb3d 96c4 3d3d 77a3 16be c3fa 343d
00000110: b827 49bd 822d 33bd 24b7 a7bd 1d22 4b3d
00000120: 0a49 dc3d 9e18 1d3e 5a21 653e 24e3 8f3e
00000130: 50ab 793e fa90 c2bc e7d7 533e 335e 2d3d
00000140: 1095 0dbe 64cd 6ebd 1689 b63e 6711 473e
00000150: 48e7 143e bb7b 9d3d 92d7 fbbd 33e9 f6bd
00000160: a000 463e 3d67 983e e259 4abe a657 483d
00000170: 9e2c 49be 8986 9ebd 429f 663d aeb2 acbb
00000180: b389 173d cde6 153d 789f b63d b5ae 7f3e
00000190: ac29 ccbe bd94 903d 87d9 a0bd 0877 ebbd
000001a0: 915f 98be 85b8 e6bd 9fbd 833e 8102 77bd
000001b0: ee80 183e 924b c53d ffed b7bd 8e3c c2be
000001c0: ad63 cfbd 95c9 1cbe 9d96 a8bd c9e6 e83d
000001d0: a41b 13bf a281 09bd 89d2 3c3e 9386 74bc
000001e0: be5c 6dbe 2637 143e 3b0f b13e f8be 643d
000001f0: 6189 a5bd b99e 8b3d ed73 683e 0712 4f3d
00000200: 7568 453e ab0b c73d 5a57 38be a532 65be
00000210: 091c 2abe 8e53 613e 3bce 323e fbf4 33be
00000220: 2f54 47bd 922a 1abd fe04 1e3e 39e6 6d3d
00000230: 5343 423d 43ec 2bbc 0737 693d e57c 87be
00000240: da7e d93d 5c50 e7bc a7d2 8ebc 8e02 403e
00000250: c749 e4bd 81d6 bb3e 4ac1 0fbe 279e 0abe
00000260: d027 f9be 52d2 0a3e f34e 69be 4f03 1f3e
00000270: 43f3 b03d b717 603c d894 003d 650c 1e3d
00000280: b8e4 02be 0694 9a3d 240e 663e e48f 87bd
00000290: 1772 90be 58cb 8d3e f82a 303e c7e0 333d
000002a0: 6c12 16be 2ade 34be a20e 083e e18e 01bd
000002b0: 850f 363e a06a a9be e8af c8be 6257 2d3d
000002c0: 9533 483e 0982 f9bd 75d2 d83c edf8 153e
000002d0: 6800 ed3c 2c67 2abe b56e b6be 9048 143e
000002e0: 946b b73c 644f 653e 3258 be3d d465 883d
000002f0: 9c2e 6a3e a208 7d3d d518 46be d157 203e
00000300: 24a8 8f3d e4b5 3d3d 78f2 823e f32e 35be
00000310: 3465 873d cd23 8c3d 3e0f b63c f016 f63c
00000320: df0d 5fbe b4e4 333e 4fd6 4abe 321a 633e
00000330: 5ea2 d43d bf3e 6abe 95ed 043e 0235 993d
00000340: 7fb7 203e 7936 46be 5707 8a3e faed 803d
00000350: 00bd ff3d 5c5d ca3d 279d 60bd 2075 e33c
00000360: cf4c 883d e46e ebbd 8e89 843d b622 c23c
00000370: fa77 5bbe b174 f7bd c75d 063e bdb8 363e
00000380: 1cc6 7bbd dbd4 0a3e 3fcc 233e 61db 8cbd
00000390: f2ec 17be 54b2 84bd 40eb b03d 2f95 013e
000003a0: efb9 18bc 4d9f 2a3e ac79 cb3d 5a86 453d
000003b0: b3d7 d43d 869c 77bd 3736 23be 7762 393d
000003c0: 50b9 973d cea8 a2bd f45e 08bd e4a1 143d
000003d0: c8ef 9aba d4b3 bd3d 021f 13bd d84b 73be
000003e0: 3108 afbd 2136 503e 6872 863d 1a8c c1bd
000003f0: 7c16 9cbb 70c0 3c3d 4307 663e 8adc 9a3c

conv3.bias f4 [35]
-0.034506783 -0.0103721265 -0.0024001186 -0.0022326864 0.01374507 0.000489938 -0.0073536607 0.0018257805
-0.016252697 0.0030517688 -0.026660899 -0.00973246 -0.038755715 -0.021017553 0.020929508 0.005818229
-0.021248117 -3.714824e-06 -0.02894227 0.017769158 -0.020946888 0.0058017843 -0.001277687 -0.018782292
-0.015635781 -0.014358389 -0.0056060576 -0.045271724 0.012655415 0.0008285964 0.049447764 -0.007373614
-0.010572147 -0.006858455 -0.029707868
00000000: fc56 0dbd daef 29bc 4f4b 1dbb 4352 12bb
00000010: 0133 613c 2f6f 003a faf6 f0bb 074f ef3a
00000020: 6024 85bc 2f00 483b f567 dabc e574 1fbc
00000030: 50be 1ebd 012d acbc 5c74 ab3c d8a6 be3b
00000040: 8810 aebc 314c 79b6 5718 edbc a090 913c
00000050: cf98 abbc e51c be3b 1078 a7ba 52dd 99bc
00000060: 9c16 80bc 733f 6bbc 05b3 b7bb d86e 39bd
00000070: a858 4f3c 2a36 593a bd89 4a3d 5b9e f1bb
00000080: cc36 2dbc e4bc e0bb ea5d f3bc

conv4.weight f4 [35, 35, 2, 1, 1]
0.0068153962 -0.06656055 -0.13030274 0.12034128 -0.04748532 0.07848741 -0.1168853 -0.036197778
0.029408738 0.049814582 -0.27651444 -0.02186372 0.14710063 0.13101742 -0.12180955 -0.1051594
-0.14640716 0.13917756 0.14937869 -0.12662871 -0.198335 -0.18085879 0.60613924 -0.061998487
-0.08417051 0.057215735 -0.15926772 -0.066992916 -0.07380106 -0.13302521 0.081158064 -0.0557987
0.19807549 -0.30028653 -0.34691736 0.0022396534 -0.043802354 -0.03768116 0.0238692 0.18061793
0.009794982 0.17844494 0.01442589 -0.23990104 -0.15068829 -0.014800995 -0.04446992 -0.29535955
-0.06407016 0.013397384 0.041910022 -0.11857259 -0.11441165 -0.019875802 -0.02175331 0.17822097
0.05703744 -0.05257281 -0.13828504 -0.13342069 0.27453405 0.10860798 -0.118096754 -0.06351763
0.12179794 0.007182297 -0.11366193 0.011176279 0.114304215 0.12882978 0.09928015 -0.23254693
-0.09120545 -0.024913406 0.22995602 0.29736245 -0.2198497 0.13619287 0.03479915 -0.101565905
0.29727036 -0.10915326 0.21804014 -0.019080913 0.017813148 -0.17052336 0.23129879 0.24365182
-0.05283815 0.35339668 -0.06880975 -0.3816634 -0.19317764 -0.3760503 -0.12866062 -0.04881303
-0.20468865 0.08927497 0.05171218 0.21130393 -0.21374269 0.11138526 -0.4474265 -0.14849155
-0.078469865 0.06527513 -0.10598141 0.056489017 0.3186076 0.2058352 -0.080628075 -0.34224397
0.2891827 0.18104042 0.06588266 0.20491639 0.19746661 -0.011921293 0.15708278 0.31552818
0.22488679 -0.28152254 -0.12087872 0.26656204 -0.123282775 -0.065209314 0.16966112 0.38956973
-0.35842025 0.2996236 0.17593193 -0.010910114 0.19791058 0.00020494862 -0.3108253 -0.24874505
0.20770578 0.017850697 -0.14000706 0.04750137 -0.1897777 0.19191377 -0.031245219 -0.10870491
0.13091488 0.09766117 -0.17675999 -0.41235194 -0.107151635 -0.07490123 -0.15804006 0.12506816
0.030994043 -0.10129961 -0.12130085 -0.09328092 -0.08263673 -0.08778052 0.109728254 -0.14672051
0.054610137 0.25567108 0.01674432 0.045702994 0.11796211 -0.08654217 0.123531304 -0.23898059
0.19273528 -0.11085977 0.06213674 -0.018520653 -0.26619476 0.09841562 -0.2575393 -0.10729547
-0.016627256 -0.27695733 -0.078300186 0.030774578 -0.059400108 0.0042233253 -0.17607075 0.20187624
0.10114981 0.22149484 -0.00015423958 0.041807916 0.031748224 -0.13936658 0.0066670235 -0.13699402
-0.029989248 -0.24766856 -0.104415275 -0.3708677 0.32181448 -0.22955294 0.18771727 0.0207283
-0.1291602 -0.111267574 -0.11926216 -0.06480244 -0.10527739 0.032505468 -0.23288548 0.28910232
0.050909907 0.016037839 -0.11830338 -0.042507075 0.13148831 -0.024742953 -0.29846448 -0.40313056
0.04461129 0.23038729 0.09691142 0.16181573 -0.13838801 -0.10823285 -0.20222752 0.13426226
-0.1846565 0.053478207 -0.1256348 0.36454916 0.20791103 0.26658633 -0.39861497 -0.22305846
-0.019708253 0.17325284 -0.14146915 0.14408822 0.21678796 0.506566 -0.31941238 0.06473903
0.100420035 0.082662106 0.24924733 -0.10253551 -0.10850145 0.097649254 -0.012418436 0.0075911446
-0.34318766 0.24316655 -0.034860086 -0.21657147 0.16439909 0.2788448 -0.15651767 -0.14872167
00000000: b053 df3b e650 88bd 156e 05be 7d75 f63d
00000010: f87f 42bd 02be a03d 8f61 efbd 1f44 14bd
00000020: 98ea f03c 600a 4c3d 4d93 8dbe 8b1b b3bc
00000030: 8ca1 163e 6e29 063e 4977 f9bd d05d d7bd
00000040: c2eb 15be 9084 0e3e baf6 183e f5aa 01be
00000050: 5518 4bbe 0c33 39be f12b 1b3f 20f2 7dbd
00000060: 9761 acbd 0c5b 6a3d 1417 23be 9533 89bd
00000070: 0325 97bd c337 08be 3336 a63d 2d8d 64bd
00000080: 4dd4 4a3e 28bf 99be 279f b1be 26c7 123b
00000090: 196a 33bd 8f57 1abd 5789 c33c e8f3 383e
000000a0: 227b 203c 45ba 363e 915a 6c3c 9ea8 75be
000000b0: 084e 1abe df7f 72bc 1726 36bd 5e39 97be
000000c0: 3737 83bd b480 5b3c d8a9 2b3d 30d6 f2bd
000000d0: a850 eabd 94d2 a2bc ff33 b2bc 8f7f 363e
000000e0: 17a0 693d 9656 57bd 989a 0dbe 6f9f 08be
000000f0: ba8f 8c3e dc6d de3d b6dc f1bd 8815 82bd
00000100: 3371 f93d 7959 eb3b 96c7 e8bd b61c 373c
00000110: 5418 ea3d f4eb 033e 6453 cb3d c820 6ebe
00000120: ecc9 babd 3317 ccbc 9779 6b3e e43f 983e
00000130: 4820 61be 2576 0b3e 8e89 0e3d c901 d0bd
00000140: d233 983e bf8b dfbd ea45 5f3e 934f 9cbc
00000150: e1ec 913c ad9d 2ebe 97d9 6c3e dd7f 793e
00000160: d16c 58bd 69f0 b43e 20ec 8cbd 6369 c3be
00000170: 5cd0 45be aa89 c0be 9cbf 03be 2cf0 47bd
00000180: e799 51be ccd5 b63d 27d0 533d 0f60 583e
00000190: 5ddf 5abe f51d e43d 1615 e5be 2b0e 18be
000001a0: cfb4 a0bd f8ae 853d c80c d9bd 0761 673d
000001b0: 8920 a33e 76c6 523e 5520 a5bd 9a3a afbe
000001c0: c10f 943e a962 393e 7ded 863d 9ad5 513e
000001d0: b034 4a3e 8751 43bc 4fda 203e e98c a13e
000001e0: b948 663e b923 90be 438f f7bd d27a 883e
000001f0: ae7b fcbd 768c 85bd a5bb 2d3e af75 c73e
00000200: dc82 b7be 4468 993e 8027 343e 56c0 32bc
00000210: 12a9 4a3e 7ae7 5639 7e24 9fbe 06b7 7ebe
00000220: d3b0 543e a03b 923c 035e 0fbe cc90 423d
00000230: 1655 42be 0b85 443e f9f5 ffbc aea0 debd
00000240: 8d0e 063e 9402 c83d 9200 35be cb1f d3be
00000250: 5172 dbbd d165 99bd 41d5 21be de11 003e
00000260: 38e7 fd3c 2c76 cfbd 946c f8bd 110a bfbd
00000270: 723d a9bd 46c6 b3bd 35b9 e03d e73d 16be
00000280: e1ae 5f3d 52e7 823e 622b 893c 1033 3b3d
00000290: 1e96 f13d 053d b1bd fbfd fc3d 54b7 74be
000002a0: 665c 453e 720a e3bd 1883 7e3d a0b8 97bc
000002b0: ae4a 88be 218e c93d 31dc 83be babd dbbd
000002c0: e235 88bc 5acd 8dbe d95b a0bd f81a fc3c
000002d0: 874d 73bd d263 8a3b e44b 34be a5b8 4e3e
000002e0: a227 cf3d 8bcf 623e 5fbb 21b9 c73e 2b3d
000002f0: 6d0a 023d 1db6 0ebe 0c77 da3b 2948 0cbe
00000300: 03ac f5bc d49c 7dbe add7 d5bd 5fe2 bdbe
00000310: dec4 a43e ed0f 6bbe f538 403e 65ce a93c
00000320: 9242 04be 41e0 e3bd b83f f4bd 24b7 84bd
00000330: ac9b d7bd 7424 053d 8879 6ebe 3805 943e
00000340: e886 503d c961 833c 0b49 f2bd e61b 2ebd
00000350: dfa4 063e bcb1 cabc 56d0 98be 2167 cebe
00000360: 54ba 363d a5ea 6b3e 7f79 c63d 06b3 253e
00000370: 96b5 0dbe 2fa9 ddbd bb14 4fbe 0c7c 093e
00000380: 9816 3dbe f70b 5b3d 69a6 00be 30a6 ba3e
00000390: a1e6 543e 017e 883e 4317 ccbe 7069 64be
000003a0: 3473 a1bc 3169 313e 4add 10be dd8b 133e
000003b0: aafd 5d3e 4fae 013f 058a a3be e695 843d
000003c0: 05a9 cd3d c04a a93d b13a 7f3e 23fe d1bd
000003d0: 0236 debd 55fc c73d b276 4bbc 23bf f83b
000003e0: 4bb6 afbe a700 793e 73c9 0ebd e9c4 5dbe
000003f0: 3c58 283e bfc4 8e3e 2b46 20be 7e4a 18be

conv4.bias f4 [35]
0.032348357 0.0015687915 -0.008253244 -0.052930858 0.0021897315 0.014422062 0.008723027 -0.024033736
-0.024269544 -0.03311054 -0.016415985 -0.07282859 -0.0004310356 -0.050576724 0.009124131 -0.034710284
-0.016196625 -0.021350013 -0.016243378 0.033638515 0.014961564 -0.0005873585 -0.057784926 -0.07395391
0.010092476 0.00092492934 -0.004799567 -0.025538247 0.0039132177 -0.008029582 -0.055781003 0.0024557174
-0.010869298 -0.03855736 -0.016409038
00000000: b67f 043d e89f cd3a 9d38 07bc 07ce 58bd
00000010: 9981 0f3b 834a 6c3c 07eb 0e3c 66e2 c4bc
00000020: ecd0 c6bc eb9e 07bd d17a 86bc 2827 95bd
00000030: 9efc e1b9 8a29 4fbd 617d 153c 5f2c 0ebd
00000040: c9ae 84bc 39e6 aebc d510 85bc 8ac8 093d
00000050: 5921 753c f6f8 19ba e3af 6cbd 2675 97bd
00000060: ea5a 253c f576 723a b045 9dbb 9635 d1bc
00000070: 733a 803b 828e 03bc 9f7a 64bd 1af0 203b
00000080: 2415 32bc 53ee 1dbd 3f6c 86bc

fc.weight f4 [17, 945]
0.05785603 0.011931427 0.04654907 -6.727293e-05 0.039637532 0.0020012027 -0.047609456 0.0074198944
0.012499329 -0.044265926 0.043315265 -0.012266814 -0.042948637 -0.061398182 0.00016091662 -0.009278838
0.0027325 -0.0059535434 -0.04394645 0.07538177 0.0012693701 -0.033029795 0.0025662035 -0.028021894
-0.053844728 -0.013499385 0.0045702504 -0.05377355 -0.00040883612 0.029145936 0.025028568 -0.020973427
0.043684933 -0.067076445 -0.0063065467 -0.01901423 -0.08623781 -0.03424579 -0.09007436 0.12810045
-0.01756296 0.0420847 0.017716853 -0.057938527 -0.015065802 -0.06643553 0.049913153 0.06751853
-0.04118005 -0.021818971 0.050880067 -0.07028133 -0.04400875 -0.09344138 0.03812624 -0.028597364
-0.022291215 0.039729375 -0.01593077 -0.028385391 0.009159033 -0.026379671 -0.006392227 -0.012037493
0.008479174 0.020053968 -0.010449351 0.0073679704 -0.085194536 0.029783353 0.022644835 0.009994603
-0.03269639 -0.02880555 -0.05916845 -0.042921033 0.06902854 -0.006879029 0.02542424 0.030195432
-0.010150109 -0.09211467 0.011373488 0.058786135 0.027623402 -0.0377717 -0.006960606 0.024240313
-0.03154826 -0.011154061 0.022080405 -0.028947338 -0.04223529 0.038965784 0.06331826 -0.038419064
0.006198935 0.063391 -0.050980594 -0.047720306 -0.013523506 -0.019863468 0.021287797 -0.04013453
-0.007554008 0.01325964 -0.041916016 -0.022758428 -0.03297044 -0.024318436 0.025110869 -0.032858692
0.012864642 0.02146029 -0.05406033 -0.014066874 -0.0057515595 0.07562032 0.0069451258 -0.0723878
0.07740098 0.07215473 0.021041766 0.0383532 -0.05869926 0.0911859 0.008007677 0.014828832
0.021959743 0.05872804 0.10215178 0.059917368 -0.050609548 0.0016510391 -0.0998892 0.02501002
-0.060465463 0.0006344775 0.019883372 -0.0058868346 0.042727638 -0.047495246 0.030333329 0.04952664
0.021360984 0.04243495 -0.016946608 0.010153635 -0.093008 0.04180726 -3.754731e-05 0.0043861386
0.010111051 -0.047818046 -0.06043658 -0.021261107 0.08029978 0.07243758 0.0045031724 -0.07388165
-0.0142727615 0.06723636 0.03929966 -0.011882636 0.07569048 -0.01784662 0.054337814 -0.05721713
-0.05991618 -0.06629258 0.022955453 0.03943753 -0.0020235304 0.09118157 -0.0341579 -0.014365873
-0.025975503 -0.058450744 -0.089317 0.03388035 -0.043234948 -0.053416915 0.056187853 -0.0026561276
-0.011362072 0.008282452 0.05135058 -0.0061284937 -0.054404024 -0.061927583 -0.018358627 0.05615808
-0.0095173875 -0.074259765 -0.080536276 -0.07576196 -0.039344996 0.022262683 0.07895598 -0.0043397276
0.01575053 -0.06632078 0.08202488 -0.018193476 0.11312696 0.08532226 0.019567367 0.021462245
-0.036930107 -0.038824406 -0.017218053 -0.020691805 0.013969523 -0.013613468 0.015667247 0.028029295
-0.055052876 0.020328714 -0.045498937 0.021525372 0.016527114 -0.02848719 -0.027849006 0.030705405
0.006983688 0.016157744 -0.05991885 -0.09614913 0.02462643 -0.026876915 -0.017389666 -0.018441712
0.047959484 -0.029825278 -0.021399368 -0.08830469 0.016253173 -0.008213346 0.0124682905 0.001431697
-0.012785441 0.043895897 -0.041562624 -0.02113029 -0.038194433 0.04741687 0.0050987964 -0.003489368
-0.023669535 0.0739945 0.026000783 -0.019393135 0.06057256 0.015407637 -0.0619329 0.016074913
00000000: 72fa 6c3d 087c 433c 3daa 3e3d e114 8db8
00000010: f75a 223d 9c26 033b 2202 43bd 9622 f33b
00000020: fcc9 4c3c 3050 35bd 596b 313d bffa 48bc
00000030: e9ea 2fbd a97c 7bbd babb 2839 4406 18bc
00000040: be13 333b f115 c3bb 3101 34bd c261 9a3d
00000050: fe60 a63a 404a 07bd c02d 283b 2c8e e5bc
00000060: 4a8c 5cbd 862c 5dbc 0ac2 953b a741 5cbd
00000070: 0e59 d6b9 75c3 ee3c b608 cd3c 77d0 abbc
00000080: f9ee 323d 605f 89bd 26a7 cebb bbc3 9bbc
00000090: 739d b0bd 5045 0cbd e878 b8bd c42c 033e
000000a0: 32e0 8fbc 0261 2c3d ef22 913c f350 6dbd
000000b0: 8ed6 76bc 5a0f 88bd bc71 4c3d 2847 8a3d
000000c0: 69ac 28bd b3bd b2bc 9e67 503d a8ef 8fbd
000000d0: 8542 34bd 325e bfbd 432a 1c3d 0545 eabc
000000e0: 119c b6bc 45bb 223d 3f81 82bc 7b88 e8bc
000000f0: c50f 163c 2e1a d8bc e375 d1bb e838 45bc
00000100: 3cec 0a3c 3848 a43c c133 2bbc 046f f13b
00000110: 797a aebd 38fc f33c a981 b93c 67c0 233c
00000120: a6ec 05bd 9ef9 ebbc 9e5a 72bd f7cd 2fbd
00000130: d65e 8d3d 7a69 e1bb 7f46 d03c 695c f73c
00000140: a54c 26bc 9ea6 bcbd de57 3a3c bbc9 703d
00000150: 794a e23c 80b6 1abd cc15 e4bb 9f93 c63c
00000160: c038 01bd 86bf 36bc f7e1 b43c f822 edbc
00000170: e9fe 2cbd 969a 1f3d 01ad 813d 4f5d 1dbd
00000180: 7020 cb3b 24d3 813d 07d1 50bd 5e76 43bd
00000190: b291 5dbc b6b8 a2bc bf63 ae3c 1b64 24bd
000001a0: 9d87 f7bb f63e 593c 21b0 2bbd e26f babc
000001b0: 030c 07bd 7537 c7bc 4fb5 cd3c d696 06bd
000001c0: 38c6 523c 7dcd af3c 5d6e 5dbd bf78 66bc
000001d0: 9477 bcbb d4de 9a3d f093 e33b 0e40 94bd
000001e0: 6884 9e3d dcc5 933d c85f ac3c 3f18 1d3d
000001f0: a36e 70bd acbf ba3d a232 033c a1f4 723c
00000200: ebe4 b33c d08c 703d f434 d13d ea6b 753d
00000210: f54b 4fbd ae67 d83a b592 ccbd d0e1 cc3c
00000220: a2aa 77bd 1053 263a 74e2 a23c 59e6 c0bb
00000230: 2d03 2f3d 608a 42bd 9a7d f83c 72dc 4a3d
00000240: 3bfd ae3c 45d0 2d3d 9dd3 8abc 6f5b 263c
00000250: fa7a bebd 173e 2b3d 1e7c 1db8 99b9 8f3b
00000260: d2a8 253c dbdc 43bd 598c 77bd c62b aebc
00000270: 3674 a43d 275a 943d 598f 933b 434f 97bd
00000280: 4dd8 69bc 37b3 893d aef8 203d 63af 42bc
00000290: 9c03 9b3d 1333 92bc 5491 5e3d 825c 6abd
000002a0: ab6a 75bd 67c4 87bd 130d bc3c 3f89 213d
000002b0: 359d 04bb 67bd ba3d 27e9 0bbd d75e 6bbc
000002c0: 94ca d4bc 0c6a 6fbd d5eb b6bd 1fc6 0a3d
000002d0: 2117 31bd b2cb 5abd 3c25 663d 6d12 2ebb
000002e0: fc27 3abc 1fb3 073c fc54 523d 88d1 c8bb
000002f0: c1d6 5ebd c7a7 7dbd d564 96bc 0406 663d
00000300: d1ee 1bbc 8115 98bd 34f0 a4bd 1629 9bbd
00000310: 3828 21bd 3b60 b63c acb3 a13d 4634 8ebb
00000320: 4107 813c 30d3 87bd a9fc a73d 7c0a 95bc
00000330: 1caf e73d 70bd ae3d be4b a03c 97d1 af3c
00000340: 0644 17bd 5706 1fbd e00c 8dbc dc81 a9bc
00000350: 6de0 643c 060b 5fbc 9958 803c b19d e53c
00000360: 207f 61bd 6788 a63c 185d 3abd fa55 b03c
00000370: df63 873c f85d e9bc 9923 e4bc e789 fb3c
00000380: 6cd7 e43b 3f5d 843c 786d 75bd d6e9 c4bd
00000390: 5ebd c93c fa2c dcbc c674 8ebc 1313 97bc
000003a0: 2a71 443d 2454 f4bc ba4d afbc 17d9 b4bd
000003b0: 6025 853c 4591 06bc cd47 4c3c c8a7 bb3a
000003c0: 077a 51bc 2fcc 333d 923d 2abd 6e19 adbc
000003d0: c471 1cbd 3138 423d ce13 a73b e1ad 64bb
000003e0: 9de6 c1bc 6e8a 973d 98ff d43c 5ade 9ebc
000003f0: ef1a 783d 5070 7c3c 5aad 7dbd 89af 833c

fc.bias f4 [17]
-0.017021926 -0.005933143 -0.031134592 0.054467592 0.0060041673 0.017044744 -0.00820574 -0.010188015
-0.03424963 -0.00071457867 1.4212034e-05 0.018280786 0.003228609 0.0028283217 0.033826984 -0.012944483
-0.015303717
00000000: 9171 8bbc d06a c2bb f90d ffbc 6919 5f3d
00000010: 9bbe c43b 6ba1 8b3c 5e71 06bc a2eb 26bc
00000020: 5749 0cbd 9052 3bba 3970 6e37 96c1 953c
00000030: 1297 533b 5d5b 393b 2a8e 0a3d 1915 54bc
00000040: 71bc 7abc
