checkpoints/mou_et_al/no_class_balancing/IndianPines_Var_30/epoch9_0.69.pth (torch, 82416 bytes, 10 tensors)

gru.weight_ih_l0 f4 [192, 30]
000000 99 bf 5d be 5c 57 1c be 11 e7 8b be 72 8a d9 bd
       -0.2165512 -0.152677 -0.27324727 -0.106221095
000010 2a 31 10 be 76 3d 66 be 8a d2 02 be 48 ed 05 be
       -0.14081255 -0.22484383 -0.12775627 -0.13078797
000020 44 c4 32 be 54 71 54 be f4 63 01 be fd e3 15 bc
       -0.17457682 -0.20746356 -0.12635785 -0.009148595
000030 ee 72 19 be f4 0f eb bd b1 e3 00 be 0f 87 91 bd
       -0.14985248 -0.11477652 -0.12586857 -0.071058385
000040 35 c1 2a be bd ac dc bd 0a 6d 1b be f9 33 eb bc
       -0.16675265 -0.10775135 -0.15178314 -0.028711306
000050 47 00 74 3d 53 11 b5 bd f1 82 3d 3c d2 c1 b9 bc
       0.059570577 -0.08841195 0.011566863 -0.022675429
000060 d5 46 2d be cc 8e ae bd a6 25 8c 3d 39 86 1c 3d
       -0.16921552 -0.0852333 0.06843118 0.038213942
000070 c7 cc 5d bd c7 45 a8 bd fb 49 5e 3c 28 3e 28 3e
       -0.05415037 -0.08216434 0.013567443 0.1642996
000080 46 29 70 3d a9 77 a6 bc b8 1f ba 3d c8 1b 30 3e
       0.05863311 -0.02032073 0.09088081 0.17198098
000090 19 7f 0a bd 7a db e4 3d a1 75 dd 3d 2b ef ee 3c
       -0.033812616 0.11174674 0.108134516 0.029166779
0000a0 90 d0 c3 3d 6a 71 fb 3d 10 9a 93 3d f4 91 9d bb
       0.095612645 0.122774914 0.072071195 -0.0048086587
0000b0 10 70 2a 3c bf e8 31 3e b8 fc 43 bd b6 ea 6a bc
       0.010402694 0.17373942 -0.047848433 -0.014338186
0000c0 17 91 8f bc 95 be 64 bd 55 5f 8f 3d ba 3c 74 3d
       -0.017525239 -0.055845816 0.07000605 0.059628226
0000d0 2b 67 f1 3d 44 48 23 3e 24 8c 14 bd 9e 19 ff 3d
       0.11787256 0.15945536 -0.03626646 0.12456058
0000e0 ff 2b b1 3d f8 3f 51 3e 0b 51 ab 3d 18 dc 3b 3e
       0.0865097 0.20434558 0.08365067 0.18345678
0000f0 46 d8 12 3e d4 b9 8b 3e 8b c1 7c 3d 33 10 20 3e
       0.14340314 0.27290213 0.061708014 0.1563118
000100 b0 6c b1 3d 3e 73 84 3e be 25 12 3d 9f 31 0f 3e
       0.086633086 0.25869173 0.035680525 0.13983773
000110 fc f5 3b 3e 13 39 02 3d 01 c5 4b 3d 22 a7 df 3d
       0.18355554 0.03179271 0.049748424 0.1092055
000120 ac 8f dc 3d 42 51 b9 3d 43 75 9d 3c 93 ed f8 3d
       0.10769591 0.09048702 0.019220954 0.12154689
000130 9a 3c 1f 3e ea 7b b6 3d 52 a7 9a 3d 1c a7 7a 3d
       0.15550461 0.089103535 0.07551445 0.061194524
000140 14 7e 20 3d c8 7e 4f 3d 02 87 fa 3d 9f f0 cf 3c
       0.039182737 0.050658017 0.12232782 0.025383292
000150 46 da 55 3e 26 c6 4c 3e 38 b8 69 3e 42 e1 75 3d
       0.20884046 0.19997463 0.2282418 0.060029276
000160 d6 cf 44 3e de 3c 29 3e b7 cb ef 3d 0b 80 31 bd
       0.19219908 0.16527125 0.117087774 -0.043335002
000170 36 8a 8b 3d da e4 ec 39 69 b0 88 bc 85 a6 2d bc
       0.06813471 0.00045183935 -0.016685681 -0.010598783
000180 af 08 42 3b bc e7 f9 3d bc a8 0c 3e 22 72 53 3d
       0.0029607227 0.12202403 0.13736242 0.051622517
000190 01 90 0d 3e 63 d2 9f 3d d8 10 16 3c 52 11 27 3e
       0.13824464 0.078038 0.009159289 0.16315201
0001a0 91 7a 12 3e 23 5e fb 3d 52 1f 85 3d 2f 98 35 bb
       0.14304568 0.122738145 0.065001145 -0.0027709117
0001b0 fc 01 04 3e 9b 39 c3 3d 0f 40 2f 3e cb 5f 2d bd
       0.12891382 0.09532472 0.1711428 -0.042327683
0001c0 ca 59 19 3e b2 52 71 3c 8c c3 24 3e 42 75 06 3d
       0.14975658 0.014729189 0.1609022 0.03282667
0001d0 e7 8e 15 bd 40 34 25 3e e8 c0 c7 3d 7b 56 4f 3e
       -0.036513235 0.16133213 0.09753591 0.20247833
0001e0 74 50 6c 3d 7c 18 db 3d de af 25 3e 7b 4f ce 3d
       0.057693914 0.106980294 0.1618037 0.100737534
0001f0 c2 b0 09 3e 96 b9 d3 3d 87 83 bf 3d fe ea 11 3e
       0.13446334 0.10338132 0.09351259 0.14249799
000200 38 70 11 3e 69 88 31 3e c4 60 3f 3d d8 86 8a 3d
       0.14202964 0.17337193 0.046723142 0.06764001
000210 b3 d5 bd 3d ad 56 da bd d6 a9 1d 3d b5 55 de 3d
       0.092692755 -0.10661063 0.038492046 0.10856191
000220 b3 7c 19 3c 4e ba 3b 3d 89 4d a7 bd db 6c 0e bc
       0.0093681095 0.04583197 -0.081690855 -0.008692945
000230 0e 7d f0 bd 4c 4d cf bc d8 6e e4 3d 3f 8c c9 bc
       -0.11742602 -0.025305413 0.11153954 -0.024603007
000240 88 99 2b 3e 9f 8c 09 3e 8e 0e 02 bd 54 34 ec bd
       0.16757786 0.13432549 -0.03175216 -0.11533418
000250 11 41 fd 3c de ed 10 bc a3 b9 d4 3d a9 e5 dc 3d
       0.030914815 -0.008845774 0.1038697 0.10785992
000260 ce df 9d 3c 96 9c 69 3e 19 8a 03 3e 0e 5e 8c 3e
       0.019271757 0.22813639 0.12845649 0.27415508
000270 1b cc 26 3e 69 82 34 3e 27 b3 87 3e 79 8f f3 3d
       0.16288798 0.17627873 0.2650387 0.118925996
000280 a4 08 17 3e 33 e9 91 3e a3 4d 2b 3e 5e b0 a7 3e
       0.1474939 0.2849823 0.16728835 0.32751745
000290 40 60 09 3e 82 ee 85 3e 3d cf b0 3e ed 3a 34 3e
       0.13415623 0.2615853 0.3453311 0.17600603
0002a0 47 83 b9 3d 29 6e 28 3e a1 b2 68 3e fb b6 e5 3d
       0.09058242 0.16448273 0.22724392 0.112165414
0002b0 06 5a ee 3d 4a 65 95 3e a5 6d 8a 3e 11 4e 21 3e
       0.11638264 0.2917884 0.27036777 0.15752436
0002c0 99 06 e2 3d b7 c0 ad 3e 80 5f 2c 3e f5 be 5b 3e
       0.11036415 0.33936092 0.16833305 0.21459563
0002d0 e3 61 4c 3d af b5 96 bd 1c bb af 3d 78 85 f7 3d
       0.04989804 -0.07358872 0.0858061 0.12086004
0002e0 a5 f3 dd 3d 3f 0c bf 3d 3f 04 1f 3e 42 41 0b 3e
       0.10837487 0.09328508 0.15528964 0.13599113
0002f0 08 e3 ae 3c af d6 f8 3d cf e8 a7 3d 6e e3 3d 3e
       0.021348491 0.12150323 0.081987016 0.18543789
000300 86 34 c1 3a fd 27 f8 3d ca 34 21 3e a0 c8 a3 bc
       0.0014740385 0.12117002 0.15742794 -0.019993126
000310 39 52 cc 3d d4 82 b4 3d d3 b0 0c 3e 45 bb a6 3d
       0.0997662 0.08814016 0.13739328 0.081411876
000320 c6 73 80 3b ce 5c 65 bd aa 24 89 bd 52 ce 8a 3d
       0.0039200513 -0.05599671 -0.06696446 0.06777634
000330 a4 5e 3a 3e c6 29 96 3c 66 53 11 3e 7f da b9 bd
       0.18200165 0.018330466 0.1419197 -0.09074878
000340 b4 01 5a 3d f1 d1 71 bb 39 39 af bd f7 d8 6c 3c
       0.05322428 -0.0036898816 -0.08555836 0.014456025
000350 3c 1a 8e bd 3b 20 6c bd ee 63 35 bd 15 d0 c2 3d
       -0.069385976 -0.057647925 -0.044284754 0.09512345
000360 91 e6 95 bd 92 f9 1f 3e 32 ff 01 3d 83 90 16 3d
       -0.07319368 0.15622547 0.031737514 0.03675891
000370 f2 38 82 bb 22 c2 aa 3c a2 ae 9c bd 26 df 58 bc
       -0.0039740736 0.020844523 -0.07650496 -0.0132367965
000380 82 15 a8 39 55 9c 7f 3d 3c 1f 07 3e 42 e5 12 3c
       0.00032059482 0.06240495 0.13195509 0.008965792
000390 f3 54 0b 3e 3e b0 5f bd b0 ac 11 bd 53 02 69 3c
       0.13606624 -0.054611437 -0.03556508 0.014221746
0003a0 e0 f9 a2 3b 40 92 54 bc 93 77 9c bd bd ae d8 3d
       0.004973635 -0.012974322 -0.076399945 0.10580204
0003b0 e5 bc 27 bc d9 39 90 bc 3f 5f f8 bc ec b9 aa 3b
       -0.010237907 -0.017605709 -0.030318854 0.005210152
0003c0 4f c5 6d 3d 64 7e 6b 3c 8d 4d c8 bd 29 58 1b be
       0.058049496 0.014373396 -0.09780417 -0.15170349
0003d0 e1 87 60 bd 96 53 b5 bc b7 99 3c be 6b 4e 9d bd
       -0.054817084 -0.022134583 -0.18418013 -0.07680973
0003e0 ef 93 50 be 95 e9 5e be a3 af 47 be 5a 52 08 be
       -0.20368932 -0.21768792 -0.19500594 -0.13312665
0003f0 17 44 26 be b3 6b 8a bd bd b4 fd bd c9 0a 1f be
       -0.16236912 -0.06758823 -0.12387989 -0.15531458

gru.weight_hh_l0 f4 [192, 64]
000000 1e 36 52 3e 6c a2 1f 3e 83 78 a1 3e 55 f1 5a 3e
       0.20528457 0.15589303 0.31537256 0.21381123
000010 d3 89 dc ba 75 ff ca bd 16 78 c2 bc e9 a5 9f bd
       -0.0016825743 -0.09912006 -0.023738902 -0.07795317
000020 80 0d d7 be b2 06 76 3d 20 c1 2b be f5 6f 55 be
       -0.42002487 0.06006498 -0.1677289 -0.2084349
000030 b3 93 2a 3e 5a 55 80 be ff 57 0b 3e 8e aa 99 bd
       0.16657905 -0.25065118 0.13607787 -0.07503234
000040 fd 38 45 3e 3c e1 80 3d 34 e8 6a be f2 b5 ac be
       0.1926002 0.0629296 -0.22940141 -0.33732563
000050 21 c6 1d 3e 4d 5d 1a be 55 de ab be 55 44 9b be
       0.15407611 -0.15074654 -0.33568063 -0.3032557
000060 4a 2c 07 3d b6 95 a0 bd b2 48 24 be c2 1e 33 3e
       0.03300122 -0.07841055 -0.16043356 0.17492202
000070 71 f4 9d bc dd 93 79 3e d2 35 2f be c9 11 97 3c
       -0.019281598 0.24372812 -0.17110375 0.018441098
000080 95 50 f7 bc b5 d4 00 3e 54 9a 87 be 00 94 a4 3d
       -0.030189792 0.12581141 -0.2648493 0.08036041
000090 3f 32 5d bd f6 da 1b be bc c7 a0 be 6e 5c 7f be
       -0.054002997 -0.15220246 -0.31402385 -0.24937603
0000a0 55 21 e9 bd 30 ac 28 3e 61 f6 ab 3d b6 84 69 be
       -0.11383311 0.16471934 0.083966024 -0.22804531
0000b0 ee 0d 3a 3c 97 0d 84 3e e0 92 78 bd cc f3 6e 3e
       0.01135586 0.25791618 -0.060686946 0.23335189
0000c0 f7 77 34 be de 80 41 3d 48 4e 1c be 21 d1 8d 3e
       -0.17623888 0.047242038 -0.15264237 0.27698615
0000d0 26 d5 53 3e f2 ad f8 bc 66 f8 67 bd dd 97 52 be
       0.20686778 -0.030356381 -0.056633376 -0.20565744
0000e0 4d eb 85 be 8e 04 4b 3e 90 e4 21 be f6 5d 56 be
       -0.26156083 0.19825956 -0.15809846 -0.20934281
0000f0 d1 10 9c be c7 34 23 3e 67 c0 48 be a3 d1 8d 3d
       -0.3048158 0.15938102 -0.19604646 0.06924751
000100 78 70 a2 3d be 3e 4b 3b 5b 0e 1b bd 0c 26 2e be
       0.07931608 0.003101274 -0.037855487 -0.17006701
000110 f3 58 9a bd b3 0b 92 3d 07 90 d8 3d c7 c3 63 bd
       -0.07536497 0.07131138 0.10574346 -0.05560663
000120 da 17 76 bd cb cc b8 3c 6f 88 6b bc d1 13 77 3b
       -0.06008134 0.02255859 -0.01437579 0.003770102
000130 26 51 91 bc f8 a9 7d 3d 86 bd 00 be 53 a8 1f bd
       -0.01773889 0.061929673 -0.12572297 -0.038978886
000140 82 ef 8a bd a6 89 fb 3d 45 5f c3 bd 37 5a b0 3c
       -0.06783964 0.12282114 -0.095396556 0.021527393
000150 00 49 41 bc 3c de e4 3d df fd 56 3d 71 87 64 3b
       -0.01179719 0.111752 0.052488204 0.0034870768
000160 58 d4 d6 3a 68 aa 25 3e 6f 8d 2b bd 8c 94 ce bd
       0.0016390188 0.16178286 -0.04188293 -0.10086927
000170 01 05 8c bd 9f cf 1a bb 18 98 13 3e 9e fb 47 be
       -0.06836892 -0.0023622287 0.14413488 -0.19529578
000180 e1 c5 12 bd ba ee 61 3d de a8 b4 3d 70 0f 86 3d
       -0.035833243 0.055159308 0.08821271 0.06545913
000190 c8 47 7f 3d 84 46 ba 3d d6 2f 15 3d 36 f2 8f bb
       0.062324315 0.09095481 0.036422573 -0.0043928875
0001a0 81 fc 4b 3c 1f 0b af 3d 6d 1d 5e bc 2f ea 62 bd
       0.012450338 0.08547043 -0.01355682 -0.055399116
0001b0 01 df d8 bd 4c 41 c6 3d 51 37 20 3e cb 47 be 3c
       -0.105894096 0.09680423 0.15646102 0.023227593
0001c0 0d e5 b2 3d d1 2c 26 bd 61 13 f7 bc 60 34 2d bd
       0.08735094 -0.040570084 -0.030160608 -0.042286277
0001d0 e6 2e d0 bd 3d 57 e5 3d 47 6e 27 be dc e4 8a 3d
       -0.10165195 0.1119828 -0.16350661 0.06781933
0001e0 28 41 34 3d 7c 7a df bb 86 89 f8 3d b9 c3 8c 3c
       0.04400745 -0.006820021 0.121356055 0.017183172
0001f0 9e dc fb bb 82 85 29 bc 38 30 03 3e a2 23 db bd
       -0.0076862117 -0.010346772 0.12811363 -0.10700156
000200 bf fe 3f bc 9c 57 3c 3e 27 2c 09 3c b7 a5 d0 3d
       -0.011718451 0.18392795 0.008372343 0.101878576
000210 4f 58 06 be a8 e5 cf 3d cb 4c 48 be a2 a0 20 be
       -0.13119625 0.10151225 -0.19560544 -0.15686277
000220 8e 24 97 bd a3 01 14 3e 95 ab 89 3e 7b bb 7f 3a
       -0.07380019 0.1445375 0.2688872 0.0009755415
000230 f7 36 68 3b 3b f2 83 be 66 ba 46 3d 2f 9a a2 be
       0.0035433152 -0.25770745 0.048517607 -0.31758258
000240 57 e6 8a 3d c1 64 20 3e c2 26 b0 3e 64 4e 23 be
       0.06782215 0.15663435 0.3440457 -0.15947872
000250 70 29 03 3e 27 95 7b 3e 9e 12 16 bd 25 d4 b3 bd
       0.12808776 0.24568616 -0.03663885 -0.08780698
000260 13 82 59 3e 4e 7a 26 be 25 5a 7c 3e 1b da 84 3d
       0.21241026 -0.16257593 0.24643762 0.06486913
000270 cb a8 30 bd e8 68 a0 3d 1d 67 09 bd c1 37 f9 3d
       -0.043129724 0.07832509 -0.033545602 0.12168837
000280 01 b3 05 3e 63 d9 39 be e1 33 24 bd 0d 21 33 3d
       0.13056566 -0.18149333 -0.040088538 0.04373269
000290 46 2c 3d be 8a b6 d7 bd 9b 32 35 bd a5 43 5b bc
       -0.1847392 -0.105328634 -0.044237714 -0.013382827
0002a0 03 36 d0 bd 14 87 4f 3c a3 84 66 be 85 7c 53 be
       -0.10166552 0.0126664825 -0.22511534 -0.20652969
0002b0 0c d1 6b 3c a9 94 a1 3c fc 4e 44 be 91 85 82 3d
       0.014393102 0.019724207 -0.19170755 0.06373132
0002c0 ed a9 1d be 33 ba a2 3d 51 b3 9e be 84 c2 ec 3d
       -0.15396853 0.07945671 -0.30996183 0.115605384
0002d0 4b c9 b1 3d 46 97 3f be 7a 5b 84 3d 38 c4 3e 3e
       0.08680972 -0.1871005 0.0646276 0.18629539
0002e0 c5 2d c2 3d 38 5c 09 be 4f b6 ed bd b4 b3 8b be
       0.09481386 -0.13414085 -0.11607038 -0.2728554
0002f0 15 1d cd 3c 04 76 05 be a2 cf 24 3d c4 35 2a 3c
       0.025038281 -0.130333 0.040237077 0.010388795
000300 f6 db 2a be 78 97 5c 3c f1 ee 71 be cb 7b 81 be
       -0.16685471 0.013463847 -0.23626305 -0.2528976
000310 e9 20 16 3d 94 22 3f be 47 fe fc bc 98 5a 6e 3d
       0.03665248 -0.18665534 -0.030882968 0.058191866
000320 e8 df 68 3e 0d 33 d1 bd 9c 10 20 bd 83 75 a0 3e
       0.22741663 -0.10214815 -0.03907834 0.31339654
000330 96 d1 01 3e a8 65 4f 3e 14 59 90 bc cb fb d6 3d
       0.12677607 0.20253623 -0.0176206 0.104972444
000340 50 ac 98 be 55 64 c4 bd 73 c7 b2 3d c3 86 47 3e
       -0.29818964 -0.09589449 0.08729448 0.19485001
000350 f5 d2 e6 bd e4 ea 5b 3e bc b9 7f 3e 55 f9 a8 3e
       -0.112707056 0.21476322 0.24973196 0.33002725
000360 6b b4 a0 bd a0 9e 13 3e 8f 99 37 3b d1 7d 93 be
       -0.07846912 0.1441598 0.0028015112 -0.28806928
000370 6e 66 1f be fb 32 e2 bd e0 58 fb bd f8 f1 95 3c
       -0.15566418 -0.1104488 -0.12272811 0.018303856
000380 af 60 93 3d f6 d4 04 be 69 ea 16 3e b6 de 7c 3a
       0.07196175 -0.12971863 0.14737858 0.00096462236
000390 a2 59 50 3d 14 a6 f3 3d e5 ed 3f 3d f8 08 73 3e
       0.05086673 0.11896911 0.046857733 0.2373389
0003a0 74 df 3c 3e c3 84 55 be 68 7b a2 bc b6 26 5c bd
       0.18444616 -0.20851426 -0.019834235 -0.053747855
0003b0 0f ba a1 bb e4 af fe bd 83 4a e8 3d 55 66 91 bd
       -0.00493551 -0.12435892 0.11342337 -0.070995964
0003c0 80 10 8b 3e 85 a8 ee bd bb ad 07 bd ec 18 e3 bd
       0.27161026 -0.11653236 -0.033124667 -0.11088738
0003d0 4f 52 a1 be 60 0b 7b 3e 70 f8 ad 3d 41 4e 5f 3d
       -0.3150811 0.24516058 0.08494651 0.054517988
0003e0 0b 2c 80 3e fb a5 34 be eb 09 68 3d 27 4e af 3d
       0.25033602 -0.17641442 0.056650084 0.08559828
0003f0 3e 83 99 3e 19 be 17 be cb 84 87 3d d1 73 58 3e
       0.29982942 -0.1481861 0.06617125 0.2113793

gru.bias_ih_l0 f4 [192]
000000 f2 fc 8f 3c 93 0f 12 3e a8 6a 55 3e 96 7f 77 3c
       0.017576668 0.14263754 0.20841467 0.015106102
000010 b8 9e 39 bd cb b3 fb 3d 8a d6 00 3e 1e 69 f9 3d
       -0.04531738 0.12290152 0.1258184 0.12178253
000020 73 05 ed 3c b6 ff 0e 3d 4a af d0 bd ce 56 aa 3c
       0.028933262 0.034911834 -0.10189684 0.020793345
000030 ba f7 bf 3d 23 6d 58 3d e1 87 b3 3d af c4 cf 3d
       0.09373422 0.052838456 0.08766151 0.10144936
000040 2f 5a 11 3e 17 8b 80 bd 00 f3 d9 bc f1 73 d0 3d
       0.14194559 -0.06276529 -0.02660513 0.10178364
000050 70 a8 5f bd 69 d1 f4 3d 61 73 84 3d 5b 7d 3a bc
       -0.054603994 0.11954004 0.06467319 -0.011382426
000060 59 56 65 bc 39 82 94 bd a9 82 10 be 6b 3c 2f 3e
       -0.013997638 -0.072514005 -0.14112343 0.17112891
000070 ea 8e f5 bc e8 ac 1c 3e a2 05 c5 3d 9a 2f 05 3e
       -0.029975373 0.15300333 0.09620215 0.1300644
000080 88 7b 69 3d 6c 43 14 3d 59 9c 81 3c 1e cb b4 bb
       0.057002574 0.03619711 0.015821623 -0.0055173775
000090 99 07 2c bd ee 38 b7 3d d0 ad 93 3d c0 d7 df bc
       -0.041999433 0.08946405 0.072108865 -0.027324557
0000a0 2b 18 28 3e ec f9 20 bd 98 36 9f bc e8 63 96 3d
       0.1641547 -0.039300844 -0.019435212 0.07343274
0000b0 76 7f a0 bd 9e 84 ea bd 3b 6c d0 bd e5 d7 b5 3d
       -0.07836811 -0.11451076 -0.10176893 0.08879069
0000c0 b9 30 71 3c d1 dc ff bd 14 c1 82 bb 84 31 1b 3a
       0.014721089 -0.12493289 -0.003990302 0.0005920159
0000d0 47 13 d2 3a 5c bf 0d 3d 48 b9 ce bd f3 6d 04 be
       0.0016027474 0.034606323 -0.10093933 -0.12932567
0000e0 f9 61 db bc a2 49 17 3e 09 fa b1 bd bf 4f e1 3d
       -0.026780115 0.14774182 -0.086902685 0.110015385
0000f0 70 70 13 3e 1d 26 a1 bb 41 9d 2e bd e1 a3 10 3e
       0.1439836 -0.0049178735 -0.042630438 0.14125015
000100 54 2d 0b 3d 66 03 40 3e b4 83 4d 3e 60 69 e8 3d
       0.033978775 0.18751296 0.20069772 0.11348224
000110 33 95 bf 3e 05 cb 66 3e ec fe fe 3c e9 43 bd 3c
       0.37418517 0.22538383 0.031127416 0.023103671
000120 f9 5a b8 3d 9e 43 30 3e a9 73 91 bd 29 95 b1 3d
       0.09001727 0.17213294 -0.071021385 0.08671028
000130 47 47 a0 3e a6 6c 3f 3d aa 6d 0d bd ab 81 78 3d
       0.3130438 0.046734475 -0.034528412 0.060670536
000140 6b cd 0d 3e dc 1c b1 bd 9d 24 f5 3c 84 10 ef 3d
       0.13847892 -0.086480826 0.029924685 0.11673072
000150 03 01 4c 3e 03 df 9a bc 63 2a 57 3e 3a 3f 14 3b
       0.19922261 -0.018905168 0.21012263 0.0022620694
000160 80 19 af 3d 57 2d 12 be 10 5c ae bd a8 35 86 3d
       0.085497856 -0.14275108 -0.08513653 0.06553203
000170 1f d3 05 3e 80 1e 78 bc 76 59 af 3d 07 2c a4 3e
       0.13068818 -0.0151439905 0.08561985 0.3206484
000180 f1 05 0c bd 5a 88 33 be 35 26 e5 3d 58 b8 5d 3d
       -0.034185354 -0.17532483 0.11188928 0.054130882
000190 2e e4 59 3d b0 72 3e 3d 24 b0 57 3d 99 73 8e 3e
       0.053196125 0.046496093 0.052658215 0.2782257
0001a0 e9 57 97 3d 27 e7 cf bd 1d 7b 50 be 55 f9 7d 3d
       0.073898144 -0.10151511 -0.20359464 0.06200536
0001b0 fe 99 7c bd 29 50 71 3e cd 4d 09 bc 33 8d 0a 3e
       -0.061670296 0.23565735 -0.008380366 0.13530426
0001c0 7e 2f d1 be e9 d5 27 be ec f9 1a 3e 36 72 87 3d
       -0.40856546 -0.16390194 0.151344 0.06613581
0001d0 06 64 a1 bd ac 19 14 3e 61 bc c4 be ba db 2a 3e
       -0.07880406 0.14462918 -0.38424972 0.16685382
0001e0 30 77 df 3d ab 72 13 3e 5c 2d 50 3d 1f a8 38 3e
       0.10911405 0.14399211 0.050824508 0.18032883
0001f0 05 30 2e be 33 d5 fb bc 53 dc 2d 3e 2b 0f 39 bd
       -0.17010505 -0.03074131 0.16978578 -0.04518048
000200 55 85 e0 3b 80 30 c2 bd d3 8d 24 3e b0 c3 f0 bd
       0.006851832 -0.09481907 0.16069727 -0.117560744
000210 dc 54 32 bd 43 4f 75 bd 69 90 74 3e 8e 4c 18 be
       -0.04353796 -0.059890043 0.23883213 -0.14872953
000220 2e ba 52 be 0b 61 bb bd dc d4 4f be b2 9d c0 bd
       -0.20578834 -0.09149369 -0.20296043 -0.09405078
000230 cf 5a 5a be 4f c9 1a bd 67 b6 13 be 78 2e 8f 3d
       -0.21323703 -0.03778964 -0.1442505 0.06991285
000240 b3 af 39 3e f8 ac 0d 3e ad 96 04 be 1e 7e 1a be
       0.1813343 0.13835514 -0.12948103 -0.15087172
000250 0a 6b 92 bd 7a 1b 40 be a8 f6 40 be 38 8d 4f be
       -0.07149322 -0.18760481 -0.18844092 -0.20268714
000260 3a 1f 4f bc 71 39 62 3e ce d3 80 3c 8c a5 f9 3d
       -0.012641722 0.22092225 0.015725996 0.12189779
000270 b0 ae 28 3d 3a 3a 76 3d 77 29 fc bd 98 05 b8 bc
       0.04118222 0.060114123 -0.12312596 -0.022463605
000280 51 c9 6c be d5 d0 87 3d 9b 94 d0 bd 9b 2a d1 3c
       -0.23123671 0.066316284 -0.10184594 0.025533011
000290 de 18 86 bd 52 d0 7d be 32 5a 31 be 58 0f 51 bd
       -0.06547712 -0.24786499 -0.17319563 -0.051040024
0002a0 5f 9d 2e 3d db 63 24 3e 3b 51 b1 bc 4d 43 9e bd
       0.04263055 0.16053717 -0.021645179 -0.0772768
0002b0 e0 76 b7 3d 58 5c c9 3d 00 40 2f bd 39 90 c0 bc
       0.089582205 0.09832066 -0.042785645 -0.02350627
0002c0 8f d5 33 be 1f ce 82 3e 20 a7 23 bd 6d 90 03 3e
       -0.17561935 0.25547883 -0.039954305 0.12848063
0002d0 e3 1b 24 3e 75 c2 ba bd 75 dd 1d be c0 f3 86 3c
       0.16026263 -0.09119121 -0.1541651 0.016473651
0002e0 9f 44 90 3b a6 c9 07 3e 51 29 cd 3c 49 c5 8f bd
       0.0044027115 0.13260517 0.025044115 -0.07020051
0002f0 33 1a 8c be d6 0b 16 3e 49 ca 7c 3d d3 28 a8 bd
       -0.27363738 0.14652953 0.06171635 -0.082109116

gru.bias_hh_l0 f4 [192]
000000 18 77 b6 bd 4b dc 36 bd 65 b3 ac 3d fe be a7 b9
       -0.08909434 -0.04464368 0.08432654 -0.00031995022
000010 97 a7 f8 bd 2e 88 34 3e 53 49 25 3e 66 60 c9 3d
       -0.1214134 0.17630073 0.16141252 0.0983284
000020 8e 97 e6 ba f1 c9 a5 bc 4f 31 63 bb f3 03 10 3e
       -0.0017592774 -0.020237895 -0.0034666841 0.14064007
000030 70 ff 14 bd c7 80 1d 3e f7 cb ac bd 52 0f 62 3e
       -0.036376417 0.15381156 -0.08437341 0.22076157
000040 99 99 43 3e 53 5a 84 3a ba 8c 08 be 54 68 14 bd
       0.19101562 0.001009772 -0.13334933 -0.036232308
000050 68 cb 16 3e d5 23 cf 3d 19 8d 8e bb bb 71 ff 3c
       0.14726031 0.10114256 -0.0043503162 0.03118216
000060 cf 9a b8 3d 49 86 6b bd a7 3b f8 3b 73 de 4a 3d
       0.090139024 -0.05750111 0.0075754705 0.04952855
000070 c4 0a 33 3e 49 a8 d7 3d e0 e7 e3 3c ff 2e 9b bc
       0.17484576 0.10530145 0.027820528 -0.018943308
000080 6a bc cc bc 0e 7d 05 bd 79 f0 e0 bd f8 4e 03 be
       -0.024992187 -0.032589965 -0.109833665 -0.12823093
000090 a1 16 24 be 97 bf 1b 3e 82 88 a5 3d e6 c8 3f 3d
       -0.16024257 0.15209804 0.080826774 0.04682245
0000a0 9d 11 d1 3d bb f9 ba 3d 0e 27 ed bd f2 8c 8c bd
       0.102084376 0.091296636 -0.11579715 -0.06862821
0000b0 46 86 47 3d 77 e2 15 bd ac ca d0 3d 64 1d 42 3e
       0.048712038 -0.036592927 0.101949066 0.18956524
0000c0 e0 ad b6 3d 6b 98 2b bd 8b a0 cd 3d 71 0d ec bc
       0.08919883 -0.041893404 0.10040387 -0.028815003
0000d0 7a 44 24 3e 49 4b 3c bd ca 46 7a bd c5 a2 3d be
       0.16041747 -0.045970235 -0.061102666 -0.18519123
0000e0 b4 8a 05 3e 3a 7b 92 3d 17 96 ee bd 8f ce 00 3d
       0.13041192 0.0715241 -0.11649721 0.03144699
0000f0 ff d8 85 3d eb af 9e bb 1d d5 1e 3e 46 c7 00 3d
       0.06535529 -0.0048427484 0.15510984 0.031440042
000100 ae bc 86 3d cb e0 2a 3e 5f 8d 9a 3d 13 a1 bb 39
       0.065789565 0.16687314 0.07546496 0.0003578743
000110 77 7d cd 3e c7 56 08 3d ac b8 64 bd 6f 71 a8 3d
       0.40134785 0.033285882 -0.05584018 0.08224761
000120 80 26 9f 3b 78 da 16 3e 7a a6 40 bd e8 96 8c bd
       0.0048568845 0.14731777 -0.047033764 -0.068647206
000130 07 77 ed 3d a5 6c 8c 3d 99 8a 1c be 54 a2 5d 3e
       0.11594968 0.0685666 -0.15287246 0.21643955
000140 cb 68 97 3e e8 c4 19 bd bb a3 85 bd 82 99 4b 3e
       0.29572138 -0.0375413 -0.0652537 0.19882777
000150 b6 10 68 3d 2b 1f 43 bd 4f b3 56 3e 6e a7 c7 bc
       0.05665656 -0.047637146 0.20966838 -0.024371829
000160 ff 44 7e 3d c7 9c 35 bd 5e fe 9a bd 18 98 8f bc
       0.06207752 -0.044338968 -0.07568048 -0.017528579
000170 29 0d ac 3d 91 32 f5 bb f3 49 11 3d 2c 4f 8a 3e
       0.084009476 -0.0074828346 0.035470914 0.27013528
000180 ce c3 e7 bc a1 45 12 be 6d 46 2f 3e 51 43 08 3d
       -0.02829161 -0.14284374 0.17116709 0.033267323
000190 b2 49 94 3d e8 ba f1 3a 1f 2b 67 3e 47 98 d4 3d
       0.07240619 0.0018442543 0.22575043 0.10380607
0001a0 fb 7c 07 3a 01 db 09 3b ab d0 15 be ec 4d 10 3e
       0.0005168465 0.0021035078 -0.14630382 0.14092225
0001b0 d2 8f cc 3c 0b 36 1d 3e cb 16 37 3d b4 52 23 3e
       0.024970923 0.15352647 0.04469947 0.15949517
0001c0 f1 a2 b3 be 0d 45 4f be bc 8f 9f 3d 25 5b 46 3e
       -0.35085252 -0.20241185 0.07791087 0.19370706
0001d0 58 30 14 bd 11 08 51 3e 0a 51 bc be 9b b3 81 3e
       -0.036178917 0.20413233 -0.36780578 0.2533234
0001e0 12 e1 d4 3d 13 fd 26 bd 90 1f 43 3e fc b0 71 3e
       0.10394491 -0.040768694 0.19055009 0.2360267
0001f0 52 88 79 3b 7e 24 d0 3c 14 24 05 3e f1 e9 e1 3c
       0.0038075638 0.025408026 0.13002044 0.027577372
000200 7c ac e3 bc 04 b7 b6 3a 62 ab cb 3d 36 27 b6 3d
       -0.027792208 0.0013940041 0.09944798 0.08894198
000210 2c a4 a3 3d 8b 2d 5c bd f4 07 61 3e 30 6b 05 bb
       0.07990298 -0.05375437 0.2197569 -0.0020358078
000220 a2 44 e4 bd 78 03 dd 3d df 57 cc bd 3d 7d 80 3d
       -0.11145903 0.10791677 -0.099776976 0.06273887
000230 93 69 54 bd 81 65 8e bd bf 95 3f be 0c eb 42 3c
       -0.051858496 -0.06952954 -0.18709467 0.01189686
000240 6f 29 22 3e 47 39 2b 3e 34 2a a4 3d cb df 9d bd
       0.15836118 0.16721068 0.08015862 -0.07708701
000250 fe aa e5 bd fe 10 5c be b6 3e 17 be f7 6a af bd
       -0.11214255 -0.21490857 -0.14770016 -0.08565324
000260 26 20 74 bd 95 1e 8c 3d 9d b4 d0 bd 77 ac ec 3d
       -0.05960097 0.068417706 -0.10190699 0.115563326
000270 b0 e6 30 bd f2 bb 00 be 72 31 32 bd 62 8c b4 3d
       -0.04318875 -0.12571695 -0.043504186 0.088158384
000280 dd ad 76 be dd 35 57 3e 15 a9 db bc b9 6c 4a 3c
       -0.24089761 0.21016641 -0.026814023 0.012355023
000290 25 e8 b9 3d 58 24 38 be e6 15 f5 bd 5b 3e ce ba
       0.09077481 -0.17982614 -0.119670674 -0.0015735136
0002a0 dd 02 9b 3d 40 3c 10 3d 68 ec e7 3d 33 42 95 bc
       0.075689055 0.03521371 0.11324388 -0.018220043
0002b0 28 c9 57 bd d5 2e 9b 3d b9 3d f9 3c e3 4f a5 3c
       -0.052682072 0.07577292 0.03042494 0.020179695
0002c0 8f 9c f0 bc c3 02 57 3e c2 c2 24 3d 66 c3 04 3e
       -0.029371528 0.20997147 0.040224798 0.12965164
0002d0 a6 98 e3 3d 0c d0 b7 3b bf 98 12 3e ca 43 97 bd
       0.111131 0.005609518 0.1431608 -0.073859766
0002e0 e9 78 1c be 74 86 75 3d 25 fb ee bd e5 09 b7 3d
       -0.15280499 0.059942678 -0.11668996 0.08937434
0002f0 84 34 0f be 43 29 b4 3d bc 4b 8c bd 47 4f 4f 3c
       -0.13984877 0.087969325 -0.06850383 0.012653179

gru_bn.weight f4 [49]
000000 00 00 80 3f 00 00 80 3f 00 00 80 3f 00 00 80 3f
       1.0 1.0 1.0 1.0
000010 00 00 80 3f 00 00 80 3f 00 00 80 3f 00 00 80 3f
       1.0 1.0 1.0 1.0
000020 00 00 80 3f 00 00 80 3f 00 00 80 3f 00 00 80 3f
       1.0 1.0 1.0 1.0
000030 00 00 80 3f 00 00 80 3f 00 00 80 3f 00 00 80 3f
       1.0 1.0 1.0 1.0
000040 00 00 80 3f 00 00 80 3f 00 00 80 3f 00 00 80 3f
       1.0 1.0 1.0 1.0
000050 00 00 80 3f 00 00 80 3f 00 00 80 3f 00 00 80 3f
       1.0 1.0 1.0 1.0
000060 00 00 80 3f 00 00 80 3f 00 00 80 3f 00 00 80 3f
       1.0 1.0 1.0 1.0
000070 00 00 80 3f 00 00 80 3f 00 00 80 3f 00 00 80 3f
       1.0 1.0 1.0 1.0
000080 00 00 80 3f 00 00 80 3f 00 00 80 3f 00 00 80 3f
       1.0 1.0 1.0 1.0
000090 00 00 80 3f 00 00 80 3f 00 00 80 3f 00 00 80 3f
       1.0 1.0 1.0 1.0
0000a0 00 00 80 3f 00 00 80 3f 00 00 80 3f 00 00 80 3f
       1.0 1.0 1.0 1.0
0000b0 00 00 80 3f 00 00 80 3f 00 00 80 3f 00 00 80 3f
       1.0 1.0 1.0 1.0
0000c0 a8 2b 2c 40
       2.6901646

gru_bn.bias f4 [49]
000000 00 00 00 00 00 00 00 00 00 00 00 00 00 00 00 00
       0.0 0.0 0.0 0.0
000010 00 00 00 00 00 00 00 00 00 00 00 00 00 00 00 00
       0.0 0.0 0.0 0.0
000020 00 00 00 00 00 00 00 00 00 00 00 00 00 00 00 00
       0.0 0.0 0.0 0.0
000030 00 00 00 00 00 00 00 00 00 00 00 00 00 00 00 00
       0.0 0.0 0.0 0.0
000040 00 00 00 00 00 00 00 00 00 00 00 00 00 00 00 00
       0.0 0.0 0.0 0.0
000050 00 00 00 00 00 00 00 00 00 00 00 00 00 00 00 00
       0.0 0.0 0.0 0.0
000060 00 00 00 00 00 00 00 00 00 00 00 00 00 00 00 00
       0.0 0.0 0.0 0.0
000070 00 00 00 00 00 00 00 00 00 00 00 00 00 00 00 00
       0.0 0.0 0.0 0.0
000080 00 00 00 00 00 00 00 00 00 00 00 00 00 00 00 00
       0.0 0.0 0.0 0.0
000090 00 00 00 00 00 00 00 00 00 00 00 00 00 00 00 00
       0.0 0.0 0.0 0.0
0000a0 00 00 00 00 00 00 00 00 00 00 00 00 00 00 00 00
       0.0 0.0 0.0 0.0
0000b0 00 00 00 00 00 00 00 00 00 00 00 00 00 00 00 00
       0.0 0.0 0.0 0.0
0000c0 eb 3d 67 bd
       -0.056455534

gru_bn.running_mean f4 [49]
000000 c5 1b ca 3c 41 24 ff 3c cf 19 2e 3d 8a e4 3a 3d
       0.024671445 0.031145217 0.04250508 0.045628108
000010 8c 52 54 3d 7d 97 57 3d 11 22 61 3d 48 53 5b 3d
       0.051836535 0.052634705 0.05496413 0.05354622
000020 31 14 5d 3d 3f d0 66 3d 5d de 63 3d f6 c7 5a 3d
       0.053974334 0.056350943 0.055631984 0.053413354
000030 fe 32 5d 3d 7c 53 56 3d a1 e2 50 3d dc 24 56 3d
       0.054003708 0.05232571 0.05099738 0.052281246
000040 3a 53 4f 3d c9 d1 53 3d 6e 23 4c 3d a5 10 4c 3d
       0.05061648 0.05171374 0.049838476 0.04982056
000050 57 06 58 3d 7f a0 4f 3d 53 b1 5a 3d be 32 66 3d
       0.05274042 0.05069017 0.053391766 0.056200735
000060 6c 78 63 3d d7 d6 78 3d 5e 50 5e 3d 0e b3 5d 3d
       0.055534765 0.060751762 0.054275863 0.054125838
000070 72 cd 68 3d 9b 5e 6f 3d 6a 4a 85 3d ae dd 80 3d
       0.056836553 0.058439832 0.06508334 0.06292282
000080 e2 87 81 3d f8 4c 8d 3d a2 8b 89 3d 5d a1 88 3d
       0.06324746 0.06899446 0.06716086 0.066714026
000090 c0 a7 89 3d 83 47 88 3d 68 92 8a 3d 27 05 8a 3d
       0.06721449 0.06654265 0.06766206 0.06739264
0000a0 cc 2b 89 3d 7d 7a 8c 3d a5 e9 8e 3d 43 a4 96 3d
       0.06697807 0.068593 0.06978158 0.07355549
0000b0 66 09 9a 3d bf a8 9d 3d c3 ed a3 3d 28 d5 a7 3d
       0.07521324 0.076982014 0.08004334 0.08194953
0000c0 a8 6c ac 3d
       0.08419162

gru_bn.running_var f4 [49]
000000 01 a0 90 3c 48 c5 1c 3d c7 d8 7f 3d 30 25 9c 3d
       0.01765442 0.03827408 0.062462594 0.076242805
000010 dd e4 a7 3d 1b 31 b5 3d 51 22 c5 3d 58 0c dd 3d
       0.08197949 0.08847257 0.09625686 0.1079337
000020 cb 59 f3 3d 70 8d 03 3e ec 8a 0d 3e e2 d4 14 3e
       0.11882361 0.12846923 0.13822526 0.14534333
000030 68 7e 1b 3e b2 a7 20 3e c5 5a 26 3e b4 6f 29 3e
       0.15184939 0.1568897 0.16245563 0.16546518
000040 0a c7 2c 3e 8f 4b 31 3e e4 55 33 3e a5 d9 35 3e
       0.16872802 0.1731398 0.17513233 0.17758806
000050 81 74 37 3e 26 25 38 3e 99 36 38 3e b6 24 37 3e
       0.17915536 0.17982921 0.17989577 0.17885098
000060 d2 c7 36 3e 9b ed 34 3e 16 34 32 3e 3b 6f 33 3e
       0.17849663 0.17668764 0.17402682 0.175229
000070 d8 d7 33 3e 2a c7 32 3e 79 fe 30 3e 23 97 38 3e
       0.17562807 0.17458788 0.17284574 0.18026404
000080 a1 72 41 3e 8b ba 49 3e 70 b5 4d 3e 81 65 50 3e
       0.18891384 0.19700067 0.20088744 0.2035122
000090 4b be 51 3e 96 ed 52 3e 3d 74 53 3e 73 c6 52 3e
       0.20482747 0.20598444 0.2064981 0.20583515
0000a0 9e c2 52 3e a9 a4 52 3e 85 18 52 3e c9 08 50 3e
       0.20582053 0.20570625 0.20517166 0.20315851
0000b0 7e c0 4d 3e 07 6e 4b 3e b8 fe 48 3e d8 56 47 3e
       0.20092961 0.19866191 0.19628417 0.19466722
0000c0 80 d0 45 3e
       0.19317818

fc.weight f4 [17, 64]
000000 6a 0a 45 3e 73 e2 b7 be f5 75 ea bc 6f 6d cc 3c
       0.19242254 -0.35914955 -0.0286207 0.024954526
000010 1e 70 be 3d 52 d5 fc bd aa d8 92 3d a4 b2 a7 3e
       0.092987284 -0.12345375 0.07170232 0.3275348
000020 fa 33 c5 bd 3e 13 c6 be f9 a1 63 be df 84 f3 bc
       -0.09629054 -0.38686556 -0.22229756 -0.029726444
000030 21 2d 9e 3d bd 1b 69 3e 80 39 a5 be 68 c8 16 3f
       0.077234514 0.22764488 -0.32270432 0.58899546
000040 c3 18 31 be 02 ec 47 bd c5 60 85 be 3e 26 aa bd
       -0.17294602 -0.04880906 -0.26050392 -0.08308075
000050 dc 96 17 be 75 56 45 be 34 95 21 3e 0f 0f f7 3d
       -0.14803642 -0.19271262 0.15779573 0.12063419
000060 ca 7f 9c be 2c dc 6f 3e 27 d5 94 be 89 97 1a 3d
       -0.30566245 0.23423833 -0.29068872 0.03774217
000070 5c 24 8e 3e c1 4b 50 bd cd 61 4c bd 82 dc 00 bf
       0.27762115 -0.050853495 -0.049897958 -0.5033647
000080 5d f6 ba be df 48 5d 3e bd 45 39 3e fa 45 ad 3d
       -0.36516085 0.2160983 0.1809301 0.084606126
000090 87 15 97 3e ad 2c 8d bb e2 01 60 3e f2 63 11 be
       0.29508612 -0.0043083043 0.21875718 -0.14198282
0000a0 6c 1c 84 3e 28 76 06 be 3e ed a3 3e cf be af 3e
       0.25802934 -0.1313101 0.3201694 0.34325263
0000b0 71 d0 82 bd 8b e1 33 3e c1 ad f7 3d 2b 08 23 be
       -0.06387413 0.17566507 0.12093688 -0.15921085
0000c0 de d9 82 3d c5 d1 c8 bd df b8 91 3e 49 d4 30 be
       0.06389211 -0.09805635 0.28461358 -0.1726848
0000d0 71 8a 64 3e a7 67 df 3c e3 1b 6f 3d 5b 41 08 be
       0.22318436 0.027271105 0.058376204 -0.13306181
0000e0 5e 68 5b be 7a 58 8d 3d 00 c7 c9 3e 0e 07 9c 3e
       -0.21426532 0.06901641 0.39409637 0.30474132
0000f0 31 c5 6f bd 84 dc 0d 3f 7b 39 54 3d a1 74 3e be
       -0.058537666 0.55414605 0.05181263 -0.18599178
000100 f1 8a 00 be 42 bf 87 bd dd 53 22 3c 11 60 8c 3e
       -0.12553002 -0.066282764 0.00990769 0.27417043
000110 4c 62 7f 3e 5a 32 69 be 2f dd 6e be 98 14 52 3e
       0.24939841 -0.22773114 -0.23326562 0.20515668
000120 bf 00 03 3e e4 a2 0b bb 93 05 a1 bb c3 6d 25 3e
       0.12793253 -0.0021306807 -0.0049139946 0.16155152
000130 9f d6 ce bd 06 d6 b8 bb 50 21 67 3c bd 67 21 3e
       -0.100995295 -0.005640748 0.014107063 0.1576223
000140 8c c4 98 bd eb 51 7d be fa 5e 0e be 4a 46 d4 3c
       -0.07459363 -0.2473828 -0.13903418 0.025912423
000150 01 42 4c be 43 99 ca bd 95 a8 91 3e 5b de a2 3d
       -0.19947053 -0.098925136 0.2844893 0.07952567
000160 3c fc ca be 7d df 87 bd 11 cf e3 bc ab 44 c2 be
       -0.39645565 -0.06634424 -0.027808698 -0.37943015
000170 f3 64 4f 3d 10 2d 9e bd e0 d0 a6 be 80 9a e2 3c
       0.050633382 -0.07723439 -0.32581234 0.027661562
000180 d7 47 c0 bd f1 fd 02 bb 11 c3 62 3d 9d 82 2a 3e
       -0.09388702 -0.0019987787 0.05536181 0.16651388
000190 ea b3 09 bb 2c bd 98 3e e5 e9 92 3e 39 57 b6 bb
       -0.0021011778 0.29831827 0.28694072 -0.005564597
0001a0 ec 5d f0 3e 21 a0 80 bc 7f 19 60 bd 01 f1 02 be
       0.46946657 -0.015701355 -0.054711815 -0.12787248
0001b0 94 8b 7e 3e 5b e4 06 bd 98 e5 10 3e b7 4b 83 be
       0.24857932 -0.03293262 0.14150083 -0.25643703
0001c0 d1 53 05 3e 78 e2 e8 be d2 ef b8 bc 1e 12 8c be
       0.13020255 -0.45485282 -0.022575293 -0.27357572
0001d0 01 54 07 3c a1 55 a4 3e 05 19 9d 3e e1 db 21 3d
       0.008259774 0.3209658 0.3068315 0.039516333
0001e0 f4 8f 74 bd 52 7b f5 bc 34 cc 86 3e 70 b0 95 3d
       -0.059707597 -0.02996603 0.2632767 0.073090434
0001f0 04 34 df 3e 89 80 36 3e 7d e9 a9 be 7f 1b 84 3e
       0.43594372 0.1782247 -0.3318595 0.25802228
000200 1e aa 37 bd 0c 0f 35 3e 35 ee 3b 3e f1 1d 47 3e
       -0.04483997 0.17681521 0.18352588 0.19445015
000210 b3 81 a5 be 00 1f e6 bd 44 24 9e be 52 f5 29 be
       -0.32325515 -0.112363815 -0.30887043 -0.16597489
000220 4b da 48 be ed 84 3c 3d d0 25 77 3e 42 cb 90 be
       -0.19614522 0.046025205 0.24135518 -0.28280073
000230 20 c3 92 3e 1d a5 57 bd 81 fc 31 be 47 ba 57 bd
       0.28664494 -0.0526477 -0.17381479 -0.052667882
000240 e8 34 4d 3e ee 52 e2 3d 48 2a f0 3c ae 1a 3c be
       0.20039713 0.11050974 0.029317036 -0.18369552
000250 ca 2f fb 3d 9c 9a ff 3d 33 8b f6 bd e9 0a 3b 3d
       0.122649744 0.12480661 -0.12038269 0.0456647
000260 f6 54 20 3e 49 47 9f bd 6a c6 5c 3e 87 8a 8c 3e
       0.1565741 -0.077772684 0.21560064 0.27449438
000270 8f f5 cc bd 16 bf 7a 3e 12 13 b0 3e 4e 66 e0 3d
       -0.10007774 0.24486956 0.3438955 0.10957013
000280 bf 92 a6 3d 26 58 60 3c 20 d4 ce 3c 8e 57 b4 3d
       0.08133458 0.013692891 0.025247633 0.08805762
000290 c7 0e 20 be 93 a2 08 bc 18 32 d6 bd 87 45 6a be
       -0.15630637 -0.008339542 -0.104587734 -0.22878085
0002a0 df 30 da 3d f8 a2 41 3e 8d e1 a2 be 87 da 45 bd
       0.10653853 0.18909824 -0.31812707 -0.048304107
0002b0 67 2a b1 bd f2 37 a9 3d a2 83 0f 3e 86 1f 8c 3e
       -0.08650666 0.08262624 0.14015058 0.273678
0002c0 1d 17 23 3e 48 d9 0e 3e c4 7a 21 be 82 93 26 3e
       0.15926786 0.13950074 -0.15769488 0.16267207
0002d0 c8 4e ee 3d 91 b8 10 3e 9c 1e 83 bd bd c1 1c 3e
       0.1163612 0.14132906 -0.06402323 0.1530828
0002e0 6d 0e c6 3e 54 2a 41 3e a4 ba ae bd 3f 81 91 bd
       0.3868288 0.18863803 -0.085316926 -0.0710473
0002f0 ff b7 b0 3e e2 c4 cb bc e3 dc 44 3d fd ec 0b 3e
       0.34515378 -0.024874154 0.048062216 0.13664623
000300 86 e6 1c be e1 d4 1f 3c ff e7 98 3d 96 1c 18 bd
       -0.15322313 0.009755344 0.07466125 -0.037136637
000310 40 bd 32 be c3 b5 9d 3e 01 e2 fc 3d 72 f5 92 3d
       -0.17455006 0.30802736 0.12347794 0.07175721
000320 ac 0d ee 3c e7 92 d4 3c 5c 35 7d 3e a6 40 ca bd
       0.029059254 0.025948955 0.24727386 -0.09875612
000330 34 f7 05 be e7 18 8e bd 7b b0 e2 3d 68 66 d8 bc
       -0.13082582 -0.069383435 0.11068817 -0.026416019
000340 78 32 37 3e aa 9e 78 be 87 45 7b 3e b2 3b a2 bd
       0.17890346 -0.24279276 0.24538241 -0.07921542
000350 a0 de 82 3e 61 ae 90 3d 06 a9 4b bd 90 d1 9e bd
       0.25560474 0.0706451 -0.04972174 -0.077548146
000360 bd 9e 99 3d 3e 0f ab bd e3 ea 1f 3e 41 db 6a 3e
       0.0750098 -0.083525166 0.15616946 0.22935201
000370 7e a5 90 3e fe f6 0d 3e 75 ca 23 be 2c 3c 83 bc
       0.2825126 0.13863751 -0.159952 -0.016019903
000380 d6 05 48 3d 6a 1c 4b 3d 5a 3b 8b be 07 fb c0 be
       0.04883369 0.049587645 -0.2719372 -0.3769152
000390 f1 f1 a4 bd da 24 5c bc 62 6b 3a be 43 a4 8d bc
       -0.08053959 -0.0134365205 -0.18205026 -0.01729024
0003a0 63 f8 1d be 3f 72 0c 3e c9 a3 05 3e 52 87 6b 3d
       -0.15426783 0.13715456 0.1305076 0.0575021
0003b0 de 0b 94 3e 69 ca 9f 3e 08 b8 d5 bd 8f 67 53 3e
       0.28915304 0.31209114 -0.10435492 0.20644973
0003c0 c9 00 73 be eb e8 7f 3e e4 c2 1e 3d 65 03 bc 3c
       -0.23730768 0.24991195 0.03876008 0.022950837
0003d0 d1 ad 80 3e d6 96 90 bb c7 96 38 be 5c 70 83 be
       0.2513261 -0.0044125123 -0.18026267 -0.2567166
0003e0 32 45 88 bd 6b a2 ba 3d 97 2c f2 bd 59 ec 92 3d
       -0.06653823 0.0911301 -0.11824911 0.07173986
0003f0 28 e7 91 be f6 09 fa bd 56 e7 a7 bd f1 5f 18 bc
       -0.2849667 -0.12208931 -0.08198421 -0.009300218

fc.bias f4 [17]
000000 e7 8a 89 be 28 21 10 be 4f d6 7d 3d 6e 0e c9 3c
       -0.26863787 -0.14075148 0.06197196 0.024543013
000010 63 2e 2d bd 76 0b e7 3d 7b 9a 5f bc 29 5b 4a bd
       -0.042280566 0.11281483 -0.013647671 -0.049403343
000020 6a a7 31 be 04 5b 5f bd 37 db 44 3e 95 2b 9d bc
       -0.1734902 -0.05453016 0.19224249 -0.01918582
000030 17 73 0a bc ed 1e b8 bc d0 c8 bc 3d ba cb d0 bd
       -0.008450291 -0.022475684 0.092179894 -0.10195108
000040 37 e9 ad 3d
       0.08491748
