checkpoints/hamida_et_al/no_class_balancing/Salinas_PCA_30/epoch1_0.61.pth (torch, 212980 bytes, 14 tensors)

conv1.weight f4 [20, 1, 3, 3, 3]
000000 23 76 f4 be aa 7a d0 3e 96 ad 2e be 78 d7 b7 bd
       -0.4774638 0.40718585 -0.17058405 -0.08976644
000010 ab a1 a1 3e cc d2 6e be e9 93 b0 be 69 87 80 3d
       0.31568655 -0.233226 -0.34487846 0.062758274
000020 96 27 d3 bd bd 34 88 be 58 ca af be b2 50 16 bf
       -0.10310285 -0.26602736 -0.34334064 -0.5871688
000030 bd 0a 8b be a5 8f 8f 3e 35 3c a5 3c ae 0b a1 3e
       -0.2715663 0.2803928 0.02017031 0.31454223
000040 a2 d4 89 be 55 fb 92 bd 3f 80 53 be e6 00 20 be
       -0.26920038 -0.07176844 -0.20654391 -0.15625343
000050 4e 6c 87 3c 28 31 1a be a0 86 53 3e e4 da 08 3e
       0.016531136 -0.15057814 0.20656824 0.1336475
000060 7d bd 07 3e 65 a1 d3 3e 0a b7 9f 3e 88 5c 39 3e
       0.13255878 0.41334072 0.31194335 0.18101704
000070 fc fe fc 3e e3 88 78 3d b7 2e aa be 44 9f 63 3e
       0.49413288 0.06067742 -0.33238766 0.22228724
000080 8c 67 05 3f c8 9b 13 3f 71 68 da 3e 9d 4d 38 3f
       0.52111125 0.5765958 0.42657807 0.7199343
000090 23 ca ad 3e 4f 1c e7 3d 01 aa 87 be 0e 6f d6 be
       0.3394328 0.11284696 -0.2649689 -0.41881603
0000a0 eb e1 49 3e fe a3 3f bc 00 27 68 3e 13 db 74 3e
       0.19715087 -0.011696814 0.22671127 0.23911695
0000b0 23 d0 5d 3e 8f e5 9b 3e 65 04 84 be 8c cf ea be
       0.21661429 0.30448577 -0.25784603 -0.4586147
0000c0 f4 de 1d be 12 c5 0d bf 15 7c b3 3e df 5e c8 be
       -0.15417081 -0.5537883 0.35055605 -0.3913488
0000d0 8f 98 44 3e ff b9 3f bd 03 9e 2b 3d 7d 1b 66 be
       0.19198821 -0.04680824 0.04189874 -0.22471423
0000e0 f1 5e 73 be 73 19 53 3e c0 8a fa 3b 55 ad be 3e
       -0.23766686 0.20615177 0.007645935 0.37241617
0000f0 ce 69 07 3e 0c ad 30 be b4 57 e2 3c 70 6d 5b 3e
       0.13223955 -0.17253512 0.02762971 0.21428466
000100 5f 9f 99 bb c3 d6 97 3c 63 97 43 be c0 f0 51 3d
       -0.004688188 0.018535024 -0.19100718 0.051254988
000110 64 00 0f bd 2a 37 ef 3e c1 79 7e be 53 13 96 3e
       -0.034912482 0.46721774 -0.24851133 0.29311618
000120 cb 68 bc 3e e6 65 73 bd 20 10 94 3e 7b 03 43 3e
       0.367987 -0.05942335 0.28918552 0.19044296
000130 4d f3 f8 be a4 96 93 bd 4d a5 4b 3e f8 11 9e bc
       -0.48623124 -0.07206467 0.19887276 -0.019295678
000140 15 dd 4f 3f 84 06 62 bd d1 4d 73 3d 33 d9 a1 be
       0.8119672 -0.055181995 0.059400383 -0.31611022
000150 2e 90 06 be 12 30 10 be ed 4e 1f be d6 63 ab bc
       -0.13140938 -0.14080837 -0.15557452 -0.020921629
000160 e7 9b 5c 3e 74 a6 bc 3d be 44 38 3e f4 d6 dd 3e
       0.21543847 0.09211436 0.17994973 0.4332806
000170 81 cb d6 bd 20 61 62 be 9e 2f ba be 1d 7b 24 3e
       -0.10488034 -0.22107363 -0.36364454 0.16062589
000180 e7 23 c6 3e 1b c3 b2 be 53 83 39 3e 31 7a 92 bd
       0.38699266 -0.3491448 0.18116502 -0.071522124
000190 0d 0b 8c 3e 7f 90 01 3d e9 bf 98 bd 18 66 d4 be
       0.2735218 0.031631943 -0.07458479 -0.4148414
0001a0 b2 fc 09 3f 1f 25 4f be 68 3a 6a 3e 28 c9 ef be
       0.5390121 -0.20229004 0.22873843 -0.46833158
0001b0 e0 ca 46 be 1d 53 c7 3d 7a 9d b8 be ca 99 46 3e
       -0.19413328 0.097326495 -0.36057645 0.19394603
0001c0 2f 74 9e be 47 c8 ba be d1 fe aa 3e 77 93 94 3c
       -0.30948016 -0.36480924 0.33397534 0.018136723
0001d0 86 b1 1a bf 1e 79 79 be 0a c3 23 bd af d2 2e be
       -0.6042713 -0.24362609 -0.039980926 -0.17072557
0001e0 cb 2c 52 3e 7c d8 74 be 84 d5 5c 3e 35 ea 0a bf
       0.205249 -0.23910707 0.21565825 -0.5426362
0001f0 e8 43 39 3e 9a f2 28 be d8 66 c2 bd c3 f8 c8 3c
       0.1809231 -0.16498795 -0.09492272 0.024532681
000200 e8 de 92 be ee 8b 3e bf 67 43 04 3d 70 6f 24 be
       -0.2868569 -0.74432266 0.032290842 -0.16058135
000210 d5 4e aa bd f1 fe 71 3e 04 63 55 be 0e fb 97 bd
       -0.08315817 0.23632409 -0.20838553 -0.07420932
000220 86 b6 ae be 40 e7 3c 3e 29 00 bd 3e 7c 20 3f 3d
       -0.3412363 0.1844759 0.36914185 0.04666184
000230 d2 47 77 3e 06 ef 0a 3e f3 ad 35 bd 6f 5b 07 3f
       0.24148491 0.13567743 -0.044355344 0.5287389
000240 45 af 2a be 8f d2 4d 3c 40 73 8d bd 50 6f d4 bd
       -0.16668423 0.012562408 -0.06906748 -0.10372794
000250 85 76 82 be f5 18 b2 3e 17 d1 cf 3d 6b 61 27 be
       -0.25481048 0.34784666 0.101473026 -0.16345756
000260 de d2 1a 3e 1b 7c 07 3e c4 49 07 bf 63 df 3f be
       0.15119502 0.13230936 -0.5284693 -0.18737559
000270 61 95 85 be c0 35 68 bd e5 31 5d 3e d5 9b 05 3d
       -0.2609053 -0.056691885 0.21601065 0.032619316
000280 c5 55 2e 3e 78 d7 85 3e 1d 23 37 3e f1 52 41 be
       0.17024906 0.26140952 0.17884488 -0.18879296
000290 1b 21 fe bd 81 a1 bf 3d 16 96 ab 3e d7 29 9d bd
       -0.12408658 0.09356976 0.33512944 -0.07673996
0002a0 0b 86 ab 3e d3 aa 46 3f b1 24 32 be 6d 5f 70 3d
       0.33500704 0.7760441 -0.17396809 0.058684755
0002b0 86 bf 96 be 6f aa 50 3e 5a e7 35 3e a6 3d 99 bd
       -0.29442996 0.20377515 0.17764035 -0.07482462
0002c0 11 b4 1b be 46 42 39 be a1 0b 7c be 0c bf d4 3d
       -0.15205409 -0.18091688 -0.24613811 0.10388002
0002d0 35 cb fb 3c eb 76 01 3e 03 46 7e 3e 60 45 75 bd
       0.030736545 0.1264302 0.24831395 -0.059880614
0002e0 0b 93 43 be 5d 05 2e 3e 1d 46 e6 3e ed 88 9d 3e
       -0.19099061 0.16994233 0.44975367 0.3076853
0002f0 4c a4 f3 3d 97 bc 88 be 3c 36 9d be 20 4e 83 3c
       0.118965715 -0.26706383 -0.3070544 0.016028464
000300 ce 8a b9 be 09 d6 07 be 53 98 dd 3e 72 19 98 3c
       -0.36238712 -0.13265242 0.43280277 0.01856682
000310 db f3 23 3e b9 e4 8f be 07 0c 79 3e 1c 46 28 be
       0.16010992 -0.2810419 0.24320994 -0.16432995
000320 61 e3 1a 3e 39 12 ac be 13 a6 91 3d 7e aa ac be
       0.151258 -0.33607653 0.07111754 -0.33723825
000330 36 2b 93 bd 5e 81 c5 be 0f c4 bb bc 03 ec 7c 3e
       -0.07185976 -0.38575262 -0.022920636 0.24699406
000340 d8 ab 86 3d af 03 dc 3e ea 53 a8 be 24 70 c3 be
       0.06575745 0.4297156 -0.3287652 -0.38171494
000350 f9 99 22 be 9d b6 21 3e ee 1b fe 3d e4 93 8e be
       -0.15879048 0.15792318 0.12407671 -0.27847207
000360 7e 5b 07 3f db 6c 99 3d 74 9c 39 3e bf 2d 8a 3e
       0.5287398 0.07491466 0.18126088 0.26988026
000370 82 b8 00 be 9a 19 97 3e 6f a1 f8 be 1a 72 41 3d
       -0.12570384 0.2951172 -0.48560664 0.047227956
000380 b4 51 36 3e 81 3c cb be 11 e2 ab 3e d4 76 ae 3e
       0.17804605 -0.39694598 0.33570912 0.34075034
000390 1b db 84 3d 53 a3 37 3e f1 3e 38 be 94 8c 0e 3e
       0.064871036 0.17933397 -0.1799276 0.13920814
0003a0 9e 1b 1a 3f ec 1c 0c be fe 68 fe bd 83 29 b5 3e
       0.6019839 -0.13682908 -0.124223694 0.35383233
0003b0 0e 72 8b be 28 b9 69 3e 4e 18 a8 3d df 2f 17 bf
       -0.27235454 0.22824538 0.08207761 -0.5905742
0003c0 2f 8c e2 3e 11 3f 00 bc 3a bc fa be ff 2d e4 3e
       0.44247577 -0.007827536 -0.4897173 0.44566342
0003d0 b4 90 66 3e 8a 7a 74 3d 6e 72 30 3f 24 5b 0b 3e
       0.22516137 0.059687175 0.68924606 0.13608986
0003e0 04 4a 8a 3e 5f c4 ef 3b 43 41 a4 3e c0 f9 10 be
       0.27009594 0.0073171104 0.3208104 -0.14157772
0003f0 23 27 7f bd 95 38 be be 2e 10 19 3e 2e 83 a2 be
       -0.062293183 -0.37152544 0.14947578 -0.31740707

conv1.bias f4 [20]
000000 1e 62 2b b7 0e d3 a3 bd 89 97 63 3c 91 cc ba b9
       -1.0215239e-05 -0.0799924 0.013891109 -0.00035629098
000010 00 00 00 00 85 e8 5c bc 32 49 89 bb 00 00 00 00
       0.0 -0.013483171 -0.0041896338 0.0
000020 dd 26 21 3d 08 b5 18 bd c9 f2 aa bc 00 00 00 00
       0.039343704 -0.03728202 -0.020867722 0.0
000030 00 00 00 00 30 13 7d bc 65 1f 1c 3d c9 48 4c bd
       0.0 -0.015446469 0.038115878 -0.0498741
000040 05 7c a4 3c 3a f8 7e bd 26 fa b3 3c 00 00 00 00
       0.020078668 -0.062248446 0.021969866 0.0

pool1.weight f4 [20, 20, 3, 1, 1]
000000 ac 7b c7 bc 32 d8 ae 3c 9a cb 49 3e 4f 91 da bd
       -0.024350964 0.021343324 0.19706574 -0.10672247
000010 df 86 d7 3e f0 cd 19 3e 7e 52 71 3e 86 ee 51 3e
       0.42095086 0.15019965 0.23566625 0.20501146
000020 88 e8 b8 bd 5c b6 da 3d b7 24 e1 bd ef 76 e4 3d
       -0.09028727 0.106793135 -0.10993331 0.11155497
000030 40 87 f6 3d 16 17 5a be f6 68 7e 3d 04 74 2d 3e
       0.12037516 -0.21297869 0.062111817 0.16938788
000040 f1 a0 4a 3d f3 b2 16 3d 5e a0 b7 be 7a 05 6f 3e
       0.049469892 0.036791753 -0.35864538 0.23341933
000050 a2 d6 5e 3d 59 c7 ee 3d a3 21 7a 3d 1a 93 6a 3e
       0.05440391 0.11659116 0.061067235 0.22907677
000060 b8 fa 99 be f2 42 9a 3e 28 b9 61 be 1c 4f 1f be
       -0.30074096 0.301292 -0.22043288 -0.15557522
000070 3a c0 3b 3e 37 3e 00 be a8 8d 02 3e af fa b8 bd
       0.18335047 -0.12523733 0.1274935 -0.09032189
000080 21 ef e8 bd ed f0 21 be 64 55 e3 be a3 9e 05 3e
       -0.11373735 -0.15814562 -0.44401085 0.13048796
000090 39 3e 57 bd de bc 71 bd 0f 1e ca 3e 1b de 77 3d
       -0.052549575 -0.05901801 0.39476058 0.06051455
0000a0 72 d5 e9 3e 4c 10 41 3c 99 f8 02 be 6c 0c 04 3f
       0.45670658 0.011783671 -0.12790145 0.51581454
0000b0 c9 de 69 be f8 cb d3 be 82 1f 77 be a6 5b ad 3e
       -0.22838892 -0.41366553 -0.24133113 0.33858985
0000c0 55 9a 3c 3d 11 e4 40 3e d5 2f e2 3d 71 c9 9e 3d
       0.04604562 0.18837 0.110442795 0.07753266
0000d0 50 56 7c 3d d5 7e 94 3e 02 1a c2 bc 4f e0 df 3d
       0.06160575 0.29003015 -0.023694042 0.10931455
0000e0 44 81 73 be fe fa 8d be 79 8e 4e be 8e d6 98 3c
       -0.2377978 -0.27730554 -0.20171537 0.018656995
0000f0 79 60 39 bd b1 9f 99 bd fd 27 46 3e a3 8b 45 3e
       -0.04525802 -0.07501162 0.19351192 0.19291548
000100 9f d7 9b be eb b8 77 be bb 35 e9 bd 24 1e 85 3c
       -0.30437943 -0.24191634 -0.113872014 0.016249724
000110 7b 9c c6 3d 10 2b 8d 3d ec 53 3c bd 65 62 66 bc
       0.09697815 0.06892979 -0.04597847 -0.014061545
000120 8e a2 a1 be 25 86 2d be 8b 70 51 bd 71 1e 05 be
       -0.31569332 -0.16945703 -0.05113272 -0.12999894
000130 6e 1a 3c be 71 67 3e be 03 b7 30 3b 79 77 01 be
       -0.18369457 -0.18594147 0.0026964552 -0.12643231
000140 7d 87 b4 be e0 29 02 be ff 82 82 3e 0e 60 55 3e
       -0.3525962 -0.12711287 0.25490567 0.20837423
000150 5a 50 63 be 5c ec 63 3e 9f b9 1c 3e 10 3b 50 3e
       -0.2219862 0.22258133 0.15305184 0.2033503
000160 55 d9 b5 bd b9 9a 74 bc 9b 17 e3 3c 6d e6 89 bd
       -0.088793434 -0.014929467 0.027721217 -0.06733403
000170 7b a7 80 bc c2 fa d6 be a4 a4 42 bd d3 df 09 be
       -0.01570486 -0.41988188 -0.047520295 -0.13464288
000180 94 33 55 bd af cd 1d be a2 10 18 3e 7d 5a 11 3e
       -0.05205114 -0.15410493 0.14850095 0.14194675
000190 1a e7 bc bc 3d 83 32 3e 3f 14 1a be d9 ba b0 bd
       -0.023059417 0.17432876 -0.15046786 -0.08629388
0001a0 82 92 a3 3e 23 7b ee bd d1 09 48 3e c3 c3 b7 bd
       0.31947714 -0.1164458 0.19534995 -0.089728855
0001b0 0f f5 dc 3d cb cf 0a bd 86 48 5a 3e 42 0e 98 3d
       0.10788929 -0.033889573 0.21316728 0.074245945
0001c0 af 2e 83 be 7d 01 f2 bd 5f 61 2f 3e 7d 39 82 bc
       -0.25621554 -0.1181669 0.17126988 -0.015896553
0001d0 19 92 30 3d a5 b3 63 be f0 a6 34 bd 0c a0 ac bd
       0.04310808 -0.22236498 -0.044104517 -0.08428964
0001e0 b1 0c b6 bd ad 20 16 be c6 90 e2 be 51 1d 12 bd
       -0.088891394 -0.14660902 -0.44251078 -0.03567249
0001f0 28 1f 28 3f 67 d3 02 bd 97 b0 2e 3e 74 08 5d be
       0.6567254 -0.03193989 0.17059551 -0.21585256
000200 f3 e0 62 bd 9f 83 69 bd 4f 0a 8b be fd ea ba bd
       -0.05539031 -0.05701029 -0.27156302 -0.09126852
000210 a2 bf 02 be 7b 94 0c bd f2 c5 ab be 41 ac af 3e
       -0.12768415 -0.03432129 -0.33549458 0.34311107
000220 41 e5 d9 bc a5 2d 0d 3e 77 48 00 3f 0a 81 ab 3e
       -0.026598575 0.13786943 0.5011057 0.33496886
000230 cc 32 b5 bd 5d ca 37 be 93 64 cf 3b aa 56 a1 bd
       -0.08847579 -0.17948289 0.006329128 -0.07877858
000240 26 dc 2a 3d 9a d3 bf 3e 29 4e bc be 72 aa 5a 3d
       0.041713856 0.37466127 -0.3677838 0.053385206
000250 59 05 75 3d 5f dd 86 bd 77 f6 9f 3e 22 13 3a be
       0.059819553 -0.06585192 0.31242725 -0.18171361
000260 6c dc 7d 3e 2f 8a 50 3e a4 c6 f5 bd 69 88 3e bc
       0.24791116 0.20365213 -0.12000778 -0.011629202
000270 9d c5 01 3d 0b 45 26 be f0 2c 05 3c 29 ee 34 be
       0.0316826 -0.16237275 0.00812839 -0.17668976
000280 69 42 fc 3d cb f7 bf bc 9a 72 85 3e 25 65 8d 3d
       0.12317354 -0.023433587 0.26063997 0.069040574
000290 de b5 b9 bd 71 db da be 74 1a 07 3e d1 17 70 be
       -0.090678915 -0.42745546 0.13193685 -0.23446585
0002a0 a1 f4 e4 3d 60 05 06 3e 44 cf 8d 3d 5d f8 08 3e
       0.11179472 0.13087988 0.069242984 0.13375993
0002b0 3d 2d 11 3e fe 15 da 3b d5 21 a9 3d ac f5 76 3e
       0.14177413 0.0066554537 0.08258406 0.24117154
0002c0 19 dc 63 be 0f 26 aa be 2c 8a 2c 3e 1a 95 b0 bd
       -0.2225193 -0.3323216 0.16849583 -0.08622189
0002d0 60 47 46 3d fd 18 3e 3c e4 33 be 3e 89 ec 9e be
       0.048407912 0.011602637 0.37148964 -0.31039837
0002e0 9c 4d 85 3e f5 b5 c1 3b 8d 54 6d 3d 97 03 99 be
       0.26035774 0.0059115835 0.057941962 -0.2988555
0002f0 1c 4f c4 3b 03 e3 7a 3d e2 35 19 be 4e a5 61 be
       0.005990876 0.06125165 -0.14961961 -0.22035715
000300 d9 a0 2f 3e 14 2f 62 3e d5 f2 97 be 38 5e 86 bd
       0.17151202 0.22088271 -0.29677454 -0.065609396
000310 16 c1 35 be 9a 7e a5 3e db 89 3f 3e 43 a7 d4 3c
       -0.17749438 0.32323152 0.18704931 0.025958663
000320 c1 57 0f bc 9d 24 e0 bc 5e 19 8f 3e b3 b7 fe 3d
       -0.0087489495 -0.027361209 0.2794904 0.124373816
000330 02 17 8e 3e bb 1c 02 3e 0d b6 7e bd e8 66 9c 3e
       0.2775193 0.12706272 -0.062185336 0.3054726
000340 95 39 c3 bd f2 61 e1 bb 85 75 a0 bd c9 78 f9 3d
       -0.09532467 -0.006878131 -0.07834915 0.12181241
000350 2e a0 03 3e 01 d6 15 3e 30 b7 5e 3d 21 91 91 bd
       0.12854072 0.14632417 0.05437392 -0.07107759
000360 a5 ad 1b be f2 f3 47 3d 83 b1 ca 3e 26 c9 4e 3e
       -0.15202959 0.04881663 0.39588556 0.2019392
000370 aa e4 40 be 44 13 d4 3d b9 31 b6 3c 58 dd fb 3c
       -0.18837228 0.10355237 0.022240506 0.030745193
000380 ad f0 af 3c 27 c2 0b be 57 86 90 be fd 3f 99 3e
       0.021477068 -0.13648282 -0.28227493 0.29931632
000390 3a 63 9c 3c 46 18 66 be e1 d1 49 bd 64 b9 a8 bd
       0.019090284 -0.22470197 -0.04927242 -0.082384855
0003a0 8f 84 1d be 10 5b 48 3e ec 3d c2 bd 3b e7 31 be
       -0.15382598 0.19565988 -0.09484467 -0.17373364
0003b0 88 ea 71 ba 3f e9 91 bd e8 cf 12 be dd 35 7d 3e
       -0.0009228368 -0.07124566 -0.14337122 0.24727578
0003c0 87 fe 1e be 7c fb 94 3c 03 b1 a6 3c ec 77 2e 3e
       -0.15526782 0.018186323 0.020348078 0.17037934
0003d0 fd 0f e5 bd 3c af 00 be 86 a5 03 3e 38 07 c4 3e
       -0.1118469 -0.12566847 0.12856111 0.38286757
0003e0 b5 f8 96 3e 91 28 7c bd e6 04 b6 bd 50 53 17 3e
       0.29486623 -0.061562125 -0.08887653 0.14777875
0003f0 3b 76 8f 3c 6f 02 e7 3d 3f d8 ac 3e f7 41 c1 be
       0.017512431 0.11279761 0.33758733 -0.3774564

pool1.bias f4 [20]
000000 0e e0 04 bd e5 d3 f8 3c d5 b4 00 bd ad 49 c2 bc
       -0.032440238 0.030374477 -0.031422455 -0.023716772
000010 ee de 08 3c 13 f8 f0 3a d5 4f 02 bd b3 a6 39 3c
       0.008353932 0.0018384479 -0.031814415 0.011331248
000020 51 1a 9e 3c c3 44 b0 3c db 36 5e bd dd 5a 0c 3d
       0.019299658 0.021517163 -0.054251533 0.03426634
000030 84 6f 10 3d f3 52 a9 3c d4 af 00 bd 6e 3f 92 bc
       0.0352626 0.020669436 -0.031417683 -0.017852511
000040 cf 8d 87 bc 70 6f ce 3b b1 85 79 bc 74 fd 4e 3c
       -0.016547112 0.0062999055 -0.015229628 0.01263367

conv2.weight f4 [35, 20, 3, 3, 3]
000000 78 1b 3f bd 25 26 f5 3d 96 52 6b 3c a5 eb f9 3c
       -0.046657056 0.11970166 0.014362952 0.030507872
000010 ce b3 58 bc 3b 8e f1 bc e6 01 80 3d c3 3a 4b bc
       -0.0132264625 -0.029486766 0.06250362 -0.012404147
000020 64 3a a8 3d af 80 22 bd da c5 9f 3d f6 09 50 3d
       0.08214262 -0.039673503 0.07801409 0.05079075
000030 93 87 34 3d c9 97 84 bd 02 ee b8 3c ef eb c5 bc
       0.044074606 -0.06474263 0.022574428 -0.024160353
000040 6b f3 5c 3d 7f fd 37 bd 61 2c 82 3b 06 d6 68 3d
       0.05394308 -0.044919487 0.0039725755 0.056844734
000050 a1 f2 20 bd f9 d1 81 3c 23 6b 42 bd 12 6c 11 3d
       -0.03929389 0.015847193 -0.047465455 0.035503455
000060 60 3b b1 3c 14 40 b1 bc 9a d8 9c bc ff da d9 bd
       0.021634758 -0.021637 -0.019146252 -0.10637473
000070 1a c3 9a 3d 54 96 e4 3d cc 07 28 bc 8b bd 3d 3d
       0.07556744 0.11161485 -0.010255765 0.04632334
000080 8f 08 b6 bd a1 ee ea bb 5f 01 8d b9 d0 91 35 3c
       -0.08888351 -0.00716956 -0.00026894637 0.011082128
000090 11 97 2d bd 36 3d db bc 2c fc 15 3e 17 f3 de 3b
       -0.042380396 -0.026762586 0.14646977 0.006803881
0000a0 db de 82 bd 92 a1 1d bd 34 61 c3 3d 13 c5 5c bc
       -0.063901626 -0.038484164 0.095400244 -0.0134747205
0000b0 f2 77 d0 bc f1 e7 9c bd d7 37 dc 3d f4 5d 2f bd
       -0.02544782 -0.07661427 0.10752838 -0.04281421
0000c0 c8 7a 59 3d ac 39 64 3d 24 2b 9e bc 51 3e 22 bd
       0.05309561 0.055719063 -0.01930768 -0.03961021
0000d0 d2 68 da 3c 3a 70 2a 3d 61 77 7c bd 9d fb 84 bc
       0.02666131 0.041610934 -0.061637286 -0.01623326
0000e0 91 3c b9 3d c6 e5 42 3e 9d e3 4c 3d 87 42 2d 3d
       0.09044755 0.19032964 0.050021756 0.042299774
0000f0 a2 7f af 3c 4c 59 88 3d 31 36 bb 3d 51 5f 1e bc
       0.021423165 0.06657657 0.091411956 -0.00966628
000100 7d 43 de bd ed 6e 24 3c 96 22 6e 3c a9 c0 0e 3e
       -0.10852716 0.010036212 0.014534613 0.13940682
000110 80 5c ee 3c 45 a5 90 3b 64 b4 24 be 2a 69 0b 3d
       0.029096842 0.004414233 -0.16084439 0.03403584
000120 2a f2 74 bc 50 ba 10 3d a7 be 9a 3d 47 62 1f be
       -0.014950315 0.03533393 0.07555895 -0.15564834
000130 f2 8b da 3d 0b e7 81 3d f4 5a 3b bd 5e aa 38 bd
       0.10671224 0.06342896 -0.045741037 -0.04508435
000140 4e 91 e1 3b 27 9b 8c 3c 2c 1c 48 bc 8a 66 be bc
       0.0068837767 0.017163826 -0.012213748 -0.023242254
000150 bf aa 18 bd 4c a0 38 bc 45 c0 33 bd 96 0d 22 3b
       -0.03727221 -0.0112686865 -0.043884534 0.0024727336
000160 21 c3 79 bd 74 25 73 bd 9c a0 6c 3d 44 10 28 bd
       -0.060977105 -0.05936189 0.057770357 -0.041031137
000170 27 ec a0 3d f8 08 8e bc ff 2a a2 bd 9b 9e a9 bd
       0.078575425 -0.017338261 -0.07918357 -0.08282205
000180 2d 45 5e bd 0b 51 96 3d 31 52 d3 3d de 1f 98 3d
       -0.05426519 0.073396765 0.10318411 0.07427953
000190 36 3b d4 bc ea c3 0e 3d 5a e7 35 3d f6 b0 eb bc
       -0.02590714 0.034854807 0.044410087 -0.028770905
0001a0 d4 e8 75 3c 78 00 c0 bd e0 b0 b0 3d c0 37 9e 3b
       0.015009124 -0.093750894 0.08627486 0.0048284233
0001b0 ff 80 6b bc d4 7d d1 bd c9 e8 52 3d 55 45 dc bc
       -0.014374017 -0.10229078 0.051491532 -0.026888529
0001c0 fb f6 5e 3c 70 ad 31 bd 3c 6e 67 bd 81 c8 5a 3c
       0.013608689 -0.043378294 -0.056501612 0.013353468
0001d0 3d fd 58 bd 6f c1 0e 3d 60 48 6a bd aa 58 14 be
       -0.05297588 0.03485244 -0.05719793 -0.14486948
0001e0 8e db bb 3c d1 0d 0c bd f0 2c 28 3d da 62 d2 3d
       0.02293184 -0.034192864 0.04105848 0.10272761
0001f0 7e 18 c6 bc 28 6d c2 3c 86 42 ba 3d 4d 88 6d 3c
       -0.0241816 0.02373369 0.090947196 0.014497829
000200 2a 86 3d 3a a6 46 99 3d e5 21 90 bd bb b2 c4 3d
       0.000722977 0.07484178 -0.07037715 0.09604403
000210 9a 0b 90 bd 0d 17 a5 3c e4 98 93 3d 99 84 c0 bd
       -0.07033463 0.020152593 0.07206896 -0.09400291
000220 fb 3d 61 3d cc 94 1f 3e 38 16 15 3d 85 49 91 3c
       0.05499075 0.15584105 0.036398143 0.017735252
000230 8c 09 03 bd a6 5c b9 bd 6e 53 87 3b 5d e9 28 bc
       -0.031991526 -0.090508744 0.0041298186 -0.010309544
000240 2f f9 6d 3b e5 e0 11 3d a2 cc c3 bd 9a bd d5 bc
       0.0036311855 0.035614867 -0.09560515 -0.026091386
000250 5b 04 a9 3c ae 35 8c 3d 13 df 9e 3d e3 70 b2 bd
       0.02063196 0.06846176 0.07757392 -0.08712938
000260 f4 06 c7 bd 9e 25 13 bc 42 4b 1e bd ae 9d 17 3d
       -0.09718123 -0.008981137 -0.03864599 0.03701561
000270 24 58 a6 3d f5 4c a2 bd fb 6b bb 3d a2 bb b4 bc
       0.0812228 -0.07924835 0.09151455 -0.022062127
000280 22 1d d0 3d 87 25 d2 3c 6e 7a 23 3d d5 2f 26 3b
       0.10161807 0.02565266 0.03991168 0.00253581
000290 9c e4 36 bd 49 a8 79 bd 51 36 bf bc b2 2b aa bc
       -0.044651613 -0.060951505 -0.02334133 -0.020772789
0002a0 15 01 46 bd 9a 4a ba 3c 4c 36 9e bd 18 a6 ed 3c
       -0.048340876 0.02274065 -0.077252 0.029009864
0002b0 59 00 a5 3d ad b1 71 3d 68 6e 80 3c ed 29 9c 3d
       0.08056707 0.059007335 0.015677646 0.07625184
0002c0 4f 97 e8 3d c8 fb 35 bd fc f3 ba 3a f9 37 d1 bc
       0.11356985 -0.04442957 0.0014263387 -0.025539385
0002d0 ba 12 a0 3b fc 87 30 3c a4 f8 df bd f9 e6 93 3d
       0.004885045 0.010774609 -0.10936096 0.07221789
0002e0 53 1d c0 3d aa 08 82 bc e9 47 b0 bc d5 3f 80 3b
       0.09380593 -0.015873272 -0.021518664 0.0039138594
0002f0 dc 18 80 bc 4d 7c 9b bb 85 da 01 3b 16 7f 6f 3d
       -0.015636854 -0.0047450424 0.0019814086 0.058470808
000300 97 18 3d 3d 99 04 81 bd 97 36 6e bd f7 bc 1c be
       0.04616603 -0.06299705 -0.05815753 -0.1530646
000310 9a c7 2f bd 70 d7 16 3d 00 f9 50 bd aa af ec 3d
       -0.042914964 0.03682655 -0.051018715 0.11556943
000320 91 51 42 bc d2 3b 5b 3d 28 d2 c1 ba 61 5e 53 3d
       -0.011860267 0.053523846 -0.0014787363 0.05160368
000330 52 93 11 3d e5 fc ff ba 5e 76 49 bd f8 ef c7 3d
       0.035540886 -0.0019530324 -0.04918515 0.09762567
000340 ba 05 e5 bc 5c c9 da 3c fd a6 c1 b9 57 0c cf bd
       -0.027956832 0.026707344 -0.00036936245 -0.101097755
000350 6e 52 ac bd 3f 5c 97 bc 23 4f a0 bc e9 f4 29 3c
       -0.0841416 -0.018476604 -0.019568985 0.010373333
000360 20 61 be bd 91 14 47 3d 80 e1 a8 3d 01 4f 1b bd
       -0.09295869 0.048603598 0.08246136 -0.03791714
000370 f9 75 93 3d ed a8 91 bb e1 7e ca bd 55 32 14 bd
       0.07200236 -0.0044451864 -0.098874815 -0.036180813
000380 70 53 f0 3c f0 84 ca 3c 67 38 e8 bd 66 08 31 3d
       0.029336661 0.024721593 -0.11338883 0.0432209
000390 c4 36 04 be 13 aa 48 3c c5 a0 7a bc ba 24 f9 bd
       -0.12911516 0.01224758 -0.0152971195 -0.12165208
0003a0 06 f1 a4 bc fd 5e 25 bd 43 85 83 3d e1 e7 86 3d
       -0.02013446 -0.04037379 0.06421902 0.06587196
0003b0 9f 49 f8 3c 9f 6b a2 bb 52 af 8d 3d 7f 00 c3 3b
       0.030308543 -0.004956677 0.06918205 0.005950987
0003c0 36 94 63 3d 16 64 c7 3d e4 19 a3 bc 0e 06 a4 bc
       0.055561267 0.09735887 -0.019909807 -0.020022418
0003d0 d5 1a 36 bd d6 1d 35 3e 36 f9 f9 3b b3 cc a9 3c
       -0.044459183 0.17687163 0.007628585 0.020727491
0003e0 d6 9d 96 3d ff f4 ec 3c 68 70 78 3d 1b 1f 7a 3c
       0.073543236 0.028925417 0.060654074 0.015266205
0003f0 c9 99 40 bd 66 c7 82 bc 10 de 33 3e d2 9e 03 3d
       -0.04702166 -0.015964221 0.17565179 0.032133885

conv2.bias f4 [35]
000000 f5 6a 2f 3a b5 a9 84 3b 53 a1 fc 3b 00 00 00 00
       0.0006691658 0.004048551 0.007709661 0.0
000010 85 46 77 bb dc e6 6d 3b 68 25 39 b7 3d ac a4 3a
       -0.0037731242 0.0036300933 -1.1035569e-05 0.0012563538
000020 e2 6f 85 39 c1 f1 ed 3b e7 ba 12 bc 6d de cc 3a
       0.00025451096 0.0072614853 -0.008955694 0.0015630253
000030 99 b4 90 3b 6a 4b b3 b8 55 58 7b 3c 90 67 18 bb
       0.00441606 -8.549432e-05 0.015340884 -0.0023255087
000040 6a 86 ed 3b 62 63 1a 3b 00 00 00 00 e5 87 2e b7
       0.0072486894 0.0023557772 0.0 -1.0402849e-05
000050 a6 04 98 3c 64 3b 85 3c d8 f8 e0 bc 14 98 c2 38
       0.018556904 0.016263671 -0.027462408 9.2789676e-05
000060 70 60 88 bb 79 5c 88 bb 00 00 00 00 75 49 f8 39
       -0.004161887 -0.004161414 0.0 0.00047356976
000070 87 da 00 bc 9d d5 2d 38 f9 eb 53 ba 00 00 00 00
       -0.007864601 4.1445357e-05 -0.0008084174 0.0
000080 93 71 19 bc 9c ca 49 b9 f5 f5 93 3c
       -0.009365457 -0.00019244332 0.018061617

pool2.weight f4 [35, 35, 3, 1, 1]
000000 5d b9 f4 bc 22 ab b0 bd 9f 26 12 be 62 dd 37 bc
       -0.029873544 -0.08626391 -0.14272545 -0.011222215
000010 af 4e 89 3d 39 a3 0b 3e b0 13 3c bd f5 8e b6 3d
       0.06704461 0.13636483 -0.045917213 0.08913986
000020 3e 63 94 bd df c5 27 3e 3e 23 fb 3d 28 75 85 3d
       -0.072454914 0.16384076 0.12262581 0.065164864
000030 88 9b 5f bc 6b 0a 11 3e 93 18 0c 3e 77 cd c5 bd
       -0.013647921 0.1416413 0.1368125 -0.0965833
000040 5e ad 87 3d 71 be bc 3d 3c d0 f5 bc 85 ef a8 bd
       0.06624864 0.09216011 -0.03000652 -0.0824881
000050 6d 1c 25 be dd b7 b3 3b 3a 5a 50 3e 6b 5e 97 3d
       -0.16124125 0.0054845647 0.20346919 0.07391056
000060 57 07 b2 bd 8a c8 bd 3d f5 e3 5c bd d4 81 21 3e
       -0.08692806 0.092667654 -0.053928334 0.15772182
000070 e7 61 45 bd f8 cd 34 be 00 af 48 bd 1b e3 86 bc
       -0.04818907 -0.17656696 -0.048995018 -0.016465714
000080 11 ad 46 be 00 a1 26 3e 49 8e bf 3d 43 66 b3 bc
       -0.19401957 0.16272354 0.093533106 -0.021899348
000090 32 e2 da 3e 03 56 ab 3e 68 30 bd 3b b7 37 03 3e
       0.42750698 0.3346406 0.0057735927 0.12814222
0000a0 2a c9 fe bb b4 46 1a bd 0e 1e a9 3d 02 7e 89 3d
       -0.0077754455 -0.037665084 0.082576856 0.06713487
0000b0 ec c6 2d be 27 96 e8 bc 56 b5 2a be e0 12 0b bd
       -0.16970414 -0.02839191 -0.16670737 -0.033953547
0000c0 bb 0a 1b be 6d dd 95 bb e9 f3 9c 3e 46 26 97 bd
       -0.15140812 -0.004573515 0.3065484 -0.07380347
0000d0 01 c4 d8 3d 0b a1 34 3e a3 40 e8 3c 11 81 95 3b
       0.1058426 0.17639558 0.028351134 0.004562505
0000e0 59 1b 39 3e e3 45 4c be be 2e fc bd ea b9 d3 bc
       0.18076839 -0.19948535 -0.12313603 -0.025845487
0000f0 e8 51 07 3d 0f 0d 1c bd 95 f6 1d 3d ac 8e e5 bc
       0.033037096 -0.03809839 0.038565237 -0.028022133
000100 7a d4 31 bd 87 88 3e be 7e 05 73 3e 2b 84 06 be
       -0.043415524 -0.18606769 0.23732564 -0.13136356
000110 44 74 d5 bd cb 80 75 bd 7a 3b 3d 3d 7a f4 5c 3d
       -0.104225665 -0.05993728 0.0461993 0.05394409
000120 a3 da 1f be 60 61 a1 3d 92 74 83 3e 9e 50 4c be
       -0.15610747 0.07879901 0.25674874 -0.19952628
000130 64 ef 60 be 96 83 05 be 64 8c 3c 3d 4c 5e d9 3c
       -0.2196632 -0.13038477 0.046032324 0.026534222
000140 0b 26 ba bc 1b 65 45 3d 90 df 14 bc 8e 72 4f bd
       -0.022723218 0.048192125 -0.009086505 -0.050646357
000150 4c 91 64 3e d8 a3 a9 be ad c1 c6 bc 73 e9 c0 bc
       0.22321051 -0.33132815 -0.024262274 -0.023548817
000160 0a 05 0f be 92 3e de bd 7b d4 94 3e 8f 82 44 3e
       -0.13966766 -0.10851778 0.2906836 0.19190429
000170 2c 89 39 be 5d 85 c6 bd d3 64 21 be 6c 24 66 3e
       -0.18118733 -0.09693406 -0.15761118 0.22474831
000180 80 95 89 bd bc 12 ff 3d 99 af 40 bd ec 63 77 bd
       -0.06717968 0.12454745 -0.047042463 -0.060398027
000190 6e be 89 bd 99 6b f0 bd db 8c 20 3e f6 9f 87 3c
       -0.06725775 -0.117392726 0.15678732 0.016555768
0001a0 68 2a 4d be d2 45 75 bd 06 82 47 3e ca 18 f3 bd
       -0.20035708 -0.05988104 0.19483194 -0.118699625
0001b0 db 46 a7 bd ba 78 f1 bd 3c b4 ea bd 42 28 dc 3d
       -0.081678115 -0.11790605 -0.11460158 0.10749866
0001c0 26 25 c0 bd bf ae dc bd 08 aa 4f bc 95 32 30 bc
       -0.093820855 -0.10775518 -0.012674816 -0.010754247
0001d0 19 a7 06 3e 82 38 56 bc 92 4c 66 bd 42 28 27 be
       0.1314968 -0.013074996 -0.056225367 -0.16323951
0001e0 29 3d 10 ba c9 dd 87 bd e8 49 d5 bd 6b 2b 4f 3d
       -0.00055022776 -0.06634099 -0.10414487 0.050578516
0001f0 2e 92 ff bc 70 b4 22 3d 8c 33 26 bd 40 ff c6 bd
       -0.031197634 0.03972286 -0.040576503 -0.09716654
000200 b0 3b 89 3e fe 92 95 bd 86 df 01 3e b7 2e 82 bd
       0.2680335 -0.07303427 0.12682924 -0.063565664
000210 b3 2b 15 3e 2f d9 81 3c d5 8d d6 3c 7e 6e 55 bd
       0.14567451 0.015850632 0.026190678 -0.052107327
000220 d9 a3 02 bd bf 91 33 3e 44 b3 c7 3c 53 02 25 be
       -0.03189454 0.17536066 0.024377473 -0.16114168
000230 46 0b b4 bd b8 04 aa bc 49 4a 27 be aa 87 b4 bd
       -0.08791213 -0.020754203 -0.16336931 -0.08814938
000240 4b 0e ae 3d 19 45 64 3d 75 98 a1 3c bc 14 ba 3d
       0.0849882 0.05572996 0.019726017 0.09085986
000250 78 da 2f be c9 8b cd 3d 24 7e f1 bd 56 f2 50 3d
       -0.17173183 0.100364275 -0.117916375 0.05101236
000260 1c 6b b2 3e 2e fd 7f bd 9f ee 8e be 1a 67 16 be
       0.34847343 -0.06249731 -0.27916428 -0.14687768
000270 eb 10 c8 bd a2 46 ac bd e0 5b 1a 3d b4 21 15 bc
       -0.09768852 -0.0841191 0.037685275 -0.009102274
000280 40 dd b0 3d ec 45 0b 3e f7 37 f0 3d a5 8d 59 3d
       0.0863595 0.13600892 0.117294244 0.0531136
000290 60 3d 35 be 6b 99 6f 3e 4c a7 cd bb e4 37 87 bd
       -0.17699194 0.23398368 -0.006276047 -0.06602457
0002a0 92 b2 80 3d 45 b8 ee bc 8e c2 df bd de d8 dc bc
       0.062840596 -0.029140601 -0.1092578 -0.02695888
0002b0 7c 22 20 be ac 60 b3 be 08 69 f9 3d 76 a5 54 3e
       -0.15638155 -0.35034692 0.12178236 0.20766243
0002c0 b9 79 03 3e 59 e0 67 be 5d 35 0d 3e f0 96 2e bd
       0.12839402 -0.22644176 0.13789888 -0.042624414
0002d0 3f 26 51 be b6 09 cf 3c d7 0c 1c bd 4e 16 66 bd
       -0.20424746 0.025273185 -0.038098183 -0.056173615
0002e0 b1 a7 c0 be 03 cd 0c 3e 68 42 99 bc d1 15 ee bd
       -0.37627938 0.13750081 -0.018708423 -0.11625255
0002f0 35 71 15 3e f6 89 12 be db 2c 82 3e f4 a9 b9 bd
       0.14593966 -0.1431044 0.25424847 -0.09065619
000300 f8 1e 4a bd 19 bb 84 3d c2 db d4 3d f5 35 9e 3d
       -0.04934594 0.064809985 0.10393478 0.07725135
000310 aa ca 5e be 09 03 d9 bc 98 4d 1b 3b 95 87 00 3d
       -0.21756998 -0.026490705 0.0023697373 0.0313793
000320 1b 88 22 be fe 41 3c 3d 40 3a 1a 3e ac 3f 1e 3d
       -0.15872233 0.045961373 0.15061283 0.03863494
000330 55 35 03 be 7e f6 44 3c 85 8a d0 3d c5 3b 07 3d
       -0.12813313 0.012021659 0.101826705 0.033015985
000340 2a 31 bc bd 4b 76 47 be d8 a3 7c 3d 0a 05 d1 bc
       -0.09189065 -0.19478719 0.06167969 -0.025515098
000350 b9 08 85 3e 60 52 68 3e fc d8 ce bd f9 f2 a0 bd
       0.25983217 0.22687674 -0.1009998 -0.07858843
000360 40 db 69 be 2f c0 56 3d aa 80 36 be e9 a7 d0 bd
       -0.22837543 0.052429374 -0.17822519 -0.10188276
000370 aa 88 ab be 5e cd 16 bd e0 98 a0 3e b5 bf 04 bd
       -0.33502704 -0.036816947 0.31366634 -0.03240939
000380 18 37 03 be 03 83 4e bd 2e c7 05 bd 03 96 0b 3e
       -0.12813985 -0.05041791 -0.032660656 0.13631444
000390 85 fd ff bd a7 52 de 3d 24 67 91 3d 80 a3 6c 3e
       -0.12499527 0.108556084 0.07099751 0.23109245
0003a0 8a 32 55 be 5a eb 04 be 48 8f 27 3b fe 36 99 bd
       -0.2082006 -0.12980404 0.002556758 -0.07481192
0003b0 ef 49 09 be 53 5b 2d be c6 9a 84 3e 77 a9 60 be
       -0.1340711 -0.16929369 0.25899333 -0.21939646
0003c0 fa c8 b6 3e b2 b6 9d 3c 79 50 34 3e 27 e8 b0 3d
       0.35700208 0.019252155 0.17608823 0.086380295
0003d0 9f 12 82 bd 1d b7 e5 bd 69 26 74 3e 16 9d 77 3d
       -0.06351208 -0.11216567 0.23842777 0.060452543
0003e0 9b 4f 76 3e e2 b6 28 3e c8 f8 58 3e 5f 2b 88 bd
       0.24053805 0.16476014 0.21188653 -0.066488974
0003f0 19 cb 7d 3e aa a9 e7 bc 27 aa be bd 1a 4e 88 3c
       0.24784507 -0.028279144 -0.09309798 0.016638804

pool2.bias f4 [35]
000000 15 a1 5c bc 71 e7 15 bc 09 e1 77 bc aa a2 4c bc
       -0.013466139 -0.009149418 -0.015129336 -0.012489954
000010 48 40 a0 bb 18 e3 b6 ba 8a a7 eb 3b ce 72 9f 39
       -0.0048904754 -0.0013953177 0.007191603 0.0003041238
000020 7e d2 3e 3b a2 67 7d 3c 6c 5c cf bb e8 59 40 bc
       0.0029117162 0.0154666025 -0.006328156 -0.011740185
000030 b7 55 a3 bc 56 dd 7e bb ba b0 bc 3b 9c ed 87 3b
       -0.019938333 -0.003888925 0.005758372 0.0041481983
000040 07 f4 c0 bc 5f e4 7c b9 c2 ce 00 bc be 6e 64 3c
       -0.023553861 -0.00024117668 -0.007861795 0.013942419
000050 e7 72 08 3b 0e 7f ad bc 57 3b 0e bc 55 c5 a3 bc
       0.002082044 -0.021178748 -0.00868114 -0.019991556
000060 30 05 25 bc 92 8d 36 bb 57 17 83 bb 05 84 16 3c
       -0.010072038 -0.0027855379 -0.004000585 0.009186749
000070 4d 5a 46 bc eb 2b 53 3c 12 62 e4 bb 80 ed 95 bc
       -0.01210649 0.012888889 -0.0069696987 -0.018301725
000080 53 aa 25 3a f8 b0 d1 3c 85 75 91 ba
       0.0006319631 0.02559708 -0.0011097646

conv3.weight f4 [35, 35, 3, 1, 1]
000000 35 8c 31 3b 86 d7 36 3d 63 a7 6f 3c a1 91 bc bd
       0.0027091627 0.044639133 0.01462731 -0.09207464
000010 00 27 b9 be cc f7 ae 3e 7b bf 7e bc 78 cb 27 be
       -0.36162567 0.3417343 -0.015548582 -0.16386211
000020 44 52 7d 3e c9 5e 2d 3d 91 e3 93 be c0 89 54 bd
       0.24738413 0.042326722 -0.28884557 -0.05188918
000030 f2 e8 5b be f0 7f a9 bd 30 62 af 3d 53 d1 d2 3d
       -0.2147558 -0.08276355 0.0856365 0.10293832
000040 d0 0d 2f be 42 49 2d 3d 5a eb d3 3d 0c 46 5f 3c
       -0.17095113 0.042306192 0.10347624 0.01362754
000050 04 40 47 bc ae 9d f8 bc 6b 2e e5 bd 53 24 89 3c
       -0.012161259 -0.030348625 -0.11190494 0.016740954
000060 eb ba 15 3e 8b 3e 16 be 66 69 f7 3d a5 3c db 3d
       0.14622085 -0.14672296 0.1208065 0.107049264
000070 01 13 23 be c7 b3 1d 3d 12 7f b8 3b fd 09 30 be
       -0.15925218 0.038501527 0.0056303823 -0.1719131
000080 1f fe 6e be ab 5a 8c be 8f 0c b8 bd e2 22 50 3d
       -0.23339127 -0.27412924 -0.0898677 0.050814517
000090 11 ae d3 3c 91 0e 9e 3e 5e 52 25 be 37 34 26 3e
       0.025839837 0.30870488 -0.16144702 0.16230856
0000a0 0a 67 19 3d 5f ad fa bd bf 5d bf 3c e7 5b 0b be
       0.03745178 -0.12240099 0.023360131 -0.13609277
0000b0 4f 53 4a 3d 3a f2 85 be 88 4d 90 be 08 87 11 3b
       0.049395856 -0.26161367 -0.28184152 0.002220573
0000c0 12 a5 df bd c3 ca 40 3e 7b b4 5a be 81 dc 28 3e
       -0.109201565 0.18827347 -0.2135791 0.16490366
0000d0 30 cf 9e bd ba 14 29 3e 89 8f 54 3e 4e 2b 8a 3c
       -0.07754362 0.16511813 0.2075788 0.016866352
0000e0 0b 46 c2 bb 52 9a 23 be c7 cf c4 bd 7f 65 04 be
       -0.00592876 -0.15976837 -0.09609943 -0.12929343
0000f0 88 25 48 3e c7 62 35 bd 53 9b 76 3d 5a cf c0 bd
       0.19545567 -0.044283655 0.060206722 -0.09414549
000100 07 e7 6c 3d d4 f6 78 be d1 e8 fc bc f9 6b 12 3e
       0.057837512 -0.24312907 -0.030872734 0.14299001
000110 f4 9f b3 3d fa 87 07 3e d9 fb 5f 3e 6b 3c 16 3e
       0.08770743 0.13235465 0.21873416 0.14671485
000120 93 c1 30 3d 8e 7c a2 bb 65 af fa bc b2 86 1c bd
       0.043153357 -0.0049586957 -0.030601213 -0.038214393
000130 71 ed 00 3e d0 00 8c be d9 49 12 bd b1 62 96 3c
       0.12590577 -0.2734437 -0.035714958 0.018357607
000140 e4 a2 0a be 0e df 91 be 02 5e 81 bd bb 8b e7 bd
       -0.135387 -0.2849049 -0.06316759 -0.11305948
000150 cf 32 41 be 78 c2 17 be 45 b5 eb 3d 09 df e7 bd
       -0.18867038 -0.14820278 0.11509184 -0.113218375
000160 b2 20 96 bd cb c8 a2 3d 32 b5 c0 3d 3d 4c 41 3e
       -0.07330455 0.079484545 0.0940956 0.18876739
000170 03 0e 20 be 1b b0 4e 3d eb 7d 36 3e 99 18 86 be
       -0.15630345 0.050460916 0.17821471 -0.26190642
000180 0c cb 17 be b8 ed 09 3d 17 b5 96 3d 56 1a e1 bd
       -0.1482355 0.033673972 0.07358759 -0.10991351
000190 4c a4 9b 3d e8 1a 22 3e d1 48 05 3e bc f5 7e bd
       0.075996965 0.15830576 0.13016059 -0.06224607
0001a0 88 91 c0 3b fa 3f 32 be 46 4d b5 bc 2e 89 ed 3d
       0.0058767237 -0.17407218 -0.022131573 0.115984306
0001b0 25 66 99 3d 21 90 9a 3c fb cc 15 be 00 91 61 bc
       0.07490186 0.018867554 -0.14628975 -0.013767481
0001c0 54 b8 bb 3d 8e 9a 89 bc ad 21 ba bd 4f b1 74 3d
       0.09166017 -0.01679733 -0.090884544 0.059739407
0001d0 79 8c f3 bb 0f a1 f0 3d ee 43 29 bb 3e f5 a3 3d
       -0.007432517 0.117494695 -0.0025827843 0.080057606
0001e0 63 58 04 bd d3 c5 46 3e 5e 81 10 be 8b 5a 07 bc
       -0.032310855 0.19411401 -0.1411185 -0.008261333
0001f0 81 5f 98 bd ba 35 b2 be 6d ed f1 bb 2a b8 00 3e
       -0.07440091 -0.34806615 -0.0073830397 0.12570253
000200 6e 3c 74 bd fe ae 8e 3d eb 74 1f bd 34 59 f9 bd
       -0.059627943 0.06966971 -0.03892986 -0.12175217
000210 c7 3b 2f be 6d ec 0b be b2 76 c1 bd 67 b0 51 3e
       -0.17112647 -0.13664408 -0.094464675 0.20477448
000220 dd 9a d2 3d 1a 29 a7 be 24 0b 09 3e bf 49 3b 3e
       0.10283444 -0.32648546 0.13383156 0.1828985
000230 f9 c0 33 be 3f 80 d4 bc 9f 95 19 3e cb c6 4c 3c
       -0.17554082 -0.025940059 0.14998482 0.012498568
000240 b7 92 b6 3d 56 e2 07 bd 6c e4 6d bd 56 67 c8 3d
       0.089147024 -0.033174835 -0.05807917 0.09785335
000250 d7 b3 2e 3e c9 d9 69 bd ab 9e ec 3b ff 1b 21 3e
       0.17060791 -0.05709246 0.007221063 0.15733336
000260 81 7e 27 3d 1f f4 1d bc 12 b4 a6 3d 7e ce 4f be
       0.040892128 -0.009640723 0.081398144 -0.20293614
000270 bc 15 49 3c ec db b2 bc 2c 9c 98 3e 04 c6 bf 3d
       0.012273248 -0.021833383 0.2980665 0.0936394
000280 6a fa b9 bb e6 d9 05 3e 7e 18 c5 3d 0b cf 08 3e
       -0.0056756036 0.13071403 0.09623812 0.1336023
000290 6f 09 b8 bc f1 f7 a3 bb 98 fb f4 3d 1c e1 ca 3d
       -0.022465436 -0.005003922 0.1196205 0.099062175
0002a0 8a 8e 40 3e 72 ea 1b bd a7 f3 36 be 89 6a cb bc
       0.18804374 -0.03806538 -0.17866383 -0.024831073
0002b0 68 e4 74 3d 7b b8 3f be 1d 68 3a be 33 0e 21 3c
       0.059788138 -0.18722717 -0.18203779 0.0098300455
0002c0 09 30 81 3d f0 72 79 be a2 23 8d 3c 20 84 8e 3d
       0.0630799 -0.24360251 0.017228905 0.069587946
0002d0 fa 3b 1c be 8f a3 2b 3e e5 49 e6 3d 97 10 d5 bd
       -0.15257254 0.16761611 0.11244563 -0.10403555
0002e0 10 c5 12 be d8 eb c4 3c 33 14 17 be 9a e9 7e bd
       -0.14332986 0.02403824 -0.14753799 -0.0622345
0002f0 ef 9f 19 bc 7b 6d 0e be df 23 1b bc a1 3f fd 3d
       -0.00937651 -0.13908951 -0.009469002 0.12365652
000300 d6 e5 9f 3d a3 7f 53 be 69 60 32 bc d9 07 c3 3d
       0.078075096 -0.20654158 -0.010887244 0.09522981
000310 6b f4 69 be 22 75 a1 bc 85 4c 0f be 74 39 e4 bd
       -0.22847144 -0.019709174 -0.13994034 -0.11143771
000320 c7 04 df 3d 46 96 b7 bd 67 67 7d be 4d 2d 1b 3d
       0.10889583 -0.08964209 -0.24746476 0.037885
000330 ac d3 a7 bd 03 be 68 be ea 9d 97 bd 37 8c 1a be
       -0.0819467 -0.22728734 -0.074031666 -0.1509255
000340 ae c0 31 be 7d 99 ba 3e d1 fb 92 be a1 0c 9f 3d
       -0.17358658 0.36445227 -0.28707746 0.07766081
000350 c0 e6 89 3d 30 0d 01 3e f7 5d c8 bd 69 8f 26 bd
       0.06733465 0.12602687 -0.09783547 -0.04066411
000360 95 02 7c be ff 87 bb 3e 97 4e a4 3e 1a e2 5a 3d
       -0.2461036 0.36627194 0.3209121 0.053438284
000370 ff be b3 3e be c1 13 3e 5b e1 35 3d 06 aa 57 be
       0.35106656 0.14429376 0.04440437 -0.21060953
000380 a8 d1 13 3e a7 64 8c be 53 14 8e be d1 03 0a ba
       0.14435446 -0.27420542 -0.2774988 -0.0005264851
000390 fa f1 6e bd 99 6a 31 be a5 22 4a 3e 8b 92 e6 bd
       -0.058336236 -0.1732582 0.19739778 -0.112584196
0003a0 e6 98 a9 be 24 ef 3e 3e cb 2e 19 3e 3a 17 1f 3e
       -0.33124465 0.18645912 0.14959256 0.15536204
0003b0 d6 ff fa bd 9e 4a b5 bd 30 4f 1c be a1 55 0c 3e
       -0.12255828 -0.08852123 -0.15264583 0.1370454
0003c0 bb c8 2b be e9 6f 1d 3d 4e 9e f4 3b 7c 2a fa 3c
       -0.16775791 0.038436804 0.0074651605 0.030537836
0003d0 fe 92 1d be cb df d6 3c 24 5d 93 3d b9 95 8d 3e
       -0.15388104 0.02622976 0.071954995 0.27653292
0003e0 3b b0 0f 3d 33 27 be 3e 96 ed 50 bd 6e a0 1d bc
       0.035080176 0.37139282 -0.05100783 -0.009620769
0003f0 bd 51 00 be 65 d0 61 3d ba 4d 6b 3d 28 9c c8 3d
       -0.1253118 0.05513038 0.057447173 0.097954094

conv3.bias f4 [35]
000000 7e f3 4c bc 6a b2 55 3b dc 44 5f bc 27 e1 3a bc
       -0.012509225 0.0032607564 -0.013627257 -0.01140622
000010 b2 8c dd 3a 76 01 6c bb 69 23 4f 3c be 5c 01 bb
       0.0016902892 -0.0036011613 0.01264272 -0.0019739117
000020 4b ee 18 bc ed 74 0c 3a e7 33 46 bb 31 dd 05 3b
       -0.009334157 0.00053579995 -0.0030243339 0.002042603
000030 fc 5d 2b bc 70 94 40 3a 0f ad 44 ba 76 f9 16 bc
       -0.010459419 0.00073463377 -0.00075025944 -0.00921475
000040 97 da 0a 3c aa 9d 2a 3c 00 00 00 00 bf ec cd 39
       0.008474967 0.010413567 0.0 0.00039277037
000050 00 00 00 00 91 e8 e4 3c 19 cb 4f 3a 23 0b 61 3a
       0.0 0.027942928 0.0007926687 0.00085847283
000060 d9 02 64 3a db 93 72 3b 63 e6 e9 3b 37 2c 9d bb
       0.0008697934 0.0037014398 0.00713806 -0.0047965306
000070 86 b5 0e bb 65 2f 0e bc 00 00 00 00 bb 4e 39 3c
       -0.0021775677 -0.008678292 0.0 0.011310275
000080 6a ff 32 bb 2c 5e 05 bc a4 d1 22 3c
       -0.0027312883 -0.008140128 0.0099376775

conv4.weight f4 [35, 35, 2, 1, 1]
000000 f5 15 20 bd 20 74 c2 bd 30 d0 a4 3d a3 ae 90 be
       -0.03908344 -0.09494805 0.08047521 -0.28258237
000010 06 fe 0f 3e 12 67 de bd 1f 01 d1 3d 0b 52 71 be
       0.14061746 -0.10859503 0.10205292 -0.23566453
000020 70 ba 60 3e f6 87 86 bd 86 07 44 3c 02 62 db bc
       0.2194612 -0.06568901 0.011964684 -0.026780132
000030 51 4b c5 3c e0 28 07 be 5f 6a c3 bd 13 f9 06 be
       0.024083765 -0.13199186 -0.09541773 -0.13180952
000040 87 8d 67 be 39 f0 78 be 06 a2 fb 3c 31 92 d7 3e
       -0.22612582 -0.24310388 0.030716907 0.42103723
000050 bc 85 0b bd 12 b1 67 bd 86 45 81 be 84 56 57 3c
       -0.034063086 -0.05656535 -0.25248355 0.0131431855
000060 ab dc 88 3e 90 6d 2e 3d 37 2e 3e 3d 6f 65 3f bb
       0.26730856 0.042584956 0.046430793 -0.0029204746
000070 38 bf 9f 3d a3 9f 50 3e 4b bd 91 bd e9 11 39 be
       0.07800144 0.20373397 -0.07116183 -0.18073238
000080 bb 37 82 be 76 f9 5c 3e 5a f4 bf 3d f7 f7 17 be
       -0.25433144 0.21579537 0.09372778 -0.14840685
000090 ba c8 78 bd ed d0 ad 3d b3 90 b6 39 de 94 d8 bd
       -0.060738303 0.08487115 0.00034821554 -0.10575269
0000a0 8c b5 0a be c4 25 9a be 40 41 bc bc fb 34 dc 3c
       -0.13545817 -0.30106938 -0.022980332 0.026880732
0000b0 d6 ec b2 be a9 7b c5 3b 36 ef 80 3d 73 4a 1d 3d
       -0.34946316 0.0060267043 0.06295626 0.03840108
0000c0 2f 10 39 be aa 99 5b 3e 26 90 2f be 52 40 18 3e
       -0.1807258 0.21445337 -0.17144832 0.14868286
0000d0 a5 6a 94 3c b4 91 17 3e 77 0f 10 3e 7f c5 11 3e
       0.018117258 0.14801675 0.140684 0.14235495
0000e0 dd 1d d3 bc d2 88 63 3e 36 30 50 3e 42 c7 6a be
       -0.025771076 0.22220162 0.20330891 -0.22927573
0000f0 31 04 db 3d 7f 68 9d 3d ad a6 b2 bb 7d b3 b2 3e
       0.10694159 0.07685947 -0.005451998 0.34902564
000100 fc 0a b2 bd da 4d 2c 3c e6 2b 6b 3e eb 98 3e be
       -0.08693501 0.010516608 0.22965965 -0.18613021
000110 df 34 48 bd de 27 b6 be 5f e0 2a 3e 5f 2f 12 3c
       -0.048878547 -0.3557729 0.16687153 0.008922427
000120 ff 81 b6 bd d4 d0 2c bd 40 87 8b bc fe 73 49 3d
       -0.089115135 -0.04219134 -0.017032266 0.049182884
000130 c8 4e 1d be 4a f1 da 3c 5d 58 87 3e a9 cf 2d bd
       -0.15362084 0.026726384 0.26434603 -0.04243437
000140 3f 5b 53 3d e3 7f 65 3c 1b 73 f8 bb 5d fe 0f be
       0.05160069 0.014007541 -0.007582081 -0.14061876
000150 97 71 cd 3d ae 59 ff 3b 4b b3 0b bc bf c7 67 be
       0.10031431 0.007792673 -0.0085266335 -0.22634791
000160 1c 3e e6 3d e2 22 0d 3d 0e 9b ad bc 6a 79 15 be
       0.11242315 0.034457095 -0.0211921 -0.14597097
000170 23 78 b8 3e be 47 e0 3c f8 c7 75 be c2 86 2e be
       0.36029157 0.02737796 -0.24002063 -0.17043594
000180 85 7c 8a 3d cf 66 96 3d 79 4f 21 3e c1 bb 69 bd
       0.067620315 0.07343828 0.15752973 -0.05706382
000190 9b 84 c5 be 8f 4f fb 3c 3d c5 d8 bc 62 91 1c be
       -0.38577732 0.030677585 -0.026461238 -0.15289834
0001a0 02 c2 ff bd 31 f6 80 3e 9d 63 2f bd 2b 83 cd 3d
       -0.12488176 0.2518783 -0.042819608 0.10034784
0001b0 67 9a 41 3e e1 74 5d 3e 7f f6 0d be b8 66 bc 3d
       0.18906556 0.21626617 -0.13863562 0.091992795
0001c0 46 ea 1a 3e e1 cd 84 be f6 b4 56 bd c7 8b 28 be
       0.1512843 -0.25938323 -0.05241867 -0.16459571
0001d0 23 0c a3 be 5b 34 ad bd 31 ae d0 3d c5 1d aa 3e
       -0.31845197 -0.08457252 0.101894744 0.33225837
0001e0 75 8d 40 3e 28 57 06 be 3a 8a 62 bc 63 60 b1 be
       0.18803962 -0.13119185 -0.013826901 -0.3464385
0001f0 67 b2 3c be 6a ab 29 be a0 7d fa bd 7d 19 1f be
       -0.1842743 -0.16569296 -0.12230992 -0.15537067
000200 d1 09 77 be f8 02 99 3e de 6f 0e be 08 bc 98 bd
       -0.24124838 0.29885077 -0.13909861 -0.07457739
000210 c0 33 a1 3d 37 a8 27 be ef 0c b1 bd ec 14 fb bd
       0.07871199 -0.16372763 -0.08645045 -0.1225985
000220 55 82 cc 3d 99 62 6c 3e 7a f4 04 be fa 92 4c be
       0.09985796 0.23084487 -0.12983885 -0.19977942
000230 ed a8 e2 3c 30 52 72 3d de e9 ac 3d 24 90 f4 bd
       0.02766844 0.05916041 0.08443044 -0.11941555
000240 2c c4 b2 bd d7 d4 e9 bd d5 3c 92 3d a8 c1 48 3e
       -0.08728823 -0.11417549 0.07140509 0.19605124
000250 81 cf f3 be 0d d8 44 be b4 0b 86 3d 41 d1 90 bc
       -0.4761925 -0.19223042 0.06545201 -0.017677905
000260 11 d8 94 bd c6 8c b2 be 15 b6 e3 bd 71 34 9f bd
       -0.07267774 -0.34873027 -0.11118714 -0.07773674
000270 34 c5 da bd db 2a d1 bd e1 51 0c be 7c 29 c3 bd
       -0.10682145 -0.10213252 -0.1370311 -0.09529397
000280 b4 f3 84 3b 6c 65 b7 bd 7a cc 37 bd e9 15 8b 3d
       0.004057372 -0.089548916 -0.04487274 0.067912884
000290 73 91 c2 bd 50 d6 af bd 15 d8 f7 bd ae 18 69 bd
       -0.095003985 -0.08585799 -0.12101761 -0.056908302
0002a0 43 61 a7 bc fd e1 78 bd c5 d2 22 be 54 39 aa 3e
       -0.02043212 -0.060762394 -0.15900715 0.33246863
0002b0 65 2e 2c be a2 da a1 be a5 bb 44 be 2c b2 03 be
       -0.16814573 -0.31612116 -0.19212206 -0.12860936
0002c0 49 cf 49 be 16 17 73 3e 08 0b 2c 3d 8c ac 14 3d
       -0.1970798 0.23739275 0.042002708 0.036297366
0002d0 2b 1f 93 3e 20 2f 39 3d 36 c4 b0 3d 12 42 4d be
       0.28734717 0.045210958 0.08631174 -0.20044735
0002e0 4c d7 e7 3d 33 8a 98 be f7 70 9b be 11 c0 be 3d
       0.113203615 -0.29792938 -0.30359623 0.093139775
0002f0 60 78 91 3e 29 24 6e 3d 42 65 ee bd 89 f4 b1 3d
       0.2841215 0.058139954 -0.11640407 0.086892195
000300 a9 df 12 3e 5f 1b 97 3d a9 98 6a 3e a0 ff 7c 3d
       0.14343132 0.073782675 0.22909798 0.06176722
000310 24 07 84 3d 84 bb 6b 3d 31 cf 9c 3e 24 fe 97 3e
       0.064466745 0.057551876 0.30626824 0.2968608
000320 be dd 38 be 5b e3 a4 3d 2d 3f f9 bd b5 ff 27 3d
       -0.18053338 0.08051177 -0.12170253 0.041015346
000330 a9 68 80 3e b3 b1 c6 3d 74 5e b8 3e e3 06 0c be
       0.2507985 0.09701862 0.36009562 -0.13674502
000340 6c b9 53 3d e8 27 6e 3d 28 1f 7b be 78 26 89 be
       0.051690504 0.058143526 -0.24523604 -0.26787162
000350 d5 9e f6 bb fc ed 98 bc bf ec 27 3e f1 97 cf 3d
       -0.0075262585 -0.018668167 0.16398905 0.101364024
000360 53 e2 45 3d 0d ce 9a 3e b4 2d 20 3e 83 20 ae be
       0.048311543 0.3023533 0.15642434 -0.3400918
000370 cb 9f 9d be 92 7d 4f bd 31 1d 6a be fd f9 c1 bc
       -0.30785975 -0.050656863 -0.22862698 -0.023678774
000380 4a 31 34 be 33 5e 08 3e 49 a2 1c bd c4 62 12 3d
       -0.17596927 0.13317184 -0.038240705 0.03573872
000390 84 21 5d bd 61 0e 20 be b6 8f 99 bd d1 b1 07 bd
       -0.05398704 -0.15630485 -0.07498114 -0.033128563
0003a0 93 1f 67 bc 91 8d 68 3d da ca 83 3d 3b a6 80 3e
       -0.014106649 0.056775633 0.06435175 0.25126824
0003b0 3a 89 a4 3d 65 65 ba bd aa 69 bb 3d 42 2f ef 3d
       0.080339864 -0.09101371 0.09151013 0.116789356
0003c0 98 43 f5 bd 1f 6d 81 3e e5 e5 62 3d 94 1e d9 3a
       -0.11975783 0.25278565 0.055395026 0.0016564899
0003d0 d0 31 a8 be 46 90 94 be db 18 7e be e2 da 29 3e
       -0.32850504 -0.29016322 -0.24814169 0.16587403
0003e0 8a 11 b3 3d 79 4b 30 3e 6a 06 ae be b1 a7 8a 3e
       0.0874358 0.1721629 -0.3398927 0.27081063
0003f0 72 94 3d 3e 2a ab 6a be 69 51 d3 bd d1 ff 18 be
       0.18513659 -0.22916856 -0.10318262 -0.14941336

conv4.bias f4 [35]
000000 db 38 03 3d 00 00 00 00 00 00 00 00 8c 9e 7a ba
       0.032036643 0.0 0.0 -0.00095603685
000010 38 23 0d 3d 8f 9a cb 3b 38 be 9f 39 a0 03 d8 3c
       0.034457415 0.006213493 0.00030468567 0.026368916
000020 c3 e1 07 3b 7e ec 9d bb 4e fe 9f bb 1b f2 ef 3b
       0.002073393 -0.004819452 -0.0048826104 0.0073225624
000030 a7 62 11 bc c7 ca 6e bc a7 2f 50 bb 8b c8 ca 38
       -0.008873618 -0.014574713 -0.0031766684 9.6694646e-05
000040 1b 37 7f b9 99 8d 81 bb 67 22 ed 3a 9a 05 9f bc
       -0.00024339223 -0.0039536473 0.0018091918 -0.01941185
000050 b5 b6 b8 3a 31 d8 3e 39 cf 7d a5 3b e7 ef fc 3a
       0.0014092537 0.0001820035 0.005050398 0.0019297571
000060 6d 44 09 3a d8 71 18 bc b6 9d 83 35 b4 0a db 37
       0.00052363315 -0.009304486 9.80616e-07 2.6111818e-05
000070 85 38 bb bb 00 00 00 00 7f 1e 82 bc 12 90 18 bc
       -0.0057135248 0.0 -0.015883682 -0.009311693
000080 f9 ab 09 ba 14 6d 66 3b f9 7b 16 3d
       -0.0005251761 0.003516023 0.036739323
