checkpoints/hamida_et_al/no_class_balancing/IndianPines_AE1_8/epoch26_0.80.pth (torch, 170182 bytes, 14 tensors)

conv1.weight f4 [20, 1, 3, 3, 3]
0.14165224 -0.73771733 0.22411212 0.3505785 -0.07358167 -0.14965051 -0.6627247 0.16998444
-0.28623572 -0.3871133 0.0945534 -0.28965634 -0.3863223 0.14079496 0.14360242 -0.074968815
0.2546585 0.31357569 -0.27704167 0.2393464 -0.20199683 -0.20386855 0.14923853 -0.040421702
0.28348914 -0.13726503 0.20960584 0.34535483 -0.36187473 -0.057767045 0.008723039 0.3475176
0.17093642 -0.35953867 0.3344769 0.3444456 0.0044634044 -0.07192317 -0.14382848 0.025501676
0.07209413 -0.14029671 0.026636608 0.056769945 0.24405155 0.08221897 0.15470447 0.024808634
0.58325 0.26852483 0.20386703 0.37643272 0.5303762 0.20869838 -0.20392682 -0.4586778
0.10796845 -0.037601817 -0.06163 -0.18262047 -0.2482771 -0.15355846 -0.6590766 -0.64879394
-0.0629756 -0.19529922 -0.43537349 0.00999002 0.40178123 -0.31595665 -0.1590312 -0.37314472
0.5345725 0.5094819 0.710015 0.22498597 0.37034643 -0.06587255 0.13055895 0.25743723
-0.2965706 -0.15200451 -0.45003745 -0.3648452 -0.43340293 -0.21311468 -0.11887941 0.17703104
-0.044141237 -0.6072881 -0.057589706 -0.20445831 0.013880749 -0.11603515 -0.076324776 0.098549195
0.17854898 0.023714995 0.12457682 0.7649378 0.56675535 0.05245016 0.06747791 0.418129
0.37673718 0.6755137 0.32577527 0.64827156 0.10626909 -0.14720343 -0.16150019 -0.6676146
-0.57129616 -0.4283329 -0.018508894 -0.37400246 -0.45802918 0.64615613 0.01845887 0.13098085
0.2958298 0.74416125 0.29891643 0.299896 -0.034357022 -0.31538647 0.50767183 0.23148212
0.2582614 0.2922458 0.1930088 -0.5190057 -0.20208772 -0.2660971 0.18526785 0.16610552
-0.20198478 -0.22513515 0.04802194 -0.5010546 -0.42388424 -0.11418804 0.27120802 0.067638144
-0.2615395 0.055215634 -0.48451132 -0.19586214 -0.18388702 0.36881053 -0.114757724 0.25539076
-0.4219351 -0.030487671 0.19075273 -0.1920424 -0.3380379 -0.17855798 -0.09967439 -0.11832321
-0.16599138 -0.18438382 0.31083426 0.521374 0.3924115 -0.079703934 0.2688912 -0.34942335
-0.17119496 0.018515376 0.026393896 0.49712572 -0.20609368 0.038435202 -0.32836387 -0.29956293
-0.05790517 -0.12461171 -0.7634387 -0.48213813 -0.3207413 0.025735876 0.47250378 -0.18504024
0.41563413 0.16215584 -0.016588083 0.30580437 0.45122805 0.08750501 0.20737617 -0.16851205
-0.18708485 0.04248244 0.32305214 0.30626708 -0.1647984 -0.5143303 -0.33126536 0.3425918
-0.2955692 0.027173227 0.16763784 -0.03750278 -0.034860536 -0.28250164 -0.15621845 0.079194844
0.1483771 0.8229252 -0.20926009 0.12065127 0.23535801 -0.40994287 -0.03429688 0.08811886
-0.18693134 -0.23780936 -0.0362818 -0.008046775 0.018850695 0.32703277 0.03375533 -0.17450064
0.028739195 0.13927326 0.07137941 -0.5559751 -0.15813664 -0.10176763 -0.4871031 0.025547113
-0.017159913 -0.009713465 -0.33979288 0.23686302 0.05577508 -0.2560048 0.14761755 0.410357
0.1282179 -0.47593227 -0.160984 0.085593715 0.21027471 -0.61425245 -0.0014194226 0.12376528
-0.20949447 -0.05650337 -0.36049148 -0.3388806 0.24307002 0.08059245 -0.38652673 -0.14855424
00000000: 490d 113e 0bdb 3cbf a67d 653e 067f b33e
00000010: fdb1 96bd fc3d 19be 53a8 29bf 6710 2e3e
00000020: 7d8d 92be b733 c6be 37a5 c13d d64d 94be
00000030: 09cc c5be 8e2c 103e 830c 133e 4089 99bd
00000040: 9962 823e fe8c a03e 68d8 8dbe 3917 753e
00000050: 42d8 4ebe ebc2 50be fcd1 183e 3a91 25bd
00000060: 7d25 913e 348f 0cbe eaa2 563e 59d2 b03e
00000070: a547 b9be 239d 6cbd 14eb 0e3c d4ed b13e
00000080: f509 2f3e 7415 b8be 8e40 ab3e 2c5b b03e
00000090: c041 923b 744c 93bd c647 13be e4e8 d03c
000000a0: 16a6 933d f1a9 0fbe 0435 da3c 9a87 683d
000000b0: a6e8 793e 6b62 a83d d96a 1e3e 7a3b cb3c
000000c0: df4f 153f 167c 893e 85c2 503e cabb c03e
000000d0: bcc6 073f 07b5 553e 31d2 50be d1d7 eabe
000000e0: 901e dd3d 5d04 1abd bd6f 7cbd dc00 3bbe
000000f0: 5a3c 7ebe 6e3e 1dbe 3eb9 28bf 5c17 26bf
00000100: 5af9 80bd 85fc 47be 46e9 debe 2ead 233c
00000110: 45b6 cd3e 12c5 a1be 13d9 22be d30c bfbe
00000120: bed9 083f 686d 023f 8bc3 353f b962 663e
00000130: 0c9e bd3e 30e8 86bd 3fb1 053e d0ce 833e
00000140: 1ad8 97be 12a7 1bbe 4f6b e6be fdcc babe
00000150: fde6 ddbe bc3a 5abe 0c77 f3bd a047 353e
00000160: 71cd 34bd 3c77 1bbf 2fe3 6bbd 855d 51be
00000170: 156c 633c d6a3 edbd 2a50 9cbd 29d4 c93d
00000180: 8bd5 363e f345 c23c 2222 ff3d f7d2 433f
00000190: e116 113f fbd5 563d dc31 8a3d 0115 d63e
000001a0: b2e3 c03e 77ee 2c3f 04cc a63e 20f5 253f
000001b0: 9ca3 d93d 7fbc 16be 4e60 25be cae8 2abf
000001c0: 7740 12bf 734e dbbe f79f 97bc 407d bfbe
000001d0: cd82 eabe 7d6a 253f 0e37 973c d81f 063e
000001e0: 0177 973e 5a81 3e3f 930b 993e f88b 993e
000001f0: f3b9 0cbd 567a a1be c8f6 013f a609 6d3e
00000200: d73a 843e 3ea1 953e 19a4 453e 8fdd 04bf
00000210: 15f0 4ebe e13d 88be dbb6 3d3e 9117 2a3e
00000220: 19d5 4ebe d489 66be a7b2 443d 1d45 00bf
00000230: 5b07 d9be 6bdb e9bd c7db 8a3e de85 8a3d
00000240: 81e8 85be ca29 623d de11 f8be 1690 48be
00000250: e14c 3cbe bcd4 bc3e 1906 ebbd 94c2 823e
00000260: e107 d8be 48c1 f9bc af54 433e c3a6 44be
00000270: 4e13 adbe e7d7 36be 1622 ccbd 7053 f2bd
00000280: a5f9 29be 1dcf 3cbe ab25 9f3e c478 053f
00000290: 29ea c83e d13b a3bd 1bac 893e 9ee7 b2be
000002a0: bb4d 2fbe 8fad 973c 0338 d83c 4387 fe3e
000002b0: 390a 53be 3b6e 1d3d 4f1f a8be 5060 99be
000002c0: f92d 6dbd 6d34 ffbd b870 43bf cfda f6be
000002d0: 3438 a4be 0bd4 d23c 04ec f13e 307b 3dbe
000002e0: ffcd d43e 2e0c 263e bbe3 87bc 6492 9c3e
000002f0: 5d07 e73e d435 b33d 6b5a 543e 6c8e 2cbe
00000300: 2c93 3fbe 1102 2e3d 1767 a53e 0acf 9c3e
00000310: e9c0 28be 27ab 03bf 9d9b a9be 3168 af3e
00000320: d954 97be 639a de3c 41a9 2b3e 849c 19bd
00000330: ecc9 0ebd 0ea4 90be bbf7 1fbe e830 a23d
00000340: 2bf0 173e 3aab 523f 4748 56be 0318 f73d
00000350: b101 713e 08e4 d1be e37a 0cbd a977 b43d
00000360: ee6a 3fbe 4c84 73be 3a9c 14bd 9fd6 03bc
00000370: c66c 9a3c d770 a73e 0743 0a3d 4cb0 32be
00000380: 766e eb3c a69d 0e3e 5e2f 923d 6254 0ebf
00000390: 92ee 21be 8c6b d0bd 9465 f9be 2e48 d13c
000003a0: f292 8cbc 3a25 1fbc 55f9 adbe 388c 723e
000003b0: 6974 643d 1013 83be 0e29 173e 501a d23e
000003c0: 8e4b 033e 65ad f3be fdd8 24be c24b af3d
000003d0: 4152 573e a63f 1dbf eb0b baba a778 fd3d
000003e0: b885 56be 1470 67bd 5792 b8be c281 adbe
000003f0: 59e7 783e a80d a53d d5e6 c5be 9a1e 18be

conv1.bias f4 [20]
-0.00713481 -0.6438512 -0.126931 -0.4488485 0.30920607 0.0 -0.03137279 -0.03634671
0.0 -0.0037148332 -0.39169803 -0.3966941 -0.23223054 -0.23631619 0.0040973476 -0.28550917
-0.22854027 0.24890636 0.32560688 -0.01643842
00000000: 20cb e9bb 6fd3 24bf 33fa 01be 78cf e5be
00000010: 4250 9e3e 0000 0000 c180 00bd 4ae0 14bd
00000020: 0000 0000 8f74 73bb a58c c8be 7d1b cbbe
00000030: d8cd 6dbe dffc 71be 0b43 863b 422e 92be
00000040: 7606 6abe 4fe1 7e3e f2b5 a63e dea9 86bc

pool1.weight f4 [20, 20, 3, 1, 1]
0.20145544 0.060738426 0.32566532 0.19977646 0.33709565 0.32214475 -0.2223134 -0.1879132
0.22792055 0.17495626 -0.07173981 0.10951245 -0.31468883 -0.28298378 0.21099265 -0.047221497
0.32594663 -0.011368248 0.07433994 -0.054792367 0.3496211 -0.10688916 -0.0370289 0.2833013
-0.013722238 -0.063017845 -0.08752784 0.020922046 0.3281714 0.13031 -0.42057964 0.069753505
0.16549394 -0.09223217 0.14557824 -0.11804513 0.11656227 -0.14108537 0.04741415 -0.18614389
-0.012580706 -0.062103957 0.27598688 0.0034856685 -0.02218723 -0.19193065 0.10910237 0.06406629
-0.3374697 -0.17467852 0.10902551 0.104843736 -0.26646867 0.025096593 0.10097653 -0.22688027
-0.20449121 -0.12823161 0.1369417 0.03221661 -0.04139845 -0.17819053 0.2294086 0.1538751
-0.136607 0.100820184 0.27401724 -0.1504943 0.20832442 0.21699831 -0.3817547 -0.26095834
0.19552764 -0.25877935 0.11973408 0.18006004 -0.04051533 0.15883024 0.14242058 0.26246807
-0.1794339 0.18119556 0.08333358 -0.14004187 -0.2379308 0.02481055 0.01906039 0.11517307
0.09340249 -0.08985512 -0.15481485 -0.12241041 -0.124886826 0.04902491 -0.2511181 -0.56405294
-0.09688227 -0.13175845 0.09487944 -0.275862 0.31414673 -0.04385245 0.20505154 0.03516696
0.26735887 -0.32051268 -0.028141366 -0.063773274 -0.100265965 -0.07668273 0.020356935 0.22299942
-0.08180484 0.17564805 0.045865986 -0.343031 0.48760423 -0.08034378 0.12058335 0.07526095
0.308079 0.33671036 0.22699253 0.20690708 -0.17465936 0.13190776 -0.025909029 0.23400111
0.010524447 -0.056220163 0.2276588 -0.08022969 0.0104274675 0.3009797 -0.1571213 -0.0060714935
-0.026171898 0.023400761 0.003944383 -0.029959941 -0.3067841 0.31065673 0.32184207 0.124947265
-0.15256076 -0.1669313 0.35863766 0.015702462 0.07164203 0.09703943 -0.00033174537 -0.033961993
0.021973917 -0.12941521 -0.091136225 0.098223224 -0.016776996 0.29584226 0.0169796 -0.1501196
-0.2180069 -0.12511635 0.36881182 -0.3652875 -0.057344273 0.29373267 0.10288199 0.0096745165
-0.61048836 0.15218404 -0.09058897 0.18290706 -0.015387769 -0.11922516 0.20747654 -0.0006138144
0.3206643 -0.11659995 0.21679032 -0.23485243 0.03218825 -0.009153211 0.0026691938 -0.1223804
0.15107624 0.18791412 0.12679575 0.18833907 0.18572497 -0.0029814413 0.23793697 0.10992054
0.09875526 0.40222287 0.16987053 0.15136938 -0.16462119 0.010977033 0.008924227 0.18552765
0.024483895 -0.06933519 0.1733518 0.28574646 -0.18021932 0.16978212 0.4750011 -0.021425435
-0.1272693 -0.014104196 -0.18740158 -0.89490753 0.0482435 0.17323284 0.26881748 -0.14382836
-0.034528773 -0.12672009 0.16250208 -0.20581569 -0.52683586 -0.0037522824 0.19971804 -0.28536654
0.13996725 -0.06763033 0.13076243 -0.16414337 -0.35202172 -0.21945319 0.15477069 -0.24254616
-0.15437332 -0.14525145 0.022246933 0.17767565 -0.016718078 -0.11151277 -0.20468532 0.1104554
0.32229573 -0.02674142 -0.065242395 -0.14608835 -0.08822351 -0.09193618 -0.20073457 0.108174495
0.158289 -0.1053726 -0.23748346 0.14637789 0.11482728 -0.48825297 -0.024208492 -0.21530716
00000000: 564a 4e3e dbc8 783d 9bbd a63e 3392 4c3e
00000010: cd97 ac3e 28f0 a43e 20a6 63be 516c 40be
00000020: 0164 693e bc27 333e 52ec 92bd 1048 e03d
00000030: e51e a1be 40e3 90be 750e 583e 546b 41bd
00000040: 7ae2 a63e e341 3abc 8a3f 983d f66d 60bd
00000050: 8901 b33e b4e8 dabd 9eab 17bd de0c 913e
00000060: 3dd3 60bc 800f 81bd cc41 b3bd b664 ab3c
00000070: 1506 a83e fc6f 053e 3756 d7be edda 8e3d
00000080: 3e77 293e 38e4 bcbd 7612 153e a5c1 f1bd
00000090: 33b8 ee3d af78 10be 5735 423d 819c 3ebe
000000a0: 4e1f 4ebc b860 7ebd 274e 8d3e d06f 643b
000000b0: fec1 b5bc 7889 44be 1071 df3d 3035 833d
000000c0: d4c8 acbe edde 32be c448 df3d 50b8 d63d
000000d0: 956e 88be 5f97 cd3c c8cc ce3d 4d53 68be
000000e0: 2566 51be 264f 03be 723a 0c3e 90f5 033d
000000f0: 6c91 29bd 9477 36be 17ea 6a3e 6f91 1d3e
00000100: b5e2 0bbe d07a ce3d fd4b 8c3e 2e1b 1abe
00000110: ff52 553e ce34 5e3e 5a75 c3be 559c 85be
00000120: 6638 483e ba7e 84be 2437 f53d a961 383e
00000130: 67f3 25bd 65a4 223e b3d6 113e 3762 863e
00000140: 85bd 37be 548b 393e ccaa aa3d 2367 0fbe
00000150: 22a4 73be 7f3f cb3c 8924 9c3c dcdf eb3d
00000160: ce49 bf3d f605 b8bd c987 1ebe 4fb2 fabd
00000170: aac4 ffbd 58ce 483d 8d92 80be c665 10bf
00000180: 366a c6bd b0eb 06be 2750 c23d c93d 8dbe
00000190: d7d7 a03e a09e 33bd 08f9 513e 3b0b 103d
000001a0: 43e3 883e 3d1a a4be b988 e6bc 909b 82bd
000001b0: 3e58 cdbd d60b 9dbd 96c3 a63c f659 643e
000001c0: 4c89 a7bd 15dd 333e f9dd 3b3d c2a1 afbe
000001d0: 43a7 f93e 488b a4bd 67f4 f63d 6a22 9a3d
000001e0: 88bc 9d3e 4d65 ac3e bb70 683e 73df 533e
000001f0: e7d9 32be d412 073e 2c3f d4bc fd9d 6f3e
00000200: bb6e 2c3c 1d47 66bd 631f 693e 774f a4bd
00000210: f8d7 2a3c 031a 9a3e 68e4 20be 61f3 c6bb
00000220: 7366 d6bc f4b2 bf3c e23f 813b 8d6e f5bc
00000230: ce12 9dbe 660e 9f3e 7cc8 a43e 5ae4 ff3d
00000240: e338 1cbe 0af0 2abe 5b9f b73e 73a2 803c
00000250: 0eb9 923d 9cbc c63d 1cee adb9 bb1b 0bbd
00000260: a502 b43c 6c85 04be a1a5 babd 4229 c93d
00000270: e96f 89bc a378 973e cd18 8b3c f4b8 19be
00000280: 333d 5fbe 801e 00be e7d4 bc3e f706 bbbe
00000290: d4e1 6abd 2164 963e cbb3 d23d dd81 1e3c
000002a0: f748 1cbf 22d6 1b3e b686 b9bd fd4b 3b3e
000002b0: fb1c 7cbc 522c f4bd bb74 543e 63e8 20ba
000002c0: 1c2e a43e f4cb eebd 48fe 5d3e 287d 70be
000002d0: d4d7 033d 59f7 15bc a4ed 2e3b 93a2 fabd
000002e0: bbb3 1a3e 8f6c 403e bfd6 013e f5db 403e
000002f0: b02e 3e3e 4964 43bb c0a5 733e 051e e13d
00000300: 3340 ca3d 28f0 cd3e 8af2 2d3e 9300 1b3e
00000310: 7592 28be 03d9 333c ec36 123c f6fa 3d3e
00000320: 7392 c83c 9cff 8dbd 2283 313e 5c4d 923e
00000330: 6a8b 38be 5ddb 2d3e 5833 f33e 6584 afbc
00000340: e252 02be 4915 67bc 33e6 3fbe a918 65bf
00000350: fa9a 453d f363 313e 72a2 893e be47 13be
00000360: 0b6e 0dbd e9c2 01be f266 263e 59c1 52be
00000370: b7de 06bf dae8 75bb e382 4c3e 901b 92be
00000380: 9353 0f3e c581 8abd 96e6 053e 3315 28be
00000390: 313c b4be 56b8 60be 357c 1e3e 055e 78be
000003a0: 0a14 1ebe ccbc 14be 333f b63c 9bf0 353e
000003b0: 5af4 88bc cf60 e4bd 0799 51be 7136 e23d
000003c0: f203 a53e d310 dbbc ce9d 85bd 2f98 15be
000003d0: 87ae b4bd 0949 bcbd 5d8d 4dbe 978a dd3d
000003e0: 8316 223e 97cd d7bd dd2e 73be 16e4 153e
000003f0: 912a eb3d 4bfc f9be e350 c6bc 7b79 5cbe

pool1.bias f4 [20]
-0.035966083 0.31436554 0.18124484 0.28482804 0.1042367 -0.17969723 -0.09520397 0.009907117
-0.0961968 0.11478293 0.14331721 -0.438415 -0.046931677 0.057976205 -0.18464015 -0.1073902
-0.37900686 -0.027293518 -0.24932027 -0.12154339
00000000: 2c51 13bd 85f4 a03e 3f98 393e fbd4 913e
00000010: 0d7a d53d 8d02 38be 4dfa c2bd 7651 223c
00000020: d402 c5bd 5013 eb3d bfc1 123e ee77 e0be
00000030: 6e3b 40bd 7578 6d3d 4f12 3dbe 65ef dbbd
00000040: 300d c2be a896 dfbc d04d 7fbe beeb f8bd

conv2.weight f4 [35, 20, 3, 3, 3]
0.09241907 -0.101653755 0.0752041 -0.029153604 0.07869752 0.01049282 -0.0643292 0.06726751
-0.043487187 0.064900786 -0.025079278 -0.005052452 -0.0036245296 -0.025770128 -0.0045401803 0.119278096
0.068470575 -0.036138985 -0.017534731 0.00714131 -0.11480954 0.12997627 -0.038755696 0.027922837
-0.06288925 -0.003022408 -0.029511886 0.021761844 -0.0005807182 0.017130474 -0.03975459 -0.05530102
0.028888835 -0.031525895 -0.032527525 0.08447832 -0.0026904694 -0.077636935 0.009548774 -0.019533297
-0.035227798 0.011523184 -0.08973646 0.009077302 0.06390696 -0.042867817 -0.04551765 -0.05965144
-0.017615978 -0.05968002 -0.07962716 -0.06006899 0.09127534 0.023794774 0.023338705 -0.041522633
0.04271918 -0.10522715 0.04975944 0.011440955 0.07356138 0.06698803 -0.10816092 -0.016492749
0.005331371 0.0065026414 -0.11736377 -0.11619314 -0.065552495 -0.03275104 -0.09486445 -0.017635854
0.10641815 -0.0044634803 2.93489e-05 0.078834996 0.013719339 0.037101332 -0.055592503 -0.039682895
0.03972376 0.039588284 0.0023824393 -0.09095443 -0.028966172 0.009406173 -0.024053505 -0.007278389
-0.0060337097 -0.06579187 -0.23245065 -0.012967835 -0.000979836 -0.070329644 -0.05312444 -0.057346396
-0.111217625 -0.11850424 -0.07928109 0.11084108 0.11130917 0.03377947 -0.03870042 -0.08004848
0.060880683 -0.0005380475 -0.030335825 0.10954731 -0.023431305 -0.040804103 0.011474969 -0.091191664
-0.105040096 -0.14304455 -0.07941756 -0.05623144 0.026499087 0.020972557 0.08174197 0.049119238
0.013291973 0.05513403 0.047337882 -0.007187871 0.012198567 0.13423102 -0.12450404 -0.018089553
0.011253475 -0.11758265 -0.015014226 -0.113084875 -0.07144069 -0.08588859 -0.099697374 -0.045121167
0.02493372 0.10896175 0.029611973 0.06938754 0.041332703 -0.09012467 0.100088365 -0.026851475
-0.03598718 0.088831335 0.107758455 0.13409337 0.05283419 0.1473879 0.16914476 0.13890933
0.14155912 -0.03551318 -0.13176566 -0.050783012 0.035668824 0.08009459 0.04822477 -0.017069444
0.027940761 0.052282263 0.06636355 0.14474998 0.069809526 0.090810925 0.0803272 0.090975404
0.102629095 0.14041615 0.0011929887 -0.050147377 0.102548674 0.077310205 -0.0069465223 -0.05673398
0.03500388 0.058743678 -0.0030060576 -0.025302552 0.03861777 -0.03687358 0.0821307 -0.0027908792
0.10874339 -0.006591538 -0.067902535 0.0094910115 0.085752875 0.014596538 0.13250102 -0.03975206
-0.036828417 0.03224088 0.077842265 -0.14802802 0.01628172 0.05219029 0.066637814 0.008261804
-0.009272858 -0.14968108 0.03891425 -0.014638946 -0.06558448 0.09705889 0.020781333 -0.06253929
0.048098493 0.001905194 -0.08696769 -0.007907104 -0.058225114 0.081182234 0.0026708434 -0.013860213
-0.019979164 0.041197877 0.10762602 0.011974706 0.103835896 0.052584536 0.12812923 0.1540145
-0.004124405 -0.057675634 -0.05843941 -0.08734514 -0.09924191 -0.08646568 -0.06624534 -0.025913848
0.031580877 -0.032171413 0.07407411 0.0031264084 0.14277828 0.026745388 0.01030514 0.09213191
0.017959397 0.0541067 0.020686304 0.011742894 0.009602124 0.1217494 -0.056630313 0.015063538
-0.026583765 -0.08191206 -0.095335074 -0.043261882 0.018690117 0.047303405 0.19141173 0.1041495
00000000: 3646 bd3d d82f d0bd 9b04 9a3d 8ad3 eebc
00000010: 2a2c a13d 14ea 2b3c 07bf 83bd 8cc3 893d
00000020: 9f1f 32bd b4ea 843d 0f73 cdbc 0a8f a5bb
00000030: 8489 6dbb e01b d3bc cbc5 94bb 1348 f43d
00000040: 4d3a 8c3d 7906 14bd ffa4 8fbc a601 ea3b
00000050: 4421 ebbd 8018 053e 4bbe 1ebd 6fbe e43c
00000060: 14cc 80bd 9813 46bb e9c2 f1bc e545 b23c
00000070: 573b 18ba 3555 8c3c b5d5 22bd 5383 62bd
00000080: 47a8 ec3c 4c21 01bd 953b 05bd f802 ad3d
00000090: 9652 30bb 1d00 9fbd 7672 1c3c 4b04 a0bc
000000a0: 064b 10bd bdcb 3c3c c0c7 b7bd f7b8 143c
000000b0: a7e1 823d 2a96 2fbd b770 3abd 1155 74bd
000000c0: 624f 90bc 0973 74bd 9113 a3bd e70a 76bd
000000d0: 91ee ba3d 42ed c23c d030 bf3c a313 2abd
000000e0: 4ffa 2e3d 5581 d7bd 8ed0 4b3d d872 3b3c
000000f0: 59a7 963d 0531 893d 7983 ddbd cd1b 87bc
00000100: c8b2 ae3b 1c14 d53b 6b5c f0bd abf6 edbd
00000110: 6340 86bd f425 06bd 4b48 c2bd 1179 90bc
00000120: c2f1 d93d 6342 92bb 4832 f637 3e74 a13d
00000130: 14c7 603c 91f7 173d f7b4 63bd 888a 22bd
00000140: 62b5 223d 5327 223d b322 1c3b 5146 babd
00000150: 774a edbc 591c 1a3c db0b c5bc 8d7f eebb
00000160: 6db6 c5bb e3bd 86bd 8b07 6ebe 0b77 54bc
00000170: d76d 80ba fd08 90bd 0399 59bd 0ee4 6abd
00000180: 11c6 e3bd 5ab2 f2bd 205e a2bd a600 e33d
00000190: 10f6 e33d 575c 0a3d 5584 1ebd 75f0 a3bd
000001a0: 065e 793d c20b 0dba d682 f8bc 575a e03d
000001b0: 02f3 bfbc 3422 27bd 8201 3c3c b2c2 babd
000001c0: 431f d7bd 457a 12be aca5 a2bd f052 66bd
000001d0: 9d14 d93c a4ce ab3c 5568 a73d 4131 493d
000001e0: 93c6 593c 38d4 613d 5ee5 413d 3b88 ebbb
000001f0: 80dc 473c db73 093e f9fb febd 8b30 94bc
00000200: 7f60 383c 2ccf f0bd 3afe 75bc 0b99 e7bd
00000210: 7f4f 92bd 5be6 afbd 232e ccbd f9d0 38bd
00000220: cd41 cc3c 5727 df3d cf94 f23c 0e1b 8e3d
00000230: 7b4c 293d 4893 b8bd 21fb cc3d a0f7 dbbc
00000240: 4b67 13bd 34ed b53d 77b0 dc3d c64f 093e
00000250: aa68 583d dbec 163e 4934 2d3e 3f3e 0e3e
00000260: e0f4 103e 4576 11bd 94ed 06be d901 50bd
00000270: 7919 123d a208 a43d 5687 453d 38d5 8bbc
00000280: 06e4 e43c ed25 563d 9de9 873d 5739 143e
00000290: 4cf8 8e3d 14fb b93d 9682 a43d 5051 ba3d
000002a0: 342f d23d 40c9 0f3e 0f5e 9c3a 5667 4dbd
000002b0: 0a05 d23d d054 9e3d a79f e3bb e461 68bd
000002c0: 3a60 0f3d 369d 703d 4701 45bb 4c47 cfbc
000002d0: ab2d 1e3d c008 17bd 2434 a83d 2fe7 36bb
000002e0: dbb4 de3d d4fd d7bb 7c10 8bbd 3080 1b3c
000002f0: 349f af3d 5126 6f3c 59ae 073e 0ed3 22bd
00000300: 65d9 16bd 030f 043d c46b 9f3d a894 17be
00000310: 3e61 853c 7cc5 553d 6879 883d 845c 073c
00000320: 2fed 17bc ff45 19be 8c64 1f3d 31d8 6fbc
00000330: 2851 86bd d0c6 c63d 9d3d aa3c 9914 80bd
00000340: ed02 453d b4b7 f93a 1e1c b2bd cc8c 01bc
00000350: 757d 6ebd df42 a63d 5109 2f3b f215 63bc
00000360: 58ab a3bc 1bbf 283d 086b dc3d 8f31 443c
00000370: eaa7 d43d e262 573d 4f34 033e fab5 1d3e
00000380: 0426 87bb 493d 6cbd 2a5e 6fbd 02e2 b2bd
00000390: 583f cbbd eb14 b1bd a3ab 87bd 4749 d4bc
000003a0: f35a 013d 2cc6 03bd 2bb4 973d 6ee4 4c3b
000003b0: 7834 123e 2519 db3c e4d6 283c a8af bc3d
000003c0: 961f 933c fd9e 5d3d 5376 a93c 4465 403c
000003d0: 3a52 1d3c c057 f93d 30f5 67bd 0fcd 763c
000003e0: 32c6 d9bc 83c1 a7bd 093f c3bd 5f33 31bd
000003f0: 041c 993c 37c1 413d 7001 443e 554c d53d

conv2.bias f4 [35]
0.073098235 -0.034833957 -0.013531411 -0.0075471424 0.02156686 0.013133498 0.022677096 -0.026843604
-0.11448887 0.02443652 0.14378889 -0.0051548793 0.006090859 -0.033245787 -0.039804697 -0.055291716
-0.015455168 -0.047281027 0.0782589 -0.016249994 -0.11139481 0.10810056 -0.019236824 -0.005623331
0.09240793 -0.021313978 -0.09904577 -0.013183513 -0.045048144 0.029301533 0.013681689 0.016892195
0.087524116 -0.031683363 0.005517073
00000000: 87b4 953d 0dae 0ebd dab2 5dbc 054e f7bb
00000010: fcac b03c e22d 573c 51c5 b93c 1ee7 dbbc
00000020: 2479 eabd 192f c83c 653d 133e 43ea a8bb
00000030: d495 c73b bc2c 08bd 400a 23bd 9179 62bd
00000040: ac37 7dbc c0a9 41bd 3446 a03d b51e 85bc
00000050: f622 e4bd d463 dd3d 8b96 9dbc eb43 b8bb
00000060: 5e40 bd3d a79a aebc 82d8 cabd a9ff 57bc
00000070: 6784 38bd c509 f03c 2a29 603c 8061 8a3c
00000080: d83f b33d 6ac6 01bd 90c8 b43b

pool2.weight f4 [35, 35, 3, 1, 1]
-0.048905443 -0.105862625 0.013503101 0.052895218 -0.045890592 -0.05275275 0.022263696 0.086877815
-0.0006306287 0.068836406 0.30373374 -0.06687121 0.040040787 -0.1474725 -0.22332965 -0.03823502
0.18934599 0.15164347 -0.031881098 0.039784674 -0.010440002 0.16841704 -0.018591309 0.20256595
0.059313424 0.07308331 -0.25452805 -0.056078922 -0.045633394 -0.018037137 -0.046568844 0.19355139
0.058315467 -0.020782555 -0.023602638 0.11328221 0.11242603 0.09745117 0.03916562 -0.08137174
0.037513837 -0.017805364 -0.04887169 -0.07683255 0.11481128 0.18989448 0.1625704 0.07276689
-0.15820701 -0.031085549 0.0142236175 -0.035732444 0.21011695 0.18053067 -0.2584039 -0.07893671
0.19624525 0.1839175 0.15162887 -0.27635968 -0.011971097 0.069337085 0.16915675 0.07715664
0.063830785 0.105782405 0.024620263 0.21132594 -0.04256666 -0.1773956 -0.13649611 0.023264758
-0.06701259 -0.06347746 0.017460857 0.16420208 -0.07035404 -0.2089635 0.17195828 0.098196656
-0.0060344622 -0.038466092 -0.0019224973 6.216349e-05 0.32310733 -0.022084435 -0.07383721 -0.16829818
-0.10205864 -0.24709728 -0.08768225 -0.18882512 0.16816 0.12457357 0.06418504 -0.15797663
-0.13338259 0.0865558 0.028692396 -0.09148722 0.08748262 0.0012347085 -0.011079646 -0.18885615
0.27603382 -0.09027818 -0.070073985 0.3499198 0.26137465 0.0027918832 -0.02632744 0.028987886
-0.095110975 -0.08124951 0.055760156 0.08188813 -0.09455011 -0.086767085 -0.124946095 0.03537063
0.15878874 -0.03451112 0.22389719 0.23918408 0.21699712 0.14617884 -0.119619615 -0.08353622
0.20195006 -0.052046448 0.11813442 -0.013622107 0.09047863 0.085549645 -0.06765352 -0.26849467
-0.22255598 -0.0076715313 0.18631859 0.08426259 0.009720528 0.08991605 -0.11318537 0.08132172
0.16165107 0.04691752 0.07920773 -0.29111412 0.029111665 -0.03559321 0.018291535 -0.029110849
0.12751608 -0.028933425 -0.2717961 -0.0513006 0.09767643 0.2514761 0.28813845 -0.009988427
-0.04420257 -0.18892811 -0.0657794 -0.09529828 0.05346316 0.03781662 -0.15137255 -0.31313294
0.09099253 -0.3982263 -0.23978782 -0.05483153 0.0392482 0.20548797 -0.07508249 0.15361835
0.09947296 0.06227199 -0.086824745 -0.013256497 -0.09859641 -0.056526177 0.014174193 -0.03996602
0.25872353 0.06609251 -0.08213255 -0.06608846 -0.18765377 -0.24902134 0.3261442 0.19386274
-0.06764032 0.060299132 -0.10984935 0.017220201 0.085678294 -0.01709056 -0.1749813 0.18903868
0.325863 -0.23132832 0.01807012 0.1297934 0.21055064 -0.26323548 -0.054956667 0.15760149
-0.054987468 -0.06829711 -0.008217208 -0.15397671 0.19581695 0.22913031 -0.08668809 0.33915284
-0.06528608 0.2984427 0.07048995 -0.04027963 -0.1325241 0.02780588 0.009737719 -0.04086983
-0.2341047 0.4792382 -0.06659772 0.0051575094 -0.031552892 -0.027872803 0.15017644 0.02429094
-0.02540078 0.25348803 0.057898786 -0.15003501 -0.10244908 0.022575347 0.006342323 0.23433542
0.12671097 -0.102084816 -0.0908796 0.020342005 0.0035326532 -0.055313177 -0.07791405 -0.04653605
-0.17655867 -0.15164573 0.0011347446 -0.20067197 0.16038354 -0.045781523 -0.011363966 -0.03205068
00000000: 1351 48bd 81ce d8bd 1c3c 5d3c a8a8 583d
00000010: c6f7 3bbd 4513 58bd 5b62 b63c ffec b13d
00000020: c750 25ba 1afa 8c3d fd82 9b3e c6f3 88bd
00000030: cf01 243d 0803 17be 87b0 64be 539c 1cbd
00000040: eae3 413e 6d48 1b3e c195 02bd 41f5 223d
00000050: 8b0c 2bbc 8475 2c3e cd4c 98bc 736d 4f3e
00000060: a2f2 723d b4ac 953d 8051 82be 03b3 65bd
00000070: 15ea 3abd 9ec2 93bc f9be 3ebd 5632 463e
00000080: 33dc 6e3d 2d40 aabc 525a c1bc 8100 e83d
00000090: 9e3f e63d 7b94 c73d 216c 203d 3aa6 a6bd
000000a0: 1ca8 193d 8edc 91bc ae2d 48bd 625a 9dbd
000000b0: 2d22 eb3d b373 423e db78 263e cf06 953d
000000c0: 0501 22be 1fa7 febc 2d0a 693c 2f5c 12bd
000000d0: e628 573e 08dd 383e 844d 84be 92a9 a1bd
000000e0: 84f4 483e de54 3c3e 9944 1b3e 047f 8dbe
000000f0: 6c22 44bc 9a00 8e3d 6d37 2d3e 4d04 9e3d
00000100: b7b9 823d 72a4 d83d 6fb0 c93c d465 583e
00000110: 615a 2ebd 31a7 35be a3c5 0bbe bc95 be3c
00000120: e63d 89bd 7800 82bd 120a 8f3c 9724 283e
00000130: c715 90bd 87fa 55be d515 303e 541b c93d
00000140: bdbc c5bb 9f8e 1dbd 4efc fbba c55d 8238
00000150: 536e a53e 6bea b4bc f737 97bd 5c56 2cbe
00000160: 1f04 d1bd 1207 7dbe c092 b3bd 5f5b 41be
00000170: 2332 2c3e 6e20 ff3d 7273 833d a0c4 21be
00000180: 7295 08be 2b44 b13d 510c eb3c a75d bbbd
00000190: 162a b33d f1d5 a13a 6787 35bc 8263 41be
000001a0: 4e54 8d3e c4e3 b8bd f382 8fbd b028 b33e
000001b0: e6d2 853e 07f8 363b a5ac d7bc 0178 ed3c
000001c0: 8bc9 c2bd 2566 a6bd c364 643d f7b4 a73d
000001d0: 7da3 c1bd f1b2 b1bd bde3 ffbd cbe0 103d
000001e0: 8499 223e 885b 0dbd 4e45 653e acec 743e
000001f0: 7e34 5e3e e8af 153e 21fb f4bd 0a15 abbd
00000200: ffcb 4e3e a82e 55bd 75f0 f13d 422f 5fbc
00000210: dc4c b93d a734 af3d ee8d 8abd 2278 89be
00000220: b7e5 63be 7861 fbbb 4dca 3e3e dd91 ac3d
00000230: d942 1f3c e825 b83d bbcd e7bd 008c a63d
00000240: dc87 253e 962c 403d aa37 a23d e90c 95be
00000250: 967b ee3c 30ca 11bd 21d8 953c e079 eebc
00000260: 9393 023e ca05 edbc dc28 8bbe 9420 52bd
00000270: 950a c83d 7ac1 803e e286 933e 80a6 23bc
00000280: c10d 35bd 5f76 41be 5ab7 86bd bf2b c3bd
00000290: 30fc 5a3d 9ae5 1a3d 6801 1bbe f652 a0be
000002a0: 4b5a ba3d 51e4 cbbe f08a 75be 0797 60bd
000002b0: b8c2 203d 706b 523e d9c4 99bd 214e 1d3e
000002c0: 7bb8 cb3d ea10 7f3d 2cd1 b1bd c731 59bc
000002d0: eaec c9bd fe87 67bd e03a 683c 69b3 23bd
000002e0: 6977 843e 835b 873d 1c35 a8bd 6359 87bd
000002f0: 4f28 40be 73ff 7ebe 5ffc a63e f483 463e
00000300: 0287 8abd 39fc 763d b2f8 e0bd 6111 8d3c
00000310: 1a78 af3d 8101 8cbc 4c2e 33be 5b93 413e
00000320: 84d7 a63e 55e1 6cbe ca07 943c 90e8 043e
00000330: 969a 573e cdc6 86be 3e1a 61bd 4962 213e
00000340: 8a3a 61bd 5bdf 8bbd 78a1 06bc 12ac 1dbe
00000350: 3d84 483e 23a1 6a3e 8689 b1bd 71a5 ad3e
00000360: b5b4 85bd 7bcd 983e 095d 903d 41fc 24bd
00000370: 66b4 07be 28c9 e33c f48a 1f3c 1f67 27bd
00000380: 24b9 6fbe b65e f53e 6364 88bd 5300 a93b
00000390: 9b3d 01bd 8155 e4bc dac7 193e cbfd c63c
000003a0: 4c15 d0bc 2fc9 813e 4727 6d3d c7a2 19be
000003b0: d3d0 d1bd efef b83c 43d3 cf3b a0f5 6f3e
000003c0: 85c0 013e d811 d1bd 151f babd 47a4 a63c
000003d0: 1684 673b 1290 62bd 6791 9fbd 969c 3ebd
000003e0: cccb 34be 0549 1bbe b6bb 943a f47c 4dbe
000003f0: 953b 243e 6885 3bbd ee2f 3abc 9347 03bd

pool2.bias f4 [35]
-0.011499837 -0.011332401 -0.002698623 0.076373875 -0.002919164 0.040773388 -0.043451585 -0.049429346
-0.006817213 -0.07583179 0.011313244 -0.042874128 0.10167362 -0.01276641 0.0074768267 0.052352007
-0.054398898 -0.002679903 0.010483683 -0.0746549 0.014299784 -0.011017091 0.09158204 -0.059865355
-0.02321068 -5.65078e-05 -0.0249802 0.01244299 -0.04731309 -0.045963574 0.030200513 0.00036600203
0.0865817 -0.055251926 -0.045860186
00000000: d069 3cbc 89ab 39bc 62db 30bb e869 9c3d
00000010: 724f 3fbb ff01 273d 4afa 31bd 6d76 4abd
00000020: ed62 dfbb b34d 9bbd 2f5b 393c c89c 2fbd
00000030: 423a d03d 342a 51bc 2b00 f53b 0f6f 563d
00000040: 61d1 5ebd 50a1 2fbb c1c3 2b3c abe4 98bd
00000050: a449 6a3c 0781 34bc 5d8f bb3d 6035 75bd
00000060: 5324 bebc ca02 6db8 47a3 ccbc afdd 4b3c
00000070: 5fcb 41bd 4d44 3cbd 1167 f73c f6e3 bf39
00000080: bf51 b13d d84f 62bd e4d7 3bbd

conv3.weight f4 [35, 35, 3, 1, 1]
0.028653584 -0.06980018 -0.025938118 0.1586927 -0.13127019 -0.028662125 0.06961829 -0.24215439
-0.0020174326 -0.12518686 -0.31815785 0.07900692 -0.00028707125 -0.06697296 0.18100996 0.024107171
0.047172002 0.15990864 -0.03940405 0.23487164 0.1358252 0.060351864 0.114596926 -0.029266555
0.098620124 -0.103857286 0.15676847 -0.19528873 -0.16186622 -0.01996183 -0.3126032 -0.2943942
0.044846464 -0.05342968 0.003909964 0.12211234 0.13311176 -0.08852638 -0.08332839 -0.016194988
0.14051598 -0.0790954 0.2480615 0.096046545 -0.23970889 -0.039151963 -0.02477052 -0.064373024
0.20356803 -0.016359968 0.15988202 0.06695859 -0.05527412 -0.019853557 -8.564086e-05 0.18451126
-0.082470596 -0.10823585 0.15240085 -0.07539021 -0.0024168098 -0.1814358 -0.05562794 0.302737
-0.15851185 0.09219731 -0.017690917 -0.2600919 0.006293572 -0.3785282 -0.046096835 0.1888485
-0.05013611 -0.047335222 0.16943641 0.022423105 0.020302456 0.054599527 -0.017508782 -0.06115378
-0.023595992 0.27100867 0.027157223 0.011753405 0.11942503 -0.16940768 -0.19994557 -0.096126065
-0.28980657 0.212763 -0.106178775 -0.054569196 -0.17516543 0.35646224 -0.16686068 0.1347585
-0.13438472 -0.29619846 0.10270024 -0.16188352 0.25207844 -0.14359494 0.04480701 0.09951487
0.06553429 0.009292563 -0.14936583 0.19576311 -0.084143974 0.022382218 -0.011323434 0.24804662
0.13902302 -0.03728998 -0.23536874 0.03522744 0.0514737 0.10852356 -0.16125666 -0.0347744
0.13047291 -0.0026533073 0.20048797 0.098068185 0.07604043 -0.07206321 0.057856176 -0.13803972
0.16852863 -0.124072194 0.0008244747 0.10560698 0.103940204 -0.17312779 -0.033733245 0.01945463
0.36184925 0.021198845 -0.08323307 0.07478453 0.11693756 -0.042070817 -0.019315029 -0.22168629
-0.01820943 -0.00861838 -0.16973692 0.21883215 0.02547541 0.007963618 -0.00057094917 0.11238434
0.12152868 0.14208105 0.056500357 -0.032972597 -0.21331738 -0.1275126 -0.013630262 0.20645669
0.24303536 -0.2326421 0.13750419 0.27433276 0.17089854 -0.055890106 0.0104571 -0.095632724
0.012617413 0.035064198 0.30887675 -0.024595264 -0.113986626 -0.029533623 0.07791168 -0.14238746
-0.12237486 -0.17390835 0.046544492 0.12626176 0.03308429 -0.1539342 -0.062168036 -0.08444475
0.03876981 -0.04039011 0.121359065 0.044649858 -0.0027487352 0.035398286 -0.053553052 0.08626514
0.010841514 -0.08615936 0.1013638 -0.15212956 0.020856505 -0.026170747 -0.041879024 -0.024809066
0.08543245 0.05650549 -0.15153249 0.049451362 -0.09549022 -0.04761505 0.11190941 -0.018711224
0.095169626 0.059258297 0.13221197 -0.012886615 -0.20747964 0.068903066 -0.13564137 -0.056595042
0.019158706 0.15320458 -0.054049797 -0.22588173 0.18874085 0.016451549 0.09967494 0.06892558
0.025566654 -0.20831956 -0.0035290837 0.10537529 0.14164534 0.17312771 0.14173831 -0.13959052
0.21598752 0.006268529 0.17426024 0.14422728 0.20703556 0.0295359 0.0040591247 0.109312944
0.04690217 -0.033725686 -0.009607833 0.17911854 0.12679675 -0.095008515 -0.15303794 -0.22379078
-0.098620534 0.013374018 0.01810453 -0.14903982 -0.032132335 0.06767984 -0.095806025 0.050564677
00000000: ecba ea3c 66f3 8ebd 2d7c d4bc 5780 223e
00000010: b16b 06be d5cc eabc 0994 8e3d 52f7 77be
00000020: e736 04bb fc30 00be 96e5 a2be 61ce a13d
00000030: 0d82 96b9 1f29 89bd ad5a 393e 677c c53c
00000040: 6e37 413d 17bf 233e 2466 21bd 3182 703e
00000050: c315 0b3e 8433 773d cbb1 ea3d 6ac0 efbc
00000060: 59f9 c93d 21b3 d4bd ea87 203e c5f9 47be
00000070: 42c0 25be fe86 a3bc 870d a0be d6ba 96be
00000080: edb0 373d 15d9 5abd 281f 803b 0916 fa3d
00000090: 734e 083e 524d b5bd 13a8 aabd 5aab 84bc
000000a0: 6ce3 0f3e c5fc a1bd d503 7e3e 0db4 c43d
000000b0: 3f76 75be cf5d 20bd 8ceb cabc 01d6 83bd
000000c0: 2374 503e 5705 86bc 1db8 233e 9621 893d
000000d0: 1e67 62bd eda3 a2bc 169a b3b8 85f0 3c3e
000000e0: 58e6 a8bd c2aa ddbd f80e 1c3e 2f66 9abd
000000f0: 5763 1ebb 4eca 39be 1fda 63bd 5800 9b3e
00000100: ee50 22be f1d1 bc3d 8bec 90bc c42a 85be
00000110: 4f3a ce3b 73ce c1be 09d0 3cbd 8061 413e
00000120: 865b 4dbd 94e2 41bd bd80 2d3e a9b0 b73c
00000130: 5651 a63c c1a3 5f3d 946e 8fbc 637c 7abd
00000140: 624c c1bc a6c1 8a3e d378 de3c 5b91 403c
00000150: 1c95 f43d 3579 2dbe 88be 4cbe bedd c4bd
00000160: 8761 94be 8bde 593e 4274 d9bd f383 5fbd
00000170: 915e 33be 3882 b63e 87dd 2abe 22fe 093e
00000180: 269c 09be 53a7 97be 8154 d23d cbc4 25be
00000190: 6d10 813e 8d0a 13be 8e87 373d 74ce cb3d
000001a0: d836 863d d63f 183c 5bf3 18be 2076 483e
000001b0: ad53 acbd ea5a b73c ed85 39bc efff 7d3e
000001c0: 0d5c 0e3e 61bd 18bd 8104 71be a64a 103d
000001d0: 16d6 523d 9a41 de3d 7720 25be 9a6f 0ebd
000001e0: b19a 053e 1ce3 2dbb b84c 4d3e f9d7 c83d
000001f0: 16bb 9b3d e095 93bd 99fa 6c3d 495a 0dbe
00000200: c592 2c3e 9019 febd 8f21 583a 7948 d83d
00000210: 9ade d43d 6948 31be df2b 0abd 515f 9f3c
00000220: 4e44 b93e 33a9 ad3c 1a76 aabd a228 993d
00000230: f67c ef3d 7352 2cbd 8d3a 9ebc bb01 63be
00000240: f12b 95bc 1b34 0dbc 84cf 2dbe 8915 603e
00000250: cfb1 d03c d679 023c c0ab 15ba c329 e63d
00000260: 07e4 f83d b27d 113e eb6c 673d 460e 07bd
00000270: df6f 5abe aa92 02be 7651 5fbc 6269 533e
00000280: 43de 783e bb39 6ebe e6cd 0c3e 5875 8c3e
00000290: 0700 2f3e 06ed 64bd 4254 2b3c 17db c3bd
000002a0: 44b9 4e3c 7a9f 0f3d 1825 9e3e 027c c9bc
000002b0: d271 e9bd 7ff0 f1bc 2990 9f3d 05ce 11be
000002c0: ac9f fabd 0815 32be 70a5 3e3d c34a 013e
000002d0: 6483 073d eda0 1dbe e9a3 7ebd 5ef1 acbd
000002e0: 18cd 1e3d 1a70 25bd 1a8b f83d c5e2 363d
000002f0: 2024 34bb cbfd 103d 725a 5bbd c7ab b03d
00000300: 9ba0 313c 5274 b0bd d397 cf3d dac7 1bbe
00000310: 43db aa3c 0964 d6bc 5789 2bbd 623c cbbc
00000320: 35f7 ae3d 4d72 673d 552b 1bbe 838d 4a3d
00000330: 6090 c3bd 0008 43bd c330 e53d 4848 99bc
00000340: 4be8 c23d d4b8 723d 9362 073e 6122 53bc
00000350: 8b75 54be 0d1d 8d3d 92e5 0abe 34d0 67bd
00000360: b8f2 9c3c a9e1 1c3e 5263 5dbd 8a4d 67be
00000370: 4845 413e 66c5 863c 6022 cc3d db28 8d3d
00000380: 2971 d13c b951 55be 3348 67bb 00cf d73d
00000390: 7a0b 113e 6448 313e d923 113e d1f0 0ebe
000003a0: d52b 5d3e 3c68 cd3b 4771 323e 51b0 133e
000003b0: 2101 543e 46f5 f13c 6802 853b 77df df3d
000003c0: 7d1c 403d f223 0abd 2c6a 1dbc da6a 373e
000003d0: 02d7 013e d393 c2bd fab5 1cbe 6929 65be
000003e0: 90f9 c9bd b21e 5b3c f44f 943c e59d 18be
000003f0: 329d 03bd ba9b 8a3d f335 c4bd e81c 4f3d

conv3.bias f4 [35]
-0.049282797 -0.041524556 -0.024187634 0.009111116 0.018407175 -0.031486135 -0.0110205645 0.0027435627
-0.050110213 0.019934662 0.008615614 0.016397735 -0.059036147 0.052082695 0.009048952 0.05965118
0.036308195 -0.038772583 0.028944267 -0.0525384 0.07179524 -0.012774463 -0.029884735 -0.07765743
0.02916356 -0.05239649 -0.03632566 -0.022445848 0.07926404 0.06725616 0.017381992 -0.054681636
-0.013536406 -0.02789273 -0.021851117
00000000: c2dc 49bd a715 2abd 2525 c6bc ca46 153c
00000010: a5ca 963c 9bf7 00bd 998f 34bc 58cd 333b
00000020: 5e40 4dbd 044e a33c 8128 0d3c 8b54 863c
00000030: e3cf 71bd aa54 553d 0e42 143c cc54 743d
00000040: e7b7 143d 00d0 1ebd 871c ed3c 8132 57bd
00000050: 6209 933d fb4b 51bc d5d0 f4bc dc0a 9fbd
00000060: 6be8 ee3c b49d 56bd 37ca 14bd 5be0 b7bc
00000070: 2f55 a23d 99bd 893d ae64 8e3c daf9 5fbd
00000080: cdc7 5dbc 4b7f e4bc 1d01 b3bc

conv4.weight f4 [35, 35, 2, 1, 1]
0.025126822 -0.05796864 0.3593783 0.13824014 -0.15529917 -0.0673708 -0.05206605 -0.042360414
-0.017495869 0.16671474 -0.062825836 -0.1866527 0.061041974 -0.013957867 0.31096864 -0.12068284
0.024786012 0.12270278 -0.12523374 -0.115876436 -0.20967075 -0.22941054 -0.16322817 0.011236898
0.057815894 0.029866755 0.21427618 0.32961214 -0.06403645 0.0980399 -0.13154812 0.26444778
-0.0528072 0.41775736 -0.16882214 -0.23082685 -0.030872673 0.21967119 0.24690093 -0.3217458
-0.069144815 0.15017363 0.17873739 -0.026525984 -0.09296651 -0.2060639 0.25134954 -0.22240716
0.064243674 -0.12638883 -0.018011808 -0.12404341 0.082463965 -0.2052245 -0.046528682 0.06590278
-0.020923415 0.14447989 -0.095715135 -0.27160618 0.3082291 -0.1008344 -0.006961533 0.015856938
-0.035524342 0.08823718 -0.15556726 -0.097407445 -0.16441606 -0.13818845 -0.05363343 0.10327381
0.101533994 -0.15037975 0.11761314 0.12980221 0.006360573 -0.06106899 0.00066055596 -0.18448612
0.12854192 0.1462308 0.15097499 0.16763106 0.015459876 -0.08709804 -0.122230805 -0.20071909
-0.012086156 0.013180299 -0.4658893 0.058015548 0.062834434 -0.10713363 -0.04502386 0.15812111
-0.42374015 -0.011693188 -0.14275444 0.37526163 0.1438573 -0.13189955 -0.16813351 -0.10225982
0.14648288 0.016256953 -0.16365857 0.1626372 0.33922616 -0.10797756 0.4796303 -0.25666106
-0.10820675 0.044642653 0.07574396 -0.119219854 0.10484822 -0.1689689 0.1547101 -0.075346224
0.040450547 -0.073214196 -0.45946568 0.13367847 -0.11208581 0.034921303 0.008960408 0.04138208
-0.13926949 -0.262575 -0.0059006815 -0.27544612 -0.09655362 0.14846124 -0.147797 -0.17123148
0.29724607 0.20893447 0.1685967 0.04108204 0.10714148 0.14101672 0.0148637965 -0.19923724
-0.41683546 -0.08544544 -0.2056877 -0.15050451 -0.13678913 -0.008448251 0.011376846 0.04152266
0.08976218 0.37956592 0.027445434 0.2733562 0.041149374 -0.05380948 -0.12579337 0.111470856
-0.12171824 0.043798912 -0.31545177 0.26787812 -0.2319993 0.11022514 -0.016190635 -0.20943712
-0.2827641 0.17458999 0.15686582 -0.12587923 0.077320896 -0.029645693 0.22410567 0.28227183
0.05175657 0.26374543 0.012184146 -0.33171937 -0.013458933 -0.08654576 -0.049216777 0.14957938
-0.2330844 0.10447822 -0.10026253 -0.09594938 -0.29530153 -0.11596072 0.045489114 -0.13644578
-0.07627612 0.24265383 0.17019692 -0.15009566 0.20012248 -0.20917551 0.21042807 0.072187185
-0.04297761 -0.06384675 0.10315195 -0.11551155 -0.017533287 -0.046568524 -0.11720388 -0.01654306
-0.10605659 -0.108423464 -0.36329967 -0.21303608 0.30092627 -0.008669993 0.033899214 -0.06410821
-0.19477761 0.06616397 -0.013291704 0.011971032 0.1510002 -0.055455595 -0.10641322 -0.1432203
-0.2792506 -0.15721168 -0.13464907 -0.14257488 -0.11718494 -0.052360684 0.09038217 0.16937977
0.037941877 0.09830372 -0.09145987 -0.21371128 0.0662212 -0.47805622 0.24142472 0.17549357
0.36565885 0.23416287 -0.23280717 0.17933948 0.10567901 0.25456798 -0.18198162 -0.025925562
-0.057718728 -0.02281875 0.03690365 0.006128861 0.14235412 0.052449785 -0.19296236 0.07271483
00000000: c4d6 cd3c 8670 6dbd 6f00 b83e d38e 0d3e
00000010: bf06 1fbe b4f9 89bd 3643 55bd 1d82 2dbd
00000020: 7f53 8fbc 45b7 2a3e d5aa 80bd e321 3fbe
00000030: 2607 7a3d 8aaf 64bc 4837 9f3e 9128 f7bd
00000040: 090c cb3c 984b fb3d 463d 00be a050 edbd
00000050: eeb3 56be 99ea 6abe 4925 27be f71a 383c
00000060: 5cd0 6c3d 20ab f43c 376b 5b3e ecc2 a83e
00000070: 8b25 83bd 25c9 c83d 8db4 06be b365 873e
00000080: 5d4c 58bd 4be4 d53e b6df 2cbe e05d 6cbe
00000090: b0e8 fcbc 7cf1 603e 99d3 7c3e debb a4be
000000a0: cc9b 8dbd 1ec7 193e ef06 373e 054d d9bc
000000b0: 3a65 bebd 6a02 53be e3b0 803e b4be 63be
000000c0: 3092 833d 136c 01be 808d 93bc 790a febd
000000d0: dee2 a83d 5f26 52be dc94 3ebd 09f8 863d
000000e0: 9567 abbc 89f2 133e 4c06 c4bd f70f 8bbe
000000f0: 34d0 9d3e 4482 cebd 921d e4bb 69e6 813c
00000100: f981 11bd b2b5 b43d 064d 1fbe 8e7d c7bd
00000110: af5c 28be 4681 0dbe baae 5bbd 3881 d33d
00000120: 0ef1 cf3d 26fd 19be 28df f03d dfea 043e
00000130: 5b6c d03b 7a23 7abd 2929 2d3a eee9 3cbe
00000140: 7ea0 033e 87bd 153e 3099 1a3e 7aa7 2b3e
00000150: 6b4b 7d3c 7560 b2bd 2554 fabd 4e89 4dbe
00000160: 0305 46bc 2ef2 573c 0b89 eebe b6a1 6d3d
00000170: 57af 803d e068 dbbd f06a 38bd 80ea 213e
00000180: 78f4 d8be c994 3fbc 382e 12be 4b22 c03e
00000190: 544f 133e ad10 07be 312b 2cbe 996d d1bd
000001a0: 9cff 153e 4d2d 853c 1d96 27be 5e8a 263e
000001b0: 0daf ad3e 5723 ddbd 1a92 f53e 1469 83be
000001c0: 809b ddbd 37db 363d a61f 9b3d 8a29 f4bd
000001d0: aaba d63d 2f06 2dbe 536c 1e3e 1f4f 9abd
000001e0: 79af 253d 53f1 95bd 163f ebbe 02e3 083e
000001f0: 3f8d e5bd a409 0f3d adce 123c 4280 293d
00000200: a99c 0ebe 3b70 86be 815a c1bb 4607 8dbe
00000210: e8bd c5bd 3906 183e 1958 17be 4e57 2fbe
00000220: a330 983e ebf2 553e 9da4 2c3e a445 283d
00000230: fe6c db3d b066 103e 4887 733c d904 4cbe
00000240: 756b d5be 05fe aebd cc9f 52be db1d 1abe
00000250: 7312 0cbe 886a 0abc f365 3a3c aa13 2a3d
00000260: 3cd5 b73d 7756 c23e 3fd5 e03c 58f5 8b3e
00000270: 3f8c 283d 5467 5cbd facf 00be d54a e43d
00000280: 6a47 f9bd 7d66 333d e582 a1be 5227 893e
00000290: 3991 6dbe b8bd e13d 39a2 84bc af76 56be
000002a0: 75c6 90be b8c7 323e 6fa1 203e 7ce6 00be
000002b0: 6b5a 9e3d 86db f2bc f57b 653e ef85 903e
000002c0: b2fe 533d a409 873e 03a0 473c 1fd7 a9be
000002d0: db82 5cbc e73e b1bd 8897 49bd 562b 193e
000002e0: adad 6ebe adf8 d53d 7156 cdbd 1c81 c4bd
000002f0: c331 97be d07c edbd cb52 3a3d 71b8 0bbe
00000300: a836 9cbd 3f7a 783e 1a48 2e3e adb2 19be
00000310: e8ec 4c3e 1b32 56be 757a 573e e0d6 933d
00000320: 4a09 30bd 16c2 82bd 5441 d33d 5291 ecbd
00000330: f8a1 8fbc a3be 3ebd 9608 f0bd 5085 87bc
00000340: 3334 d9bd 1f0d debd 6a02 babe 2126 5abe
00000350: 0213 9a3e 960c 0ebc e7d9 0a3d 2a4b 83bd
00000360: c873 47be fa80 873d 72c5 59bc 2622 443c
00000370: cc9f 1a3e 6825 63bd 2def d9bd 58a8 12be
00000380: eff9 8ebe 19fc 20be 72e1 09be 26ff 11be
00000390: a8fe efbd 2878 56bd 4a1a b93d e471 2d3e
000003a0: f168 1b3d 7653 c93d 504f bbbd 21d7 5abe
000003b0: fb9e 873d c9c3 f4be 0b38 773e 96b4 333e
000003c0: a337 bb3e 64c8 6f3e 0165 6ebe c5a4 373e
000003d0: 3d6e d83d bc56 823e 6459 3abe d861 d4bc
000003e0: 796a 6cbd 63ee babc 4828 173d 9dd4 c83b
000003f0: 47c5 113e 96d5 563d ed97 45be 83eb 943d

conv4.bias f4 [35]
0.01896928 -0.042722374 0.045949653 0.0131511465 0.077160165 -0.14020132 -0.10336104 0.03268258
0.011162485 -0.022218727 -0.033301454 -0.0048629628 -0.14340682 -0.0058426014 -0.07536239 0.03386903
0.0649842 -0.039575014 -0.12552221 -0.10117491 -0.07124065 -0.04714454 -0.039822016 0.0063867373
0.024905246 0.011393898 0.0028450878 -0.08258212 0.049130667 -0.004643417 -0.09384372 -0.10937783
-0.047194112 -0.04716976 -0.0062944097
00000000: 7765 9b3c a8fd 2ebd b435 3c3d e877 573c
00000010: 2606 9e3d ef90 0fbe f4ae d3bd 2bde 053d
00000020: dbe2 363c 0c04 b6bc 1b67 08bd 7d59 9fbb
00000030: 3dd9 12be 4b73 bfbb 9957 9abd 41ba 0a3d
00000040: 7016 853d 6919 22bd e588 00be cb34 cfbd
00000050: 9ee6 91bd a21a 41bd 691c 23bd d647 d13b
00000060: 1606 cc3c 79ad 3a3c a774 3a3b d120 a9bd
00000070: 3d3d 493d ce27 98bb 2331 c0bd 7c01 e0bd
00000080: 9d4e 41bd 1435 41bd 5641 cebb

fc.weight f4 [17, 630]
-0.036560874 -0.016884899 0.026537849 -0.084823035 0.066345915 -0.052232858 0.04897469 0.047883667
0.03331068 0.054999106 -0.046320472 0.028241213 0.03450665 0.047003604 0.027170034 0.023151504
-0.058175012 -0.008264998 0.0806186 -0.087562084 -0.084748164 0.065809645 0.04144865 -0.07402237
0.09806786 0.118085936 -0.08622213 0.054328717 -0.060707364 -0.13905117 0.07133546 0.030250696
0.0083069075 0.08418211 -0.08304436 0.03207156 0.059610963 -0.0796896 -0.03634386 0.024205316
0.03510974 -0.021392798 -0.000863579 -0.022284018 -0.06133858 -0.0072168997 -0.06813735 -0.033936363
0.0057516224 0.011210248 -0.0812587 -0.07758265 0.058275733 0.105371036 -0.049441744 0.0023382737
-0.019012082 -0.15416026 0.053240255 0.06412768 -0.027343927 0.0680449 -0.042179782 0.024836425
0.0014959673 -0.039192308 0.08954922 0.025151586 -0.03210755 0.035256233 -0.031077685 -0.042536028
0.031753786 0.005382847 0.077414356 -0.008733041 -0.024905775 -0.030651687 0.13739313 0.053583693
-0.016298763 -0.020651318 0.0053484803 -0.02313817 -0.03095369 -0.023668226 -0.02089115 -0.02693449
-0.10162346 -0.019534023 0.060738474 -0.04758531 0.014323276 0.029611183 0.061148524 -0.004715822
0.06678662 -0.019912872 -0.028267058 -0.124650046 -0.023017095 -0.02284214 -0.025896456 0.07979752
-0.10675871 -0.012928341 -0.07948157 -0.023962667 0.026920056 -0.026028585 -0.026092442 -0.071141124
-0.014979257 0.0075576114 0.03983875 0.056079537 -0.036883634 -0.07530069 -0.087659046 0.015747748
-0.042155337 -0.04963767 -0.09861595 0.11183427 -0.012526307 -0.07019524 -0.0026251643 -0.0033047271
-0.0369078 -0.07299136 -0.098679505 -0.048321925 0.13698901 -0.10701673 -0.12935653 0.039801605
-0.03578404 0.067412265 -0.09681592 -0.049444962 0.0012201401 -0.1187531 0.13606341 0.053262495
-0.020601673 -0.0009462951 0.046582382 -0.044834483 0.08560935 0.06983037 0.0024100654 -0.042338163
-0.05630134 0.010039755 -0.025908954 -0.0075001237 -0.052677594 -0.014391147 0.085851766 -0.07019806
0.010252647 -0.016745046 0.10442265 -0.044254556 -0.023899453 -0.02718831 -0.05235549 0.014980742
-0.020859381 0.004129059 0.07452402 0.014801205 -0.08992746 0.011016631 -0.04710498 -0.026688425
-0.022204524 -0.0012598516 -0.008541801 -0.057250675 -0.013440525 -0.021632867 -0.03627286 -0.00049734727
0.0014754419 0.051679004 0.047004186 -0.0069339923 -0.038601838 0.034139812 0.071475685 -0.0051190606
-0.02337562 0.021178758 0.039555058 -0.029272657 0.011898893 -0.04445454 -0.0939904 -0.007006911
-0.035707247 0.042649213 -0.015222969 0.016287634 -0.08568877 -0.026987959 0.110264845 0.011964909
0.05095662 0.005714428 -0.012089109 -0.043609295 -0.025048558 0.005969269 0.021928776 0.03829339
-0.031908225 0.06320159 0.0005618072 0.008996335 0.071601845 -0.017216586 0.03039095 0.15749833
-0.02876702 0.0056607793 0.10459967 0.013339457 0.018242167 -0.03078983 -0.096510395 0.030403689
0.06646869 -0.023677018 -0.013759039 -0.03445696 -0.02118113 -0.09363147 -0.051248446 -0.103337124
0.059962135 0.0043845996 0.062454134 -0.041965075 -0.07710754 -0.050421324 -0.05918278 -0.010968214
-0.06297103 -0.06108681 -0.02783584 -0.0044898223 0.005929693 -0.058482874 -0.027194057 0.06602718
00000000: dbc0 15bd 3352 8abc e765 d93c b3b7 adbd
00000010: 5ee0 873d 1ff2 55bd af99 483d aa21 443d
00000020: c870 083d be46 613d 89ba 3dbd 1e5a e73c
00000030: d856 0d3d da86 403d b193 de3c 39a8 bd3c
00000040: ec48 6ebd ea69 07bc 5d1b a53d c053 b3bd
00000050: 7290 adbd 35c7 863d 0fc6 293d 0a99 97bd
00000060: cdd7 c83d 0ad7 f13d 3a95 b0bd ca87 5e3d
00000070: 49a8 78bd 6e63 0ebe 5318 923d 4fd0 f73c
00000080: b219 083c ac67 ac3d 2913 aabd 785d 033d
00000090: a02a 743d 4d34 a3bd 4ddd 14bd 3a4a c63c
000000a0: 3bcf 0f3d f33f afbc ce61 62ba f98c b6bc
000000b0: 2a3e 7bbd be7b ecbb 988b 8bbd db00 0bbd
000000c0: 1b78 bc3b 30ab 373c f66a a6bd a7e3 9ebd
000000d0: 89b2 6e3d c5cc d73d 6d83 4abd b93d 193b
000000e0: 3abf 9bbc 30dc 1dbe 7412 5a3d 6055 833d
000000f0: 5f00 e0bc 205b 8b3d b5c4 2cbd c275 cb3c
00000100: 5514 c43a 1d88 20bd 9565 b73d b30a ce3c
00000110: 3583 03bd d768 103d a196 febc 423a 2ebd
00000120: 4210 023d 9862 b03b 6b8b 9e3d 0715 0fbc
00000130: 3207 ccbc 3f19 fbbc c9b0 0c3e 937a 5b3d
00000140: fc84 85bc f42c a9bc 4e42 af3b 428c bdbc
00000150: 9892 fdbc dee3 c1bc eb23 abbc b8a5 dcbc
00000160: f61f d0bd d105 a0bc e8c8 783d d0e8 42bd
00000170: 2cac 6a3c 2793 f23c e076 7a3d 2f87 9abb
00000180: 6cc7 883d 5220 a3bc 5190 e7bc 8648 ffbd
00000190: 598e bcbc 711f bbbc ce24 d4bc e26c a33d
000001a0: 50a4 dabd 64d1 53bc 3cc7 a2bd 5b4d c4bc
000001b0: 7387 dc3c e639 d5bc d1bf d5bc 70b2 91bd
000001c0: 8f6b 75bc d7a5 f73b f52d 233d a8b3 653d
000001d0: 4b13 17bd 4037 9abd 9686 b3bd 6c01 813c
000001e0: 13ab 2cbd df50 4bbd 29f7 c9bd 5e09 e53d
000001f0: 243b 4dbc 86c2 8fbd f30a 2cbb 1f94 58bb
00000200: a22c 17bd 7f7c 95bd 7b18 cabd 36ed 45bd
00000210: d946 0c3e 962b dbbd 0a76 04be 0207 233d
00000220: 4992 12bd 710f 8a3d 6d47 c6bd cd86 4abd
00000230: 1ced 9f3a d334 f3bd 3554 0b3e c629 5a3d
00000240: d7c4 a8bc ca10 78ba 2bcd 3e3d 5da4 37bd
00000250: f453 af3d 3a03 8f3d 30f2 1d3b c86a 2dbd
00000260: 3c9c 66bd c97d 243c 043f d4bc 99c3 f5bb
00000270: 76c4 57bd d8c8 6bbc 0dd3 af3d 00c4 8fbd
00000280: b8fa 273c e82c 89bc 8bdb d53d 4444 35bd
00000290: c9c8 c3bc 05ba debc b672 56bd c971 753c
000002a0: 4be1 aabc 0f4d 873b 0da0 983d c180 723c
000002b0: e32b b8bd 197f 343c 27f1 40bd afa1 dabc
000002c0: 43e6 b5bc 9b21 a5ba e9f2 0bbc af7f 6abd
000002d0: a635 5cbc 6937 b1bc da92 14bd 6960 02ba
000002e0: 9d63 c13a 5dad 533d 7687 403d 8b36 e3bb
000002f0: f61c 1ebd 30d6 0b3d d861 923d cbbd a7bb
00000300: 3a7e bfbc 137f ad3c 7c04 223d 36cd efbc
00000310: 93f3 423c f715 36bd 0a7e c0bd 3b9a e5bb
00000320: c341 12bd f1b0 2e3d c369 79bc a56d 853c
00000330: 987d afbd da15 ddbc 89d2 e13d 7708 443c
00000340: e4b7 503d 1940 bb3b 6611 46bc a99f 32bd
00000350: a232 cdbc dc99 c33b faa3 b33c 88d9 1c3d
00000360: 33b2 02bd d66f 813d 3e46 133a 5d65 133c
00000370: fda3 923d cc09 8dbc 71f6 f83c 3e47 213e
00000380: d0a8 ebbc 0f7e b93b 5a38 d63d bd8d 5a3c
00000390: 9970 953c f43a fcbc 3ea7 c5bd 2811 f93c
000003a0: bd20 883d 4ef6 c1bc 986d 61bc be22 0dbd
000003b0: 0d84 adbc dbc1 bfbd e4e9 51bd 6aa2 d3bd
000003c0: db9a 753d b0ac 8f3b e8cf 7f3d 92e3 2bbd
000003d0: 8fea 9dbd 9786 4ebd a569 72bd 06b4 33bc
000003e0: f5f6 80bd 2a36 7abd fd07 e4bc 5c1f 93bb
000003f0: df4d c23b bd8b 6fbd 12c6 debc 4239 873d

fc.bias f4 [17]
-0.019358145 -0.031807598 -0.013956174 0.11350949 -0.058425535 -0.089448184 0.02705347 -0.018511962
-0.043981805 -0.016526908 0.09172982 -0.057128884 0.07870315 0.05676232 -0.051020816 0.044788796
-0.012380991
00000000: f994 9ebc af48 02bd 70a8 64bc aa77 e83d
00000010: 9d4f 6fbd 9c30 b7bd 3d9f dd3c 66a6 97bc
00000020: 4426 34bd 7063 87bc d8dc bb3d faff 69bd
00000030: 1e2f a13d 9b7f 683d 34fb 50bd 7574 373d
00000040: a4d9 4abc
