checkpoints/hamida_et_al/no_class_balancing/IndianPines_PCA_15/epoch10_0.87.pth (torch, 191622 bytes, 14 tensors)

conv1.weight f4 [20, 1, 3, 3, 3]
00000000: 3808 39be 7068 96bd ab8d 183e 4023 513e
00000010: eab3 a33e 67ff 0c3e e8c6 dd3d bf2f 8cbd
00000020: e54a 1abf d24d 663e 6ce9 983d bb5b 70be
00000030: 2046 96bc 482d 9abe 9862 95be ecfe 8abe
00000040: 287c 973e ca4e 423e cfb6 873e 85ba fd3c
00000050: 2b17 8bbe b541 a03e 9ee1 1a3e c53b a3bd
00000060: 563f 47be 564e 2fbd b7fc 03bf 6f7d 87bd
00000070: ec90 1f3f 55b8 cfbe c282 57be 08e0 3c3e
00000080: b7f2 8c3e 8748 acbc 5f22 263e 8c9d 7abe
00000090: eb97 a33d a80e 90be f3c8 bcbd 8db3 0d3f
000000a0: abd6 f7bd e434 56be 5a08 c6be 6995 dc3d
000000b0: 5e70 8b3e af7b 11be bfb4 063d 1c85 ff3d
000000c0: c1d0 9ebe 3e01 06bf 9252 513d 8769 09bb
000000d0: 1cdf e3be d44d 3cbe 7328 c6bd d426 14bf
000000e0: ca2a b53e 732a afbe 178c f33d 7124 6e3e
000000f0: 6362 8dbe 31a4 8fbe 579d 33be 75be 853e
00000100: 8da0 593e 0afe c3be 64a3 1fbe ecde d33d
00000110: 367c 9f3d f6a3 08be 04e8 8bbe f996 7dbd
00000120: 2de6 293e 6841 293d b14d 773e ed08 34be
00000130: 4752 c83e 40a9 3ebe 9fd2 853e e0e8 aabc
00000140: 0d8e e93e 4524 9abe 868a a8be ed25 6fbd
00000150: b5a2 c8bb c957 203e f0f9 2ebe 0325 fc3b
00000160: 9852 fbbd 9ebb 86be a2bb 753e 313e ac3d
00000170: 2a6f ccbc 5d53 d7be 0f88 34bf 77ef 1ebe
00000180: 18ec d63d e335 0f3e 6c98 fdbd c054 333f
00000190: a703 923e 35f9 1c3f 340a 09bd 5eaa 133f
000001a0: 1375 e13e c866 babd 122b 5a3d 621d a73e
000001b0: f5b8 7b3d fa2e 1abe 431b 153f de5c 873e
000001c0: 104d 1cbe cfa1 af3d 50a5 093e 61f7 af3d
000001d0: 3967 e93e 6b0e abbd fdc9 7dbc 210e 083f
000001e0: bb21 093f b94b 4d3e f905 823e 389c d63d
000001f0: a82c 85bc 5332 303f 02c6 84be ae5e 963e
00000200: 2376 163d 1524 afbe 2bcd 06be d6b6 b3bd
00000210: 5554 03bf 83bd 9bbd 1dcc cabe e715 033f
00000220: 6525 7d3d f259 323f 94e4 063e b862 04be
00000230: c93b 9e3d ed3a 183e 6813 69be 98a7 0e3f
00000240: bf66 46be 3010 913e fa59 43bd db09 aabe
00000250: e501 113c 9734 08be 5602 bdbe 76ce 70be
00000260: 3d91 333f 65cf 57be d136 86be b33a 8ebe
00000270: 3d1f 523e b8d5 ed3d 45ce 18be f833 58be
00000280: 300b 31be b318 dbbc a7c5 a23e cfd9 973e
00000290: 9372 243e 635c efbd 7726 3d3e 82eb 04bf
000002a0: 44a3 c0bc d3c1 2dbe ec2e e2be 76be d43d
000002b0: ef1e c8be 744d aabc 753e 09bf 7f7a 92be
000002c0: a28f 8cbe 81bd 3c3e 56d4 b9bd ff8e f9bc
000002d0: 700c b23d d9f8 98be 1c37 babd af79 833e
000002e0: 91d8 06be 8255 8cbe 33fc 483d d20e b7bd
000002f0: 1d9a 8bbe 40ad 363e 96b2 f43d e708 473e
00000300: c1e7 f33e fd42 6f3c cabc ddbe 4e2c 0e3f
00000310: ec8e 983e df46 30bd c231 94be da89 a739
00000320: 23cb 113d 179b 613c 6377 18be 2709 aebe
00000330: 8730 0c3f 1e48 ae3e 8731 06bd deec 19bd
00000340: f362 b2be 1df5 033f 9d0e 10be 2890 02bf
00000350: cb5b 87be 2396 153d 3001 0ebe 80c8 f3bd
00000360: abab 233e d8fc b5bc 14f3 83bc 2eac 12be
00000370: 2ce9 07bf e058 d3bd 63cf 6fbd addd 38bc
00000380: 56cb 5e3d c3e2 3bbe 9ef1 01be 64ab fe3e
00000390: 4097 2ebd ab4a 93be 70aa 57be e628 45be
000003a0: 73d8 6abe 3ccc f83c 5916 423e dc1e 6f3e
000003b0: 0e85 b0bd 8751 ee3d 4516 4e3e 92e7 8bbd
000003c0: f007 b23e c891 2dbd 1e49 5d3e 1846 333e
000003d0: 425d 30bd 0ca4 8e3d e93c 0ebd 0994 e3be
000003e0: fcba c73d b6db 383d 1cc1 6fbe a8bc 8b3d
000003f0: 5619 08be 2c39 15bf a746 5dbe 1e5f a0bc
-0.18069541 -0.073441386 0.14897792 0.20423603 0.319732 0.13769303 0.10828954 -0.06845044
-0.6027053 0.22490624 0.07466397 -0.23472492 -0.018343985 -0.30112672 -0.29176784 -0.27147615
0.2958691 0.18975368 0.2650666 0.030972729 -0.27166113 0.3130013 0.15125129 -0.079703845
-0.19457754 -0.042799316 -0.5155749 -0.066157214 0.6233051 -0.40570322 -0.21045974 0.18444836
0.27528927 -0.021030677 0.16224049 -0.24474162 0.079879604 -0.28136182 -0.092180155 0.553521
-0.121014915 -0.20918614 -0.38678247 0.10770685 0.27234167 -0.14207338 0.032887217 0.124765605
-0.31018642 -0.52345645 0.051104136 -0.002096744 -0.44506156 -0.18389064 -0.09675684 -0.57871747
0.35384208 -0.34212074 0.118919544 0.23256089 -0.27614126 -0.28054956 -0.17540489 0.2612187
0.21252652 -0.38279754 -0.15589672 0.10345253 0.07787363 -0.13343796 -0.2732545 -0.061911557
0.16591711 0.041322142 0.2415073 -0.1758153 0.39125273 -0.18619251 0.26137254 -0.020862997
0.4561619 -0.30105796 -0.32918185 -0.05838578 -0.006122912 0.15658487 -0.17087531 0.007694842
-0.12271613 -0.26315016 0.23997357 0.084102996 -0.02495535 -0.4205579 -0.7052011 -0.15521036
0.1049425 0.139854 -0.12382588 0.70051193 0.28518412 0.6131776 -0.033456996 0.57681835
0.44034633 -0.09101635 0.05326373 0.32639605 0.061455686 -0.15056983 0.58244723 0.2643804
-0.15263772 0.085757844 0.13441968 0.08592106 0.45586565 -0.083523594 -0.015490052 0.5314656
0.53567094 0.20048417 0.25395182 0.10479015 -0.016256645 0.6882679 -0.25932318 0.2936911
0.036733758 -0.34207216 -0.13164203 -0.087751076 -0.51300555 -0.07604506 -0.3960885 0.51205295
0.06180324 0.69668496 0.13173133 -0.12928283 0.07726247 0.14866228 -0.22761309 0.5572448
-0.19375132 0.28332663 -0.04769323 -0.33210644 0.008850549 -0.13301311 -0.36915845 -0.23516259
0.7014349 -0.21075208 -0.26213697 -0.2777916 0.20519729 0.11613029 -0.14922436 -0.21113575
-0.17289424 -0.026745176 0.31791422 0.29658362 0.16059332 -0.11687543 0.18471704 -0.51921856
-0.023515351 -0.1696847 -0.44176424 0.1038789 -0.390861 -0.020788886 -0.53610927 -0.28609082
-0.27453333 0.18431665 -0.09073703 -0.030463694 0.086937785 -0.29877356 -0.090925425 0.25678775
-0.13168551 -0.27408987 0.04906864 -0.089383736 -0.27266017 0.17839527 0.11948125 0.1943699
0.47637752 0.014603374 -0.43308097 0.55536354 0.2979654 -0.043036338 -0.28944212 0.0003195543
0.035594117 0.013769886 -0.14889292 -0.33991358 0.54761547 0.34039396 -0.032762077 -0.03757941
-0.34841117 0.5154589 -0.14068075 -0.51001215 -0.2643722 0.036520135 -0.1386764 -0.11903477
0.15983455 -0.022215292 -0.01610712 -0.14323494 -0.5309017 -0.10319686 -0.05854739 -0.01128332
0.054393135 -0.18348221 -0.12689826 0.49740136 -0.042624712 -0.28767905 -0.2106111 -0.19253883
-0.22934131 0.030370824 0.18953837 0.23351616 -0.08619128 0.11636644 0.20125683 -0.06831278
0.3477168 -0.042375356 0.21609923 0.17507207 -0.043057688 0.06964883 -0.034726057 -0.4444888
0.09752461 0.045131408 -0.23413509 0.06823093 -0.13290915 -0.5829036 -0.21608983 -0.019576605

conv1.bias f4 [20]
00000000: 0000 0000 0000 0000 fa83 323d 8575 1ebe
00000010: 967a 3abe 5ab1 7abd 0000 0000 96e8 dfbd
00000020: a38c ea3c 080d 2a3a 392c 80bd ce85 91bd
00000030: 8014 283e acd2 4cbd 603f 95be b6db a63c
00000040: 6a9f eb3b 0000 0000 071a 8dba bafe e0bd
0.0 0.0 0.043582894 -0.15474518 -0.18210825 -0.061204292 0.0 -0.10933034
0.028631514 0.0006486927 -0.06258435 -0.07105599 0.1641407 -0.0500056 -0.29149914 0.020368438
0.0071906345 0.0 -0.0010765203 -0.10986085

pool1.weight f4 [20, 20, 3, 1, 1]
00000000: 1b75 01bd 010f a8be 5e52 a9be 568b 953b
00000010: c415 31be 7d81 a0bd 9c7d 13be 441c 51be
00000020: ee7f 1cbe b2c0 243c 5451 8a3b 33ec 76be
00000030: 23bb 9f3d 09fc f0bd 6c19 2e3e 84f6 003e
00000040: 82a5 afbd e844 c03d a5c7 16be 67a6 00be
00000050: 01e0 053f dcd6 413e 47f3 94be 82fe 8e3e
00000060: e7d1 823e 0feb 3abe ed69 85be abe6 933d
00000070: f379 e43c e030 91be e083 bdbc 40dd 11be
00000080: 936b fdbd 11e9 0d3e 68fc 9c3e 4dbc 07be
00000090: f732 44be a1be 99be 1a2a f33d 8218 2abe
000000a0: 1cef 98bd ec9f 92bd 6c26 42be a01b 82bd
000000b0: 873e 45be 3b36 363e 4a75 113e 1e3a 1f3e
000000c0: 91fb 6e3c d2ba 933d 4c1f 3fbd 5791 5dbc
000000d0: 09aa 39bd 8038 f8bd 0118 95bc b176 b8bd
000000e0: bc83 433e 7e0f 4f3e 7f7d a73e 317a 033e
000000f0: 15db 673e 2ecb 7e3e 22be b83d 35ad 023e
00000100: 510f 03be bf30 853e 2ffa 9abe bcd1 943d
00000110: b048 10be 7303 5d3e 3ceb 87be 7e4b e5bd
00000120: 8ec0 b0be d5f4 163d 1d1c 4bbd 83f7 863d
00000130: b7e0 d9bd 2983 8bbd 3691 f63e e5ce cabd
00000140: 09be 27bd 80da 99be 8327 653d f031 35be
00000150: b76e 4e3a 7cc1 2ebe 9b24 b1be 3588 713e
00000160: 9e04 093e 3f0f 233e 61a7 da3b 30db 97be
00000170: 305f 6ebd c8f3 c0bd 8e7e 193d d25b 60be
00000180: dfae 823e ccb4 693e 8867 843e 3dce f23d
00000190: c8d1 8a3e 5327 223e 65f3 313e 8a4c 2b3e
000001a0: 5484 c9be 5244 003e e6fb 0d3e 05b1 a6be
000001b0: bb18 3c3d 2c61 e2bd 8f77 a33e b65c 0cbe
000001c0: 7baf 4a3d 6349 09be 7469 9abc 828a fbbc
000001d0: bb35 cebd 80a5 763e 9079 073e ddcf 323d
000001e0: e09c 4cbe e3ba 96bc 4983 8dbe 04c7 8e3d
000001f0: 6e4c 643c c49d 7bbe d709 1d3f c862 c8be
00000200: e291 f23d 2e95 c13d 2744 803d ecad 853d
00000210: de09 6ebe 49e7 d13e 36e1 08be 75df a1be
00000220: c610 813e 1983 6b3e b830 1c3e da74 84bd
00000230: 096a 743e 176f 9cbe 7451 81bd c486 0b3e
00000240: 373e 1bbd 85f3 e2be 273b a0be 4b61 c73e
00000250: 7265 b73c dbb1 8e3e ff7f 08bf 1d19 a6bb
00000260: 1aef f93d f4ff ddbe 1dd8 77be 4528 963d
00000270: 44d7 123e 3b0d a93a d8c7 97bd 7ecb da3e
00000280: f60a 3b3e 927c 0abd 5a02 95be dab9 7dbe
00000290: ef9a 9b3e 571e b73b 3a3c 593d 86ce ea3d
000002a0: b448 15be e927 9dbd 9967 033e 02d8 803e
000002b0: a5fb fb3e 2d6d 753d 99e7 94bc 419b 5cbe
000002c0: 326f d9bd a45b 343e 7db7 bb3e 688d 9fbd
000002d0: 73de 20be b89e 483e 8cd6 3b3e 1712 223c
000002e0: 2c87 703c b30a 0e3e aa28 653b 7d95 e6bd
000002f0: ad01 813d e922 0f3e c3b2 23be e52b 68be
00000300: 4b51 04bf 2612 f43b def2 383e 53e3 25bd
00000310: bbb6 c1bd ba90 3dbd 1649 69bd 24c2 043e
00000320: 7a8c bb3e 3a9e 7ebe 3321 753e d3db 583c
00000330: 7c61 613e c7fb 003d 621f 923d 518e a03e
00000340: 2f9c 7abd 8704 693e 4a9f 82be f686 eebd
00000350: f8b0 413c 4d61 dbbd 9fc9 8e3d 4ed8 5f3e
00000360: dfd5 f53d 4e04 933e c933 ebbe 5ff8 2b3e
00000370: f5f5 8c3e 0002 7ebe 1012 163e a097 2cbe
00000380: 0242 1a3d 35f1 0f3e f7cd bc3d b58b 92bd
00000390: c60e 1cbe 7302 33be c57f f83c d398 54be
000003a0: c5bd 1b3e 3319 c23e 9961 1b3d 309c 923d
000003b0: d7bf 1b3e 04a2 27be 7fe6 ed3e 48ce 37be
000003c0: 7f32 c2bd 137a fc3d 49bc e33c 7b8d 0fbc
000003d0: 1ca1 133e 8c1e 6bbe 49d2 d1bd a634 713d
000003e0: 19b3 cd3d cfae e0be dd98 1ebe 74aa 263e
000003f0: 8b44 a73d 6392 60bd ba51 b2be b5d3 9a3b
-0.03160582 -0.32823947 -0.33070654 0.0045637293 -0.17293459 -0.07837198 -0.14403385 -0.20420939
-0.15283176 0.010055708 0.004221121 -0.2411354 0.07799365 -0.11766822 0.17001885 0.12594038
-0.0857649 0.09388143 -0.14724596 -0.12563477 0.5229493 0.18929619 -0.29091856 0.2792855
0.25550768 -0.1825373 -0.26057377 0.07221731 0.027890181 -0.283576 -0.023134172 -0.14244556
-0.12374034 0.13858439 0.3066132 -0.13255425 -0.19160067 -0.3002825 0.118732646 -0.16610911
-0.074674815 -0.07159409 -0.1895997 -0.06352925 -0.19262134 0.17794125 0.14204898 0.15549514
0.014586345 0.072133675 -0.046660706 -0.013523421 -0.045328174 -0.121201515 -0.018199923 -0.090070136
0.19093221 0.20220754 0.32712933 0.12839581 0.22642167 0.24882194 0.0902064 0.12761386
-0.12798811 0.26013753 -0.30269 0.07266566 -0.14090228 0.21583347 -0.26546657 -0.111960396
-0.34521908 0.036854584 -0.049587358 0.06590178 -0.10638564 -0.06812126 0.48157662 -0.09902743
-0.040952716 -0.30049515 0.055945884 -0.17694831 0.0007874774 -0.17065996 -0.3459824 0.23587115
0.13380668 0.15923785 0.006672785 -0.29659414 -0.058196247 -0.094214976 0.037474208 -0.21910027
0.2552404 0.22822875 0.25860238 0.11855743 0.27113175 0.15835313 0.17378004 0.16728416
-0.3935877 0.12526062 0.13865623 -0.3255693 0.045922022 -0.1105369 0.31927153 -0.13707241
0.049483757 -0.13406901 -0.018849112 -0.030705694 -0.10068842 0.2408657 0.13229966 0.043655265
-0.19981718 -0.018399661 -0.27639225 0.06971553 0.013934238 -0.24571902 0.6134314 -0.39137864
0.11844231 0.09452282 0.06262999 0.065273136 -0.23245952 0.4099677 -0.13367161 -0.31615797
0.2520811 0.22999229 0.1525296 -0.064676 0.23868574 -0.30553505 -0.06314364 0.13625628
-0.03790113 -0.44326416 -0.3129513 0.38941416 0.02238724 0.27870068 -0.53320307 -0.0050689117
0.12203808 -0.4335934 -0.24203534 0.073318996 0.1433993 0.001289762 -0.07411164 0.42733377
0.182659 -0.033810206 -0.29103357 -0.24777928 0.30391642 0.0055883336 0.053035952 0.114651725
-0.14578515 -0.07673628 0.12832488 0.251648 0.49215427 0.05991857 -0.01817684 -0.215436
-0.10616912 0.17613083 0.36663428 -0.07790643 -0.15709858 0.19591796 0.18343562 0.009892008
0.014680665 0.13871269 0.0034966865 -0.112589814 0.06299148 0.13978161 -0.15986161 -0.22672994
-0.51686543 0.0074484525 0.18061396 -0.040499996 -0.09458681 -0.0462806 -0.056954466 0.12964684
0.36630613 -0.24865046 0.23938446 0.013236004 0.22009844 0.031490114 0.07134892 0.3135858
-0.061184105 0.22755633 -0.25512153 -0.116468355 0.011821978 -0.10711918 0.0697205 0.21859857
0.12003683 0.28714222 -0.45937946 0.16793965 0.275314 -0.2480545 0.14655328 -0.16854715
0.037660606 0.14056857 0.09218972 -0.07155553 -0.1524001 -0.17481403 0.030334363 -0.20761423
0.1520911 0.3790985 0.037934873 0.07158697 0.152099 -0.16370398 0.46464917 -0.17949784
-0.094822876 0.12327971 0.027799742 -0.008761759 0.14416927 -0.22960871 -0.10245187 0.0588881
0.10043926 -0.43883368 -0.15488 0.1627596 0.081673704 -0.054827105 -0.34827977 0.0047249445

pool1.bias f4 [20]
00000000: 4bf5 76bd 875b 16bd bbeb 5b3c 9453 003e
00000010: 7105 313d 06de 19bd 9e4c ee3d a5fc ef3b
00000020: 40ea 593d 8b6e 3cbd 74a3 433d c79d d5bb
00000030: 1a60 463c 4865 29be 1a5c e63d ccfe a0bd
00000040: b72d 6fbd 9bba cf3c 4b5e c33d 7593 a83d
-0.060292523 -0.03670838 0.013422902 0.12531883 0.04321808 -0.037565254 0.11635707 0.0073238187
0.053201914 -0.04600386 0.047763303 -0.0065190527 0.012107873 -0.16542542 0.11248036 -0.07861099
-0.058393206 0.025357535 0.09539469 0.0823125

conv2.weight f4 [35, 20, 3, 3, 3]
00000000: 1bd8 2cbd 741e 83bc a59c 473d 0b05 3e3d
00000010: cb4e 5d3c 55d5 573d ac86 023d 2a48 40bd
00000020: 703e b6bc c709 90bd 2d32 49bd db82 94bd
00000030: c165 c6bd baa0 a3bd 75e5 8d3d 42d5 f6bc
00000040: bfb7 493c 9490 2f3d fe46 4f3d dd22 d13d
00000050: f25c 06bd c600 603c 58f1 ccbc 04aa eb3c
00000060: 7af8 deb9 9d7a 613c 1935 43bd 70dd df3c
00000070: 51ae 1abd b086 17bc 53bd 5d3d 3046 a73c
00000080: cb02 89bc 4c9f a9ba dece 32bd 935d 8dbd
00000090: a10c 65bd 7b35 a83d 995d 113d 8509 82bd
000000a0: 8bb4 0e3d 4a0b d0bc 7404 fb3c 373d 83bd
000000b0: ff93 25bc c499 4d3c 47cc a33d 07c2 cd3c
000000c0: 93d9 01be 5e54 c1bd b97b 7ebd 7d1a bcbc
000000d0: 877e 373c ff26 b03d f488 e2bd 229b 18bd
000000e0: 3a5f 883b 417d f6bd 3e11 c5ba 0573 a53d
000000f0: d4f1 3bbd 746e a33c 0f26 62bd da74 cd3b
00000100: a4a3 ed3c c236 be3c 341b 213d f966 08be
00000110: e888 943c 3d9e 383d e39c f83c d959 ac3c
00000120: 39ff c2bc 399b db3b 2d8d be3c 94ba 923d
00000130: 99c4 833d 58bf 82bc 24b5 33bd bb0e e8bd
00000140: 0706 40b8 e804 77bd d471 093d 92f6 b53d
00000150: 0699 e5bc 7047 92bd de89 a5bd 9ff5 94bc
00000160: d268 fcbd 53c0 5e3d 489a 2fbd c4e6 d13c
00000170: f30f c03d 1c11 c2bc 3e6c c73c 3366 b63d
00000180: 5199 90bd d357 82bc 24bd a2bc e9f5 e5bc
00000190: aa22 a53c 301d b43c b4f4 5ebd ba79 01bd
000001a0: 3135 6dbd c2b2 7d3d fbf7 773d 26f9 253c
000001b0: 4e9f 563d 8c4a eabd 125a c93d 87e7 6d3c
000001c0: fd8f 1c3d 99a6 9e3b ec91 dbbd c76d e8bc
000001d0: 96b9 1f3d 36bd eebd b17c 0f3d f30f f43c
000001e0: 1bd7 d33d 3406 873d 5f72 953d 9295 a4bd
000001f0: e167 b3bd 81c0 b2bd 0d24 1b3d c9d6 6a3d
00000200: 97fc 293c 8ff0 60bd 7435 b13d 0920 5abc
00000210: 0c3c aabd a702 f7bc 68e4 023d 583a b23d
00000220: 7c8c 943c 3eed ad3c 9c3a bb3d ab77 bcbd
00000230: 16fb d53c c8e4 103d 92a3 22bd b6ec 843c
00000240: ccc9 2f3d 5fe4 93bd 5a81 e83c c809 ca3c
00000250: f927 20bd f53c 09be 88c9 a0bd 88ae fb3b
00000260: 6429 563a 874f 5d3d 823a 8bbc 031f 9dbc
00000270: ccec 7c3d b96c 28bd 048f e93c 6657 52bc
00000280: a1f8 20bd a07b 20bd 3510 d5bb 030a 863c
00000290: 0065 deb8 04d2 2c3d 37c6 19bd 06dc 9cbd
000002a0: 28b3 353d 2ff6 023e 7c08 1fba b325 753d
000002b0: ffd3 85bd ad02 82bd 4e88 a5bd 8252 27bd
000002c0: 67ad c9bc be90 babc 33ce 4abc a4bb 8bbd
000002d0: d945 fa3c 6164 fc3b a9da 643d 4fd9 72bd
000002e0: 14d3 18bc 7c12 aabc 0b42 d73d 65ed 203b
000002f0: 6d81 883c 97b5 0a3d b308 a53d f797 e9bc
00000300: a5c4 36bc 2741 973d 4ef9 acbc 239e b43c
00000310: aeec 483d bfea b93d 67a2 51ba fe82 0a3c
00000320: 1047 383d 5338 1ebd 2641 3fbd 1827 c83c
00000330: a56b 97bc 90f0 d1bd 59b6 0ebd 919f fe3d
00000340: 31b0 23bd 0d73 fc3c d6d9 c93d 7d01 a43a
00000350: c128 a63d 55fc 04bd fe98 d23b 49fc b73b
00000360: 40fa af3d 47c3 143c a765 b83c fc18 06bd
00000370: 672c 2ebd a6d8 a6bc 051f d8bc 404f 2cbd
00000380: 245c afbd 80d5 723c a8fd 713c d682 cc3c
00000390: c1b5 d63d a389 f83d 0197 26bc 8091 d8bc
000003a0: a231 8b3c 06db de3d 7c48 88bd 34c9 5d3d
000003b0: db5b 413d 1580 583d 42f8 22bd 213a 7cbd
000003c0: 4dd6 33bd 323d e53d 45b9 653c f946 9a3c
000003d0: 0114 f03d b689 8dbd 9821 983c 5512 e4bb
000003e0: c2de afbd f821 b3bd 085b 8dbd e08d acbd
000003f0: 7b85 373d 4d2d b0ba fd09 55bd dea6 95bc
-0.04219828 -0.016005732 0.048733372 0.046391528 0.013507555 0.052693684 0.031866714 -0.04694382
-0.02224657 -0.07033115 -0.049120117 -0.07251521 -0.09687377 -0.079896405 0.06928531 -0.030130986
0.012311875 0.04286249 0.050604813 0.10211728 -0.032803483 0.013672059 -0.025017425 0.028767593
-0.0004252827 0.013762143 -0.04765806 0.02732727 -0.037763897 -0.009248421 0.05413563 0.02041921
-0.016724965 -0.0012941151 -0.043654315 -0.069026135 -0.055920247 0.082133256 0.035489652 -0.06349472
0.034840148 -0.025396008 0.030641772 -0.0640816 -0.010106086 0.012548868 0.07997947 0.025116934
-0.12680654 -0.0943992 -0.06212971 -0.02296185 0.0111996 0.08601188 -0.11061278 -0.03725732
0.0041617425 -0.12035609 -0.0015035046 0.08078579 -0.045884922 0.01995013 -0.055212077 0.0062700333
0.029008694 0.02321947 0.039332584 -0.13320531 0.018131688 0.045072783 0.030348247 0.021038936
-0.02380334 0.0067018536 0.023260677 0.07164493 0.064339824 -0.01596038 -0.04387392 -0.113309346
-4.578198e-05 -0.060307413 0.03355582 0.0888492 -0.028027069 -0.07142532 -0.08082937 -0.018183528
-0.123246804 0.054382633 -0.042871743 0.025622733 0.09378042 -0.023689799 0.024343606 0.08906212
-0.07060493 -0.015911018 -0.01986558 -0.02807136 0.02015813 0.021986574 -0.054432586 -0.031610228
-0.057912055 0.061938055 0.060539227 0.010130202 0.05239802 -0.1144 0.09831633 0.014520532
0.038223255 0.0048416373 -0.10721192 -0.028372658 0.038995348 -0.11657183 0.035031024 0.029792761
0.103437625 0.0659298 0.07297205 -0.08036341 -0.08760048 -0.087281235 0.037876178 0.05733374
0.0103751635 -0.054916915 0.086527735 -0.013313302 -0.08312234 -0.030152632 0.031956106 0.087025344
0.018133394 0.02123129 0.09142038 -0.09202512 0.026120704 0.035374433 -0.039706774 0.016226154
0.042917058 -0.07221293 0.028381992 0.024662867 -0.03910062 -0.1340216 -0.07850939 0.007680718
0.000816962 0.05403092 -0.016995672 -0.019179827 0.061749265 -0.04111931 0.028510578 -0.01283822
-0.03929961 -0.039180398 -0.006502176 0.016362196 -0.000106045976 0.042192474 -0.037542548 -0.07659154
0.04436031 0.12789224 -0.0006066633 0.059850406 -0.06534576 -0.063481666 -0.08082639 -0.04085017
-0.024618817 -0.022774097 -0.012378263 -0.06822899 0.030550884 0.007702396 0.055872593 -0.059289273
-0.009327669 -0.020760767 0.105106436 0.002455556 0.016663278 0.033864584 0.080583 -0.028514845
-0.011155282 0.07385474 -0.021114971 0.022048062 0.04905384 0.090779774 -0.0007996917 0.0084540825
0.044989645 -0.038627934 -0.04669299 0.024432704 -0.018483946 -0.10250962 -0.03484187 0.124327786
-0.03996295 0.03081658 0.09856002 0.001251265 0.08113242 -0.032467205 0.0064269295 0.0056147915
0.08592653 0.009079761 0.02250941 -0.03273867 -0.042522814 -0.020366978 -0.026381979 -0.042067766
-0.08562496 0.01482141 0.014769949 0.024964731 0.104838856 0.12135627 -0.010167838 -0.026436567
0.01699144 0.10881619 -0.0665445 0.05414696 0.04720674 0.052856524 -0.03978754 -0.061578874
-0.043905545 0.11193313 0.0140212225 0.01883267 0.117225654 -0.06911032 0.018570706 -0.006960193
-0.085874096 -0.087467134 -0.069021285 -0.08425498 0.04480503 -0.0013441235 -0.05201148 -0.018268045

conv2.bias f4 [35]
00000000: e611 80bb 661e babc c2c0 ee3c 4a33 78bc
00000010: 925b 89bc d0d4 cfbc 8f0d 81bc 9a7b 1bbc
00000020: f160 e83c c4d4 fc3b e082 6d3b cf13 b13a
00000030: 33a1 7e3b 428f 30bc 7c68 603c 5d57 9bbb
00000040: 6411 bd3b 25da a23b f8e4 533c a0f8 4b3d
00000050: 5383 11bd 480e 2a3d beb5 4abc 0f10 dcbb
00000060: d98a 273d 22e5 683b 38ca f03a dfd4 77bb
00000070: 0697 af3c 88ac ed3c f266 493c 9a1b 423c
00000080: e9b8 483d 1c66 d3bb 97f6 933a
-0.0039083837 -0.022719573 0.029144648 -0.015148947 -0.016767297 -0.025370032 -0.015753536 -0.009489918
0.028366538 0.0077157933 0.0036241338 0.0013509932 0.0038853406 -0.010776343 0.013696786 -0.004740639
0.0057698954 0.0049698525 0.012933008 0.049797654 -0.03552563 0.041517526 -0.012372432 -0.0067157815
0.0409039 0.0035536964 0.0018370813 -0.003781609 0.021434318 0.029012933 0.0122926105 0.011847401
0.04900447 -0.0064513814 0.00112887

pool2.weight f4 [35, 35, 3, 1, 1]
00000000: b53f d8bd 24cc 313d a27a a23b f5cc 01be
00000010: 5a18 663e 0a6b 81bd f565 f03e 3f15 563c
00000020: 3980 38be 8faf aebe 4f32 f43b 1b09 1f3e
00000030: 845e 66be 77de f93d 61ed fa3e 75a6 93bd
00000040: 81d5 c2bd 1da2 acbe 5f73 13be 9d3d 983d
00000050: eeaa 0d3d a516 80be aed3 073e cdac 64bd
00000060: c197 edbd d385 523e 2f28 25bd 09ef 9a3e
00000070: e5be 923d 063d 24bd 5246 f03b a80e ce3d
00000080: d041 84be 4053 35be 00e8 8a3e 358b 3dbe
00000090: 0db2 ba3b b30e e2bc d13f 403e 3b3d fb3c
000000a0: f893 5a3d 4b23 5a3d 7854 923e 2139 93bd
000000b0: 02b8 adbd dd6c 81be c46c fabd 744d 3d3e
000000c0: 9d9b aa3c 9823 56bd 46c5 2e3e 33fe 0bbd
000000d0: 762e 923e 8891 303e e914 24bd e5fb 1abe
000000e0: 0059 30be 22d3 9e3d 5510 67bd 1b94 a7be
000000f0: 6b83 ec3b deb8 dabd 3882 0f3e 6fe9 08be
00000100: aa78 4bbe 8d68 30be 9824 173e 3c91 5c3b
00000110: 61ad 0d3e 8fdf 4ebe 36ab 9ebd 6b8a b3bc
00000120: a7e2 b2bd 067b 413d b945 ad3d 3086 c9bc
00000130: 01cc 743c 4843 22bd 8cb1 083e 6432 183e
00000140: 412a e7bd db2a 83bb 85b3 3e3d 23a6 5a3d
00000150: ea3e 3b3e 1bca 9e3d 4bec d33d 99c9 cd3d
00000160: c7d8 893e 74b9 16bd 1d44 04be 9a7f e8bd
00000170: a0b8 45bc 6497 bc3d f899 833e 3e57 6abe
00000180: 0955 39be 35da 063e 1b90 0b3e 7243 903d
00000190: 91a8 163e 93e9 693d cc69 dd3d ca08 0cbd
000001a0: 35fc 8e3d fc91 ad3d e377 3fbe 9e06 3bbd
000001b0: 8cbf cc3c cc23 dbba b52f 9d3c 35fe a83c
000001c0: ccf9 4e3d 7534 643d 57f8 28be bed4 32be
000001d0: 310f 333e d3f5 c93d d97b 673d d560 293e
000001e0: 3601 813e e589 7b3d 3d6a 123e 2de9 053e
000001f0: 7fea ab3d 48f1 53bd 3d51 913d 7b30 d83d
00000200: ce50 b73d 6e7a 9a3d d001 a7bd a6d5 39be
00000210: efcb b13b be9a 823d bc48 733e d32b f83d
00000220: b24e 723d d498 073d 61ea 6fbd d87d 4cbe
00000230: 2622 0d3e 9264 09be 0ed7 293e 64bb d83e
00000240: 2241 8fbd 6f58 653d 17e4 f1bd 18dd 683d
00000250: 228a 9e3d 6ca9 64be f1f7 163e 5b21 a83e
00000260: 6c82 82be f538 5fbd 3cbf bfbd bc66 f43d
00000270: 0694 c4bc 5f15 903e c084 fbbd 9435 ab3d
00000280: 52b1 223d 67fd a53d 6caa d6bd fff5 11be
00000290: 8841 c03d 6af1 08be 2fb1 713d 479f e4bd
000002a0: 0cc1 c0bd c91a 81bc f1d5 5dbd ab71 ea3d
000002b0: 61b2 d73c 032d 1f3e ce31 61be 1d50 3d3e
000002c0: 7703 21be 7eca 5a3d 6564 0ebe 6207 823d
000002d0: 5366 493d 73d8 56be a61b f23d 7306 b23c
000002e0: 19d6 1a3d baf7 5b3e cf31 febd 3d35 443e
000002f0: 87de d23c 3e2a 21bd 6299 273d d753 1b3e
00000300: 5220 943e 896c 473e b893 3ebe 0b90 1f3e
00000310: 5c1b 5f3d 2aa0 d33c 6298 dfbd 1b96 843e
00000320: cb97 a43d 6cfb 2e3e 7b73 1db9 a74e 50be
00000330: 0e29 e53c 93ed d03b c718 8ebe 1daa 96bd
00000340: 2285 ea3d b3ba 90bd 2dad 113e 1cf1 173d
00000350: 34ee 0dbe 7d74 fcbd 482c 3abd e838 ee3d
00000360: bce2 b13d c224 f93b 5cb1 953d 5868 a43d
00000370: 0b78 95bd cbbd 6a3d 3737 4cbe 0897 c8bc
00000380: 43b9 4b3c 4a13 953d 2522 3fbd 6c07 9a3e
00000390: 7994 eb3a 11e4 283e a0ba d63d b834 1b3d
000003a0: d4f3 57bc 7fb0 64bd eec5 0b3e 58fe 3d3e
000003b0: 7c26 81be dd7d b5bc 0097 0d3c d100 fb3d
000003c0: 65a5 3d3d 0961 8cbd bb84 d93d 6cd2 8f3d
000003d0: 9fb9 793e 461f 653e 1726 8bbd 4f9b 5dbd
000003e0: bd2d abbd 844a 533e 3c9c 413e 3607 8ebe
000003f0: c1d5 8a3d 3997 6a3b d315 8cba e94c f6bc
-0.10559026 0.043407574 0.0049584666 -0.12675841 0.22470227 -0.06319244 0.46952787 0.013066589
-0.18017663 -0.34118316 0.0074522863 0.15530817 -0.22496992 0.12200635 0.4900923 -0.072094835
-0.09513379 -0.33717433 -0.1439948 0.07433627 0.03458684 -0.25017276 0.13264343 -0.05582886
-0.116012104 0.20558862 -0.040321525 0.30260494 0.071653165 -0.04009726 0.0073326016 0.10061389
-0.2583146 -0.17707539 0.27130127 -0.18510135 0.005697495 -0.0275949 0.18774344 0.030668845
0.05336377 0.053256314 0.2858007 -0.07188631 -0.08482362 -0.2527837 -0.12227777 0.18486577
0.020826155 -0.05228004 0.17067441 -0.03417797 0.28551072 0.17243016 -0.040059004 -0.15135153
-0.17221451 0.07755114 -0.05641206 -0.32730183 0.0072178147 -0.10679792 0.14014518 -0.13370298
-0.19870248 -0.17227383 0.14760053 0.0033655902 0.1383567 -0.20202468 -0.077475 -0.021916589
-0.08734637 0.047236465 0.08460564 -0.024600118 0.014941216 -0.039614946 0.13348979 0.14862972
-0.11287356 -0.0040029115 0.046557922 0.053381097 0.18285719 0.07753392 0.10347804 0.10048217
0.269232 -0.036797956 -0.12916608 -0.11352463 -0.012067944 0.09208563 0.25703406 -0.22884843
-0.18098845 0.13169177 0.1362919 0.07044114 0.1471274 0.05710752 0.10811195 -0.03418807
0.069816984 0.0847511 -0.18698077 -0.045660608 0.02499368 -0.0016719042 0.019187788 0.020629028
0.050531194 0.05571409 -0.16500984 -0.17463967 0.17486264 0.098613404 0.056514595 0.16540845
0.25196236 0.061410803 0.14298339 0.13077231 0.08394336 -0.051743776 0.07095573 0.10556122
0.08950959 0.07542883 -0.081546426 -0.18147907 0.005425922 0.06377171 0.23758215 0.12117734
0.05915708 0.033104733 -0.05857313 -0.1996988 0.13782558 -0.13417271 0.16585943 0.42330468
-0.06994845 0.05599254 -0.11811083 0.056851476 0.077411905 -0.22330254 0.1474302 0.32837948
-0.2549013 -0.054497678 -0.09362647 0.119336575 -0.023996364 0.28141305 -0.122811794 0.083598286
0.039719887 0.08104973 -0.10481724 -0.14253996 0.09387499 -0.13373342 0.059006866 -0.11163192
-0.09411821 -0.015759842 -0.05415911 0.11447462 0.026330175 0.15544514 -0.21991655 0.18487592
-0.15723978 0.053415768 -0.13905485 0.063490644 0.04916985 -0.20981006 0.1182168 0.02173159
0.037801836 0.21481219 -0.12411844 0.19160934 0.025740875 -0.039346926 0.04091776 0.15168701
0.28930908 0.19474997 -0.18611038 0.15582292 0.05446945 0.025833208 -0.109177366 0.2589577
0.08036765 0.17088097 -0.00015015707 -0.20342503 0.027973678 0.0063759773 -0.2775328 -0.07356665
0.11451174 -0.0706686 0.14226218 0.037095174 -0.13860399 -0.12326906 -0.045452386 0.11631948
0.08685824 0.007603259 0.07309219 0.080277145 -0.07298287 0.057309907 -0.19942938 -0.02448608
0.012434307 0.0727907 -0.046663422 0.30083787 0.0017973325 0.1649325 0.10484815 0.037892073
-0.013180692 -0.055832382 0.13649723 0.18554056 -0.25224674 -0.022154743 0.008641958 0.12256015
0.04630031 -0.068544455 0.106210195 0.07022557 0.24387215 0.22375211 -0.067943744 -0.054103192
-0.08358333 0.20633894 0.18907255 -0.27739877 0.067790516 0.0035795702 -0.0010687656 -0.03006597

pool2.bias f4 [35]
00000000: 39e4 833c 89a7 b4bc 8568 f6bc 3bdb 483d
00000010: 99ea d9bc 02df dfbc ba31 34bb 8bff 09bc
00000020: e93d c23b 1b9d 71bd 0b63 7bbd 84f6 5fbc
00000030: 5204 183d 1386 00bd c3d4 503d e19d 173d
00000040: 2cec 703c 425f b7bc 173a 923c c4cc de3a
00000050: 285b 903c 8245 43bc f6b5 333c a5ee 0c3d
00000060: d81c 0bba e1a2 8fbc c6b8 313d ed65 6dbc
00000070: 76fb 183c 5db0 98ba a9c4 64bc 15fe 1dbd
00000080: 7784 eebc 1435 a23c 85e4 a8bc
0.016100036 -0.022052543 -0.030079136 0.0490372 -0.026601123 -0.027328018 -0.002749546 -0.008422743
0.0059277904 -0.058987718 -0.06137375 -0.013669614 0.037113495 -0.031377863 0.050984155 0.0370158
0.014704745 -0.02238429 0.017849965 0.0016998281 0.017621592 -0.011918427 0.010968676 0.034407277
-0.0005306727 -0.017533721 0.043389104 -0.014489633 0.009337297 -0.001164924 -0.013962903 -0.03857239
-0.029115899 0.0198007 -0.02061678

conv3.weight f4 [35, 35, 3, 1, 1]
00000000: 67ee 083e 1992 5d3d 207b 8e3c 9ba9 42be
00000010: bd4e 6b3c 3c1d 46be 40cc 823d ab6d e73d
00000020: 08a1 21be 8281 a03c 44c9 3a3e 91f9 493e
00000030: 4b0d e2bc 4280 c13d 1c62 8e3e a018 f33c
00000040: fcc0 f3bd 7694 ccbd 2c74 9b3e 3c06 20be
00000050: 4aa9 20bd bc0f e43d 6773 2c3e d8c0 0a3e
00000060: 0260 cc3d 673a 47be e305 cd3c 9490 7d3c
00000070: a5d0 4fbd 9b94 603e 480b be3d 5fe9 7fbe
00000080: e635 3a3e fc55 9c3d 19ae a5be 626a 12be
00000090: c322 81bd 893e 4abe b517 fe3c 508a 2fbe
000000a0: 2f62 4e3d fd37 fb3d 0e97 643e 662f edbd
000000b0: 469c d2bd 5ddb 7dbe f5fa f5bd 30f7 413e
000000c0: 6e73 09be 701a 1dbc 716e 1a3e 3327 68be
000000d0: ed26 143e 47b0 513e d81a 24be 07fe 18bc
000000e0: 5263 513e f57e 78be ea01 713d f5d8 c7bd
000000f0: f8e5 5c3c ab94 19be e598 fa3d 298d 963b
00000100: abf9 c33c 53d7 b2bd dd77 8e3d e6a4 f93d
00000110: bcd5 d0bd e851 af3c 5c92 103c e0d3 203a
00000120: b198 603c bd15 843e 3d19 e1bb 3272 1dbe
00000130: 1518 ad3d cc0e 6e3e 0221 e63d 854b 1e3e
00000140: 320f 87bd 5113 aabc abbc 8fbd 97f7 8bbd
00000150: 0e8f 94be 1e10 6a3e f212 293c 9c0e ca3e
00000160: 9138 82bd a15f abbe d8b4 513d 4b7c 423e
00000170: adf1 e43d 38e0 7a3e 2ec2 2bbe a009 ddbd
00000180: ec6c 8bbe 0072 083e 5262 2b3e 2f80 b7bc
00000190: a34d e0bc d5d9 91bd cb9c 36be a4a4 1fbe
000001a0: 032f 73bd 5eaa 53bd 2616 033e 2ed2 ad3d
000001b0: a9e6 55be 85d1 423d 1579 563d 1abe 5b3d
000001c0: 7644 9bbc 2083 c13d 78a1 473d 069d 05be
000001d0: 4c77 603d b66d 593c 9569 b83e 670c 34be
000001e0: dfae 2c3d e2eb de3b 9caa d9bd ca8a 61bd
000001f0: 36ce 8bbd 8a23 7e3c 9a0a 42bd eaaf 013e
00000200: f47c a5bc be31 cd3c 5f6a 9bbd 4c8c 503e
00000210: 6b93 bcbd bc22 a03d b305 57bd e2d0 f43b
00000220: 61a1 703e af7b 663e 1e07 3c3c 3002 263c
00000230: 0008 033e 245c 18be c681 01bd db1f 183e
00000240: 6a46 af3d 2bba 76bc 4e37 52bc a2e7 623e
00000250: b8bd f6bd 29fa d8bd 1c48 f63d febf 2b3e
00000260: b9e4 64bd ec6b a03d fe1d 913c 270c c23c
00000270: f025 adbd 48de ab3d 83ad 883d 8911 dcbd
00000280: 98b2 c13c 434b 0cbe 32f3 b03e 012c 04be
00000290: 6383 e5bd f879 3b3e aac3 d83d f231 47be
000002a0: 5877 493e 2481 d73d f131 e5bd dd18 4b3e
000002b0: 4378 8cbd 11fd 79be 26c4 c7bd 97fe 7b3d
000002c0: 436c afbd 6e10 e9bd cf3b 8bbd 95b1 9dbc
000002d0: eb78 2a3e 1b8c e2bc 2953 68be f520 b73b
000002e0: ba08 453e 57bc a1bd 17dd 23be 797e 1c3d
000002f0: c9c1 64bd b2a2 df3d 6325 113e 42e2 d93d
00000300: 8fa5 bfbd 2c11 4dbe 338c 29be 9296 cdbd
00000310: 8e27 b8bd ca06 f13d b6ed 20bc a7ec a13e
00000320: a72c 9a3d 4b2f 40bd 28c9 873d 8fbd 58bd
00000330: a65a 10bd 39e2 8d3d 6b90 093d a6fd f73d
00000340: 89ec 57be 743b c2bd dfe2 1c3e 3b7f cfbc
00000350: 050f 28be 8a31 0f3d e565 213d 473c 4ebe
00000360: 3e45 a53c 5960 99be f25f 50bd f0b7 303e
00000370: 8c96 353e 7f19 a43d 52fc 93bb 06cc 58be
00000380: 19e1 97bd 18d5 78bc 1519 31be 2b9f 0dbe
00000390: 931a 1ebd 4c4a 9fbc 5246 b3bc 01e0 053d
000003a0: 71f9 843d 4ae6 a1bd 1287 86be 7942 383d
000003b0: bd66 16be e726 c33d a2fb f9bd 181f 41be
000003c0: 4c88 d73c 160f 40bc 16a4 cdbd 798f b2bd
000003d0: 8212 7abe ad4e 2dbd 19bd d9bc 8704 7c3d
000003e0: 3d3c e33d e7d5 ac3d d869 54bb 9104 fabd
000003f0: 0219 b93b f2c9 94bd 1625 04bd 720e 59be
0.13372193 0.054094408 0.017392695 -0.19010012 0.014362034 -0.1934709 0.06386614 0.113002144
-0.15784085 0.019593004 0.18240839 0.19724108 -0.02759423 0.09448291 0.27809227 0.029674828
-0.11902043 -0.09989254 0.3036207 -0.15627378 -0.039223947 0.111358136 0.16840898 0.13550127
0.099792495 -0.19455872 0.025027221 0.015476365 -0.05073609 0.21931688 0.092794955 -0.24991368
0.18184623 0.07633588 -0.32359388 -0.14298394 -0.063054584 -0.19750418 0.031017164 -0.17142606
0.050386604 0.12266538 0.22323248 -0.11581306 -0.10283713 -0.24790712 -0.12010757 0.18941951
-0.13422939 -0.009588823 0.15081193 -0.22671203 0.14467974 0.204774 -0.16025865 -0.009337909
0.20448044 -0.2426718 0.058839716 -0.09758178 0.013482563 -0.14998119 0.122361936 0.0045944643
0.023922762 -0.08732476 0.06956456 0.12189655 -0.101970166 0.02140136 0.008823957 0.00061350875
0.0137082795 0.25797835 -0.0068694637 -0.15375593 0.08451859 0.23247832 0.112367645 0.15458496
-0.06594695 -0.020761164 -0.070184074 -0.068343334 -0.29015392 0.2285771 0.010319458 0.3946427
-0.063584454 -0.33471397 0.051197857 0.18992727 0.111789085 0.24499595 -0.16773292 -0.107928514
-0.27231538 0.13324738 0.16736725 -0.02239999 -0.02738077 -0.07121626 -0.1783325 -0.15590149
-0.059371006 -0.051676147 0.12801418 0.08487354 -0.20888771 0.047563095 0.052361567 0.05364809
-0.018953543 0.09448838 0.048737973 -0.13048181 0.05480127 0.013270786 0.36018053 -0.17582856
0.042158958 0.0068030218 -0.10628244 -0.055064 -0.06826441 0.015511403 -0.04737339 0.12664762
-0.020201184 0.025048133 -0.07588648 0.20366019 -0.09207805 0.07819125 -0.05249567 0.00747119
0.23499061 0.22508119 0.011476306 0.0101323575 0.1279602 -0.14878899 -0.031617902 0.14855902
0.08558352 -0.015059034 -0.0128305685 0.22158673 -0.12047905 -0.10594589 0.120254725 0.16772458
-0.05588219 0.078330845 0.017714497 0.023687435 -0.08454502 0.08392006 0.0667372 -0.10745532
0.02364473 -0.13700585 0.34560543 -0.12907411 -0.11206701 0.18308246 0.10584195 -0.19452646
0.19674432 0.105226785 -0.11191166 0.19833703 -0.068588756 -0.24412943 -0.09754209 0.061522093
-0.08565571 -0.11380087 -0.06798517 -0.019249717 0.16647689 -0.027654698 -0.22687973 0.0055886456
0.1924161 -0.07897251 -0.16002308 0.03820655 -0.05584887 0.109197035 0.14174418 0.106388584
-0.0935775 -0.20026082 -0.16557388 -0.10038485 -0.089919195 0.11768873 -0.0098223 0.31625864
0.07528048 -0.046920102 0.066301644 -0.052915152 -0.0352427 0.06927914 0.033584993 0.121089265
-0.21086325 -0.09483996 0.1532092 -0.025329223 -0.1641198 0.034959354 0.039403815 -0.20140181
0.020174619 -0.2995632 -0.05087275 0.17257667 0.1773321 0.080126755 -0.004516163 -0.21171579
-0.07415981 -0.015187524 -0.17294724 -0.13830249 -0.038599562 -0.019444607 -0.021884117 0.03268433
0.0649289 -0.07905252 -0.26274925 0.04498527 -0.14687629 0.095289044 -0.12206198 -0.18859518
0.026310109 -0.011722347 -0.100410625 -0.087187715 -0.24421123 -0.04231136 -0.026579427 0.061527755
0.11095474 0.08439236 -0.003241172 -0.12207902 0.005648733 -0.072650805 -0.03226193 -0.21196917

conv3.bias f4 [35]
00000000: a3b5 7a3c dfb6 97bc de30 b63c 44d0 613c
00000010: 9550 9dbc fad5 4d3c b0ba 95b9 6c05 72bb
00000020: 01fd 52bc 23fa 94bc 2453 f83b abfe 033b
00000030: 3b62 fc3c 6fe7 12bb 996e 82bc d6f6 993c
00000040: a303 e6bc 71cf 0b3d 85c8 f63c 0c21 f3bc
00000050: 0988 0cbc 63a6 0abc 3ddf 12bc 039b da3b
00000060: f136 d3bc 5fb4 dcbc b76c 7dbb 993f 493c
00000070: 407f cebc a7ef 793b 55b6 85bc 1954 63bc
00000080: 97ae 54b8 3696 35bb 1530 553d
0.015302095 -0.018519817 0.022240099 0.013782565 -0.019203464 0.012563223 -0.00028558588 -0.0036929501
-0.012877704 -0.01818568 0.0075782705 0.0020140808 0.030808559 -0.0022415777 -0.015921878 0.018794458
-0.028077906 0.03413338 0.030124912 -0.029678844 -0.008577355 -0.008462521 -0.008964357 0.006671311
-0.025783034 -0.026941476 -0.0038669535 0.012283229 -0.025207162 0.0038137229 -0.016322294 -0.013875031
-5.070734e-05 -0.002770794 0.052047808

conv4.weight f4 [35, 35, 2, 1, 1]
00000000: 2409 19be d528 543e a58a ddba 177e ff3c
00000010: 6cae f53d 04ff b6bd 74c1 f03d 4ff3 9a3d
00000020: e2b3 6dbe 2365 8b3d 9677 983d 646b c2be
00000030: b5b3 27be 3fbf ba3e 96ff 473e ab69 373d
00000040: 485a ce3d b586 82bd 9b9f 443e 20f6 88be
00000050: 1577 163e 378b 5ebe c726 2bbe 7740 c63d
00000060: 7233 ab3e 155e bcbd ecf3 41bd 8a20 48bd
00000070: 90ee 5bbd 44d9 23bd c60d 22be b037 dc3c
00000080: 08ad 17bd 2605 073d 9306 e0be 5e9d e73d
00000090: 6355 2c3d f447 8abe 3fc7 3f3d a9a4 4cbe
000000a0: 2e04 f53d 8f8c a7bc c39f ae3d 02ce 663c
000000b0: 372f 813d 3c70 b53d d691 a83d 977a aabe
000000c0: 16bd 9e3d 66cf 45be 79ca a63e b466 ebbd
000000d0: 66aa 3b3e 5123 eb3d 84c2 bbbe 4caa bd3d
000000e0: e73d 88be 85d1 34be d62c 833d fa9c e9bd
000000f0: a648 b13d 45b2 2ebd c02d 893e 41e4 333e
00000100: 3fb0 443e a433 163e fc4d 4bbd e5b8 4dbe
00000110: 32b2 a7bb b82d 82be 7a85 cebd 92cf 27bd
00000120: 280f fd3c a0fa 1d3e 02c8 48bb 21ff 34be
00000130: f8fb 2a3d 306d b0bc a411 e3bd 3e8a 333e
00000140: 759e 8e3d 4b5a 9a3d 0916 61bd 9d37 e3be
00000150: 3532 8c3e 05be b73c 1341 ccbe ae63 83be
00000160: f3d7 ad3d 74d8 edbd 5d83 3bbe 997f d13d
00000170: 6eb5 603d 7449 b83d 4442 3d3e fedb 8f3e
00000180: 9e95 433d 7afb f83d 281c 983d baa8 773d
00000190: 9c0d 6c3c 9c32 e33d bc56 223d 9a37 9d3e
000001a0: a0f3 0cbd 2a2b c73d a4aa f5bd ac92 a53d
000001b0: bb3e 0dbe 2398 bfbe a932 1c3d b659 9dbd
000001c0: dd4b 4a3e 8669 273e 6514 2ebe 1912 443e
000001d0: 12a5 d73d 0d7a 183e 0230 073e 2c61 173d
000001e0: df96 22be 8eaa ac3d 6027 edbd 183c 2f3e
000001f0: 48ce 493e 3b9e 7a3e 6670 5e3d 1470 053d
00000200: 50c8 a4be 6abb a23e aa1f 2ebd bd51 743d
00000210: 4b58 62bc f09f d73d da20 083e 6238 a6be
00000220: 2739 2e3e 23d9 90be 5027 86bd 583f 8cbd
00000230: 9211 e6bd 3aec e93c a658 8f3e 0e09 19be
00000240: 4cf7 9abe 4b4f b83c 40cb 653e af28 c0bd
00000250: 30fe 28be 6a18 9b3b 0ff2 91bc a6ac 2bbe
00000260: 0e9d 4c3c 584a 1cbe c1b6 1bbd 6de9 a23d
00000270: eb1f 26be bcce 09bd c70e 07be 15b6 713d
00000280: 398e 24bd fb3b f83e 312f 543d ee51 b9be
00000290: ae32 9a3d 2f7c 3dbe b1e3 7a3d b0e2 743d
000002a0: 7409 c2bc 20c9 03be 3f02 bd3e 8cd3 ad3e
000002b0: 3e96 79bd a74c 2e3e 796b 253b 7d42 04bd
000002c0: c859 c03e 2b34 f6be b0e6 47be ea46 26be
000002d0: 47e6 9fbd 683c 85bd cdc9 3fbe 8b17 abbe
000002e0: 2019 703d 3491 a73d cbc9 153d d755 3cbe
000002f0: a093 febd e7fb 1abe bad3 01bd 67f7 9f3e
00000300: ac16 1c3d 3ae0 e4bc 149a 3b3e c6df 35be
00000310: 44ae 3cbe 243d 093e ad14 3ebc 5fe8 10be
00000320: 5682 8b3c 0983 6bbd 58a7 2d3e f5dd 6e3d
00000330: c3aa 2abc e56f 99be 53b9 573d 76d5 d73d
00000340: 4236 453e 9e89 2c3e 4887 de3d a829 13bd
00000350: 2a4b c13e 3e55 a43e 0531 843e 1103 2e3d
00000360: 91cd 1a3e ae4b 0d3d 14f0 703e 0eac 04be
00000370: 6a78 173e db8f 813d 5046 44be 5c0c 173e
00000380: 0e4f 44be f5c9 2d3e cbd3 1bbe 5b0f cc3e
00000390: e71e 02be 67c9 e13c f308 24bd 0af5 27bd
000003a0: 11b3 1bbe 4613 c63a 4bcf a33e 24a2 8b3e
000003b0: fa2b 03be 0cc1 53bd 1f07 22bd 9b47 933d
000003c0: a482 233e 0730 7d3d d74c 42be 1f6f 153f
000003d0: 05d8 743e bf97 08be 145b 123e 8f51 353e
000003e0: 9ceb 153d b98f d33d 24e4 acbd 4645 abbd
000003f0: 0891 35bd c7be 0f3b 8ffd d7bc 5a21 43bd
-0.14944893 0.20718701 -0.0016902281 0.031188054 0.11996159 -0.08935359 0.11755648 0.07565939
-0.23213151 0.068064 0.07444684 -0.37972558 -0.16377147 0.36474034 0.19531092 0.044778507
0.100758135 -0.063733496 0.1920151 -0.26750278 0.14693864 -0.21732794 -0.16714011 0.096802644
0.33437687 -0.09197632 -0.047351763 -0.048859157 -0.053694308 -0.040002123 -0.15825567 0.026882023
-0.03703025 0.032963894 -0.43755016 0.11309312 0.04207362 -0.2700802 0.046820875 -0.19984688
0.11963688 -0.020452766 0.08526566 0.014087202 0.06307834 0.08859298 0.08230941 -0.33296654
0.07750909 -0.19317397 0.3257635 -0.114941984 0.1832672 0.114813454 -0.3667184 0.09260997
-0.26609728 -0.1765805 0.06405036 -0.11406894 0.08656435 -0.04265048 0.26792717 0.1756754
0.19207858 0.14668137 -0.04963492 -0.20090063 -0.005117678 -0.25425506 -0.100840524 -0.04096944
0.030891016 0.15427637 -0.0030636792 -0.17675449 0.041744202 -0.02153644 -0.11087349 0.17533204
0.06963817 0.07536753 -0.054952655 -0.44378367 0.27382055 0.022429476 -0.39893398 -0.25661987
0.08488455 -0.11613551 -0.1831183 0.102294154 0.054860525 0.08998385 0.1848231 0.28097528
0.047750108 0.1215734 0.074272454 0.060463645 0.014407542 0.11093637 0.039633498 0.30706483
-0.034412026 0.0972503 -0.11995438 0.08084616 -0.13793461 -0.3742076 0.03813425 -0.07683127
0.19755502 0.16348848 -0.16999967 0.19147529 0.105295315 0.14890309 0.13201907 0.036957905
-0.15877865 0.08430968 -0.11579776 0.17112768 0.19707596 0.24474423 0.05430641 0.03257759
-0.32184076 0.3178361 -0.042510666 0.059648264 -0.013814996 0.105285525 0.13293782 -0.32464892
0.1701399 -0.28290662 -0.06550467 -0.06848019 -0.1123382 0.028555024 0.2799732 -0.1494486
-0.30266798 0.022498747 0.22440815 -0.0938276 -0.16503215 0.004733135 -0.017815618 -0.16765079
0.012488617 -0.15262735 -0.038016085 0.07954679 -0.16223113 -0.033644423 -0.13189231 0.059011538
-0.040174697 0.4848326 0.051802818 -0.3619532 0.07529198 -0.18504404 0.0612523 0.0597865
-0.023686148 -0.12869692 0.36915776 0.3395046 -0.060934298 0.17021428 0.002524106 -0.03228997
0.37568498 -0.48086676 -0.19521594 -0.16237989 -0.07807594 -0.06505662 -0.18729325 -0.334164
0.05861771 0.08181992 0.036569398 -0.1839212 -0.12430501 -0.15135156 -0.03169606 0.3124344
0.03810756 -0.02793895 0.18320495 -0.17761144 -0.18425852 0.1340223 -0.011601609 -0.14151143
0.017029922 -0.05749801 0.16958368 0.058317143 -0.010416689 -0.2996818 0.052666973 0.10538761
0.19258979 0.16849372 0.108656466 -0.0359284 0.37752658 0.32096285 0.2581865 0.042483393
0.1511748 0.034496002 0.23529083 -0.12956259 0.14792028 0.063262664 -0.19167447 0.14750808
-0.19170782 0.16971572 -0.15217511 0.39855465 -0.12707101 0.027561856 -0.040047597 -0.04100517
-0.15205027 0.0015111945 0.3199409 0.2727214 -0.12809744 -0.051697776 -0.039557572 0.07191392
0.15967804 0.06181338 -0.18974625 0.5837268 0.2391053 -0.13339137 0.14292556 0.17706893
0.036601648 0.10330147 -0.08441952 -0.08362822 -0.044327766 0.002193378 -0.026366023 -0.04763923

conv4.bias f4 [35]
00000000: ab7d 2cbc fd44 1a3d a76b 283d 20aa ae3b
00000010: a9ed be3b b550 4cbd 5cc7 f5bb d1ab b4bc
00000020: a634 923c 3745 c63c 62fd 893c 92fd 403b
00000030: b061 1cbd 15ff 80bd 01e1 7bbc 1fdb 08bd
00000040: 379f ee3c 6da1 08bd c9d0 3bbc 6d8b 233c
00000050: dfcf 3dbd 2854 84bc 893c 263c b770 fe3b
00000060: 977e 1f3d 20e0 763b 0a7e 0abd 4d61 193c
00000070: 7a73 663d c96e a53b a25f 793c 8e1c a13c
00000080: 3fb0 0abc e91a 233c f27c 08bd
-0.010528008 0.03766345 0.04111829 0.005330339 0.005826671 -0.049881656 -0.007500572 -0.022054585
0.01784737 0.024202926 0.016844455 0.0029448015 -0.0381791 -0.06298653 -0.015373469 -0.033412095
0.029128654 -0.033357073 -0.0114633525 0.009981972 -0.04634082 -0.01615341 0.010146269 0.0077649015
0.038939085 0.003767021 -0.033811606 0.009361577 0.05626247 0.005048607 0.015220555 0.019666936
-0.008464872 0.009955146 -0.033322282

fc.weight f4 [17, 945]
00000000: 0f0a afbd f405 38bd 2806 30bd 7086 5b3d
00000010: 9da1 c53c 52f9 ac3c 73c2 05bd 7073 3e3d
00000020: b1a3 ebbc 2195 02ba 4f43 863d a30c 113d
00000030: ce4f c1bd d1d5 75bd c65c 10bd 3a04 873c
00000040: 609d ad3d 1beb aa3d d49b 043d f331 6abd
00000050: b77e abbc 286f b53c 8116 be3c 271c 2b3d
00000060: 2eb3 b23b 44f3 a3bd 0b54 88bc 42f5 003b
00000070: 5485 e8bc c0bc 3c3c c9c4 24bc b6e0 803d
00000080: 1d6d 3c3c 5143 463d cab5 383d 3304 4cbd
00000090: 5fa8 17bd 0797 5ebd 086e a2bd b12d 78bd
000000a0: eccf acbd 0c0a 6dbd 50ea ed3c 9de7 88bd
000000b0: f3cc 483d 3877 f73c e44d 92bc ab82 5c3d
000000c0: 7de3 94bc 4c6a 103d ac9f 09bc b7d3 25bc
000000d0: b872 5dbc 8ee0 bebc 9d13 403d b5b5 87bd
000000e0: 11d2 a1bd 3b2c 03ba 6b9f e7bc 7427 8dbc
000000f0: e8c9 d1bc 8b0d 323d abec 48bb d20c 88bd
00000100: 9967 c23c 7ac4 413d 673d ddbc d085 523d
00000110: debc 4f3d b850 b2bc 7c54 583a cb30 ce3c
00000120: 0118 2abd 6a5e 9a3d 2f57 8e3d bd63 2e3d
00000130: 1237 923d 0f8e adbd e339 2e3b 3b80 17bd
00000140: 08db 8c3c e931 7abc 5a57 ab3b 97e8 323a
00000150: 1873 85bd 0d92 df3c 31a7 bcbc bcf1 c93c
00000160: 94d7 e3bc 9e2b 87bc 6d31 57bc 9281 9abc
00000170: 72f8 d13c 214a 04bd 1d3b 7c3d c6a2 df3b
00000180: ae76 00bc 77d5 fa3c da95 8b3d d673 05bd
00000190: a9c8 3abc 004d c0bc a130 f63c 7e98 ce3c
000001a0: 7dd9 db3c fee6 3b3d 4660 dc3c 79d5 eebc
000001b0: 7b94 083c 8fe0 aabd 8bb8 013c f625 48bd
000001c0: bd44 f4bc 1ae2 dc3c dd9a bebc 9c48 7fbd
000001d0: 9bfa c9bc e215 e33c 39f7 92bd 73b8 003d
000001e0: 2abb 053d 25b1 853d f0ab ac3d dce4 af3c
000001f0: b973 ea3c 0b5f c93c fce2 abbc c387 63bd
00000200: 7de5 42bc 545b d83b 4d02 29bc c892 cd3d
00000210: 3588 99bc 2723 d93c 186d bfbc fe75 03bd
00000220: 94e1 0cbd bfc0 373c 8ae4 a5bb 4847 dbbc
00000230: 1cde 753b e04b f43c ef8c 01be 9859 ffbc
00000240: 5b32 a03c 87cb 43bd 7489 0a3d 214e 09bd
00000250: aaef f9bc 872c 9a3c 999d 253d ce9d 463c
00000260: f972 b13a 7b0a b8bc c3fe 0c3d 3c5e d4bc
00000270: fc58 7e3c c38a eb3a bb91 043d 2026 123d
00000280: 7d96 973d 8c3e 37bd ede1 a6bd c29d b13b
00000290: 8b06 13bd 75fd 39bc 0381 de3c 9874 adbc
000002a0: b114 323c db98 d03a e57a ef3c d73c e83c
000002b0: 892e d13c db81 3d3d cfd0 e1bc be17 dd3a
000002c0: 1d57 82bc 5431 a03d 1592 203d 10ed 1bbb
000002d0: 0389 f13d 0226 87bb 4b3c cc3b f3d8 ef3b
000002e0: 7a43 e6bb da86 4bbc b484 33bd be70 9b3c
000002f0: d8f1 2c3c a860 b73b f8f4 32bd af62 8abd
00000300: 6fcf 49bd b7b2 c63b 0505 803b a11f e7ba
00000310: afa2 913d 4fe5 113c 9ed1 353d fd28 06bd
00000320: 4220 243c 573b 15bd 1775 803d 8e58 32bd
00000330: 0dac 2bbc 3672 a2bd 3a7b 5b3d 8073 4a3c
00000340: f730 81bd 0f35 58bd 45c9 2cbd 496b 0c3d
00000350: 1823 7fb8 c911 2abd 7f31 573d 7d1d a13b
00000360: d5f0 8c3b a295 bc3c 3353 973b 5329 12bc
00000370: f920 a1bc 15f8 7dbc 06f5 aa3c 7100 723d
00000380: 825f d0bc 4f95 6fbc 6863 1cbd 9e92 673d
00000390: 190e bdbb 162e b7bc 4580 5d3d 6148 44bd
000003a0: 96ff 233d 750f a03d 2dff 04bd f458 143c
000003b0: 23fc 43bd 0c99 27bd db3d 84bd c925 113d
000003c0: 1865 d1bc 9b47 6d3d d1b2 853d 4a26 623d
000003d0: ad1e 43bd 39d2 b0bc 562a bf3b aa5a 13bd
000003e0: 43b6 ad3c 42fd 2d3d 559c 8abd 6f28 a33d
000003f0: 0550 07be 7f01 5d3c 3357 ffbc b393 40bc
-0.085468404 -0.044927552 -0.04297462 0.053595006 0.024124915 0.021114979 -0.032656144 0.04649681
-0.028764578 -0.00049813284 0.06555807 0.035412442 -0.0943905 -0.060018364 -0.035244726 0.016481508
0.084772825 0.08345624 0.03237517 -0.05717654 -0.020934446 0.02214773 0.02320409 0.041774895
0.005453489 -0.080053836 -0.016641637 0.0019677435 -0.028383888 0.011519611 -0.010056683 0.0629286
0.011500624 0.04840404 0.045095243 -0.049808692 -0.037025806 -0.05434325 -0.07931143 -0.06059045
-0.084380955 -0.05787091 0.029042393 -0.06684802 0.04902358 0.030208215 -0.017859407 0.053835552
-0.018174881 0.035257623 -0.008399885 -0.0101212775 -0.013516121 -0.023300435 0.046893705 -0.06626455
-0.07901395 -0.0005003844 -0.028274259 -0.017230727 -0.025608972 0.043469947 -0.0030658643 -0.0664307
0.02373104 0.047306515 -0.027006818 0.051397145 0.050717227 -0.021767005 0.0008252335 0.02516975
-0.0415268 0.07537539 0.06950223 0.042575587 0.0713941 -0.08474361 0.0026584796 -0.036987524
0.017194286 -0.015270689 0.005228919 0.000682482 -0.06516093 0.027291322 -0.023028942 0.0246514
-0.027812757 -0.01650029 -0.013134343 -0.018860612 0.025631163 -0.032297257 0.061579812 0.006824824
-0.007840795 0.030619366 0.06815691 -0.032581173 -0.01140038 -0.023474216 0.030052485 0.025219198
0.026837105 0.04587459 0.026901376 -0.029154526 0.008336182 -0.083436124 0.007917534 -0.048864327
-0.029817933 0.026963282 -0.023267204 -0.062325105 -0.02465563 0.027720395 -0.0717606 0.031425904
0.032649197 0.06527928 0.08431232 0.021471433 0.028619634 0.024581453 -0.020982258 -0.055549394
-0.011895535 0.006602684 -0.01031549 0.10037762 -0.018741706 0.02650602 -0.02336745 -0.032094948
-0.034394816 0.011215388 -0.0050626444 -0.026767388 0.003751642 0.029821336 -0.12651418 -0.031170651
0.019555261 -0.04780152 0.03382249 -0.033521775 -0.030509789 0.01882006 0.0404335 0.0121225845
0.0013538293 -0.022465935 0.034422647 -0.02592384 0.015524145 0.0017970431 0.032365542 0.03568089
0.0740175 -0.044737384 -0.08148561 0.0054204175 -0.03589491 -0.011351933 0.027161127 -0.02117376
0.010869191 0.0015914695 0.029233405 0.028349323 0.025534885 0.046266418 -0.027565388 0.0016868038
-0.01591068 0.078219086 0.039201815 -0.0023792423 0.11793711 -0.004124404 0.0062327734 0.0073195635
-0.007027087 -0.012422288 -0.043827727 0.018974658 0.010555707 0.005596239 -0.04369065 -0.06757104
-0.04927009 0.006063785 0.0039068484 -0.0017633328 0.071111076 0.008904769 0.04438936 -0.032753933
0.0100174565 -0.036433544 0.06272333 -0.043541484 -0.010478032 -0.0793194 0.053584315 0.012356639
-0.063081674 -0.052784976 -0.042184133 0.034282003 -6.082942e-05 -0.041520867 0.052537438 0.0049168454
0.0043011704 0.02302057 0.0046180724 -0.008920985 -0.019669043 -0.015501042 0.02086879 0.059082452
-0.025436167 -0.014623 -0.03818074 0.05653631 -0.005769503 -0.022360843 0.054077405 -0.04792059
0.040038668 0.07815448 -0.032469917 0.009054411 -0.04784788 -0.04091744 -0.064571105 0.035436425
-0.0255609 0.057929616 0.06528247 0.055212297 -0.047636677 -0.021584617 0.0058339043 -0.035975136
0.021205073 0.042477854 -0.06768099 0.079666965 -0.13214119 0.013489126 -0.03116951 -0.011753964

fc.bias f4 [17]
00000000: ebc2 afbc d8ac 1ebc ecf3 c23c 9338 a13d
00000010: 4697 d83c d297 cabb 4181 6bbb 1ef5 5fbc
00000020: 9c09 95bc 2ee2 3cbb 72b1 093c 109c 1cbd
00000030: d2a3 b73c 12b9 283a 7131 34bd 4b2b 8bbb
00000040: 6d50 e03a
-0.021455249 -0.009684764 0.023797952 0.07872119 0.02643932 -0.006182649 -0.0035935196 -0.01366928
-0.018193059 -0.0028821337 0.008404123 -0.03823477 0.022416983 0.0006436269 -0.043992463 -0.0042471043
0.0017113813
