checkpoints/hamida_et_al/no_class_balancing/IndianPines_FastICA_15/epoch21_0.99.pth (torch, 191622 bytes, 14 tensors)

conv1.weight f4 [20, 1, 3, 3, 3]
00000000: 13cd 49be e32e b83b e9fe 45be 6716 47be
00000010: 1ba4 7fbe 556f 1c3e a413 55be 7e10 63be
00000020: e9c6 a4bc df98 8a3e a841 893e 7f4a 553d
00000030: 1e55 773e d045 873c 896b 5ebe 8971 593e
00000040: 5087 c03e f5ae e93e 36e6 f6bc 3a35 af3e
00000050: c41b 243d 9c04 f4bd 7239 1e3d 2242 aebe
00000060: 65bf 51be d404 843e e3e9 173e 67ed 9d3c
00000070: 0caf f33d 9f50 cd3d abdb 623d 72db a6be
00000080: 617b 86bc aef0 0abe 1275 c73d 06ec 6b3e
00000090: 6ed5 183f 1d6e 11be 55aa f9ba cd54 153e
000000a0: ffcb cd3e b72c 453f a26e 013e 5f34 8cbc
000000b0: eeaf 743f cab0 93bc 0a7c f3bd 4af7 a13d
000000c0: 8b02 0cbf 2005 c5be 3ebe 383d 1143 fabe
000000d0: a22f acbe eb9a 9ebe 101d da3e 416a f5be
000000e0: ea76 02bf 0dcc aa3e 7f19 4f3e c645 aa3e
000000f0: 32fa 63be 1612 a4bd 6891 5d3e 2edd 50be
00000100: 08c5 5a3e 8fd7 783c 915e a5be bfe4 893d
00000110: a7ab f3be 53d3 00bd d66a 74be c558 003e
00000120: c84b a63e 0a01 8d3e ee32 12bd 8fdb 443e
00000130: 49c2 c73d 09e1 68be 9daf a0bc 8be9 b2be
00000140: da17 74be b269 29be f764 15be df3d 123c
00000150: ee4e 303e 02bd 04bf 4d63 acbe f6ea b43e
00000160: 10e0 c7be 2136 dcbe 9b13 d3bd 55af 113f
00000170: b21a 86bc 3e41 e33d e170 c0be 60e9 47be
00000180: 4179 d4bc 61bf ed3e b1f5 d73c c416 183e
00000190: 5467 943e 6718 e2bd 799c dcbe d61e c0be
000001a0: 7f76 893e 7f30 23be 360a ad3b 9665 74bd
000001b0: 6ffb dabd a95c 7d3e 3717 013f 65e4 a63d
000001c0: 74b2 5d3e 35e2 e0bd bf9c 07be f73f 963e
000001d0: a672 a93e ef58 7abd 78a1 6dbe 308a fbbe
000001e0: a85c c8be 7394 9abe 7993 1fbf d3a0 be3e
000001f0: 414a a4bd e329 27be 3519 273f fc3f 533d
00000200: b032 7a3e d681 223e 15a0 29bd e2b2 463e
00000210: 11c3 95bd 4944 ad3e fc2a 693f ee38 8dbe
00000220: c021 b6be 3cc7 f1be aa00 8d3d db2e f4bd
00000230: a550 0b3e 7e77 7bbe 1d64 d0be a92f 24bf
00000240: fea9 763e e94e 14be a043 523d f0c7 043f
00000250: 5e04 743e e4ed 843d 08ba b73e 6467 e43d
00000260: 8bee 843e 70b9 1c3d a80e ae3e 550e dd3d
00000270: 01d2 aa3d cd41 853e 00e7 13be 0c55 ba3c
00000280: 3c9f ed3e d02e a1be 949c 96be 1849 e2be
00000290: 3cff aebe 92d5 9dbe 2897 00bd e40b 16bd
000002a0: 40a7 b4be 1066 92be 28d7 f1be e9f7 003f
000002b0: 46d9 cdbc 135c 183e 1b0f b53e 860c 933d
000002c0: 9e33 4f3e 1716 67be ea64 c23e 29ad 3ebc
000002d0: 7a16 833e 1cde 123e a6b3 c7be 4e7a 1c3f
000002e0: 9d33 1c3e eeb2 13be a4e1 ba3e fa10 9d3e
000002f0: 3e78 013f 32d0 93be 282f ecbe ebb0 03be
00000300: f9b3 323e a99f b4bb 032b 593d e28f e03c
00000310: a1d6 093e cdf7 0c3e fdbc 873d 3556 e13d
00000320: 5bea 2ebd a4ef 81bd 299a 273e b58e 013e
00000330: ecff 063f 0ada 0e3e 72b2 85bd b138 92be
00000340: 5f09 a2bd 61be a7be b390 4ebe f43c aebe
00000350: 1692 50be dc72 f03d e4ea a4be 7f06 07be
00000360: b575 19be 5064 2b3f 784a 053e cfbe 94be
00000370: 4186 9c3d 7281 8cbe dfe0 833c 39e7 01be
00000380: 8c88 573e 6d37 da3d 87ef 113e c743 4ebe
00000390: 960b 00bf 5842 32be eba8 bbbd 82cd 4b3d
000003a0: 05c9 25be 537d c7bd 9c3f 663e 187c a4bd
000003b0: 6490 40be a425 543e c043 be3e 7db4 aabc
000003c0: 1cea 1b3e 44ab c1be d446 07bd 5418 83bc
000003d0: 8900 7cbe 6ed5 cfbb ca3c 08bf 3d3c 35be
000003e0: 7f70 13be 121c 94be 4a8a 0e3e 54e6 853e
000003f0: 6641 153e 6ede dcbd a090 003e f3a6 803d
-0.19707136 0.0056208237 -0.19335522 -0.1944214 -0.24964945 0.15276845 -0.20808274 -0.2217426
-0.020114379 0.27069756 0.26807904 0.052072998 0.24153563 0.016512781 -0.21720709 0.21234716
0.37603235 0.45641294 -0.03013907 0.34220296 0.040065542 -0.11914942 0.038629003 -0.3403483
-0.20483167 0.25784934 0.14835314 0.019278241 0.11898622 0.10025143 0.055385273 -0.32589298
-0.016416254 -0.13568375 0.09739126 0.23039255 0.5970067 -0.14202161 -0.0019047955 0.1458313
0.401947 0.77021354 0.1263986 -0.017114816 0.9558095 -0.018028636 -0.11888893 0.07908495
-0.5469138 -0.38480473 0.045103304 -0.48879293 -0.3363009 -0.30977568 0.42600298 -0.47932628
-0.509627 0.33358803 0.2022457 0.33256358 -0.2226341 -0.08011262 0.216375 -0.20396873
0.21364224 0.015188112 -0.3229871 0.06733083 -0.47591898 -0.031451534 -0.2386888 0.12533863
0.32479692 0.27539855 -0.0356931 0.1922438 0.09753854 -0.22742094 -0.019614989 -0.34943804
-0.23837224 -0.16544226 -0.14589296 0.008925884 0.1721761 -0.51850903 -0.3366951 0.3533551
-0.39038134 -0.43010047 -0.10306474 0.5690816 -0.016370151 0.11096428 -0.3758612 -0.19522619
-0.025936725 0.46435073 0.026362272 0.14852434 0.28985083 -0.11039811 -0.4308813 -0.37523526
0.26848218 -0.15936469 0.0052807583 -0.059667192 -0.106924884 0.24742378 0.5042605 0.081490315
0.21650106 -0.109806456 -0.13243388 0.29345676 0.33095282 -0.06111997 -0.23206127 -0.49128866
-0.3913319 -0.30191383 -0.623344 0.37232074 -0.08021975 -0.16324572 0.6527284 0.051574692
0.24433398 0.15869841 -0.04141243 0.19404176 -0.073125966 0.3384116 0.91081214 -0.27582496
-0.35572624 -0.47222316 0.06884892 -0.119229995 0.13604982 -0.24557301 -0.4070138 -0.64135224
0.24088284 -0.14483227 0.051334023 0.5186758 0.23829791 0.064906865 0.35884118 0.11152533
0.25963244 0.038262784 0.33995557 0.10793749 0.08340836 0.26026765 -0.14443588 0.022745632
0.4641055 -0.31481028 -0.29416335 -0.4419639 -0.34179103 -0.30827004 -0.031394154 -0.036632434
-0.35283852 -0.28593493 -0.47234464 0.5037828 -0.025128018 0.14878874 0.35363087 0.07180123
0.20234534 -0.2256702 0.37967616 -0.011637964 0.25603086 0.1434254 -0.39004248 0.6112412
0.15254064 -0.14423725 0.36500275 0.30677015 0.505741 -0.28869778 -0.46129727 -0.12860458
0.17451467 -0.005512197 0.053019535 0.027412359 0.1346078 0.13766403 0.066278435 0.11002771
-0.042703968 -0.06344536 0.16367401 0.12652095 0.52734256 0.13950363 -0.06528176 -0.28558877
-0.07911944 -0.32762435 -0.20172386 -0.3403088 -0.20368227 0.11740658 -0.32210457 -0.13186072
-0.14986308 0.6694994 0.13016689 -0.29051825 0.076427944 -0.2744251 0.016098438 -0.1268586
0.21048182 0.10655103 0.14251529 -0.20143043 -0.5001768 -0.1740812 -0.09163078 0.049756534
-0.16189964 -0.097407006 0.22485203 -0.080314815 -0.1880508 0.20717484 0.37161064 -0.020838017
0.15226024 -0.37825978 -0.03302653 -0.016002811 -0.24609579 -0.0063425815 -0.53217757 -0.1769876
-0.14398383 -0.28927666 0.1391994 0.2615229 0.14575729 -0.107846126 0.1255517 0.06281843

conv1.bias f4 [20]
00000000: 61f3 bfbd 8cb5 21bd dfb7 023c 0000 0000
00000010: e553 b6bd fc77 2c3e 1796 d73c f222 183b
00000020: 1a15 a8bc 58a4 8fbd 1620 a8bd 5294 8abe
00000030: f64a 103e 0000 0000 e6c5 923d c16f 84be
00000040: 457e b5be 62f8 7f3d 13b9 5aba 33df 03bd
-0.09372593 -0.039479777 0.007978409 0.0 -0.0890272 0.16842645 0.026316686 0.0023214188
-0.020517875 -0.07013768 -0.08209245 -0.27066284 0.14091095 0.0 0.071666524 -0.2586651
-0.35447899 0.062492736 -0.0008343618 -0.03219528

pool1.weight f4 [20, 20, 3, 1, 1]
00000000: 9997 f6bc 04f1 c6bd b7c1 2b3e 1477 8cbe
00000010: 20d0 403e 0fa6 e7bc 0c23 253e be69 783e
00000020: 52b8 efbb f866 d1bd 6f00 1bbe f094 6fbe
00000030: ef67 c23e c4c3 d4bd 95a8 273e 53cf 5ebe
00000040: 693e 3bbe 8e52 bc3d c1ec ad3d c85e c2be
00000050: 9194 d03d dade ff3d 6d4e 773d 6ea9 813e
00000060: 0613 afbe ba0b cd3d 051d 4c3e 27ea 87be
00000070: 7fb1 dd3d f6f5 cd3e 3038 be3d db50 113e
00000080: 1f6d a7bb 1cbf babc c804 0d3e 6313 313d
00000090: 876d 36be 4e8c 0e3f 1c34 c03d f1d1 4c3e
000000a0: a339 49bc ec8a 85be 43d1 34bd 0970 3c3d
000000b0: d5b6 afbd 7720 5d3d 43ba a0bd a26d 183d
000000c0: 6db7 6e3e 73bb 0abe f1e2 61be 9a49 2a3e
000000d0: 12e5 cf3d c241 41bc 7d64 483e 6e36 94be
000000e0: 6b7c 983c 654c f7bc 4710 c1bd ec42 4a3e
000000f0: 7a95 bf3e 2d49 42bd 3bde 163e 057c c6bd
00000100: ece3 273d 1b07 3e3e ef60 d7bd 071d 113d
00000110: c094 5d3e de07 a03e eb33 6d3d 0114 3cbe
00000120: c6b1 7b3e 4f39 8c3d c020 94be cfde b7bd
00000130: 5e0c 4cbc 8bc0 8c3d 02d0 a53e be86 f03d
00000140: 66f7 e53d 9bda a03c ec32 503e 6b08 1a3e
00000150: 6f21 81be 0ad4 273d 903a 0dbc 8adc 6c3e
00000160: 92a1 41be bc3c 0dbd 895c 3dbe f6ea 113d
00000170: 507d 3c3c 6ca0 5bbd ed82 5d3e 87f3 273e
00000180: 2c0c babe f37f 78be 114c 4c3c 3dd2 82bd
00000190: 08f4 ddbe fd42 663d 8a26 0bbe 60e0 f1be
000001a0: 2601 253e 5533 033e 0eaf ae3e a9f1 f43d
000001b0: 6213 7d3d 2be2 ab3e 4f04 183e ec85 0cbe
000001c0: 936d 44be f855 ee3d 9bef 0c3e c1a3 6cbe
000001d0: ee3c 44bd 622e 6cbe 6107 923e 5f0e 2bbe
000001e0: caee 95bb 5d30 f2bd abfd 3bbc abc1 573e
000001f0: 0900 4abf 088b 4a3e 269d c13e 1596 123f
00000200: 450d 54be 8cfd 813d e647 bf3e 5f60 9d3e
00000210: af0b 653d 502e b23d 40df 4c3d 4674 51be
00000220: 9a30 6f3e 5aa5 2d3e e6a0 aa3e 1675 423e
00000230: 5c11 f43d 06a4 8b3e b780 a23d fbd9 00bd
00000240: d7d1 90be 8246 2cbe cc1c d73c 016b 493e
00000250: 9b9e b4bd 1937 1dbf b31d 1b3d ff73 70be
00000260: 0e13 133d d9dd bbbe e172 a5bd 2977 98bb
00000270: fbb5 113e 8000 10be ce71 adbe 2c59 2c3e
00000280: ceab a5bd aebb 83bd 3f5e 0c3e 0600 12be
00000290: b3b6 0f3e 6865 f0bd 9c45 c93c 7474 263d
000002a0: 7609 033d 6386 143e c362 46be f497 87bd
000002b0: 0539 da3e d61a debe 63b6 983e 8827 34be
000002c0: 923c d1bc 9d41 3c3e fb17 22bc c436 99be
000002d0: b0a6 efbd d0ea 2cbe 95db 09be 33db 11be
000002e0: cc9a b8be 2f88 393e b97d b23e 2229 8bbd
000002f0: e7a0 02be ec2a 1c3d b1ae 773c 80bb 343e
00000300: 3570 f83c 3f15 c03d 7d0e 0cbf cbd2 223e
00000310: d17b 36be faef 59bd f663 cbbe 1b83 283d
00000320: cc12 e73e 2907 99bd afcb 0b3e 7cb4 703e
00000330: 2fdf 6dbe c622 2a3c 13fc 8abd 596e 6abe
00000340: 37eb 583e a7cf d33c 3341 0c3e 226f bd3d
00000350: 2454 c1be aace 4d3e f83e 01be 96c7 81be
00000360: ce42 803d f8e1 ebbe 6481 76be 0550 0b3e
00000370: 9237 0b3e ff3f f3bc 70d8 88be d264 3fbe
00000380: cdb1 8b3e e786 89bd 0045 4d3e 9fa0 fe3d
00000390: d6a1 a83e 68c8 7b3d 8f1d 4fbe f80e 1d3e
000003a0: ac76 a53e 57ca a9bd 2d09 7fbc ca2c 393d
000003b0: 4bb5 873e 78a9 0cbc bcbc 8c3e b8a5 e0bc
000003c0: 37a1 b5be 6f74 0abe 1cc6 36bd ace8 8bbc
000003d0: 15cd 55be b5bf 34be 440b 52be ad23 4ebc
000003e0: 075e 9cbd 9f94 9e3e 90b0 a4be 9d7f 0abd
000003f0: eb09 32be f8a4 1e3e e49c 16be 415e bebe
-0.030101584 -0.09713939 0.16773115 -0.274346 0.18829393 -0.028277425 0.1612665 0.24259087
-0.007315674 -0.10224718 -0.15136884 -0.23396659 0.3796992 -0.10388902 0.16372903 -0.21758775
-0.18285526 0.091954336 0.08492423 -0.37962937 0.10184587 0.124936774 0.060377527 0.25324577
-0.341942 0.10012002 0.19932945 -0.26545832 0.1082487 0.40226716 0.09288061 0.14191
-0.005109444 -0.022796206 0.13771355 0.04323138 -0.17815219 0.5568284 0.09384939 0.20001961
-0.012281808 -0.2608255 -0.04414488 0.046005283 -0.08579794 0.05398604 -0.078480266 0.03721393
0.23312159 -0.13548069 -0.22059228 0.1662964 0.101511136 -0.011795463 0.19569583 -0.28947777
0.018614015 -0.030187795 -0.09426933 0.19752091 0.3741873 -0.047433067 0.14733212 -0.096916236
0.040988848 0.18557398 -0.105165355 0.035428073 0.21638775 0.31256002 0.05791084 -0.18367006
0.24579534 0.06846868 -0.28931236 -0.08978044 -0.01245412 0.06872662 0.3238526 0.1174445
0.11228828 0.01963549 0.20331925 0.15042274 -0.2522082 0.0409737 -0.008619919 0.23131004
-0.1890929 -0.03448175 -0.1849233 0.035624467 0.011504486 -0.053619787 0.21631975 0.16401492
-0.3633741 -0.24267559 0.0124693075 -0.06387756 -0.43350244 0.05621623 -0.1358892 -0.47241497
0.1611372 0.1281255 0.3411793 0.119601555 0.061786063 0.3357099 0.14845394 -0.13722962
-0.19182424 0.11637491 0.13763277 -0.23109342 -0.04790967 -0.23064569 0.28521255 -0.16704701
-0.004575585 -0.11825631 -0.011474053 0.21069972 -0.78906304 0.19779599 0.37815207 0.57260257
-0.20708187 0.06347188 0.37359542 0.30737588 0.055919345 0.0870024 0.050017595 -0.20454511
0.23358384 0.16957608 0.3332588 0.18989977 0.119173735 0.27273577 0.07934707 -0.031457882
-0.28285095 -0.16823772 0.026258849 0.19669725 -0.08819314 -0.614122 0.03787012 -0.23481749
0.035906844 -0.36692694 -0.08078552 -0.004652877 0.14229576 -0.1406269 -0.3387589 0.16830891
-0.0808941 -0.064322814 0.13707827 -0.14257821 0.14034538 -0.11738092 0.024569325 0.040638402
0.031991445 0.1450439 -0.19373612 -0.0662078 0.42621627 -0.4337985 0.2982665 -0.17593205
-0.025541577 0.18384404 -0.009893413 -0.29924595 -0.11701715 -0.16886449 -0.1346267 -0.14243774
-0.360556 0.18118356 0.34861544 -0.06794955 -0.12756692 0.03812687 0.015117333 0.1764965
0.030326942 0.09379052 -0.5470961 0.15900724 -0.1782067 -0.053207375 -0.39724702 0.041140657
0.45131528 -0.07472069 0.13651918 0.2350635 -0.23229669 0.010384267 -0.067863606 -0.22893657
0.21183477 0.025855852 0.13696747 0.092497125 -0.37759507 0.20098367 -0.12621677 -0.25347584
0.06262742 -0.46070838 -0.24072796 0.13604744 0.13595417 -0.029693602 -0.2672763 -0.18690804
0.2728409 -0.06715184 0.20045853 0.1243298 0.3293597 0.06147042 -0.2022612 0.15337741
0.32317102 -0.082905464 -0.0155661525 0.04520873 0.26505503 -0.008585326 0.27487743 -0.02742277
-0.3547456 -0.13520978 -0.044622526 -0.01707872 -0.20879014 -0.17651255 -0.2051211 -0.012581748
-0.07635122 0.30972764 -0.32165956 -0.033813108 -0.17386596 0.15492618 -0.14708287 -0.37181285

pool1.bias f4 [20]
00000000: f41b febd 41f3 f8bd 4e9c 123d 4ca7 2b3a
00000010: d956 a93d a64f f13d 6e31 913b 2110 823d
00000020: e9f9 543d e050 bc3d 9205 b33d c56d 13be
00000030: 9f0c 05be 2b88 f8bc d3ad 1dbd f308 05be
00000040: fa35 a0bd dc8a edbd 9e33 8bbc ea4a 5abd
-0.124076754 -0.12155772 0.035793595 0.00065480615 0.08268518 0.1178277 0.0044309413 0.063507326
0.051996145 0.09195113 0.08741297 -0.14397343 -0.12993096 -0.030338367 -0.03849585 -0.12991695
-0.07822795 -0.11598751 -0.016992386 -0.0532941

conv2.weight f4 [35, 20, 3, 3, 3]
00000000: 0c79 0d3d 9bf2 cbbc f97e bebd 9d46 57bd
00000010: 3232 af3c 5040 0abc e93d 5d3c 4d5e 763d
00000020: 531a 6d3c b461 533b b8d7 543d 0fef be3d
00000030: f1ed 5c3d 2fdc 2abd 027a 6a3d 19b9 05bd
00000040: f680 b93c 57f9 34bc 6ed6 71bc 5a34 5ebd
00000050: ac0d 6ebc 7b39 803d cd05 ca3c cdb6 5cbd
00000060: 8061 173d 35e5 0abd f3a6 283d 85bc 163d
00000070: 5d51 243c 3773 ac3b 44c1 113e 426d f6bc
00000080: 2b06 553d ecb5 1f3d 9437 15bd d1c6 fa3d
00000090: bee1 e43c cfd2 c33d e97a e83d b713 f63d
000000a0: 88f3 e7bb ee33 6f3d fb87 2ebc 0a0f f6bd
000000b0: 2228 963d 564d 00be da52 bd3c ddf2 1fbd
000000c0: 2aba 71bc 0061 b3bd c538 05be 74ed c3bc
000000d0: ede8 abbd b589 a83c eb2a 823d 0292 2fbc
000000e0: c2ba 88bd 5944 9dbd 3d1f f33d 6a7b 713d
000000f0: 7c82 c4bc e153 c73c 8ce8 f1bc 9511 4bbd
00000100: 5b21 39bd 18f3 e6bd e302 aabc a017 4fbd
00000110: d4d8 903d 48e2 013e 943f dd3c 2e94 acbd
00000120: 4692 693d cff1 873d c70a 0ebd 81dc 633d
00000130: 9b88 373d d15b 9ebd 9a40 d33d 5fa0 323d
00000140: 9f76 d63c 613a 88bd 9b9b 88bc bcc9 b23d
00000150: d128 cfbd 0bdb 633d a4dd 1c3d 608f 00be
00000160: 7058 b53c f1e8 69bc 7f83 2f3d 8da8 fd3c
00000170: a491 863d b68d 75bd 7442 df3d 847d d33a
00000180: 9ec5 bd3c 5503 d93d 0647 26bd c5af 303d
00000190: d8f7 74bd 3bbd 343d 7ac4 103d 2b37 ac3c
000001a0: a7f1 e8bd 0d30 2ebb 23cc 9a3d def6 be3d
000001b0: 8a08 cdbc f69a a93c 0ccd 643d c0ac 703c
000001c0: 9421 863d 57fb 893d b7d4 993d 14f3 c33d
000001d0: 81b9 a53d afd5 93bd 1fc5 19bd aa33 b8bd
000001e0: 0a87 f03c bce8 973b 19d3 7cbd df19 a23a
000001f0: d52e 14bd c962 dfbc d14f 803d eb52 07bd
00000200: 75d0 283c c706 a73a 670c c2ba 47af a9bb
00000210: c967 e13d ec3f e03d 11cf 2abd 941a b0bd
00000220: 82d6 7cbd 23de 153d 77fc babc d13e bcbd
00000230: c26b 013b 076c b2bc 34d1 dfbb e1a1 2abd
00000240: 31ad 5cbd c938 dabd 93de 84bb 8ed0 cabc
00000250: 2868 d7bc 313a 1ebd baa9 e1bd 9920 cebd
00000260: c7b8 0a3d 73ea 253d 0cdf 283d e7e9 aa3c
00000270: c9f3 2c3d ff83 92bb 6025 33bb a3e0 4ebb
00000280: 8110 87bd 59a7 b8bd 137c 31bd 25e5 e8bc
00000290: 26f8 063e 7ec9 64bd dd44 7d3d 4636 a2bd
000002a0: 3126 bb3d 611c bdbd c577 27bc 9f6f 8ebc
000002b0: 3220 51bd 63c0 43bd 30b1 5cbd 89c6 0cbd
000002c0: ce31 1ebd 6984 4ebd 59a7 c5bd 6451 893c
000002d0: d057 9d3c 6070 083c 91bb 87bd ed09 973d
000002e0: 6abf 2c3c aed3 993c 7026 f8bc 0cb4 4abd
000002f0: 7cd1 133d 355d 223d 02f4 86bd 62f9 e8bb
00000300: 6857 6b3d dca9 95bd fa9a 8fbd 8b63 ecbc
00000310: b20a a2bd 0a0d c93b 7c8a e93d 6ce4 7abc
00000320: 2d9e 903c 23d4 b53b 6203 29bd 374d 81bc
00000330: 4620 d13c 393f 4e3d 6381 5b3e 6b7a d3bc
00000340: 9a79 d33c 34b1 c23c ddef 2b3d c1e9 8fbd
00000350: 83a6 083d 9e50 403d b3e7 b83c 027e cf3d
00000360: bb58 2bbc f402 34bc ba78 8ebd 5950 163d
00000370: 13c2 6cbd 0101 f0bb 03fb 893d 8a5c 1abd
00000380: 8d78 90bd 77e6 8b3d 0237 8b3d 9806 cebc
00000390: 9580 ce3d cab1 15bd b79e 7c3d c841 8abd
000003a0: d90f 32bd 0de9 1abd d189 da3c 66df 2a3c
000003b0: 7204 b2bd 2736 ceba e627 b8bd 15af e7bd
000003c0: 1d7c 373d 7ccb cdbc 1add 353c 7d01 41bd
000003d0: 783d 203c 274b f13c e106 4cbc 4fb7 033e
000003e0: 852d e5bc cf8d 0e3c 2761 183d 9038 8fbc
000003f0: 5ad3 afbc e530 543d 0365 83bd 80c5 02bb
0.034539267 -0.024895957 -0.09301562 -0.052557576 0.02138624 -0.008438185 0.01350353 0.060148526
0.014471608 0.003225428 0.051963538 0.093229406 0.053937856 -0.04171389 0.057245262 -0.032647226
0.022644501 -0.011045775 -0.014760597 -0.054249145 -0.014529627 0.062609635 0.02466097 -0.05388527
0.036958218 -0.033909995 0.04117484 0.03680088 0.010029164 0.005262758 0.14233881 -0.030081395
0.052007835 0.038991854 -0.036429957 0.122449525 0.027939674 0.09561693 0.11351568 0.12015479
-0.0070785917 0.058399133 -0.010652537 -0.12014587 0.073318735 -0.12529501 0.023110796 -0.03904997
-0.014753858 -0.08758736 -0.13009937 -0.023916937 -0.083940364 0.020573476 0.06355842 -0.010715963
-0.06676246 -0.07679052 0.118711926 0.058955587 -0.023988001 0.024331989 -0.029529832 -0.049577314
-0.045197826 -0.11276835 -0.02075333 -0.05055964 0.07072607 0.12683976 0.027007855 -0.084267005
0.057024263 0.06637918 -0.034678247 0.05563021 0.04480801 -0.07732356 0.10315056 0.043609973
0.02617961 -0.0665176 -0.016675761 0.08729884 -0.10115207 0.055628818 0.03829731 -0.12554693
0.022136897 -0.014276729 0.042850014 0.03096416 0.065707475 -0.0599496 0.10901347 0.0016135429
0.02316552 0.10596339 -0.040595077 0.043136377 -0.059806675 0.044125777 0.035343625 0.0210224
-0.113742165 -0.0026578933 0.07558467 0.0932443 -0.025028486 0.020703774 0.05585961 0.014689624
0.06549373 0.067373924 0.07511275 0.09567848 0.08092023 -0.07218491 -0.037541505 -0.08994229
0.029361267 0.0046358984 -0.061724756 0.0012367329 -0.036177475 -0.027268784 0.06265224 -0.03303806
0.010303606 0.0012743109 -0.0014804722 -0.0051783654 0.110061236 0.10949692 -0.04170138 -0.085988194
-0.061728008 0.0365888 -0.022825463 -0.09191669 0.0019748067 -0.021780027 -0.006830359 -0.041658286
-0.053876106 -0.10655362 -0.004054853 -0.02475765 -0.026294783 -0.038629714 -0.11018701 -0.10064811
0.033867624 0.04050679 0.04122834 0.020863486 0.04222468 -0.0044713016 -0.002733551 -0.0031567
-0.06594945 -0.09016294 -0.043331217 -0.028429577 0.13180599 -0.05585622 0.06183325 -0.07920508
0.09138144 -0.092339285 -0.010221426 -0.01738721 -0.051056094 -0.047790896 -0.053879917 -0.034369025
-0.038621716 -0.050419245 -0.0965106 0.016762443 0.019206911 0.008327574 -0.06627572 0.0737494
0.010543684 0.018777695 -0.030291766 -0.049488112 0.03608845 0.03963967 -0.065895095 -0.007109807
0.057456404 -0.07307789 -0.07011981 -0.02885606 -0.07912196 0.0061355876 0.11403367 -0.015313249
0.01765355 0.0055489703 -0.04126299 -0.01578389 0.025528084 0.050353263 0.21436076 -0.02581521
0.02581482 0.023766138 0.0419768 -0.07027007 0.033361923 0.046951883 0.02257142 0.10131456
-0.010458167 -0.010987032 -0.069566205 0.03669772 -0.05780227 -0.0073243384 0.0673733 -0.03768591
-0.07054243 0.06831067 0.06797601 -0.025149629 0.10083119 -0.036546506 0.0616748 -0.06750828
-0.043472145 -0.03781991 0.026677044 0.010429239 -0.08692254 -0.0015732691 -0.08991985 -0.11312691
0.044796098 -0.025121443 0.011100078 -0.04712056 0.00978028 0.02945478 -0.012452812 0.12862895
-0.027975807 0.008700802 0.037202027 -0.017483026 -0.021463085 0.051804442 -0.06415751 -0.0019954145

conv2.bias f4 [35]
00000000: bdd4 36bc 883d 64bb d250 83bc ef56 973c
00000010: 47e9 44bb f175 563c f7fb 083d fc24 6e3c
00000020: 965e 073b 7919 ebbb f7e8 d9bb a09c af3a
00000030: 79f4 173d d75c 0e3c 6811 553c 7191 8c3d
00000040: d53a 1e3d b11f 513d 77e5 f4bb 4d4f 8cbb
00000050: 4eae 81bb f8ad 113b 833b 52bb 1271 85bb
00000060: c185 d1bc a7f8 033d 8592 493d f9a7 d43b
00000070: 720b 283c f386 4e3c 0cf7 19ba 0061 ba3c
00000080: b238 10bc fd39 e33c 40cf 203d
-0.011159119 -0.0034826715 -0.016029749 0.01847407 -0.003004627 0.013089643 0.033443417 0.014535185
0.0020655743 -0.0071746674 -0.006650086 0.0013398118 0.03709838 0.008689127 0.013004638 0.06863678
0.038630325 0.051055614 -0.0074736434 -0.0042819143 -0.0039575463 0.0022228938 -0.0032078929 -0.004072317
-0.025576474 0.032219555 0.049211998 0.0064897505 0.010256635 0.012605417 -0.00058732997 0.022751331
-0.00880258 0.027737612 0.03926015

pool2.weight f4 [35, 35, 3, 1, 1]
00000000: 7e85 2dbe deb2 c73d 2ef3 a43d e49e 9c3e
00000010: 04eb 95bd 1bc5 e03d 9e4c c8bd 2ea7 be3d
00000020: 5f6e e43d 6c2b b9bc 69de 17be abc3 933e
00000030: c4b4 0dbe 5d63 4fbe 6b16 8cbe 7d06 a73d
00000040: a582 273d 1415 28be 442b 733e bc11 673e
00000050: 2ee0 59bd 5fdd 02bd 9aba cc3b a621 f73d
00000060: 16cd 4c3c c180 21bd 1c3b d0bc 6f5a 3ebe
00000070: a0b7 383d 70ab 38be 2ea1 823a 73ae fe3d
00000080: 73a3 6cbd 2070 a7bd 6842 0d3e 0db1 babd
00000090: f448 ab3e c859 a43d 1feb 93be 73ea aebd
000000a0: 4539 e5bd 0909 103e 5bc8 edbd cfa7 2dbd
000000b0: d945 6bbe be8c 94be d7cf dabc 05b7 a5bc
000000c0: 93d4 bc3d 64bd 803d 6b7a c33d 80d2 483e
000000d0: a84f 6bbd 54b3 84bd 8589 8c3d 6c9d 663e
000000e0: a0cd cd3d 8c30 8dbd 0bb0 99bd ecfe 153e
000000f0: 2bf9 8a39 7395 d1be fe1c 423e ba82 67be
00000100: 838f 2cbe 11bd 9a3d 625b 443d c2de 8a3d
00000110: 66c1 acbc feb5 73be 0c5a b93d 619c 223e
00000120: 0d2f b4bd aa12 c6bd d153 ffbd 8867 8cbe
00000130: 5357 b9bc 15b0 f03d 3308 1c3c f28e 38bc
00000140: df60 283c be57 223d 6c12 ef3c ccde c83c
00000150: e7ed d9bd dd00 0fbd 4527 07bd d73e 9ebc
00000160: f216 e2bc dc8a 813e b2ab 08bd 0bc4 8ebd
00000170: d453 18be 0d37 2dbd d6ee 4c3e 8355 133e
00000180: 4d8d 5fbe 7b9c 2fbe bee3 cbbd ff80 b43c
00000190: 942a 923d fd94 8d3d 1329 25be cb01 753d
000001a0: c6e5 b23e 81a6 92bd a3dc 413e 266f 253e
000001b0: a431 f63d 3233 543d a352 4c3e 6db7 25be
000001c0: 2ab1 bfbd 57c3 47bd 358f 1f3d a01b a83d
000001d0: efbe 1c3c 70bc d4bd 9ec8 d2be c249 493d
000001e0: 2974 b1be 6cb0 5ebd 49a7 003d 98ce 91bd
000001f0: 199f b5bc aa57 cb3d c5f1 b33d e95a 5dbd
00000200: 1d67 8bbd 4ac6 cc3c b593 fa3d 4897 73bd
00000210: eb19 8c3d 641e 783b d023 acbe b494 3f3c
00000220: edbd a7bd 2343 6cbb 54af 3f3c 11e4 c63d
00000230: 9acb 63bc bba4 a8bd f1a5 14be 966a fcbd
00000240: ca57 45bd c105 a93d 359e 833d ef98 a5be
00000250: ba1b 2e3c 43cd 193e 8392 7c3e 21c8 073e
00000260: 8ffe 33be d9c9 4ebd 45b7 1ebb 8d31 cabd
00000270: 36a0 39be cb15 26bd ca8e 67bc d22d 3dbe
00000280: d70b 333d a0f0 00bd 1cc3 45bc 717d 093e
00000290: 2b17 c63d 792b 98bd ab5e 863e e3f2 493e
000002a0: 1227 31be 3be6 69bb 24cc 87bd 7c2b 153e
000002b0: faa4 bfbe b69b d939 6818 5cbc 02dd 8d3e
000002c0: 71f6 86be bd90 a7be c3aa 5abd c42b b0bd
000002d0: 4663 4cbe 7c43 90bd 8d55 5abd 269e 3d3c
000002e0: 33d3 9e3d e259 4f3e 3155 973d 2404 1d3e
000002f0: 9d9b 7ebd b85c 873d ad60 1b3e 8257 f7bd
00000300: 7e64 953e 719d 033b 549e 82bc 6008 b23d
00000310: 26b0 90bb ce32 4b3e 7ab2 953e 70e6 eabd
00000320: 3389 613e 4ce4 f7bd 6a07 dbbc 514d f03d
00000330: 85e4 813e 49da d63d fd45 88be 5ad5 08bd
00000340: 57d0 a03b 3ba5 b9bd 9cfb 17be 270c c43b
00000350: da7f 113e 0bec 58bc b066 b73d 5821 8e3d
00000360: e7c5 36bd 77e5 cdbd 330a 35be 43e4 28bd
00000370: 0c97 bf3d 535f b5bd b4e7 16be 272d ba3d
00000380: cc65 1f3d 5d31 5d3c 41e6 bebd cc62 8b3d
00000390: 35b6 9ebd 9e78 20be b491 fe3c 368d 9a3d
000003a0: f07d 283e f669 dd3d f4c2 443d a7b3 e23d
000003b0: b0c7 acbe 5ed7 0c3e c124 413e df1e b4be
000003c0: f579 583e 72aa 2bbe cb0c 6a3e 13e2 e7bd
000003d0: 5b57 f23c 5203 663d 89d5 b5be a390 b5bd
000003e0: 7fb7 223e 2779 1a3e 3523 06be a313 033e
000003f0: a6bc c0bc e969 423d 98da babd ba84 e9bd
-0.16945454 0.09750913 0.08054195 0.30589974 -0.07320216 0.10975095 -0.097802386 0.09309231
0.11153864 -0.022603713 -0.14830936 0.2886022 -0.13838488 -0.20252748 -0.27360854 0.081555344
0.040896077 -0.1641429 0.23746973 0.22565359 -0.05319231 -0.031949397 0.0062478306 0.12066965
0.012500068 -0.03942943 -0.02541881 -0.18589185 0.045096993 -0.18034148 0.0009966248 0.12435617
-0.057773065 -0.08175683 0.13794863 -0.09115801 0.33454096 0.08024937 -0.2889032 -0.085408114
-0.11192564 0.14065947 -0.116104804 -0.042396363 -0.22975864 -0.29013628 -0.026710434 -0.020228872
0.09220233 0.062861234 0.09544834 0.1961155 -0.057449013 -0.064795166 0.06862167 0.22520989
0.100489855 -0.06894025 -0.07504281 0.14648026 0.00026507056 -0.40934333 0.18956372 -0.22608462
-0.1685162 0.07555593 0.047938712 0.06780769 -0.021088313 -0.23799893 0.09050378 0.15879966
-0.08798037 -0.09671529 -0.124671586 -0.27422738 -0.022624647 0.11752335 0.009523439 -0.01126455
0.010277002 0.03963446 0.029183589 0.0245203 -0.106410794 -0.034912933 -0.032996435 -0.019317074
-0.027598832 0.25301254 -0.033366866 -0.06970986 -0.14875728 -0.04228883 0.20012984 0.14388089
-0.21831246 -0.17149536 -0.09955548 0.022034166 0.071370274 0.06913183 -0.1612895 0.059816163
0.34940928 -0.07160664 0.18931822 0.16155681 0.12021187 0.051806636 0.19953398 -0.16183253
-0.09359963 -0.048770275 0.038954932 0.08208394 0.0095670065 -0.10387504 -0.41168684 0.049142607
-0.34658936 -0.054367468 0.031409536 -0.07119483 -0.02217059 0.0992883 0.08786348 -0.054041777
-0.06806777 0.024996895 0.12235204 -0.059470445 0.06840881 0.003785991 -0.33621073 0.011693168
-0.08190522 -0.0036050759 0.011699516 0.09711469 -0.013903523 -0.08234545 -0.14516427 -0.12325017
-0.048179425 0.082530506 0.0642666 -0.32343242 0.010626728 0.15019707 0.24665265 0.13259937
-0.17577575 -0.050485466 -0.0024218124 -0.09872732 -0.18127522 -0.040548127 -0.014133165 -0.1847451
0.043712463 -0.031479478 -0.0120704435 0.13426758 0.09672388 -0.07430167 0.262441 0.1972156
-0.1730006 -0.0035690207 -0.066307336 0.14567369 -0.37430555 0.0004150548 -0.013433553 0.27707678
-0.26359895 -0.32727614 -0.053385507 -0.08602098 -0.19959745 -0.070441216 -0.053304244 0.01157335
0.07755127 0.20249131 0.07389296 0.15333611 -0.062160123 0.066094816 0.15173598 -0.12077238
0.29178232 0.0020082856 -0.015944637 0.08693004 -0.00441553 0.19843599 0.2923773 -0.11469734
0.22024994 -0.12104091 -0.026736934 0.11733497 0.2536966 0.10490853 -0.26615897 -0.033406593
0.0049076485 -0.09064718 -0.14842075 0.005982894 0.14208928 -0.013239871 0.08955133 0.069399536
-0.044622328 -0.100535326 -0.17679672 -0.041233312 0.09354982 -0.08856072 -0.14736825 0.090906434
0.03891544 0.013500539 -0.09321261 0.068059534 -0.07749597 -0.15671012 0.031075336 0.07546465
0.16454291 0.10811226 0.048037484 0.11069422 -0.337461 0.13754031 0.18861677 -0.35179803
0.21140273 -0.16764238 0.22856443 -0.11322417 0.02958267 0.05615551 -0.35514477 -0.08865478
0.1589031 0.15085278 -0.13099368 0.1280046 -0.023527455 0.047464285 -0.09123725 -0.11402269

pool2.bias f4 [35]
00000000: 4b77 963b 389a ad3c 5051 8e3b 9092 c13c
00000010: 36b2 903b 35fd 8e3c 1f39 243d 496b 523c
00000020: 060b 13bd 3a56 0d3c 7a80 89bc 9a3f d93c
00000030: 205c 1dbd 2a11 853a 4a43 43bc d4d9 413c
00000040: 3018 d1bc d225 febc a898 333c d987 393d
00000050: de37 aebc ffc1 3c3c eebe 293d f8e2 80bc
00000060: 8b6d a33c 3c0e a6bc eb02 eb3a 3688 c83c
00000070: 6167 06bc 39b5 20bc 1252 ab3b b5f3 553c
00000080: 134e 3ebc 0f6b 833c b294 473c
0.0045918575 0.021191701 0.0043431893 0.023629457 0.0044157756 0.017454723 0.040093537 0.012842962
-0.035899185 0.008626515 -0.016784895 0.026519585 -0.038417935 0.001015221 -0.011917898 0.011831719
-0.025524229 -0.031023894 0.010961689 0.04529557 -0.021266874 0.011520862 0.04144185 -0.015733227
0.019949695 -0.02027046 0.0017929947 0.024479013 -0.008203358 -0.009808832 0.0052282894 0.013058593
-0.011615294 0.01604226 0.012181448

conv3.weight f4 [35, 35, 3, 1, 1]
00000000: f866 87be ce43 b2bb 295e 7ebe 25d6 a43d
00000010: c3a5 143e c381 083d 22a7 083e 17a8 d63c
00000020: d2e2 9b3d 4227 b5bd 2e79 a83d 9cc3 4b3e
00000030: 78c7 323e 8093 113e 114b 543e e7ab 9d3d
00000040: eae3 3abc cfec 0d3e 084c 063e c9f2 2ebd
00000050: 55b2 61bd 8f21 1b3e f837 0ebe a30c e5bd
00000060: 4255 2dbd aed6 2c3e e7a8 023d 0c0c 3f3e
00000070: e9b3 63be fe7e 5c3e 11e7 1ebd 62a2 323d
00000080: 1377 0dbd 18e8 d13d 146a ecbd 2fa5 20be
00000090: bdbf ad3d bf3b fd3c 7f3c a4bc 1aff 5b3e
000000a0: c85c d0bc 3126 a03d d5b7 09be 3e76 3f3e
000000b0: 6795 053e dbf2 2e3e 6a25 c13d 7929 f73a
000000c0: 1a4a 25bd db6f 38be 3c40 79bd 59bd 54bd
000000d0: 3a42 26bc 2c3b 483e bdf9 c1bb c806 1d3e
000000e0: 4533 80be d8da 3cbd fe2c 9dbd 3f72 433d
000000f0: a269 8dbe 659f 57be 7b5b 663d a80e dc3d
00000100: 87df 403b 6583 98bd d475 11be 6b6e 153d
00000110: 983c 353d b749 7dbe ed8d 1ebe 8e40 403e
00000120: 8f3d 8abe 49d8 99b9 b5a4 ba3e 6d1e c1bb
00000130: 56d4 a43d f18a eb3d dba6 bfbe 277d 8e3d
00000140: 0b8d 393e a28b 60bc 2f81 d83d d209 e13c
00000150: 06e8 6c3e e313 7bbd 19c3 6bbe 7cc9 3f3d
00000160: b03c 37be 0931 17bb 9f7e 953d c68a e1bd
00000170: 82ae dc3d de35 87bd 02e5 83bd 840d 303e
00000180: a37e 563e 5785 2fbd e239 3b3c 3e02 963e
00000190: 894c a0bd b118 af3d bb78 883d 3c1c 0ebd
000001a0: 0fb3 4cbc f446 c0bd 521f d2bd 7e58 593d
000001b0: 291b 4ebe 7e17 ad3b 869b 7bbc 2c17 f9bd
000001c0: 6202 013e 6b6c 073e b6be f8bc 5e77 f23a
000001d0: 8311 c2bd 9028 0e3c e130 903d 7daf 583e
000001e0: de5f edbb e616 8e3d 2785 513c 8577 dabc
000001f0: 6cb8 ae3d b090 09be 2a41 313e fcac 0ebe
00000200: b996 e73d 4b8d 073e b93f 073e 8995 543d
00000210: c3a2 53be 8d12 bf3e 6db9 8cbe 2ecd 1b3e
00000220: 2dd3 7e3e 146c 3f3d 79c8 d53e be56 b7bb
00000230: cac0 b7bd 75e8 263d 5157 b53d 757e 4d3d
00000240: 553c 983c 78a8 7dbe 7f4c 453c be2e a43d
00000250: 6b46 2f3c bb80 423e e1ba c23c dad8 aa3e
00000260: ef8e d1bc d1cd a23d d59e c13b 252e 0bbe
00000270: a88f a4bd 6ecf 61be 6c44 453e 999d 6ebd
00000280: d81b 23bd 6f2f bbbd 7153 8c3e bd81 da3d
00000290: 8af6 5f3e ab04 6fbd 66e9 dfbd a288 94bd
000002a0: 994c b23d aaa8 8d3e 04a9 a6bd 9e23 943d
000002b0: a051 f73d 58b8 11bd c7f2 6f3e 3998 a2be
000002c0: 3c3a cbbc a593 a73d 449f 323d 048e dbbd
000002d0: c935 91bd 60eb c63c 19c1 f03d 825d 4abe
000002e0: 76ef a23d 2b8c 243e 6188 04be d610 ccbd
000002f0: 8328 0c3e 1763 58be c313 493d 38f1 623e
00000300: 4560 083e 732a 373e 225f 133b 5b63 353e
00000310: 37b8 44bd 1522 0a3e c482 f9bd 9431 ac3d
00000320: 9a36 d33d c90b 6c3e 94b0 04be eff6 143e
00000330: 91b6 bb3d 7105 bebd b95d 78be f163 e6bd
00000340: 8a39 063e 1ea8 0cbc 3994 2abe bc8f a33c
00000350: 9ced 4d3d 2d40 723c 3831 18be f15d 70bd
00000360: 00b2 92be d12a b8bd 2cf9 7f3d 1925 0b3e
00000370: fd74 1f3e 46b3 333d 9071 263e 0bfa 01be
00000380: e860 153c 98df 4c3e cd14 993d f717 85bc
00000390: f67a e7bd f233 78be 8d72 df3c 8de4 0dbe
000003a0: 9c97 3dbd 6ce8 05be 972c 36be 59e2 aabd
000003b0: d3e6 5b3e 5f84 e03e 7535 27be ee5f a13e
000003c0: d94b d2bd 9f14 ee3c a09e 123e d110 093e
000003d0: c746 d3bc 9ef5 633d 18e0 01be a9c6 913d
000003e0: 006b 3bbe 5e31 02be 1d3a 25be 8a2b 743d
000003f0: ff88 973d 6da5 003e cc70 2dbe e029 87bd
-0.26445746 -0.005440212 -0.24840607 0.08048657 0.14516358 0.033326875 0.13345006 0.026203198
0.07611622 -0.088453785 0.08226238 0.19898838 0.17458904 0.14216423 0.2073176 0.076988034
-0.011406878 0.13859867 0.13114941 -0.042712007 -0.05510171 0.1514952 -0.13888538 -0.11184051
-0.042317636 0.16878769 0.03189936 0.1865694 -0.22236599 0.21532819 -0.03879458 0.04361189
-0.034537386 0.102493465 -0.1154367 -0.15688013 0.08483837 0.030912278 -0.020048378 0.21484032
-0.025434867 0.078197844 -0.13449033 0.1869745 0.13045274 0.1708483 0.09430964 0.0018856964
-0.040353872 -0.1801142 -0.060852274 -0.05193839 -0.010147626 0.19553822 -0.0059196637 0.15334618
-0.25039116 -0.046107143 -0.07674597 0.047716375 -0.27619654 -0.21056898 0.056239586 0.10744983
0.0029430108 -0.074469365 -0.14205104 0.036482256 0.04424724 -0.24735151 -0.15483828 0.18774626
-0.2700009 -0.0002934358 0.36453786 -0.0058935196 0.08048312 0.1150111 -0.37431988 0.06957465
0.1812021 -0.013705166 0.10571515 0.027470503 0.23135385 -0.061298262 -0.23023643 0.04682301
-0.17894244 -0.0023069999 0.07299542 -0.11012797 0.10775472 -0.06602071 -0.06440164 0.17192656
0.20946746 -0.042851772 0.011427375 0.29298586 -0.07827098 0.085496314 0.066636525 -0.034694895
-0.012493863 -0.09388533 -0.1025988 0.05306291 -0.20127548 0.0052823415 -0.015356904 -0.12162623
0.12598565 0.13224952 -0.030364376 0.0018498709 -0.09475996 0.008676663 0.07040573 0.21160693
-0.0072440943 0.06937961 0.012788094 -0.02666832 0.085312694 -0.134341 0.17310014 -0.13933176
0.11308045 0.13237493 0.13207902 0.05190042 -0.20667557 0.3731884 -0.2748522 0.15214989
0.24885245 0.04673393 0.4175451 -0.0055950573 -0.089723185 0.040749032 0.08854545 0.050169427
0.018583456 -0.24771297 0.012042164 0.08016728 0.010697941 0.1899442 0.023770751 0.3336857
-0.025580851 0.079494126 0.005908827 -0.13591821 -0.08035213 -0.22051784 0.19264382 -0.058255766
-0.039821476 -0.091399066 0.2740741 0.10669277 0.21871391 -0.05835406 -0.10933189 -0.07252623
0.08706016 0.27667743 -0.08137706 0.07233356 0.120761156 -0.035576195 0.23432456 -0.31756762
-0.024808042 0.08182458 0.04360892 -0.10720447 -0.07090337 0.024282157 0.117555805 -0.19762233
0.0795583 0.16069095 -0.1294265 -0.09964149 0.13687329 -0.2113155 0.049091112 0.2216233
0.13317974 0.17887287 0.0022487123 0.17713682 -0.048027243 0.13489564 -0.12183145 0.08407894
0.10313149 0.2305137 -0.12957984 0.14547323 0.09165681 -0.092783816 -0.24254502 -0.11249531
0.13107887 -0.008585004 -0.16658105 0.019965999 0.05027543 0.0147858085 -0.14862525 -0.05868334
-0.28651428 -0.089925416 0.06249349 0.1358837 0.15571971 0.04387214 0.16254258 -0.1269304
0.0091173425 0.20007169 0.074746706 -0.016246779 -0.1130275 -0.24238566 0.027276302 -0.13856716
-0.046287164 -0.13076943 -0.17790447 -0.08343954 0.21474771 0.4385099 -0.16328986 0.315185
-0.10268373 0.029062567 0.14318323 0.13385321 -0.025790585 0.05565416 -0.12683141 0.071179695
-0.18302536 -0.12714145 -0.1613545 0.059611835 0.07399177 0.12563105 -0.1693756 -0.06599784

conv3.bias f4 [35]
00000000: 2514 0c3d 18ab 573c 7ad6 0dbd d828 eebc
00000010: 8fe6 103d 621f 803b 510e 4f3c 0867 993b
00000020: d07e 6a3a 1818 1dbc fb0a 983c 7c4f 2fbc
00000030: 9a30 fcbb 1b18 8bbc 3882 7e3d c7ec 8a3b
00000040: 5426 42bc 719b 85bc 236b d13c ffe7 fabb
00000050: 6889 ecba 6750 943c 5061 6a3d aa5c b53c
00000060: 36ce e63c 518f a43a 817a 9fbc b280 af3c
00000070: 38be ddba 1cd0 3b3d ab5e 9ebb d34f cfbc
00000080: 08a6 ba3c 92f3 d6bb 6e17 63bb
0.0341989 0.0131633505 -0.03462837 -0.02907221 0.035376128 0.003909991 0.012637691 0.0046814717
0.0008945288 -0.009588264 0.018559923 -0.010700103 -0.0076962234 -0.016979268 0.062135905 0.004239652
-0.011849958 -0.016309472 0.025563782 -0.0076570506 -0.0018046321 0.018104745 0.05722171 0.022138912
0.0281745 0.0012554919 -0.019467594 0.021423671 -0.0016917652 0.045852765 -0.0048330626 -0.025306618
0.022784248 -0.0065597976 -0.0034651416

conv4.weight f4 [35, 35, 2, 1, 1]
00000000: 9154 dfbd b01f 39be ec34 c83d e438 8fbd
00000010: e306 093e 3799 61bd 94b0 ccbe cde2 b03e
00000020: 8eea 0a3e 9486 863e 9692 503d 47bd 643e
00000030: bac6 21be 0378 09be 5921 d33c b7a7 0c3d
00000040: e005 3cbd 46d4 093e ce08 7b3e 4803 a0be
00000050: d9de 013b d81b 173e c1ca 9ebe 6e06 f63d
00000060: f6e3 0bbe bb36 073e 642d 193e 7d53 de3d
00000070: 22bd 013e 5dc5 c9be 45ce cd3e 6e4b b5bd
00000080: 0626 c13d 08d0 1bbe 56c7 f9bb 03c9 f73d
00000090: 23b8 58be dc13 783d 6d13 44bd 6ac7 d3bd
000000a0: 1d9e ac3d 0bd4 b43e faf7 453e dfd5 74be
000000b0: b614 b3be da83 8c3e d71f 6a3d a463 913e
000000c0: fb01 b6bd 6974 0fbe 398c 66be db64 b1bd
000000d0: e1ae e63c 4172 823c c725 32be 64d4 f03d
000000e0: 867c 93be 06a8 8c3e 10aa 2fbd 650c 51be
000000f0: 9df2 32be 5290 8a3c b8e0 183d 0844 a13e
00000100: bd41 813e 03e3 39be 2e27 473e 6df4 763c
00000110: ed1c 83bd 9c14 e1bc 5fa7 d03e 743c e6bc
00000120: b19e 603e f2db 0cbe e3c2 973e 43cd 303e
00000130: 1fbb c6bd 41a0 313e a3eb 4fbe 4f63 aa3d
00000140: 5d27 7c3d 0de2 fdbc cc8a 87bd bcd0 85bd
00000150: d304 12be 3c23 6e3d a4f6 1f3e 95c0 01be
00000160: 9fa1 03bd 287d 443e dcad a83e b7b2 69bc
00000170: 012f 30bc 0bc7 60be 4794 11be a04e 0bbe
00000180: e08e 9a3d 7740 46be 8eac fb3d ab1a 2a3d
00000190: 6654 25be 5d11 81be 6ad2 7f3d e79c 7dbd
000001a0: 9c61 3dbe d475 40be 3b57 73be b0aa 813e
000001b0: e5b6 94be 1b2b 543d 6b97 0ebe 9f9e 543d
000001c0: b01e 743e f810 0dbd ad4c c63d 2f8e f13d
000001d0: 3b61 7a3e 051c 76bd 91bb cebe e6f9 1cbc
000001e0: 0520 e1bd 6eac 86bd cfc9 ddbd 79cf 52bd
000001f0: ff3f f83c 7dde d9be 3949 94bd c1ea 05be
00000200: bc43 013e 6984 dbbd 9d76 293e 4756 453e
00000210: 36bd 29bd b755 4c3c 2ddf 4a3e 3e13 d6bd
00000220: 3de8 f43d a33a af3d e9de f9bd 1f09 963d
00000230: 0a33 6c3e ce59 523d 0227 01be ec93 5dbe
00000240: ae3a ca3e f65a 773b 2772 903d 8020 9abc
00000250: c28b f83d 1d2e 98bd 820d 21be d131 16bb
00000260: 28cf c3bd b867 593e ce8e 843e 16f5 a4bc
00000270: 38c1 04be 9970 a2be 38ed 343e 3047 8abd
00000280: a2e5 87bd 06d2 d3bd 963c ba3e 3823 d4be
00000290: b341 43bd 3b40 b0be 99d9 40be 6f1c 39be
000002a0: 9848 65bc f68b 88be 6005 623c 7816 4ebe
000002b0: 547c cdbd 7f44 50be 72fe a1bd 8b0b 0ebe
000002c0: 8068 e3bd d5b7 6f3d a381 9bbe cc98 57be
000002d0: deb6 95bd dbd8 11be 33c1 0b3e c842 efba
000002e0: b7be 1ebe d3c4 c93e 8d9e f53b 93fb 12bd
000002f0: 9132 473d fb97 d93d ad8d 4d3d 6b0f cabd
00000300: d23b 55be 0bef d0bd 7b9d 8f3e 772c 99bd
00000310: 38ec 853e d3f9 323e be23 1ab9 dc43 2c3d
00000320: 9a03 c93e 44c1 e13d 0941 96bd 6ec1 03be
00000330: ae2f 97bd 4953 2abe 861f 773d 9967 b3bd
00000340: 88e2 37be 9398 2ebc 06e7 ed3c cb7a 9fbe
00000350: 75d6 5cbe efb9 ebbd e248 ab3e 2f83 1fbe
00000360: 5fe5 f4bd b1d9 033e 3304 01be 0cb6 9b3e
00000370: a594 ab3b 0b30 98be 2d2d 4e3e 673e 7e3d
00000380: 763b f3bc 1160 44be 3275 acbd 0ee8 c2bd
00000390: d5cc 113e 2b8a 60bc 8b30 dfbd ef07 1e3d
000003a0: cdbe 153e df75 a4be c150 04bd 2455 883e
000003b0: ea44 123e c1b4 00be 0f70 2dbe f0df 0e3d
000003c0: 0455 0dbe 9a7a 453e ca2c 8abd 63ab 5abe
000003d0: 4dff 243c f912 dabd 053c 4b3c e131 8cbe
000003e0: 123f 4b3d e760 a1be e2bc b93e 9621 95bd
000003f0: fc56 a63e 348b 4ebe c89f f83e 4122 233e
-0.10904802 -0.18078494 0.09775719 -0.06993273 0.13381533 -0.055077758 -0.39978468 0.34548035
0.13566038 0.2627455 0.050921045 0.22337829 -0.15798464 -0.13424687 0.025772737 0.034339633
-0.04590404 0.13459882 0.24515077 -0.31252503 0.0019816665 0.14756715 -0.31014064 0.12012945
-0.13661179 0.13204472 0.14958721 0.10855768 0.12669805 -0.3940839 0.40196434 -0.08852278
0.094310805 -0.15216076 -0.0076226396 0.12098887 -0.21163993 0.060565814 -0.04787009 -0.103407696
0.08428595 0.35318026 0.19332877 -0.2390971 -0.3497674 0.27444345 0.05715927 0.28396332
-0.088870965 -0.1400925 -0.22514428 -0.08661815 0.02815956 0.015923621 -0.17397223 0.1175926
-0.2880594 0.27471942 -0.042886794 -0.20414884 -0.17475362 0.01691452 0.037323684 0.31497216
0.25245467 -0.18153004 0.1944854 0.015072924 -0.064020015 -0.027475648 0.40752694 -0.028104998
0.21935536 -0.13755777 0.29640874 0.17265801 -0.09703659 0.17346288 -0.20304732 0.08319723
0.061560977 -0.030991578 -0.0661827 -0.065339535 -0.14259653 0.05813907 0.1562143 -0.1267112
-0.032136556 0.19188368 0.32945144 -0.0142638 -0.010753394 -0.21950929 -0.1421672 -0.13604212
0.075467825 -0.19360529 0.122887716 0.04152934 -0.16145477 -0.2520856 0.062456526 -0.06191721
-0.18494266 -0.18794948 -0.23763745 0.25325537 -0.29045787 0.05179892 -0.13924949 0.051909085
0.23839831 -0.03444001 0.096825935 0.117946975 0.24451153 -0.060085315 -0.40377477 -0.009581065
-0.10992435 -0.06575857 -0.108295076 -0.051467393 0.030303953 -0.42552558 -0.072405286 -0.13077833
0.12623495 -0.107186146 0.16549154 0.19271193 -0.04144021 0.012471608 0.19811697 -0.10452889
0.119583584 0.08556106 -0.1220072 0.073259585 0.23066345 0.051355176 -0.12612537 -0.21638459
0.39497894 0.0037743426 0.07053023 -0.018814325 0.12136032 -0.074306704 -0.15727809 -0.0022917876
-0.09560996 0.21230972 0.258902 -0.020136397 -0.12964332 -0.3172653 0.17668617 -0.06751859
-0.06635596 -0.10342793 0.36374348 -0.4143312 -0.047670078 -0.34424004 -0.18833007 -0.18077253
-0.0139943585 -0.26669282 0.013795227 -0.20125759 -0.10033479 -0.20338629 -0.0790986 -0.13871591
-0.11103916 0.058524925 -0.30372342 -0.21054381 -0.0731027 -0.1424288 0.13647918 -0.0018254155
-0.1550244 0.39407977 0.0074957074 -0.03588445 0.04863221 0.10624691 0.05018394 -0.09866222
-0.20823601 -0.10201844 0.28049836 -0.07479184 0.26156783 0.17478113 -0.000146999 0.042056903
0.3926056 0.110231906 -0.07336623 -0.12866756 -0.07382141 -0.16633333 0.060332797 -0.08759994
-0.17957509 -0.010656494 0.029040825 -0.3114837 -0.21566184 -0.115100734 0.33454043 -0.15577386
-0.119578116 0.12876011 -0.12599258 0.30412328 0.0052362257 -0.29724154 0.2013442 0.06207123
-0.02969144 -0.19177271 -0.08420791 -0.09516917 0.14238293 -0.013704817 -0.10897931 0.038581785
0.14623566 -0.32121179 -0.032303575 0.26627457 0.14284101 -0.12568952 -0.16937278 0.034881532
-0.13801962 0.1928505 -0.06746824 -0.21354441 0.010070634 -0.1064815 0.0124044465 -0.27381805
0.049620695 -0.31519243 0.3627692 -0.07281797 0.3248824 -0.2017029 0.48559403 0.15931036

conv4.bias f4 [35]
00000000: c0ce cdbc c837 f43c ac44 d83c 68bd a83c
00000010: 3e29 dd3c 9593 b03c d340 563c 3356 e03c
00000020: 9f18 803d f93a debb 51a7 c83c e6cb 0bbd
00000030: 18d5 af3c 9d27 84bb 30ff 5dbd a9e3 84bc
00000040: 338a 1a3d ac94 0c3d a3f9 5bbd aa8a 24bd
00000050: 1703 ecba 3c37 183d fb65 9fbc 28f7 463c
00000060: 19b9 803c 5726 f9bc 3fa6 983c da08 b23c
00000070: 1b73 d7bc 3c2a 58bd 572f 41bd 8cae c2bc
00000080: 45c1 1cbc a033 863c 68a7 7dbc
-0.025123 0.029811755 0.026399933 0.020598128 0.026997205 0.021554748 0.013076979 0.027384853
0.06254696 -0.0067819324 0.024493845 -0.03413 0.021463916 -0.0040330426 -0.054198444 -0.016221838
0.037729453 0.034321472 -0.05370487 -0.040171303 -0.0018006292 0.03716205 -0.019457808 0.012143888
0.015713261 -0.03041379 0.01863396 0.021732736 -0.026300004 -0.052774653 -0.047164287 -0.023764871
-0.009567563 0.016382039 -0.015481807

fc.weight f4 [17, 945]
00000000: 47b4 bcbb fdf3 7a3d 73e1 d43c b716 3d3c
00000010: 11f8 7f3c 38bc 073d d62f 533d 4e3a f7bc
00000020: ff7f e13d ab95 5ebd 314b 9bbc f1f8 593b
00000030: f050 09bd 60fd 5ebc c150 0fbc a9f8 7bbb
00000040: f4af 50bd 4a91 783b 54c8 e33a d2dc 373d
00000050: eb7d 7bbd e2f8 fd3d c036 9f3c 4353 97bd
00000060: 77e4 a33c 7699 053c 21c2 dc3c c5ec 903c
00000070: e524 123d 0a68 77bd aefc b3bc 0d23 c43c
00000080: 25cd a4bc 737c a9bc ca15 96bc df25 a83d
00000090: ad22 54bd 974b a0bc e0fc f8bc 5374 b83c
000000a0: 853e 05bc 591f aabc ae0f 21bd c686 e9bc
000000b0: fe67 7b3d e806 ea3c ac6d c3bc 49a6 6dbc
000000c0: b33f 93bd 7165 e4bc 4f92 0bbd 72eb 30bc
000000d0: fe14 7ebd 4c74 9f3b 1afa 063d 8442 41bd
000000e0: f102 ed3c f46f a13c 3408 dd3c 50ac c13c
000000f0: c663 a53d d865 0a3d 70f3 40bd 1378 fdba
00000100: 848c bcbc f10a 09bd 76bd a3bb 4e16 7dbc
00000110: 4a78 013d a1d3 173d 83dc 733c 5de6 38bc
00000120: 2671 493d 6604 713c 50b0 53bd 8198 d8bc
00000130: 9b6f d7bc 144c d83c b658 46bd e3b5 3cbb
00000140: 5b67 823c 4b07 f439 3a53 f53b 5b8d a33a
00000150: e128 783d befe 67bc c67c 62bb a63c be3d
00000160: 63b2 c3bb e505 edbc a669 1cbe 1064 303d
00000170: e6c8 19bd d062 783d ac0c efbc 7a6e 8abd
00000180: 5a14 0a3c df2b aabc fef4 9d3d 0674 093d
00000190: 1dae c2bb b1cb ebbc 1e4d d23c 9d19 3cbd
000001a0: 6668 413d 026c 16bd 16c0 1dbd 253d dc3b
000001b0: fa14 983c 26bd 2fbd 4bbf 6f3d 4356 1abd
000001c0: bc09 45bb a870 b13a c95b 833c df94 03bd
000001d0: 0981 02bd 16cd 603d fed8 833d 5a43 173c
000001e0: b2b1 fe3b 914f 01bd 462f 143c 83e7 81bd
000001f0: 8c9b fbbb 35fa b43b 5640 7e3c 98a9 353d
00000200: 3187 88bc df23 2e3d a21b 723c 3911 ac3c
00000210: 9c0c cc3c c7d0 253d 0f99 5f3c 45ff 343c
00000220: de93 1dba 93a6 8fbd 1812 7a3d 166b 413c
00000230: b908 a33c 5940 183d d307 0bbd 5776 273d
00000240: 0cb6 8fbd 5593 4fbd e4f3 79bc e7f7 cebc
00000250: 6c53 443d d899 4abd a916 0abc d9ff deba
00000260: 8db2 3ebd a01f 3e3d 1789 7ebc e850 b9bc
00000270: 3415 acbc 21b5 dd37 75d7 44bd 3d6c 86bd
00000280: bb70 98bc 6141 d9bb 2c06 733d 3bf7 5dbd
00000290: af6d 97bd c349 063d a198 50bc 1e52 ec3c
000002a0: b1ac f33c fe79 81bd a0db 9b3c 4122 563c
000002b0: 7e63 58bd 4fc1 adbc ed6c d43d 5889 813c
000002c0: 7b99 7d3a e04f 3e3d 99f3 abbc c433 1bbc
000002d0: a1ba 833b 7e0c 1ebd 53be ab3c 9e33 e6bc
000002e0: 8b9c 9ebc 35d6 17bd 071e 143d 76cb 07bd
000002f0: 8d83 d2ba 2e8b 883d a51b 753c 70c6 cebd
00000300: ee52 4fbd a56b c7bd 1152 a53d 5f39 19bc
00000310: bc1f 8a3c b3a5 de3c 614e bd3d aaa7 14bd
00000320: 0a58 84bc d3bb 603d 09ec 2d3d 3c54 5b3d
00000330: e2c6 a6bc 457f bd3c d836 5abc 13a0 943d
00000340: b0ee f7bc 10b3 e73d 9c47 8dbc 865f 283d
00000350: 561a 61bd 1a98 d23b 9113 323d ac9c 3ebc
00000360: 8d01 ab3d 27b5 033d 1da9 a3bd e89a 833b
00000370: 81b5 823d c33b 93bd dd6b fabc 719f 9bbc
00000380: 5276 fcbc 65c6 5a3d 312b b9bd dedf 94bc
00000390: ba2b 1abd 0c6c 10bd feed bbbc 8bed 023c
000003a0: 4e1d 6dbd 6619 f5bb 9502 8fbd 9c53 fa3b
000003b0: c420 2fbd d1e5 04bc b25a 303c 6c3c 6b3b
000003c0: c863 93bd 23bc 3bbd 8947 003b f57e 90bd
000003d0: 1f7c 3c3c 7411 a8bc 047d a03d 6f54 4d3c
000003e0: b9ae 02bd f823 cfbc 2881 a9bc 7613 603d
000003f0: 9a2e 31bd 9d3a 1c3d d4e4 bf39 d45e 85bc
-0.0057587954 0.06126784 0.025986409 0.01154106 0.0156231085 0.033138484 0.05155929 -0.030179169
0.110107414 -0.054341953 -0.018956752 0.0033259953 -0.033524454 -0.013610214 -0.008747281 -0.0038447774
-0.050949052 0.0037928396 0.0017378428 0.044888325 -0.06139938 0.12400986 0.019435287 -0.07388928
0.020006401 0.008154264 0.026948037 0.017691026 0.035679717 -0.060401954 -0.021971073 0.023942495
-0.020117352 -0.020689225 -0.018320937 0.08210348 -0.051790882 -0.019567294 -0.030394018 0.022516405
-0.008132582 -0.0207669 -0.039321594 -0.028506648 0.06137847 0.028567746 -0.023856007 -0.0145049775
-0.07189884 -0.027880402 -0.034075078 -0.010798322 -0.06203174 0.0048661586 0.03295336 -0.047182575
0.028932067 0.019706704 0.02698145 0.023641735 0.08075671 0.033788532 -0.04710716 -0.0019338153
-0.023016222 -0.0334577 -0.0049969507 -0.015447212 0.031608857 0.03706706 0.014884117 -0.011285392
0.049180172 0.014710521 -0.051681817 -0.026439907 -0.026298335 0.026403464 -0.048424445 -0.0028794936
0.015918424 0.0004654474 0.007486728 0.001247804 0.06058586 -0.014159856 -0.0034559234 0.092889115
-0.005972193 -0.028933475 -0.15274677 0.043064177 -0.037545107 0.06064111 -0.029180847 -0.06759353
0.008427704 -0.020772872 0.07712744 0.033557914 -0.005941166 -0.028783651 0.025671538 -0.045922864
0.047218703 -0.036724098 -0.038513266 0.006721156 0.01856469 -0.042904995 0.05853204 -0.03767992
-0.0030065617 0.0013537602 0.016034978 -0.032124396 -0.03186134 0.054883085 0.06437872 0.009232366
0.007772648 -0.03157002 0.009044474 -0.063429855 -0.0076784547 0.005522991 0.015518269 0.04435119
-0.016666027 0.042514678 0.014777096 0.021004306 0.024908356 0.04048231 0.013647332 0.011047189
-0.00060111086 -0.070141934 0.06105241 0.011805316 0.01990162 0.03717074 -0.03394301 0.040884342
-0.070171446 -0.050677616 -0.015255902 -0.025264693 0.04793112 -0.049463123 -0.008428254 -0.0017013504
-0.046556998 0.04641688 -0.015535614 -0.022621587 -0.021006204 2.6429598e-05 -0.04805704 -0.065636136
-0.018608442 -0.006630108 0.059332058 -0.054190855 -0.07393967 0.03278519 -0.012731702 0.02884775
0.029745432 -0.06322096 0.019025624 0.01306969 -0.05282926 -0.02121034 0.103723384 0.01581256
0.00096740545 0.046462893 -0.02099018 -0.009472791 0.0040200506 -0.038586132 0.020964777 -0.028100785
-0.019361755 -0.037069518 0.03616145 -0.03315302 -0.0016060934 0.066671714 0.014960204 -0.10096443
-0.050616197 -0.097373284 0.080722935 -0.009352057 0.016860835 0.02717862 0.09243465 -0.03629271
-0.016155262 0.054866623 0.04246143 0.05354713 -0.020358507 0.023131976 -0.01331874 0.07257094
-0.030265182 0.1131345 -0.01724606 0.041106723 -0.054956757 0.0064268233 0.04347569 -0.011634033
0.08349905 0.032155182 -0.0799124 0.004016269 0.063822754 -0.07189133 -0.030569011 -0.018996926
-0.030818138 0.05341186 -0.09041441 -0.018173154 -0.037639357 -0.03525929 -0.022940632 0.007991205
-0.057889275 -0.0074798344 -0.06982914 0.0076393615 -0.042755857 -0.008111433 0.010763811 0.0035894169
-0.07196766 -0.045833718 0.0019573888 -0.07055465 0.011504202 -0.020516135 0.07836345 0.012532338
-0.03190491 -0.025285706 -0.02069147 0.05470606 -0.043257333 0.038141835 0.0003660085 -0.01628057

fc.bias f4 [17]
00000000: da05 97bc 561e 1bbc 0680 3f3d 0ff8 3e3d
00000010: 8e71 e33b 1e47 73bc 1ae6 d9bc 184c 8dbb
00000020: 4e7f 24bc 2363 2b3b 86ad b43c 7110 d9bc
00000030: dd8f af3c 6fe2 35bc de77 2c3a 4d1a bf3b
00000040: e076 01bd
-0.018435407 -0.009467682 0.046752952 0.046623286 0.006941027 -0.014848499 -0.026598979 -0.0043120496
-0.010040117 0.002615162 0.022055399 -0.026497098 0.021430904 -0.011101349 0.0006579141 0.0058319927
-0.03160751
